experiments/other/models/checkpoint_actor_2.pth (torch_old, 529855 bytes, 6 tensors)

fc1.weight f4 [300, 33]
000000 c2 86 02 be df cb 70 3e d2 6a c9 3d 56 ba 95 bd
       -0.12746719 0.2351527 0.098348275 -0.073109314
000010 3a f3 8f 3d c7 7d 4e bd f5 2e 25 be f6 01 21 be
       0.07028814 -0.05041292 -0.16131194 -0.15723404
000020 6e 5c 07 be 2a e1 92 bb 92 c7 40 3d 06 34 06 be
       -0.13218853 -0.004482408 0.047065325 -0.13105783
000030 ae fc 30 be b2 e7 b4 be ab b1 62 3e fb 1c 90 be
       -0.1728389 -0.3533302 0.22138087 -0.2814711
000040 fd c1 c6 3d 91 b6 fd be 20 f9 87 3e d2 11 54 3d
       0.09704969 -0.4955335 0.26557255 0.051774807
000050 d2 4a d5 bd fc 70 31 be 8f f8 53 be ee 67 fe bd
       -0.104146615 -0.17328256 -0.20700286 -0.12422167
000060 df 8d 4a 3e 1a 6e 9a bc 95 a7 80 bc 82 43 18 3d
       0.19780682 -0.018851329 -0.01570491 0.037173755
000070 9f b9 86 3e 4e e8 5a 3d a0 6c da bd 0c e2 82 3c
       0.26313493 0.0534442 -0.1066525 0.015976928
000080 11 6c 56 3f e1 d4 8f 3e e4 05 67 3b 28 49 aa be
       0.83758646 0.280921 0.0035251314 -0.3325894
000090 bd 8a cb bd 1d 3c f4 3d 7d b2 67 3d ca 11 77 3d
       -0.099385716 0.11925528 0.056566704 0.0603197
0000a0 49 0d 91 3e 63 13 87 3e 66 ee 62 be ab f7 7e 3d
       0.28330448 0.26381978 -0.22161254 0.062247913
0000b0 31 f8 1c bd 5c b4 8d bd 17 9e 23 be 17 c7 d3 3e
       -0.03832263 -0.069191664 -0.15978275 0.4136283
0000c0 82 a7 59 3e e9 4d 6f be 9b 09 db 3b 4f e7 bb be
       0.21255305 -0.23369564 0.0066844947 -0.36699912
0000d0 0e c4 a7 bd 3c f8 a5 bd 3f c1 1c 3c 22 a3 89 bd
       -0.08191691 -0.081039876 0.009567558 -0.06720568
0000e0 0d e5 4c bd 3d 40 e2 bd 2d c4 df 3d 3b fe 26 3e
       -0.050023127 -0.11047409 0.109260894 0.16307919
0000f0 dd 7e b1 3e e3 d6 89 be 2e 5e 47 3d cf a7 9d be
       0.34667102 -0.26921758 0.0486738 -0.3079209
000100 94 e9 30 bd 7c 66 59 be 91 04 82 3d df ab d2 3e
       -0.043191507 -0.21230501 0.06348527 0.41146752
000110 1e a6 8e 3d 0f a1 cc bd 45 67 3f 3d 31 37 73 3d
       0.06965278 -0.09991657 0.046729345 0.059378807
000120 36 c3 72 3e 9c b1 d4 3e 61 d4 68 be 0f ec 05 3c
       0.2370728 0.41541755 -0.22737266 0.008173957
000130 10 f3 ba 3c 11 e1 46 3c 49 1b 8a be 6c fa 51 be
       0.02282098 0.012138621 -0.26973942 -0.20505685
000140 78 88 84 3d 55 62 b1 3e 15 6d 86 3e bb 63 de bd
       0.06471342 0.34645334 0.26255098 -0.10858866
000150 21 ed 38 be 7a 0c 52 be 01 17 3c 3e 10 d3 dc bd
       -0.18059207 -0.20512572 0.1836815 -0.107824445
000160 71 7f d0 bd 46 8b 14 be 3b 30 71 be ce 49 8c 3d
       -0.101805575 -0.14506254 -0.23553555 0.068500146
000170 c8 cf 89 3d 4f 19 a6 3e e9 34 a2 bd 8c 8f 7d bc
       0.06729084 0.32441184 -0.07920248 -0.015476119
000180 69 21 b6 be d6 78 4b bd 08 80 22 bd 12 13 67 be
       -0.35572365 -0.049675785 -0.03967288 -0.22565868
000190 16 17 ab 3e ef 6f 44 bd 04 b5 bd be 50 de 98 3e
       0.3341605 -0.04795831 -0.37052166 0.2985711
0001a0 fe 3a fa bd 86 67 50 3e 92 de 81 bb 6a 46 be 3e
       -0.12218283 0.20351991 -0.0039633 0.37163097
0001b0 85 f2 13 3e af 83 12 bb ae 61 73 3d d1 fc 42 3e
       0.14447983 -0.0022356322 0.059419326 0.19041754
0001c0 dc 9e 83 3e 71 a0 6d 3e 9d c5 0e be 0c 7a 57 be
       0.25707138 0.23205735 -0.13942571 -0.21042651
0001d0 b2 a9 7e 3e 51 68 74 3d 93 43 36 3e c1 1a 85 be
       0.24869421 0.059669796 0.17799215 -0.25996974
0001e0 b6 1a dc 3d 56 d8 03 bf dd 3b 11 3e 5a c0 1c bb
       0.10747282 -0.5150198 0.14182992 -0.0023918361
0001f0 42 97 65 be 71 02 29 be 99 f9 a4 bd 6a 43 05 bd
       -0.22420982 -0.16504838 -0.080554195 -0.032534994
000200 f8 d8 b8 3c 76 fd 01 3e 5c 0c 65 3d 80 3e 7f 3f
       0.022564396 0.12694344 0.05591999 0.9970474
000210 de 84 ea 3c e2 4f f3 bc 2c 18 eb be d5 e4 93 bd
       0.02862781 -0.029701177 -0.4591688 -0.072213806
000220 0e 96 b8 bd 25 fd 88 3e ca 06 9b be ef 5c f3 bd
       -0.09012996 0.26755634 -0.30278617 -0.1188296
000230 ee 81 80 3e ab bc 1b be 0b 27 06 3d a0 97 3c be
       0.25099128 -0.1520869 0.032752078 -0.18417215
000240 a9 ba 05 be 37 1e 07 bd e3 96 c0 3e fb ad b4 3e
       -0.13059486 -0.0329878 0.37615117 0.35288987
000250 ba 85 21 3e 3b 88 83 3d dc ca 62 3c 47 7d 02 be
       0.15773669 0.06422468 0.013842311 -0.12743102
000260 c4 8a b0 bc 14 fd 84 bd d2 0e 99 bd 8d 19 9e bd
       -0.021550544 -0.06493583 -0.0747353 -0.07719717
000270 3b e1 9e 3d b8 eb 9f 3c 17 90 ae 3e 32 f6 17 3e
       0.07757803 0.01952158 0.34094307 0.1484001
000280 1f 11 09 be 50 c5 cc bb a5 0e bc bd 4a dc 04 3d
       -0.13385437 -0.0062491074 -0.09182481 0.032436647
000290 23 91 c9 3e 3a 07 c2 be 17 1e a5 be 91 66 2a be
       0.39368543 -0.37896138 -0.3224952 -0.16640688
0002a0 7d f9 d1 be 95 dd 10 3e 61 79 22 3e 82 82 8d 3e
       -0.41010657 0.14147027 0.15866615 0.27638632
0002b0 ff a3 53 3d bf 39 07 be 50 6e a6 bd 67 a9 a7 bd
       0.05167007 -0.13205622 -0.08126509 -0.08186608
0002c0 2d d4 ab bd 6a c8 ec bd 07 c9 a7 3e 17 a2 07 3f
       -0.08390079 -0.115616634 0.3277056 0.52981704
0002d0 d3 d2 b0 3e bd 29 48 3e f2 88 10 be bd b1 e4 bd
       0.34535846 0.19547172 -0.1411474 -0.111667134
0002e0 2e 78 12 bd 05 8e a8 3d f6 ca 7e 3d da 6b 7a bc
       -0.035759144 0.08230213 0.062205277 -0.015284503
0002f0 c9 98 00 3e 4f 1b 36 3d 90 fc 59 3e 1e bf 01 be
       0.12558283 0.044459637 0.21287751 -0.12670562
000300 d3 0a 04 bd ed 71 e5 be 6d 1f 64 bd fd f7 ef bc
       -0.032236885 -0.4481348 -0.055694032 -0.029293055
000310 e8 17 14 bd 4d 3b e3 3e 7c 05 05 3e d0 dc c3 3e
       -0.03615561 0.4438118 0.12990373 0.38254404
000320 c0 5a 05 be 04 b0 97 be 3e 4a e8 3e 19 f4 a9 be
       -0.130229 -0.29626477 0.45369142 -0.33194044
000330 a9 89 0a 3f db 18 f9 3d 92 9e de be 17 0b 18 be
       0.541163 0.12162944 -0.43480355 -0.1484798
000340 af 93 ad bd ce 98 6b 3d bb 1e 30 be 36 af 62 3e
       -0.08475434 0.057518773 -0.17199223 0.2213715
000350 75 3c 5e 3e 71 a9 12 be 29 48 4f 3e fd c4 cd bd
       0.2170275 -0.1432245 0.2024237 -0.10047338
000360 4a 39 10 be 18 d7 33 be e4 69 c8 bb 0f ed a9 bb
       -0.14084354 -0.1756252 -0.006116139 -0.0051857303
000370 2c ae df 3e 8e f5 0e 3e 89 bc c3 3d 41 6d 07 be
       0.4368757 0.13960859 0.095574446 -0.13225271
000380 8d fb e4 bd fd ac 8d 3e 42 04 aa 3e da 8b 67 3d
       -0.11180792 0.27671042 0.33206373 0.056529857
000390 80 fa 8b be 78 f1 05 3d d6 a6 1b 3e 60 ab 8e 3e
       -0.27339554 0.032700986 0.15200362 0.27865124
0003a0 ce a4 03 3d cb 5e 3f 3c 95 1a d2 3d a5 a1 22 3d
       0.032139592 0.011680315 0.10258976 0.039704937
0003b0 54 5e 00 bd 70 39 13 3e ec 31 04 3d b6 50 1d be
       -0.03133996 0.1437738 0.03227417 -0.1536282
0003c0 76 68 6a 3e a7 b7 97 3e b8 02 4d bc be 7b e1 3d
       0.22891411 0.29632303 -0.012512855 0.1100993
0003d0 04 7d 8d 3e c2 c0 fa bd 84 83 48 be aa b6 56 3e
       0.27634442 -0.12243797 -0.19581419 0.20968118
0003e0 02 e4 ca 3d ec 52 c4 be ae 49 30 3e 11 40 c8 3b
       0.0990677 -0.38344514 0.17215607 0.006111153
0003f0 e9 52 89 3c 08 b1 e5 3d 47 58 cc 3c af 00 1c 3e
       0.016763167 0.11215407 0.024944438 0.15234636

fc1.bias f4 [300]
000000 25 2b 69 3d ca 50 2d be 94 50 81 be 69 82 91 3a
       0.05692591 -0.1692535 -0.2525679 0.0011101487
000010 46 ea 45 bc 2a e4 94 bd 90 9e 90 be 3e 3e 89 bd
       -0.012079781 -0.07270081 -0.28245974 -0.06701325
000020 f0 42 9e bd 8c a5 46 be b4 bb d9 be 27 69 cc be
       -0.07727611 -0.19399089 -0.4252602 -0.39923975
000030 f7 77 39 be f5 7e 84 be 9a dc d8 be 44 73 09 bf
       -0.18112169 -0.2587811 -0.42355806 -0.53691506
000040 fc e2 4d 3d 18 6c 08 be a0 b1 9d be 7d 94 b4 be
       0.050265297 -0.13322484 -0.3079958 -0.35269538
000050 89 c5 21 be fe cb 8c 3c 42 35 0f bf 97 2b 15 be
       -0.1579801 0.017187115 -0.5594064 -0.1456741
000060 93 ee e0 be f6 e7 60 be 3b e3 e3 bd ee 47 69 be
       -0.43932018 -0.21963486 -0.11127325 -0.22781345
000070 19 b7 df be 8a 3b c7 be 4d dd f4 be c1 b5 14 be
       -0.4369438 -0.38912612 -0.4782509 -0.14522459
000080 e0 22 da bc 7b 12 dc be 0e 11 c8 be a9 0e 98 be
       -0.026627958 -0.4298285 -0.39075512 -0.29698685
000090 f5 a5 be be d8 1d 80 be 94 90 d3 be 54 24 09 3e
       -0.3723599 -0.2502277 -0.41321242 0.13392764
0000a0 e0 4e c4 be 34 13 c9 be ac 7f 31 be cf e8 d3 be
       -0.38341427 -0.39272463 -0.17333859 -0.41388556
0000b0 71 91 e1 be 22 1d f7 be 35 9a c7 3c 60 ae c2 be
       -0.44056275 -0.48264414 0.024365524 -0.38023663
0000c0 eb c9 39 bf f4 2c 97 be f5 ca ab bd 3d 83 c3 be
       -0.7257373 -0.29526484 -0.0838832 -0.38186064
0000d0 b1 93 d6 be 32 11 5e be e6 37 9c be 52 b4 a4 be
       -0.41909555 -0.21686247 -0.30511397 -0.32168823
0000e0 15 ba 87 3d 20 1e b2 be fb 8f 10 3d 76 89 85 bd
       0.06627289 -0.3478861 0.03529356 -0.06520359
0000f0 e1 f6 ff 3d 75 e6 9e be 3c fc 04 bf 97 ec c6 be
       0.1249826 -0.310352 -0.5194738 -0.3885238
000100 4c 5a 84 be 93 ed cd ba e2 cd 10 bf 92 5f b5 be
       -0.2585014 -0.0015711061 -0.5656415 -0.35424477
000110 8a 48 83 be 4f 07 1d bf 08 6f 2e bf a9 02 93 be
       -0.2564128 -0.6133928 -0.6813817 -0.28712967
000120 88 41 a6 3d a4 e3 32 be 8d d7 88 be 2c a7 fb be
       0.08117968 -0.1746965 -0.26726952 -0.4915098
000130 43 92 ad bd 12 d4 8e be 0a 74 0e bf a1 76 f1 be
       -0.08475163 -0.27896172 -0.5564581 -0.4716082
000140 d6 0b 76 be e7 66 ca be 27 9e c4 be 4a cf 8d be
       -0.24027953 -0.39531633 -0.3840191 -0.27697212
000150 aa 9f 54 be bd 31 5c be c7 67 38 be a0 5b a6 be
       -0.20764032 -0.21503349 -0.18008338 -0.3249178
000160 43 95 9c be 1f 41 2a bc d0 64 f6 be 7d 90 11 bf
       -0.30582628 -0.010391503 -0.4812379 -0.56861097
000170 67 e3 f7 bd 31 34 c3 be 30 92 da be 6b 40 0f bf
       -0.121039204 -0.38125756 -0.42689657 -0.5595767
000180 03 78 da be a7 41 3c be 1c 5b 29 be ad 2b 89 be
       -0.42669687 -0.1838442 -0.16538662 -0.26791134
000190 15 c2 4d 3c 1d f6 0b bf 13 d5 31 be 5a 8e e3 be
       0.01255848 -0.54672414 -0.17366438 -0.44444543
0001a0 b2 9c 55 bc 03 3d 07 bf c7 9b 8b be d1 d8 d2 3d
       -0.013037847 -0.5282747 -0.27267286 0.10295261
0001b0 9d cd d4 bd 7d 3a b9 be 1f 8b b0 be c4 19 0e bf
       -0.1039078 -0.36177436 -0.3448114 -0.55508065
0001c0 3a b7 85 be d8 49 8c 3d 09 66 ab bd f3 2b 01 be
       -0.26116353 0.06850022 -0.08369071 -0.12614422
0001d0 2b e9 d1 be 3b be 1e 3e d4 16 e5 bd 81 82 06 bf
       -0.40998206 0.15502255 -0.11185995 -0.52542883
0001e0 b0 c9 c7 3d c0 8d a7 be e5 7a 0a bf 69 f4 c7 bd
       0.09755266 -0.32725334 -0.5409377 -0.097634144
0001f0 27 c4 88 be 03 88 04 bf 6e 59 cc be 6a 5f 42 3d
       -0.26712152 -0.5177004 -0.3991198 0.047454275
000200 0a 00 82 be 08 11 f9 be 63 75 a2 be 2c 4c 5e be
       -0.25390655 -0.48645806 -0.31730184 -0.21708745
000210 1f 5d 8c be b4 63 ad be 7d 10 56 be 57 17 69 bd
       -0.27414796 -0.3386513 -0.20904727 -0.056907024
000220 91 92 b1 be a2 35 9a be 28 f2 ad be fb 1e 01 be
       -0.34682134 -0.30119044 -0.33973813 -0.12609474
000230 ad 65 e4 bd 7d 50 2c 3e 61 1c a0 be 05 0b 78 be
       -0.111522056 0.16827579 -0.3127165 -0.24222954
000240 aa 84 b7 bd 29 ef ce be 90 ee 0a bf b3 d4 d8 bd
       -0.089608505 -0.4041684 -0.5427027 -0.10587444
000250 00 3b be be 06 17 6a be e6 d7 ed be a7 87 89 be
       -0.37154388 -0.22860345 -0.4645378 -0.26861307
000260 a6 e6 62 bb ed a7 e4 be 27 74 b2 be 06 9c 4c be
       -0.003462234 -0.44659367 -0.34854242 -0.19981393
000270 1f d6 bf be 02 83 52 3d 76 62 9a be 0b c8 ff be
       -0.3746805 0.05139447 -0.30153245 -0.49957308
000280 f4 6b 57 bc 71 48 43 bc 1a b1 3c 3d 60 80 2d be
       -0.013148297 -0.011919127 0.046067335 -0.16943502
000290 c1 4b 85 bd 1e 6b 72 be d9 10 20 bf 2d 65 75 3e
       -0.065085895 -0.23673674 -0.6252571 0.23964377
0002a0 b3 d8 c0 bd 28 6a fe be 1f 60 b9 be 04 99 90 3d
       -0.09416332 -0.49690366 -0.36206147 0.070604354
0002b0 11 db 1b be 37 4b f7 be 56 a6 9a bd 7c bd 2b be
       -0.15220286 -0.48299572 -0.07551257 -0.16771501
0002c0 c7 b5 06 bf 08 13 fc be e4 b6 75 be 92 74 0f bf
       -0.5262112 -0.4923327 -0.23995548 -0.5603725
0002d0 1e e9 1b be 06 d8 f4 be 70 9e c6 be cd dc 64 be
       -0.15225646 -0.47821063 -0.38792753 -0.22349854
0002e0 3b e6 a8 be 78 ad 50 3e 87 a0 9e be 73 e4 67 bd
       -0.32988152 0.20378673 -0.30981848 -0.05661435
0002f0 ae 0e da be 82 48 f0 be 7d ee ef bc 01 44 0d bf
       -0.42589325 -0.4693032 -0.029288525 -0.5518189
000300 e2 ec ae be ad 76 c8 be 6a bf 71 3d 2c 2e a4 be
       -0.34165102 -0.39153042 0.059020437 -0.32066476
000310 93 7d 14 be ca 0b 82 be b0 04 1e be 61 0a f8 be
       -0.14501028 -0.2539962 -0.15431476 -0.48445418
000320 3a e8 93 be 08 af 99 be 17 d1 ef be 69 d8 cc be
       -0.28888112 -0.3001635 -0.4683921 -0.40008858
000330 e2 0b 3d be 25 9b bb be 75 60 9e be c1 ba 2b be
       -0.18461564 -0.36641803 -0.30932966 -0.1677046
000340 02 1a 88 be f3 35 0d bf 38 05 55 be 50 71 c4 be
       -0.26582342 -0.55160445 -0.20802772 -0.383677
000350 28 b1 c3 bd 81 96 a7 be 65 9f a5 be 91 8e ce be
       -0.09555274 -0.32732013 -0.3234817 -0.40343145
000360 de d1 a3 be 36 bf a2 be c9 52 c9 be 05 68 06 bf
       -0.31996053 -0.31786507 -0.39320973 -0.5250247
000370 53 8c ad be fc 5d 3f be 55 86 0d bf ee d1 21 be
       -0.3389612 -0.18688196 -0.552831 -0.15802738
000380 fd 9a d7 be 79 85 b3 be 70 05 88 be 96 ac 2a be
       -0.42110434 -0.3506277 -0.26566648 -0.16667399
000390 76 18 c4 bd 47 9a 6b be ba 5a aa be cc 93 8a 3c
       -0.09574978 -0.23008071 -0.33272344 0.016916178
0003a0 6c 2e 92 be 87 be 3c be 58 44 23 be db ef 03 bf
       -0.28551042 -0.18432055 -0.1594404 -0.51537865
0003b0 4f 9f 1e be d7 c3 c9 3c 0b 73 e4 be d0 5b 61 be
       -0.15490459 0.024629517 -0.4461902 -0.2200768
0003c0 1c 53 89 be 8f f5 0a bf 3b 86 80 bd e6 90 25 bf
       -0.2682122 -0.5428094 -0.062756024 -0.6467422
0003d0 cd a1 3e 3e ab 85 89 be df 5e 5b be d7 3b 9b be
       0.1861641 -0.26859793 -0.21422909 -0.30319092
0003e0 e0 b2 15 be d7 f1 b4 be 22 e1 a3 3d 2e 1d c3 be
       -0.14619017 -0.3534076 0.08001925 -0.381082
0003f0 0c 5b c5 be 95 c4 0b 3e 4d 0d 03 bf c0 08 ad be
       -0.38546026 0.13649209 -0.5119217 -0.33795738

fc2.weight f4 [400, 300]
000000 c2 41 79 bd 40 99 3d be 2c ae 95 3a b9 ec 9a 3c
       -0.060853727 -0.18515491 0.0011419705 0.018911706
000010 eb fd f7 3b c0 b9 8c 3e 12 b1 58 bd fa d9 cf bd
       0.007568111 0.27485466 -0.052903242 -0.101489976
000020 50 93 cc 3d be cd 2a 3e a5 e4 c0 bd 66 b7 93 bd
       0.09989035 0.16680047 -0.094186105 -0.07212715
000030 e9 ce 76 be ae 0a fd bd 03 34 5d be 18 3d ba be
       -0.24102367 -0.123555526 -0.21601872 -0.36374736
000040 1f bf e0 bd a9 1f f3 3d 86 c1 f8 bd ef c3 8a bd
       -0.109739535 0.11871273 -0.12146287 -0.067756526
000050 cc d1 ae be 00 31 de bd a2 f6 6a 3e 86 93 63 3e
       -0.34144437 -0.1084919 0.22945645 0.22224244
000060 a4 65 cc be 14 eb 32 be b0 1e 69 3e 01 77 cc bd
       -0.39921296 -0.17472488 0.22765613 -0.09983636
000070 da 3e 9b be 8f bf 66 be 5f ba 64 3d 11 b2 73 3d
       -0.3032139 -0.22534011 0.0558418 0.05949599
000080 65 93 42 be aa 76 d1 bd f2 b8 d2 3d f4 01 02 be
       -0.19001539 -0.102277115 0.10289182 -0.12696058
000090 27 31 98 3d 3d f8 2a 3a 17 02 3a be 80 21 3a 3d
       0.0743125 0.0006521976 -0.1816486 0.045442104
0000a0 df e0 3c be bd 2d 76 bd 40 6a c7 bd 8f 5c 76 bc
       -0.18445157 -0.060102213 -0.097370625 -0.015036716
0000b0 5c 47 5e be 56 27 27 be 1b 2d d9 bd 59 75 16 3b
       -0.21706909 -0.16323599 -0.10604306 0.0022958128
0000c0 94 06 16 3d 8f 72 23 be b2 71 bf be 25 56 e2 be
       0.036627367 -0.1596167 -0.3739143 -0.44206348
0000d0 16 cd e8 bd a0 93 42 bd 4f e0 e2 be e5 02 99 be
       -0.11367242 -0.047504067 -0.4431176 -0.2988502
0000e0 87 5b 11 bd 25 b1 d3 3c 9f 87 cb 3d 0d 1c 6a be
       -0.035487678 0.025841305 0.09937977 -0.22862263
0000f0 ef 00 0a 3d 96 e5 07 3d a9 f2 b7 3e 14 56 2a be
       0.033692297 0.033177935 0.35927323 -0.16634399
000100 d7 c7 d3 bd 93 fa aa bd 35 97 ba 3e 5d 36 c2 bd
       -0.10340851 -0.083485745 0.36443487 -0.09483025
000110 a6 df 4f be 83 c3 96 be df 84 28 be ee 9f f4 be
       -0.20300159 -0.2944604 -0.16456936 -0.47778267
000120 77 1c f0 be de ed 55 bb 44 cc dd bd 56 4d 8a bd
       -0.46896717 -0.0032643 -0.10829976 -0.06753032
000130 7d dd 36 be ff 11 01 3e a8 a8 51 be b6 12 3c bd
       -0.17857929 0.12604521 -0.20474494 -0.04591628
000140 65 9e 52 3c 68 0d 2f be d8 29 31 be fd 70 32 bd
       0.012855147 -0.17094958 -0.17301118 -0.043564785
000150 36 5f 4c 3c 09 53 20 3e 82 05 8b 3a 28 ba ad 3d
       0.012473872 0.15656675 0.00106065 0.08482772
000160 26 f7 4b be 71 be 9b 3d 0c 96 ca be ab 0f 5b bd
       -0.19918498 0.07604683 -0.39567602 -0.05348174
000170 a0 51 2b 3e 2b 8a b4 be e3 b5 63 3e 34 96 0c 3e
       0.16730356 -0.35261664 0.22237353 0.13729173
000180 dd 78 49 be 28 82 a8 be 48 ec 37 3e c3 26 fd 3c
       -0.19675012 -0.329118 0.17961228 0.030902272
000190 3b 46 50 3e 98 c7 79 be d9 2f 77 be 6b 34 3c be
       0.20339291 -0.24392545 -0.24139346 -0.18379371
0001a0 3e d3 10 bd e8 cf 8b bd aa f6 84 3e b2 e1 1c 3e
       -0.035357706 -0.06826764 0.2596944 0.15320471
0001b0 57 21 3e 3d 2f 5d 07 bf 37 52 9b be c7 00 63 be
       0.046418514 -0.5287656 -0.30336162 -0.22168265
0001c0 95 5e 35 be 91 03 ba be fd 67 0d be b5 63 ef bd
       -0.17711861 -0.36330846 -0.138092 -0.116889395
0001d0 7e 34 db 3d 0d 8a 8e be 4c 36 c3 be 29 a0 29 bd
       0.107033715 -0.278397 -0.38127363 -0.041412506
0001e0 f6 6d 80 3d cf fc 05 bd f0 8a 80 bd f1 9a 14 3e
       0.062709734 -0.0327118 -0.062765 0.1451223
0001f0 2b 71 b2 3d 71 e6 1c bd 19 35 cb be b1 90 09 be
       0.08712991 -0.038305704 -0.39688948 -0.13434102
000200 a2 a0 a7 bd 09 8a eb bd 0d e7 85 be 35 8d 41 3e
       -0.08184935 -0.115009375 -0.2615284 0.18901522
000210 87 a2 5b bd 3a 45 8e ba da 98 2f be cb 7d 31 3e
       -0.053621795 -0.0010854371 -0.17148152 0.17333142
000220 32 33 ee bd 7a c9 49 be be df aa bd db 87 db 3d
       -0.116308585 -0.19705763 -0.08343457 0.10719272
000230 fe b9 f3 bd 5c 49 5f bd 04 0a 82 bd 58 0a 9d be
       -0.119007096 -0.05451332 -0.063495666 -0.30671954
000240 f4 c4 20 be 2f 46 5f bd aa 33 84 3d 48 29 d6 3e
       -0.15700132 -0.05451029 0.06455167 0.4182837
000250 a0 e6 32 bd c1 23 83 be 2b cb fb bb 08 82 05 bd
       -0.043676972 -0.25613216 -0.0076841316 -0.03259471
000260 45 66 45 be ee 00 bf be af 53 d2 bd be 2e 18 bd
       -0.19277294 -0.37305397 -0.10269868 -0.03715395
000270 a3 67 72 bd 41 05 e6 bd bb 9f 68 3e 27 30 7d 3e
       -0.059180867 -0.11231471 0.22717182 0.247254
000280 a5 99 36 3e ed d4 ff 3d 2e f3 a6 bd 35 de 01 3e
       0.17832048 0.12491784 -0.081518516 0.12682422
000290 e7 c4 35 3e 22 de 9b be e8 fc 8a 3e e0 23 0d 3e
       0.17750894 -0.3044291 0.27146077 0.13783216
0002a0 f7 bc 11 3e de b8 ba be 0e c1 d1 bd f8 4e 2d be
       0.1423224 -0.36469167 -0.102419004 -0.16924655
0002b0 c1 0b 16 3e 0f ee 1c be 62 6b 6b be f9 9a 77 be
       0.14652921 -0.15325187 -0.22990182 -0.24180211
0002c0 54 23 99 be 2a dc 49 be 07 95 58 bc f0 55 92 3d
       -0.29909766 -0.19712892 -0.013219125 0.071452975
0002d0 ce 36 68 3e 46 aa 38 bd 4b 62 d7 bd ba 7b bd be
       0.22677156 -0.04508426 -0.10516795 -0.37008458
0002e0 57 90 18 3d 92 af b5 3c 74 e7 21 bf 25 bd 4b be
       0.03724703 0.022178445 -0.63243794 -0.19896372
0002f0 f2 22 e7 bd dd 27 d3 3d 3e f4 f6 bd dc 0b 76 3b
       -0.11285962 0.10310338 -0.12058304 0.003754369
000300 19 ca f2 be ba b1 d3 bd fa 92 46 be 04 ee 5c bd
       -0.47419813 -0.10336633 -0.19392005 -0.053937927
000310 cd 58 c9 3c 2f aa 7c be 18 dd 78 be b5 29 0c 3d
       0.024578476 -0.24674295 -0.2430309 0.034219462
000320 42 f1 19 be 24 6d 2f be 56 09 99 be 4b a4 db 3d
       -0.15033439 -0.17131478 -0.29889935 0.10724696
000330 2d 3c c0 bd cc b8 ab be 59 00 80 be d1 33 d4 bc
       -0.093864776 -0.33539426 -0.25000265 -0.025903614
000340 60 b8 1a 3e ce 2d 4c be 40 6e a2 bd d7 e3 8e be
       0.15109396 -0.19939348 -0.07931185 -0.27908203
000350 15 04 9c 3c a2 8d 33 3c 21 3a e8 bd e2 1a 16 be
       0.019044915 0.010959061 -0.11339212 -0.14658692
000360 de da 8b be 90 8a 0d be e3 0b 8e 3c 16 bd 2d be
       -0.2731542 -0.13822389 0.017339652 -0.16966662
000370 ab 56 1e be 8d 77 2c 3e 80 68 f0 bd f4 a3 b2 bd
       -0.15462749 0.1684248 -0.11738682 -0.08722678
000380 f1 e4 05 be a9 5e a2 be 93 31 4e be ab db f9 bd
       -0.13075615 -0.31712845 -0.20136099 -0.122001015
000390 f0 84 78 bd 07 7e 22 be 00 a5 a2 3d 86 a2 1b 3d
       -0.060673654 -0.15868388 0.079416275 0.03799679
0003a0 51 53 95 bd 83 09 3d 3d 32 65 0f 3e 0b fd f5 be
       -0.07291282 0.04615165 0.14003447 -0.4804462
0003b0 61 b2 b6 bd 26 d9 ce 3d 9a 9b 32 be 24 e8 5d bc
       -0.08920742 0.101000115 -0.1744217 -0.013544116
0003c0 26 d2 af bd 1f d7 b5 3b 03 e5 dd bd c0 90 d4 3c
       -0.085850045 0.005549326 -0.10834696 0.025947928
0003d0 6f 5d 54 3b 16 9e 8f 3e d2 05 83 be 8b 70 9a be
       0.0032404324 0.28050297 -0.25590378 -0.30163988
0003e0 20 cd 12 be 93 d9 4b be 7a da 82 3e 05 f8 6f be
       -0.14336061 -0.19907217 0.2555731 -0.23434456
0003f0 76 87 c2 be c1 0c ac be 9d a0 91 bd e0 4b 22 bd
       -0.37993973 -0.3360348 -0.07110713 -0.03962314

fc2.bias f4 [400]
000000 fd d8 0d be bd a4 9d 3d e4 9d a2 be d0 cd 3f be
       -0.13852306 0.07697437 -0.31761086 -0.18730855
000010 d1 b8 51 be e8 54 5b 3c e7 e1 0f be 47 8b 4e bd
       -0.20480658 0.013386942 -0.14051019 -0.050425794
000020 81 09 7c be d5 d1 d9 bd 02 1d 4d be 70 c6 2e be
       -0.24613 -0.106357254 -0.20030597 -0.17067885
000030 bd ca ef be f3 d2 cd bd 2c 78 79 be 7a f5 55 be
       -0.46834365 -0.10050001 -0.24362248 -0.20894423
000040 c5 e8 05 be 41 45 10 be bf 05 88 be 6f d4 93 bd
       -0.13077076 -0.14088918 -0.26566884 -0.07218253
000050 33 7a 86 be 83 6f d4 3c c6 df 54 3e 56 90 ce 3c
       -0.26265106 0.02593208 0.20788488 0.02521531
000060 2f 3e e6 3d 36 eb 02 be 6e 07 00 be 5e 0b a4 3d
       0.11242329 -0.12785038 -0.12502834 0.080099806
000070 47 b0 ba bd 78 61 a5 bc ea a6 bc bd ac 57 0e 3e
       -0.091156535 -0.020188078 -0.09211524 0.13900632
000080 c7 e1 0b be 50 9e 0c bd ff 57 72 be 85 fe 51 3d
       -0.13660346 -0.034330666 -0.2366638 0.05126812
000090 e4 c3 27 be e2 01 10 be b0 8a c1 be 3f e2 90 bd
       -0.1638332 -0.14063218 -0.37801123 -0.07074403
0000a0 aa ae 67 be 2b f8 5f be b5 54 60 bd 8c 7e b0 bd
       -0.22625223 -0.21872012 -0.054768283 -0.08617887
0000b0 ab 00 61 bc 4e 43 b3 bd a3 b7 ed bd b3 b2 da bd
       -0.013733069 -0.08753072 -0.116072915 -0.106786154
0000c0 66 ed 8a be 92 52 c5 be de 23 e4 3d b5 c3 06 3e
       -0.27134246 -0.3853956 0.111396536 0.13160594
0000d0 3f 83 05 3c 69 5e 83 be 50 0b 04 be 6a 1e c3 bc
       0.008148967 -0.25657967 -0.1289494 -0.023818213
0000e0 3b 31 9a 3d b2 98 8b bc ca a5 55 be 16 fc 83 3d
       0.07528921 -0.017040584 -0.20864025 0.06444566
0000f0 8c 24 a3 bc ba 0b fa bd 22 21 23 bd bf 03 cb bd
       -0.019914888 -0.12209268 -0.03982652 -0.09912824
000100 c1 0a 4b be c8 e2 03 3e 12 10 a0 3e 4a 91 66 3e
       -0.19828321 0.12879479 0.3126226 0.22516361
000110 0a 4c 57 be c6 b8 10 be 1c ee a8 bd 1e 01 ea bd
       -0.210251 -0.14132985 -0.08248541 -0.11425994
000120 b0 3e b4 bd 05 fe 0d 3e 50 da 3f be 19 bb f6 bc
       -0.08801019 0.13866432 -0.18735623 -0.030118512
000130 16 33 16 be c6 8f 1f be a3 7e 1f 3d 25 4c 72 bc
       -0.14667925 -0.15582189 0.03893913 -0.014788662
000140 8d a3 77 be 69 31 bb bd 3c 22 81 be b9 f8 34 3d
       -0.24183483 -0.091402836 -0.2522143 0.044182513
000150 48 de 4f be ca 5c 28 3d 9a ac 91 be 1d cf 6c bb
       -0.20299637 0.041104116 -0.28451997 -0.0036134191
000160 6a 46 3d be 73 29 40 be 94 92 c2 bd 6a ca ff bd
       -0.18483892 -0.18765812 -0.09500614 -0.12489779
000170 6b b9 ac bd e6 d2 1f be 0c 73 3f be 49 29 e3 3d
       -0.08433803 -0.15607795 -0.1869623 0.11091859
000180 9e 12 34 be b5 57 e6 bd 7c 77 8e bd e7 31 52 be
       -0.17585227 -0.112471975 -0.069563836 -0.20526849
000190 aa 04 2c be a4 ce 14 be ba da aa be 95 11 4c be
       -0.16798654 -0.14531952 -0.3337 -0.19928582
0001a0 4a 4c a5 be 7e 81 74 3d 8f 91 f4 bc 22 95 19 bd
       -0.32284766 0.059693806 -0.029854564 -0.03749574
0001b0 ed 6f af bd 41 52 93 bd 99 b7 45 be 77 d7 1f be
       -0.0856627 -0.07193423 -0.19308318 -0.15609537
0001c0 a1 f5 19 3e cf db f1 bd 2f c4 2f be fc 66 01 bb
       0.15035106 -0.11809503 -0.17164682 -0.0019745221
0001d0 5b 0a 39 be 4c 28 2c be de 82 b7 bd 56 2a d2 bc
       -0.18070357 -0.16812247 -0.08960508 -0.025654953
0001e0 b7 aa 53 3d 57 da 96 bd 8c 8d a1 be cd 4c 82 be
       0.05167648 -0.07365864 -0.31553304 -0.2544922
0001f0 d8 b0 6c be 4d 9d 38 be 37 78 11 ba c3 16 05 3d
       -0.23114336 -0.18028755 -0.00055492244 0.03249241
000200 8c 6a 20 be 5b 5d 56 be c6 d3 c9 bd 02 9b 65 be
       -0.15665644 -0.2093405 -0.09854846 -0.22422412
000210 61 3a 5e 3d e5 b7 3b 3d 11 0a 9a bd f8 20 91 bc
       0.054254893 0.045829672 -0.07521451 -0.017715916
000220 2c ea 59 bb 12 85 95 bb 0d b7 1d be 29 88 74 be
       -0.003325115 -0.0045629824 -0.1540186 -0.23880066
000230 59 5d b8 be ed 13 09 be b1 1e 44 be 7b e8 07 bd
       -0.3600872 -0.13386507 -0.19152333 -0.033180695
000240 70 fc 98 be 54 6c f0 3d 03 19 d0 3b 3b 99 b9 3a
       -0.29880095 0.11739412 0.006350638 0.0014160046
000250 5c b7 a4 bd f9 ec 49 be 43 4d 31 be 55 43 20 3e
       -0.080427855 -0.19719304 -0.1731463 0.15650685
000260 cd 5b e8 bd f3 b5 2c be 4f 68 51 be 17 ac 1b be
       -0.113456346 -0.16866283 -0.20449947 -0.15202366
000270 0e 32 bc bd eb 7b 10 be 21 af 93 be 5d 89 83 be
       -0.09189235 -0.14109771 -0.2884455 -0.25690737
000280 9a 92 22 3d 57 e9 66 3d 07 2f b9 be 91 1a 03 be
       0.03969059 0.056374874 -0.36168692 -0.12803103
000290 53 79 ff 3d 18 af 86 be 0d 32 82 3e 91 18 4a be
       0.12474313 -0.2630546 0.2542881 -0.19735934
0002a0 bd ed 1a be f5 5a bc be bb fd 32 bd b0 b7 3c 3c
       -0.15129752 -0.36788145 -0.043699007 0.011518404
0002b0 0d e7 43 be 99 c8 08 bc cf 1b 65 3d 3a ca d5 bc
       -0.19131108 -0.008348607 0.055934723 -0.026097406
0002c0 4d 8d 4e be 9f d2 05 bf fa 16 79 bd c3 e3 03 bf
       -0.2017109 -0.5227451 -0.060812928 -0.5151941
0002d0 4b e6 5e bd 89 ec c1 bc a1 ce 47 bc 2c 90 be bd
       -0.054418843 -0.023672359 -0.01219526 -0.09304842
0002e0 0f be 66 3c f0 80 4e be f6 ae 82 be fc 05 59 bc
       0.014083399 -0.20166373 -0.2552411 -0.013246056
0002f0 e7 a8 7c be 3e 42 d4 be a5 47 59 be fa 06 cc bd
       -0.24673806 -0.4145679 -0.21218736 -0.09962268
000300 a6 12 01 3d 25 33 07 be 0d 25 3a be 1e a2 ec 3b
       0.031511925 -0.13203104 -0.18178196 0.0072214743
000310 0c 5b 7a bd b5 c6 9f 3d c9 a5 18 3d 0e f1 3d bc
       -0.061121985 0.07801572 0.03726748 -0.011593116
000320 2c 00 e5 bd 4d 5e 05 3e 8a 35 83 be 28 49 6a be
       -0.111816734 0.13024254 -0.25626785 -0.2287947
000330 a0 b6 64 be ff 42 3f 3c af 62 d5 bd 41 fd fa bc
       -0.22335291 0.011673688 -0.10419213 -0.030638339
000340 07 86 7c be b3 b4 42 be 72 f1 04 be 93 30 cc bd
       -0.24660502 -0.19014244 -0.12982729 -0.09970202
000350 ba 67 11 3e 45 fc e6 bd ae 0c 93 be 7b 6e 6a be
       0.14199725 -0.11278585 -0.2872061 -0.22893707
000360 b7 5b 8f 3d 51 78 7b be d3 b5 5e bd 81 fb ad bd
       0.06999915 -0.24557616 -0.05437262 -0.08495236
000370 c5 0e c4 bd 02 c8 14 be 36 b0 16 bd fd a9 04 be
       -0.095731296 -0.14529422 -0.03678914 -0.1295547
000380 2f ab 33 bd a4 3c 0e be 0f 58 07 be 20 3e a0 bd
       -0.043864425 -0.1389032 -0.13217185 -0.078243494
000390 01 69 ad bc 1c d5 f1 bc 1f f1 9f be 5c e1 55 be
       -0.021168234 -0.029520564 -0.31238648 -0.20886749
0003a0 bc 66 db bd d1 0a 4b bd d4 60 58 be 83 fe 5d bd
       -0.107129544 -0.049570862 -0.21130687 -0.0541978
0003b0 0b d0 06 3d ef 2e 1e be d7 40 1b be 35 33 60 be
       0.03291325 -0.15447591 -0.15161453 -0.21894534
0003c0 cf 53 01 be cf 49 1c be 9f a4 15 be 76 05 98 bc
       -0.12629627 -0.1526253 -0.14613579 -0.018557291
0003d0 20 dd e5 bd a7 a6 9d bd fd 36 be be 92 1a e5 bd
       -0.11223817 -0.07697802 -0.37151328 -0.111867085
0003e0 61 f1 5e be 5e 55 62 bd c4 0d 01 be 10 c1 38 bd
       -0.21771766 -0.055257194 -0.12602907 -0.045105994
0003f0 9c 92 64 ba 54 4b 82 bd 8d 72 32 bd 8a ff 59 bc
       -0.0008719356 -0.06362024 -0.043566275 -0.013305554

fc3.weight f4 [4, 400]
000000 41 9f 5b be 4a 8c c6 bd a7 ff 1a 3e ab b1 58 be
       -0.2144747 -0.09694727 0.15136586 -0.21161525
000010 b9 d9 42 bb cf 16 2a 3e 23 06 42 3e a8 22 86 be
       -0.0029731824 0.16610263 0.18947653 -0.26198316
000020 be 3b 6e 3d b4 0c c6 bd d2 17 d1 3d ab 94 b7 3c
       0.058162443 -0.09670392 0.102096215 0.022409758
000030 7b 1f eb bd 97 03 92 bd c1 fd e0 bd 20 74 99 3d
       -0.11480614 -0.07129591 -0.109859 0.07492852
000040 50 50 c5 3b bb b4 38 be 8b 51 42 3e 42 e9 b2 bd
       0.006021537 -0.18037693 0.18976419 -0.08735897
000050 8a 9f 23 be b9 e8 a5 bd 5e 44 0e 3d 41 59 c6 bc
       -0.15978828 -0.08101029 0.03473317 -0.024212481
000060 35 8b 9c bd c4 15 94 3e 18 22 15 3f b4 85 74 3d
       -0.07643739 0.28922856 0.5825515 0.05969782
000070 67 fa 1e 3d c1 0a 88 3e e8 50 bd bd 28 f0 9b bd
       0.03881302 0.26570705 -0.09243947 -0.076141655
000080 c5 70 24 3d 39 0c 31 bd c2 2e fd 3e 35 5b bd bc
       0.040146608 -0.043224547 0.49449736 -0.02311478
000090 f7 cb c9 3d f5 52 96 3d c3 a3 73 be 47 c6 df bc
       0.09853356 0.073400415 -0.23792939 -0.027316226
0000a0 54 f7 66 bc bc 4c c8 3c 91 bb ee be 60 ad 1e 3c
       -0.014097054 0.024450652 -0.46627477 0.0096848905
0000b0 94 ef 8d be 5e e9 3e 3d 86 8e b7 bd 2a ab 14 be
       -0.27721846 0.046609275 -0.08962731 -0.14518419
0000c0 52 97 10 be d4 56 20 3e 87 41 fe 3c dd 72 ea 3d
       -0.14120224 0.15658122 0.031037105 0.1144769
0000d0 33 6a ab 3b 1f 31 40 3e 11 42 35 3d f9 58 4a bc
       0.005231166 0.18768738 0.04425246 -0.012350314
0000e0 fb b8 70 bb 30 35 3a 3e 46 28 04 3c a4 8a b1 3d
       -0.003673135 0.18184352 0.008066243 0.08669022
0000f0 8d aa db bd f6 27 fd 3e f0 cf bb 3e ef a0 49 be
       -0.10725889 0.4944455 0.3668208 -0.19690298
000100 68 71 1d bd 51 57 5b be 1e 96 a1 be a1 57 10 3e
       -0.03843823 -0.21420027 -0.31559843 0.14095928
000110 dc d6 b6 3e 11 9a 16 be 7d c0 82 be 29 99 66 be
       0.357108 -0.14707209 -0.25537482 -0.22519363
000120 a7 3c ae bd 6a 3c 43 3e ee 41 c7 3e 16 31 b5 3e
       -0.08507662 0.19066015 0.38917488 0.35389012
000130 37 e0 cb bd 83 58 b1 3e 82 42 c0 be 42 bf 05 3e
       -0.09954875 0.34637842 -0.3755074 0.1306124
000140 66 9a 22 be 9d 18 d3 bd 33 94 2f 3e 20 b0 f0 3d
       -0.15879211 -0.10307429 0.17146377 0.11752343
000150 65 35 0d 3e cd 24 35 3d c2 cd 20 bf 85 09 25 bd
       0.137899 0.04422455 -0.6281396 -0.04029228
000160 90 ff 44 3e b1 7f e8 bd 30 67 38 3e 34 bd 1a 3d
       0.19238114 -0.1135248 0.18008113 0.037778094
000170 04 7b e2 bd 52 7e ee bc 36 2d 22 3e c9 37 ab 3b
       -0.110586196 -0.029112969 0.15837559 0.005225156
000180 18 e0 1d 3e 97 db 3c bd 8b d4 3a be 54 3a 1b 3e
       0.15417516 -0.046107855 -0.18245141 0.15158969
000190 6c c6 bb 3e 99 e6 b7 be 07 62 61 be 48 34 6e 3e
       0.3667482 -0.3591812 -0.2201005 0.23262131
0001a0 f3 81 ee 3e 80 44 0b 3e 17 8b b2 3e a8 26 40 be
       0.46583518 0.1360035 0.34871742 -0.18764746
0001b0 7b 49 56 3d 1a f3 1b be d3 ad a7 3e 2c 84 74 3d
       0.05231617 -0.15229455 0.32749805 0.05969636
0001c0 5c 72 a3 3d e5 b3 83 3e 6a db 2c 3e bb 08 0c 3e
       0.07980797 0.25723186 0.16880575 0.13675205
0001d0 b2 39 5b bd db 88 1a 3c 76 46 03 be 4c 7f 87 be
       -0.05352182 0.009432043 -0.12819847 -0.26464307
0001e0 1b f6 3c be eb ea 22 3e c4 a1 10 bd 71 6b ef 3d
       -0.18453257 0.15909927 -0.03531052 0.11690415
0001f0 00 23 01 bc 3f 42 ae 3d 09 8d 9c 3e fa 88 a5 bd
       -0.00788188 0.08508729 0.3057635 -0.08082767
000200 1d 27 17 3d a3 45 16 be 25 27 96 3d 06 88 16 3e
       0.036902536 -0.14675002 0.07331685 0.14700326
000210 2b dc f4 3d 27 a2 cc 3d d3 f0 ac bd c1 65 7c be
       0.11956056 0.099918656 -0.08444371 -0.24648191
000220 2c ee 8e be 58 40 c2 bd 54 d9 c0 3d fb 01 9e 3e
       -0.27916086 -0.09484929 0.09416452 0.30860886
000230 85 e4 3d 3d 0e 13 b5 3e 71 a8 92 3d d4 cc 14 bd
       0.04636051 0.353661 0.07161034 -0.03632815
000240 69 ac 96 3e 59 89 91 bc bf d0 97 bc b2 76 89 bd
       0.29428414 -0.017765688 -0.018532155 -0.067120925
000250 03 bc c0 be 12 d4 05 3e 87 d6 02 3f 40 e8 a8 be
       -0.37643442 0.1306918 0.5110859 -0.32989693
000260 29 3a 1c bd 79 a2 5d 3c 25 e3 15 3e 91 13 61 3d
       -0.038141403 0.013527506 0.1463743 0.0549503
000270 d3 f6 19 3e 49 19 a1 ba 60 c8 aa 3c 10 90 0d 3f
       0.15035562 -0.0012290861 0.0208475 0.55297947
000280 77 e8 3d bd ae 78 eb bd 1f 53 33 bd b9 b3 83 3e
       -0.046364274 -0.11497627 -0.043780442 0.25723055
000290 10 4d e7 3e ad aa 8c bd 9e 9f 7a 3d 50 13 a0 bd
       0.45175982 -0.06868491 0.06118738 -0.078161836
0002a0 17 5a d6 bc f6 a2 77 be 10 be f8 3e e9 43 dc 3c
       -0.026166005 -0.24183258 0.48582506 0.02688785
0002b0 24 75 37 3e 0e bf 23 3d 77 59 03 3d 02 ef 8c bc
       0.1791578 0.039977126 0.032067742 -0.017203812
0002c0 a1 b9 0b be f8 5a 4f 3c 76 00 57 3d 9c ad 94 be
       -0.1364503 0.012655966 0.052490674 -0.29038703
0002d0 91 9a 5e 3e ec cf 1c 3d 57 23 39 3d 4c 71 11 be
       0.2173865 0.038284227 0.04519972 -0.14203376
0002e0 4b 85 b8 3d 77 02 f1 3e b3 7a 5c 3c 38 12 c8 3d
       0.090097986 0.47072193 0.013456988 0.097691
0002f0 44 2f 84 be 77 3e 40 3e 02 ea 2a be b6 36 c5 3d
       -0.2581731 0.18773828 -0.1669083 0.09629576
000300 2a 1e b7 3b 4f 94 81 3e 29 ff 8d 3d 51 af 43 bc
       0.0055883126 0.25308463 0.069334336 -0.011943654
000310 3f 09 65 bc e1 6e 35 be 89 e2 f7 3d c3 88 92 bd
       -0.013979255 -0.17718078 0.12103755 -0.071549915
000320 52 4d f0 3d 95 1d 00 bd a7 6a be 3e b1 b7 9c 3d
       0.11733498 -0.03127821 0.37190744 0.07652224
000330 4d c0 94 3d 0d 12 00 bc 38 8e 80 3c b1 9c 2a 3d
       0.07263241 -0.007816804 0.015692815 0.04165334
000340 63 db 65 3d 53 9c 0a 3e ff 4a b7 3e 22 2d 70 3e
       0.056117427 0.13536195 0.35799405 0.23454717
000350 6f d1 bc bc 4d 69 a2 be 09 3f d0 bd 1f 66 d3 3d
       -0.023049084 -0.31720963 -0.10168273 0.103222124
000360 6a b0 57 3d 7f c8 6a bc c2 11 bc 3d f8 85 94 be
       0.052658476 -0.014330029 0.091830745 -0.2900846
000370 b7 64 60 3e 65 2e 36 3e 82 4b 4d bc a1 90 64 3e
       0.2191342 0.17791136 -0.0125302095 0.22320797
000380 86 ee 0b be 04 f6 63 3e 71 0a ca 3e 93 02 2e be
       -0.13665208 0.22261816 0.3946109 -0.1699317
000390 44 1b dc 3d 7b c7 7b bd c1 eb d2 3d e8 f4 df 3e
       0.10747388 -0.061469536 0.10298873 0.43741536
0003a0 87 0b 16 bd e5 9d 90 be e1 e4 c1 bd 0d 0e 8f be
       -0.036632087 -0.28245464 -0.09467483 -0.27940407
0003b0 29 2e fc 3d a1 ac 8a be 4d 2e ed bc a7 d1 50 3d
       0.12313492 -0.2708483 -0.028952742 0.05098119
0003c0 00 5a a0 3e ec cd 0f be 79 d2 85 be 37 08 19 3e
       0.31318665 -0.14043397 -0.2613714 0.1494454
0003d0 15 38 88 be f0 ce c1 3c 06 c2 be 3c b9 47 95 3c
       -0.26605287 0.023658246 0.023285877 0.018222677
0003e0 fa f0 02 3d 8a 96 94 3e c6 f5 f6 3d 2b 89 c5 3c
       0.031968094 0.29021102 0.12058596 0.024113258
0003f0 83 e9 1d 3e e3 a5 dd 3e ae f5 2b bd 4e 11 90 3c
       0.15421109 0.43290624 -0.041982345 0.017586377

fc3.bias f4 [4]
000000 0a b2 67 3c af 20 fc bd 88 71 d9 3b bf fc d1 bc
       0.014141569 -0.123109214 0.0066358484 -0.025633214
