experiments/exp2/models/checkpoint_critic_3.pth (torch_old, 275458 bytes, 5 tensors)

fc1.weight f4 [200, 33]
000000 70 b7 e0 3b a3 c8 b7 bc da 9b fe bc f2 3c 15 be
       0.006857805 -0.022434538 -0.031080175 -0.1457403
000010 e0 8b c1 b9 da 61 1d bd 09 76 84 3d a7 53 88 3c
       -0.00036916044 -0.038423397 0.06467826 0.016641451
000020 8b fa 40 bc 18 4a f6 3c fd 4c da bc 63 b1 95 bc
       -0.011778484 0.030064628 -0.026648039 -0.018273061
000030 b8 84 07 bd ee fa 73 bd 26 e6 1a 3d 52 d4 4f bc
       -0.033085555 -0.059565477 0.037817143 -0.012684898
000040 65 a6 85 3d 96 21 f7 bc 98 eb 07 be eb 78 60 3d
       0.06525878 -0.030167382 -0.13273466 0.054802816
000050 91 9f 00 bd 9a f1 f3 bc e3 18 31 3a e2 90 89 bc
       -0.031402174 -0.02977829 0.00067557226 -0.016792718
000060 51 39 2a 3d 72 de 98 bc f2 95 00 be 0f 04 f6 3b
       0.041558567 -0.018660758 -0.125572 0.007507808
000070 8e b0 f1 3d 94 fe 57 bd 93 a0 03 bd e1 db 87 3d
       0.11801253 -0.05273302 -0.032135557 0.066337354
000080 e1 0b 90 be 5e 66 26 3c 48 e5 b7 3d a9 cd 71 bd
       -0.28134063 0.010156242 0.08979279 -0.059034023
000090 ee 09 e1 3c f0 78 ea bc 74 a5 d1 bd 90 15 d5 bd
       0.027470555 -0.02862212 -0.10236636 -0.10404503
0000a0 45 83 b1 3c fc 47 ff 3b f5 63 ee bc a6 44 89 3c
       0.02166904 0.0077905636 -0.029100398 0.016756367
0000b0 2f 88 09 bb fd 9a 78 bd 55 76 2a 3d 0f 69 05 bd
       -0.0020985713 -0.060694683 0.041616756 -0.032570895
0000c0 fa 42 fb bb 5c 87 3f 3d ee b5 dc 3b fc 71 fe bc
       -0.0076678963 0.046759948 0.006735555 -0.031060211
0000d0 7d 52 ba bd 59 50 98 bb f8 cf f0 bc ab bf 81 bc
       -0.09097765 -0.00464825 -0.029396042 -0.015838465
0000e0 b3 2b 0e 3d b3 76 c2 bc 78 b8 a1 3b 6c d0 89 bd
       0.034709644 -0.02373824 0.0049353205 -0.067292064
0000f0 74 b4 94 3d 4c 3f 8a bc 5f a1 90 bd ac e1 9f bd
       0.07260981 -0.016875885 -0.07062029 -0.07806715
000100 b0 f8 28 3d 43 7f ff 3d 28 7a f1 3d d8 5f 8b 3c
       0.041252792 0.12475445 0.117908776 0.017013475
000110 02 a3 81 3d 4b cc 49 bd 2d 9f 24 3d d9 0a 93 3b
       0.063299194 -0.049267095 0.040190864 0.004487377
000120 57 a8 e0 3d f1 97 cf 3c 1d 06 aa bc cd 41 83 3b
       0.10969608 0.025341006 -0.020754868 0.004005647
000130 8f c8 f9 3b 76 19 73 3b 24 a4 d7 3b 57 d4 26 be
       0.0076227854 0.0037094033 0.0065808464 -0.16291939
000140 07 1c d6 3c 46 a4 1a be 14 34 27 bd 63 99 67 bd
       0.026136411 -0.15101728 -0.04082115 -0.056542765
000150 9a 1b 62 3c 0e 4e 4c bd 3c 31 4f 3b b2 b7 6e bc
       0.013800526 -0.049879126 0.003161504 -0.014570164
000160 b8 d3 f4 bb 5b 1b 96 bc aa ba 8c 3b 7b 63 a6 bb
       -0.007471528 -0.018323591 0.004294713 -0.005077777
000170 67 09 ab 3d df ec a5 bc fc 86 db 3d c6 bd 1a 3d
       0.08351403 -0.02025455 0.107191056 0.03777864
000180 06 72 66 3d 12 43 29 3d 2d 6d db 3d 06 44 ef bd
       0.056261085 0.04132373 0.10714183 -0.11682896
000190 53 ec b2 3d 00 40 94 3c 87 5a 78 bd ba 80 8b 3d
       0.087364815 0.018096924 -0.06063321 0.06811662
0001a0 01 0e 57 3d 55 67 21 3e c5 b2 9a 3c f5 f6 16 be
       0.05250359 0.15762074 0.018884072 -0.14742644
0001b0 86 1e d4 bd b6 8c 94 bd e8 cd dc bc 9d b7 8a 3d
       -0.103573844 -0.07253401 -0.026953653 0.06773303
0001c0 07 5b 24 3d 2d 27 5c 3c df 90 21 bd b0 e8 13 3e
       0.040125873 0.013437075 -0.0394448 0.14444232
0001d0 58 82 0b be 28 71 2e be d1 24 0e 3e b1 6a 4e bd
       -0.13623941 -0.17035353 0.13881232 -0.050394718
0001e0 3d 7d 87 3d 4c c2 c7 3d 0d 8f 6c 3c f3 c2 27 3c
       0.06615684 0.09753856 0.014438403 0.010239351
0001f0 43 55 d7 3c ff 76 63 bd a0 7d 20 3e c1 c9 95 bd
       0.026285773 -0.055533405 0.15672922 -0.07313872
000200 96 6e 80 bd 45 bf ee bd 28 6a 63 bc cc f6 8d 3d
       -0.062710926 -0.116575755 -0.01388029 0.069318384
000210 3d 9c 48 3d 26 1e 75 bd 48 47 95 3c 4c 8d 46 bd
       0.048977125 -0.059843205 0.018222466 -0.048474595
000220 ed a2 1f be 30 6f 7d bd cb ce 32 3e 31 6f ff 3d
       -0.15589495 -0.061873615 0.17461698 0.1247238
000230 c8 d9 b6 bc e1 3a 17 be 36 0e e9 3c 3c b4 32 3c
       -0.022320643 -0.14768554 0.02844916 0.010907229
000240 c4 32 5a 3d c6 d1 e5 bd 63 93 92 3d 82 de ae 3a
       0.05327107 -0.11221652 0.07157018 0.0013341459
000250 d1 d6 65 3d 80 cf 18 3e 9d 7c 57 bd de 08 c2 bd
       0.056113068 0.14922905 -0.052609075 -0.094743475
000260 bb bb 0f bd 02 b5 89 3d 60 e0 0e 3d db cb 19 3d
       -0.035091143 0.067239776 0.03488195 0.037547927
000270 42 aa 54 bb ab a0 95 bd 3c 3b 28 3d a1 81 b8 ba
       -0.0032450114 -0.073060356 0.041072115 -0.0014076718
000280 b4 12 9a bc 40 f5 ff 3c 29 5b 29 bd b1 c3 87 bd
       -0.018807746 0.031244874 -0.041346703 -0.06629122
000290 bf 21 3e 3e 90 ae b4 3c 64 c8 83 bc 89 2b 39 3c
       0.1856756 0.022055894 -0.016086765 0.0113018835
0002a0 be 8e b4 bd 8b ab 13 be 14 2e e4 bd 14 72 e6 bc
       -0.088162884 -0.14420907 -0.11141601 -0.028130569
0002b0 40 05 32 3d 9e fd 17 be eb f2 26 bd 26 e5 7e 3c
       0.043462038 -0.14842841 -0.04075901 0.015557563
0002c0 da 56 79 bc ff f7 7c 3c 26 11 96 3d 76 74 b7 bc
       -0.015218461 0.015439986 0.073274896 -0.0223944
0002d0 fd 8b f9 bd 61 01 68 bd ef aa e8 3d 68 6e 23 be
       -0.12184904 -0.05664194 0.11360728 -0.15960085
0002e0 04 95 91 bc 05 6a 4f bd a9 21 4e 3c 55 97 16 bd
       -0.017771251 -0.050638217 0.012581267 -0.036765415
0002f0 6b 81 37 3d 4f b7 fa 3c 58 8e fd 3a 0b 24 77 bc
       0.044801157 0.030604986 0.001934479 -0.015084277
000300 6f 4c d6 3d d6 34 8c 3d 3a a3 7b 3d c9 64 f0 bd
       0.10463797 0.06846015 0.06143496 -0.11737973
000310 08 84 8b bd 82 38 9e be 33 a8 38 bd fc f6 9c bc
       -0.06812292 -0.30902487 -0.045082282 -0.01916074
000320 4b 4c f1 bd 15 38 a9 bc 50 63 7c 3d 2e 7e 43 be
       -0.1178213 -0.020656625 0.06161815 -0.19091102
000330 42 a9 73 3d da f0 3e 3d 2b 8d a5 bd a8 ce dc bb
       0.05948759 0.046616413 -0.08083566 -0.0067385025
000340 c2 a0 51 3d 45 c2 0f bd a1 34 40 bd 2d 02 9d 3d
       0.0511787 -0.03509738 -0.04692519 0.076664306
000350 f5 cf 26 3e dc 21 4b bd eb 72 b0 bc f6 8d 32 bc
       0.16290267 -0.049592838 -0.021539172 -0.010898104
000360 c3 4a 2c bd ae 83 a4 bc 22 9d d4 ba 02 45 d9 bc
       -0.042063486 -0.020082321 -0.0016221146 -0.026522163
000370 7d d0 36 bc 1a aa 0b bd 52 88 34 3c d6 28 3f 3d
       -0.011158106 -0.03409777 0.011018829 0.046669804
000380 f3 f7 e0 bc bd 56 73 bc 4e 39 6b 3d 4a 30 99 bc
       -0.027461981 -0.014852223 0.057427697 -0.018699784
000390 4d 68 a4 3d 80 d1 68 bc ab f2 e1 3d 3d 68 39 bd
       0.08027706 -0.014210105 0.11032613 -0.045265425
0003a0 05 eb 16 bd bd 99 8a bd a8 96 66 3e 49 8b 0f bd
       -0.036845226 -0.067676045 0.22518408 -0.035044942
0003b0 78 b7 a0 bd 4b bd 8b bc 99 f9 04 3d 5d b3 e6 bc
       -0.07847494 -0.017058035 0.032464597 -0.028161699
0003c0 16 9d 7b 3d 92 e5 5f bd 28 22 aa ba b0 3a 10 3c
       0.061429106 -0.054662295 -0.001298015 0.008803055
0003d0 98 d9 df bc 5e 3b af 3b 8c e0 3c 3d cd bb 94 3c
       -0.027325436 0.0053476533 0.046112582 0.018155957
0003e0 75 7a a5 bd 5a 97 24 bd 54 41 c3 bc fa 78 a5 3c
       -0.080799975 -0.040183403 -0.023834862 0.020199288
0003f0 cb e3 6a 3c 0d 64 68 bc 90 06 00 bd e9 5e dc bb
       0.014336537 -0.01418401 -0.03125626 -0.0067251814

fc1.bias f4 [200]
000000 02 6b a0 bd a2 2e b1 3d 22 18 ac bd c5 5e 28 3d
       -0.0783291 0.08651473 -0.084030405 0.041106004
000010 57 69 77 bd 49 19 5e be 4c 76 61 bd 43 19 b5 bd
       -0.060403194 -0.21689333 -0.055044457 -0.08842709
000020 a9 50 2e bd c9 ef 29 3d ab 72 a7 bd f4 78 ed 3d
       -0.042557392 0.041488443 -0.08176168 0.115953356
000030 25 85 c5 bc f8 1c ec bd a1 7a 81 3d 6b 92 41 be
       -0.02411134 -0.11528963 0.06322218 -0.1890351
000040 2e db 22 be c2 ee 9e bc 35 f6 2f 3d 78 b1 0e be
       -0.15903923 -0.019400958 0.04295941 -0.13934886
000050 e7 94 7c 3d e6 5f 7a 3d 89 e4 8c bc 25 95 2b be
       0.06166544 0.061126612 -0.017198818 -0.16756113
000060 10 4b d9 bd a9 15 06 be 9c 84 9c bd 45 c8 f3 3d
       -0.1061002 -0.130942 -0.07642481 0.11903433
000070 fc 3a 30 bd f6 5e 10 be 04 8f 51 3d d2 92 8f 3d
       -0.043025002 -0.14098725 0.05116178 0.070104256
000080 c7 1b f7 3b 8f 86 20 bd 65 2f 87 3d ac 6d c8 3b
       0.007541153 -0.039190825 0.06600837 0.0061165895
000090 0d d3 a8 3b 6b 69 fc bd 35 aa 26 3d c0 54 53 bc
       0.0051521123 -0.123247944 0.040689666 -0.012898624
0000a0 e2 0b f4 bd c2 ff 25 be c3 4e 30 bd 2c 83 69 3d
       -0.11916329 -0.16210845 -0.043043863 0.05700986
0000b0 4e b1 dc 3d f1 96 93 bd 50 f1 30 be f2 95 da 3d
       0.10776006 -0.07206524 -0.17279553 0.10673131
0000c0 23 19 08 be 70 ba c8 bd fd 84 77 3d 9e 8d 1f be
       -0.13290839 -0.09801185 0.060429562 -0.15581366
0000d0 19 9c 15 3c 23 67 39 3e d0 e9 3b be 04 21 df 3d
       0.009131455 0.1810575 -0.18350911 0.10894969
0000e0 4e e3 93 ba d5 0f 70 bd c9 29 7c 3d da 48 f2 bd
       -0.0011282952 -0.05860885 0.061563287 -0.118303016
0000f0 af 70 41 3e 35 64 9e 3d b1 34 9c bd 87 e9 05 3d
       0.18890642 0.07733957 -0.076272376 0.032693412
000100 fa 7b 4f bd be d6 de 3c 08 ac c3 3d b6 86 8d bd
       -0.050655343 0.027202006 0.09554297 -0.0691046
000110 de df 9a bd eb e9 10 be fc 29 0a be 3d d8 af 3d
       -0.075622305 -0.14151733 -0.13492578 0.08586166
000120 73 ed 71 3c 68 80 99 3d 7c da 58 bd f7 47 60 be
       0.014766085 0.07495195 -0.052942738 -0.21902452
000130 11 f9 aa 3d 49 be 0f be b7 b6 9a 3d 68 55 7a 3d
       0.08348287 -0.14037432 0.07554381 0.061116606
000140 03 13 e2 3c f5 5c 65 be ae 62 f9 3d 22 8a ec bd
       0.027596956 -0.22398742 0.12177025 -0.11549784
000150 aa 0d 2a bc 44 ea e8 3d f6 3c 8d ba dc d7 8c bd
       -0.010379234 0.113728076 -0.0010775614 -0.068771094
000160 ca 3a ef 3d ec 2e fe bb 3d cc 3d be fa fa d4 3d
       0.11681135 -0.0077570584 -0.18534942 0.103994325
000170 76 28 e6 3d b5 e1 2a be cb f7 21 be f0 89 0a bd
       0.11238186 -0.16687663 -0.15817182 -0.033822954
000180 87 e9 23 3d be 89 80 3d 77 14 94 3d ef 2c bc bc
       0.04001763 0.06276272 0.07230466 -0.022970645
000190 b4 ae cb 3d 4d 15 e9 bd 35 a2 90 3d 86 29 80 3c
       0.09945431 -0.11381016 0.070621885 0.0156448
0001a0 31 c5 65 bd 6e bf 5e be 16 4e de bc 9a c8 46 be
       -0.05609626 -0.21752712 -0.027136844 -0.19412461
0001b0 69 0c be bc 39 cd 85 bc 1f f0 09 3d ee f9 04 bd
       -0.023199277 -0.01633321 0.033676263 -0.032464914
0001c0 73 86 75 bd 16 c9 21 3e c5 a8 32 be 28 30 69 be
       -0.059942674 0.15799364 -0.17447193 -0.22772276
0001d0 66 18 99 3d fa fd 4c be f3 b3 29 be f9 19 41 be
       0.07475357 -0.2001876 -0.16572551 -0.18857564
0001e0 a3 64 b4 3d 65 99 66 bc 4f 49 e6 3d 4d aa ef bc
       0.088082574 -0.014074658 0.11244451 -0.02925601
0001f0 59 c4 80 3d e5 ac 52 be ba 67 8f 3d ae 68 85 3d
       0.0628745 -0.20573767 0.07002206 0.06514107
000200 0f a5 22 be 8a c5 46 bd 09 25 fe bd 30 ff 77 bc
       -0.15883277 -0.04852823 -0.12409408 -0.015136525
000210 c0 e2 c3 3c 6a 55 f2 3d 95 05 53 bd 80 e8 47 be
       0.023911834 0.11832698 -0.051518995 -0.19522285
000220 06 fc 1a be 78 75 b6 3c 57 5f 44 be 9b 47 f1 bd
       -0.15135202 0.02227281 -0.19176994 -0.11781236
000230 1e 40 48 bc 21 dd 34 be 59 5f de bd b8 f7 02 be
       -0.012222318 -0.17662479 -0.1085803 -0.1278981
000240 74 57 10 be 01 31 25 3e 01 44 1f be 7b cd 9d 3b
       -0.1409586 0.16131975 -0.15553285 0.004815755
000250 5e b8 03 be 76 70 82 bb 6f 74 1d 3e 1e 74 07 bd
       -0.12863299 -0.0039806915 0.15376447 -0.033069722
000260 47 ae 4a bc 95 52 66 be 41 14 e0 bd 0f 7d be bd
       -0.0123706525 -0.2249244 -0.10941363 -0.09301197
000270 09 f8 29 be 03 85 8e 3d 16 49 e0 3d e8 6f 4e be
       -0.16598524 0.06958964 0.1095144 -0.20159876
000280 63 3a 00 3e ad 91 b2 bc 06 c4 63 be b2 50 46 be
       0.12522273 -0.02179798 -0.22242746 -0.1936672
000290 9d 9d 85 bd 95 c5 84 3c 5e 8e e7 3c 3f ab 42 be
       -0.06524203 0.016207496 0.028266128 -0.19010638
0002a0 9e 58 b4 3d 13 b8 c4 3c 6a 4b 51 3d c3 9c bc bd
       0.08805965 0.024013555 0.05109731 -0.092095874
0002b0 ed b2 06 be 4d 0f ed bd 87 9a e3 bc 44 b1 da 3c
       -0.13154192 -0.11575184 -0.027783645 0.026695855
0002c0 01 1f 89 bb b0 a6 4b bd 8f 8d 98 3d 65 33 9a 3d
       -0.004184604 -0.049719512 0.07448875 0.07529334
0002d0 21 67 13 3e 1b e2 17 be e4 36 87 bd 45 be 6d bd
       0.1439481 -0.14832346 -0.066022664 -0.058042783
0002e0 09 6e 10 be 35 c9 b0 3c 2f d9 f3 3d 73 5b a7 3d
       -0.14104475 0.021580318 0.11906659 0.081717394
0002f0 39 8d 46 bd ab d7 94 bc c6 55 11 be 7b 89 8f bb
       -0.048474524 -0.018169245 -0.14192876 -0.0043804026
000300 ca eb 16 bd 0d b9 c7 bd 47 c3 93 3d ac 11 5b be
       -0.03684596 -0.097520925 0.072149806 -0.2139346
000310 22 9e 96 bd e4 cc 82 bd f3 49 0f 3e a1 4f fa bd
       -0.0735438 -0.06386736 0.13993053 -0.12222219

fc2.weight f4 [300, 204]
000000 4c 0e 8a bd 1e 6f b1 bc 8a 38 33 3d 9d cf 92 3d
       -0.06741008 -0.02165943 0.04375509 0.07168505
000010 b0 13 43 bd da 93 e5 3b 2f 6f 1f bd 1f 3b 91 be
       -0.047626197 0.0070061507 -0.038924392 -0.28365418
000020 66 31 c6 bd d3 28 aa bd 49 91 4d 3d 3c fa ae bd
       -0.09677391 -0.08308568 0.050187383 -0.08543822
000030 e7 19 0e 3d c5 fa c2 bb 3e e9 88 bc 40 d9 e1 3a
       0.03469267 -0.005950304 -0.016712781 0.0017230883
000040 bf 8d 0f be b0 96 dc 3c 52 3a 8e 3b bc 02 8c bc
       -0.14018916 0.026927322 0.0043404484 -0.017091148
000050 a8 e0 1c bd 6a c8 8f ba 88 27 af 3c ae 08 e4 3d
       -0.038300186 -0.0010969762 0.021381155 0.11134468
000060 dd b6 e1 3a 63 2f 38 3b f1 75 a9 3c 28 e8 54 3d
       0.0017220635 0.0028104417 0.020686122 0.051979214
000070 2b 4b c8 3d 10 6c 1c bc dd 96 90 bd 01 e3 4b be
       0.09779962 -0.0095472485 -0.07060025 -0.19910814
000080 82 8a 01 bd c9 ae 48 be 8a 46 86 3d ea c7 02 be
       -0.031626232 -0.19597925 0.06556423 -0.12771574
000090 6d e8 2b bc 1d e5 f0 3c 5d e1 39 bc a5 10 9e bc
       -0.010492426 0.029406125 -0.011345235 -0.019295046
0000a0 9c 47 51 bd 14 de 19 3d f4 f8 43 bd c8 ad 39 bd
       -0.051093683 0.037565306 -0.047844842 -0.045331746
0000b0 d0 00 d8 bc 01 b0 aa bd 28 4c 6f be fc ed 0b be
       -0.026367575 -0.08334351 -0.23368895 -0.13665003
0000c0 fd 5c f2 3d 6f 81 38 bd f0 2b 4d 3b 1b 03 88 bd
       0.11834142 -0.045045312 0.0031306706 -0.06641217
0000d0 97 a5 33 bb a2 03 c2 be d5 86 98 bd d9 19 05 ba
       -0.0027411932 -0.37893397 -0.07447592 -0.0005077399
0000e0 9a 21 2b 3d fe 6f d4 3b c0 ab 39 3d 6c 4f f0 bc
       0.04178009 0.006483077 0.04532981 -0.029334746
0000f0 5f 5f eb bc a0 ef 89 3d da a9 25 3d 80 18 8d bc
       -0.028732 0.06735158 0.040445186 -0.017223597
000100 c5 b3 0c 3d 2a 28 84 3c b7 d1 70 3c 73 a9 68 bd
       0.03435113 0.016132433 0.014698437 -0.056802224
000110 a7 35 a4 bd 1e 81 7a bd cb 8f 27 bd 6a 14 c5 bd
       -0.08018046 -0.061158292 -0.040908616 -0.09623034
000120 6f dc 63 be 8f 65 9d bd 32 77 0f be 03 11 cd bc
       -0.22252057 -0.076853864 -0.14010313 -0.025032526
000130 84 62 83 bd 81 bc b7 3d 13 6a 91 bd 29 70 34 bc
       -0.06415275 0.08971501 -0.0710031 -0.011013069
000140 ba 62 92 3d c7 67 10 3d eb 4d 04 bc 56 7d b7 bd
       0.07147737 0.03525522 -0.008075218 -0.08959453
000150 51 ab 12 be 38 a7 09 bc e0 ba 1b be d6 25 c2 3d
       -0.14323165 -0.008401684 -0.15208006 0.09479873
000160 20 01 9e bd a4 e6 ac 3d 79 7f 35 bd 7c db 46 3d
       -0.07715058 0.08442429 -0.04431102 0.04854916
000170 14 1b 11 bd b9 c0 7e bd c9 be 98 bb 4a ed 7d 3c
       -0.035426214 -0.062195513 -0.0046614152 0.015498469
000180 e6 92 1f 3d 6d 97 81 3d c4 79 d5 3d 2d 71 8d bd
       0.038958453 0.0632771 0.104236156 -0.06906352
000190 3e 3a 91 bd 38 e9 79 3d 6d 3c 2e be ee a1 94 bd
       -0.07091187 0.06101343 -0.17015238 -0.07257448
0001a0 0c cf 77 3d 42 23 86 3d f4 93 22 bd 72 4a f6 bd
       0.06050019 0.06549694 -0.03969188 -0.12025918
0001b0 a6 39 73 3c ea 3a 7d 3c 82 c0 8d 3c 26 d2 07 3c
       0.014845287 0.015455941 0.017303709 0.008289849
0001c0 71 52 c5 bc ba f6 a0 bd e6 8b d5 3d 08 df 0d 3d
       -0.024087163 -0.07859559 0.10427074 0.034636527
0001d0 03 a2 95 be 55 79 9c be 54 ee c5 bc 80 5a 4a bd
       -0.29225168 -0.3056132 -0.024161495 -0.049402714
0001e0 fb 4e 52 be e1 79 39 bd 75 10 09 bd 37 90 1e be
       -0.20537941 -0.04528225 -0.03346296 -0.15484701
0001f0 5a 3b 61 bd f1 04 00 be 4c 9e 2e 3d 3e 77 f0 3d
       -0.054988243 -0.12501885 0.042631432 0.11741494
000200 b8 14 18 be 6b 3b b0 3c bf c6 04 be 06 5f 48 3d
       -0.14851654 0.021512708 -0.1296644 0.048918746
000210 6b b2 2f 3d e9 38 3e 3c 08 68 3e 3d ce 0f 2c 3d
       0.042894762 0.011610248 0.04648593 0.04200726
000220 7c 83 e3 bd 54 3e 19 3d 0f 6d 10 bd 10 10 d4 bc
       -0.11109063 0.037412956 -0.035260256 -0.025886565
000230 71 70 3f be b0 a0 bb 3b bc 26 e4 3d c9 78 af bc
       -0.18695237 0.0057259426 0.111402005 -0.0214199
000240 25 f8 a0 3c f7 b2 b6 bd 67 dd e2 bc b3 42 e6 bd
       0.019649575 -0.089208536 -0.027693463 -0.112431906
000250 f8 e4 66 bd 47 61 9f 3c 44 04 11 3b c1 1c 48 3d
       -0.056370705 0.019455565 0.0022127787 0.048855547
000260 1c 59 84 bd b2 a1 ec 3c 75 2d 56 bd 4a 59 ce 3d
       -0.06462309 0.028885696 -0.052289445 0.10075624
000270 ea ff 93 bb e8 24 12 3d 62 d4 a2 3d 7f ad ca bd
       -0.0045165913 0.035679728 0.07950665 -0.09896373
000280 72 4a 2f 3d 8b 60 90 bd 2f 38 8a bd 54 dd 2e bd
       0.042795606 -0.07049664 -0.067489974 -0.042691544
000290 86 d2 55 bd df ab 1a bd d6 a4 74 3c 50 c9 46 3b
       -0.052202724 -0.037761565 0.014931878 0.0030332394
0002a0 e7 cb 21 ba e4 7d 96 bb d6 28 87 bc c1 3f 22 bd
       -0.00061720464 -0.004592644 -0.016498964 -0.03961158
0002b0 ab 99 23 3d 31 43 78 3d 09 75 16 bd 55 7f d9 bc
       0.03994147 0.060610954 -0.036732707 -0.026549974
0002c0 59 f1 d4 3d 4e 0d bb 3c 6d 9a 04 bd 59 e8 bb bb
       0.10397596 0.022833493 -0.032373834 -0.005734485
0002d0 76 61 30 bd be 7a d5 bd ad b5 e4 38 8d 8e e7 bc
       -0.043061696 -0.10423802 0.00010905727 -0.028266216
0002e0 cd cf 41 bb 0c 39 57 bd 50 db a5 bd 71 5a ad 3c
       -0.0029573322 -0.05254464 -0.08098471 0.02116129
0002f0 b0 91 57 3c 98 b3 2a 3d db 33 19 3e 8d 20 ad 3d
       0.013157293 0.04167518 0.14961188 0.08453474
000300 6a 9e 03 bc ff 49 93 3d f3 b9 6b bd 59 58 3f 3d
       -0.008033374 0.07191848 -0.057550382 0.046715114
000310 3d c9 95 bd 7b 6e 7e bc b6 68 98 3c 79 da a3 3d
       -0.07313774 -0.01552927 0.018604618 0.08000655
000320 3f 9d be bc 8d 44 c4 3d ba c1 0c 3e b8 a6 d2 3d
       -0.02326834 0.095833875 0.13745776 0.10285705
000330 38 52 c5 bd 3b bc 46 bd 6a 99 21 bc 99 36 65 bc
       -0.096348226 -0.048519354 -0.009863237 -0.013990068
000340 80 81 b7 bd 2c 46 1b 3d 0d e6 6e bb e0 23 5b be
       -0.08960247 0.037908718 -0.003645304 -0.21400404
000350 00 1e f1 3d 57 da 1b 3c 31 33 6a bd 9c b6 11 3d
       0.117733 0.0095125055 -0.057177726 0.03557454
000360 8f 23 c7 3d 21 0d 91 bd 14 65 9a bd 16 12 49 3d
       0.09723579 -0.07082582 -0.0753881 0.049089514
000370 61 31 1f bd 00 95 25 be c1 8e 84 be 5b 62 ce bc
       -0.03886545 -0.1617012 -0.25890163 -0.025193384
000380 1a a4 58 bd dd 77 18 be 99 70 d8 3d 9a a3 cc ba
       -0.052890874 -0.14889474 0.10568351 -0.0015612722
000390 45 09 b5 3c 51 fd 5b bd 11 f2 ee 3c 04 d8 09 bd
       0.022099147 -0.05370838 0.02916816 -0.033653274
0003a0 2f 28 77 3d 7a e0 51 bd 62 3a 19 be c1 2d cf bd
       0.060341056 -0.05123947 -0.14963678 -0.10116149
0003b0 9e 1f 4c 3d d5 79 e1 bc 91 9f 1d be a3 d7 80 3d
       0.04983484 -0.027523914 -0.15392901 0.062911294
0003c0 b4 c7 19 bd b6 c3 f0 bc fe 93 6f bd 65 fd b0 bd
       -0.037543967 -0.029390197 -0.058490746 -0.08642081
0003d0 b3 54 d5 bc d4 db 81 3d c6 c9 a5 3b 44 99 47 3d
       -0.026041364 0.06340757 0.0050594537 0.04873015
0003e0 07 0e 29 3c 00 6c b7 bd d5 52 df 3c 40 0f 68 3c
       0.010318286 -0.08956146 0.027261177 0.014163792
0003f0 1b ab e8 3c 74 3c 03 bc e0 97 24 bd 90 84 2f be
       0.028401902 -0.008010019 -0.0401839 -0.17140412

fc2.bias f4 [300]
000000 2e 67 b8 bd 81 df 04 bd 82 a4 d6 bd 16 31 5b 3b
       -0.09004055 -0.032439712 -0.10480596 0.0033446006
000010 c3 28 a4 be d0 1d bd 3d 84 98 82 bd a5 68 58 3d
       -0.3206235 0.09234202 -0.06376746 0.05283417
000020 24 9b d4 3c 7d b2 dc 3d 41 49 8c bd f9 9e 89 3d
       0.025952883 0.107762314 -0.068499096 0.06719775
000030 b9 80 94 3c b7 05 e7 3c 92 8f 9f 3c ee 50 a4 bd
       0.018127786 0.028200967 0.01947764 -0.080232486
000040 50 3a 06 be a5 1a 48 be 92 d2 c3 bd 91 5f b8 bd
       -0.13108182 -0.19541414 -0.095616475 -0.09002603
000050 5b 18 77 3d 76 f1 86 be 0b e7 df 3d f4 ba a1 bd
       0.06032596 -0.26356095 0.1093274 -0.078969866
000060 c8 f8 7b 3d ed cd 3b 3a 95 4d 6b 3d 46 30 cd 3d
       0.061516553 0.0007164169 0.057447035 0.10018973
000070 a9 8e 8c bc 76 ca df 3c 08 0a 10 bd 68 ac ee bb
       -0.01715787 0.02731822 -0.035165817 -0.007283736
000080 e9 97 0b 3d 22 33 ed bc 45 9e db bd b9 59 40 3c
       0.03408042 -0.028955046 -0.10723547 0.011740142
000090 21 9c d1 3d 67 09 ad 3d 29 bb a8 3d c7 bf b6 3d
       0.10234857 0.08449059 0.08238823 0.089232974
0000a0 ba ce 8a 3c 35 f7 e6 3c 63 28 5e bd 01 85 fa 3c
       0.016944278 0.02819405 -0.054237735 0.030581
0000b0 bf e7 31 3d 19 19 23 bd c7 70 31 bd 1c 2b c4 bd
       0.0434339 -0.039818857 -0.043320443 -0.09578535
0000c0 dc 1f d9 3d 44 2b 3b bc 1c 11 29 be 94 7f 99 3d
       0.1060178 -0.01142389 -0.16510433 0.07495037
0000d0 eb cb 41 be c4 41 47 3d 3a 64 fd 3c ae 47 98 bc
       -0.18925445 0.048646703 0.03093158 -0.018588867
0000e0 bc db 9f bd e5 8f 80 bb ed cb c9 bc 08 ad 0c bc
       -0.07805583 -0.0039234036 -0.024633372 -0.008586176
0000f0 a3 88 ee bd cd fc 72 3d ff c2 10 bd a4 4d 95 3c
       -0.11647155 0.05932312 -0.035342213 0.018225498
000100 14 b4 8a 3d a9 8d ee 3d ef f8 9c 3c 43 29 8a bd
       0.067726284 0.11648113 0.01916167 -0.06746151
000110 05 20 f4 3b 06 8a 18 be 07 35 d3 3d 91 e2 8e bd
       0.007450106 -0.14896402 0.103128485 -0.06976808
000120 70 2c 63 bd 8b 1e 04 3e f6 97 20 3d 27 9a cb 3d
       -0.0554623 0.12902276 0.03920742 0.099415116
000130 a2 b1 3f 3d ad 3d 03 3e 96 2e 39 bc db 51 f1 3d
       0.046800263 0.12816496 -0.011302611 0.11783191
000140 d5 c2 2b be 22 0c 43 be ef 82 54 bd 6f 48 7d 3d
       -0.16773541 -0.19047597 -0.05188268 0.061836656
000150 ae a0 f3 3c 19 3c 98 bc f0 06 9b 3d b6 c2 af 3d
       0.029739704 -0.018583344 0.075696826 0.0858206
000160 06 3c d4 bd 61 82 4b bb 30 3c 8a bd 0c 8c 97 bd
       -0.10363011 -0.0031053054 -0.06749761 -0.07399759
000170 32 1c c4 3c 8a bf 3a 3d a2 28 63 3d ff 39 dc 3c
       0.023939226 0.045592822 0.055458672 0.026883123
000180 aa e5 e0 3b dc 4a eb 3c 50 09 d8 bc 15 02 f5 3d
       0.0068633156 0.02872222 -0.026371628 0.11963288
000190 8f d6 99 be e0 3d 77 bc 98 0f 06 3e c7 df 12 be
       -0.30046508 -0.015090436 0.13091886 -0.14343177
0001a0 b8 27 be 3c 1c 5f 06 3e df 46 e9 3d d7 b4 cf bd
       0.023212299 0.13122219 0.11390471 -0.10141914
0001b0 62 b2 73 be 3c 7c 80 be 99 07 d8 3d e6 6f 03 3d
       -0.23798516 -0.25094783 0.10548324 0.032089137
0001c0 96 b0 a0 3d 2b 70 0a be c2 48 bb bd ed 48 13 3d
       0.07846181 -0.13519351 -0.09144737 0.03595822
0001d0 eb c6 fe bc e9 4d 80 3d a1 62 c0 3d bd ff 96 3d
       -0.03110071 0.0626486 0.09393812 0.07372997
0001e0 cf 70 ae 3c f7 d1 77 bd 1c ed d7 3c e9 d0 02 3d
       0.021294026 -0.060502972 0.02635818 0.031937514
0001f0 3f 50 5c 3d 12 73 c0 3c 7b df b9 3d 6a cc a6 ba
       0.053787466 0.02349237 0.09075829 -0.0012725715
000200 64 cf ab bd 9c 23 e4 3c 08 cf 86 3d 35 9f e0 bd
       -0.08389166 0.027849011 0.06582457 -0.10967866
000210 d6 95 03 be 09 c6 98 3c 2b a2 ec 3b aa 11 28 3d
       -0.12850127 0.018649118 0.0072214804 0.04103247
000220 4d 3d 7b be 62 b8 7a 3d 8c 68 8d bc 56 75 4f 3d
       -0.24535103 0.061210997 -0.017261766 0.05064901
000230 01 dc db 3d 3e 43 b4 bd ac 46 06 be 3f b9 8d 3c
       0.10735322 -0.08801888 -0.13112897 0.017300246
000240 54 00 c2 3d be 1d 4c be c6 b4 28 bd 60 f4 af bc
       0.09472719 -0.1993322 -0.041188024 -0.021478832
000250 51 f9 a0 3d 3c a6 fb 3c 24 be 36 3d 2f e9 b4 bd
       0.07860053 0.030718915 0.044614926 -0.08833539
000260 b6 26 54 bb 42 ef dc bd d2 0b 43 3d 38 5a 3d bd
       -0.0032371706 -0.10787822 0.047618695 -0.046228617
000270 01 8a 08 3e bb 2d 89 3d 5b 79 c4 3d b9 6f b7 3d
       0.13333894 0.066981755 0.09593459 0.08956856
000280 7e c5 bb bd 1e 64 30 bd 0b 9e 3a 3c 91 ad cf 3d
       -0.09168528 -0.04306423 0.011390219 0.10140527
000290 5a a3 10 3d 6b 5f 66 bd 18 be 4c 3d 32 f5 07 3d
       0.035312034 -0.05624334 0.049985975 0.03319282
0002a0 d4 92 e7 bd d7 71 60 3b dc 53 7c 3d e0 6f 9b bd
       -0.11307302 0.0034247541 0.061603412 -0.07589698
0002b0 4c 92 43 bd be bb 16 bd b7 4e 1e 3d 98 21 c9 bd
       -0.04774694 -0.03680014 0.038649287 -0.098208606
0002c0 e6 96 80 be 23 fb 05 3e aa 29 93 bd f0 0c ec bd
       -0.25115126 0.13084082 -0.07185681 -0.11525905
0002d0 03 17 b7 bb 0f 99 fb 3c 00 9a 8a 3a 37 df a9 3d
       -0.00558746 0.030712632 0.001057446 0.08294528
0002e0 a3 88 3c be 56 4b 24 3d b3 91 4d bc 98 b1 49 3d
       -0.18411498 0.04011091 -0.012546944 0.049241632
0002f0 84 5e 9e 3c e7 15 22 be c1 62 b5 3d 4b e8 83 3d
       0.019332178 -0.15828668 0.088567264 0.06440791
000300 50 31 87 3d 70 d8 c8 3d e1 68 a1 3d d8 b7 06 3c
       0.066012025 0.09806907 0.07881332 0.008222543
000310 1a 95 fe bb 0a 90 aa 3d 8b 5c ba bd eb 2e 17 3d
       -0.007769239 0.083282545 -0.090996824 0.03690998
000320 3b 04 e8 3a d4 8a fe bd 87 50 46 be 1a 1b 06 be
       0.0017701456 -0.12428823 -0.19366656 -0.13096276
000330 35 ea 00 bd c3 bd 31 3d 92 cd 3a 3d 5c 7d ac 3c
       -0.031473357 0.04339386 0.045606203 0.02105587
000340 b8 ef 8a bd ab 5f 33 bc 91 e4 07 be 3d 03 37 bc
       -0.06784004 -0.010948102 -0.13270785 -0.011170206
000350 56 3f cf bb b2 40 b2 3b 87 af 75 3d 3f 0c 27 bd
       -0.006324689 0.005439841 0.05998185 -0.040783163
000360 c0 e6 b4 3c 34 23 11 bd 74 2a 95 be 69 d2 7b bd
       0.022082686 -0.035433963 -0.29133952 -0.06147996
000370 b2 7d 29 bd e8 f9 a3 bd 6d a7 8f bd d7 21 d7 3d
       -0.041379638 -0.0800665 -0.07014356 0.10504501
000380 9a d0 72 3d 25 80 14 be d1 d9 c3 3b c9 44 4c 3d
       0.05928097 -0.14502008 0.0059768935 0.049870286
000390 cb 5e c4 bd e8 28 7b bc 6e 67 a8 3b 6a a6 e2 bd
       -0.09588393 -0.015329577 0.005139283 -0.11066897
0003a0 5c 74 98 3c 67 f0 c5 3d e6 9d 9b 3d ad 84 f6 3c
       0.018610172 0.09664994 0.07598476 0.030092562
0003b0 c9 a9 8e 3c 6c 60 e5 bc 61 c0 c7 bd c7 38 99 bd
       0.017414944 -0.02800008 -0.0975349 -0.074815325
0003c0 cc 3b a1 3d cd 77 98 bd 2b 17 99 3d 9a 8c 87 bd
       0.078727335 -0.07444725 0.07475122 -0.066186145
0003d0 3a 88 92 bc d6 11 c8 bc 5b e9 af 3c 87 ef b4 3d
       -0.017887224 -0.024422567 0.021473577 0.08834749
0003e0 b2 77 d9 3d ad 61 05 be ed ce fa 3d 84 0b a4 3c
       0.10618533 -0.13025542 0.12246499 0.020025022
0003f0 30 7c 8b 3d c8 8a 75 3d 6d 88 9a 3c f0 27 86 bd
       0.06810796 0.059946805 0.018863881 -0.06550586

fc3.weight f4 [1, 300]
000000 a9 a7 8e be 70 96 92 be 62 8c 86 be be 79 1f 3d
       -0.2786229 -0.286304 -0.2627898 0.03893446
000010 af 63 7f be d7 83 bc 3c d9 d8 76 be 69 96 c4 3c
       -0.2494037 0.023012085 -0.24106158 0.023997502
000020 a5 c7 59 3d b4 d0 95 3c 4b 05 87 bd 8e 24 0a 3d
       0.05316891 0.018287994 -0.065928064 0.033726268
000030 5f f1 76 be a4 46 76 bd 04 9b 1d 3d 0b cb 87 be
       -0.24115513 -0.060125962 0.038477913 -0.26522097
000040 98 fd 6d be 48 60 86 be 0c f6 87 be 79 fb 4d be
       -0.2324127 -0.26245332 -0.26554906 -0.2011546
000050 69 b6 d3 3c b3 41 7a be 57 d8 25 3d 6d 50 28 bd
       0.025843816 -0.24439125 0.04048952 -0.041092325
000060 88 0d 13 3d 21 92 44 be 4f 20 82 3d 2e f0 14 3d
       0.035901576 -0.19196369 0.063538186 0.036361866
000070 76 a6 4d 3d 30 47 6c 3d 85 31 a0 bd 1a 89 4a bd
       0.050207578 0.057685077 -0.07821945 -0.049447156
000080 c9 a1 10 3d 80 57 6c bd e3 b3 26 be ea 5a 5b 3d
       0.03531054 -0.057700634 -0.16279559 0.0535535
000090 f5 7a f1 3c 8a 28 af 3c d0 b7 1a 3d 49 4c 56 3d
       0.029477576 0.021381635 0.037772954 0.052318845
0000a0 1a 32 82 bd 9e 9b 2b be 2d 10 90 be 19 90 46 3d
       -0.06357212 -0.16758582 -0.2813734 0.048477266
0000b0 aa 80 13 3d 84 be 8c be 25 65 ea bd 64 79 ef bd
       0.036011375 -0.27489102 -0.11445073 -0.11693075
0000c0 cc 7d 92 3c ae 62 65 be 33 b6 6f be 77 50 49 3d
       0.01788225 -0.22400925 -0.23409347 0.049149003
0000d0 5c e7 82 be 6e 24 67 3d 0b 40 19 3d d7 d5 11 3d
       -0.25567138 0.056431226 0.03741459 0.035604324
0000e0 b2 3b 43 be e3 bf ba 3d b1 e6 83 be ee 9c 01 3d
       -0.1906574 0.09118631 -0.2576194 0.0316438
0000f0 b9 b8 7b be 5f 3a 90 3d 6e 58 01 be 28 76 db 3c
       -0.24582185 0.070423834 -0.1263139 0.02678974
000100 da f1 c9 3c c0 15 14 3d e2 2b 88 3d ec 0f 67 be
       0.024651457 0.036153555 0.06648995 -0.22564667
000110 2a b4 a3 bd 52 16 88 be 9a 85 db 3c 43 51 92 be
       -0.07993348 -0.2657953 0.026797105 -0.28577623
000120 5a 1a 73 be 2f 03 a0 3c ad c1 e2 3c cb 14 49 3d
       -0.23740521 0.019532768 0.027680242 0.049092095
000130 1d 97 0d 3d 0d de 0b 3d 38 75 2f be f2 a0 28 3d
       0.03456794 0.03414731 -0.17134559 0.041169114
000140 4a e1 81 be bf 10 89 be 19 c7 86 be 12 75 21 3d
       -0.25367194 -0.2677059 -0.26323774 0.039418288
000150 2c 84 1b be 64 6f 44 be b6 89 19 3d b2 49 ae 3c
       -0.15187138 -0.19183117 0.037484847 0.021275375
000160 89 3b 75 be e4 b2 87 3d 81 b2 4e bd af dd 4e be
       -0.23948492 0.066259176 -0.050463203 -0.20201753
000170 c5 97 c6 3c 30 8f d1 3c 39 28 08 3d b7 74 06 3d
       0.024242291 0.025580972 0.033241484 0.03282615
000180 aa 8b 9c 3d 26 84 31 3d 10 74 5a be d6 62 cc 3c
       0.07643826 0.043338917 -0.21333337 0.024949472
000190 40 89 83 be 66 23 98 be 01 99 e9 3c 07 47 7c be
       -0.2569065 -0.29714507 0.02851534 -0.2463647
0001a0 d8 38 68 be 5e 4f c2 3c da b5 17 3d 5d 9d e0 bd
       -0.22677934 0.023719486 0.03703866 -0.10967515
0001b0 76 1c 8d be 18 ea 81 be 7d 79 0a 3d d0 8b 77 3d
       -0.27560776 -0.25373912 0.033807267 0.06043607
0001c0 b0 9c 51 3d 35 34 93 be df 46 61 be 22 4d 46 be
       0.05117482 -0.28750768 -0.21999691 -0.19365361
0001d0 75 9d 32 be b6 30 3b 3d c8 37 a7 3d a0 84 d2 3c
       -0.17442878 0.04570075 0.08164936 0.025698006
0001e0 90 e9 97 be 92 5b 0f be ca 2e 73 3d 22 8e 2f 3d
       -0.29670382 -0.13999775 0.059370793 0.042860158
0001f0 d9 55 96 3c d7 e8 8f be 79 94 6d 3d 5b 75 83 be
       0.018351482 -0.2810733 0.058002923 -0.25675473
000200 1e b5 47 be 01 81 9e bd f1 5c 27 3d 27 af 84 be
       -0.19502684 -0.07739449 0.04086012 -0.2591488
000210 c0 87 76 be 59 0b 54 3d 66 a4 89 be 73 99 ca 3c
       -0.24075222 0.051768634 -0.2688324 0.024731373
000220 2a 10 84 be d5 36 ad 3d 7f 07 11 be e3 01 b6 3c
       -0.25793582 0.08457724 -0.14163016 0.022217697
000230 c9 9c 17 3d ef fc 74 be 53 fa 09 be a6 94 3f be
       0.037014756 -0.23924612 -0.13474397 -0.18709049
000240 5d e8 08 3d 9b 74 89 be 0f 42 79 be c3 f4 16 3d
       0.033424724 -0.26846775 -0.24341606 0.036854517
000250 09 cb fc 3c 41 9a 22 3d c9 cc 67 be 5c b5 9c be
       0.030858533 0.03969789 -0.22636713 -0.30607116
000260 7e c5 8b be 48 da 78 be 72 2e 38 3d 51 32 82 bd
       -0.27299112 -0.24302018 0.04496617 -0.06357253
000270 82 86 d7 3c d3 2c 85 3d a1 dd 5c 3d 57 d3 e9 3c
       0.026309256 0.0650269 0.0539223 0.028543158
000280 07 88 8c be df 41 ec bd 02 b7 13 3d b1 4a 11 3d
       -0.2744753 -0.115360014 0.0360632 0.035471622
000290 cb 0b f7 3c 1f 0a 14 be 8d 1a b9 3d e1 b3 af 3c
       0.03015699 -0.14456986 0.09038267 0.021448078
0002a0 aa 93 6f be 14 3a 1c 3d 64 94 34 3d a5 04 8c be
       -0.23396173 0.038141325 0.04408683 -0.27347293
0002b0 f8 58 c2 bd b2 27 80 bd dc fb 8f 3d 8a c4 86 be
       -0.09489626 -0.06257571 0.0703046 -0.26321822
0002c0 dc c5 84 be 4c d2 d5 3c 1b 12 85 be 37 f8 6b be
       -0.25932205 0.026101254 -0.25990376 -0.23043905
0002d0 16 e1 23 3d 6a 36 dd 3c 7b 77 5f be f6 d9 35 3d
       0.04000958 0.027003486 -0.21822922 0.044397317
0002e0 a7 bb 8b be 80 4e 2b 3d 64 51 8b be c7 5d 1f 3d
       -0.27291605 0.04182291 -0.27210534 0.038907792
0002f0 28 2c fb 3c 9a 3b 8e be 85 ef 34 3d 65 3b 08 3d
       0.030660704 -0.27779847 0.044173736 0.033259768
000300 cd 5c fd 3c c3 e5 05 3d cc af ca 3c a3 f4 63 be
       0.03092804 0.03268982 0.02474203 -0.2226129
000310 71 51 40 3d 89 bb 08 3d 92 14 89 be d2 ab 0c 3d
       0.04695267 0.033381972 -0.26773506 0.034343548
000320 a7 46 97 be 29 15 5f be e3 65 94 be e0 3e 94 be
       -0.2954609 -0.21785416 -0.28983983 -0.2895422
000330 24 9c 76 bd d7 34 7e 3d c2 51 11 3d 43 6f 46 be
       -0.0602075 0.06206211 0.03547836 -0.1937838
000340 17 ba 15 be 54 cc 03 be 5b 41 94 be 70 b2 9f be
       -0.14621769 -0.12870914 -0.28956112 -0.31190825
000350 d9 2f 3b be 6d 1f 57 be a5 84 4e 3d 29 16 27 be
       -0.18279971 -0.21008082 0.05041947 -0.16317047
000360 12 57 13 be 89 cc a5 be 9f 51 84 be 72 d7 aa bd
       -0.14388683 -0.3238261 -0.25843522 -0.08341874
000370 1d 8e 69 bd 66 fb 8a be 72 e3 83 be 8a 75 59 3d
       -0.057020295 -0.27144927 -0.25759465 0.05309061
000380 61 9b a6 3c a7 ef 87 be 71 cd 79 bd b1 fb 8e 3d
       0.020337762 -0.26550028 -0.06098694 0.069816
000390 b0 ef 26 be 93 c2 e2 bd 37 6b 05 3d 65 da 86 be
       -0.16302371 -0.11072268 0.03257295 -0.26338497
0003a0 7c 61 7a be e6 b2 28 3d 59 8a e9 3c 21 63 ce 3c
       -0.2445125 0.041186236 0.028508352 0.025193753
0003b0 f1 2e 71 be 2c 10 9d be ba a7 90 be 5f 81 4c be
       -0.23553063 -0.306764 -0.28252965 -0.19971226
0003c0 8b d2 2f 3d 3d 99 13 be 01 3b da 3d d9 9c 90 be
       0.0429254 -0.14413925 0.10655785 -0.28244665
0003d0 7e c8 87 be a9 ba e3 3d 43 e7 e1 3c 68 ea c3 3c
       -0.2652015 0.11119587 0.027576094 0.023915485
0003e0 64 61 1f 3d 0b 19 8e be 82 c2 db 3c 15 62 61 3d
       0.03891124 -0.2775348 0.026826147 0.05502518
0003f0 b6 8b de 3c 4c af e5 3c 99 9a da 3c 6f 08 8f be
       0.027166229 0.02803769 0.026685046 -0.27936122
