experiments/exp2/models/checkpoint_actor_8.pth (torch_old, 356250 bytes, 6 tensors)

fc1.weight f4 [200, 33]
00000000: 0f1e b43d c7dc 0ebe d4c0 25bf a782 023f
00000010: 1a58 d0bc c05e 763e bdf5 6fbc 916a e5be
00000020: 5394 97bd 2de1 c53f 2af7 c8bd 9eb3 6f3e
00000030: b3bc bfbe 6d4c 263f 796f 863f 4a2a 8c3d
00000040: e099 debe 8634 42be 6409 b83c 6e90 0a3f
00000050: 1b34 f0bd d14c 30be 797a 80be e370 06be
00000060: 7c86 4c3e 7668 e3be 0bce 17bf 0240 dc3e
00000070: feae b8be e01e 953b 36ba f5be 901d afbb
00000080: 33b3 153f a4e2 80be 859c 883c 92de debd
00000090: 13bd ebbf a50e 58bf 510d c03f 5e1c a93f
000000a0: fa1b b43e b1a6 35bf 6beb b13f ec88 233e
000000b0: 3ebb b53d 01be a73e 36ba 81bc 4449 003f
000000c0: a930 50be 70d5 6dbf 918c 2cbf b7ee 6ebe
000000d0: 26a9 a6bf 7849 b33e 5354 c9be 5f4d af3e
000000e0: cbbf 74bd 2799 d8bd ac0a b8bc 6824 5c3e
000000f0: fe1e 803f b3cf 8abe 96ee 713d 759b 69bf
00000100: 4cb5 b53c 694e 3240 ae8e 463e 73f9 f63e
00000110: 8581 7a3e 1f9f 373e b6d9 e3bf daae 3fbf
00000120: 449d 413e b221 ca3e 87b0 bc3e 1f22 073f
00000130: f7eb 63be 9f2e a03e 24fc f8be e91e 843e
00000140: e6ee bd3e fe90 53bc a720 123d 5268 4c3f
00000150: aaff 09c0 ced2 c6be f272 b4bd f319 83be
00000160: 94ae fa3e ab40 b3be f6a7 e0bd a1cf 873e
00000170: 789f 8c3d e3c6 b73f 9c2b 383e 40b3 2c3b
00000180: bd34 afbf 84ec 7abc 93fa 753f eb23 6c3e
00000190: 66cf 2d3e 7849 e7bd 227a d2bf c12a 21bc
000001a0: e563 7b3e bd42 80bf 83f3 523e 996c 70bc
000001b0: 167d febe 0ea5 66be c679 b83c f652 063f
000001c0: 023c 7abd 4141 c33e 9828 3a3f 4e75 a13f
000001d0: 5d90 9fbf 63a9 17c0 7c92 57bf b390 6a3e
000001e0: 9953 b6bd 9001 973d 044e aebd ceb0 633e
000001f0: 82a5 2a3f a554 3f3d ce21 293f 73c0 35be
00000200: 7aa8 88bd d0ad 1bbf 0e1c 3abd cf34 a53f
00000210: c0b8 c83e 0983 11be f93c 12bf 034e 4fbf
00000220: ae1b 9bbf 7741 99be 1528 aabc cce2 14be
00000230: 51ba 213f 2928 853f 1f52 60bd 9d0e 43be
00000240: 2b52 de3c 2eb0 373e 6b02 2a3f 9203 11be
00000250: 1c72 dfbf fe8d d23f 8429 8f3d 1c1d 063f
00000260: 90d3 67be ae93 fc3e 47ff 7d3f 01cf 9ebe
00000270: 8d42 acbe be91 d83d 47e4 c1bc 0f35 903f
00000280: 8f9f ce3e 9046 5f3c 011d 93bf c9da 89bd
00000290: 5126 bdbf c2be 91be a645 553e ee78 833e
000002a0: 2898 afbe 892d ed3e b25b 9dbf d75d 21bf
000002b0: 10de b7bd 535b 363f e5b7 3cbe 07ec 183e
000002c0: 1958 5bbe 0508 243f 926a 79bd 735e 8dbe
000002d0: d165 b53e 6442 6d3f 694c 1c3e dcf5 f53e
000002e0: 497f 87bf 7250 b73d cb28 5bbd 7ffa 703e
000002f0: c983 dc3e 6bd9 303e d702 473f 7cf2 8fbd
00000300: f001 b63e 6dba 583e 04c7 21bd 167f 95be
00000310: 40cd de3c 3ee8 01c0 e5d4 c6be e5d8 fa3c
00000320: 360b f7be c3cd b1be e1a4 41bf b92c 6f3f
00000330: b5cc a3be 2b8a 583e 2adc c53d c7d2 12be
00000340: 4af3 babe 8242 543e 03d9 cf3d cad7 823f
00000350: d4ef b63c 356c dd3e e36f 093e e1aa 60bf
00000360: 2436 acbf a957 e7be 7702 ad3d a2eb f8bd
00000370: e2d6 ad3c 72b5 e93c f627 db3d a2df 403e
00000380: 6865 10bf 78f6 893d 0b21 093f 681b 4e3d
00000390: c5fd 36be 9add abbc 3664 993e b57d b53f
000003a0: 8888 c1bd b83c 0b3f d5ca 6cbf 92a7 bc3f
000003b0: cb63 d3bf 5d0b a73f ed9e ea3e 68ad 6f3e
000003c0: 7437 fe3d 3dc7 ce3d 69ff 6d3c 84dc 2a3e
000003d0: 8667 e5bd d5c9 573e bee7 f4bd f392 763f
000003e0: c63b c1be 5131 d5bf 7487 d3bf 1cc4 bd3c
000003f0: a611 a43e 8403 a63e f7e8 733b 51c8 673e
0.08794796 -0.13951407 -0.6474736 0.5098061 -0.025432635 0.24059582 -0.014645991 -0.44807866
-0.074013375 1.5459343 -0.09812768 0.23408362 -0.37448654 0.64960366 1.0502769 0.068440035
-0.43476772 -0.18965349 0.022465415 0.5412663 -0.11728688 -0.17216803 -0.2509344 -0.13129
0.19973177 -0.44415635 -0.5929877 0.43017584 -0.36071008 0.0045507997 -0.4799363 -0.0053441003
0.5847656 -0.25172913 0.016676197 -0.10882296 -1.8417076 -0.84397346 1.5004064 1.3211782
0.35177594 -0.70957476 1.3899969 0.159702 0.08873604 0.3276215 -0.015835863 0.50111794
-0.20331062 -0.92903805 -0.6740199 -0.2333325 -1.302037 0.3501699 -0.39322147 0.34238717
-0.05975322 -0.105760865 -0.022466026 0.21498263 1.0009458 -0.27111587 0.059065424 -0.91252834
0.022181176 2.7860358 0.19390365 0.4823719 0.2446347 0.17931794 -1.7800815 -0.7487618
0.18907648 0.39478832 0.3685343 0.5278644 -0.22257982 0.3128557 -0.48629868 0.25804833
0.37096328 -0.012912987 0.03567567 0.7984668 -2.1562295 -0.38832706 -0.088109866 -0.25605735
0.48961318 -0.35010275 -0.10969536 0.26525596 0.06866354 1.435757 0.17985386 0.0026351959
-1.368797 -0.015315179 0.9608547 0.23060577 0.16973647 -0.1129331 -1.6443522 -0.0098368535
0.24549825 -1.0020367 0.20600705 -0.014674329 -0.49704808 -0.22523901 0.022519004 0.5247034
-0.061092384 0.38135722 0.7271819 1.2613924 -1.2465931 -2.3697135 -0.8420789 0.22906761
-0.08902664 0.07373345 -0.08510974 0.22235414 0.66658795 0.046711583 0.66067207 -0.17749195
-0.06672759 -0.6081209 -0.04543691 1.2906741 0.39203453 -0.14210142 -0.57124287 -0.8097841
-1.2117822 -0.29932758 -0.020771066 -0.14539641 0.6317492 1.0402881 -0.054765817 -0.19048543
0.02713879 0.17938301 0.6640994 -0.14161518 -1.7456698 1.6449583 0.0699034 0.5238817
-0.22639298 0.4933142 0.9921765 -0.31017306 -0.33644524 0.10574673 -0.023668421 1.1266192
0.4035611 0.013627663 -1.1493226 -0.06731183 -1.4777318 -0.2846585 0.2082735 0.256782
-0.34295774 0.46323803 -1.2293608 -0.63033813 -0.08977902 0.712331 -0.18429525 0.14933787
-0.21420325 0.64074737 -0.06089265 -0.27611122 0.35429242 0.9267943 0.15263523 0.48039138
-1.0585719 0.089508906 -0.0535057 0.23533057 0.43069294 0.17270438 0.7773871 -0.07028672
0.35548353 0.21164866 -0.039496437 -0.2919852 0.02719748 -2.0298 -0.388343 0.030621001
-0.4825074 -0.34727296 -0.7564221 0.93427616 -0.31992117 0.21146457 0.096611336 -0.14338218
-0.3651374 0.20728496 0.101488136 1.0222104 0.022331156 0.43246618 0.13421588 -0.8776074
-1.3454022 -0.45184067 0.08447736 -0.121543184 0.021220628 0.028528903 0.10700981 0.18835309
-0.56404734 0.06736463 0.53566045 0.050319105 -0.17870243 -0.020979691 0.29959267 1.4178988
-0.094498694 0.54389524 -0.92497 1.4738638 -1.6514829 1.3050343 0.45824376 0.23405993
0.124129206 0.100965954 0.014526227 0.16685683 -0.11201386 0.21073087 -0.11958264 0.96317977
-0.37740916 -1.6655675 -1.6525712 0.023164801 0.32044715 0.32424557 0.0037217715 0.22635008

fc1.bias f4 [200]
00000000: 88b8 01bf a7ee 48bf 1ff8 c4bf 7054 f0be
00000010: f3fb 9dbf 963c f9be d5e4 4abe 3bb3 12bf
00000020: fda4 25bf 3f15 a53e 9b02 81be 8250 c3be
00000030: 7206 0fbf 3ddc 8abf d3f2 67bf cba0 a3bf
00000040: 1258 2fbf 51f4 58bf 035e 693e cafe 75bf
00000050: f855 2fbf 76ca babf 7bb2 96bf 3c08 73bf
00000060: b9e6 adbf 142d 87bf 2291 6bbf 9067 44bf
00000070: 9668 82bf e8bd 35bf e075 b4be f525 cebe
00000080: 9fe7 e6be cedf 9fbf db93 52be a68f 3b3f
00000090: d23f 89bf 2e2d 48bf 0461 babe 53bf 44bf
000000a0: da07 40bf ed07 25bf 1288 80bf dadb 9dbd
000000b0: b655 14bf e659 32bf f100 8fbf 7921 8a3f
000000c0: 5c12 94bf 4d8d a4bf ed0b 0bbf 8e8f c8be
000000d0: 917b acbf 6c6f 823f 94ec 52bf 6bbb 1e3d
000000e0: d12f 85bf 7b21 98bf 8fb6 c4bd 347c 9b3e
000000f0: ee69 f7be 34cf 29bf ba76 07bf 88ef a2bf
00000100: b2c5 65bf c7bd abbf e570 1dbf f2e3 babe
00000110: b821 a53e 09d9 79be 5f5f 74bf 4e8e 83bf
00000120: 93d1 a8bf 6f19 50bf 283f 48be 54a2 90bf
00000130: 5293 37bf a03d 74bf 8ccd 4dbf 21c3 1dbf
00000140: c010 10bf c5ca 6abf 9138 57bf db5f 503f
00000150: f3dc 41bf 1e85 c33d 2b6e 36bf 64c3 1fbf
00000160: 974b 42bf b452 4fbf f4fa c7bf f42e f4be
00000170: fa84 dcbe 5019 03bf 0290 26bf c966 79bf
00000180: 16e1 2dbf c10d ddbe c979 6b3e b35c 873f
00000190: 0cff 44bf 331b 13be 8b5c d9be 3334 30bf
000001a0: 8c5a 22bf dd7c 02bf 6129 a0bf 8d70 1e3e
000001b0: 5192 54bc c884 3abf 729c 27bf 8ce4 bcbf
000001c0: fd68 50bf 7dbd 55bf 1fb9 9bbf 8ede 99bf
000001d0: aac3 9cbf a7a5 5bbf 25e9 f7bd ee71 92bf
000001e0: b68f 0dbf 0cf0 a9be 9f5e 8bbe c6a8 8dbf
000001f0: df07 e93f 204e a5bf d196 313e 7a2f 12bf
00000200: 2b9f 68bf 93ff 8bbf 46b9 78bd 540a e5bf
00000210: 3a76 c5be 6811 7ebf 6317 9ebf 4dc9 80bf
00000220: 5586 1bbf 66c3 76bf 1b6c 9dbf b93b 93bf
00000230: e04d afbd d85c 2dbf 5ec2 82bf b645 dcbe
00000240: 534a 71bf 424d 5ebf 25b5 f0be 6d1d 50bf
00000250: 6b92 03bf c455 51be 7aaa 0dbf f9d6 78bf
00000260: d251 a6be fa39 13bf 2b0e 88bf 10eb 4bbf
00000270: d8e0 98bf 2908 a9be a990 5fbe 5ffc 2dbf
00000280: 6cc0 5d3f e553 9ebe e954 a8bf 6efd 9abf
00000290: bcd6 85bf e95a 8fbf 6cbf a1bf c12a a3bf
000002a0: acb0 8fbf f942 18bf a5fd 0bbf 1244 51bf
000002b0: e3b9 4abf de9a 10bf 2415 96bf fd0f af3e
000002c0: 4091 a1bf 5e11 b0bf 70fe 63bf f7eb 13bf
000002d0: 3e70 d9be 7d6d 9dbe 04a9 14bf 33a8 7dbf
000002e0: 3bfa 00bf b5c6 8b3f 3dfd 8ebf 7af2 56bf
000002f0: 7f0d 98bf e5ae 9cbf 9fc8 b8bf 784b 80bf
00000300: a597 82bf f85d 1fbf 26b0 93bf d70b e7be
00000310: 6fde d7be cb65 54bf 5f38 38be 8242 1abe
-0.506722 -0.78489155 -1.538822 -0.4693942 -1.2342514 -0.48679036 -0.19813855 -0.57304734
-0.6470488 0.32242772 -0.251973 -0.3814736 -0.5586921 -1.0848461 -0.90604895 -1.2783445
-0.6849376 -0.847478 0.22789769 -0.960919 -0.6849055 -1.4593036 -1.1773218 -0.9493444
-1.3586036 -1.0560632 -0.9201833 -0.76720524 -1.0188167 -0.709929 -0.3524618 -0.40263334
-0.45098588 -1.2490175 -0.20564215 0.73266065 -1.0722601 -0.7819394 -0.36402142 -0.7685444
-0.7501198 -0.6446522 -1.0041525 -0.07707949 -0.57943285 -0.69668424 -1.1172162 1.0791465
-1.1568103 -1.2855622 -0.5431507 -0.39172024 -1.347521 1.0190253 -0.8239224 0.038752954
-1.0405217 -1.1885217 -0.09605133 0.30368197 -0.48323005 -0.6633179 -0.5291554 -1.2729349
-0.89754784 -1.341729 -0.6150039 -0.36502033 0.32252288 -0.24399199 -0.95458025 -1.0277803
-1.3188957 -0.8128881 -0.19555342 -1.1299539 -0.7170917 -0.9540653 -0.80391765 -0.6162587
-0.5627556 -0.9171565 -0.8407069 0.81396264 -0.75727767 0.095468745 -0.7126185 -0.6240752
-0.7589659 -0.8098557 -1.562346 -0.47692072 -0.43070203 -0.512105 -0.6506349 -0.9742246
-0.6792158 -0.43174556 0.22995676 1.0575165 -0.7695167 -0.14365844 -0.42453417 -0.6882965
-0.63419414 -0.50971776 -1.2512628 0.15472622 -0.012974338 -0.7285886 -0.6547309 -1.4757247
-0.814102 -0.8349226 -1.216587 -1.2021043 -1.2247212 -0.8579964 -0.12105016 -1.1441019
-0.5529741 -0.33190954 -0.27220628 -1.106713 1.8205527 -1.2914467 0.17342688 -0.57103693
-0.9086787 -1.093737 -0.060723566 -1.7893777 -0.38566762 -0.9924531 -1.2350887 -1.0061432
-0.6075185 -0.96391904 -1.2298616 -1.1502601 -0.08559775 -0.67719793 -1.0215566 -0.43021935
-0.94254035 -0.86836636 -0.47013202 -0.812949 -0.5139529 -0.20442873 -0.5533825 -0.9720302
-0.324843 -0.5751034 -1.0629324 -0.7965555 -1.1943617 -0.33014038 -0.21832527 -0.6796321
0.8662174 -0.3092338 -1.3150913 -1.2108591 -1.0456157 -1.1199619 -1.2636542 -1.2747422
-1.1225791 -0.5947719 -0.54683906 -0.8174449 -0.7918989 -0.5648631 -1.1725202 0.34191886
-1.2622452 -1.37553 -0.89060116 -0.5778193 -0.42468446 -0.30747595 -0.580704 -0.99084777
-0.5038182 1.0920016 -1.1171032 -0.8396374 -1.1879119 -1.2240874 -1.4436225 -1.0023031
-1.0202528 -0.6225276 -1.1538131 -0.4512622 -0.4216189 -0.82967824 -0.17990254 -0.15064433

fc2.weight f4 [400, 200]
00000000: 67f4 43bf 2add a7bd cf45 d53e bf1f 1ebe
00000010: f68d 413e d2ef 293f 890a c9bd 72a6 90be
00000020: 1e8a 9fbe eea9 9d3c 366e 5abf 5afd 07be
00000030: 1d31 54bf 41c3 89be 517a ec3e 1c2a 34bf
00000040: 08ea c0be df54 19bf 6fe4 3abc 2068 2a3f
00000050: 8ce0 823d 703b d83e 80e2 a73e 67c5 123f
00000060: 5d26 85be 072b a63f 4f01 393e 376a 37be
00000070: 94b9 243f 0b92 b8bc 0ef6 17be 45f4 93be
00000080: b329 34bf 19f6 0fbd 079f 1cbf a2bd 05bf
00000090: cd03 e13e e724 cdbe 022e 86bd fcff f63d
000000a0: 6063 0dbf 8331 20bf 3327 ce3e 3cae 043e
000000b0: 31b0 9e3e 3e11 95be c667 64bd 330b 353e
000000c0: 1de0 fabc 7b5d a6be 108e 3bbf 20d0 5f3d
000000d0: d821 aabe ac86 6fbf 22c8 c63e d45d f7be
000000e0: a322 3fbe fa23 11bf 096c 21bf 1ff5 06be
000000f0: c1ff 19bf 9aec 143f 4c3a 81be 4ed4 5abf
00000100: d771 b8be 577c 53bf 9c36 393c 7f8c 743d
00000110: 33c2 76be c42a e5be 6928 df3e 7577 e83e
00000120: dc70 f0bd 810e 28bf 20da 68be a9e8 74be
00000130: 712b 77be 3697 edbe 57b6 0fbf 42fc c33e
00000140: 2028 1abf a91c 903e a80d 383f 0d3b 243f
00000150: b172 2abe d1a4 023f 3f24 d13d d4f5 dbbf
00000160: 31f4 02be 3a51 1b3f f70a 603d ad44 00bf
00000170: c147 acbe b5fd 21be e35d cdbe ba66 3cbf
00000180: 7be2 5fbd 3672 6e3f 6721 41be a03d 0ebe
00000190: 8c49 bebe 3b3b 5e3e 1dac 24bf 9b69 cf3e
000001a0: 64a0 8dbd 10b3 653f 168f 543d b8ac 04bf
000001b0: 02f5 00bf 2417 18be b19d 913e 526a 70bf
000001c0: b6cb 32be 72b6 c93e 55f2 d23e a811 793d
000001d0: 5eb7 643f 5a63 a7be fb17 663c d353 663d
000001e0: 2e7d cb3e a3ea 85be db69 5c3e 140c ec3e
000001f0: 19ff 0e3e f783 e0bb 663f 533e 0e0d a7be
00000200: 9551 abbe e6b4 833f 8da5 00bf 4fa9 51bf
00000210: d73d 17bd b3a4 57be 44c2 53bf a0dc 5ebf
00000220: f8c9 b8bd ee70 84bd 184c ae3d b08f e1be
00000230: 2b65 cf3e 17f0 b7bf 194c 2abf c011 03be
00000240: bd85 753e a0c7 e8be 9794 0dbf 2e63 1d3f
00000250: 23c1 93be d5c5 25be 3a3f 98be bf6f 96be
00000260: fe90 67bf 9c11 523f 34a1 483d 3d75 6cbf
00000270: df2a e43d 0468 94bf 3925 4cbf fb06 8ebe
00000280: 3610 e9bf 5bee 5bbf e637 8dbe 4604 7abf
00000290: c974 1ebf f7a9 1f3f 77e0 fbbe 196b ec3e
000002a0: 4b21 e0be 49b8 98be 9c5d 773d c140 5bbf
000002b0: a6af c53c 4dc1 22bf 77b4 fd3c 2fe6 d5bd
000002c0: 3fca b8be dc5a 6bbe d51b aebe cfe5 b9be
000002d0: c1ed d7be c35e 0abf 64b5 5d3f f77f cd3d
000002e0: 633d 21bf 2dc5 a8be 3514 5bbf 01fd a63e
000002f0: 112f be3d 150f f13b 3e3c 233e 075e bebd
00000300: ba02 00bf d277 dfbd b518 4c3c cbfa 223f
00000310: 1fe2 eabd 70a7 84be 1045 0b3f db44 fe3e
00000320: 6ecf a3be a047 2d3f 6461 b63d 8d01 23bd
00000330: 7c33 b0be ee3d 77be 6289 213d 9de4 6abe
00000340: 0d99 183e 3f84 053f 7250 85be 6add 56be
00000350: 4041 8a3f 07e8 16bf b6c5 c5be 9ed3 643f
00000360: 21e4 783f ba57 2dbf aeda 0abf 6ed2 12bf
00000370: 190b 193f 0ab3 903d c685 5a3f cc86 00be
00000380: fd73 38bf 0d2c b53e deea a93e 6d23 c23e
00000390: c9e5 d7bc 631a 20bf 03db 303d 8c64 94be
000003a0: 226e 44bf 1b83 24be d18a e63e f04d edbe
000003b0: 1a64 1ebf fa7e da3e 93d5 8ebe 29ce e43e
000003c0: 4fab dd3e 2a80 973e a832 e3be 743b 4a3c
000003d0: 5ec4 373e a370 23bf 03f1 bfbf 42e8 92bc
000003e0: 6925 90be 5452 6d3d 7e91 103f f57e 843e
000003f0: 5459 843e 206f 94be 11f2 f0bc b452 74be
-0.76544803 -0.081964806 0.41654822 -0.15441798 0.1890181 0.6638156 -0.098164625 -0.28251988
-0.31160063 0.019246068 -0.8532442 -0.1328024 -0.8288744 -0.2690678 0.4618707 -0.70376754
-0.37678552 -0.5989513 -0.011407002 0.6656513 0.06390485 0.42232847 0.32789993 0.5733246
-0.2600583 1.2981881 0.18066905 -0.17911611 0.6434567 -0.022530576 -0.14839956 -0.288973
-0.7037613 -0.035146806 -0.61180156 -0.5224248 0.43948212 -0.40067217 -0.06551744 0.12060544
-0.5522976 -0.6257555 0.40264282 0.1295709 0.30993798 -0.29114717 -0.05576303 0.17680053
-0.030624444 -0.32493195 -0.73263645 0.054641843 -0.33228946 -0.9356487 0.38824564 -0.48313773
-0.18665557 -0.5669552 -0.63055474 -0.13179444 -0.60155874 0.58173525 -0.2523979 -0.854802
-0.36024353 -0.826116 0.011304524 0.0597043 -0.24097519 -0.4475919 0.43585518 0.45403638
-0.11740276 -0.6564713 -0.22739458 -0.23916878 -0.24137665 -0.46404427 -0.56137604 0.38278395
-0.60217476 0.28146866 0.7189584 0.64152604 -0.16645314 0.5103274 0.102119915 -1.7184396
-0.12788464 0.60670817 0.054697957 -0.5010479 -0.33648494 -0.15819438 -0.40110692 -0.7359425
-0.054659348 0.9314302 -0.18860398 -0.13890696 -0.37165487 0.21702282 -0.64325124 0.40510258
-0.06915358 0.8972635 0.05189427 -0.5182605 -0.5037385 -0.14852577 0.28440621 -0.9391223
-0.17460522 0.39397007 0.4120051 0.060807854 0.89342296 -0.32692987 0.014043803 0.056232285
0.39743942 -0.26155576 0.21524756 0.46102965 0.139645 -0.006851669 0.20629653 -0.32627147
-0.3346068 1.0289581 -0.5025261 -0.8189897 -0.03692421 -0.21058922 -0.827183 -0.870554
-0.090228975 -0.06466852 0.085106075 -0.44054937 0.40506873 -1.4370145 -0.66522366 -0.1279974
0.23976798 -0.45464802 -0.55304855 0.6147946 -0.2885829 -0.16188748 -0.29735738 -0.2938213
-0.90455616 0.8205812 0.04898186 -0.9236639 0.111409895 -1.1594243 -0.797443 -0.277397
-1.8208072 -0.85910577 -0.2758171 -0.9766277 -0.6189695 0.6236872 -0.4919469 0.4617546
-0.437754 -0.29828098 0.060392007 -0.8564568 0.024131607 -0.63576204 0.030969841 -0.10444295
-0.36091802 -0.22983879 -0.3400561 -0.36308143 -0.4217358 -0.54050845 0.86604905 0.10034173
-0.62984294 -0.32962933 -0.8557771 0.32614902 0.09286321 0.0073565342 0.1594095 -0.09295278
-0.5000416 -0.10911526 0.0124570625 0.6366393 -0.114689104 -0.25908995 0.54402256 0.49661908
-0.31994194 0.67687416 0.089052945 -0.0397964 -0.3441428 -0.24144718 0.03943766 -0.22938772
0.14902134 0.52154917 -0.26037937 -0.209829 1.0801163 -0.58947796 -0.38627404 0.893854
0.972231 -0.67711985 -0.5423993 -0.5735234 0.5978256 0.07065399 0.8536037 -0.12551421
-0.72051984 0.3538517 0.33187002 0.37917653 -0.026354687 -0.6254026 0.043177616 -0.2898296
-0.7673055 -0.16065638 0.45027784 -0.46348524 -0.6187149 0.42675 -0.2789732 0.44688538
0.4329476 0.2958997 -0.44374585 0.012343276 0.17946002 -0.63843745 -1.4995426 -0.017933015
-0.28153542 0.057939842 0.56472003 0.2587811 0.25849402 -0.28991032 -0.029412301 -0.23859674

fc2.bias f4 [400]
00000000: e75f abbe 2d1b 86be 0989 b6be 0a92 f2be
00000010: 499e 99be 88ad d6be 7605 113e b575 e8be
00000020: d8d2 05bf 0f5e d5be 0e36 b0be bbc9 2dbe
00000030: 077d 97be bc3d ecbe d333 95bd 13c0 4abe
00000040: 8f64 e1be a7da 44be 2680 58bf 33f0 9fbe
00000050: 262f 7bbe fbc0 00bf c62c 2abf ec34 19be
00000060: 0dce 493e 3faa b7be 9fb1 ffbe 72cc eebe
00000070: f7c5 06be 5fb2 35be 1a14 74bf f837 94bd
00000080: 1ab8 d7be ee80 a9be 4360 5fbe 6ac7 0cbf
00000090: e06f 80be f006 febd c3f1 b1be 5d0d a3be
000000a0: 0e2a b53d 7045 1ebe 5e12 a8be 0c8f 03bf
000000b0: d977 67be 7715 2fbd 0e30 0abf 5159 33bf
000000c0: 903e a0be 065b 93be d45f b4be e3a9 49be
000000d0: ace8 cc3d b290 e2be d6ea 533d 1708 efbe
000000e0: da3e a9be 5abd bcbe 9b60 03bf f033 41be
000000f0: 4720 24bf 58d0 09bf e2b9 a1be cc94 edbe
00000100: b241 e7be 5301 80be fa53 aebe e567 fdbe
00000110: 14e0 9dbe 6dbc 23bc a506 7abe ab44 eabe
00000120: 3a92 09bf cf5f f23d 8d91 bbbe afaf 0ebf
00000130: fce9 08bf b462 54be 2d0e 98be 960c afbe
00000140: f441 cabe cad7 a1be ca28 a5be 88ee 25be
00000150: e617 febe 0b1b 90be ce2f 1fbf 504e 71be
00000160: efa7 91be 9fd5 00be 5172 1fbe 82b0 9bbe
00000170: df50 74be ae1c aebe 5b6b fbbe dcc6 36be
00000180: 14f1 2fbe aecd aebe d271 04bf e1ae fbbe
00000190: 03a7 93bd 9d79 a5bd b4cf b0be 5beb 31bf
000001a0: 3707 6d3d bc2d ffbe 1ae2 54be af05 5b3d
000001b0: 439d 0ebf 49ba a3be 12ba 8fbe 4152 65be
000001c0: b451 1bbf 67d0 7ebe 265e 803d 7021 01be
000001d0: b266 1ebd 2915 4cbf f909 42be c667 8bbe
000001e0: a06d 8ebe 8e01 e6be 5492 93be 8127 78be
000001f0: 91e1 a8be 4580 d7be 1a67 11bf d445 0fbf
00000200: 030b 07bf e2cc 48be b6f9 00be 6eb7 49bc
00000210: 0baa 20be 3663 44bf 9f38 04bf b7e9 eabe
00000220: 7aa3 b5be d785 37bf b4e4 2cbe e27c 9cbe
00000230: eb9c d2be 385d 15bf 22f9 54bf 91d1 18bf
00000240: f133 ac3d 6b40 06bf ffb1 10bf c0b9 00bd
00000250: 5292 07bf 5183 0ebf 840c 8cbe bae8 473d
00000260: 77d0 90be 6d04 5bbd 8525 8ebe 6c06 58be
00000270: 2667 19bf 1ca4 29bf c94a a13d 8082 b1be
00000280: d68a 4fbf 936e cabe af37 a8bd 6de1 88be
00000290: 9f9a 1cbe 7b3b 02be 2e56 92bf 7f15 bdbe
000002a0: f7f1 e6be 9c23 3ebf eef9 aabe 0e0f 13bf
000002b0: c81c fcbe 3982 b9be 79a6 00bf 7fc8 0ebe
000002c0: 6c6e ecbe 9ea7 6ebd 9e20 40be e2c5 91be
000002d0: a5bc b5be dea7 63be cddb 1bbe ce7e e7be
000002e0: b7da 533c 7db7 f6be 6032 febd 7ecb f83d
000002f0: 6ccf 10bf dc3f b9be 493c 3cbd 11b9 04bf
00000300: 9bc5 a4be def3 c3be 3d5f e7be 29e5 b6bc
00000310: 39ad c7be 818a 08bf c174 debe 08f0 b2be
00000320: a2a2 d6be 23cc b3be eb71 93be 1087 61bf
00000330: e270 c8be b129 b2bd 2662 11bf 995e 00bd
00000340: 8b88 23be 7690 f3bd d84b b3be cb56 f93d
00000350: b936 56bd 8224 80be 2ac9 bcbe dfc5 f1be
00000360: e757 20bf a890 f6be 8157 1fbe 5c4a 353c
00000370: bc74 a03e d2f9 bebe 816a b5bd 03ce 343d
00000380: 4d2f c3be 1bd9 353d 0109 5fbe 11ac f5bd
00000390: b7a0 1cbf fcd6 56be b6b9 91be 6ad9 cebe
000003a0: 89fe b0bd 0a96 9cbe c7f4 c13d 4634 aabe
000003b0: 2a10 3ebf 1968 c0be bbe8 bbbe e3dd aebd
000003c0: 8198 cdbe a95a 85be 9eb5 9fbe de57 45bf
000003d0: e4c9 9bbe d872 01be a3ec 34be b595 95be
000003e0: cf46 c83d 6c71 35bf c096 033e da10 07bf
000003f0: 8408 bbbe 6bb5 86be 78b2 543d b1c1 c5bd
-0.33471605 -0.26192608 -0.35651425 -0.47377044 -0.30003574 -0.4192927 0.1416224 -0.45402303
-0.5227485 -0.41673324 -0.3441624 -0.16971485 -0.29587576 -0.4614085 -0.07285275 -0.19799833
-0.44022033 -0.19224034 -0.8457054 -0.31237945 -0.24529704 -0.50294465 -0.6647457 -0.14961594
0.19707508 -0.35872075 -0.49940202 -0.46640354 -0.13161455 -0.17743824 -0.9534317 -0.07237238
-0.42132646 -0.33106178 -0.21814065 -0.5499178 -0.25085354 -0.12403667 -0.34754762 -0.31846133
0.08845912 -0.15456176 -0.32826513 -0.5139015 -0.22604312 -0.04274508 -0.53979576 -0.7005816
-0.3129773 -0.28780383 -0.3522936 -0.19693713 0.10005316 -0.4425102 0.05173763 -0.4668586
-0.33055764 -0.36863214 -0.51319283 -0.18867469 -0.6411175 -0.5383353 -0.3158713 -0.46402586
-0.4516731 -0.2500101 -0.34048444 -0.49493328 -0.3083502 -0.009993655 -0.24416597 -0.45755515
-0.5373875 0.1183468 -0.36634484 -0.5573682 -0.5348203 -0.20740777 -0.29698315 -0.3418929
-0.39503443 -0.31609946 -0.32257682 -0.16204274 -0.49627608 -0.28145632 -0.6218232 -0.2356503
-0.28448436 -0.1258149 -0.15570952 -0.30408102 -0.23858975 -0.34006256 -0.49105343 -0.17849296
-0.17181808 -0.34141296 -0.51736176 -0.4915686 -0.07209589 -0.080798365 -0.34533465 -0.6949975
0.05786821 -0.4983958 -0.20789376 0.053472217 -0.5570871 -0.31978062 -0.28071648 -0.22394659
-0.60671544 -0.24884187 0.062679574 -0.12610412 -0.038672157 -0.7971979 -0.18949117 -0.2722761
-0.27818012 -0.4492306 -0.28822577 -0.2423382 -0.32984594 -0.4209005 -0.56797945 -0.55965924
-0.5275118 -0.19609407 -0.12595257 -0.012311799 -0.15689866 -0.76713884 -0.51648897 -0.45881435
-0.35476285 -0.716886 -0.16884118 -0.30564028 -0.41135344 -0.58345366 -0.83192647 -0.5969477
0.084083445 -0.52442044 -0.565216 -0.031427145 -0.5295764 -0.5566912 -0.273533 0.04880593
-0.28284046 -0.053471018 -0.27763 -0.210962 -0.5992302 -0.66266036 0.07875592 -0.34669876
-0.8107122 -0.39537486 -0.08213746 -0.26734486 -0.15293358 -0.12718002 -1.143255 -0.36930463
-0.4510648 -0.74273086 -0.33393806 -0.57444847 -0.49240708 -0.36232165 -0.5025402 -0.1394367
-0.46177995 -0.05826532 -0.18762442 -0.28471285 -0.35495487 -0.22232005 -0.15220566 -0.45213932
0.012930564 -0.48186865 -0.12411952 0.12148188 -0.565665 -0.36181533 -0.04595593 -0.5184489
-0.3218201 -0.38271993 -0.4518985 -0.022326069 -0.38999346 -0.5333634 -0.4344845 -0.34948754
-0.41920954 -0.3511668 -0.2879785 -0.88096714 -0.39148623 -0.08699358 -0.5679039 -0.031340215
-0.15970056 -0.11892788 -0.35018802 0.121747576 -0.05229828 -0.25027853 -0.36872226 -0.47221276
-0.6263413 -0.4815724 -0.15560724 0.011065092 0.3133906 -0.37299973 -0.08858205 0.04414178
-0.38122025 0.0443965 -0.21780778 -0.1199571 -0.6118273 -0.20980448 -0.28462 -0.4040025
-0.08642299 -0.3058322 0.09470516 -0.33243006 -0.74243414 -0.3757942 -0.36700997 -0.08538415
-0.40155414 -0.2604573 -0.3119325 -0.770872 -0.30427468 -0.12641466 -0.17668395 -0.2921578
0.09779131 -0.70876193 0.12850475 -0.5276009 -0.36529934 -0.26310286 0.051928014 -0.09656084

fc3.weight f4 [4, 400]
00000000: 6638 dd3e 3829 20bf 3d24 8ebe 56c8 d3be
00000010: 8007 5e3e 8982 10be ccfe 80be f5f9 273f
00000020: ad16 ca3e 0805 343f 72f6 ff3d 71c2 3ebe
00000030: 4092 bb3e 995e 583c 573e 6abf 3262 5b3f
00000040: fcd9 1ebf b028 723f 0b74 813e a67d 6d3b
00000050: f296 4ebf fa6b c63e 75ee 96be 1b4f c2be
00000060: fde7 01bf c8f5 453f d006 ee3e ef5d a73e
00000070: d6f2 6d3e 421f 2d3f 236d b2be 8153 143f
00000080: df53 c83e 5bb2 e03d e40e 7d3d 8e30 e4be
00000090: 7441 313e 7f8b 20bf dd0e ef3e 9803 49be
000000a0: 1931 39be 840d 17be ed07 a4be df4c 923e
000000b0: 2efb 3ebf 62e1 7cbf d8c7 1fbf 038f 9a3f
000000c0: ab17 81be 07d9 803d 74d9 81bf 7bd8 1dbf
000000d0: 74d2 4e3e f396 c3bd f733 ad3e 91ca 1fbf
000000e0: bc3e d93e ebab 35bd 1d25 3e3f 12b1 243f
000000f0: 1301 213f d9e7 483f 61ba c8bc c98a a5be
00000100: 2a40 b7bd c592 253e 7648 413f f1ca 723e
00000110: b9bc ebbc 6ccc 7d3d 915f a1be 6349 8f3e
00000120: 97fb 553f d42b 0ebe 2167 ddbe 349d a5bd
00000130: 57ca 2dbe 99f2 b6be 526d 0dbf 029f 373f
00000140: c9ea ac3d bfef 81be ae54 84bd 1afb f83e
00000150: 0576 4dbf 56af 19bc 68c9 90be 0de9 6bbf
00000160: 81e0 973e 2918 ae3d a1c8 77bf ec99 fbbe
00000170: c7a2 d73d 5a6a 073f 6497 11be bf57 04bf
00000180: 476f 12bf 0216 30bd 540c 083f 9d19 54be
00000190: 28bb 10bf 07e0 953e a4a1 173c 3dab 933e
000001a0: 7f3d b9be 2dc5 b23d 3ebc 743e 5c48 dfbd
000001b0: 0367 dbbd 3a02 673d 9de2 84bf 6437 823f
000001c0: 63eb 033f 2e49 83be a4a0 13bf d720 033f
000001d0: 4a24 343d 8ec9 ae3e 29ee 25bd 1314 3f3d
000001e0: 17fe f63d c0a3 483f e252 b0be 08cb 14bf
000001f0: 7d03 61bf a077 10bf 9829 7ebc 27e3 87be
00000200: c6a6 ebbc e9a1 693e 3321 91be fa21 0abe
00000210: 133e 8abd ba16 583e f0e2 bd3e dbbd 173e
00000220: 82bb 33be e578 b9be 8a06 bdbe 5d60 a83e
00000230: 9e4b 473f 2a47 d63c ee23 0c3f fedf 07be
00000240: 57d7 58bf 5a3c 273d 6bae d6be 3257 4cbf
00000250: 3534 303e 920b ebbd 2e14 813e 2e29 adbe
00000260: d48f ecbd 18f8 48bf f243 f6be 86f2 62bf
00000270: b7eb 4f3f 19ac 49be aa12 a8be 4ee9 563e
00000280: d34a 03be 5f3a f23e acc6 32be 073a a33d
00000290: 10e5 b7be 6029 56bf f455 f43e 4824 11bf
000002a0: a06f 8fbe 9099 883e 9894 2cbf 69a3 93be
000002b0: 1bcc 0dbd 8097 b53e f82d c0be a249 6d3f
000002c0: be02 c8be 426e 4bbe 8dd3 8c3e f4fc 54bf
000002d0: bfe3 6c3d 168d c8be ba5a a2bc 0b0e 063f
000002e0: 883b e5be c5ec 07bf 5d9f 36bf 2fe1 29be
000002f0: 3bf7 93be 8268 2b3e 66d9 39bc a9ef efbe
00000300: 6274 023e d993 c9be 3ff6 2ebc bac1 ce3d
00000310: c5a4 2dbe 8df8 4f3e 4378 253f 9272 4dbe
00000320: 98a1 febd cfd3 573f ce72 673e 4097 44bf
00000330: c03d 51bf ddb2 1d3f f7db 29be 02e0 a33c
00000340: 88ac 143f cf48 3cbf 8e9e fb3e 7706 0abf
00000350: b32e ecbe 13e0 e0bd 526a 213e 4fbf 4d3e
00000360: 7e1a 283f 8648 54bf 1a31 93bc 0957 293e
00000370: 3273 e4be 1603 883f 9045 0cbf f417 803e
00000380: 46b1 21bf afc2 ab3d 9e5d 14bf 984f 2b3f
00000390: 8c88 34be 5828 053e 0d3f 873d db22 b4bb
000003a0: c4b7 be3e 0bdc 8e3e ffcf 00be f1ee b7bd
000003b0: f616 d9bd 3292 febe 0ae2 863e 781e a93d
000003c0: 6ab1 63be e67c 9fbd d880 06be 4591 6e3e
000003d0: 5ceb a73e 9bc2 1e3f 1d11 c93e c52c 923f
000003e0: 1fd1 db3e f83c 93be 0df9 41bf 055e 733f
000003f0: 0273 82be fe5b b1be 2a38 3a3f 0567 c8be
0.4320709 -0.62562895 -0.27762023 -0.41363782 0.21682549 -0.14112295 -0.25194395 0.6561578
0.39470425 0.7032018 0.124981776 -0.18628861 0.36635017 0.013206148 -0.91501373 0.8569671
-0.6205137 0.94593334 0.25283846 0.0036238222 -0.80699074 0.38754255 -0.29478803 -0.37950978
-0.5074461 0.7732816 0.46489573 0.32688853 0.23237166 0.6762582 -0.3484889 0.57939917
0.3912649 0.109715186 0.06178178 -0.44568294 0.17310125 -0.62712854 0.46691027 -0.19630277
-0.18085136 -0.1475125 -0.32037297 0.28574273 -0.7460202 -0.98781407 -0.6241431 1.2074894
-0.2521337 0.06291395 -1.0144486 -0.6165845 0.20197469 -0.09550276 0.3382871 -0.62418467
0.42430675 -0.044353407 0.7427538 0.6433269 0.62892264 0.7847877 -0.024502935 -0.32332447
-0.08947785 0.1616927 0.7550119 0.23710229 -0.028776513 0.06196253 -0.31518224 0.27985677
0.8358702 -0.13883907 -0.43242744 -0.08086625 -0.16971718 -0.35731962 -0.55244935 0.71727
0.08443219 -0.25378224 -0.06461464 0.48629075 -0.8025821 -0.009380182 -0.2827866 -0.9215248
0.2966347 0.08500702 -0.9679051 -0.4914087 0.10529094 0.52896655 -0.14217907 -0.5169639
-0.57201046 -0.04298974 0.5314381 -0.20712896 -0.5653558 0.29272482 0.009254847 0.28841582
-0.3617973 0.087290145 0.23899934 -0.10902473 -0.10713007 0.056398608 -1.0381657 1.0173154
0.51531047 -0.2564177 -0.57666993 0.51221985 0.04397992 0.3413815 -0.04051033 0.046650004
0.120601825 0.7837486 -0.34438235 -0.581223 -0.8789595 -0.56432533 -0.015512846 -0.2654049
-0.028766047 0.2281567 -0.28345641 -0.13489524 -0.06750121 0.2110242 0.37087202 0.14818518
-0.17551997 -0.36225048 -0.3691905 0.3288602 0.7784976 0.02615698 0.54742324 -0.1326904
-0.8470358 0.04082904 -0.41929945 -0.7982055 0.17207415 -0.11476816 0.25210708 -0.3382048
-0.115508705 -0.7850356 -0.48098713 -0.8865131 0.8121905 -0.19694556 -0.3282674 0.20987436
-0.12821512 0.4731016 -0.174586 0.07970052 -0.35916948 -0.83656883 0.47721827 -0.56695986
-0.2801485 0.2667966 -0.67414236 -0.2883561 -0.03461848 0.35467148 -0.3753507 0.9269048
-0.39064592 -0.19866279 0.2750515 -0.83198476 0.057834383 -0.3917014 -0.019818652 0.5236518
-0.4477198 -0.53095657 -0.7133692 -0.16589807 -0.2889956 0.16739085 -0.011343336 -0.46862534
0.12739709 -0.3937061 -0.010678827 0.10095544 -0.16957386 0.20309658 0.6463663 -0.20063236
-0.12433165 0.8430757 0.22602388 -0.7679329 -0.8173485 0.6160105 -0.16587816 0.020004276
0.5807576 -0.735486 0.49144405 -0.53916115 -0.4612938 -0.10980239 0.15763214 0.2009251
0.65665424 -0.8292316 -0.01796775 0.16537108 -0.44619137 1.0625942 -0.54793644 0.25018275
-0.6316112 0.08386742 -0.5795535 0.66918325 -0.17630213 0.13003671 0.06603823 -0.005497319
0.37249577 0.27902254 -0.12579344 -0.08981121 -0.106000826 -0.49720913 0.2634433 0.082577646
-0.22235647 -0.07787494 -0.13135087 0.23297603 0.32796752 0.62015694 0.3927087 1.1419913
0.42932984 -0.28757453 -0.75770646 0.9506534 -0.2547837 -0.34640497 0.7274195 -0.39141098

fc3.bias f4 [4]
00000000: 48ec 97be ca8d 01be 4f92 56be 538a a2be
-0.29672456 -0.12651744 -0.2095425 -0.31746158
