experiments/exp2/models/checkpoint_actor_16.pth (torch_old, 529855 bytes, 6 tensors)

fc1.weight f4 [300, 33]
000000 dd 80 40 bf e5 0e 82 3d 6a 9c 5d be 54 61 8b 3e
       -0.7519663 0.06350497 -0.21641698 0.27222693
000010 e6 f3 30 bf 05 8c 0c bf bb cb 0d 3e 10 e3 98 3e
       -0.6912216 -0.5490115 0.13847248 0.29860735
000020 2d b9 e8 3e 3f f5 0f 3e c9 b1 2f be 84 4b ec be
       0.45453778 0.14058398 -0.17157663 -0.46151364
000030 81 52 0e be 98 cc 6b be 26 c5 1b 3e dd 2c 9d 3d
       -0.1389866 -0.23027265 0.15211925 0.076745726
000040 92 ee 10 be 68 54 40 bf 76 16 11 3f 96 d5 f6 bd
       -0.14153507 -0.75128794 0.566749 -0.12052457
000050 64 2b bd be ba 9a 80 be f4 6e 81 3e f0 a6 c5 be
       -0.36947167 -0.25118047 0.25279963 -0.38603926
000060 01 75 a4 3e 29 1e 51 3d 68 0c 14 3f 3c d4 0d 3f
       0.32120517 0.051054154 0.5783143 0.5540197
000070 d3 55 e8 be 4e e8 5a 3d c0 9d 1f bf 0c e2 82 3c
       -0.4537798 0.0534442 -0.6235008 0.015976928
000080 c7 f8 dc bf ce cd b8 3c be 7b 1d 3f a2 66 54 3f
       -1.7263421 0.022559073 0.6151694 0.82969105
000090 95 54 5f bf 2b 29 0f bf e4 bb e1 bf c4 24 ce 3e
       -0.87238437 -0.5592219 -1.7635465 0.40262425
0000a0 41 eb bd be fa 96 3d 3e f8 1a 87 3d 7e 75 a1 3e
       -0.37093547 0.18514624 0.06596941 0.31534952
0000b0 05 84 1b bf 67 75 b3 3e b0 f2 b1 bd c8 aa 50 3e
       -0.6074832 0.35050508 -0.08688867 0.20377648
0000c0 cd 20 75 3e a6 c6 d6 3f 27 5f c0 3e 7e df 06 bf
       0.23938294 1.6779373 0.37572595 -0.5268477
0000d0 76 8d 15 bf 7b 98 29 be eb c9 fc be 4d c7 b7 3d
       -0.5841898 -0.16562073 -0.493728 0.089735605
0000e0 42 b4 94 be 92 26 90 3e 63 25 55 3e 7a 7e 1d 3f
       -0.29043776 0.28154427 0.20815043 0.6152111
0000f0 25 05 15 3f b7 27 e9 3d 2e 5e 47 3d c9 19 0b bf
       0.58210975 0.11384528 0.0486738 -0.5433622
000100 94 e9 30 bd 2c 31 d0 3f 0b 93 32 bf 72 f3 ee bb
       -0.043191507 1.6265006 -0.6975562 -0.0072922045
000110 3d 0c ca 3e 3c 37 aa be 85 38 44 3d 58 ee cd 3f
       0.39462462 -0.33245265 0.047905464 1.6088362
000120 2a 35 e0 3e b1 1a 81 be 16 ee 28 3f 3f dd 04 3f
       0.4379056 -0.25215676 0.6598829 0.51900095
000130 80 df 26 3e ee b2 7f 3e a9 0d 8d be d6 55 b5 3e
       0.16296196 0.249706 -0.27549484 0.3541705
000140 18 fd 07 3c 70 0e e3 3d 0a 4f fc bf 22 0f b3 bf
       0.008300088 0.11086738 -1.9711621 -1.3988993
000150 3d 0e 55 be 45 c2 85 3f 14 18 08 bf 58 4b 3a be
       -0.20806213 1.0449911 -0.5316174 -0.18192804
000160 8e 61 c0 be 50 c1 6c 3e c6 65 d4 bd fd 63 bd 3e
       -0.37574428 0.23120618 -0.10370974 0.36990348
000170 fa 2f a3 3e 91 82 08 3f e2 e0 ad bd 8c 8f 7d bc
       0.3187254 0.5332423 -0.084901586 -0.015476119
000180 a7 86 10 bf d6 78 4b bd 33 79 e3 bf 97 ec f4 bc
       -0.56455463 -0.049675785 -1.7771362 -0.029897971
000190 c6 25 da 3e 08 07 68 be db be 54 be aa fe b9 be
       0.42606944 -0.22658932 -0.2077593 -0.36327106
0001a0 bf cd 2b bf da 6c 0a be c4 d0 89 3b 50 1c f7 3e
       -0.6711082 -0.13518086 0.004205795 0.48263788
0001b0 79 b9 ee 3e 87 96 e9 bd ce f8 01 be 0b a4 86 3c
       0.4662588 -0.11405664 -0.12692568 0.016435644
0001c0 9d b8 a6 3e 9b c1 46 be bf 50 b1 be dc 3e 94 bf
       0.32562724 -0.19409792 -0.34631917 -1.1581683
0001d0 80 9f 04 bf 4f c1 86 3f 74 11 b8 3e 11 48 00 be
       -0.5180588 1.0527743 0.35950816 -0.12527491
0001e0 63 32 00 3f a5 c2 f3 3d 76 10 0b be b8 1a 72 be
       0.50076884 0.1190236 -0.13580498 -0.23643005
0001f0 75 6f a8 be 33 c8 c3 be d3 6d e9 3e 08 75 9c 3d
       -0.32897535 -0.38238677 0.45591602 0.076395094
000200 f8 d8 b8 3c a5 ad d1 be 5c 0c 65 3d 6b 64 6e 40
       0.022564396 -0.40952793 0.05591999 3.724879
000210 58 01 a8 3c a0 e7 f7 bd f2 0a f5 be bd 78 2f be
       0.020508453 -0.12104726 -0.47859913 -0.17135902
000220 c0 04 a9 3f 1b 8c 25 bf df 6b b1 bd db 3e 6b 3e
       1.3204575 -0.6466691 -0.08663153 0.22973196
000230 3a 13 2e 3a 87 53 09 3f 1b e2 6c 3e 2f e7 82 be
       0.0006640438 0.5364308 0.23133127 -0.25567004
000240 65 e9 17 bf f1 59 f4 3e 63 ca b2 3d ee f6 f8 3e
       -0.59340507 0.4772487 0.087300085 0.48625892
000250 65 e1 d1 be 3b 44 c1 bf a4 1f 5e bf 04 23 36 be
       -0.40992275 -1.5098947 -0.8676703 -0.17786795
000260 8f cf 89 be 3f 9c 41 3e 87 56 d3 be ec 86 e2 3e
       -0.26916167 0.1890726 -0.41276953 0.44243562
000270 69 af 9f be 99 72 64 be ab 9d eb bd 5b a3 4b 3f
       -0.31188515 -0.2230934 -0.11504682 0.79546136
000280 32 ee d1 bc 50 c5 cc bb 97 27 3d bf 4a dc 04 3d
       -0.025626276 -0.0062491074 -0.73888534 0.032436647
000290 2d bd 1d be 67 d0 51 bd 39 17 a8 3c df 1c cc be
       -0.15404196 -0.05122414 0.020518886 -0.39865777
0002a0 f0 2e a3 bf 20 c6 69 bf ca f8 8c be 07 1f 40 3f
       -1.2748699 -0.9131794 -0.2753356 0.75047344
0002b0 3c 90 4e 3f db f2 95 bf 98 28 95 3e c8 30 b2 3e
       0.80688834 -1.1714739 0.29132533 0.34802842
0002c0 b4 89 88 3e b3 74 36 bf ad 37 95 3e 97 b9 1e 3f
       0.2666756 -0.7127182 0.2914404 0.6200194
0002d0 91 74 2a be 7b 06 06 bf fb 68 62 3f 3d c4 32 3f
       -0.16646029 -0.5235364 0.8844144 0.69830686
0002e0 a1 8a e3 3d 7b ee 26 3e 43 ea 35 bf 42 19 81 be
       0.11110426 0.1630191 -0.7106058 -0.25214583
0002f0 49 4f 09 3f 95 0e bb 3e e8 38 fb bd 2b c7 93 be
       0.53636605 0.36534563 -0.122667134 -0.2886289
000300 04 b0 55 3e 96 33 98 be 6d 1f 64 bd 1d 58 8a be
       0.20867926 -0.29726857 -0.055694032 -0.2702035
000310 e8 17 14 bd bb 65 96 3e c1 bc ef 3d 82 f9 88 3e
       -0.03615561 0.2937449 0.11705924 0.2675286
000320 4b e7 c0 bc d3 87 18 bf 7a fd 75 3e 48 91 24 be
       -0.02354779 -0.5958225 0.24022475 -0.16071045
000330 9a 63 fe 3e fa c5 a5 be fc 1c 80 3e 36 2b 19 3c
       0.49685365 -0.32377607 0.25022113 0.009348681
000340 4c 98 51 3e 50 5c f0 be b7 3f bb 3d e6 c9 d4 3e
       0.20468253 -0.4694543 0.09143012 0.41560286
000350 88 95 88 be 16 41 3d bf 7a b7 d8 be 4d d7 03 3f
       -0.26676583 -0.7392744 -0.42327482 0.515004
000360 f1 1a 77 bd 66 c2 d9 be 26 7f 40 3f cd 95 33 be
       -0.060328428 -0.42531127 0.75194013 -0.17537613
000370 e8 dd 61 3d a1 24 4a 3e 96 ea 98 3e e6 fa 9a bb
       0.055143267 0.19740535 0.29866475 -0.0047296165
000380 b3 83 7f be 51 90 28 3d 1d e2 b1 3e da 8b 67 3d
       -0.24952583 0.041153256 0.34742823 0.056529857
000390 6d fc 1a bd 78 f1 05 3d f6 8c 4f 3f 1d ff 8d bd
       -0.03783839 0.032700986 0.81074464 -0.069334246
0003a0 c3 6b 51 3e 6c 9b d7 bc 7d a0 16 bd ac 9e 7d bf
       0.20451264 -0.026319228 -0.036774147 -0.9907024
0003b0 e1 f7 33 bf d7 10 34 3d 1a d8 aa be 00 e6 05 3e
       -0.7030011 0.043961372 -0.33367997 0.1307602
0003c0 26 dd 1c 3c 52 e8 95 bd fe 23 d0 be b0 81 9c 3e
       0.00957421 -0.07319702 -0.4065246 0.30567694
0003d0 fa 15 b5 3d 9d d2 2d bf 3f 57 52 be e7 b9 0f bf
       0.08842082 -0.67899495 -0.20541094 -0.5614304
0003e0 92 49 27 3f 76 cf 92 be c5 bc 8c 3d 11 62 f7 3d
       0.65346634 -0.28673905 0.068719424 0.120792516
0003f0 f7 be 51 3d 72 79 25 be 4c e2 5c be 27 4e 03 3e
       0.05120751 -0.16159609 -0.215707 0.12822782

fc1.bias f4 [300]
000000 00 7b eb be 20 34 cf be 0e 3c ec be 74 0d 09 bf
       -0.4599228 -0.40469456 -0.46139568 -0.5353615
000010 8d bd 28 bf eb 91 a0 be 77 1d 40 bd 24 8a 2f bf
       -0.6591423 -0.31361327 -0.0469031 -0.6857016
000020 38 48 df bd fd 2c 3a bf 74 fa 20 be f4 6e 0a bf
       -0.109024465 -0.72724897 -0.1572054 -0.5407555
000030 e0 49 0e 3e 7d 62 93 bd 1e e7 88 bf 1c 2e a5 be
       0.13895369 -0.071965195 -1.0695531 -0.3226174
000040 96 14 1b bf a3 4c 9e be 1c b6 9a 3c 94 e9 05 be
       -0.60578287 -0.30917844 0.018885665 -0.13077384
000050 2e 5a ad be 5b fc 39 bf 9f 4b 6c be b6 1c 6d bf
       -0.33857864 -0.7265069 -0.23075722 -0.92621934
000060 c6 1f d3 be f5 38 55 bf d8 4f 03 be 32 86 0a bf
       -0.4123518 -0.83290035 -0.12823427 -0.54111016
000070 8e 47 b7 be 16 25 2c bf 7a e1 33 bf 1a 41 98 bd
       -0.3579678 -0.6724409 -0.70265925 -0.07434292
000080 e0 d3 bb be 0f a2 f2 3c 65 f2 33 bf fb cc a9 be
       -0.36685085 0.029618291 -0.7029174 -0.331642
000090 13 eb 60 be f0 02 61 3e 61 47 8d be 78 67 94 be
       -0.21964674 0.21973777 -0.2759352 -0.2898519
0000a0 93 fe 03 bf ef 11 36 bf 69 8d 21 be c0 d8 de 3d
       -0.51560324 -0.71121114 -0.157766 0.108811855
0000b0 b7 10 60 bf 32 a2 1d bf 69 fb c0 be 56 1f 34 bf
       -0.87525505 -0.61575615 -0.3769181 -0.70360315
0000c0 80 14 dd be 8b c2 4b bf 11 00 6c be 53 c4 7b bf
       -0.43179703 -0.79593724 -0.230469 -0.9834644
0000d0 23 d8 48 bf d8 d0 e3 be 8c 5e 15 bf e7 74 0c bf
       -0.784548 -0.44495273 -0.5834739 -0.5486588
0000e0 3c 5e 33 bd 4c 0c 58 bf 1c ac 45 be 6d 93 10 bf
       -0.04379104 -0.84393764 -0.19303936 -0.56474954
0000f0 46 a3 d1 be e7 65 49 bf fe d5 1b bf d8 b3 24 3d
       -0.4094488 -0.78671116 -0.608734 0.040210575
000100 b9 f0 1b bf 71 bb 46 bd 67 da e5 be 94 2e 0f bf
       -0.6091419 -0.0485186 -0.4489319 -0.5593045
000110 3c 80 9c be d8 a0 59 bf a4 bc 51 bf b4 0a df be
       -0.30566585 -0.85011053 -0.8192847 -0.43562853
000120 82 80 b8 3e 49 d6 63 be 26 e3 7d bf 88 2f 21 bd
       0.36035544 -0.22249712 -0.99174726 -0.03935197
000130 86 14 42 bf 8d e6 5b bf e0 0d 40 bf 1c a8 74 be
       -0.75812566 -0.8589867 -0.7502117 -0.23892254
000140 8b 98 11 bf 56 7b 7f bf 9b db 87 bf fe 76 09 bf
       -0.5687339 -0.9979757 -1.0613893 -0.5369719
000150 d8 08 19 3f 60 de c0 3e 75 5a b3 be 48 3c b8 be
       0.5977912 0.3766966 -0.3502995 -0.3598349
000160 1c a5 31 be e6 e5 17 bd 19 9d 21 bf a0 36 1a bf
       -0.1734814 -0.037084483 -0.63130337 -0.602396
000170 b3 d9 99 be d1 fd 62 bf 03 dd e6 3c ee c8 3d bf
       -0.30048904 -0.88668543 0.028181558 -0.7413472
000180 6f 98 2d bf 77 3c f7 3d 9a 29 22 bf bf 58 da be
       -0.6781072 0.1207208 -0.6334473 -0.42645833
000190 86 7c 02 3f fe 9b 2e bf 82 03 eb be 0f c4 0d bf
       0.5097126 -0.68206775 -0.45901114 -0.55377287
0001a0 a2 0a 37 bf ef e5 20 be 5e 75 dc be a5 d8 5d bf
       -0.715006 -0.15712713 -0.43058294 -0.866587
0001b0 70 be 3d bf 9c b1 ea be e9 ed 20 bf fe cc ac be
       -0.7411871 -0.4583863 -0.6286302 -0.33750147
0001c0 24 88 8f bf d3 d3 21 bf 2a de 6f 3d 81 5c e1 be
       -1.1213422 -0.63213843 0.05856148 -0.44015887
0001d0 87 65 41 bf 33 2a 1d bf be 91 5c bf 18 84 53 bf
       -0.75545543 -0.61392516 -0.86159885 -0.82623434
0001e0 0b d2 d7 be 92 c1 9b bf 9b 99 66 bf 11 39 f8 be
       -0.42152438 -1.2168448 -0.90078133 -0.48481038
0001f0 18 c0 0a bf d7 dc 88 be a6 43 87 bf 1f 30 b1 be
       -0.5419936 -0.26730987 -1.056752 -0.34607026
000200 78 15 44 bd 5e b0 35 bf a8 21 b9 ba 9c 91 0f bf
       -0.047872037 -0.7097224 -0.001412441 -0.5608156
000210 ed 90 6d bf 0f d8 af be ff 75 03 bf bd 10 3b bf
       -0.92799264 -0.34344527 -0.5135192 -0.73072416
000220 a5 f7 80 bf a5 21 78 bf b9 5f c6 be a7 f6 33 be
       -1.0075575 -0.9692634 -0.38744906 -0.17574559
000230 92 db a5 be e6 f4 35 bf 81 b7 f7 bd 1a a9 30 bf
       -0.3239408 -0.7107681 -0.120955475 -0.6900803
000240 f3 ae 19 bf 62 40 24 bf ca b0 bb be 4b e1 87 bf
       -0.60032576 -0.6416074 -0.36658317 -1.0615629
000250 f0 67 45 bf 09 aa 8c be 91 b3 ff be c7 d6 d8 be
       -0.7711172 -0.27473477 -0.49941686 -0.42351362
000260 69 6a e6 be a7 3b 9b be e5 60 92 bb fb 3c 6b be
       -0.4500306 -0.3031895 -0.004467117 -0.22972481
000270 23 3d d3 be 1f 51 32 bf ae 1e d3 bd 3a 61 f2 be
       -0.4125758 -0.6965503 -0.10308586 -0.47339803
000280 b5 c9 0c bf 0d d3 fb be 07 e7 11 be 4f 68 39 bf
       -0.5499528 -0.49184456 -0.14248286 -0.7242479
000290 e4 a6 a9 be 24 10 1e bf 1c e4 3b bf a0 76 f5 be
       -0.3313514 -0.6174338 -0.7339494 -0.47942066
0002a0 01 49 12 bf 4b 3d 73 bf c0 f3 a8 be fd bd 83 be
       -0.57142645 -0.950154 -0.32998466 -0.25730887
0002b0 d2 74 34 bf 93 7c 83 bf 14 7c 8f bd 5c 4c 08 bf
       -0.70490754 -1.0272392 -0.07006088 -0.53241515
0002c0 a3 b4 1f bf 85 76 8f bf 7b d7 00 bf c9 78 13 bf
       -0.62385005 -1.1208044 -0.503288 -0.5760618
0002d0 b7 f6 1e be 89 51 5d bf b5 5f 1a bf 87 38 20 bf
       -0.15523802 -0.8645254 -0.6030229 -0.62586254
0002e0 a1 56 5b be 0f 80 e7 be 1a 5b 06 bf 50 95 5a bf
       -0.21419765 -0.45214888 -0.5248276 -0.8538408
0002f0 4a bd 58 bf 91 03 c1 be 3a 9a 9b be db 8a 42 bf
       -0.8466383 -0.37698033 -0.30391103 -0.75993127
000300 ed 24 76 be 6d 49 3a 3d 3e 03 39 3d 93 76 35 bf
       -0.24037524 0.04548018 0.045169108 -0.70884055
000310 b4 6b 05 bf f6 16 c2 be 3b 0f 37 bf ed 90 21 bf
       -0.52117467 -0.37908143 -0.71507615 -0.63111764
000320 5b 9b 5d bf 77 a5 b0 be 82 cf fd be bf 3e 2f be
       -0.8656518 -0.3450124 -0.49572378 -0.1711378
000330 15 aa 48 be aa f9 7c bd ff 77 00 3e 8f 3d c0 be
       -0.19596131 -0.061761536 0.12545775 -0.37546965
000340 82 b9 4e be 98 ab 49 be 0d 1f 1c bf a8 ce 7b bf
       -0.20187953 -0.19694364 -0.6098488 -0.9836221
000350 1f ab 10 bf c9 44 80 bf 53 98 22 bf 2e 1d f1 3d
       -0.5651111 -1.0020992 -0.6351368 0.11773144
000360 ad 99 1f bf c8 30 17 bf 9e 89 36 bf 69 06 13 bf
       -0.62343866 -0.5905881 -0.7130374 -0.57431656
000370 bf 14 d2 be 52 4e fe be eb 11 ef be 77 10 c0 be
       -0.41031453 -0.4966913 -0.46693358 -0.37512562
000380 a1 0a 52 bf 7e b7 ed be be 0a b6 be 94 6d 4a bf
       -0.8204747 -0.46429056 -0.3555507 -0.7907345
000390 6c a9 e1 be ca 1a 48 bf 87 af f9 be d9 cc a4 be
       -0.4407457 -0.78165877 -0.4876673 -0.32187536
0003a0 3b 32 c0 be 1c 81 06 bf 79 64 6f bf e1 08 13 bf
       -0.37538323 -0.52540755 -0.93512684 -0.57435423
0003b0 16 0e 0d 3e d5 51 25 bf 20 a2 70 bf 18 09 8c be
       0.13774905 -0.6457799 -0.93997383 -0.27350688
0003c0 dc c3 39 be 8e 6f bb bd cd 19 b1 be 14 51 45 bf
       -0.1814112 -0.09152137 -0.34589997 -0.7707684
0003d0 1e d9 a4 be d9 28 03 bf e7 83 13 bf a9 06 1c bf
       -0.32196897 -0.51234204 -0.5762314 -0.6094766
0003e0 00 5c 42 be 64 07 1b bf 49 93 ad be ca 65 be be
       -0.18980408 -0.6055815 -0.33901432 -0.37187034
0003f0 0f 40 d6 3d e6 df b3 be 24 67 03 bf 5a b1 f9 3d
       0.10461437 -0.35131758 -0.51329255 0.1219203

fc2.weight f4 [400, 300]
000000 50 b4 ae 3c 6a 1a 3c be 8e 01 e6 bc d7 0e bf 3e
       0.021326214 -0.18369451 -0.028076913 0.3731601
000010 a3 bc 67 be 36 07 98 be fc c4 05 be 4c 4b 90 be
       -0.22630553 -0.29693002 -0.13063425 -0.28182447
000020 1d ff 34 3f 18 de a5 3e c8 d0 48 bf a8 96 83 3d
       0.7070177 0.32396007 -0.78443575 0.0642522
000030 b5 fa 08 bf a9 41 ea bd 33 bc 2c bf 4e 32 3a be
       -0.5350755 -0.11438305 -0.6747467 -0.18183252
000040 3d 58 c5 3d 7a a2 b6 bd 2f 35 b4 be 67 27 04 bf
       0.09635971 -0.08917709 -0.35196826 -0.51622623
000050 11 3c d8 be f8 fb c2 3e 3b 25 d4 bd 91 65 63 3d
       -0.42233327 0.38082862 -0.10358664 0.055516783
000060 09 34 43 3e 65 d1 de be 27 9f 13 bf fc bc 33 bf
       0.19062819 -0.4351913 -0.5766472 -0.7021024
000070 06 17 98 be b0 94 0f be 52 43 2b bf a7 8c 9f bf
       -0.29705065 -0.14021564 -0.668996 -1.2464799
000080 6b 2e 2f 3f a1 a5 52 3e 71 7f 40 3e 2d 42 da 3b
       0.68430203 0.20570995 0.18798615 0.006660721
000090 27 36 76 bf 4c b0 11 3d f5 06 06 be ed 29 cd 3d
       -0.9617638 0.03556852 -0.13088591 0.10017762
0000a0 79 99 14 bf 7a e9 7f bf 25 44 fe bd b1 94 19 bf
       -0.5804668 -0.9996563 -0.12415341 -0.5999251
0000b0 93 04 65 3e 50 34 8a 3e eb 10 08 bf 8d a6 be be
       0.22365026 0.26993036 -0.53150815 -0.37236443
0000c0 9d 14 b2 be dc 17 08 bf e1 3b 48 be 15 4b 0b bf
       -0.34781352 -0.53161407 -0.19554092 -0.5441144
0000d0 b2 fc c4 be 5c cc 87 3e 9c 7c 2b be 76 08 fc be
       -0.3847404 0.265231 -0.16746753 -0.49225205
0000e0 bf 84 87 3e 79 9c e9 be 96 7f 07 bf dd ef 1a bb
       0.26468465 -0.45627192 -0.52929056 -0.0023641505
0000f0 17 0f 2d 3f 3c 49 f2 be de 26 1b bd 6e 51 93 bd
       0.6760115 -0.47321498 -0.037878864 -0.07193266
000100 b4 b2 b0 bf 70 a1 9e 3e 1d 5a df 3c c9 49 8c be
       -1.3804536 0.30982542 0.027264649 -0.27400044
000110 96 ac d4 bd c2 5c 66 bc 29 87 14 be 42 95 e9 3d
       -0.10384481 -0.014060201 -0.14504685 0.11405422
000120 e9 8f 2f 3c b3 71 0d bf 63 31 66 3d e4 4c b0 be
       0.010715463 -0.55251616 0.056199443 -0.34433663
000130 eb 32 b4 3e 4a 20 53 3f 6c da 09 bf ab 93 14 bf
       0.35195097 0.82471144 -0.5384891 -0.58037823
000140 31 47 2f 3e 49 ee 05 bf 4b be f2 be 7f 88 42 bf
       0.17117001 -0.5231672 -0.47410807 -0.75989527
000150 3c 93 47 bf 35 f2 13 bf 94 57 54 be 19 ff 37 be
       -0.77959037 -0.57791454 -0.20736533 -0.17968406
000160 9d da 66 3b 3b 69 de 3d 81 91 83 be 7e 08 c5 bc
       0.0035225519 0.10859915 -0.25696948 -0.024051901
000170 0f a7 f3 be d0 99 1e bf 1d dc 4f 3f 9c d1 50 be
       -0.47588393 -0.6195345 0.8119524 -0.2039246
000180 ce 73 a0 3d f3 6a ee bd 27 cf 18 3e 26 46 40 3f
       0.07834588 -0.11641493 0.14922772 0.7510704
000190 ca f7 55 bf e7 22 28 3d 7f ee 34 3e 6d e9 a7 be
       -0.8358122 0.04104891 0.17669104 -0.32795277
0001a0 e6 42 01 3e 44 43 5f bc c9 89 4f 3f 26 1e 5d be
       0.12623176 -0.013626877 0.8106962 -0.21593532
0001b0 18 ec 52 3f dd ba dc be e9 34 5a bf b1 ec ea 3d
       0.823915 -0.43111315 -0.85236984 0.114709266
0001c0 51 e9 19 be 7c 1f 93 3e 6d 99 3c be 9e c0 f9 be
       -0.1503041 0.28734958 -0.18417902 -0.48779768
0001d0 13 d2 41 bd f6 b5 86 3e 31 ba 89 bf 75 36 92 bf
       -0.047319483 0.263107 -1.0759946 -1.1422869
0001e0 d0 bc 93 3e d5 76 b1 be c3 78 0d bf fb 7d a6 3a
       0.2885499 -0.34660974 -0.5526239 0.001270234
0001f0 e5 ec 50 bf 7a e2 0c 3e 2e f2 27 be 98 51 d5 3e
       -0.8161147 0.13758269 -0.16400978 0.41663814
000200 6e dc 82 be 24 93 a7 be b9 0d 32 be ec fa 3c bf
       -0.255588 -0.32729447 -0.17388047 -0.73820376
000210 64 fc 34 bf df c9 73 be ba 73 2e bf 6d 6f 4d bc
       -0.7069762 -0.23807476 -0.68145335 -0.012538773
000220 f9 78 8e 3e c5 b6 11 bf 9b 5c 2a 3e 3a ce 92 bf
       0.2782667 -0.5691951 0.16636889 -1.1469185
000230 4d 37 e6 be 82 00 e7 3d ea 89 f1 be 51 0d 96 3e
       -0.44964066 0.11279394 -0.47175533 0.29307035
000240 d1 9d 0d 3a 9c e5 80 3e 7b 3a 16 bf 42 80 5f 3e
       0.00054022396 0.25175178 -0.58682984 0.2182627
000250 60 86 6e bf dc 95 3f bf 71 e7 68 bc f1 5f 0c bf
       -0.9317379 -0.7483804 -0.014215336 -0.54833895
000260 d2 b7 01 3f 7f dd 54 bd f5 b9 3b bf 65 61 19 bf
       0.5067111 -0.051969048 -0.7333062 -0.5991424
000270 2a 69 52 be 9f 29 eb 3d f2 ca c8 3d 0e 54 76 3f
       -0.2054793 0.11482548 0.09804334 0.9622201
000280 8b 96 e1 3e bc de a9 3e 00 b6 1c 3f 00 22 ea bc
       0.44060168 0.33177745 0.6121521 -0.028580666
000290 eb e5 c9 be 4a 57 2e bf 0a b1 89 3e 02 63 dc be
       -0.39433226 -0.6810194 0.26892883 -0.43044287
0002a0 9e 7f 62 be 7e 79 c6 3e f3 97 6c be 2a d9 f0 be
       -0.22118995 0.38764566 -0.23104839 -0.47040683
0002b0 71 9c f5 bc 9d 77 23 bf b7 00 d8 3c 66 1b a0 3e
       -0.029981824 -0.6385439 0.026367528 0.31270903
0002c0 54 09 fa 3e 3b af 4a be be cb cf be b9 d5 1e bf
       0.48835242 -0.19793408 -0.4058513 -0.62044865
0002d0 f2 c3 e6 be 31 0d 5c bf 05 ca 0b 3f 4e 23 0a bf
       -0.4507137 -0.8595763 0.5460513 -0.5396012
0002e0 0e c4 43 3e 09 19 9e be 8e 1a 02 3f 90 3d 03 3e
       0.19117758 -0.30878475 0.5082177 0.12816453
0002f0 98 f1 a9 3e 19 04 03 be b7 8a 7e 3e 4c 65 ab 3e
       0.33192134 -0.12794532 0.24857603 0.3347572
000300 d0 a7 c9 3d 52 b5 d7 be 90 36 05 bc 39 96 bf be
       0.09846461 -0.42130524 -0.0081306845 -0.37419298
000310 1b 9f d1 be ad 0b 48 3f ae 5b 8c be 24 54 fc bd
       -0.409417 0.78142816 -0.27413696 -0.12320736
000320 b4 9a 11 be 2b 8e 14 bf 02 a6 8a 3e 48 e0 80 be
       -0.14219171 -0.5802943 0.2707978 -0.25171113
000330 2c 54 6a 3e 5e 3e 6a bf b4 ec 90 be 0f 38 b3 3e
       0.22883672 -0.91501415 -0.2830559 0.35003707
000340 a1 e1 28 bf c8 ad a8 bc d9 a4 8b bd f1 59 6a bf
       -0.6596928 -0.020590678 -0.068185516 -0.9154349
000350 34 f6 2f bf 9d d1 42 3e 71 1e 2c 3e 24 83 b0 3e
       -0.6873505 0.19025274 0.16808487 0.34475052
000360 57 99 92 be de 4b 06 bf db c4 b9 be 54 b1 c5 be
       -0.28632614 -0.52459514 -0.36283 -0.38611853
000370 51 90 91 be 37 41 5d 3f 2e d6 90 3e 47 47 1a 3c
       -0.28430417 0.86427635 0.28288406 0.009416408
000380 6d 6b f7 bd 19 ba 25 3d 4c ae 8f bd c8 44 01 bf
       -0.12081037 0.04046068 -0.07015666 -0.50495577
000390 48 bf df bd 30 8d 84 3d ff a5 da 3e d3 04 14 bf
       -0.10925156 0.06472242 0.4270477 -0.5781986
0003a0 39 e3 20 3e 87 52 85 3d 10 0a 01 3f c0 e7 5d bf
       0.15711679 0.065098815 0.5040598 -0.8668175
0003b0 ec a4 4c bf d8 d4 91 bf 65 65 ac be 45 35 d3 3e
       -0.7993915 -1.139308 -0.33671108 0.4125158
0003c0 28 c8 73 bf 23 60 2e be 6c c3 c9 3d 83 c2 88 3e
       -0.9522729 -0.17028861 0.09851727 0.267109
0003d0 13 eb 1c 3e 89 11 90 bc 9c b2 84 3e e4 8a 3c 3e
       0.15324049 -0.017586486 0.25917518 0.18412358
0003e0 01 73 9c be 41 d3 60 3f 9d d2 84 3d 52 8e 8e 3d
       -0.3055649 0.8782235 0.06485484 0.06960739
0003f0 bf fc 5a be 3f e9 90 be 9f 47 15 3e 8f 5c 48 bd
       -0.21385477 -0.28302953 0.14578103 -0.048916396

fc2.bias f4 [400]
000000 3b 86 9b be d2 cd 18 bf 4e f9 11 bf 46 f0 b3 3e
       -0.30375847 -0.59689057 -0.57021034 0.35144252
000010 64 4b 8c 3c 75 88 c5 bd 3a 40 28 bf ac 4e b4 3c
       0.017125793 -0.09645168 -0.65723 0.02201017
000020 e5 00 30 be cb 9c 24 3d fa d7 0c bf 91 2c f9 be
       -0.17187841 0.040188592 -0.55017054 -0.48666814
000030 a4 80 1e be 59 01 8d be 29 72 e4 be 25 24 71 3d
       -0.1547876 -0.2754009 -0.44618347 0.05887236
000040 23 aa fe be a1 d3 cf bd 76 1f 2e bf 2d 58 1c bd
       -0.4973918 -0.10147787 -0.68016756 -0.03817003
000050 71 9a 39 3d 86 52 10 bf 4d 99 59 bf 33 5f 59 3d
       0.045313302 -0.5637592 -0.84999543 0.053069305
000060 b7 8d 31 bd db 03 ce bd e7 a4 67 3e 34 41 e9 bd
       -0.04334804 -0.10059329 0.22621499 -0.1138939
000070 62 e3 da be cf 9b 0a bd 97 dd db 3e 2b 06 13 3e
       -0.42751604 -0.033839997 0.42942497 0.14357822
000080 8a 40 a3 be e4 6b 12 bb 3e aa 92 be ef 76 16 bf
       -0.31885177 -0.002234214 -0.2864551 -0.5877523
000090 d4 37 ab be de 71 55 be 3e 68 1e 3e 24 2f 65 be
       -0.3344103 -0.20844218 0.15469453 -0.22381264
0000a0 9a e7 a6 be c6 33 a9 3d d5 95 c8 be 7d fa 44 be
       -0.32598573 0.08261828 -0.39176813 -0.19236179
0000b0 ef 7a 95 be 36 72 04 3e d1 1a 24 bf 66 30 e7 be
       -0.29195353 0.12934193 -0.6410342 -0.45154113
0000c0 e7 f0 ba 3d 5b d3 bd bd 46 81 4a 3b 2f 2d d9 be
       0.0912798 -0.092688285 0.0030899807 -0.42417285
0000d0 72 6f 33 bc f9 dc 6b be 47 fd 5d be d2 e9 60 be
       -0.010951864 -0.23033513 -0.21678649 -0.21964195
0000e0 8d 02 a7 be 92 e0 98 be c8 57 04 be cc 2b 8f 3d
       -0.32619134 -0.29858834 -0.12924111 0.069907755
0000f0 60 5d a5 bc 92 00 74 be 1e 6d 55 3c eb ff 0e be
       -0.020186126 -0.23828343 0.013026504 -0.13964812
000100 93 8a 81 bd 25 f6 1b 3e 7f 90 02 be e8 71 0c 3e
       -0.06325259 0.15230615 -0.12750433 0.13715327
000110 07 a7 cc 3e 47 d6 09 bf 48 57 1e be c7 5d 45 be
       0.39971182 -0.53842586 -0.15462983 -0.19274054
000120 f5 0d 83 be b0 11 37 3d 13 14 ac be ca b1 84 be
       -0.25596586 0.044694602 -0.33609065 -0.25916892
000130 b1 79 6f be 03 a3 03 bf 8b 01 20 be 97 c0 a3 be
       -0.23386265 -0.5142061 -0.15625589 -0.31982872
000140 55 48 4c bc c8 e3 da 3d 0f d7 16 bf 8e d2 86 be
       -0.012468417 0.10687977 -0.58921903 -0.26332515
000150 62 3a be bd d3 db 01 be 29 c3 c3 3b bb 5d c3 be
       -0.092884794 -0.12681513 0.0059741926 -0.38157448
000160 81 a2 14 be 28 dd e4 be 24 9a 7a 3e 07 61 5b be
       -0.14515115 -0.4469998 0.24472862 -0.21423732
000170 66 88 78 be 4d 80 dc bd a9 e4 ae be 6d f9 e7 bd
       -0.24270782 -0.10766659 -0.3415883 -0.11326871
000180 31 95 53 be 28 0e d8 bd be 80 7b be 25 b5 a6 be
       -0.20662381 -0.10549575 -0.2456083 -0.32560077
000190 77 e0 b0 be 5b 10 0a bf fa 22 4c be 52 cb bb 3c
       -0.34546253 -0.53931206 -0.19935217 0.0229241
0001a0 40 81 df be 02 47 c4 3c 71 6e 9a be 3f 4f 82 be
       -0.43653297 0.02395964 -0.30162385 -0.25451085
0001b0 20 14 a7 be 84 58 b3 bd 6f cc 1b bf 0f 3e d4 be
       -0.32632542 -0.087571174 -0.60858816 -0.41453597
0001c0 ed 27 fd bc 39 b8 d7 be 95 90 e3 be 9a 48 0b bd
       -0.030902827 -0.42132738 -0.44446245 -0.034004785
0001d0 24 ad f4 be e9 72 80 be d9 02 0a be 6e 67 ae be
       -0.47788346 -0.2508767 -0.13477649 -0.34063286
0001e0 7b 8d 1f bf 9c 1c 1e be cc b5 a7 be e2 a6 eb be
       -0.6232526 -0.15440601 -0.32755888 -0.4602576
0001f0 07 07 83 be 64 96 cd bd f0 d3 35 be 34 34 ea be
       -0.255913 -0.1003845 -0.17756629 -0.45742953
000200 1e 64 4c bd 9d 45 af bc c8 70 dd be 75 2f 0c bf
       -0.049900167 -0.021395499 -0.43250108 -0.54759914
000210 58 28 96 be 92 b0 08 be 9b fa 88 bd b4 ce 01 be
       -0.29327655 -0.13348606 -0.06688424 -0.12676507
000220 a6 64 20 bf b8 88 b9 bc a0 9a 2f be 9a 4c c5 be
       -0.6265358 -0.0226482 -0.17148829 -0.38535005
000230 13 9a 73 bf b9 47 28 be bf a8 39 be 66 e4 bb bd
       -0.95156974 -0.1643361 -0.18130778 -0.09174423
000240 ee e4 c9 be 3b 1e 18 be 93 10 2d bf fd 9b 88 be
       -0.39432472 -0.14855282 -0.67603415 -0.2668151
000250 7c b8 e5 3b b3 4e 29 bf ae 55 4f be 5e f9 9b bd
       0.0070105176 -0.6613571 -0.20247528 -0.076159224
000260 94 8e e5 be c3 bc 6c be 96 76 ae be 3e 3f 8c 3e
       -0.4483534 -0.23118882 -0.3407485 0.27392
000270 6a 8d a3 be 86 1d 75 bd 1f 88 0a be ab ff 21 be
       -0.31943828 -0.05984261 -0.13528489 -0.15820186
000280 12 55 ff be 5b cf 27 be 66 c4 ef be 60 04 ae be
       -0.4986959 -0.16387694 -0.46829528 -0.33987713
000290 bb 41 ab bd e1 a7 07 bf dc 55 cf be 67 8e 8a be
       -0.083621465 -0.5299054 -0.40495193 -0.2706177
0002a0 f3 f9 d3 be 22 80 f0 bd 1f c7 98 be 57 6e 60 be
       -0.41401634 -0.117431894 -0.29839417 -0.21917091
0002b0 45 7b 9a be 85 09 e9 be 03 c0 11 be d2 9e 57 be
       -0.30172172 -0.45515075 -0.14233403 -0.21056679
0002c0 15 4f 02 bf 86 74 f0 be 6d 66 a0 be 5b 7a ae be
       -0.5090192 -0.469639 -0.31328145 -0.34077725
0002d0 1b 13 aa be fb 5b 7c be c6 6e 05 be 80 22 c2 be
       -0.332177 -0.24644463 -0.13030538 -0.37916946
0002e0 4d 34 e1 be d8 97 8c bd 70 dc f4 be fd db bc be
       -0.43985215 -0.068648994 -0.4782443 -0.36886588
0002f0 61 03 32 bf da 5d 0a be ac 3c b7 be 69 d2 0e bf
       -0.69536406 -0.13512364 -0.35788476 -0.5578981
000300 a5 fe 50 be 07 04 46 bd da 59 87 3c 00 73 b6 be
       -0.20409639 -0.048343685 0.016522337 -0.35634613
000310 05 61 da bd 8c 1b 8d 3d 15 ad dc be e2 da 9f be
       -0.10663036 0.0689002 -0.431008 -0.31221682
000320 9b 36 64 be e2 a2 e6 be 89 cf 8e bc cd 16 51 3e
       -0.22286455 -0.45046145 -0.017432945 0.20418854
000330 a8 b9 0c bf 50 1d ba bd cb 2b 86 be ec d7 7b bd
       -0.5497079 -0.09087622 -0.26205286 -0.061485216
000340 d8 eb c5 be c4 54 b7 be 5a 51 bd be 04 b9 82 be
       -0.38656497 -0.3580686 -0.3697613 -0.2553178
000350 82 a8 01 bf d6 39 ec be 87 b2 f6 bd 53 51 81 be
       -0.5064775 -0.46137875 -0.1204577 -0.25257358
000360 a5 ff 24 bf 15 43 90 be 75 36 72 be c0 60 78 3d
       -0.6445258 -0.2817618 -0.23653586 0.060639143
000370 90 6e a3 3e c6 0a 89 be 07 c6 a6 be 46 a3 cc bd
       0.3192029 -0.26766032 -0.32572958 -0.099920794
000380 e6 84 95 bd ab ba 9e be 18 e8 33 bc 95 13 76 be
       -0.07300739 -0.3100179 -0.010980628 -0.24030907
000390 6a 95 75 be 33 82 f9 be 53 bb dd bc 96 b0 72 be
       -0.23982778 -0.48732147 -0.027066862 -0.23700175
0003a0 e9 48 82 3e b3 4d e4 be e4 a0 01 3b cd 9e 85 3e
       0.2544625 -0.4459053 0.0019779736 0.26097718
0003b0 3b 79 7b 3b 42 b5 02 bf f1 b4 d2 be 3a ad 8e be
       0.003837182 -0.5105783 -0.41153672 -0.27866536
0003c0 2e 44 5c 3d 20 de f2 be 0e 6c c6 bc 8a 04 0c 3e
       0.05377596 -0.47435093 -0.024221446 0.13673607
0003d0 67 4e 96 bc 5f 43 b6 be 5f 99 28 be 3e 85 0f be
       -0.018347932 -0.35598275 -0.16464756 -0.14015672
0003e0 02 23 c8 be de 54 11 3e de b2 89 be 10 83 ae be
       -0.3908921 0.1419253 -0.26894277 -0.34084368
0003f0 ce 78 dd ba 83 63 eb be bb d2 74 be 1e 7d b7 be
       -0.0016896965 -0.4597436 -0.23908512 -0.35837644

fc3.weight f4 [4, 400]
000000 fc 73 7c be b0 68 29 bf c1 ab 30 3f 10 5b 3b 3e
       -0.2465362 -0.66175365 0.69012076 0.18296456
000010 3f 79 d9 3d 0c 74 1f 3e eb 04 8d 3d c5 2f bb bd
       0.10618829 0.15571612 0.06885704 -0.09139971
000020 a9 14 7f be 23 e1 1f 3f 06 f6 5b be 1b 0a 71 be
       -0.24910225 0.62452906 -0.21480569 -0.23539011
000030 73 bd 25 bf cd 80 09 be 29 be 17 bf 7f d1 3d 3f
       -0.647422 -0.1342804 -0.59274536 0.7414779
000040 72 a7 14 3e 18 3b 0c be e3 6e b7 3e 98 2f 5c be
       0.14517 -0.13694417 0.35826787 -0.2150253
000050 42 9c c3 bd 33 8e bd 3e ce ed 39 bf af 71 c7 3e
       -0.09551288 0.37022552 -0.72628486 0.3895392
000060 fb ef 8d bd d4 d7 c2 3d a1 c9 50 3d 20 71 0b bf
       -0.06930538 0.09513822 0.05097354 -0.5446949
000070 3b 98 14 3f 9c 6d 8a be 0e d7 a5 3e 5c 3f 79 3e
       0.58044785 -0.2703675 0.32390636 0.24340576
000080 a7 3b f8 3e 42 47 94 3e fa 6f 3a 3e d6 15 a9 bc
       0.4848301 0.28960615 0.18206778 -0.020640295
000090 ed df df 3e ed 6d fd 3d 2f af 15 3f e8 9a 7a be
       0.4372553 0.12374482 0.58470434 -0.24473155
0000a0 02 14 c8 bd ff 0d ac 3e 7e bd 4f 3f 56 84 49 3f
       -0.09769441 0.33604428 0.8114852 0.78717554
0000b0 7e e6 32 3e ef 40 a7 3d 1f a6 0d bf a2 a1 31 bf
       0.17470738 0.08166682 -0.55331606 -0.6938726
0000c0 8f d3 bb 3e bc db be 3e 62 2a e0 3e f3 1b fd 3d
       0.36684844 0.3727702 0.43782336 0.123588465
0000d0 50 ec 39 3f 01 49 ab be 7c ce 08 3f e1 99 88 be
       0.7262621 -0.33454135 0.5344007 -0.266799
0000e0 dc 7f 99 bd 3d e0 93 be 2d c4 c2 be 77 a5 7e 3f
       -0.0749509 -0.28882018 -0.38040295 0.9947123
0000f0 0b 95 0d bf 3f d8 8e 3e 18 14 d7 3e 5f 45 a9 bf
       -0.55305547 0.27899358 0.42007518 -1.3224295
000100 a5 8f ed be 68 9a 93 be 0e 85 5b be 12 ea fa be
       -0.46398655 -0.2882874 -0.21437475 -0.49006706
000110 1a 1c 27 be d3 4b f2 be 6c c4 e0 be c9 4a c9 be
       -0.16319314 -0.47323474 -0.43899858 -0.3931487
000120 26 e3 8d 3d c0 c0 8c bc 0d 06 d6 3e 13 ec 26 3f
       0.06928091 -0.017181754 0.4180149 0.6520397
000130 e3 62 19 3f 6d bd ad be 2a fc a4 3e bd cb 95 3e
       0.59916514 -0.33933583 0.32223636 0.29257002
000140 4e 69 a4 be 47 b4 9d bd 0b 09 1e bf 04 20 d9 3d
       -0.3211159 -0.07700401 -0.6173255 0.106018096
000150 c2 70 9e be 69 f7 a8 be 16 1d ea be d9 02 58 3e
       -0.30945402 -0.3300126 -0.45725316 0.21094836
000160 c2 c6 51 bf 63 a4 40 bc da 73 6f 3a 8d 9b 17 bf
       -0.81943905 -0.011757943 0.00091343897 -0.59221727
000170 39 68 f0 bd 8a 73 92 be 05 37 c6 3e de 0b 1e 3e
       -0.11738629 -0.28603774 0.38713852 0.15434214
000180 66 a5 1b bf d0 4a d4 be 8e 70 07 3e 43 58 09 3f
       -0.60799253 -0.41463327 0.1322653 0.536503
000190 f9 61 23 bf 1c 08 16 3f 24 70 db 3e e9 ac cb be
       -0.6382137 0.58606124 0.42858994 -0.39780357
0001a0 29 55 10 3f c8 f7 95 be a9 76 47 3f e4 47 ee 3e
       0.56379944 -0.29290605 0.77915436 0.46539223
0001b0 c7 2d e1 be 8e b3 05 3e ae e0 cd bc 64 12 50 bf
       -0.43980238 0.13056776 -0.02513155 -0.8127806
0001c0 ad b5 2c 3f 59 26 91 be b4 e3 f2 bc 10 38 38 3c
       0.67464715 -0.2834957 -0.029649593 0.011243835
0001d0 03 f6 bd be 30 7b 41 3e d4 15 1e 3e ab 90 21 3f
       -0.37101755 0.18894649 0.15438014 0.6311137
0001e0 04 38 b0 3b c8 2a 23 bf 15 53 0d 3e e0 9d 27 3f
       0.0053777713 -0.63737154 0.13801225 0.65475273
0001f0 79 a9 ec be 77 7f 74 3f 2d df 97 3e 90 8f 31 bf
       -0.46223047 0.95506996 0.29662457 -0.69359684
000200 99 c3 df be 3f 8d 05 3f 11 01 20 3e 39 6e 39 be
       -0.43703917 0.5216865 0.15625407 -0.18108453
000210 6d 00 89 3e ba 75 88 3e 5e 38 11 3f 49 00 07 bf
       0.26758137 0.26652318 0.56726635 -0.5273481
000220 de d1 4b 3d 73 bd 0b bf 4d 03 a5 be 79 8c 41 bd
       0.04976069 -0.5458595 -0.3222908 -0.047253106
000230 3b 8e 18 3e d4 6f 2c 3e 6f a0 47 3e e4 2e 1e 3f
       0.14898007 0.16839534 0.19494794 0.617903
000240 67 1a 51 be 4c 9a 89 be db d0 4c 3e b8 f5 69 3e
       -0.20420228 -0.26875532 0.20001547 0.2284764
000250 8c e5 8b be 54 ff a4 be 9a 52 2d bf 2d 27 0c bd
       -0.27323568 -0.3222605 -0.67704165 -0.03421705
000260 20 4f 9a 3e ae 4c 0a bf 4d 8a b0 3d 46 a7 ea be
       0.30138493 -0.54023254 0.08620129 -0.45830745
000270 6c 94 46 bf bc 93 58 be 92 2a 9e 3e 0b 11 bd be
       -0.77570224 -0.21150106 0.30891854 -0.36927065
000280 96 14 17 3f f0 74 4d bf 80 e0 d4 bd 7e b0 89 be
       0.59015787 -0.8025656 -0.103943825 -0.26892465
000290 f4 e0 11 bf a8 fe ee be fe eb fb be 2b 4b 66 3f
       -0.56983876 -0.46678662 -0.49203485 0.8995845
0002a0 94 8d 8e be 85 c3 1c 3f 4e e9 d4 be b1 07 31 bf
       -0.2784239 0.6123584 -0.41584247 -0.6915236
0002b0 9a 3a be 3e 31 6d 7e be b6 18 2b 3e 44 b6 5c be
       0.37154084 -0.2484634 0.16708645 -0.21553904
0002c0 67 c9 cb 3c f0 7e 52 3e ce f1 08 bf b0 75 68 be
       0.02487631 0.20556235 -0.53493965 -0.22701144
0002d0 ef 3f 03 be 8f 0f a8 3e 3b ae 0f bf 82 ad ba be
       -0.12817357 0.3282437 -0.5612523 -0.364605
0002e0 c3 f1 12 bf 54 1a 3e 3f d9 3c bc bc d8 4f 0e bf
       -0.5740015 0.74258924 -0.022978233 -0.5559058
0002f0 2d 10 c5 be 60 b8 9f bc 1c d0 75 3e e7 34 34 be
       -0.38488904 -0.019497097 0.24005169 -0.17598306
000300 a1 95 43 3f e4 1f 2d bb b1 04 51 bb 00 88 17 bf
       0.7640019 -0.0026416713 -0.0031893665 -0.59191895
000310 e8 24 cb be c6 b5 5e bd e8 7a 6c 3f 11 4a d7 be
       -0.39676595 -0.05437257 0.9237504 -0.42048696
000320 35 87 a1 3e 2b 9b 16 3f 93 4e 4d 3e 6e 98 98 3d
       0.31548467 0.5883052 0.20049505 0.07450949
000330 e3 3c 72 bd c5 3a 31 3f a0 f5 4c bf 43 dc 37 bd
       -0.059140097 0.692303 -0.80062294 -0.044887792
000340 97 f7 09 3f 97 66 78 3e b9 b1 94 3e 96 b2 80 bc
       0.5389342 0.24257885 0.29041842 -0.015710156
000350 fb 97 0f be 0c 6f 7f bf b3 7f 09 3f b7 61 d9 3d
       -0.1402282 -0.9977882 0.5371048 0.10614341
000360 9f 71 07 3e 98 f0 4a 3e a9 cc 02 3f 1b 75 84 bf
       0.13226937 0.19818342 0.51093537 -1.0348238
000370 c7 c9 a8 3e e1 34 06 bf 9b 54 78 be 47 f4 36 3f
       0.32966444 -0.52424437 -0.24251024 0.7146649
000380 44 59 cb be 9c 24 2b 3e 2b ac f5 be a7 67 0a bf
       -0.39716542 0.16713184 -0.47982916 -0.5406441
000390 37 88 51 be c5 df c1 bc b0 0d 09 3e d2 dc 4e be
       -0.20462118 -0.023666272 0.13384128 -0.20201424
0003a0 4a 9c a3 3e e8 f5 08 3f 77 6e 4c 3e 1a 1e 83 3e
       0.31955177 0.53500223 0.19964014 0.25608903
0003b0 c7 8f 10 be 76 b4 52 be 99 7f c1 be c5 58 63 3f
       -0.14117347 -0.20576653 -0.37792662 0.88807327
0003c0 d0 79 7f be d1 c7 2b 3f a7 1c c0 be 72 3a f8 3e
       -0.24948812 0.6710177 -0.3752186 0.4848209
0003d0 e5 36 04 3f 69 ab 95 3e ca 3e e9 be 36 03 b0 3e
       0.5164626 0.29232338 -0.45555717 0.3437745
0003e0 85 c2 cb be fd 7f 13 3f ee 29 c6 bd cd 94 a1 3d
       -0.39796844 0.5761717 -0.09675966 0.078897096
0003f0 50 7a 74 3f 5b b1 cb 3d b4 2c 9c bd a1 9d c3 3c
       0.95499134 0.09945937 -0.07625714 0.023878874

fc3.bias f4 [4]
000000 02 8a 85 3e a8 b5 65 3e 92 2b 63 be 44 79 9b be
       0.26081854 0.22432578 -0.2218459 -0.30365956
