experiments/exp2/models/checkpoint_actor_6.pth (torch_old, 356250 bytes, 6 tensors)

fc1.weight f4 [200, 33]
0	0x3e19465b	0.14968245
1	0xbf57b026	-0.84253156
2	0x3f2ed664	0.68295884
3	0xbec85f95	-0.39135423
4	0xbeddcc6f	-0.43320033
5	0x3f874ce8	1.0570345
6	0xbe910c97	-0.28329918
7	0xbc2f3747	-0.0106943315
8	0xbe115564	-0.1419273
9	0xbf0230a4	-0.5085547
10	0x3e77c715	0.24197038
11	0xbdfafe05	-0.12255482
12	0x3ea821b1	0.32838205
13	0x3df24625	0.11829785
14	0x3d21d01e	0.039505117
15	0xbec61f1b	-0.38695607
16	0x3f9e1906	1.2351387
17	0x3f21e8c8	0.6324582
18	0xbf03e1f6	-0.51516664
19	0xbe31500b	-0.1731569
20	0x3e7bbe3a	0.24584284
21	0xbe5cb8b9	-0.21554841
22	0xbe0b4da5	-0.13603838
23	0x3e131b68	0.14365923
24	0x3dc5f1c2	0.09665252
25	0xbe82a498	-0.255162
26	0xbd75e1cf	-0.0600298
27	0xbfafe162	-1.3740656
28	0xbc916278	-0.017747149
29	0x3b951ee0	0.0045507997
30	0x3fa982e0	1.3243065
31	0xbbaf1d90	-0.0053441003
32	0x40542ff0	3.3154259
33	0x3efe254f	0.4963784
34	0xbe320841	-0.17385961
35	0xbe5d097f	-0.21585654
36	0xbeee383c	-0.46527278
37	0xbecae57c	-0.39628208
38	0x3dd474b6	0.10373823
39	0x3e9ab7c1	0.30218318
40	0x3d622459	0.055210445
41	0x3eaca026	0.33715934
42	0x3e1f33f6	0.15547165
43	0x3c91cfc6	0.01779927
44	0x3cd66a7a	0.026173819
45	0xbd25d3c6	-0.040485166
46	0xbf3342d2	-0.70023835
47	0xbd7e7d98	-0.062131494
48	0x3eb769a3	0.35822782
49	0x3ed62435	0.418245
50	0xbfcc492e	-1.5959833
51	0x3fa9237b	1.3213953
52	0xbe806efa	-0.25084668
53	0xbe8de292	-0.27711922
54	0x3e0f1edc	0.13976616
55	0x3f10d4bc	0.56574607
56	0xbe0c128b	-0.13678949
57	0xbe3465fc	-0.17617029
58	0x3e444698	0.19167554
59	0xbd107db0	-0.035276115
60	0x3f8a0433	1.0782531
61	0xbe28c79c	-0.16482395
62	0x3d71ee96	0.059065424
63	0xbf7d652b	-0.98982495
64	0x3cb5b54c	0.022181176
65	0xbfbbfcb3	-1.4686493
66	0xbdab0d35	-0.083521284
67	0x3ef16f05	0.47155014
68	0xbf70907b	-0.9397046
69	0xbf5426e8	-0.82871866
70	0x3f76255b	0.9615075
71	0xbe9af90e	-0.3026814
72	0x3f2d84ca	0.67780745
73	0xbed56281	-0.41676715
74	0x3dab1728	0.08354026
75	0x3ecb951f	0.39762208
76	0xbdf91038	-0.121612966
77	0x3ca7080e	0.020389583
78	0xbeb816c9	-0.35954884
79	0xbf4e1a25	-0.80508643
80	0xbe542b67	-0.20719682
81	0x3cba149a	0.022714902
82	0xbea0e600	-0.31425476
83	0xbf1a2ccb	-0.602246
84	0xbf12f7af	-0.57409185
85	0xbe9594dd	-0.29215136
86	0xbd7b9aac	-0.061426803
87	0x3eb188f7	0.34674808
88	0xbe9cba61	-0.30610946
89	0x3e565046	0.2092906
90	0x3e049810	0.12948632
91	0xbcc4d589	-0.024027603
92	0x3eccdd8b	0.40012774
93	0x3f59a99d	0.85024434
94	0x3dcd9812	0.10038771
95	0x3b2cb340	0.0026351959
96	0xbf48855f	-0.7832851
97	0xbc7aec84	-0.015315179
98	0xbebe93b6	-0.3722207
99	0xbf103a94	-0.56339383
100	0x3e9cf278	0.3065374
101	0xbf069683	-0.5257341
102	0xbed602fb	-0.4179915
103	0x3eed6e1a	0.46373063
104	0xbee6b1d4	-0.45057547
105	0xbf51cb2f	-0.8195066
106	0x3eb63711	0.35588887
107	0xbc0318d2	-0.008001523
108	0xbe43ee4c	-0.19133872
109	0x3e2076fe	0.15670392
110	0xbc62d8eb	-0.013845663
111	0xbeb3d502	-0.3512345
112	0x3ea52b9e	0.3225984
113	0xbd9d13cf	-0.07669794
114	0x3e8cf8fb	0.27533707
115	0xbf467527	-0.7752251
116	0x3fc52784	1.5402684
117	0x3fb86145	1.4404684
118	0x3f904d5f	1.1273612
119	0x3e0b2095	0.13586648
120	0xbcd91c0e	-0.026502635
121	0x3ea0abdc	0.31381118
122	0x3e112e64	0.14177853
123	0xbdd92a4c	-0.106037706
124	0x3d959ce3	0.073053144
125	0xbec974a6	-0.39346808
126	0x3f616fe8	0.8806138
127	0x3f009843	0.5023233
128	0xbd88a87a	-0.06672759
129	0xbf53fbd8	-0.8280616
130	0xbd3a1c0e	-0.04543691
131	0x3fba3a71	1.4549085
132	0xbf699137	-0.91237205
133	0xbe59c6d9	-0.2126726
134	0x3f3b8cd6	0.73261774
135	0xbce723bc	-0.028215282
136	0xbdc5d02a	-0.09658845
137	0xbf90e833	-1.1320862
138	0xbf71645d	-0.9429377
139	0xbce52598	-0.027972028
140	0x3d9b7eb6	0.075925276
141	0x3df90923	0.12159946
142	0xbe511371	-0.20417573
143	0x3d1216f1	0.03566641
144	0xbd178b9a	-0.03699837
145	0x3f5154e3	0.8177015
146	0x3e9d24ed	0.30692235
147	0x3e22f45f	0.15913533
148	0xbe67e57a	-0.22646132
149	0xbe75efeb	-0.24017303
150	0x3fa6318a	1.2983868
151	0xbfaacf64	-1.334454
152	0x3e537244	0.20649058
153	0xbeb9840f	-0.36233565
154	0x3e45c1b5	0.19312175
155	0x3e116c31	0.14201428
156	0xbd315304	-0.04329206
157	0xbe8beb28	-0.27327847
158	0xbf01986c	-0.506232
159	0x3da1c421	0.07898737
160	0xbe3eeb94	-0.18644553
161	0x3c5f4690	0.013627663
162	0xbdd03ff6	-0.101684496
163	0xbd89dac9	-0.06731183
164	0x3e083fa8	0.13305533
165	0xbebeccd5	-0.3726565
166	0x3e85fc60	0.2616911
167	0xbda1f003	-0.07907107
168	0x3f26ee7d	0.65207654
169	0x3f32c86c	0.6983707
170	0x3f8cbdf4	1.0995469
171	0xbd9a858b	-0.075450025
172	0x3cc1a6e9	0.02363916
173	0xbe5d5140	-0.21613026
174	0x3e9266ae	0.28593963
175	0x3d2cff41	0.042235617
176	0x3e2f35db	0.17110388
177	0x3f0ed82a	0.5579859
178	0x3f3e952d	0.74446374
179	0x3e9ec4ce	0.31009525
180	0xbea01727	-0.31267664
181	0x3fb52ff6	1.4155262
182	0x3fb895f7	1.4420766
183	0x3eba8416	0.364289
184	0x3f7614f4	0.9612572
185	0xbec8afc0	-0.39196587
186	0xbe749c0a	-0.23887649
187	0x3d19d506	0.03755667
188	0xbdd95279	-0.106114335
189	0x3d8c8bb0	0.06862581
190	0xbef97277	-0.48720142
191	0xbefe30bd	-0.4964656
192	0x3f17bed9	0.59275585
193	0x3e9d1d53	0.30686435
194	0xbd21c704	-0.039496437
195	0xbf077d60	-0.5292568
196	0x3cdecd40	0.02719748
197	0x3f4ed2b7	0.80790275
198	0x3e82cab8	0.25545287
199	0x3eaf0904	0.34186566
200	0xbeadc844	-0.33941853
201	0x3e5c0184	0.21484953
202	0xbf4da282	-0.8032609
203	0x3f955ec7	1.1669549
204	0xbed47c63	-0.4150115
205	0xbeba3b7f	-0.36373517
206	0xbea4642b	-0.32107672
207	0xbca82370	-0.02052471
208	0xbe48044f	-0.19532894
209	0x3d3b1d6f	0.045682367
210	0xbd86e412	-0.0658647
211	0xbf1397e3	-0.57653636
212	0xbdea0b34	-0.11427918
213	0x3e772cd1	0.2413819
214	0xbfdaf000	-1.7104492
215	0x3ea285bb	0.31742653
216	0x3fae47f3	1.3615707
217	0x3ea4597a	0.32099515
218	0xbeedc93e	-0.46442598
219	0x3ec4bf7b	0.38427338
220	0x3e74bb03	0.23899464
221	0x3e1ea24b	0.15491597
222	0xbe07d539	-0.13264932
223	0xbe9dbdf6	-0.3080899
224	0x3ee718a9	0.45136002
225	0x3f286d2d	0.6579159
226	0xbe91fa79	-0.28511408
227	0x3d4e1b68	0.050319105
228	0xbf44edab	-0.7692515
229	0xbcabdd9a	-0.020979691
230	0xbe854a60	-0.26033306
231	0xbe9d8eba	-0.30772954
232	0xbdc50eab	-0.09621938
233	0xbea30149	-0.31836918
234	0xbf500447	-0.81256527
235	0x3f9251d2	1.143122
236	0x3faa237a	1.3292077
237	0xbf7afefb	-0.9804532
238	0xbec4e7f2	-0.3845821
239	0x3e5f363c	0.21798033
240	0xbf7b47ed	-0.98156625
241	0xbe40a714	-0.18813735
242	0xbd6da0b1	-0.058014575
243	0xbe57429d	-0.21021505
244	0xbdfc1a81	-0.12309743
245	0x3f10fa72	0.5663215
246	0x3f32c371	0.6982947
247	0xbe2d269f	-0.16909264
248	0x3ea69c1b	0.32540974
249	0x3d49451d	0.049138177
250	0xbd760b57	-0.06006941
251	0xbeedd495	-0.4645125
252	0x3f17daaf	0.5931806
253	0x3e50a4da	0.20375386
254	0x3e9fc6b3	0.31206283
255	0xbd554ffa	-0.052078225

fc1.bias f4 [200]
0	0x3fa61540	1.2975235
1	0xbf5cb865	-0.86218864
2	0xbf740bc5	-0.9533046
3	0xbf30788e	-0.6893395
4	0xbe3f1924	-0.18661934
5	0xbf395b77	-0.7240519
6	0xbf49e795	-0.7886899
7	0xbf43baa4	-0.76456666
8	0xbf2cea34	-0.67544866
9	0xbee00356	-0.43752545
10	0xbe680516	-0.2265819
11	0xbf04fcff	-0.5194854
12	0xbea39882	-0.31952292
13	0xbebf3d48	-0.3735144
14	0xbf43661e	-0.76327693
15	0xbf107510	-0.56428623
16	0xbf1b520e	-0.6067208
17	0xbe7ab62a	-0.24483553
18	0xbf51cd79	-0.8195415
19	0xbefb000d	-0.49023476
20	0xbf0d1da1	-0.55123335
21	0x3c7d7d1d	0.015471724
22	0xbea03bda	-0.31295663
23	0xbf032b9e	-0.5123843
24	0xbf2a6927	-0.665667
25	0xbddf011e	-0.10888885
26	0xbf71901d	-0.94360524
27	0xbf08a519	-0.5337692
28	0xbf395ef6	-0.72410524
29	0xbf72352e	-0.94612396
30	0xbe11b403	-0.14228825
31	0xbf96c21a	-1.1777985
32	0xbebbae32	-0.36656338
33	0xbf37d500	-0.7180939
34	0xbf753cec	-0.95796084
35	0xbf6e5592	-0.9309932
36	0xbf199299	-0.59989315
37	0xbf4e358e	-0.8055047
38	0x3e650a1e	0.2236714
39	0xbf336465	-0.70075065
40	0xbef82b29	-0.4847043
41	0xbf9a1b8a	-1.2039654
42	0xbf861fbc	-1.0478435
43	0xbf61133b	-0.8791997
44	0xbc6a5dab	-0.014304559
45	0xbf907387	-1.1285256
46	0xbede94c1	-0.43472865
47	0xbfa9379c	-1.3220096
48	0xbcbd8dc3	-0.023138886
49	0xbf10a087	-0.56494945
50	0xbf3c4820	-0.73547554
51	0xbe0413bd	-0.12898155
52	0xbf44e85d	-0.7691706
53	0xbf65cc8b	-0.8976523
54	0xbf514f6b	-0.8176181
55	0xbf060952	-0.5235797
56	0xbf5dccd9	-0.866407
57	0xbeb7688c	-0.3582195
58	0xbe0f4e43	-0.13994698
59	0xbe4bd74c	-0.19906348
60	0xbf343a38	-0.70401335
61	0xbdad00ad	-0.084473945
62	0xbf8bf6ae	-1.0934656
63	0xbee8340f	-0.45352218
64	0xbf0e69dd	-0.55630285
65	0xbeac8353	-0.33693942
66	0xbf999bb4	-1.2000642
67	0xbf81469c	-1.0099673
68	0xbf8809a0	-1.0627937
69	0xbf144ff7	-0.57934517
70	0xbdd2a12f	-0.102846496
71	0xbf3947dd	-0.7237528
72	0xbfa5c1d4	-1.2949777
73	0x3e8b4c38	0.27206588
74	0xbf92923d	-1.1450878
75	0xbf27bef5	-0.6552575
76	0xbf33ddc1	-0.70260245
77	0xbf4fef00	-0.8122406
78	0xbf115499	-0.5676971
79	0xbf040bc1	-0.51580435
80	0xbf5c8562	-0.86141026
81	0x3cebca99	0.02878313
82	0xbf3a6dd9	-0.72823864
83	0xbf188768	-0.59581614
84	0x3e5232d3	0.205272
85	0xbf626dca	-0.88448775
86	0xbf1809de	-0.59390056
87	0x3d942846	0.07234244
88	0xbe8cfc4d	-0.2753624
89	0xbe1199c9	-0.1421882
90	0xbf346d4a	-0.7047926
91	0xbf32d526	-0.6985649
92	0xbe5311ae	-0.20612213
93	0xbf5194b3	-0.8186752
94	0xbf843efb	-1.033172
95	0xbed5789f	-0.4169359
96	0xbf26ef8f	-0.6520929
97	0xbe65fcde	-0.22459742
98	0xbe42d665	-0.19027098
99	0xbf1bc066	-0.6084045
100	0xbf5b8f70	-0.85765743
101	0xbeea0cf6	-0.45713013
102	0xbf4eaa73	-0.80728835
103	0xbd30e241	-0.043184523
104	0x3e3d7fca	0.18505779
105	0xbdffe1d2	-0.12494244
106	0xbf584df3	-0.8449394
107	0x3f113296	0.56717813
108	0xbf42d815	-0.76110965
109	0xbf4b031f	-0.7930164
110	0xbeade501	-0.3396378
111	0xbf81a0bc	-1.0127177
112	0xbf5871f5	-0.84548885
113	0xbf6cf310	-0.92558384
114	0xbf8f583e	-1.1198804
115	0xbcfca8dc	-0.030842237
116	0x3c8a155a	0.016855884
117	0xbde22e37	-0.11043971
118	0x3efeab0c	0.49739873
119	0xbf46f9e9	-0.7772508
120	0xbf08e8ea	-0.534804
121	0xbf953209	-1.1655895
122	0xbe162dd4	-0.1466592
123	0xbf4c453c	-0.79793143
124	0xbf1293ca	-0.5725676
125	0xbdcb6d9f	-0.09933018
126	0xbf04827d	-0.5176161
127	0xbf2e18a6	-0.6800636
128	0xbf8e632b	-1.1124014
129	0x3b93fa9e	0.00451596
130	0xbf5a360a	-0.8523871
131	0xbf9f790f	-1.2458819
132	0xbee3cc4c	-0.44491804
133	0xbde6d3c4	-0.1127086
134	0xbd95bd01	-0.0731144
135	0xbeadeb9d	-0.3396882
136	0xbefd898c	-0.49519002
137	0xbe3c3dc8	-0.18382943
138	0xbf69eb9c	-0.91375136
139	0xbbf558a7	-0.007487375
140	0xbf6ff246	-0.93729055
141	0xbf7a2e4b	-0.9772689
142	0x3cb48389	0.022035377
143	0xbf049eb0	-0.5180464
144	0xbce86f0c	-0.028373264
145	0xbeaf94e1	-0.34293273
146	0xbf961308	-1.1724558
147	0xbf3f0481	-0.7461625
148	0xbf27b701	-0.65513617
149	0x3d4d03a9	0.05005232
150	0xbf097615	-0.53695804
151	0xbe300db0	-0.17192721
152	0xbf373cd7	-0.7157721
153	0xbf626378	-0.8843303
154	0xbf1e9b28	-0.619555
155	0xbee089a0	-0.43855
156	0x3db46a4e	0.088093385
157	0xbf26b7dc	-0.651243
158	0xbf2105ec	-0.6289966
159	0xbf79ac0b	-0.9752814
160	0xbe9db579	-0.30802515
161	0xbf527aa1	-0.82218367
162	0xbf59b39a	-0.85039675
163	0xbf458136	-0.77150285
164	0xbf9d5f67	-1.229474
165	0xbed8e572	-0.42362553
166	0xbe36f727	-0.17867719
167	0xbfa81efa	-1.3134453
168	0xbf2a7add	-0.66593724
169	0xbf1bb552	-0.6082355
170	0xbd76785d	-0.06017338
171	0xbf52bd3b	-0.8231999
172	0xbf39e748	-0.7261853
173	0xbf6d88e5	-0.9278701
174	0x3bf1cdce	0.00737927
175	0xbf85f03c	-1.0463939
176	0xbfaee64d	-1.3664032
177	0xbe177e9c	-0.14794391
178	0xbf835308	-1.0259714
179	0xbe853f4d	-0.26024857
180	0xbf0dc1c9	-0.5537382
181	0xbf841c16	-1.0321071
182	0x3ed3f12a	0.4139493
183	0xbe01421c	-0.12622875
184	0xbf0c55a0	-0.54818153
185	0xbf428471	-0.7598334
186	0xbe95bd44	-0.2924596
187	0xbd6debe8	-0.058086306
188	0xbf630413	-0.8867809
189	0xbf21b1ae	-0.6316174
190	0xbf398c66	-0.72479856
191	0xbf2cfb7c	-0.67571235
192	0xbcbdd2db	-0.023171833
193	0xbecf8cd8	-0.40537143
194	0xbf0ff5e1	-0.56234556
195	0xbf7368c9	-0.95081764
196	0xbf1d5d76	-0.61470735
197	0xbef9deab	-0.48802695
198	0xbe87b07b	-0.2650183
199	0xbf89aad0	-1.0755253

fc2.weight f4 [400, 200]
0	0xbee84e77	-0.45372364
1	0xbd9b2256	-0.075749084
2	0x3f2172bf	0.63065714
3	0xbee6a7db	-0.4504994
4	0x3bc57cae	0.006026826
5	0xbe9217b9	-0.28533724
6	0x3dbf5d8e	0.09344016
7	0x3cd9e1f0	0.026596993
8	0x3d4ddb09	0.050257716
9	0xbda4f9ec	-0.08055481
10	0x3e1e1639	0.15438165
11	0xbba162a3	-0.0049250885
12	0xbe97c0f9	-0.29639414
13	0x3e29f23a	0.16596308
14	0x3e6907b5	0.22756846
15	0xbd5a8402	-0.05334855
16	0x3e1d8db8	0.15386093
17	0xbef1506e	-0.47131675
18	0xbc9141ab	-0.017731508
19	0x3e0a0bf8	0.13481128
20	0xbea63b3e	-0.32467073
21	0x3eb56c08	0.35433984
22	0xbe92a14e	-0.2863869
23	0xbea50047	-0.32226774
24	0xbf2a46a9	-0.6651407
25	0xbef5ca30	-0.4800582
26	0x3ede6a5e	0.43440527
27	0x3d9d097e	0.07667826
28	0x3d4b6e6c	0.049665853
29	0xbe06040d	-0.13087483
30	0xbf177618	-0.5916457
31	0xbe629324	-0.22126442
32	0xbe38ed21	-0.18059207
33	0xbda992c6	-0.08279948
34	0xbe972af4	-0.29524958
35	0xbdff75ff	-0.12473678
36	0x3ed7a304	0.4211656
37	0xbe242033	-0.16027908
38	0xbeb2e297	-0.349385
39	0xbd7da241	-0.061922316
40	0xbd00c964	-0.03144206
41	0xbecc3cfd	-0.3989028
42	0x3df1fd62	0.11815907
43	0x3e6aa60c	0.22914904
44	0x3e99f78f	0.30071685
45	0x3ed56e60	0.41685772
46	0x3e91ee6f	0.28502223
47	0xbdd8fe29	-0.10595352
48	0x3cfc0461	0.030763807
49	0xbe645d1f	-0.22301148
50	0x3e7cbbdb	0.24681036
51	0xbe73dc08	-0.23814404
52	0xbf105043	-0.5637247
53	0x3f0924ff	0.53572077
54	0xbf0fc690	-0.5616236
55	0xbf68a0c4	-0.9087031
56	0xbd30f7c9	-0.043205056
57	0x3e917f38	0.28417373
58	0xbe02e17d	-0.1278133
59	0xbf26ca69	-0.65152603
60	0x3e63e58f	0.22255538
61	0x3dad4ce1	0.08461929
62	0xbd9220c6	-0.07135157
63	0xbf411c0f	-0.7543344
64	0x3f0bf1d3	0.5466587
65	0xbe07c5bf	-0.13259028
66	0xbe21269b	-0.15737383
67	0xbd92148b	-0.071328245
68	0xbd62a342	-0.055331476
69	0x3e8e768a	0.27824813
70	0xbf19255f	-0.5982265
71	0x3f091495	0.5354703
72	0x3e89ac34	0.26889193
73	0x3f10b235	0.5652192
74	0x3e246d66	0.16057357
75	0xbea27dd6	-0.3173663
76	0xbea5e895	-0.32404009
77	0xbe850bac	-0.25985467
78	0x3e8d6427	0.27615473
79	0x3d9dddf8	0.07708353
80	0x3df49620	0.119426966
81	0x3eb53064	0.35388482
82	0xbe822c17	-0.25424263
83	0x3ea606ba	0.32427007
84	0xbe67be0d	-0.22631092
85	0xbd811ded	-0.06304536
86	0xbe942077	-0.2893102
87	0x3f04d500	0.5188751
88	0xbed066f3	-0.40703544
89	0xbee6ec49	-0.45102146
90	0x3eaffafc	0.34371173
91	0x3e0afa5f	0.13572071
92	0x3e9b1eb4	0.30296862
93	0xbf2905c8	-0.66024446
94	0x3e771d25	0.24132212
95	0xbea929ae	-0.33039612
96	0xbe931935	-0.2873017
97	0x3f4d67c7	0.80236477
98	0x3d9d6746	0.076857135
99	0xbdf2ae3b	-0.11849638
100	0x3f5347cc	0.8253143
101	0xbc3c0215	-0.011475106
102	0x3d9099d4	0.070605904
103	0x3e2c4bb6	0.16825756
104	0xbee68c00	-0.45028687
105	0xbea9f80a	-0.3319705
106	0x3ec4f6a0	0.3846941
107	0xbd464251	-0.048403088
108	0xbe182955	-0.14859517
109	0xbe604a56	-0.21903357
110	0xbd694b62	-0.056956656
111	0xbe3c4862	-0.18386987
112	0xbf0bcc3d	-0.5460852
113	0x3e228047	0.15869246
114	0x3e6455cc	0.22298354
115	0x3f29e725	0.66368324
116	0xbc876a06	-0.016530048
117	0xbeaa7043	-0.33288774
118	0xbed99a48	-0.4250052
119	0x3dd646ba	0.10462709
120	0xbf10487b	-0.56360596
121	0x3e55fa8d	0.20896359
122	0xbe2fd464	-0.17170864
123	0xbebd4e80	-0.36973953
124	0xbf117875	-0.5682443
125	0x3f25266e	0.64511764
126	0xbeb1f73e	-0.34758943
127	0x3ece59ef	0.4030299
128	0xbc763b69	-0.015028813
129	0x3e2f7e2a	0.17137972
130	0xbe29e608	-0.16591656
131	0xbef11d40	-0.47092628
132	0x3f18abe0	0.5963726
133	0xbd4bbd91	-0.04974133
134	0xbeb4bd9b	-0.35300907
135	0x3e9c93a8	0.30581403
136	0x3d98c694	0.07459751
137	0x3f404039	0.75097996
138	0xbcb2c4a2	-0.021822277
139	0x3e877d5a	0.26462823
140	0xbee5dcc3	-0.4489499
141	0xbf0ed99c	-0.55800796
142	0xbec9a5a8	-0.39384198
143	0xbe0fa453	-0.14027528
144	0x3e3381e1	0.17530014
145	0xbe82eb0e	-0.25569957
146	0xbf61aa63	-0.88150615
147	0x3e4d5645	0.2005244
148	0xbe5391f7	-0.2066115
149	0xbc4445c1	-0.011979521
150	0xbe58a1a2	-0.21155408
151	0xbe6c6137	-0.2308396
152	0x3efc3cc0	0.492651
153	0xbf2915a5	-0.6604865
154	0x3eb4ab75	0.3528706
155	0xbc51b2f8	-0.012799017
156	0x3ed5d088	0.4176066
157	0xbf2ba11a	-0.67042696
158	0xbe2919a0	-0.16513681
159	0xbe345483	-0.17610364
160	0x3dae8341	0.085211284
161	0x3ea0865e	0.31352514
162	0x3ece9c3d	0.40353575
163	0xbec10219	-0.37696913
164	0xbe5a852e	-0.21339867
165	0xbef234b6	-0.4730584
166	0xbeb34e37	-0.3502061
167	0xbd9230e3	-0.07138231
168	0x3e2613c0	0.16218472
169	0xbee94cc4	-0.4556638
170	0xbe662c07	-0.22477733
171	0x3dbfa298	0.09357184
172	0x3dfab9b9	0.12242455
173	0x3e1e210e	0.15442297
174	0x3eec25af	0.461225
175	0x3d9260b7	0.07147353
176	0xbeb57b44	-0.35445607
177	0xbf1596af	-0.5843305
178	0xbf21707d	-0.6306227
179	0xbf8f7284	-1.1206822
180	0x3e351776	0.17684731
181	0xbef93c67	-0.48678896
182	0xbe1f6890	-0.15567231
183	0xbe78aac0	-0.24283886
184	0x3edc9b8b	0.4308742
185	0xbf494c43	-0.7863199
186	0x3f8fe9e3	1.1243252
187	0xbd0ffac8	-0.035151273
188	0x3d9f6e87	0.07784753
189	0xbf4996c1	-0.7874566
190	0x3f7b30b5	0.98121196
191	0xbe8dd8b7	-0.27704403
192	0x3eff2fa5	0.49841037
193	0x3eb399a1	0.35078147
194	0xbe8c19ad	-0.2736334
195	0x3f48d62b	0.78451794
196	0xbf2bfd11	-0.67183024
197	0xbe001532	-0.12508085
198	0xbee53d4f	-0.44773337
199	0xbe3cb6c9	-0.18429102
200	0xbf0092c1	-0.5022393
201	0xbed3980e	-0.41326946
202	0x3de28d30	0.11062086
203	0x3dffbb81	0.124869354
204	0xbf151734	-0.5823853
205	0xbf32fee4	-0.6992018
206	0x3e2cad68	0.16863024
207	0xbf4899ac	-0.78359485
208	0xbed56053	-0.41675052
209	0xbf186dc6	-0.595425
210	0xbd1853d9	-0.03718934
211	0x3f8672f2	1.0503829
212	0xbf07c204	-0.5303042
213	0xbf49ab48	-0.7877698
214	0x3efd3ecd	0.49461976
215	0xbf6c122d	-0.92215234
216	0xbdddd0ba	-0.10830827
217	0xbf5dfe1d	-0.8671587
218	0x3e485746	0.19564542
219	0xbd9c039c	-0.07617876
220	0xbdcf7697	-0.10130041
221	0xbcdce336	-0.026963811
222	0xbe0ef5b7	-0.1396092
223	0x3d9cef0f	0.07662784
224	0x3e27f725	0.16402872
225	0xbebba1a9	-0.36646774
226	0xbf3660d6	-0.7124151
227	0xbb29b160	-0.0025893077
228	0xbf22b195	-0.6355222
229	0xbe528932	-0.20560148
230	0xbc241061	-0.010013671
231	0x3dbe7f8a	0.0930167
232	0x3e5c8c48	0.21537888
233	0xbf75f742	-0.9608041
234	0x3f4a3720	0.78990364
235	0xbe464175	-0.19360907
236	0xbf08f406	-0.5349735
237	0xbeec145a	-0.46109277
238	0xbee0bb82	-0.43893057
239	0x3ddd039b	0.10791703
240	0x3dfde888	0.123978674
241	0xbec847a3	-0.39117154
242	0xbecb1143	-0.39661607
243	0x3e61a66a	0.22036138
244	0xbe86d0f8	-0.26331306
245	0x3e5a9503	0.21345906
246	0xbe872571	-0.26395753
247	0xbeb1ddd4	-0.34739554
248	0xbd145a29	-0.036218796
249	0xbe6c57ca	-0.23080364
250	0x3da48bcb	0.08034476
251	0x3df32643	0.11872532
252	0xbe8a7bce	-0.2704758
253	0xbf3a5623	-0.72787684
254	0x3f1e2673	0.6177742
255	0xbf57f982	-0.84365094

fc2.bias f4 [400]
0	0xbde15ee1	-0.11004425
1	0xbe10ed77	-0.14153086
2	0xbe1fb664	-0.1559692
3	0xbe6bc5ea	-0.23024717
4	0xbf12c00b	-0.57324284
5	0xbf12342f	-0.57110876
6	0xbe561460	-0.2090621
7	0xbe6ce276	-0.23133263
8	0xbf05905c	-0.521734
9	0xbe92bd10	-0.28659868
10	0xbe812efc	-0.2523116
11	0xbe660dc4	-0.22466189
12	0xbeee2b10	-0.4651723
13	0xbee43436	-0.44571084
14	0xbe5520f5	-0.20813353
15	0x3dfda886	0.12385659
16	0x3d42e84f	0.047584828
17	0xbe7e2afd	-0.24821086
18	0xbd9133d2	-0.07089962
19	0xbe823509	-0.25431088
20	0xbe8fa9f2	-0.28059345
21	0xbebcfffc	-0.3691405
22	0xbeb45167	-0.35218355
23	0xbef4ff9c	-0.47851264
24	0xbede4b87	-0.43416998
25	0xbe9686d8	-0.29399753
26	0xbe8773f8	-0.26455665
27	0xbdb3d9a2	-0.087817445
28	0x3d1bfae2	0.038081057
29	0x3c6c1dd9	0.014411413
30	0xbe785d40	-0.24254322
31	0xbe35d1ab	-0.17755763
32	0xbe98447e	-0.29739755
33	0xbf150dcb	-0.5822417
34	0xbe4b6e83	-0.19866376
35	0xbef91952	-0.4865213
36	0xbeb17bf2	-0.34664875
37	0xbf196c7a	-0.5993115
38	0xbf042910	-0.51625156
39	0x3e30e4ff	0.17274855
40	0xbe16a404	-0.14711004
41	0xbe206abd	-0.15665717
42	0xbe61e38d	-0.2205946
43	0xbec3c041	-0.38232616
44	0xbf043a0f	-0.5165109
45	0xbbd83707	-0.0065983566
46	0xbe77f968	-0.24216235
47	0xbf1fb05a	-0.62378466
48	0xbebe3e53	-0.37156925
49	0xbe58445b	-0.21119826
50	0xbe353596	-0.17696223
51	0xbe8c4817	-0.2739875
52	0xbcaf9154	-0.021431603
53	0xbe48fa98	-0.19626844
54	0xbeb58fde	-0.35461324
55	0xbecdb8ee	-0.40180153
56	0xbe5e7f48	-0.21728241
57	0xbf0ae202	-0.5425111
58	0xbf14cb34	-0.58122563
59	0xbd8bbd27	-0.06823187
60	0xbee197d0	-0.44061136
61	0xbea2544f	-0.31704947
62	0xbe505c09	-0.20347609
63	0xbe0a12ca	-0.1348373
64	0xbdc5c820	-0.096573114
65	0xbe78993e	-0.24277207
66	0xbeed11f9	-0.46302775
67	0xbd59e24c	-0.05319433
68	0xbf267892	-0.65027726
69	0xbe4a8d20	-0.19780397
70	0xbf3359c6	-0.7005886
71	0xbf132d2c	-0.574908
72	0xbf0f7791	-0.5604182
73	0xbd4dd6c6	-0.050253652
74	0xbed69be0	-0.41915798
75	0xbc9352cc	-0.017983817
76	0xbe218e8d	-0.15777035
77	0xbf02a697	-0.51035446
78	0xbf09cb95	-0.53826267
79	0xbe4f5b08	-0.2024957
80	0xbf059c45	-0.52191573
81	0xbeaa7d6b	-0.3329881
82	0xbdbb97bc	-0.091598004
83	0xbed76155	-0.42066446
84	0xbe639ff9	-0.22228993
85	0xbedfd690	-0.43718386
86	0xbe33ab75	-0.17545874
87	0xbf3454fe	-0.7044219
88	0xbdd5abcd	-0.10433159
89	0xbe56e55d	-0.20985933
90	0x3d2e09bc	0.042489752
91	0xbb7323c0	-0.0037100166
92	0xbd8f8ee8	-0.07009679
93	0xbf01a9cb	-0.5064971
94	0xbe590fbf	-0.21197413
95	0x3d25b956	0.040459953
96	0xbeafcabc	-0.34334362
97	0xbede86d0	-0.4346223
98	0xbeed3736	-0.46331185
99	0xbefc354c	-0.49259412
100	0xbec83e59	-0.39110067
101	0xbe8972b2	-0.26845318
102	0xbefe97de	-0.4972524
103	0xbe06790f	-0.13132118
104	0xbe9a537f	-0.30141827
105	0xbf112d8d	-0.5671013
106	0x3c062ac0	0.008188903
107	0xbe98d96c	-0.2985338
108	0xbebd017a	-0.3691519
109	0xbecf3d14	-0.40476286
110	0xbee5bf12	-0.44872338
111	0xbe937f5e	-0.2880811
112	0xbf2189ce	-0.631009
113	0xbeb1c4ec	-0.34720552
114	0xbf9558b5	-1.1667696
115	0xbde94cec	-0.11391625
116	0xbee8b608	-0.4545138
117	0xbf170471	-0.5899115
118	0xbe4cef16	-0.20013079
119	0xbed1e4e5	-0.40994945
120	0xbe45beeb	-0.1931111
121	0xbdf97108	-0.12179762
122	0xbed6d52c	-0.41959512
123	0xbeb7b152	-0.35877472
124	0xbe0a72fa	-0.13520423
125	0xbec2766d	-0.37980977
126	0xbe0e7612	-0.13912228
127	0xbabccedb	-0.001440491
128	0xbe954e69	-0.29161385
129	0xbf37d8a4	-0.7181494
130	0xbe07770f	-0.13229011
131	0xbebfa8b1	-0.3743339
132	0xbe5288a8	-0.20559943
133	0xbeb50caf	-0.3536124
134	0xbe838ea6	-0.2569477
135	0xbe701b60	-0.23447943
136	0xbe2c6c49	-0.16838183
137	0xbcf65ca2	-0.030073468
138	0xbeb8cd2c	-0.36094034
139	0xbe1bba29	-0.15207733
140	0xbeac010a	-0.33594543
141	0xbebad251	-0.36488584
142	0xbeda77ed	-0.4266962
143	0x3e82aae8	0.25521016
144	0xbea354aa	-0.3190053
145	0xbe3da7fa	-0.18521109
146	0xbdf19afe	-0.117971405
147	0xbed4012e	-0.4140715
148	0xbf25ef1a	-0.64817965
149	0xbf06c176	-0.5263895
150	0xbcf2a420	-0.029619277
151	0xbe92e017	-0.28686592
152	0xbef1b101	-0.47205356
153	0xbe5923be	-0.21205041
154	0xbeacc04a	-0.33740455
155	0xbeadad87	-0.33921453
156	0xbf0be052	-0.5463916
157	0xbe81e4e3	-0.2536994
158	0xbf013a93	-0.5048
159	0xbc355b70	-0.011069164
160	0xbf2511a3	-0.64480036
161	0xbe9ff515	-0.3124167
162	0xbf06f06a	-0.5271059
163	0xbf4ad2dc	-0.79227996
164	0xbeb1cc1e	-0.34726042
165	0xbecdfe99	-0.40233305
166	0xbebd6416	-0.36990422
167	0xbe55bc04	-0.20872504
168	0xbec19974	-0.37812388
169	0xbe4c01ed	-0.1992261
170	0xbeca89a8	-0.39558148
171	0xbf0cba8b	-0.5497214
172	0xbe8c82a3	-0.27443418
173	0xbec9e920	-0.39435673
174	0xbf162339	-0.58647496
175	0xbead4a6b	-0.3384584
176	0x3d13ec05	0.036113758
177	0xbe788773	-0.2427042
178	0xbf002d53	-0.5006916
179	0xbe9d3941	-0.30707744
180	0xbf47cc1f	-0.7804584
181	0xbea04c3a	-0.31308156
182	0xbd93be6b	-0.07214054
183	0xbe701035	-0.23443682
184	0xbeb87e18	-0.36033702
185	0xbe8ab4d1	-0.27091077
186	0xbeb47a74	-0.35249674
187	0xbe9aca3f	-0.30232427
188	0xbe9259dc	-0.28584182
189	0xbeda4b70	-0.4263568
190	0xbe12d6cd	-0.14339752
191	0xbf16f2a9	-0.5896402
192	0xbeaefe62	-0.34178454
193	0xbdc0b6dd	-0.094098784
194	0xbe86b3ac	-0.26308954
195	0xbe102313	-0.1407588
196	0xbe76313b	-0.24042217
197	0xbedf97bd	-0.43670455
198	0x3c4e59fa	0.012594694
199	0xbe10a69e	-0.1412606
200	0xbf558fe4	-0.83422685
201	0xbeef7a76	-0.46773118
202	0xbed354a2	-0.41275507
203	0xbedc7259	-0.4305599
204	0xbee8a362	-0.4543715
205	0x3e2a1bc3	0.16612153
206	0xbf01e532	-0.5074035
207	0xbca8d1ec	-0.020607911
208	0xbf01936c	-0.5061557
209	0xbefb505d	-0.4908475
210	0xbf16db89	-0.58928734
211	0x3e1767fd	0.14785762
212	0x3ddfa942	0.10920955
213	0xbee25917	-0.44208595
214	0xbea5347d	-0.32266608
215	0xbeaf4814	-0.3423468
216	0xbeda7473	-0.4266697
217	0xbf554c9c	-0.8332002
218	0xbe950333	-0.29104003
219	0xbf1faa9b	-0.623697
220	0xbec8b136	-0.391977
221	0xbebca61b	-0.36845478
222	0xbed6918d	-0.4190792
223	0xbe98e18e	-0.29859585
224	0xbf198443	-0.5996744
225	0xbe02ed43	-0.1278582
226	0xbed74476	-0.4204442
227	0xbf1f40b1	-0.62208086
228	0xbe65ead2	-0.22452858
229	0xbedf7240	-0.43641853
230	0xbed3cd2b	-0.41367468
231	0xbe2c25ff	-0.1681137
232	0xbeebfefa	-0.4609297
233	0xbf789a72	-0.97110665
234	0xbec12bce	-0.37728733
235	0xbecd1722	-0.4005671
236	0xbd184115	-0.037171442
237	0xbe618126	-0.22021922
238	0xbefbe2d8	-0.49196506
239	0xbec0a674	-0.37626994
240	0xbe732d1c	-0.23747677
241	0xbea45a46	-0.32100123
242	0xbea3e129	-0.3200772
243	0xbcfb1e26	-0.030654024
244	0xbee02f2c	-0.4378599
245	0x3d3d31bf	0.04619002
246	0xbcce0a56	-0.025151413
247	0xbe89d8f9	-0.2692335
248	0xbea1abd5	-0.3157641
249	0xbec21789	-0.3790858
250	0xbee1a945	-0.44074455
251	0xbcedd82b	-0.029033741
252	0xbee87017	-0.45398018
253	0xbe618133	-0.22021942
254	0xbe5e6e2a	-0.21721712
255	0xbeb0f795	-0.3456389

fc3.weight f4 [4, 400]
0	0x3d5dc06f	0.054138597
1	0xbefd831f	-0.495141
2	0xbf56a6ac	-0.8384807
3	0xbed50dac	-0.41611993
4	0x3d41ee97	0.047346678
5	0xbeca559b	-0.39518437
6	0xbf246bfb	-0.64227265
7	0xbe3b32d3	-0.18281107
8	0x3cf8b1a5	0.030358145
9	0x3d74baa6	0.059748314
10	0xbea720a7	-0.326421
11	0xbd8f9121	-0.07010103
12	0xbe823aeb	-0.25435576
13	0x3d87097b	0.06593605
14	0x3e48b24a	0.19599262
15	0xbeb70556	-0.35746258
16	0xbf216f97	-0.630609
17	0x3e837a7d	0.2567939
18	0x3f215d90	0.6303339
19	0xbedb93b1	-0.42886117
20	0x3efd667d	0.49492255
21	0xbf242804	-0.6412356
22	0x3f310d0a	0.6916052
23	0x3e5f31c2	0.21796325
24	0xbec45615	-0.38346925
25	0xbe492155	-0.19641621
26	0x3e8a2c24	0.26986802
27	0x3d3543a0	0.044253945
28	0xbe1d4c53	-0.15361147
29	0xbdf2d8ef	-0.11857783
30	0x3e43022c	0.19043797
31	0xbf128bf8	-0.57244825
32	0xbed7059b	-0.41996464
33	0xbf213c95	-0.62983066
34	0x3e25eb2d	0.16202994
35	0xbf2b1aa0	-0.668375
36	0xbe27f41c	-0.16401714
37	0x3cf38c6a	0.02973004
38	0xbdbd8cd1	-0.09255374
39	0x3eabe9c1	0.33576778
40	0xbe1fa11b	-0.155888
41	0xbe4e6645	-0.201562
42	0xbebb8b6a	-0.36629802
43	0xbf0da82b	-0.5533473
44	0xbec10042	-0.3769551
45	0x3f4e92cb	0.8069274
46	0x3e3b3393	0.18281393
47	0xbf2a7e3d	-0.66598874
48	0x3dd3b3f7	0.1033706
49	0x3ecee7dc	0.4041127
50	0xbeb5827b	-0.3545111
51	0x3f461ac0	0.7738457
52	0xbdcc3675	-0.09971324
53	0x3efddda2	0.49583155
54	0xbf1a6e0e	-0.6032418
55	0x3e4c1241	0.19928838
56	0xbe5fcf29	-0.21856369
57	0x3f16ef63	0.58959025
58	0xbeefb97a	-0.46821195
59	0x3f3eb8b9	0.74500614
60	0x3f83ec1e	1.0306432
61	0xbe2c3f40	-0.16821003
62	0xbd25c9aa	-0.040475525
63	0xbf28fdd9	-0.6601234
64	0xbe7a6b8b	-0.24455087
65	0xbed15e87	-0.4089243
66	0x3d4ffbf5	0.050777394
67	0xbeffc502	-0.49954993
68	0x3e1444e9	0.14479412
69	0xbf1f9b63	-0.62346476
70	0xbe288ab8	-0.16459167
71	0xbe814912	-0.2525106
72	0x3f131cb9	0.574657
73	0xbed5d8c3	-0.4176694
74	0x3d54f47b	0.051990967
75	0xbebb5bb0	-0.3659339
76	0x3dc2d582	0.0951338
77	0xbdfcfc4c	-0.12352809
78	0xbee7e388	-0.4529078
79	0xbe8df8ce	-0.27728885
80	0x3ce4d7c6	0.02793492
81	0x3f0e29b3	0.5553238
82	0xbab32e6e	-0.0013670453
83	0x3d4c3bc0	0.04986167
84	0xbd62ba98	-0.05535373
85	0xbc38f855	-0.011289676
86	0xbe95311e	-0.29139036
87	0x3e81b807	0.25335714
88	0xbee3a49e	-0.4446153
89	0xbea389f0	-0.31941175
90	0x3d346bc0	0.04404807
91	0x3bb3e459	0.0054898676
92	0xbe1d8982	-0.15384486
93	0xbebac13e	-0.36475557
94	0x3c0f75ac	0.0087560825
95	0x3e11168a	0.14168754
96	0x3f985b8c	1.1902938
97	0x3d6cc306	0.057803176
98	0xbf5b83f9	-0.8574825
99	0x3e25d5b2	0.161948
100	0x3e923026	0.2855236
101	0xbe8d12d1	-0.27553418
102	0x3d9f1ef0	0.07769573
103	0xbf6ade36	-0.91745317
104	0x3e4d5bd0	0.20054555
105	0xbedb39da	-0.42817575
106	0xbf213253	-0.62967414
107	0xbf6ef1b4	-0.9333756
108	0x3e85119d	0.2599
109	0x3dbe7434	0.09299508
110	0xbde0f2de	-0.10983823
111	0x3ee9b5a7	0.45646402
112	0xbe9bb814	-0.30413878
113	0xbe21e85b	-0.15811293
114	0xbed6f451	-0.41983274
115	0x3f30f856	0.6912893
116	0x3f2327d7	0.63732666
117	0x3e947f8b	0.29003558
118	0x3f2fcedb	0.6867501
119	0x3ed34537	0.41263744
120	0x3f00ee01	0.50363165
121	0xbe5b6539	-0.21425332
122	0x3e04e20d	0.12976857
123	0x3e86c061	0.26318648
124	0xbea1b13f	-0.3158054
125	0x3f250be0	0.64471245
126	0x3db5c3ac	0.08875212
127	0xbf38067e	-0.71884906
128	0x3e89ebe4	0.26937783
129	0x3d1f691e	0.038918607
130	0xbe35d95c	-0.17758697
131	0x3f0940b5	0.5361436
132	0x3e7588f0	0.23978019
133	0xbf049af7	-0.5179896
134	0x3ecca538	0.39969802
135	0xbdb41f3c	-0.0879502
136	0xbca7309a	-0.020408917
137	0xbd3ebdef	-0.046567854
138	0xbeff159d	-0.49821177
139	0x3f0923a4	0.5357001
140	0x3ececf21	0.40392402
141	0x3ed3769a	0.41301423
142	0xbf3c5411	-0.73565775
143	0xbf28374f	-0.65709394
144	0xbc80f282	-0.015740637
145	0x3ed1b53c	0.40958583
146	0x3d9e2db8	0.07723564
147	0xbeb5554e	-0.35416645
148	0xbeec058c	-0.46097982
149	0xbf21dbf4	-0.63226247
150	0xbdbf615c	-0.09344742
151	0xbf43bd49	-0.764607
152	0xbe9c1257	-0.30482742
153	0xbe97cbfb	-0.29647812
154	0x3e92168e	0.28532833
155	0xbf166a7e	-0.58756244
156	0xbea1feed	-0.31639805
157	0x3e65e79a	0.2245163
158	0x3e940722	0.28911692
159	0x3ebfd17e	0.37464517
160	0x3e9ac351	0.3022714
161	0xbf291edc	-0.6606271
162	0xbe83e04a	-0.25757056
163	0x3e9f8234	0.31154025
164	0xbe708b06	-0.23490533
165	0xbd93f69d	-0.07224772
166	0xbe9d64e2	-0.3074103
167	0x3e9bc1df	0.3042135
168	0xbd565d2b	-0.052334946
169	0xbed4853c	-0.415079
170	0x3f2ad5f8	0.6673274
171	0x3f02aa71	0.5104132
172	0xbebcaa18	-0.3684852
173	0x3ef82110	0.48462725
174	0xbef4201a	-0.47680742
175	0xbeb10629	-0.34575012
176	0xbe6fcd0e	-0.23418066
177	0xbe3ab8d0	-0.18234563
178	0xbecde0b2	-0.4021049
179	0x3e894d37	0.26816723
180	0xbe2a5695	-0.16634591
181	0x3f4dbcb8	0.80366087
182	0xbf34889b	-0.70520943
183	0xbe20ee4d	-0.15715905
184	0x3e01e5a8	0.12685263
185	0x3e9cafbb	0.30602822
186	0xbe59f391	-0.2128432
187	0xbded4f75	-0.11587421
188	0xbd1535a1	-0.036428098
189	0xbf43f7ee	-0.76550186
190	0x3f3bdf87	0.7338795
191	0xbf2848e0	-0.657362
192	0x3e427151	0.1898854
193	0xbf088a93	-0.5333645
194	0xbf37aea7	-0.71750873
195	0x3f7d19e2	0.9886762
196	0x3f0af6b6	0.542827
197	0xbe9a7c35	-0.30172887
198	0x3f28cc4c	0.6593673
199	0xbf14fdab	-0.58199567
200	0xbe9d8a30	-0.3076949
201	0x3e439a30	0.19101787
202	0x3e56a790	0.20962358
203	0xbe015425	-0.12629755
204	0x3e3b97a9	0.18319573
205	0x3f3e010f	0.74220365
206	0x3ec54423	0.38528547
207	0x3ef4a835	0.47784582
208	0xbf0e2951	-0.55531794
209	0xbf02a0b4	-0.51026464
210	0x3e8d0056	0.2753932
211	0x3d23a635	0.03995343
212	0x3d8f2917	0.06990259
213	0x3f627161	0.8845425
214	0x3eb8e334	0.36110842
215	0x3edb7e67	0.42869875
216	0x3eb35631	0.35026696
217	0xbe922723	-0.28545484
218	0xbbc89cd3	-0.0061222105
219	0xbee249f1	-0.44197038
220	0x3e532c6e	0.20622417
221	0x3e7295bd	0.23689933
222	0x3e9285e7	0.28617784
223	0x3e9829cf	0.29719397
224	0x3f34cf0f	0.70628446
225	0x3e05919b	0.13043825
226	0xbfa678b9	-1.3005592
227	0x3ed1994e	0.40937275
228	0x3ed9225a	0.4240902
229	0xbeb86e31	-0.3602157
230	0xbed504fb	-0.41605362
231	0x3e1fc617	0.15602909
232	0xbf3c62ac	-0.7358806
233	0x3ef26af6	0.4734723
234	0xbdeb3f06	-0.1148663
235	0x3eedc014	0.46435606
236	0xbf259468	-0.64679575
237	0xbf2443e2	-0.6416608
238	0xbc95c5ac	-0.018282734
239	0x3ea32349	0.31862858
240	0xbdcd2480	-0.100167274
241	0x3f057af4	0.52140737
242	0xbd0e9c07	-0.034816768
243	0xbdab0752	-0.083510056
244	0x3efb1600	0.49040222
245	0x3efb969f	0.49138352
246	0x3e33c24b	0.17554586
247	0xbcb1891f	-0.02167183
248	0xbda6cb56	-0.08144252
249	0x3cc268af	0.023731558
250	0xbf072d06	-0.52803075
251	0x3f0df14b	0.5544631
252	0xbf291977	-0.6605448
253	0x3f5b104a	0.8557173
254	0x3e691c37	0.2276467
255	0x3f5d590a	0.8646399

fc3.bias f4 [4]
0	0x3e45a3b4	0.19300729
1	0x3dc59d8e	0.09649192
2	0xbcf7d0a1	-0.03025085
3	0x3b6af41c	0.0035851067
