experiments/exp2/models/checkpoint_critic_7.pth (torch_old, 357860 bytes, 5 tensors)

fc1.weight f4 [200, 33]
00000000: 7e8f ab3d 5801 973d 0fb8 a6bd 53c0 e6bc
00000010: 0058 423d 666a 873e 58db 0c3d 9fb5 cf3c
00000020: 88b3 b53c d888 4abd 185d 033c b522 d43b
00000030: 2458 24bc 15b2 61ba 5827 e03d 8330 f4bc
00000040: d6f8 4dbe 2ad6 543e ed13 f3bd d3bc 803d
00000050: f419 aa3a ee61 8a3c 5e36 3abd f2b8 92bd
00000060: 7a6a a13d 970f 323c 308d 9abd 6125 cdbc
00000070: 39a4 1bbd cabb 373d f3fa 4bbd 4015 58bc
00000080: 083d b0bd a21c 36bb dc8a 853d 931b bebd
00000090: 84c3 92bc 782e 973d f2fc d93e 371b d5bd
000000a0: e9f3 5c3d 3498 99bd 1817 47bd 52a9 d6bb
000000b0: 19b8 e4bc 2713 ad3b d962 96bc 11d4 19bd
000000c0: 0330 033d d823 55be 165d 1bbd 6c62 a5ba
000000d0: e1c1 99bd 1aae f8bb ba2a 8939 6e48 7a3c
000000e0: e081 0bbc 9796 93bc c083 a53b d921 d23c
000000f0: 6f83 8f3d f418 b0bc 5009 fd3c efa7 88bd
00000100: 4495 b4bc 592f e9be 9b93 dd3d 7642 8f3d
00000110: 479d 06be ea4f fc3c 882b b23d 02a4 893d
00000120: 12b6 233b ae7f 81bd 6909 403e 8884 013d
00000130: d3c1 513d 2009 3ebd 3923 29bd a77d eebb
00000140: 2f90 98bd 2b3c a53c 0acf a13d 1134 06bd
00000150: a95a 4b3e 83c4 0a3e 0453 76bd 2ff3 923c
00000160: 4c1a 40ba a51d 83bd ed34 78bb f3d7 783a
00000170: 1e69 0b3d 84ee ad3d 0cd0 333d 4ce4 303d
00000180: ee91 a0bd f6c1 163d 050e c43d d8ee 5ebd
00000190: 1cd6 b6ba 38dd 96bd 4e04 953e 14d9 cfbd
000001a0: 8668 1b3c 8f9d 97bd 8582 82bc 4b6e 8ebc
000001b0: 5d77 193c f516 aebd e49f 11bc c2c6 1e3d
000001c0: 50e1 63bd 0df1 493c 2a2f 903c fa40 313c
000001d0: becd 343d a0d7 083c 4a00 1e3d 7fad 183c
000001e0: 808f c9bc b544 dcbc 7026 02bc 0fa9 dfbc
000001f0: a784 81bc 991a 3d3d dae4 20bd a746 89bc
00000200: 3ce0 29bc 6992 7bbd 86e1 183d b513 10be
00000210: 00f3 e53d b055 9fbd 5dcf 903d d3df f3bd
00000220: 32cb 043e 96a6 213d 40f7 b6bd f6d6 24bd
00000230: 7102 ffbc ea0d 803d a72b 793d f871 dbbc
00000240: 1f09 2fbd 3b06 26bd b307 7fbd 2151 9ebc
00000250: 757a a7bd 5318 4c3d 63ca 8fbb a89c 053e
00000260: 01ef 073c 5628 553c b5c4 493c b110 ce3a
00000270: 4e49 a1bc 9c19 87bd 7f55 76bb 5127 3b3d
00000280: 00a5 553d 805f f4bb 2426 1cbe 41d8 85bd
00000290: f133 5dbe 0f00 4b3b 118c 193d dd9c 15bd
000002a0: 816e c1bd 7a1c 953e 77fe 053e 3365 8ebd
000002b0: 8622 9bbd f7b4 2f3e 701c d83d 4032 d63c
000002c0: e727 943d d39e 863d 05da adbc 032f bebc
000002d0: 0aa1 263d 303a 27be fe06 d13d b533 833d
000002e0: 3cd2 a5bb e558 323c 41ad bcbd 1f62 a03c
000002f0: 954f 42bd dc87 c2bd 0000 9abc e5d3 613d
00000300: 7bae b03d 524f 3cbd 4051 0c3b 7f22 b0bd
00000310: 74a5 043d 3d2c 6dbd 3d8f 533d 680c 2c3e
00000320: 91f1 183d 879e cdbd a3a7 3c3d 17c1 15bd
00000330: de80 a0bd 06fe f0bc d0a6 2a3c 084c 26be
00000340: 641d 863b 5d78 083c acae e03b 5fd5 6c3c
00000350: 7b18 9fbd 7921 e0bb 2abe 8c3e 2c70 97bd
00000360: 41a9 b93d cda2 0a3e 2b49 db3c 2a8a 83bd
00000370: 2e44 7cbc 0d6a 0f3d e556 01bb 92d4 a4bd
00000380: dae6 2d3d 06b5 313d 94b6 e9bc 08ef cebc
00000390: c994 c93c 45b8 813d 07dc b0bd c79d cebd
000003a0: f9a8 183e 66bb 76bc 187e 0fbd 9b42 523c
000003b0: 7c4d 373e dd1b 28be e1b6 c93c 7e45 18bd
000003c0: b0ec 7fbc 0f39 50bc e286 95bc 4834 e63c
000003d0: 325d 173e c0e4 13be 37ad 0e3e ed44 b03d
000003e0: 6662 8ebc 8497 943a 6044 79bb bbfa 103c
000003f0: f99b f43b b386 3a3b 88c8 9f3c 269b c2bc
0.08376978 0.07373303 -0.08140575 -0.02816788 0.047447205 0.26448363 0.03438887 0.025355158
0.022180334 -0.04944691 0.008017801 0.006473864 -0.01003078 -0.0008609605 0.10945004 -0.029808288
-0.20114455 0.20784822 -0.11869035 0.06286015 0.0012977705 0.0168924 -0.045462005 -0.07164182
0.07881637 0.010867975 -0.07546461 -0.025042238 -0.03799841 0.044856824 -0.04979987 -0.01318866
-0.08605391 -0.0027788063 0.06520626 -0.09282603 -0.017915495 0.0738191 0.42575794 -0.104055814
0.05394355 -0.074997336 -0.04860601 -0.0065509463 -0.027919816 0.005281824 -0.018357681 -0.037555758
0.03202821 -0.20814455 -0.03793057 -0.0012617833 -0.075076826 -0.007589114 0.0002616251 0.015276058
-0.008514851 -0.018016143 0.005051106 0.025650905 0.07007491 -0.021496274 0.03088823 -0.06672656
-0.022043832 -0.45543936 0.10819169 0.06995098 -0.13145934 0.030799825 0.08699709 0.06720735
0.0024980349 -0.06323181 0.1875359 0.031620532 0.051210236 -0.04639542 -0.041293357 -0.0072781625
-0.07449376 0.020170292 0.07900818 -0.0327645 0.19858803 0.13551526 -0.060137764 0.017938225
-0.0007328137 -0.064021386 -0.0037873343 0.0009492628 0.034035794 0.08492759 0.04389958 0.04318647
-0.07840334 0.03680607 0.095729865 -0.054426998 -0.0013949308 -0.07366413 0.29104847 -0.10148826
0.00948537 -0.07403099 -0.015931377 -0.017386576 0.009366837 -0.085004725 -0.008888219 0.03876377
-0.055634797 0.012325537 0.017600615 0.010818714 0.044141524 0.00835219 0.038574494 0.009318708
-0.024604559 -0.02688823 -0.0079437345 -0.027302293 -0.015810324 0.046167944 -0.03928075 -0.016757322
-0.010368403 -0.061418924 0.03732445 -0.14070018 0.11227989 -0.077800155 0.070708014 -0.119079255
0.12968138 0.03946551 -0.08933878 -0.040244065 -0.031129094 0.06252654 0.060832646 -0.026787743
-0.042733308 -0.040533286 -0.062263202 -0.019325795 -0.08177654 0.049827885 -0.00438814 0.13048041
0.008296729 0.013010105 0.012314965 0.0015721527 -0.019688275 -0.065966815 -0.003758758 0.045691792
0.05215931 -0.0074576735 -0.15248924 -0.06535388 -0.21601845 0.0030975377 0.037487093 -0.03652655
-0.09444905 0.29123288 0.13085352 -0.06952896 -0.07574944 0.17158876 0.10552299 0.026147008
0.07234173 0.06573262 -0.021222124 -0.023215776 0.040680923 -0.1633079 0.10206412 0.06406347
-0.0050604623 0.010885452 -0.09212733 0.019578038 -0.047439177 -0.09498569 -0.018798828 0.05513372
0.086270295 -0.045974083 0.0021410733 -0.086003296 0.03238435 -0.057903517 0.051650275 0.16801608
0.03733975 -0.10040002 0.04605831 -0.036561098 -0.078370795 -0.029418003 0.010415748 -0.16239941
0.004092859 0.008329478 0.00685676 0.0144551685 -0.07768341 -0.0068399278 0.27488834 -0.07394442
0.09065486 0.13538666 0.026768288 -0.06422837 -0.015397115 0.035013247 -0.001973563 -0.08048357
0.042456485 0.043385528 -0.028529443 -0.025260463 0.02460708 0.06333975 -0.08635717 -0.100886874
0.14908208 -0.015059328 -0.03503236 0.012833263 0.17900652 -0.16416879 0.024623336 -0.037175648
-0.015620396 -0.012708916 -0.018252794 0.028101102 0.14781645 -0.1444273 0.13933264 0.086068965
-0.017380904 0.0011336659 -0.003803514 0.008848841 0.0074648825 0.0028461635 0.0195048 -0.023755621

fc1.bias f4 [200]
00000000: 8cde 9abd 9542 bc3d babb 69be 91cc 143e
00000010: c6d4 35be 334d 5fbe f94b c1bd 8511 bebd
00000020: 0f71 5fbd 31dd a8bd dfab b1bd a1a7 023e
00000030: 8f0a 443d 519f b8bd 7594 b2bc be08 9fbe
00000040: 8aa4 57be 93fd 38bd 1272 f93c ac4a 0ebe
00000050: e66f 30bd fe72 223e 07db 58bd 0fce 77be
00000060: 4dec 14be 442f 11be 4d79 bfbd 9f27 913d
00000070: 828b 00be a87a 01be 3cdc b53c 5d0e 183d
00000080: 6ce3 1dbb 7e2b fabd 97d0 f83c bbdb dfbc
00000090: 7985 26bd f4b8 c9bd d1f8 aabd ae18 473d
000000a0: cf17 b1bd b35a 40be c80a 5dbc 698e c5bc
000000b0: fd3a 783d 9378 60bd bd78 89be 9d84 d33d
000000c0: 9efd 64be 7302 93be bec2 733d a5d3 26be
000000d0: 6ff5 ceb8 1210 183e 2f77 7dbe 60fa 893d
000000e0: aef3 aa3c a180 d7bd 1837 d33d ac60 30be
000000f0: 2a6a 563e e200 003e 6922 48bd 4bf3 d53d
00000100: 455a 5cbd 6dc6 563d 0e07 ec3c 5b34 cebd
00000110: a989 80bd 89b6 c8bd 5cbb d6bd ec69 e43b
00000120: 1f10 a33b fef0 3c3d 0adf ddbb 61d2 e2bd
00000130: a803 603b 3837 21be 98a2 563d d27a cd3c
00000140: 65bf c2bb ad32 5abe d2b9 0a3e 4244 fdbd
00000150: 2bbd 0abe d634 a83d c34e 00be 9f15 0abe
00000160: 4608 b13d 4499 52bd dc90 27be 3cb9 043d
00000170: 15a4 323d 331c 0fbe d5a6 16be 3bf0 6dbd
00000180: 1213 373d f02a a73c 14e3 123d fd0f 00be
00000190: dfc6 babc 7a7b 14be bb15 913d 3f33 68bc
000001a0: c507 8fbc d398 59be edf2 c8bd 068a 03be
000001b0: 833e e2bd d20d c4bd 6d31 4dbc b984 68bd
000001c0: bba1 dcbd 6573 9e3d 72e8 26be 2c03 68be
000001d0: 4ced b03d e035 53be 6316 12be 1fef 7ebe
000001e0: 790d 923d 8898 f1bc 8058 d43d cbd2 eebd
000001f0: a489 943d 6c0d 13be 13e7 b4bc 09e4 293d
00000200: 2b57 eabd 5f72 83bd e912 3fbe 0917 1dbe
00000210: 6501 3a3d 9035 523d 7217 15be 0500 4abe
00000220: ee89 8abe 43ed 17bd ce47 4cbe e244 c6bd
00000230: 5e4a c4bd 441c 1abe abbd 61be 2c41 80be
00000240: 844b 0bbe aa0a ab3d 1f18 bfbd 452f a0bd
00000250: 4bb3 05be efad 5dbc c0da c93d db53 6cbd
00000260: a45b b6bd 86bf 69be 8368 23bd 7d0d a6bd
00000270: 7a2a 0bbe 27a7 a73d 344c a5bc 2cbb 53be
00000280: 3d97 b53d a4ea 8bbd 93ad 88be 2134 84bd
00000290: af1e 9dbc d573 11bd 7600 453d 0e66 81be
000002a0: 9102 b23d f9cd d8bc 423c c33c 4363 c5bd
000002b0: cce9 00bd e8bc 6ebe 5702 24bd a384 1b3d
000002c0: 135b f7bd 990a acbd 1633 013d 1f00 253d
000002d0: 76bf c73b 887a 33be 026c 22be f70a 9cbd
000002e0: 2f30 05be b276 0cbd 3cd6 7a3d 420a b03c
000002f0: 368e 583a 881e cfbd fc02 65be fea4 87bd
00000300: c56e e7bb c736 eebd 2fca d33d c2dd 11be
00000310: 62b1 e2bc facb a5bb b02b d23d 1a41 8bbd
-0.07561979 0.09192387 -0.22825518 0.14531161 -0.17756948 -0.21806793 -0.09438319 -0.09280685
-0.05455118 -0.08245314 -0.0867536 0.12759258 0.047861632 -0.09014762 -0.021799305 -0.31061357
-0.2105886 -0.045163702 0.0304499 -0.13895673 -0.043075465 0.15864179 -0.052943256 -0.24199699
-0.14543267 -0.14178187 -0.09349308 0.07087635 -0.12553218 -0.12644446 0.022199742 0.037123073
-0.0024091853 -0.12215327 0.0303729 -0.027326455 -0.040654633 -0.0984973 -0.08348239 0.04860752
-0.08647119 -0.18784599 -0.01349134 -0.024115758 0.06060313 -0.05480249 -0.26849928 0.10328028
-0.22362372 -0.28712806 0.059511892 -0.16291673 -9.868561e-05 0.1484988 -0.24752496 0.06737208
0.020868149 -0.10522581 0.10313243 -0.17224377 0.20938936 0.12500337 -0.04886094 0.10446795
-0.053797025 0.052435327 0.028811958 -0.1006858 -0.062762566 -0.09800441 -0.10484955 0.0069706347
0.004976287 0.046128266 -0.006770973 -0.11075283 0.0034181867 -0.1574372 0.052401155 0.02508298
-0.005943226 -0.21308394 0.13547447 -0.12366535 -0.13548724 0.08213203 -0.12530045 -0.1348481
0.08644156 -0.051415697 -0.16363853 0.032403216 0.043613512 -0.13975601 -0.14712079 -0.05809043
0.04469592 0.020406216 0.03586109 -0.12506099 -0.022799907 -0.14500228 0.07084223 -0.014172374
-0.01745976 -0.21249704 -0.098119594 -0.1284562 -0.110470794 -0.095729485 -0.012523991 -0.0567672
-0.10773035 0.077368535 -0.16299608 -0.2265746 0.08639011 -0.2062602 -0.14266352 -0.24895905
0.07131476 -0.029491678 0.103684425 -0.11661299 0.07252815 -0.14360589 -0.022082841 0.041477237
-0.11442407 -0.06418299 -0.18659557 -0.15340818 0.045411486 0.051320612 -0.14559725 -0.1972657
-0.27058357 -0.037091505 -0.19949266 -0.09681107 -0.09584497 -0.15049845 -0.22045009 -0.25049722
-0.13603026 0.083516434 -0.093307726 -0.07821516 -0.13056676 -0.0135302385 0.098561764 -0.05769716
-0.08904198 -0.22826967 -0.039894592 -0.081080414 -0.13590422 0.08186179 -0.020177938 -0.20676869
0.08866737 -0.068318635 -0.26694927 -0.06455255 -0.01917967 -0.035510857 0.048096143 -0.25273174
0.08691896 -0.026465403 0.023832444 -0.09638073 -0.031472966 -0.2331425 -0.040041294 0.03796829
-0.12077918 -0.08400459 0.03154286 0.04028332 0.006095822 -0.1752721 -0.15861514 -0.07619279
-0.13006662 -0.034292884 0.061239466 0.021489266 0.0008260937 -0.10113245 -0.2236442 -0.06623267
-0.0070627653 -0.11631542 0.10341298 -0.1424475 -0.027672473 -0.0050597163 0.10262239 -0.067995265

fc2.weight f4 [400, 204]
00000000: 24f0 303d b82c 513d 16da afbc 7b18 fcbc
00000010: 9b80 47bd c442 0a3d bbe2 d0bd 82cd f2bd
00000020: 9f97 bc3c bbb4 c6bc 728a 34bb 8dde bd3c
00000030: 8508 e03c fe83 b03d 84d6 34be 4341 3dbe
00000040: 63d8 48bd 940d 28bd 0eba c1bb 0792 f73c
00000050: 099d 93bd 3ef1 8a3c 92e1 c2bc 4cfd 443d
00000060: ac30 143d a185 243d 260a e2bd 230a d2bd
00000070: 322f 953d 5472 12be 8881 85bd f92b 7bbc
00000080: 5d9f fbbd 67f0 a63d 5cf1 e6ba 8d08 61bd
00000090: e062 7f3d 485c 953c da88 333c a7b3 85bd
000000a0: 67ad 04be 9da8 24bc aafc 343c 131d 073c
000000b0: c7c1 c1bc 9bcc 12bd 9350 9d3d dc5b 0d3d
000000c0: 5a19 f83c dcc8 adbd 7e8c 3dbd 233b 95bc
000000d0: 9383 fcbb 1c75 913c b2f5 f7bc c00e 4ebe
000000e0: 1dd0 733c 023c 6ebd 85e4 833c 01af 67bc
000000f0: e466 b53d 98a9 233d 0299 ec3c 54fa adbd
00000100: 6ecd d03d 34af b03c 8a82 c4bd e9bd 803d
00000110: c526 77bc 54e5 943d eabb 5f3d af2a a93c
00000120: 8ff2 5d3d b2c9 26be 08a4 323b 0910 703d
00000130: f77f 0fbe f323 0bbd 3bf0 e4bd 6385 a73b
00000140: 7d3f 2cbc e068 5f3d e18b 5b3d 4c1b 743b
00000150: 40e4 343b 3d01 283d c8ef 8bbd b88b 02bc
00000160: e19a 3c3a 77c7 583d b695 a8be f084 ba3c
00000170: 9bd1 71bb 9d8e 293d 48af b9bc a4fe dabd
00000180: ead7 7bbd 1ae9 173c 43b1 503d a199 c63d
00000190: 27a2 ff3b fb47 183d 0a1f 06bb f93a 07bd
000001a0: cd56 3f3c 40a1 10be b637 75bd a181 40be
000001b0: 7829 a7bc 150b 163a d759 8b3d 6905 a03b
000001c0: 6f2e 20bd 87c6 fe3c c3b7 2d3b 5f0c 463d
000001d0: 10f3 3d3c c8d5 c23c d879 df3d f89a 12bd
000001e0: e455 eebc afb5 07bc e003 903c bb5e 3a3d
000001f0: a8d3 44be f9fb 303d 7eaa d23d 4a17 2d3c
00000200: eaf4 21be 600d d4bc 81c4 3cbb abe0 393c
00000210: bf07 813c 54f7 47bc 10ac d9bc 0499 853d
00000220: 2a72 b4bd cff3 033e 0d07 43bd 7d28 72bc
00000230: a550 9d3b 0ed7 c33c 7e14 a33c 15a6 0a3d
00000240: 175c 92bd 2bab 693d cc5c 1f3d 66da babd
00000250: 5754 323d ab62 c43c 9364 5e3d 7247 36bd
00000260: 3b01 84bd 0a81 46be 4bf5 143b b522 113d
00000270: a200 69bc e753 bfbd 5244 683d c816 8bbc
00000280: a78d a33d 9708 153d 11c9 013d 1015 803c
00000290: d9cf afbb 1372 5cbd 3656 f5bc acea d43c
000002a0: 0eb2 833d 619f 55bd 0abf 40bd 44da a33d
000002b0: 469d a1bc a437 a3be e00d 423d 734d 76be
000002c0: c190 8cbd 08d6 8abc 6098 51bc 8f65 1dbe
000002d0: 60d6 1e3d da4a b43d be31 94bd f011 1f3b
000002e0: ec43 e2bc 0e4b b7bc d2f6 a0bd 3519 e2bd
000002f0: 1a4b b1bd c112 833d 5bb6 7b3d 3da2 ddbd
00000300: 2ec4 583d b267 073d 580e d33c de19 8d3d
00000310: d1f5 fdbc d2e9 953d b393 4abe e092 ddbc
00000320: 5d20 353a ab12 253c d163 af3c cd26 1ebd
00000330: 4960 90bc c1d0 8abd 6dff 02bd cfd0 9fbd
00000340: 434e ac3d f8eb aabd 44a7 b5bd fcf2 1c3d
00000350: d9b0 1dbd f8c8 8e3d a61a a7bd 94dc 1abe
00000360: b785 acbd 8a70 47bd 5efe b23d 7e36 9b3d
00000370: a816 2b3c 2535 9cbd 7b62 403d 2aa4 85be
00000380: be8c f9bd e106 97bd c0b8 5a3c 6d8a 10be
00000390: 3201 013d 3ab4 15bd b853 873c 1029 80bd
000003a0: 417e d7bd 5b72 dabc 1687 0abe d806 83bd
000003b0: acc7 973d 24e3 323c f608 52bc 4576 04bc
000003c0: 8345 b8bd c283 a7bd 60a7 c1bd 6049 80bd
000003d0: cfcc 01bd b282 07bc 99b7 dbbc 6269 2dbe
000003e0: c253 2bbc e9f5 d3bd 240a d03b 70aa 88bd
000003f0: 2d73 893d 0a5f 963d c9d5 873c a359 1dbe
0.043197766 0.051068038 -0.021466296 -0.030773392 -0.048706632 0.03375508 -0.101994954 -0.11855604
0.023021517 -0.0242561 -0.002754834 0.02317741 0.027347812 0.086189255 -0.17659956 -0.18481927
-0.049034487 -0.041028574 -0.005912072 0.030220998 -0.072076865 0.016960736 -0.023789201 0.048093125
0.03617923 0.0401665 -0.11037092 -0.1025584 0.072843924 -0.14301425 -0.06518847 -0.015330308
-0.122862555 0.08151322 -0.0017619538 -0.054939795 0.062350154 0.01823248 0.010957921 -0.065284066
-0.12956773 -0.010049966 0.011046568 0.008246678 -0.02365197 -0.03583966 0.07681384 0.034511432
0.030285526 -0.084855765 -0.046276562 -0.018216675 -0.0077061146 0.017756037 -0.030268524 -0.20122814
0.014881161 -0.058162697 0.016100178 -0.014140845 0.088575155 0.03995666 0.028881554 -0.08495012
0.101954326 0.021567918 -0.09595211 0.062862225 -0.015084927 0.07270303 0.05462257 0.020650236
0.0541864 -0.16287878 0.0027258415 0.058609042 -0.14013658 -0.03396983 -0.11178633 0.0051123365
-0.010513184 0.054543376 0.053600196 0.0037247716 0.0027601868 0.041016806 -0.06832844 -0.007967882
0.00071947096 0.0529246 -0.3292672 0.022768468 -0.0036898616 0.041395772 -0.022666588 -0.106931
-0.06148521 0.009271884 0.0509503 0.09697271 0.0078013125 0.03717802 -0.0020465278 -0.033015225
0.01167841 -0.14124012 -0.059867583 -0.1879945 -0.020405516 0.0005723697 0.06804245 0.0048834574
-0.039106783 0.031100525 0.0026507236 0.04835164 0.011593595 0.02378358 0.10911912 -0.03579232
-0.02909369 -0.008283063 0.017579973 0.0455005 -0.19221365 0.04320905 0.10286425 0.010564635
-0.15816084 -0.025885284 -0.002880365 0.011345069 0.015750764 -0.012204964 -0.026571304 0.06523326
-0.088108376 0.12885974 -0.047614146 -0.014780161 0.0048008733 0.023906257 0.019907232 0.033849794
-0.07146471 0.057048004 0.038906857 -0.091236874 0.043537464 0.02397283 0.054295134 -0.04450173
-0.06445547 -0.19385162 0.0022729214 0.03543349 -0.014221342 -0.09342175 0.05670578 -0.016978636
0.079860024 0.036385145 0.031685892 0.015635043 -0.0053653535 -0.053819727 -0.029948335 0.025990807
0.064304456 -0.05215395 -0.04705719 0.08000615 -0.019728314 -0.31878388 0.047376513 -0.24052982
-0.06863547 -0.016947761 -0.012792677 -0.15370773 0.038778663 0.08803339 -0.0723605 0.0024272166
-0.027620278 -0.022374656 -0.07859577 -0.11039964 -0.086569026 0.064000614 0.061453205 -0.1082196
0.052921467 0.033057876 0.025763676 0.068896994 -0.031001003 0.07319988 -0.19782905 -0.027047575
0.00069094246 0.010075252 0.0214099 -0.038611222 -0.017624037 -0.06778098 -0.031981874 -0.07803499
0.08413365 -0.08345789 -0.08869794 0.038317665 -0.038498733 0.069719255 -0.0815938 -0.15123206
-0.084239416 -0.04869131 0.08739923 0.07578753 0.010442413 -0.07627324 0.04696892 -0.2610181
-0.121850476 -0.07374359 0.013349712 -0.14115305 0.03149528 -0.03654883 0.016519412 -0.06257832
-0.10522128 -0.026665857 -0.13528094 -0.0639779 0.07411131 0.010918412 -0.012819519 -0.008084838
-0.08997633 -0.08179428 -0.094557524 -0.06263995 -0.03168946 -0.008270906 -0.026820945 -0.16934732
-0.010456981 -0.10349638 0.006348865 -0.066731334 0.06711421 0.07342346 0.016581433 -0.15366225

fc2.bias f4 [400]
00000000: 72a4 933d bc01 7cbd 6f39 813c 59d1 513d
00000010: 1c48 fa3c 5f5d 17be 015e a6bb 747e 7dbd
00000020: 6191 5dbd d055 bf3d 7efe 26be 33bf 29bd
00000030: 1a76 e8bd 5563 16be aaeb f9bd 54fc 023d
00000040: 75a8 983c 8a42 933d d837 cd3c 05e5 0a3d
00000050: cbbe dd3d 2a68 d7bd a0a8 593c c61d a1be
00000060: 0396 bbbd e797 debb deec 38bd 9d81 e0bd
00000070: 8962 16be c0b7 2c3d b44b 133d 509a 623d
00000080: 4914 853d d68b 19be 400c 643c 0db5 b5be
00000090: 7615 91bc 7bad a6be f189 4e3c ffea 063e
000000a0: ade4 c33d 8369 0b3d 713d d4bc 652f de3d
000000b0: 7f26 de3d 45fb 97be 8ea2 a73d 64a9 31bb
000000c0: 875b 1b3e 16c7 ddbd b088 b93d ee58 abbd
000000d0: 2513 e13c c40c 043c 8cd1 77bd 740d c63c
000000e0: dc1f 08be 56ff c3be cb3b 183e 533e 29be
000000f0: e1c3 9bbd 0c3a ef3d a69a 353d 554e 0cbe
00000100: 3436 70ba a59b efbd b1e4 13be b01e debd
00000110: 4cec 6bbd eb12 54bd e025 abbd d3d0 883d
00000120: bc19 eabd a2d6 603b d16b ec3c 5a08 913d
00000130: b662 a43d c62d 8fbd 0d40 083d ad1e aa3d
00000140: 8446 e6bb f42d 20be 774f 2cbe a181 a6bd
00000150: f180 023e d0c1 1e3e e7c3 4bbd 5397 3e3d
00000160: 4352 d63d 3ad7 5cbd bee4 62bb e4ce 6e3b
00000170: 904e 1dbe 01cd 72be a642 c03d f828 81bc
00000180: 10e4 b1bd 3614 d83d dd16 673d cb2b 363e
00000190: 8089 8fbd de73 813c e2de 903d 29d4 08be
000001a0: eeee 023e 6c8f 663d af04 b1bc e219 63bd
000001b0: cd30 a03d 10f9 503d f187 febd 1252 cb3c
000001c0: a6c4 c9be 0d46 3c3d 9068 883d 73de f63d
000001d0: 951d 92bd 2e1b f83d 82fb 943d 7935 86bd
000001e0: 7b97 8bbd 0534 183d 0994 aabe 07c2 693d
000001f0: 7562 0c3e 5838 9ebc a17b 34bd b582 0a3e
00000200: 8996 9dbd 5335 a43c 5184 513d 2d79 b23d
00000210: 45f4 a03b 1df0 e7be 1456 c4bd ec2d b13d
00000220: 4e12 3bbe c861 263d 4237 77bd 66f2 d2be
00000230: fb92 223e 7ca2 1fbe 21d9 833d 574e f13d
00000240: 79d8 36bc 0c26 013e d73d 2ebe d481 f83d
00000250: e94b b13d 261f 7b3d e987 f6bd 2da4 1a3d
00000260: 0d04 c3bd df17 813c e070 1bbd 3644 a5bc
00000270: 94df 283e 0d09 5b3d 3a6e dcbc 57a3 683c
00000280: 8ec9 c73c b93d d13d 4cf0 84bb 81d3 f73d
00000290: 4819 073e fe42 b5bd 035a e43d 721c c9bd
000002a0: 9f79 6f3d a610 5b3d e532 f73d 0fdd da3d
000002b0: b5b3 273d 9dcc 2ebe a675 0a3e bb88 32bd
000002c0: 2a32 bc3d 8658 563d cb6d 413d cc75 9c3d
000002d0: 677c ec3d 4a1b b53d 66c2 373c c51c d43d
000002e0: 523d 74bb 1165 82bd be4d a93d 043c fbbd
000002f0: 3a3f b93d 98fb 72be 9012 adbd 6f57 d9bc
00000300: 5ec5 313c 496c e23d 8935 bd3d d56c bebd
00000310: 6d09 ce3d ed58 163e 696d f73a 3456 40be
00000320: d4d9 943d 796f 3c3e ba1d ca3d 2818 afbc
00000330: 31a0 cc3c 58fe 363a 5e23 0f3e 83c5 1abe
00000340: 7b0f b33d 8488 2f3d 9adb f83c 7398 813d
00000350: 48a8 5bbd 7c63 19be 295a 6cbc 1759 6cbb
00000360: e0d6 73bc 43ba 1a3d 7c14 323d 25c6 c53d
00000370: a3c1 88bd b909 67bd 22f8 563d f2ae 913d
00000380: 1de4 b2bd d8d6 a4bd fab9 b93d 2956 f8bc
00000390: 76fd 88bd 8f06 103d 3848 853d b551 cfbc
000003a0: a838 093e 764f 79bd 87e4 e5bd 6a48 673d
000003b0: d89b 9fbd 163d 01be 1ab8 f33c c3ed 76bc
000003c0: d1a2 a13b 9668 dfbd 6bcf 373d 6d8f ffbc
000003d0: 92f8 f23d 2693 82bd f9bf 8f3d 71da 0ebe
000003e0: f84f 163d 98de a03b 3ba4 21bd f23e d63d
000003f0: 8010 233e 212b 8b3d 9965 f13d e214 d7bd
0.072091 -0.06152509 0.015774457 0.05122504 0.030551963 -0.14781712 -0.005077124 -0.061888173
-0.054093722 0.09342539 -0.16308019 -0.041442107 -0.11350651 -0.1468633 -0.122031525 0.03197892
0.018635014 0.07190426 0.025051042 0.033909816 0.108274065 -0.105179146 0.013284832 -0.31468028
-0.09159472 -0.0067930105 -0.04514777 -0.10962222 -0.14686026 0.042167425 0.035960868 0.055322945
0.0649801 -0.1499475 0.013918936 -0.35489693 -0.017710429 -0.3255423 0.01260613 0.13175581
0.09565101 0.03403617 -0.025908204 0.108488835 0.10847186 -0.2968389 0.08185302 -0.0027109021
0.15171634 -0.10828988 0.09059274 -0.08366571 0.02747495 0.008059684 -0.060502574 0.024176337
-0.13293403 -0.38280743 0.14866559 -0.16527681 -0.0760572 0.116809934 0.044336937 -0.13701756
-0.00091633503 -0.11699609 -0.14442708 -0.10845697 -0.057598397 -0.051775854 -0.083568335 0.06680455
-0.1143069 0.0034307619 0.028860005 0.07081671 0.0802664 -0.069911525 0.03326421 0.08306632
-0.007027449 -0.1564253 -0.16827188 -0.081301935 0.127445 0.15503621 -0.049747374 0.046531033
0.10464909 -0.053916194 -0.0034621204 0.0036439234 -0.15362 -0.23711015 0.09387712 -0.015766606
-0.086860776 0.1055073 0.05641829 0.17790143 -0.07008648 0.01580232 0.070737615 -0.13362183
0.12786457 0.05628912 -0.021608679 -0.055444606 0.07821808 0.051018775 -0.124282725 0.024819408
-0.39407843 0.045965243 0.06660569 0.120541476 -0.071345486 0.12114559 0.07274534 -0.06553168
-0.06816002 0.037158985 -0.33316067 0.057069805 0.13709433 -0.019313976 -0.044063214 0.13526423
-0.07694728 0.020044958 0.051151577 0.08714519 0.0049119317 -0.4530038 -0.095867306 0.08651337
-0.18268701 0.040620595 -0.060355432 -0.4120056 0.15876381 -0.15589327 0.064378984 0.1178252
-0.01116001 0.1261217 -0.17015778 0.12134138 0.08657057 0.061309002 -0.120376416 0.037754226
-0.09522257 0.015758453 -0.037949443 -0.020174127 0.16491538 0.05347543 -0.026908029 0.0141990995
0.024388101 0.10216851 -0.004056966 0.12100888 0.13193238 -0.08850668 0.11149981 -0.09819879
0.058465596 0.053482674 0.12070254 0.10686695 0.040942866 -0.17070241 0.13521442 -0.043587428
0.091892555 0.052330516 0.047223847 0.076396555 0.11547165 0.088430956 0.011215782 0.1035705
-0.0037267995 -0.06366933 0.08266781 -0.122673064 0.09045263 -0.23728788 -0.08450806 -0.02653095
0.010850279 0.1105581 0.09238727 -0.09298102 0.100603916 0.1468236 0.0018877211 -0.18782884
0.0726811 0.18401898 0.09868951 -0.021373823 0.024978729 0.0006980649 0.13978335 -0.15114407
0.08743187 0.0428548 0.030378152 0.063279055 -0.053627282 -0.14979357 -0.014425793 -0.0036063844
-0.014882773 0.03777529 0.043476567 0.09656934 -0.06677558 -0.056405757 0.05248273 0.07113446
-0.087349154 -0.08048791 0.09068675 -0.030314522 -0.06688969 0.035162505 0.06507915 -0.025307516
0.13400519 -0.060866795 -0.11225229 0.056465544 -0.07793397 -0.12620959 0.029750872 -0.015071335
0.0049327393 -0.1090862 0.044875544 -0.03119632 0.11863817 -0.063757226 0.07019038 -0.13950516
0.036697358 0.0049093477 -0.039463263 0.104612246 0.15924263 0.067953356 0.11786956 -0.1050203

fc3.weight f4 [1, 400]
00000000: fbb9 833d faa9 f4bd 7cc6 11be da5d 933d
00000010: d7df 443d a285 73be 993e 673d 63ad 76be
00000020: 9182 33be 09be 9c3d 0ad0 46be dca5 21be
00000030: 06b8 8cbe 5106 10be 2215 b2bd 5340 9c3d
00000040: cc07 3b3d f1e3 623d 94a8 29be 1f21 8b3d
00000050: edaa 1e3d f460 45be f5df 01be 9952 85be
00000060: a341 2cbd 54f3 4dbe 4a46 52bd 2730 3abe
00000070: 70e9 2cbe 2c37 b33d 2172 cb3c 410a 1b3d
00000080: 38f6 373d 6bab 5fbe 6c95 cb3d 9d45 85be
00000090: bd29 52be 546a 84be 3b1b 7d3d bd6e 6b3d
000000a0: 1542 0b3d 42be 293d 6457 a4bd e743 063d
000000b0: 9bbc 033d 492e 87be 663a d83c eb00 373d
000000c0: 88a4 c73c 4b7d 17be 73f8 4d3d 44b0 41be
000000d0: 2e51 423d 917b e13c 2a09 39be 8954 2cbe
000000e0: b11b 3dbd d06f 80be 1ee2 063d fb4e 55be
000000f0: 7fb9 94be 302f 123d b240 c63d d09a 43be
00000100: 1186 933d 7746 e1bd f11a 97be d674 70be
00000110: 008f 14be 934a 7fbe 45a1 25be 9bca 763d
00000120: 94dd 18be 5a7b 173d fa3a 25be 4022 6a3d
00000130: 3d85 bb3c 8245 53be 4f94 823d b298 713d
00000140: 3f4b b43d 7554 96bd 0380 b8bd 9b0d 80be
00000150: fbcb 9e3c 1c7e ed3c f111 ce3d f193 483d
00000160: cf21 bc3c c461 65be 35a4 cabd 56ef 5ebe
00000170: a701 87be 3dd1 a6be 9d83 713d 7775 12be
00000180: 7020 babd 5641 653d df4e 7c3d 81e1 903c
00000190: f734 27be 8dbf 9f3d b3af e93c 75e2 64be
000001a0: 23ad 393d 3df8 d03d 6c19 38be 7eef 25be
000001b0: 8250 7f3d 3f00 863d 0ae3 5ebe 5a96 d23c
000001c0: 6759 82be ee80 3cbe ae83 0f3e e13c c13c
000001d0: 94a4 32be 8666 8b3c 0c5b b03c 8807 2abe
000001e0: a067 30be 88f3 063d 6fa0 8dbe 1519 b73c
000001f0: ca16 333d 2683 a93d 0e0c 8b3d 03d4 a83c
00000200: 1229 09be cce7 823d 2559 523d 3e6e 473d
00000210: 9557 8e3d 8781 82be 4667 bcbd 279b 173d
00000220: 1b17 25be 19cc 833d 8365 8bbe 9d8f 7bbe
00000230: 640d 993c e721 32be 8e48 ca3d 9608 083d
00000240: 7d5f c23d 9035 b13c be36 21bd 1599 103d
00000250: d57e f23d cb8b 233d d3db 9fbd 966d df3d
00000260: d40c 43be 8814 bcbd 9ca4 6dbe f659 f5bd
00000270: 36d6 e93c aa0d 893d cc95 6f3d a1bc e13c
00000280: 5156 693d 30c9 af3c 7c41 89be 7921 1a3d
00000290: 3502 bd3c 2034 65be df81 223d 1adf 23be
000002a0: 172c 533d 9bf4 ed3c ad5c 193d 604e 243d
000002b0: 883e 433d 0a9e 04be c325 1c3d f635 77be
000002c0: eadf 0d3d d489 8f3d b93a 4a3d 5557 fc3c
000002d0: 1fbb a33c 0be0 e33d 6b0b a6bd 1981 0f3d
000002e0: 305d 8d3d 3011 8ebe 3c01 6e3d 6bf9 9abe
000002f0: e170 043d 44aa 87be c05f 26be b2b2 01be
00000300: d12e 33be 8304 f33c 647b ae3d b28d 4abe
00000310: 9791 cb3d 9163 be3c 3560 38be 11a5 94be
00000320: 5b1b cb3d 66a0 8d3c 52d6 aa3c 3366 43be
00000330: 8aa3 413d 3e13 c13d 0281 083d 8d4b 8abe
00000340: 946c 473d 1078 733d fff0 8d3d 28d6 d23d
00000350: 5451 91be 3ff2 64be 77dc 50be 85e1 9b3d
00000360: c974 41be 843f 4b3d bc70 e93c 71b7 e73c
00000370: 505e 7dbe 1a28 6cbe 15f0 0c3d 054c 363d
00000380: e714 51bd 2061 6dbe 682f 023e 02d9 43be
00000390: b34d bdbd 0a6b 8b3d 7b4b 0c3d 88a0 bdbd
000003a0: cac7 db3c 3db8 6abe b8a6 62be a85a 4b3d
000003b0: bde8 4abe 95db 4abd 46e0 913d 7205 8e3d
000003c0: bc41 293d 1139 e1bd 80e1 f03c 6fe2 80be
000003d0: 63a0 273d a254 2dbe 2cb3 313d 88fe 8ebe
000003e0: de56 2a3d e35e 34be 9726 6dbe ea8f b23d
000003f0: 20f3 a63c 1b15 213d 93e6 f53c 2ae7 5ebe
0.06431957 -0.11946483 -0.14235872 0.07195635 0.048065033 -0.23781446 0.056456182 -0.2408958
-0.17530276 0.07653434 -0.19415298 -0.15785927 -0.2748415 -0.1406491 -0.08695437 0.07629456
0.045661733 0.055393163 -0.16568214 0.06793427 0.038737226 -0.19275266 -0.12683089 -0.2603958
-0.042054784 -0.20112354 -0.051336564 -0.18182431 -0.16885924 0.087507576 0.024834694 0.037851576
0.044912547 -0.21842735 0.09940609 -0.26029673 -0.20523734 -0.25862372 0.061793547 0.057478655
0.033998568 0.04144121 -0.08024481 0.0327796 0.03216229 -0.264025 0.026395034 0.04467861
0.024370447 -0.14793889 0.050285768 -0.18914896 0.0474407 0.027524741 -0.18069902 -0.16829123
-0.046168987 -0.25085306 0.032930486 -0.2083091 -0.29047772 0.035689533 0.096803084 -0.19102025
0.072033055 -0.10999768 -0.29512742 -0.2348207 -0.14507675 -0.24930792 -0.161748 0.060251813
-0.14928275 0.03698287 -0.16135779 0.05716157 0.022890681 -0.20631984 0.06375944 0.058983512
0.088034146 -0.07340328 -0.09008791 -0.2501038 0.019384375 0.028990798 0.10062016 0.048969213
0.02296534 -0.22400576 -0.09894601 -0.21770987 -0.26368448 -0.3258151 0.058963407 -0.14302622
-0.09088218 0.055970512 0.061598655 0.017685654 -0.16328798 0.07800207 0.028526163 -0.22352012
0.04533113 0.10203598 -0.17978448 -0.1620464 0.062332638 0.06543016 -0.21766296 0.025706459
-0.25458834 -0.18408558 0.14015076 0.0235886 -0.17445594 0.01701666 0.02152779 -0.16604435
-0.1722703 0.032947093 -0.27661464 0.022350827 0.043722905 0.08276968 0.067894086 0.020608908
-0.13394573 0.06391868 0.051354546 0.04868912 0.06950299 -0.25489447 -0.09199385 0.0370132
-0.16122095 0.06435413 -0.27225885 -0.24566503 0.018683143 -0.17395745 0.0987712 0.033211313
0.09490869 0.021631986 -0.039358847 0.03530224 0.118405975 0.03992824 -0.078056 0.10909574
-0.19047862 -0.091836035 -0.23207325 -0.11980049 0.028544527 0.06692059 0.058492467 0.027555766
0.056967083 0.021458238 -0.26807773 0.03762958 0.023072341 -0.22383165 0.039674636 -0.16003075
0.05155572 0.029047301 0.037441898 0.040113807 0.047667056 -0.12950912 0.03812195 -0.24141678
0.03463737 0.070087105 0.04937241 0.030803362 0.019986687 0.11126717 -0.081076466 0.035035226
0.0690254 -0.27747488 0.058106646 -0.30268416 0.032334212 -0.2649709 -0.16247463 -0.12665823
-0.17498328 0.029665237 0.08519629 -0.19780615 0.099398784 0.023240836 -0.1800545 -0.29032186
0.09917327 0.017288398 0.020854149 -0.19081955 0.047275104 0.09427498 0.033326156 -0.27010766
0.048687533 0.059440672 0.06930732 0.10294753 -0.2838236 -0.22358035 -0.203966 0.07611374
-0.18892206 0.04962112 0.028496139 0.028285714 -0.24743009 -0.23062173 0.034408648 0.04450609
-0.051045325 -0.23181581 0.12713397 -0.1912575 -0.092433356 0.068075255 0.03425167 -0.092591345
0.026828665 -0.22921844 -0.2213391 0.049647003 -0.19815345 -0.049525816 0.07122855 0.06934632
0.041322455 -0.10997213 0.029404402 -0.25172755 0.04092444 -0.16926816 0.043383762 -0.27928567
0.04158675 -0.17614321 -0.23159252 0.08718856 0.020379603 0.03932677 0.030017173 -0.2176787
