experiments/exp2/models/checkpoint_critic_14.pth (torch_old, 536855 bytes, 9 tensors)

fc1.weight f4 [300, 33]
00000000: bb46 2cbd fc21 593c c0e0 773d b8ad f93a
00000010: d9d2 a23d caa1 d53c 4af3 043e 2812 b63c
00000020: 1fc0 c1bc 30b5 0abd 0a7f 1fbd 14d8 c43c
00000030: 8443 5bbd 5b1e 313d 1382 213d 092f 2dbd
00000040: 52b9 0fbd 383e dabd d001 f3bc b6c8 923b
00000050: f655 27bb 32d1 0dbd ac30 ba3d 399f 903c
00000060: ce79 d13c c196 8cbd 703f 8abd d6c6 273d
00000070: bfaa 81bd 7c3a 5ebd 32d3 10bd 3007 b3bc
00000080: 6422 14be ae9c 3c3c 5bc5 a23d 13db a4bd
00000090: 7feb 013d 927a ea3d e9c2 533d c545 ecbd
000000a0: 40da 05bd bca7 883c 0d45 953c 8fb4 7d3d
000000b0: ae65 b73c 4995 ae3c 9b5e a63c 7ec1 fe3b
000000c0: 1e14 c33d 4edf adbc ef10 00be d3f3 a1bd
000000d0: bd5f 82bd 7d69 263b f37c b53c 8787 f83c
000000e0: 105e de3d 4e41 a8bc 9b64 4c3d 1262 b33b
000000f0: c73f 553b 3d27 2fbd 6015 abbb 8254 07bd
00000100: 6041 f33b 204d a23d 4145 003c 2003 973b
00000110: 1fee 04bc 55bd 293d 4aae 43be 39b3 4a3c
00000120: c4da 25bd cd32 0ebd d829 e9bc 8c81 e93b
00000130: 858c 033d 092b bb3a 5af4 78bb 9b41 deb9
00000140: 208d c83d 7786 9ebd 75fe 6a3d bddb b83c
00000150: 92d5 ebbd 02fa 21bd 08bb d93c 962f 11bd
00000160: b483 b2bc e6b8 ba3c 1e4d a03c 8941 87bc
00000170: 81c2 6c3d 1423 f03d 8cbd 70bd f672 a7bc
00000180: 1cfa e3bd c0e4 f33a 9fda 56bd 9bb3 22bd
00000190: 77a9 2a3d b403 96bb dbd9 593d 0425 ecbd
000001a0: d47b fcbd e92e 6b3a d540 443c 3663 1dbd
000001b0: f4f9 ae3c b4cd 58bc 9e3a a03b 4bd4 3cba
000001c0: 4564 e63c 85ce 7cbc bb94 7bbb f689 e33c
000001d0: a777 193d 0213 bebb bbc5 d03d 53f7 da3a
000001e0: 14ca 01bb f47a a73b 80b5 9c3b 7f72 52ba
000001f0: 6118 9cbb 12c8 02bd 6929 3c3d 6242 87bb
00000200: 5043 473d ad02 c53c 502c b8bc cf36 d13e
00000210: 97b5 bc3c be2b 5c3d e059 3f3d 9e80 bdbd
00000220: d6e1 923c 619c ff3d 72b1 cf3d 6446 e23c
00000230: 8eca d5bd 0736 a6bd 2bf2 433c 3561 fd3c
00000240: 8863 1e3d 272a 3f3d 5d1f d4bc 76b0 e8bc
00000250: 60df 08bd 1b71 223c 5b81 9bbd e0b4 303d
00000260: 5669 6dbc 6fd8 9e3c 033d 053d 2b4b 053d
00000270: 0017 3bbc ec7d cb3a 6277 78bd 85fa 19bc
00000280: 7ef0 92bc a456 ecbc f668 94bc 3c36 6bbd
00000290: 3cc6 7abe 44bc 07bd 42c9 e8b8 29df 9bbd
000002a0: 8806 7a3d 271c 483e bd19 033e 0c6f e93d
000002b0: 5510 03bd f458 b4bd 1824 c13d d583 7d3c
000002c0: 4094 033c adfd dfbc 5632 973d dbec 193d
000002d0: 2598 723d 58a6 08be 853a a1bc 772d 40be
000002e0: c38b 9b3d 1bab 083c ba65 e13c 3bb6 8fbc
000002f0: 94f7 e53c 5baa 913c ef9f ad3c 562e 3dbd
00000300: 43c4 9c3c b906 873b d8f2 b23c 8238 4f3d
00000310: 7401 7fbc 7a84 3b3d 7f43 ff3c 9fd1 803d
00000320: ed31 6b3c 1500 42bc 00ea ea3d 2510 293e
00000330: a0b8 013d 3e93 6cbd 1c82 4a3d c22f 7fbd
00000340: e761 673d 8dbf 923c c42a d23b fba6 c33c
00000350: 8950 b2bd 2c6e e23c 0345 82be 18a6 0bbe
00000360: 1c2c af3b 75e3 9b3d da96 053c 23fb d83b
00000370: 0779 9ebd 01b3 943b 581c 63bc 6448 e23b
00000380: 7108 a7bc 2e21 1f3c ab01 26bd 0e6f 273d
00000390: 8f23 d13c 6a83 b4bc ac8b 673c 06f6 8c3c
000003a0: 1f71 933d 409f 75bc c28e 21bb cec8 2d3e
000003b0: 1e5d 33bd 5a13 113c a529 183c bd03 63bd
000003c0: 006b 1c3d db3a ecbc 458f e83d a9c7 89bc
000003d0: e658 74bc 6347 0abd b7e7 3a3c 5972 093d
000003e0: 5f5a ea3d 9fdb edbb ccc8 64bd 800e 0f3d
000003f0: c1f4 81bd d4a7 5c3c 238d 783c 2bf8 913c
-0.04205964 0.013252731 0.060517073 0.0019048965 0.07950372 0.026078124 0.12983432 0.022225454
-0.02365118 -0.0338642 -0.038939513 0.024028815 -0.053531185 0.04324184 0.03943069 -0.042281184
-0.035088845 -0.106563985 -0.02966395 0.004479493 -0.0025533414 -0.034623332 0.09091315 0.017654048
0.025570776 -0.068646915 -0.06750381 0.04096111 -0.06331395 -0.054254994 -0.03535766 -0.021854013
-0.14466244 0.011511965 0.07947799 -0.080495976 0.031718727 0.1144916 0.051699553 -0.11536745
-0.032678843 0.016681544 0.018221403 0.061939772 0.022387352 0.02131142 0.020308783 0.007774531
0.095253214 -0.021224644 -0.1250646 -0.07907834 -0.06365917 0.0025392466 0.022154307 0.030338062
0.10857785 -0.020538952 0.049900632 0.0054743374 0.0032539235 -0.04276203 -0.005221054 -0.033039577
0.007423565 0.07924867 0.007829011 0.004608527 -0.008113413 0.041440327 -0.19109455 0.012371832
-0.040491834 -0.034716416 -0.028462335 0.007126039 0.03211643 0.0014279793 -0.0037987442 -0.0004239202
0.097925425 -0.07740491 0.057371575 0.022565717 -0.11515345 -0.039545067 0.026578441 -0.035445772
-0.021791317 0.022793245 0.019568022 -0.016510742 0.05780268 0.117254406 -0.058774516 -0.02044056
-0.11131689 0.0018607602 -0.052454587 -0.039722066 0.04166552 -0.004578078 0.05318628 -0.11530498
-0.12328306 0.0008971529 0.011978348 -0.038424693 0.021359421 -0.013232637 0.0048898 -0.0007203265
0.028123984 -0.0154300975 -0.003838821 0.027775746 0.037467625 -0.0058006058 0.10193964 0.0016705788
-0.0019804286 0.0051110927 0.0047823787 -0.00080279255 -0.0047636484 -0.031929083 0.04593793 -0.0041277865
0.04864818 0.024049127 -0.022482067 0.40862128 0.023035808 0.053752653 0.04671657 -0.092530474
0.017929953 0.12480999 0.10141267 0.027621455 -0.10439025 -0.08115774 0.011959593 0.030930141
0.03866914 0.04667106 -0.025893861 -0.028404456 -0.033416152 0.009914662 -0.07593032 0.043141246
-0.014490446 0.019390313 0.03252889 0.03254239 -0.011419058 0.0015525199 -0.060660727 -0.009398107
-0.017936941 -0.028849907 -0.018116456 -0.05742477 -0.24489683 -0.03313853 -0.00011100109 -0.07610924
0.061041385 0.1954199 0.12802787 0.11398134 -0.031997997 -0.08806029 0.094307125 0.015473326
0.008030951 -0.027342642 0.07382648 0.0375794 0.059227128 -0.13344705 -0.019681225 -0.18767343
0.07595017 0.008341576 0.027514327 -0.017542949 0.028072156 0.017781427 0.021194426 -0.046186768
0.019136554 0.0041206744 0.021844313 0.050591 -0.015564311 0.045780636 0.031160114 0.06289982
0.014355165 -0.01184084 0.11470413 0.16510065 0.031670213 -0.05775761 0.04944049 -0.062301405
0.05648985 0.017913604 0.0064137895 0.023883333 -0.08706767 0.027640425 -0.25443277 -0.13637578
0.0053458344 0.07611743 0.008153642 0.0066217347 -0.07737928 0.0045379405 -0.013861738 0.0069056023
-0.020389767 0.0097125005 -0.040528934 0.040877394 0.025529651 -0.02203532 0.014132421 0.017207157
0.071993105 -0.014991581 -0.002465174 0.16971132 -0.043789975 0.008854711 0.009287273 -0.055423487
0.03818798 -0.028836658 0.113554515 -0.016818838 -0.014913773 -0.033759486 0.011407784 0.033556316
0.11443018 -0.007258847 -0.055855557 0.034925938 -0.06345511 0.013467748 0.015170368 0.017818531

fc1.bias f4 [300]
00000000: c712 b03d d330 cd3d 76ce 233c 7a97 e0bd
00000010: 3822 d83d 0d1a 98bc b9b8 efbc 7286 55be
00000020: 954b 133e b447 b1bd f460 d4bd c1d5 05be
00000030: 2b25 ee3b 454c 1ebd c5fb e8bc 89e2 f5bd
00000040: 4f9e e3bc f13f a5bd bd22 a93d 18f5 a53d
00000050: 44d6 693c 1281 00be 081e 83bd 2c83 0bbd
00000060: d8de 88bc 86ba c3bc 9476 64bd 005a 3ebd
00000070: 75f4 dc3c 4b17 30bd 17df 3dbe 3c1e 1bbc
00000080: 2971 9f3d ee70 54bd 4204 f73c e7ec 723c
00000090: c2f3 4a3d 0fef 06be e526 42bc 407f eabd
000000a0: f0b3 33be 1346 3ebe c630 48bc 4c9a 02be
000000b0: b55d 2abe aad2 1abe c5c7 18be 3721 04be
000000c0: 4739 16be 87c3 49be 3c7c 16be fb5b 8e3d
000000d0: dbb8 18be 20b8 853d cf9b 413d bf8c d53d
000000e0: 6a94 b53d 223d f7bd fb04 8a3b 01a9 c9bc
000000f0: 8bec 023e e7be 803d 842d ccbd d2de 4bbd
00000100: d807 08be 7e21 23be 450d 95bd 55be 0dbe
00000110: b26a c13d 18ad 00be a60a 3fbe 460a b43c
00000120: 5f95 c33d ef56 a93d 9049 94bd 28bd d9bd
00000130: d88d 5a3c b27f b3bd 7d92 37bc 5d3b acbd
00000140: 6482 4cbd 4091 abbd 1139 0bbe 6a52 4cbe
00000150: ea3c 4cbd f9a5 43bd b817 b63d 8e54 623c
00000160: 850d 8e3d b48e 283d 2b6d 43be b18c 02be
00000170: 8933 00be f9e7 72be 1d0a 2ebe 5fd9 0dbe
00000180: 935c 2ebe 0416 653d 55e9 aabc ef52 c0bd
00000190: 71dd 3d3d 88b5 16bd 7d60 8d3d 5f56 c33d
000001a0: 2bcd 7d3c 1f2a 2fbe 6080 da3d 8d88 0cbd
000001b0: 7a2e cebd 68aa 34be 6d12 30be c8b5 03be
000001c0: 9095 cfbd 2f7e 01be 9ed9 8fbb bf71 37be
000001d0: db4b 2dbe 5f95 bb3d ffdb 673d 0d16 e5bd
000001e0: 1ecd 773d 805d 18be 08d3 8bbe 5cf4 923c
000001f0: 234b 21bc e9f2 04be 6505 2ebe ce38 013e
00000200: d101 bbbd 5a21 f23d 58a1 acbd f0c3 3fbe
00000210: a751 1dbe bbfd 11bc 4496 66bd 724f 3cbe
00000220: 97cf 76be 4722 71bd d1b5 65be e275 f83d
00000230: 2d6d 963d 72f5 223e 892d eb3d fc81 96bd
00000240: 8c64 5c3d 99db 693d 6ca1 23be 2e24 2abe
00000250: b100 65be 9f8f e13d 00b0 e6bd e229 7d3d
00000260: 9e56 0b3d 9c46 26be 0667 ab3d de63 f3bd
00000270: 548d e3bd dbe6 cebd a9e7 eabd 066d 4dbd
00000280: 7412 c23d f051 cf3c 5529 253d 1f80 57be
00000290: fbfe 39bd 6f40 1a3d aad6 31be 9f1a 82bc
000002a0: 8e7f 10be 474b 01bd 8044 d1bd c85c a0ba
000002b0: f953 34be 8944 4bbe c197 0bbe 3bfd a9bd
000002c0: 372c f63d c990 14be d824 ca3d efe8 68bd
000002d0: 8e53 d1bc 03e9 ddbd 9578 f2bd 3ebf bdbd
000002e0: 06b9 15be e33d 7e3d 5a49 d0bd a1fe 053b
000002f0: 2c94 e9bd bf59 36be d992 c53d c12f abbd
00000300: 625c b8bd c0b6 c43d 5d3f 373d 2590 f6bd
00000310: b535 f63c cf7a 8bbb d292 53bd 52b6 c7bc
00000320: 5cdd 4abe df4e 1dbe 3b8a 17be 7cbc a13d
00000330: b5ea 9c3d 7998 263e a406 9a3d a137 0abd
00000340: 12ce b43b d36c c3bc 06e8 f6bd 0a93 4cbe
00000350: 6c2d 073d 4457 b6bd df78 7a3c d34a 323c
00000360: 0e0f e33d 96d2 f1bd aaba fdbd dbc2 043e
00000370: 78c4 01be 8b79 12be 2551 79be 05d3 a6bd
00000380: ea70 f73c b68a 64bd 2357 0fbe cb42 b53a
00000390: 5b68 e93d f597 dbbd 3f8c fc3c 77f0 bcbc
000003a0: 0477 d83d 46a5 ddbd ec54 e33c 509d 4cbe
000003b0: fa0c 7a3d 3947 d43d fffc f7bd f32a 293e
000003c0: 0879 8abd a5b7 52be bf98 973d 8879 95bd
000003d0: 2a86 b33d 74e7 ddbd d8e6 80bc b87a dfbd
000003e0: 4245 ae3d e34d 4cbd 2595 0e3e 152c a13b
000003f0: 5775 64bd f39e 913d f9f8 7dbe 9203 d7bd
0.085973315 0.10019078 0.009997955 -0.10966392 0.10553402 -0.01856711 -0.029262887 -0.20852068
0.14384301 -0.086562544 -0.10370055 -0.13069822 0.0072676144 -0.038646955 -0.028440366 -0.12006099
-0.027785448 -0.080688365 0.08258579 0.081033885 0.014272276 -0.12549236 -0.064022124 -0.034060642
-0.016707823 -0.023892652 -0.055777147 -0.04647255 0.026972035 -0.042990964 -0.18542133 -0.009467658
0.077852555 -0.05186551 0.030153397 0.01482699 0.04954887 -0.13177131 -0.0118500935 -0.11450052
-0.1754911 -0.18581419 -0.01221866 -0.12754172 -0.16637309 -0.15119424 -0.14919956 -0.12903295
-0.14670287 -0.19703494 -0.14695829 0.06951138 -0.14914267 0.0652926 0.04726773 0.10427236
0.08866198 -0.12072207 0.0042120195 -0.02461672 0.12785546 0.06286412 -0.09969619 -0.049773045
-0.13284242 -0.15930745 -0.072779216 -0.13842137 0.09444179 -0.1256603 -0.18656406 0.021977555
0.09549975 0.082685344 -0.072405934 -0.10631782 0.013339482 -0.0876459 -0.011204359 -0.0840976
-0.049929038 -0.083773136 -0.13595988 -0.19953313 -0.04986278 -0.047765706 0.08891243 0.013814105
0.069361724 0.041151717 -0.19084613 -0.12748982 -0.12519659 -0.23721303 -0.16996045 -0.13852452
-0.17027502 0.0559292 -0.020863215 -0.09390818 0.04635376 -0.036794215 0.06903169 0.09537958
0.01549081 -0.17105912 0.10669017 -0.034309912 -0.100674585 -0.1764313 -0.17194529 -0.12862313
-0.10135949 -0.12645791 -0.0043899557 -0.17914484 -0.16923468 0.0915935 0.05660629 -0.111858465
0.06049835 -0.14879417 -0.27309442 0.017938785 -0.009844574 -0.12983288 -0.16994245 0.12619326
-0.09131206 0.118227676 -0.084292114 -0.18727088 -0.15363179 -0.008910592 -0.05629565 -0.18389681
-0.24102627 -0.05887058 -0.22432639 0.12131859 0.073450424 0.15913942 0.114832945 -0.07349011
0.053806826 0.05709419 -0.15979546 -0.16615364 -0.22363545 0.11013722 -0.11264038 0.06180752
0.03401815 -0.16237873 0.083692595 -0.118842825 -0.111109406 -0.10102626 -0.11469967 -0.0501528
0.09476176 0.025307626 0.04032262 -0.21044968 -0.045409184 0.037659105 -0.17367044 -0.015881835
-0.14111158 -0.03156593 -0.102181435 -0.0012234682 -0.17610158 -0.19850363 -0.13632108 -0.08300253
0.12020152 -0.14508356 0.09870309 -0.056862768 -0.025552537 -0.10835459 -0.118394054 -0.09264992
-0.14621362 0.06207074 -0.10170241 0.002044596 -0.11405215 -0.17807673 0.096471496 -0.08358718
-0.090019956 0.09605169 0.044738162 -0.12039212 0.030054906 -0.0042565833 -0.05165369 -0.02437893
-0.19811004 -0.15362118 -0.14798824 0.07897279 0.07661954 0.16269101 0.07520798 -0.033744458
0.0055177296 -0.023855602 -0.12055974 -0.19977966 0.033002302 -0.08903363 0.015287607 0.010882097
0.11086856 -0.11807744 -0.12389119 0.12964956 -0.12672603 -0.14304177 -0.2434736 -0.081457175
0.030205209 -0.055796348 -0.13998084 0.001382911 0.11396857 -0.10722343 0.030828593 -0.023063881
0.105695754 -0.10822539 0.027750455 -0.19981885 0.06104753 0.10365147 -0.12108802 0.1652029
-0.06761366 -0.20577867 0.07402181 -0.07298571 0.08765824 -0.10835162 -0.015735075 -0.109120786
0.08509304 -0.049878966 0.13924082 0.004918585 -0.055775966 0.07110395 -0.24802007 -0.10498728

bn1.weight f4 [300]
00000000: 53aa 003e 6762 5a3f 1a5a 113e be06 3c3f
00000010: e5e1 3c3f b79c 603f acf7 e53e 25af 243e
00000020: 49c7 243f 1fff 023e 72a0 123f 3a4d 113f
00000030: dec3 ce3e 1e68 103f 0d18 313e 2a97 ad3e
00000040: ec8e 5a3c 58c3 5a3e a3c4 073d b881 213f
00000050: d067 3d3f 1cc9 173f 853e 533f c342 663f
00000060: e54a 1f3e 6e23 093e d59e 0a3f e1bc 5a3f
00000070: 68fd b23e 22ca b53e 1bf2 2c3f 5a51 633f
00000080: 493b 873e e928 063f 1a50 453f 5934 9b3e
00000090: aad7 723e 0e35 bc3e b8e6 153e 8d12 743e
000000a0: 7a96 dd3d b683 703e 69db 5f3e 6199 3f3f
000000b0: 6edb a13e 9290 593f 1ef4 b83e ec2c 393f
000000c0: e604 983e c2f3 f43d aee4 9b3e 0498 bf3e
000000d0: db4b f03e 7eee 163f 2068 9a3e 3e7e 413e
000000e0: 15f2 a03e 5c62 183f e49f 443f 1024 b73e
000000f0: d359 9a3e 3ecf 3c3f 4cc4 4f3f f413 5f3f
00000100: 7a47 153f c45d 313f 626d 053f f82e 2e3f
00000110: 67e8 373f 4bf5 543f 3715 d53e ba2d 2a3e
00000120: 05d0 323f 6f3e 303f 7365 7d3e a9ea 053f
00000130: c451 563f f911 cb3e db2f 143f cf4f 363f
00000140: d61a 513f acaf 0d3e e96a b23e cfab ae3e
00000150: 61fd 373f 5380 c23d 2530 083f 5578 cd3e
00000160: 0425 a03e 9852 513f 8f6c 5a3f 3831 483f
00000170: 8b64 673f f4df 233f 38a0 463f 3601 4e3f
00000180: 2544 ff3e facd df3e c6f1 0d3f bbf9 c53e
00000190: 95a5 033f d116 8abd dcb3 233f 1564 c93e
000001a0: 38c2 3b3f 166d 4a3f b8b0 633f 6903 243e
000001b0: 0e80 303f 2be2 263e 443e d73e 545b 3b3f
000001c0: 1238 4d3f 150f 533d e495 123f 59c4 d13e
000001d0: fafb eb3e 2741 113f 8c3c 3c3f e61d ad3e
000001e0: 2351 583e 4130 e93e 2896 893e c306 583e
000001f0: 16f7 a93e 8a36 323e a58d 403f 28d5 5e3e
00000200: 9cb5 5b3f d375 fc3e add0 7b3e 5531 b33d
00000210: 2464 553f 39f4 683e e1b7 343f 59b0 fa3e
00000220: af68 3a3d d235 123f 1e7f b43e 9d32 333f
00000230: f5d2 0d3f 0da0 fb3e 3196 353f 7c65 f93e
00000240: 6939 ee3d 9eea 643e 1d33 2c3f 72ab ee3e
00000250: e438 b43e e870 403f caa5 673d 9a61 a13e
00000260: a2ca 1d3f 7316 643f 105b 423e 1a92 3e3f
00000270: 3a0c 053e e32e 2d3f 2ec8 543f 6d09 7a3f
00000280: 2ced a83d eb15 773e 221d 093e 646b d63e
00000290: 80e8 493f 6688 183f 68c1 0e3f 35f2 1c3f
000002a0: 19e9 333f 2c7a 163f 6b60 d43e 0734 193f
000002b0: 4805 9b3e c55b 563f d41f 843e 3abc 023f
000002c0: b9ad 493f bdc2 033f bfab f33e 5199 613e
000002d0: 1619 403e 6525 443f 958a 823e 9f2f 4e3e
000002e0: cfc8 983e ed29 dc3e c11a 143f 7db7 033f
000002f0: 0013 163f 3250 403e 303b f33e aab5 403f
00000300: 18a9 423e 7d92 f83e 6e0a cd3e 869f 273f
00000310: 2db4 a03e 7c85 423f 521e d33e 269a 5d3f
00000320: 3ac5 253f d881 223f 9999 4f3f c7b4 173f
00000330: 8738 5e3f 9c1b 2a3f ce0c 253f 5e9a 4d3f
00000340: c96b 663e 0065 113f 95d4 273f 0b83 ab3e
00000350: e1e8 0e3f d5fa 033f 2464 6b3f dc83 223f
00000360: 4aa6 383f b9e1 233f 0971 483f 6bd1 3c3f
00000370: 2898 0b3f 4372 5c3e 28b9 ad3d b7a0 533f
00000380: 8619 0a3f c471 213e c7b9 8b3e 232b 9b3d
00000390: fda8 cd3e 78bd c93e 6c32 103f 9749 fa3e
000003a0: 3fa4 b13e 0806 513f de4d 283f 928e 0e3f
000003b0: b1af 123f 7011 533e ff9e 133f 266d 493f
000003c0: 24f6 083f 1124 353f 83d7 653f 22d3 673f
000003d0: 5b73 263d 0793 463f 324d 6b3f fc6f 523f
000003e0: f3cf 6b3c 7e22 16be 332d ed3e bd4d b83d
000003f0: 2298 113f 5c76 b43e 1007 0b3f 1c64 743e
0.12564974 0.853064 0.14194527 0.7344779 0.7378219 0.8773913 0.4491552 0.16082437
0.64366585 0.12792633 0.5727607 0.56758463 0.4038381 0.5640887 0.17294331 0.33904392
0.013339739 0.2136358 0.03314651 0.6308856 0.7398653 0.59291244 0.8251727 0.8994562
0.15555914 0.13392422 0.5414861 0.85444456 0.3495896 0.35505778 0.67556924 0.8879601
0.26412418 0.52406174 0.7707535 0.30313376 0.23715082 0.36759228 0.14638793 0.23835202
0.10819717 0.23487744 0.21861042 0.7484341 0.31612724 0.8498622 0.36123747 0.7233417
0.29691237 0.119605556 0.30447906 0.37420666 0.46932873 0.5895766 0.30157566 0.18895814
0.31434694 0.59525084 0.76806474 0.357697 0.30146655 0.73753726 0.811589 0.8713982
0.5831219 0.692837 0.5212003 0.6804042 0.7183899 0.8318679 0.41617748 0.16619006
0.6984866 0.68845266 0.24745731 0.5231119 0.83718514 0.3966215 0.5788552 0.7121553
0.81681573 0.13836545 0.3484719 0.34115455 0.71871 0.09497132 0.5319846 0.4013087
0.3127824 0.81766653 0.853219 0.782001 0.9038779 0.640136 0.77588224 0.804706
0.49856678 0.43711835 0.5544704 0.38667092 0.51424533 -0.06742633 0.6394632 0.3933417
0.7334323 0.790727 0.88941526 0.16016926 0.68945396 0.16297214 0.42039692 0.7318623
0.8016368 0.051528055 0.57259965 0.40970114 0.4609068 0.5674004 0.7352989 0.33811873
0.21124701 0.45544627 0.26872373 0.2109633 0.33196324 0.17403618 0.7521613 0.21761
0.8582399 0.49308643 0.24591322 0.08749644 0.8335593 0.22749414 0.70593077 0.48962668
0.04550999 0.57113373 0.35253233 0.69999105 0.5540002 0.49145547 0.709323 0.4871024
0.11632044 0.22355124 0.6726549 0.46615177 0.35199654 0.7517228 0.056554593 0.31519777
0.6163732 0.89096755 0.1898005 0.74441683 0.12992945 0.6764967 0.8311795 0.9767063
0.08248362 0.24129455 0.1339002 0.41878808 0.7887039 0.5958313 0.55763865 0.6130708
0.70277554 0.5878017 0.4147981 0.5984501 0.30277467 0.8373378 0.25805533 0.5106846
0.78780705 0.5146902 0.4759197 0.22031142 0.1875957 0.7661956 0.25496355 0.20135354
0.29840705 0.43000737 0.57853323 0.51451856 0.5862274 0.18780592 0.47506094 0.752772
0.19009817 0.48549262 0.4004702 0.6547779 0.31387463 0.7598493 0.4123407 0.86563337
0.6475407 0.63479376 0.81093746 0.5926022 0.86805004 0.6644838 0.64472663 0.8031367
0.22502054 0.5679474 0.6555875 0.33498415 0.55824095 0.51554614 0.9194968 0.6348245
0.72128737 0.640163 0.7829748 0.73757046 0.54529047 0.21527962 0.084825814 0.82667106
0.53945196 0.15766054 0.27290174 0.07576587 0.4016799 0.39402366 0.5632694 0.4888427
0.34695622 0.8164983 0.65743816 0.55686295 0.57299334 0.2061212 0.57664484 0.7868217
0.5350058 0.7075816 0.8978197 0.9055654 0.040637355 0.77568096 0.91914666 0.82202125
0.014392841 -0.14661595 0.46323547 0.089992024 0.5687276 0.3524655 0.5430765 0.23866314

bn1.bias f4 [300]
00000000: 2eab 613c 4af5 853d 4a65 d53d 01b4 3ebd
00000010: e2ad b1bd 169a e43d abc8 62bb b8f1 6d3d
00000020: a6aa 26be 6575 32be 8219 cabd 8b43 75bb
00000030: c11f 03be 8a70 383d d708 3b3e 43af 8abd
00000040: 579a 84be 674f 933e 7ad2 23be 1fa9 503d
00000050: b99a 09be aedf 8b3d a7e7 cc3d c3cf 483e
00000060: 22b3 113e a41b e3ba 6ce4 50bb c795 3f3e
00000070: ef14 2d3e 4ee6 573b fae4 6dbd f448 543c
00000080: f571 c7bd 0ab4 0cbd 4d2c 76bd 5a2f 57bc
00000090: 6fe2 a2bd f7a2 2cbe 6169 213e a64b b3bd
000000a0: 433e 3b3e 2999 28be e446 d13d c80f 833d
000000b0: 4d15 a43d 2c9a bf3d 7439 aa3d 4f0b e23c
000000c0: 4dfd 473e d71a f9bd c2b9 debc 609a 5a3c
000000d0: 7a09 0d3d a2db ed3d 4c7c 9abc bb90 17bc
000000e0: 3379 40bb eb42 a7bd 806a 5c3d 8b38 67bc
000000f0: 1a1a 5ebd 554c 2e3d 01fc 5bbc 964c ff3d
00000100: f110 733c 29e6 0abe 0b63 313d ba41 113e
00000110: 6589 a3bc e6ae a83d 5a1a 153e 7524 6a3d
00000120: 4397 d8bd 8360 8bbc f250 d1bd 044b ed3d
00000130: eab3 00bc eb09 253d 4f0a b03d 62c2 b73d
00000140: 8326 f5bc 9543 62bd 86d4 a7bd 8743 a8bc
00000150: 0f38 953c a9af 4a3e 5902 18bd d424 e6bd
00000160: 0c24 2ebe c755 8cbd 94b1 e6bc 70f4 543b
00000170: 5552 943c b92d ff3c 9557 583d 26cb 783d
00000180: e204 723c 7438 9fbd cddb 44bd 526c ee3d
00000190: 22b2 bf3d 4888 5e3e bc68 0e3e e4cf 6e3d
000001a0: 002d 14bd 72ff 583d 6446 57bd 7a22 0d3d
000001b0: e302 aabd d7e4 503e c8ab c83d 1941 e83d
000001c0: 7b2c d13d 80ae 4d3e 290e f33c 19bd 763c
000001d0: 68d9 07be 2f5a 063d 0972 95bc b21b 603d
000001e0: 9fe5 823d ebbd 843d 77bb d4bd bfff 38bd
000001f0: 1406 8dbd a577 993c 2a17 64bc ec6f 09bd
00000200: e4de 823c 666b 54bd c62f 7a3d db39 07be
00000210: 6cbd a83c 8261 94bd a1e8 003e 75b4 253d
00000220: 8406 49be eb09 963d 1ae5 eabd dcf7 9a3d
00000230: 8ab3 c7bd 62e4 7b3d eb9d 743c 5e8d 8c3d
00000240: 63df 413d 3f73 7dbd 0766 533d de3b 0b3e
00000250: 4438 5b3e 7223 223e 30d4 2e3e ca04 44bd
00000260: b11b 563d 07cc 093d 1d36 0ebe 7eca 293d
00000270: 806a e4bd 249e 3dbb 13af 433d a036 813c
00000280: b64f 653d 9b54 353d 6055 063e 3035 e73d
00000290: 238a 503c 532c 54bc 1dc9 e5bd e63b b33d
000002a0: 7d27 903c 97f2 4ebd 5956 e33b 8bd5 d6bb
000002b0: cdaf 85bb d0f4 18bd 62f0 09bd d269 c93c
000002c0: 4c61 6a3d e1cb f33c ab95 57bd 8b30 413d
000002d0: 4da2 103e f2e0 7fbc 25ea 883d 39cd 98bd
000002e0: 701f d23c c263 373e 3fdd 203d 8777 ca3d
000002f0: 9a66 de3d d66d bebd 8882 043c ab0d 47bd
00000300: 066d 843c 8aba 273d a343 f9bd e2a6 fc3d
00000310: 5e7d 9e3d 0378 d33c 1a89 8abd cf43 9c3c
00000320: 1166 debc 57ba 823d ed41 68bd cb3d e0bd
00000330: 89d9 573d 4575 03bd 63f2 5dbd 2628 a5bc
00000340: e6fd bbbd 1831 69bd aba8 733d 9f67 b03c
00000350: abc3 b73d 6365 f7bc 3a3d 03be 99c5 453d
00000360: 1cff 63bd 7748 e73c b89e 84bd 37f4 c03d
00000370: 5e11 71bd 3b6d 173d fbe4 00be 807c b33c
00000380: 6aef 48bc f7e9 a7bc ca8b 303d 7f20 abbd
00000390: c066 243d da4e f7bc b19a 9c3d 8b63 c23c
000003a0: 433b 513d e65b 1d3d 121d 663d 9c56 8b3d
000003b0: 42a1 e13a f5f6 edba a1fe dd3b 1960 6abd
000003c0: 9d95 5cbc 2334 abbd e3c1 a0bd 6d5e 4b3d
000003d0: 2f11 39be c50e 863d 3f95 543d 262a fa3b
000003e0: 4ea4 2e3e f8ac fdbd d18d f33d 752f ddbd
000003f0: ed00 c43d 5d7a 8cbd 614a 153d 7db5 84bd
0.013773723 0.06540926 0.1041971 -0.046558384 -0.08675744 0.11162202 -0.003460447 0.05809185
-0.16276035 -0.17427595 -0.098681465 -0.0037424292 -0.12805082 0.0450292 0.18265091 -0.0677171
-0.25899002 0.28771517 -0.15998259 0.050942536 -0.13437928 0.06829773 0.10005122 0.19610505
0.1422849 -0.0017326963 -0.0031874431 0.1870948 0.16902517 0.0032943669 -0.058079697 0.0129568465
-0.097385325 -0.034351386 -0.060100842 -0.013133848 -0.07953345 -0.16859041 0.15762855 -0.08754663
0.1828547 -0.16464676 0.102185994 0.063994944 0.08011875 0.09355578 0.083117396 0.027593283
0.1953022 -0.121633224 -0.027188186 0.01334247 0.034432866 0.11614157 -0.018858097 -0.009250815
-0.0029369115 -0.081670605 0.053812504 -0.014112602 -0.05422411 0.042553265 -0.013426782 0.124657795
0.014835582 -0.13564362 0.043307345 0.14185229 -0.019962976 0.08236484 0.14560834 0.057163674
-0.10575726 -0.017013794 -0.10220517 0.11586574 -0.007855395 0.04029266 0.08595716 0.089726225
-0.02992559 -0.055240232 -0.081948325 -0.020540012 0.018215207 0.19793572 -0.037111614 -0.11237493
-0.17005938 -0.06852298 -0.028160848 0.003249433 0.018105665 0.031149732 0.0528179 0.060740612
0.014771672 -0.077744395 -0.04806118 0.11641754 0.09360148 0.21731675 0.1390714 0.05830373
-0.036175728 0.052977987 -0.052557364 0.034456708 -0.08301332 0.20399795 0.0979839 0.113405414
0.10213562 0.20086098 0.029669838 0.015059733 -0.13266528 0.03280085 -0.018242853 0.054713912
0.06391453 0.064815365 -0.103873186 -0.045165773 -0.06885925 0.018733809 -0.013921538 -0.033554003
0.015975423 -0.051860236 0.061080717 -0.13205664 0.020598136 -0.07245161 0.12588741 0.0404553
-0.19631392 0.073261105 -0.11469479 0.07566807 -0.09751041 0.0614971 0.014930229 0.06862901
0.04733218 -0.061877485 0.051610973 0.13597056 0.21408182 0.15833834 0.1707313 -0.04785613
0.052272502 0.03364184 -0.1388783 0.041452877 -0.11153126 -0.002893337 0.047774386 0.015773118
0.05598422 0.04427014 0.13118505 0.112894416 0.012728247 -0.012950021 -0.1122 0.08751659
0.017596954 -0.05052432 0.0069377837 -0.006556218 -0.004079795 -0.037342846 -0.033676513 0.024586592
0.057221696 0.029760303 -0.05263297 0.047165435 0.14124413 -0.015617596 0.066852845 -0.07461018
0.025649756 0.17909148 0.039273497 0.09886079 0.108594134 -0.09298293 0.008087762 -0.04859702
0.016165268 0.040949382 -0.12171104 0.12336518 0.07738756 0.025814062 -0.06764431 0.019075302
-0.027148278 0.06383198 -0.056703497 -0.10949286 0.052697692 -0.03209426 -0.054186236 -0.020160746
-0.09179287 -0.056931585 0.059487026 0.021533785 0.089728676 -0.030199712 -0.12816325 0.048284147
-0.055663213 0.028232796 -0.06475586 0.0942158 -0.058854453 0.036969405 -0.12587349 0.021909952
-0.012264112 -0.020497305 0.043102063 -0.083558075 0.040137053 -0.030188967 0.076466925 0.023729106
0.051081907 0.03841772 0.056180067 0.06803629 0.0017214196 -0.0018155264 0.006774739 -0.057220552
-0.013463405 -0.08359554 -0.07849481 0.0496506 -0.18072961 0.06545786 0.051900145 0.007634419
0.17054865 -0.12386507 0.11892284 -0.10800067 0.09570489 -0.068592764 0.036447886 -0.06479929

bn1.running_mean f4 [300]
00000000: 3fd4 4a3e 3904 093e 5747 dd3d 405d 6f3d
00000010: fa62 f13d 0317 c13d cdae 023e b762 b63c
00000020: 19c8 103e 407a 323e 83c0 573d a2f2 fc3d
00000030: 2936 983d 405b f53d d108 973e a385 723d
00000040: 59f5 953e 0038 5f3e 4ebb 983c 70ad 3d3e
00000050: 7ff0 9f3d 8b04 c73c 58e4 453e e95d b13d
00000060: 64df a53e 4553 113e 705d b53d f746 0b3e
00000070: f927 953d 90db a23d 4dcc 533d 505d 823d
00000080: ecc9 143e 712c a83d 3d6b e53d affd df3d
00000090: 704a 0a3e bec0 b03c 7212 753d 07ce 353e
000000a0: 1486 f73d 255e 353d 877b e93d ca2a d53c
000000b0: 2cf9 103e adcf 5e3d b7b2 293d 0e81 423e
000000c0: 7787 1f3d c9d4 643d 1191 633c 2747 da3d
000000d0: 28ea 0a3d c9f7 cd3d 2949 223e 5839 293e
000000e0: c2f3 2d3e dfba 893d 40a0 a33d 8847 0b3e
000000f0: 2a2b 993d 9cc2 653e 44d4 9d3d 779e c33d
00000100: 66e6 a83d ccfd fd3d f38e 333d 8c14 5f3d
00000110: e542 803d 70b5 1d3e e8ff b43d fe39 913d
00000120: ecab b53e c3d4 b63d 3265 2e3d efa3 7b3d
00000130: 80f4 0b3e 1325 3d3e 3b4d 383e f050 ae3d
00000140: 4957 353d a010 0f3e 27ea b53d dd5a 813d
00000150: 5039 b13d a281 863d 5946 3d3e 3c60 3c3e
00000160: bcc3 883e 1096 d93d 8289 293d 866e 313e
00000170: 2c99 8a3d 6acb 4b3d 742b 613d 21c3 0a3d
00000180: ab8f 053d ba9d 333e ae0f 143e 7a2c a23d
00000190: 5a2b af3d d5c0 293e 937a 023e c6d3 8f3d
000001a0: a56b 293e 015e 343d c0e4 2f3e 9f3b af3e
000001b0: 211b 043e 6631 313e cc74 fa3c f639 483d
000001c0: ab78 353d 38f2 e93c 3bf0 3e3e 2fdb ac3c
000001d0: 71d7 3d3e d949 ed3d 5b24 113e cb73 493e
000001e0: cec4 193d 760b 9d3c d15f 5e3c a6f3 9f3d
000001f0: 9845 723e 807e f83c 823b ec3d a7ae 993e
00000200: cf84 893e d27a 873d a6bb 893d 051a dc3d
00000210: 01e9 b73d e51f 1f3d 76db d03d ca87 fb3c
00000220: bd80 3d3e fb5b 993d ce1f 3c3d 9687 c33d
00000230: d76b 5f3e 6e06 ad3e 81a0 3c3e fdc0 a83d
00000240: f9f2 5b3e 48c1 c93d bae8 483d f609 2c3e
00000250: db28 663d 57f4 0e3e 6241 643e b78a db3c
00000260: 9dd2 2a3e c9f0 333d 5501 393e 9fcb da3d
00000270: b37d 263e d3c7 9b3d 0098 613d 01b1 0b3e
00000280: 9e92 913e 54d5 223e 7d44 883e 151c c13c
00000290: 9ba3 6c3d 6185 c73d e499 873d 2731 2d3e
000002a0: 0ace 713d 2334 403e b1b1 9f3e 0e48 893e
000002b0: 8442 1e3e e39f 993d a010 923d e2b9 413e
000002c0: f31b 2f3e ce6a 183d 9d6b 903d 3387 263d
000002d0: d3c3 813d f619 f33c 7402 dd3d 0203 5b3c
000002e0: 3649 593d 6894 053e 4d79 bd3e 1a34 ce3e
000002f0: 1d37 913d 1219 4f3e eb75 ad3d ddb4 013e
00000300: deb1 d73c a966 703d 57e9 bc3d e6df 0d3e
00000310: 7cc5 6c3d c248 d23d cb2e 5a3d 24db b03d
00000320: 0787 fe3d 59b6 8d3d 3cd5 623d 0514 b23e
00000330: 54f5 df3d a935 633d a41a d53d 3c81 9c3d
00000340: 8c11 3c3d f1a9 403e 0f20 a23d 8e9f f03c
00000350: 6d02 2c3e 6e8e 513d dc3a a13d 28d7 cd3d
00000360: 8894 243e 42f2 923c 3095 803d 58b2 f53d
00000370: 6e84 b53d 9f51 0a3d 8b34 513c 7001 2c3d
00000380: 9628 1f3e 1e01 8e3d cb97 c83d 15ee 543e
00000390: 74c5 223e 12a8 493e 0a42 583e 6158 b13d
000003a0: d7ad a03e 4ec0 a23d 776a 813e c597 043d
000003b0: 2c63 3b3e 95bb d63d 5443 283d b270 d73d
000003c0: cfb9 0d3e 631d 293d 8920 133e 0fa2 483d
000003d0: f75a 2a3e 46ac 963d e3be 673d c106 ae3d
000003e0: b493 f13d 4112 e53c f8c9 0d3e 4fdc b73e
000003f0: ec2e ac3d b37e bc3d 0e5d 703d 000d 1e3d
0.19807528 0.13380517 0.108046226 0.05843854 0.117864564 0.09428217 0.12761994 0.022263868
0.14138831 0.17429447 0.052673828 0.12350966 0.07432205 0.11980295 0.29498914 0.059209477
0.29288748 0.21798706 0.018644001 0.18523192 0.07809543 0.024294158 0.19325387 0.0866049
0.32396996 0.14191921 0.088557124 0.1360129 0.07283015 0.079520345 0.05170851 0.06365454
0.14530152 0.082116015 0.11202095 0.10937058 0.13504958 0.021576282 0.059832044 0.17754374
0.1208612 0.044279236 0.11400514 0.02602138 0.14157552 0.054397274 0.0414302 0.18994543
0.03894755 0.05586699 0.013889567 0.106581025 0.033914715 0.10057027 0.15848221 0.16525781
0.16987517 0.06725096 0.0798955 0.13601506 0.07478936 0.22437519 0.07706502 0.09551709
0.0824707 0.124019235 0.0438375 0.054462954 0.06262759 0.15401244 0.08837873 0.07091139
0.35482728 0.089273 0.042576976 0.061435636 0.13667488 0.18471174 0.17998211 0.08511531
0.044272695 0.13971186 0.08882552 0.06316159 0.086535096 0.06567694 0.18483867 0.18396086
0.26711833 0.10624325 0.041390903 0.17327318 0.067674965 0.049754538 0.05497308 0.033877496
0.032607716 0.17540637 0.14459106 0.079186395 0.085531905 0.16577466 0.12742071 0.070228145
0.1654497 0.04403496 0.17177105 0.34225175 0.12900974 0.17304 0.030573271 0.0488834
0.04430453 0.028557882 0.18646328 0.021100609 0.18539216 0.11586351 0.14174025 0.19673078
0.037541203 0.019170504 0.013572649 0.07810144 0.2365936 0.030333757 0.11534788 0.30016062
0.26859137 0.06615223 0.06725244 0.1074715 0.08979989 0.038848776 0.10198109 0.030704398
0.18506141 0.07488247 0.04592877 0.09547345 0.21818481 0.33793968 0.18420602 0.082399346
0.21479405 0.098513186 0.04905007 0.16800675 0.056191307 0.13960396 0.22290567 0.026799543
0.16681905 0.043930802 0.18066914 0.10683369 0.16258888 0.07606473 0.0550766 0.1364174
0.28432173 0.1590169 0.26614752 0.02357296 0.057773214 0.09742237 0.06621149 0.16913281
0.059034385 0.18769889 0.31190255 0.26812786 0.15455061 0.07501199 0.07132077 0.18918565
0.17100506 0.037211232 0.070517756 0.04065628 0.06336179 0.029675465 0.107914835 0.013367416
0.053048335 0.13044894 0.37006608 0.40274125 0.0709059 0.20224407 0.08469757 0.1266665
0.02632993 0.058691654 0.092241935 0.13854942 0.057805523 0.10267784 0.05326728 0.08635548
0.12428098 0.06919546 0.055379137 0.347809 0.109354645 0.055471096 0.10405472 0.07641837
0.04591517 0.18814828 0.07916271 0.029372957 0.167978 0.051161222 0.07872555 0.100508034
0.16072285 0.017937783 0.06278455 0.11996907 0.088631496 0.033769246 0.012768875 0.04199356
0.15542826 0.06933807 0.09794577 0.20793946 0.15895635 0.1969302 0.21118942 0.08659435
0.3138263 0.079468355 0.2527654 0.0323713 0.1829955 0.10484997 0.041079834 0.10519542
0.13840412 0.04128779 0.1436788 0.048982676 0.16636263 0.07357077 0.056578528 0.08497382
0.1179575 0.027962806 0.13846576 0.3591027 0.08407387 0.092038535 0.058682494 0.038586617

bn1.running_var f4 [300]
00000000: a4da d63d f08f 9f3d 2c85 603d ea34 813c
00000010: 2c96 303d fb08 c03c 03cf 173d 48da 683c
00000020: 74c9 473d 0e09 d23d eff0 703c c799 7f3d
00000030: b7ac cb3c dfe3 ec3c f245 e93d e258 993c
00000040: 7fda 2c3e dbce 0f3e c045 253c b444 503d
00000050: 7b41 093d 0d81 843c 6ea0 453d 751c 893c
00000060: 9cb5 283e a845 af3d 343e 433d f705 343d
00000070: 7080 1d3d 7a71 0d3d 9c7f 7f3c 2dda 953c
00000080: 23b3 883d 9ad9 8f3c 9dda 5b3d 21b1 603d
00000090: b11d 5e3d 35f7 703b d5de 6a3d f527 6a3d
000000a0: dcf0 8d3d 19e5 783c bf19 0f3d 0488 4e3c
000000b0: 6102 d53d 4ab0 a03c 05b5 413c 89eb 9c3d
000000c0: e971 133c ea10 ee3c 2636 d43b 6af8 f63c
000000d0: 177f 643c 657d 073d 1bf6 a23d c174 9f3d
000000e0: a63e 073d 41b4 db3c db14 cb3c bd0f 733d
000000f0: 0656 1c3d 8d69 783d 8490 333d d29b ae3c
00000100: de6a 453d aeee 513d 70ca b43c 710d da3c
00000110: f82b ac3c 6dbe 673d c200 543d 5b34 0a3d
00000120: b6f9 4d3d 2882 103d c090 9d3c a0d0 9c3c
00000130: fc53 463d 56ff 683d d487 543d ee6d 803d
00000140: 32bc 923c 2e4e 3e3d 4f5f 053d 155b ac3c
00000150: 041e 293d a869 c23c 891d 8f3d 5330 5d3d
00000160: 5da4 ce3d f462 093d 28c5 4a3c 5ee1 b53d
00000170: b04b 123d e392 873c a271 893c 7130 393c
00000180: 17d2 aa3c 8ae0 7a3d a2e8 563d 6b6a 0e3d
00000190: e6e8 843d 5188 863d 9ffa 1f3d 5318 953c
000001a0: 933a a53d 77e0 9e3c 9bf7 a33d bda3 fe3d
000001b0: de45 193d 17be ab3d a180 6d3c df9c 663c
000001c0: a053 c53c 0f66 c33c e5bb 243d cede d13b
000001d0: 69c6 a33d 840f 2e3d 22f7 4f3d cf24 963d
000001e0: 0d91 953c 6bf3 e63b b880 dc3b efb0 973c
000001f0: 3545 b73d 42d1 9b3c 75ec 9b3c 7d07 253e
00000200: 0859 f13d 2c1e a13c b451 cd3c 28e5 353d
00000210: bcfd b83c f2c6 493c 1350 4e3d ae22 903c
00000220: 53da dc3d 619a 0a3d 6456 993c e18e 1b3d
00000230: 97c7 4f3d f3a7 bf3d efb6 b73d 5980 053d
00000240: c4a8 843d ad85 4f3d 3f76 a23c b891 ab3d
00000250: 5ef5 f13c c36d 843d 3a25 013e 8fa6 6a3c
00000260: 7212 903d 0dbd 563c b651 993d eaf6 3f3d
00000270: 6746 573d da4d ed3c 9b96 173d 0317 2d3d
00000280: bc64 c23d 2bfe 673d c48b 023e bb04 233c
00000290: 54a6 7b3c 0b43 453d 8986 c43c 4771 923d
000002a0: 23e1 2d3d 968b a43d 2907 143e 2a51 763d
000002b0: f273 8c3d 1dae 9a3c 3767 543d cc66 b33d
000002c0: 5641 223d e4d4 503c b876 da3c 5752 7c3c
000002d0: 3950 ca3c 39c2 353c 6b60 1e3d d836 c73b
000002e0: b304 c23c 4f67 4a3d 107c 073e 3429 273e
000002f0: 1fe0 a93c f638 c53d 1b50 0e3d 6fe6 5b3d
00000300: 1e08 e03b 57b1 a43c 639a d73c b0b6 553d
00000310: bf9b b53c 5642 f03c 567f 813c 651a 8b3d
00000320: 5e13 1a3d 30b6 b13c 2f0f 963c 97fc 253e
00000330: c6c2 243d fec3 863c 32bd 003d 6382 e53c
00000340: c583 c63c 7ae3 7a3d 424b 1b3d 98d9 fb3b
00000350: 374d 003d 754a d13c 2a54 8c3c b089 013d
00000360: f300 873d f5f4 ac3b 781c c73c 9255 c83c
00000370: bc49 023d e1af aa3c d58a f13b 44e1 503c
00000380: e1c3 b23d a792 693c ded3 893d a72f bb3d
00000390: 488e 203d fb53 3f3d d34b 0f3d 00c1 ce3c
000003a0: 6a54 de3d 90c1 f93c c008 fe3d 84e9 8b3c
000003b0: 1186 6f3d 9e53 de3c e48c eb3c 40d7 833d
000003c0: 5783 bc3d c1bc 453c b049 4d3d 58cd 383c
000003d0: d427 b83d a758 d13c 0090 6f3c d839 1f3d
000003e0: d1d8 583d 79e7 3c3c ff11 023d 1772 423e
000003f0: c02b 103d e785 7a3d 587c 873c cbd5 283c
0.10490921 0.07791126 0.054814503 0.015772302 0.043111965 0.023441782 0.037062656 0.014212199
0.048776105 0.10255633 0.014705881 0.062402513 0.02486263 0.028917251 0.11390294 0.01871914
0.16880225 0.14043753 0.0100874305 0.05084677 0.033509713 0.016174817 0.0482487 0.016737202
0.16475528 0.08558208 0.047666743 0.043951 0.038452566 0.034532048 0.015594389 0.01829251
0.066747926 0.017559815 0.053675283 0.054856423 0.054227535 0.003676844 0.057341415 0.057167012
0.06930706 0.01519134 0.034936663 0.012605671 0.10400844 0.019615311 0.011822944 0.07662112
0.008999326 0.0290608 0.0064761816 0.03014775 0.013946316 0.03307857 0.07957097 0.07785941
0.03301873 0.02681935 0.024790218 0.05934118 0.038167976 0.060647536 0.043838993 0.021314535
0.04819762 0.051253013 0.022069186 0.026617737 0.02101706 0.05657809 0.051758535 0.033741336
0.05028697 0.035280377 0.019234061 0.019142449 0.048419937 0.056884132 0.05188735 0.062709674
0.017912004 0.046461277 0.032561596 0.021039525 0.04128839 0.023732021 0.06988055 0.054001164
0.100899436 0.033541635 0.012376107 0.08880876 0.035716712 0.016549533 0.016777817 0.011303053
0.020852132 0.061249293 0.05246795 0.034769457 0.06489734 0.06568969 0.03905737 0.018200075
0.08067813 0.019394143 0.08006211 0.12433574 0.037420146 0.08385866 0.014496 0.014075487
0.024087727 0.023852376 0.040218253 0.006404734 0.07996828 0.042495266 0.050772794 0.073312394
0.018257642 0.0070480607 0.0067292117 0.018516986 0.08948747 0.01902068 0.01903365 0.16116138
0.117845595 0.019667707 0.025063373 0.044407994 0.022581927 0.012315499 0.050369333 0.017594662
0.107838295 0.033838633 0.018717952 0.037978057 0.050727453 0.09358206 0.08970439 0.032593105
0.06477502 0.050664593 0.019831775 0.08377403 0.029535946 0.06466248 0.12611857 0.014321937
0.07034768 0.013106597 0.07486288 0.046866335 0.052557375 0.028967787 0.037008863 0.042258274
0.0949187 0.056638878 0.12748629 0.009949858 0.01535948 0.04815964 0.023989933 0.07150512
0.042451035 0.080344364 0.14455856 0.060135998 0.06858052 0.018881852 0.051856246 0.08759841
0.03961309 0.01274607 0.026667938 0.015400491 0.024696456 0.01109367 0.03866617 0.006079536
0.023683881 0.04941493 0.1323092 0.16324311 0.020736752 0.09630005 0.034744363 0.053686555
0.006836905 0.020104093 0.026318735 0.052176178 0.022168992 0.029328506 0.015807789 0.06792144
0.037616126 0.02169332 0.018317787 0.16209637 0.040224813 0.016450878 0.03143043 0.028016275
0.024232754 0.061252095 0.03791357 0.0076858513 0.031323638 0.0255482 0.017129976 0.03162545
0.06591978 0.0052782246 0.024305567 0.024454866 0.0318086 0.020835819 0.0073712864 0.01274902
0.08728767 0.014256156 0.067298636 0.09139948 0.03919819 0.04671095 0.03498442 0.025238514
0.108559445 0.030487806 0.12404013 0.017079122 0.058477465 0.027139481 0.028753705 0.0643754
0.092047386 0.012068928 0.050119102 0.0112794265 0.089919716 0.025554968 0.014621735 0.038873523
0.052941147 0.011529797 0.031755444 0.18988834 0.035197973 0.061162855 0.016538784 0.0103048785

fc2.weight f4 [400, 304]
00000000: c34c 56bd 87d1 583c e590 2fbd 9c1e 1d3b
00000010: a3d1 d4bd 3c49 2f3a ae2f c7bd c7fd 23bd
00000020: a4da 03bd 1645 6c3d 153d 9f3a bc44 fbbc
00000030: 837b f6bc 1a5b 00bd 792b 77bd 9a32 adbc
00000040: ad53 d93d 304a aabc 2b4c 9c3d 440a ddbc
00000050: b9cb dd3c 986e 95bd b20f 1cbc b0af 143c
00000060: f094 57bd f56a 723b 0b17 043c e8a8 9a3c
00000070: a67f 803b 38db b2bc 3d96 19bc e0ef 353c
00000080: 29b9 853c 2e4b 423d 8280 863d 8fa6 07bd
00000090: e929 613d a066 0f3d 437c edbd 63de a53b
000000a0: ceaf e8bc a797 1c3d 9e61 54bd 124d b03b
000000b0: ed8e a5bd 5cbc 0fbd 07a4 75bd 9d20 343d
000000c0: 57e0 86bd eba7 f039 c567 04bd 1a03 5fbc
000000d0: da46 0bbe 92a8 b0bc 235d 7d3d 0fd1 10bd
000000e0: 30df 40bb 4333 c43b 91a3 edbb 3683 b23a
000000f0: ff32 f23b bd7b 3bbd 85f1 0bbd c5b7 013d
00000100: d8dd 30bd 7827 273d 4a47 1ebd 42ca 5ebd
00000110: 45a9 adbb f35d e7bb a809 cfbc 2625 a03c
00000120: 1353 81bd 8e1c 6ebd 615e bb3d 735f 63bd
00000130: 3d99 50bd 1847 d1bc acaf 023d 32ed 94bd
00000140: 9b0b b23d 8cfc 09bd 9def a13d 9f98 4dbc
00000150: e2c8 5cba 3361 dfbd db01 c43d 613f 21bc
00000160: a28d 9d3b dfee a9bc 1953 673d 4ebc 3a3d
00000170: 5b22 3b3d 1b16 dbbc e158 b0bd 5380 b9bc
00000180: 2d3f 573d cf6f 243d 7de4 91bd c265 24be
00000190: d640 8cb9 721a 01bd ec8e 633d 5b49 68bd
000001a0: a699 583d 5da6 8cbc 9c95 5cbc 6e1c 1bbd
000001b0: ed1f 41bd 6897 7d3c 768b 07bd 0321 0c3d
000001c0: 5422 b63d f784 b1bd 573a 6a3c d7b6 dfbc
000001d0: 5946 5d3d fea7 38bd 92fd c63c b9d4 8dbd
000001e0: c3b5 f2bc 7fc1 433b 24b7 4a3d a41e 293d
000001f0: b712 01bd 8446 efbd caa4 feba ddee 013c
00000200: c6ea adbc 08d5 9f3c bcf2 cf3b fc2d b03c
00000210: 1022 fe3b e8b1 a3bb 1ab2 3a3d 2533 9abd
00000220: 691e 853d 7d7b 49bd 667e efbc 3e76 d33c
00000230: d846 c3bc 462b f23b 90b5 273d 8cd5 253d
00000240: 9e43 3ebd bf30 1bbd 6453 b8bc f68c 83bc
00000250: 4cb6 fabd 365c 0ebd 102b 4abc 6e86 60bc
00000260: 289a b1bc 1991 c53b 44a5 ad3d 370c 8ebd
00000270: 74ca 783d e661 143c 4fd4 43be fff8 a5bb
00000280: 5ef7 0ebd 084a cdbc b8b8 653d 7729 7a3d
00000290: 71ac 8fbd bde6 21bd d094 8c3c f432 b3bc
000002a0: c370 883d 273f c73c d412 32bd 50b1 763b
000002b0: 16a3 d8bc 4358 723c be08 09bd 9c25 0b3d
000002c0: e909 d33b 72eb d63c a934 953d aa70 b0bd
000002d0: 3756 b2bc fb7a b93c 7e77 1ebd 7cde 3b3d
000002e0: 405e 53bd 3f27 e0bd 44c0 e0bc 7a30 833c
000002f0: a1fe c9bd 9dd2 51bd 8aee a1bc 9185 2abb
00000300: bdf5 00bc a804 6e3d da24 b8bc e8a2 20bd
00000310: a9b0 72bd 4bfe aebc 9ad2 a23c 44f2 07bd
00000320: 1a8f 80bd 7d21 74bd 4a36 05bd fb39 3b3d
00000330: b06a ca3c 38c5 8ebd eceb 253c d5f7 d63a
00000340: 5e1f 373d 3fd7 b9bd f96e cfbc c66f 2d3d
00000350: fbf4 f3bb 6ca3 5fbd 9bf0 aabd 7c05 8a3d
00000360: 0b58 3d3c b3de 86bd 754d 63bd f5da 7f3d
00000370: e29b 9c3a 0d7a 36bc 44bf e9bb 41b8 4abd
00000380: 6433 663c 97de 343d 32c0 863d 9a7b f03c
00000390: 0299 cabd fc18 9f3d d7c6 c23b 5e18 a93c
000003a0: 753a e23d 9135 babc ba14 9f3a 0adf e4bd
000003b0: 91ff ddbc b1cb 4a3d 73e4 473d 8154 bf3c
000003c0: 4311 90bc ad04 d7bb 1553 cfbb 8749 5fbd
000003d0: 49a4 bb3d 3757 f1bc b320 98bb e8ec 093c
000003e0: 8822 68bd 42e4 b2bc a265 f93c 965c 02bd
000003f0: fd95 e5bb cef4 973d 33be f0b9 86c2 6d3d
-0.0523193 0.013233549 -0.04286279 0.0023974543 -0.103915475 0.0006686633 -0.09725891 -0.040036943
-0.032190934 0.057683073 0.0012148941 -0.030672424 -0.030088192 -0.03133688 -0.060344193 -0.021142293
0.10611663 -0.020787328 0.076317154 -0.026982434 0.027074682 -0.07296485 -0.009525226 0.00907509
-0.052632272 0.003699002 0.0080621345 0.018879369 0.003921467 -0.021833047 -0.0093741985 0.011104554
0.016323643 0.04743498 0.0656748 -0.033117827 0.05497161 0.03500998 -0.11595967 0.005061911
-0.028404143 0.038230564 -0.051850908 0.0053802812 -0.080839016 -0.035091743 -0.05997088 0.043976415
-0.06585758 0.00045901476 -0.032325525 -0.013611579 -0.13601246 -0.021564756 0.0618564 -0.035355624
-0.0029429905 0.005987556 -0.0072521647 0.0013619426 0.007391333 -0.045772303 -0.034165878 0.031669397
-0.043180317 0.040809125 -0.038642205 -0.054392107 -0.0052997195 -0.00706076 -0.02527316 0.019548964
-0.06314673 -0.0581327 0.09148861 -0.05551095 -0.05092739 -0.025546595 0.031905815 -0.07271804
0.0869362 -0.033688113 0.07907031 -0.012548595 -0.0008422268 -0.10907211 0.095706664 -0.009841771
0.0048081437 -0.020743785 0.056475732 0.045589738 0.04568706 -0.02674394 -0.08610702 -0.022644198
0.052550483 0.04014569 -0.07123659 -0.16054443 -0.00026751187 -0.03151936 0.055556223 -0.056710582
0.052880906 -0.017169172 -0.013463404 -0.03786891 -0.047149587 0.015477993 -0.033091985 0.03421117
0.08893266 -0.08667939 0.014296136 -0.027308865 0.054022167 -0.045082085 0.024290834 -0.06925339
-0.029627686 0.0029869971 0.049491063 0.041288987 -0.03151199 -0.11683372 -0.0019427773 0.007930485
-0.021230113 0.01951076 0.006346075 0.021506302 0.0077555254 -0.0049955733 0.045580007 -0.07529286
0.06499941 -0.049190033 -0.029235076 0.025813218 -0.023837492 0.0073904125 0.040944636 0.040486857
-0.046451204 -0.037888285 -0.022500701 -0.016058426 -0.122418016 -0.034755908 -0.012339368 -0.013703926
-0.021679953 0.00602926 0.084787875 -0.069359235 0.06073995 0.009056544 -0.19123958 -0.005065083
-0.034903876 -0.025059715 0.056084365 0.0610747 -0.070153125 -0.03952669 0.017160803 -0.021874882
0.066621326 0.024322106 -0.043474987 0.0037642308 -0.026444953 0.014791551 -0.033455603 0.033971414
0.0064403904 0.026235316 0.07285435 -0.08615239 -0.021769626 0.02264165 -0.038688175 0.045866475
-0.051603556 -0.109449856 -0.02743543 0.016014326 -0.0986302 -0.051226247 -0.019767065 -0.0026019553
-0.007871089 0.05810991 -0.02247851 -0.03921786 -0.059250508 -0.02136149 0.019875813 -0.033190027
-0.062772945 -0.05960225 -0.032522477 0.04570959 0.024709076 -0.0697121 0.010127049 0.0016400764
0.04470765 -0.09074258 -0.02532147 0.042342924 -0.0074449754 -0.05459921 -0.08346673 0.06739327
0.011556636 -0.06585445 -0.05549379 0.062464673 0.0011948312 -0.011137498 -0.0071333963 -0.049492124
0.014050338 0.04415759 0.06579627 0.029355813 -0.09892465 0.07768437 0.0059441137 0.020641502
0.11046306 -0.02273062 0.0012136914 -0.11175354 -0.027099403 0.04951066 0.04880185 0.023355724
-0.017586356 -0.0065618367 -0.006327043 -0.05451348 0.09162194 -0.029460533 -0.00464257 0.008418299
-0.056673557 -0.021837357 0.03044397 -0.031826578 -0.0070064054 0.0741974 -0.00045918077 0.05804684

fc2.bias f4 [400]
00000000: 85e8 69bd 033e 933c 16e3 dfbd 76c9 e6bc
00000010: 7d80 043d 34e1 6339 edba a9bd b51f 3d3d
00000020: 3cee 05be 9947 f1bd d61f 91bd 786b d6bc
00000030: bff0 20bc 909a e23c 3cf6 0339 f7c9 653d
00000040: 52ad 2b3c 206d 2b3d 3486 8e3c 6183 0cbd
00000050: f459 69bd 67d6 75bd e2aa c23c 189c 50bd
00000060: bc11 9ebd 5777 99bd ccf4 fd3c 916c 0fbd
00000070: 75f6 95bd 1c97 7cbd 4440 0bbe c744 81bd
00000080: fe3d 063e b8f6 c5bd e019 463d 179c c3bd
00000090: 79ab 6abd 5f4d 1c3d 9c2e 25bc ed51 3bbe
000000a0: 9481 93bd 59c3 02be f2f2 f9bc 9441 a7bd
000000b0: 9c19 78bd 9bde 04be ff95 c9bb f1b4 b6bd
000000c0: a16d e3bd 1b09 a0bd 3b06 cbbd cbe1 99bd
000000d0: bf14 ffbc 73c9 0dbe fa1e a03d b970 2bbe
000000e0: 5690 823d cebe b1bc 6f27 a6bc 75e9 93bd
000000f0: c613 133d 5d47 c93d 5778 9f3d a710 1cbe
00000100: a844 b4bd 835a 853d 32e3 d53d cb3f 0fbe
00000110: 7de1 d6bd 0454 b13d 07a9 4dbd 4a2a f73b
00000120: 8468 2cbe 79b7 193d 3880 c7bd 00e4 11bd
00000130: 8198 febd 4c27 b7bd 5bb9 d53c 4b07 9abd
00000140: 4016 5c3c b360 b9bd a217 c2bd 757f 32bd
00000150: e1d1 88bd caa4 073e a9d3 9c3c 33ea efbd
00000160: 3e7b 403d bdc7 a2bd 931d cebd baa7 cbbd
00000170: cfdd c8bd 4093 1cbd 2b4f 60bc 365a d3bd
00000180: 34f4 8bbd 45eb 03be 616e c63c 1d16 863d
00000190: b48e b5bc 0d6b 1dbd e08f c43d 57c4 263c
000001a0: a846 03be 9495 f8bd 8ff5 debd 976e 63bd
000001b0: c3f1 bbbd 914c c8bd 4275 22be 8e60 ddbd
000001c0: cb1b 60bd 3817 153d e887 babd 6992 e4bd
000001d0: 9d16 a6ba b3af afbd 7e79 cc3d acfe bbbd
000001e0: ac8d ffbd 5a9c 93bd 43c8 343d dbdf a03d
000001f0: 7389 acbd 6e1a c6bd c221 d2bd 3bfc 07be
00000200: aa28 94bd 632b f6bd 06f9 ab3d 2e6a 20bd
00000210: 073c dfbd 5566 2dbd 0850 d3bb 19fd 74bc
00000220: 34c3 733d 3ac6 863d 841b 2c3d b3f0 733d
00000230: 6765 11be 98d7 c83d 2fa7 26bd c04d ddbd
00000240: f3b5 93bd 23d6 42bc 17fa 22be da92 4ebd
00000250: 6da5 47bc bbe6 ccbd 501a 91bd 962a e6bd
00000260: 19ce 873d 7f86 96ba 7413 19be 7b7d a7bd
00000270: 1f8c 23be e0d0 523d c8b8 09bb 600c 9ebd
00000280: 2820 c7bd c198 d7bd b4ee 813d 6133 72bd
00000290: cb26 9cbd c705 2e3d 334d 02bd 2101 f4bd
000002a0: 3824 c53c ceca a53d 9fff 0fbe f463 12be
000002b0: d938 04be f5ce 94bd 28fd 57bd c014 03be
000002c0: 7b9a 7c3d 326d c5bd 3e7d 7bbd 1081 fb3c
000002d0: 6f08 c8bc 6c05 a8bd 6af7 e3bd 9b23 91bc
000002e0: 9c38 3e3d 3dfa 493d 47b4 6abd 46c5 fdbd
000002f0: ff26 c8bd 12fb edbd 375e ae3b fc5f cdbd
00000300: 7464 c0bd bc07 dfbd f142 92bd 8afd cfbd
00000310: 2285 01be afaf f5bb 2a4b 12be eb3a 65bc
00000320: 6f83 2ebc 1a53 a2bd 23c3 01be b798 3e3c
00000330: ec12 273c 7b10 89bd efeb e9bd 98e6 383d
00000340: f71f f13d ab51 8abd 4014 f9bd 650a 11bd
00000350: 29fc 5cbd 7201 d5bd 3322 a83d 89d8 32be
00000360: d3b6 cdbd 3ecb ccbd 530d 2cbe 5be8 93bd
00000370: 500f ba3c 789a 4c3c 7bca 4cbd c786 973c
00000380: c71b 873c 4358 1cbd c5b4 f0bd 1443 67bd
00000390: 7a2f 80bd 056b cfbd 08b5 b6bd a786 93bd
000003a0: 990b cfbd dbb2 c33d b2de 71bd 5f59 38bc
000003b0: 96b7 483c 23b4 a5bc 0d37 00be a8cb 5b3d
000003c0: 3219 03be a3da 30bc 4bd9 24be 98c4 5e3d
000003d0: 71d0 b3bd fa23 efbd 9271 3c3d a4f2 47bd
000003e0: c430 76bd 7b47 813d 55e7 e6bd f3f8 683c
000003f0: 3bc4 21bd 5553 e83d 70d6 dabd 6917 fcbd
-0.057106514 0.017973905 -0.10931985 -0.028172236 0.0323491 0.00021732302 -0.082876064 0.046172816
-0.1307916 -0.11781234 -0.0708615 -0.026174292 -0.009823023 0.027661592 0.00012584863 0.05610081
0.0104783345 0.041852117 0.017397977 -0.03430498 -0.05697055 -0.060018923 0.023763124 -0.050930113
-0.07718226 -0.074934654 0.031000517 -0.035015646 -0.073223986 -0.061667547 -0.13598734 -0.06311946
0.13109586 -0.096661985 0.04836452 -0.09551256 -0.057292435 0.038159724 -0.010081913 -0.18292971
-0.072024494 -0.12769832 -0.030511353 -0.08166805 -0.060571298 -0.12975542 -0.006151914 -0.089212306
-0.111048944 -0.07814237 -0.09913298 -0.0751377 -0.031137822 -0.13846378 0.07818408 -0.16742219
0.06375186 -0.021697428 -0.020282475 -0.07222263 0.03590753 0.098280646 0.07786625 -0.15240727
-0.08802158 0.06511404 0.10443725 -0.13989179 -0.10492227 0.08658603 -0.050210025 0.007542883
-0.16836745 0.03752849 -0.09741253 -0.03561783 -0.124314316 -0.08943042 0.026089361 -0.07520922
0.013433039 -0.09051647 -0.09477164 -0.043578584 -0.06680656 0.13246456 0.019143896 -0.11714592
0.046992533 -0.07948253 -0.100642346 -0.09944101 -0.09807932 -0.038226366 -0.01369075 -0.10319941
-0.068336874 -0.12882717 0.024222555 0.065471865 -0.022162773 -0.03843217 0.095977545 0.010178647
-0.12819922 -0.12137905 -0.1088668 -0.05552539 -0.09176972 -0.09780229 -0.15865043 -0.10809432
-0.054714005 0.036399096 -0.09107953 -0.11160738 -0.0012671534 -0.08578434 0.0998411 -0.09179434
-0.12478194 -0.07207556 0.044136297 0.07855197 -0.08424654 -0.0967301 -0.10260345 -0.13279812
-0.072343186 -0.12019994 0.08397107 -0.03916376 -0.10900121 -0.04233392 -0.0064487495 -0.014952921
0.059512332 0.065807775 0.04201843 0.05955572 -0.14198838 0.09806746 -0.040686782 -0.10805845
-0.072124384 -0.0118918745 -0.15915714 -0.050433017 -0.012185437 -0.10004946 -0.07085097 -0.112385914
0.06631107 -0.0011484175 -0.14948827 -0.081782304 -0.1597142 0.05146873 -0.002101468 -0.07717204
-0.0972293 -0.10527182 0.06344357 -0.05913103 -0.07624587 0.04248598 -0.031811904 -0.11914278
0.024065122 0.080953225 -0.14062355 -0.14295942 -0.1291231 -0.072660364 -0.052731663 -0.12800884
0.06167076 -0.09639968 -0.061398737 0.03070119 -0.024418084 -0.08204159 -0.11131175 -0.017717173
0.046440706 0.04931091 -0.057300832 -0.123911425 -0.09773063 -0.116201535 0.00532129 -0.10028073
-0.0939416 -0.10890147 -0.07141674 -0.101557806 -0.12648442 -0.0074977498 -0.14286485 -0.013991098
-0.010651453 -0.079260066 -0.12672095 0.01163309 0.010197382 -0.066925965 -0.11421954 0.045141786
0.11773675 -0.06753858 -0.121620655 -0.035410304 -0.053951416 -0.10400666 0.08209648 -0.17465414
-0.100446366 -0.09999703 -0.16801958 -0.07222053 0.02271238 0.012488 -0.049997788 0.018496884
0.016492737 -0.03817011 -0.11753229 -0.056460455 -0.062590554 -0.10127834 -0.08921248 -0.07203417
-0.10109634 0.09555598 -0.05905027 -0.0112517765 0.012250802 -0.020227497 -0.12521 0.05366102
-0.1280258 -0.010794315 -0.16098516 0.054386705 -0.087799914 -0.11676784 0.046006747 -0.048815385
-0.0601051 0.06312462 -0.11274592 0.01421951 -0.03949378 0.11344019 -0.10685432 -0.12309153
