experiments/exp2/models/checkpoint_critic_6.pth (torch_old, 361642 bytes, 9 tensors)

fc1.weight f4 [200, 33]
00000000: f1ae 2b3d ec9f 6ebd ceab 843d dd35 c03d
00000010: 7dea 66be 67af 99be 2852 5e3d 4cbf 94bd
00000020: 6fa4 43bd a661 98bd 1132 a93d abce c9bd
00000030: 1261 c93d 0bfe 29bc ee48 8bbd 085f eebb
00000040: 8ab7 af3c e4a8 d83d 9cab f5bd 6344 d0bd
00000050: 2c6e d1bc bdd8 a33d 0cd2 10bc f381 c4bc
00000060: ced0 313a ea15 a3bd c7e4 74b9 7a8d b0bd
00000070: 71bc 363c 45b8 813d 0275 0c3d 2b05 45bd
00000080: 2fd7 03bd c334 8ebd 1737 88bd eb6c 763d
00000090: 800c c13d 2043 83be 25d4 4dbe d219 06bd
000000a0: 29d2 45bd 7bd2 c33c d424 f5bc 2985 163d
000000b0: 1f9d 2e3b ae86 a2bc 554f 103e a053 f83d
000000c0: 8226 06bd 8ec1 1b3d 9182 ebbc 49dd fa3c
000000d0: bccb d2bd f63b ccbc 6a7b a0bc 19f0 3cbd
000000e0: 7827 9c3d cd76 453d a6b7 ecbc 7529 1cbd
000000f0: 3550 c13c 380f 323d 1664 5c3d 6464 cd3a
00000100: 0e30 a6bc cb89 c13d 3714 bebd cb8e 593d
00000110: d55c 39be 8dfe 2a3e 9fe1 5dbd baca d2bb
00000120: ad53 183e 876f 5abd cfe2 f63c 952b 07be
00000130: 485b e53c 5bd9 123d 0a52 e0bd c3ba a73c
00000140: 2f54 38bd 7016 1fbb 1b46 2e3e ec97 003d
00000150: 1969 6e3c 80f5 163e d5de 15bd fe3d f83d
00000160: 68cf b1bc baa1 13bd 3be5 60bc 7e1c bb3c
00000170: 0e56 2e3d cb7c 0f3d 138c 893c fa82 153d
00000180: 7b26 a63c cbe3 833d a060 2a3d 92b2 0abd
00000190: 911b b33d 4173 4ebd 668a 7ebe f275 1c3d
000001a0: d1e7 abbd f80c 6b3e c524 a8bc 4565 5abd
000001b0: 96e5 093d b48d 24bd ac24 b7bb b7b4 2ebd
000001c0: 0cf6 bd3c 3d58 bebd 3a31 873c c625 2cbe
000001d0: 123f d1bd 17f1 7a3e 3035 0abd df11 91bc
000001e0: f303 dd3b db0f 213c 768c 713c e8b9 cbbc
000001f0: 7d0b ed3c be96 8b3b df13 35bc a860 bbbb
00000200: 6daf 813d 8ffb 68bd 0000 103b e071 ef3d
00000210: 4e92 57bd 189a 4a3d 5906 053e 696a 003e
00000220: 1f08 5e3d 75bc e73d c4de 2e3e 1604 d6bb
00000230: c93f 543d 8295 89bd 4720 6abd 9f51 ca3d
00000240: 2bed 6c3c b6d5 db3c ec19 403d 01fc c63d
00000250: f8dc 143d db38 0dbe 905c 213c 0f0b 9e3d
00000260: 6eba 27bd 582b d6bb a8c9 513d be4f 9bbd
00000270: c69c 813c 9485 8b3d 9e37 e5bc 40af 83bc
00000280: c97a 053c 519b 8ebd 5ba9 58bd 5f2c 81bd
00000290: ee77 8e3d 8fb5 91bc f353 cfbb 1c00 cbbd
000002a0: 62dc bd3d 9ad5 933d d398 8abc 8bfb 9bbd
000002b0: 7645 343d 0606 d7bd 8774 ed3d 5fd2 c63b
000002c0: e8d6 073c a236 0abc 6600 99bd d19d e83c
000002d0: fc09 863d 56df 9b3d a30a b53d 9243 043e
000002e0: 2f24 c53c 38e5 13bd e0d2 563c 52af 3c3c
000002f0: 6487 e13c d45e 79ba 0a6c 02bc 0e2b 013d
00000300: cd5a 0c3e c9ac ab3d 5021 2dbd f6f1 8fbd
00000310: 72af 263d ae9e 313e c3fe a13d 9f8b 3bbd
00000320: 2354 463d 2623 d0bd 96b0 613c 5313 d2bd
00000330: 560e 06be 79cf 05bc c0b5 213d 81a9 593c
00000340: 330b fc3c 8b6d 0b3d 9051 1e3d c4e0 a1bc
00000350: 8a59 60bd 9908 9ebd 4492 0c3e e883 93bc
00000360: 5e67 1d3e 00a2 943d f005 ae3d c9f2 4cbd
00000370: 7510 ad3c 7695 1cbc e54d 10bd d897 83bd
00000380: f87a cabb d5ff 223e c0e9 a5bb a4b3 d03c
00000390: 6f52 51be 6cc1 60bd 49e0 ddbd 527a 30bd
000003a0: c098 e1bd acff 663d 5d8d 893e a66b 84bd
000003b0: d3f1 26bd a827 8dbc 7325 14bd 4772 353d
000003c0: aa52 36bd cfba 00bd c7df 1bbd b8b2 1c3d
000003d0: 8ba8 843c 5c35 183d 9a40 4f3c 64da a23d
000003e0: 66b2 bf3d 81cc 8b3d dcef 4fbe ac91 893c
000003f0: ce82 6d3c 960a 643d 8cd1 c33c f68b 163c
0.041914884 -0.058257982 0.06478082 0.093852736 -0.22550388 -0.30016634 0.05427757 -0.072630495
-0.047764238 -0.074405 0.082615025 -0.09853872 0.09832968 -0.01037551 -0.068010196 -0.007274512
0.021449823 0.10579088 -0.119956225 -0.10169294 -0.02556523 0.08000324 -0.008839142 -0.023987746
0.00067831285 -0.07963164 -0.0002335488 -0.086207345 0.011153326 0.06333975 0.034291275 -0.04810063
-0.032187637 -0.06943657 -0.066511326 0.060162466 0.09426212 -0.2563715 -0.20100458 -0.032739468
-0.048296127 0.023904076 -0.029924788 0.036748085 0.0026643944 -0.01983961 0.14092763 0.12125325
-0.032751568 0.038026385 -0.028748782 0.030623095 -0.102927655 -0.024930935 -0.019590098 -0.046127412
0.076247156 0.048209 -0.028896164 -0.038125474 0.023597816 0.043471545 0.053806387 0.0015670178
-0.020286586 0.0945011 -0.092811994 0.053114694 -0.18101819 0.16698666 -0.054170247 -0.0064328583
0.1487567 -0.053329017 0.030137448 -0.13200219 0.027997628 0.035851818 -0.10953148 0.020474797
-0.04500216 -0.0024274848 0.1701893 0.031394884 0.014551424 0.14742088 -0.036589462 0.12121199
-0.021705344 -0.036042906 -0.013726528 0.022840735 0.042562537 0.03503112 0.016790425 0.036501862
0.02028202 0.064399324 0.041596055 -0.033861704 0.08745492 -0.050402883 -0.24857482 0.03819842
-0.08393825 0.22954166 -0.020525346 -0.053319234 0.033666216 -0.0401742 -0.0055890884 -0.04265281
0.023188613 -0.09294174 0.016502965 -0.16811284 -0.10217108 0.24506031 -0.03374213 -0.017708717
0.0067448555 0.00983044 0.014742961 -0.02486892 0.028936142 0.004259913 -0.011052101 -0.0057183094
0.06332288 -0.05688053 0.0021972656 0.11691642 -0.05262976 0.04946336 0.12990703 0.12540592
0.054206964 0.11315242 0.17077166 -0.006531249 0.051818643 -0.067179695 -0.05715969 0.09878849
0.014460842 0.026835304 0.04689972 0.09716035 0.036343545 -0.1379122 0.009848729 0.07716953
-0.040949278 -0.0065359287 0.051217705 -0.07583569 0.015821826 0.068125874 -0.027980622 -0.016074777
0.00814695 -0.06963218 -0.052895885 -0.06307291 0.069564685 -0.01778677 -0.006327146 -0.0991213
0.0927055 0.07218476 -0.016918575 -0.076163374 0.044011556 -0.10499196 0.115944915 0.0060675587
0.008290984 -0.008435877 -0.07470779 0.028395565 0.06544873 0.07610957 0.088399194 0.12916401
0.024065105 -0.036107272 0.0131118 0.011516409 0.02753038 -0.00095127267 -0.007960329 0.0315352
0.13706513 0.083825655 -0.042268097 -0.07028572 0.04069466 0.17345688 0.0790992 -0.04578745
0.048420083 -0.10162954 0.0137750115 -0.10257592 -0.13091406 -0.008167141 0.03947997 0.013285042
0.030767059 0.034040015 0.038652003 -0.019760497 -0.05477289 -0.077164836 0.13727671 -0.018007234
0.15371463 0.072574615 0.08497226 -0.050036225 0.021126011 -0.009557119 -0.035230536 -0.06425446
-0.00617921 0.15917905 -0.0050632656 0.025476284 -0.20441602 -0.05487196 -0.108337946 -0.043085404
-0.11015463 0.05639617 0.26865664 -0.06465845 -0.040757965 -0.017230824 -0.036168527 0.044298436
-0.04451243 -0.031428155 -0.038055208 0.038256377 0.016193649 0.037160262 0.01264968 0.07951811
0.09360199 0.068261154 -0.20306343 0.016793095 0.014496518 0.055674158 0.02390363 0.009188643

fc1.bias f4 [200]
00000000: 64d5 d03c 6330 fb3d 3afc fdbd 1f26 103e
00000010: c08c 12be d45b 88be 13b8 5cbe bc7a d5bd
00000020: b155 a7bd d712 a93c 616b 1fbd 3a31 793d
00000030: 7511 213d da52 25be b11d 023c f6dc 80be
00000040: 1705 32be 2025 9abd f4a3 dd3c 9f79 1fbe
00000050: 5262 053d f83e f23d b3b5 3dbd 5977 76be
00000060: 8d33 e3bd 5234 8abd 414f 99bd e74a 003d
00000070: 8b1f a2bd f3ed 83bd a970 b0bd 4acd 37bd
00000080: 533b 53bc cc61 ccbd 4cea 013e 695f f03c
00000090: 4d6b 303b 7e43 40bd 5d64 563c ad28 fc3c
000000a0: 2f19 96bd 6dd4 33be 67be eebb d3b0 31bc
000000b0: e273 b83d 7c4d 19be c9f9 03be 7840 953d
000000c0: 895e 3bbe 1d06 fabd 4434 e33d 2153 09be
000000d0: ded7 37bc 3774 703d f7dd 2ebe bcd7 283e
000000e0: 8d89 803d 783e 24bc af5b 863d a918 4abe
000000f0: a727 1a3e 3a48 ea3d 4590 22bd 0170 a3bc
00000100: 6a4d 7dbd 2443 e03d d591 323d d7aa b5bd
00000110: 79cf f7bc f846 c9bd a36d 05be ee07 a43c
00000120: 25c7 07be 9322 243e c76d 3cbd 39f0 1ebe
00000130: d0c1 273d 24b0 12be 529f 933d 477f 2e3d
00000140: 8773 133d d364 52be 488c f73d 8bce 32be
00000150: 4a97 c5bd f4dd b73d 8350 b6bd 61b3 80ba
00000160: 66c6 963d af33 dbbc 1a70 3bbe 0272 a33c
00000170: b1f8 083e 6b2b 17be 6cb5 38be add8 eabc
00000180: 21d9 ec3d ed26 093e 2f45 033e 5c07 783d
00000190: 5109 d43d 3284 a4bd 9e96 ad3d 05a4 d03a
000001a0: 62f3 1b3d 5821 0abe 849c febc 6c9d 35be
000001b0: 671a 01be 0e50 b5bb 877d 413d 9924 693d
000001c0: 2a10 d1bd 9055 4ebc 53c3 0abe 8f57 3ebe
000001d0: 698f ad3d 7ac6 dbbd a468 3cbe 2089 1abe
000001e0: d6ab 0d3e 0ba4 173d 3d15 fb3d 9ab4 24bd
000001f0: a8df ed3d bcfd b4bd 6183 ec3c 03f3 f53c
00000200: f350 2abd b4f8 11bb a265 4cbe afba 45bd
00000210: 0603 773c 1f61 1b3e c191 06bd a1cb 01be
00000220: 4423 0ebe 0a6d 263b 0866 41be 26e1 77bd
00000230: 8e8d 0c3d ef6e a8bd 8bb3 73bd 5009 1dbd
00000240: 6c33 59be 3139 ad3d 96d0 1cbe 4b1f 723c
00000250: 5933 fabd 73fc 2c3d e259 143e c7f7 14bb
00000260: 4bb7 8cbc 24b8 00be e0d9 55bd 7018 ebbd
00000270: b7f4 0b3d ee76 e83d 318c 343d 61c1 aabd
00000280: 38a5 a23d 2715 8ebd a55a 6abe c3b3 babd
00000290: 2ccf 593c dd8d 913c d23e c8bb 9334 57be
000002a0: 38ed b73d 43b9 9e3d f500 5d3d 68ca 06be
000002b0: bfe4 d3bd 3c9c aabd 0f53 8fbd 31ee 4dbd
000002c0: f8d7 61bd 6e7a 14be 9448 4a3d fb7d dc3c
000002d0: d2ae 9b3d 7d2a 82bd 276c 71bd a226 c0bd
000002e0: 0492 1fbe 7825 a63d a7db a83d 48bb 973c
000002f0: 83ef f13d 7c25 75bd 875b 01be 67c8 97bd
00000300: d9fd bbbd 45de a0bd 9ce4 b33d 8781 24be
00000310: 9cd8 d4bd ab26 0fbe e593 d13d ad1c f5bd
0.025492378 0.122650884 -0.12401624 0.14077042 -0.14311504 -0.2663256 -0.21554594 -0.104238
-0.08170641 0.020638866 -0.038920764 0.06083796 0.03932329 -0.16144887 0.007941649 -0.2516858
-0.17384754 -0.07526612 0.027055718 -0.15573739 0.03256447 0.118284166 -0.04631586 -0.24068965
-0.11093817 -0.067482606 -0.074858196 0.031321432 -0.079161726 -0.064418696 -0.08615238 -0.044873513
-0.012892562 -0.09979591 0.12687033 0.02934237 0.0026919425 -0.046939366 0.013085452 0.030781114
-0.07329022 -0.17561503 -0.0072858813 -0.010845381 0.09006478 -0.14970964 -0.12888254 0.07287687
-0.18297781 -0.12208197 0.11093953 -0.13410617 -0.0112209 0.05870458 -0.1707686 0.16488546
0.06276236 -0.010024659 0.06560456 -0.1973597 0.15054189 0.114395574 -0.039688367 -0.019950869
-0.061841406 0.10950306 0.043596108 -0.08870476 -0.030250298 -0.09827989 -0.13030104 0.020023312
-0.13259561 0.16028814 -0.04600313 -0.15521325 0.04095632 -0.14325005 0.07208122 0.04260185
0.035998847 -0.20546274 0.120873034 -0.17461602 -0.09647997 0.08977881 -0.08902075 -0.0009819084
0.0736206 -0.026758043 -0.18304482 0.019951824 0.13376118 -0.14762656 -0.18037957 -0.028667772
0.115648516 0.13393755 0.1281936 0.060553893 0.103533395 -0.08033027 0.084759936 0.0015918022
0.038073905 -0.13489282 -0.031080492 -0.17735833 -0.12607728 -0.005533225 0.047238853 0.056919668
-0.10208161 -0.012593642 -0.13551073 -0.18588088 0.08474619 -0.10731216 -0.18399292 -0.15091372
0.13835081 0.037021678 0.1225991 -0.040211298 0.11614925 -0.088374585 0.02887124 0.030023104
-0.041581105 -0.0022273483 -0.19960645 -0.04827374 0.015076404 0.15173768 -0.032853846 -0.12675335
-0.1388064 0.0025394582 -0.18886578 -0.060517453 0.034314685 -0.08224284 -0.059497397 -0.03833896
-0.21211022 0.08458174 -0.15313944 0.014777969 -0.12216825 0.04223294 0.14487413 -0.0022730695
-0.017177245 -0.12570244 -0.052209735 -0.114792705 0.034168925 0.11350809 0.04407901 -0.08337665
0.07941669 -0.06937628 -0.2288614 -0.09116318 0.0132940225 0.017767841 -0.0061110044 -0.21016149
0.08980793 0.077501796 0.05395599 -0.1316315 -0.10346364 -0.083305806 -0.06998264 -0.050275985
-0.055137604 -0.14499828 0.049385622 0.02691554 0.07601704 -0.0635576 -0.058941033 -0.093823686
-0.15583044 0.08112615 0.0824502 0.01852192 0.11813261 -0.0598502 -0.12632571 -0.074112706
-0.09179277 -0.078548945 0.08783838 -0.16065036 -0.103928775 -0.13979594 0.10233287 -0.1196836

bn1.weight f4 [200]
00000000: b725 203f 4cab d33e 17a9 093f f8a1 2e3f
00000010: 9f22 df3c ffc8 e13e 76b2 823e ac89 243f
00000020: bc64 b13e 589d 0c3e d9e9 5d3e aa18 013f
00000030: 8c73 fd3e 170d bc3e 6607 703f 7f9d 8f3e
00000040: 9d67 8e3f a3e0 013f a83a a43d 10fb 083f
00000050: b235 5f3f 43cb 6c3f 262a b53e e284 fe3e
00000060: ec41 353f c297 753f 2f02 013f d352 143d
00000070: 2605 0e3f f67a 4e3f 8742 953e 3dfd 493f
00000080: 0387 473f e9fb 003f 7630 653f 0aef 043f
00000090: b8fe 9a3e 306a 3b3f 7922 013e d52c 3f3f
000000a0: cbc5 0e3f 81ef 443f 9f8e 9d3e 48bb a43e
000000b0: 339b 513f 8629 3a3f 17b0 3b3f 7395 063f
000000c0: 38c7 0d3f cea0 e93e 464f 343f ae39 253e
000000d0: 5902 083f 5701 113f 42b9 2c3f 4d44 ca3e
000000e0: 1497 893e 2a1d 973e 8ced 493e de1b 2e3f
000000f0: 7285 253f dcb0 3c3f eb66 f53e 598d ea3e
00000100: f0b0 693e 486a 633f 38b9 7b3e c3c6 053f
00000110: 38fe b33e c414 643e 2604 dd3e e6ad d93e
00000120: 6815 0f3f 0e30 1e3f 5c7e fc3e 8d9d ca3e
00000130: d63e 343f 88c4 293f 6824 0c3f 4520 403f
00000140: 3f10 413f a601 153f 3bcd 8c3e 2015 253e
00000150: f8a6 9b3e e9d9 943e 3549 0a3f 45fb 713f
00000160: abdd 8f3e 9d70 d83e 1fe4 4b3f e7ff e43e
00000170: 44c4 a33e 43aa 203f e849 4c3f 462e 8f3e
00000180: ffd5 073f 92da ec3e ce2e 003f 6dc0 a93e
00000190: c507 323f 56ed a53e 7edf 963e f39e 3e3f
000001a0: 68d5 4f3e 2134 223f 95b7 cd3e fefe b43e
000001b0: 3763 443f 4ca4 593f d490 993e 7164 0e3f
000001c0: 72b6 283f 66bb 3e3f e52f 303f 0868 d13e
000001d0: 7a62 9f3e 6a82 513e 02a5 bb3d c1b4 3c3f
000001e0: bc77 0a3f 84c9 0e3f 5742 2c3f d821 7f3e
000001f0: f9ee 483f a627 ff3e 33ef 673f f093 173f
00000200: 4e9c 123f 7c88 063f 8679 1f3e 8ed6 703f
00000210: 6dd8 533f 7311 513f 1cd4 443f 49cf 4e3f
00000220: a9a8 1f3f f9f6 ff3e 52fc b63d bcb2 7f3f
00000230: 933e 863f 0dd9 e53e 6bc8 4e3f 6402 c23e
00000240: 981a 073f f784 8d3e 229f 983e 89f5 193f
00000250: 4ea7 b53e 2ed1 533f c766 ca3e ca07 d73e
00000260: 58a8 283f b239 c23e baab 553f 6ea1 9b3e
00000270: ed72 323f e02f 613f 7ca6 ab3e 377d 0d3f
00000280: f74f d03e 69f9 c53e e910 203f 6704 223f
00000290: 881a 4d3f 5a41 0d3d 19f5 873e aed6 203f
000002a0: 11e6 553f 524a 203f 8bcd fc3e 6b76 1d3f
000002b0: 0a86 be3e cdcb 3e3f 95ce 143f 8779 263f
000002c0: 2fd7 123f 8fc8 f73e f948 2d3f 5ae8 d43e
000002d0: 0be2 2d3f 7986 2f3e 8cb2 143f 0054 303f
000002e0: 2279 3e3f 8187 153f 9b0f 463f 2761 563f
000002f0: a9c5 063f 18b5 383f 238f 0c3f a195 933e
00000300: 4569 043f 1da7 493f 7f75 2f3f c9f1 923e
00000310: d244 123f 5a67 e63e 9a53 d73e f350 143f
0.6255755 0.41341627 0.53773636 0.68215895 0.027238188 0.4409866 0.2552678 0.6427257
0.34647167 0.13731897 0.21671237 0.5042826 0.49502218 0.36728737 0.9376129 0.28049847
1.112537 0.50733393 0.08019 0.5350809 0.8719131 0.9249765 0.3538372 0.49710757
0.70803714 0.9593469 0.50393957 0.0362118 0.55476606 0.80656374 0.2915232 0.78902036
0.77940387 0.50384384 0.8952707 0.51927245 0.3027246 0.73208904 0.12610807 0.74677783
0.5577056 0.76927954 0.30772874 0.32174134 0.8187744 0.7271961 0.73315567 0.5257179
0.5538211 0.45630497 0.7043346 0.16135284 0.5312858 0.5664267 0.6747018 0.39505234
0.26873076 0.29514438 0.19719523 0.6801127 0.64656746 0.73707366 0.47930083 0.45810965
0.22821403 0.8883405 0.24582374 0.5225641 0.3515489 0.22273546 0.43167228 0.42515486
0.5589204 0.61792076 0.49315155 0.39573327 0.7040838 0.6631551 0.5474305 0.7504924
0.75415415 0.5820564 0.27500328 0.1612134 0.30400825 0.29072502 0.54017955 0.9452403
0.28098807 0.42273417 0.7964496 0.44726488 0.31985676 0.627598 0.7980027 0.2796499
0.5306091 0.46260506 0.5007142 0.33154622 0.69543105 0.32407635 0.29467386 0.7446129
0.20296252 0.6336079 0.40179124 0.35350794 0.7671389 0.8501632 0.29993308 0.5562201
0.6590339 0.745047 0.6882308 0.40899682 0.3112982 0.20459905 0.09162332 0.7371331
0.5408895 0.5577624 0.67288727 0.24915254 0.78489643 0.49834937 0.90599364 0.5921011
0.5726975 0.5255201 0.15573701 0.94077384 0.82752115 0.8166725 0.76886153 0.8078504
0.6236673 0.49993113 0.08934845 0.998821 1.0487846 0.4489216 0.80774564 0.3789245
0.52774954 0.27640507 0.2980891 0.6014028 0.35479206 0.8274106 0.39531538 0.4199813
0.6588187 0.37934643 0.8346516 0.303966 0.6970661 0.87963676 0.33525455 0.5526919
0.40686008 0.38666847 0.625258 0.6328797 0.8011861 0.034486152 0.26554182 0.62827575
0.8355418 0.62613404 0.49375567 0.61508816 0.3721164 0.74529725 0.5812772 0.65029186
0.57359594 0.48395202 0.6768947 0.4158352 0.6792304 0.17141141 0.5808494 0.68878174
0.74403584 0.5840989 0.7736756 0.8374199 0.52645355 0.7215133 0.5490591 0.28825095
0.5172313 0.7877062 0.6853866 0.28700092 0.5713626 0.45000726 0.4205597 0.5793602

bn1.bias f4 [200]
00000000: a6e3 843d 39d5 4c3e ed97 e53d fbe8 a23d
00000010: 3e75 913e 4bae 4b3e 7bd3 813d a832 413e
00000020: 78d1 53bd e72c 9fbe a5b7 34be 3f7b 0c3e
00000030: 3884 67bb 82f0 013e 9995 0b3e df05 af3d
00000040: 828d 6b3d 5d6a 843d 2e61 8dbe 9b41 e03d
00000050: cf22 d5bb 493d 8bbd 49c1 033e 40f5 483d
00000060: bd8a 863c 6b9b 933b e951 523e 3d8e 50be
00000070: f0f8 143e 3877 473d b080 043e 3cde ce3d
00000080: 010e 4dbd 5567 033e 661c bcbd e516 3b3e
00000090: 766a 0dbd e262 fe3d 62a6 a93e 3a21 333d
000000a0: 8a75 273e e69f 3f3d c21f 213e 0c3e 76bd
000000b0: 62ba 303e b717 f0bd f02d 1e3c 6b55 adbc
000000c0: 1829 1cbd 096a 93bc cf50 233e 6921 873d
000000d0: fffa dcbd 737d bfbd afcd b93d 61c2 5c3e
000000e0: 420f 823b 6cc6 a43c 8286 30be 014a c63d
000000f0: a616 a13d a02e 253d 7dd5 adbd 330f c03d
00000100: e880 4abe 80eb 10bd 288d 813d c993 373e
00000110: 4cca ad3c fb0b 233e d7ec 3a3d 2d08 273d
00000120: 3a28 1d3e 1e13 1bbe 4e3a d3bd 024e 813d
00000130: 8ead 013d aac0 1e3e 7b0a 203d e95d 6c3e
00000140: d681 163e 3aee fd3c ff0a 003c e999 62bd
00000150: 9be0 8bbd a352 2d3e 3810 0b3e 994d 973d
00000160: dcad 24bd b39b babd 2e73 92bd 543f ab3d
00000170: a20c 473d 3f71 903c dd6e 933d 645b 89bd
00000180: 1154 913e 2812 6fbd e6e0 7c3b 3ec1 fa3d
00000190: 7d7f 0bbe d8ae a83d 0e7b 193e a944 113c
000001a0: 30f0 273e 6292 b13d 3ace 053e ae02 813d
000001b0: 9b84 033e 3a57 503e ce75 b7bc 5c45 5bbd
000001c0: 7a52 f13b 23fb 85bd c11c ca3d b444 493a
000001d0: 5f63 9e3b 05e5 24be 684a 823e ea7f b3bd
000001e0: 101d fd3d e544 2bbd aaca 2abc dbd6 6b3e
000001f0: 9908 053e 5e19 103d 51c6 b53d ff5e 083c
00000200: 4292 eb3d fafe 95bd 9313 21be 5cbd 02bd
00000210: f1a1 563e 1ae5 ca3d fc26 613c 91a3 b1bd
00000220: 8906 a4bd 6fca 01be 4535 92be 76de c73d
00000230: 4728 cd3d 2bcf ca3c 57a3 06be 204c bd3d
00000240: 565b 47bc 1c1c f73b bc73 e83d ee92 033e
00000250: ebf1 10be e88b cf3d af62 c13d aa0d e33d
00000260: 85f3 8bbd d35b e1bd 7cb3 70bd 4522 82bd
00000270: 295c 0b3e 77a4 183d d946 573e ec14 b93d
00000280: 37f3 9f3d d300 333d b536 fb3d 51a2 743d
00000290: d601 a13d 67de 303e 0268 ffbc 7baf a6bd
000002a0: deba a1bc eb32 933c 56d6 ba3d 3f65 783d
000002b0: 1a38 cbbb 2250 213e d618 783d ba9a 9abd
000002c0: ba32 093e a55e 263e a1b4 97bc 882d a93d
000002d0: 2dcc 8bbc 969a 293e ace6 f23d 3606 3b3e
000002e0: a559 a03d 28de 053e 76d7 5b3c a78a 6a3e
000002f0: 1f5e 233e 7a1e 803e ead5 98bc cf05 2b3e
00000300: 6bb0 663e 961f 5f3e 45d1 2c3e 39b1 2d3e
00000310: 32ce 313c 940f c93c 250b a73d fe6d 0d3e
0.06488733 0.20003213 0.11210618 0.07954594 0.2840976 0.19890706 0.06339165 0.1886698
-0.051713437 -0.31088945 -0.1764818 0.1371889 -0.0035326611 0.12689403 0.13631286 0.08546042
0.057508 0.064656 -0.27613205 0.10950013 -0.0065043936 -0.067987986 0.12866701 0.049062014
0.016423577 0.0045046113 0.20539059 -0.2036676 0.14548087 0.04869768 0.12939715 0.101009816
-0.050062183 0.12832387 -0.09185104 0.18270452 -0.034525357 0.12421204 0.33134753 0.04373286
0.16353431 0.04678335 0.15734771 -0.060117766 0.172586 -0.11723273 0.009654507 -0.021158895
-0.038125128 -0.017994897 0.15948795 0.06598169 -0.10790061 -0.093500994 0.09072434 0.21558525
0.003969104 0.020114146 -0.1723881 0.09682084 0.07865648 0.04032767 -0.08487985 0.09377899
-0.19775736 -0.03538084 0.063257515 0.1792747 0.021214627 0.15922539 0.045636024 0.04077928
0.15347376 -0.15144011 -0.10313855 0.06313707 0.031659655 0.15503183 0.039072495 0.23082699
0.14697966 0.030997384 0.007815122 -0.05532256 -0.068299495 0.16926055 0.13580406 0.073878475
-0.040204868 -0.091117285 -0.07150875 0.08361688 0.048596032 0.017632125 0.0719888 -0.067068845
0.2838445 -0.058366925 0.0038586198 0.12243889 -0.13622852 0.08236474 0.14988348 0.0088664675
0.16400218 0.086704984 0.1306695 0.06299339 0.12843554 0.20345774 -0.02239504 -0.053532943
0.0073645683 -0.06542041 0.098687656 0.0007677779 0.0048336233 -0.16102989 0.25447392 -0.08764632
0.12359059 -0.04181375 -0.010424295 0.2303118 0.12991561 0.035180442 0.088757165 0.00832343
0.11502506 -0.073240235 -0.15730123 -0.03191887 0.20960213 0.09906979 0.013742205 -0.08673776
-0.08009059 -0.12674879 -0.28556266 0.09759228 0.10017448 0.024756989 -0.13148247 0.09243035
-0.012167772 0.0075411927 0.113501996 0.12849018 -0.14154784 0.10134107 0.094426505 0.110865906
-0.06833557 -0.11003842 -0.05876492 -0.06354193 0.13609375 0.03726622 0.2102312 0.09037194
0.078100614 0.043701958 0.12266294 0.05972511 0.07861678 0.1727234 -0.031177524 -0.08138939
-0.019742426 0.017968616 0.091229126 0.06064343 -0.006201756 0.15753224 0.06057056 -0.07549043
0.13398257 0.16247042 -0.018518748 0.082606375 -0.017065132 0.16562876 0.118604034 0.18264088
0.07829598 0.13073027 0.013418069 0.22904454 0.15953873 0.25023252 -0.01865669 0.16701435
0.22528236 0.21789393 0.16876705 0.16962136 0.010852383 0.024543561 0.081564225 0.1381149

bn1.running_mean f4 [200]
00000000: b931 1c3f 066b 623e 376d 383e 2e83 0b3e
00000010: ec46 3a3e 97f8 853d 5210 b43d 6ada 843e
00000020: 1818 e83e 4d8d 8e3d 8f1d 003e 8883 3f3e
00000030: f780 b83d 3442 243e 00f0 8f3e 95c0 5f3d
00000040: 8514 a63d 1529 223e 8612 413e f1e9 883d
00000050: edf3 3f3e 908f 0b3e 0132 b93d 9f38 823d
00000060: 0c20 1e3e 5e05 013e 5625 583e bf70 5c3e
00000070: 0b5f 3c3d d55d 2d3e 5a09 8b3d ece1 043e
00000080: 13e6 463e 9edf b73d 434d 7e3e 8635 483e
00000090: bcf1 e33d 5154 223e 4de7 c13e 3609 303e
000000a0: c9f0 b73e 67fa ba3d fd66 d33d cf33 563e
000000b0: 95b1 e33d 7bbb 1d3e ec3f b83e 7e74 1e3e
000000c0: d986 183e 7cfb 003e a870 d93e 0eb2 ce3e
000000d0: 4103 673e 3ddf f73d f2e9 5e3e e139 dd3e
000000e0: fb31 d53d 6e56 753e 95ae 683e 1254 c73d
000000f0: 91c4 0d3e 3f9e ef3d ab3e 143e 696a c23d
00000100: 4472 b83d 37a6 5a3e 832a ff3d 5968 0d3e
00000110: 1b1d f83d 98b7 f73d 9ac6 c33d 838a 053e
00000120: 5447 413e e7af 963e 162e 443e 4807 103e
00000130: ff0f 703d 41b7 de3d 20fd 2e3e 1faa 193e
00000140: 6432 c03d ed40 883d 226b 593e c484 ef3d
00000150: ebac 9a3e b0cd fe3d 5652 f83d 8878 f43d
00000160: 833f 273e 1656 453e 5946 b73d 3403 933d
00000170: 76d1 c23d 9604 de3d 8d7c d43d cd91 1d3e
00000180: ec4f 563e c658 bc3d bd2f af3e fdab 9e3e
00000190: c659 193e 533a 9b3d ed78 d53d f62f aa3d
000001a0: f7ee b43e 1b78 403e ed3d f83d e16e d73d
000001b0: f505 963d a7e5 f83d 9e98 233e 934f 1b3e
000001c0: eee4 a33e 5f15 393e 379a ad3d 01e8 5c3d
000001d0: 485f 6b3e 07c7 a23e 5791 b73e 566e 033e
000001e0: f2dc a53e 86d9 c93e d201 b53e 81fb 123e
000001f0: d5e1 383e dbb6 033e 12f5 1c3e 7895 963e
00000200: e6ea 093f 1665 213e 496c dc3d 3f86 403e
00000210: ec67 4d3e db87 413e ac55 e03d e7d8 c83d
00000220: e484 ed3d 4286 6b3e ba8e ad3e b7ab 023e
00000230: 05ba 2b3e d905 2c3e 9586 8d3e 41fd d23d
00000240: 3188 b83d e240 5b3e 9204 083e daed b33e
00000250: fc04 693e e96d 633e 1cad cf3d 2f71 883e
00000260: 5680 f23d 7f4f 113e 1a16 2d3e 45c2 383e
00000270: aa37 be3e 7487 243e 3985 243f cac2 903e
00000280: eeba 2d3e 7003 393e 3ba4 ed3d 5fd2 cf3d
00000290: 805e dd3e 382e d13e 632a 693e 787a 8a3e
000002a0: 4b08 733e da8e 873e 74df e63d 6f4b 913e
000002b0: 29ce 9f3d 9adb 1b3e 8c93 1b3e c781 d63d
000002c0: f486 423e 0797 873d c251 433e efea e63e
000002d0: 0a3e 133e 0a7b 4e3e f435 0a3e 0fee 2f3e
000002e0: 0c72 893e 8de1 023e 3ebc 293e 2ae6 b33e
000002f0: 96fe ee3d 28ec ca3d ebc7 673e 5ddc 803e
00000300: 6b01 243e bcb4 753e 040e 1c3e e411 823e
00000310: 7a89 d33d 8763 223e 5dc7 c03d 51fd 8c3d
0.6101337 0.22111139 0.18010412 0.1362426 0.18191117 0.065415554 0.08792175 0.25947887
0.45330882 0.06960545 0.12511276 0.18702519 0.09008973 0.1604088 0.28112793 0.05462702
0.081093825 0.15835984 0.18854722 0.06685246 0.18745394 0.13628983 0.090427406 0.06358456
0.15441912 0.12599704 0.21107993 0.21527384 0.045989078 0.16930325 0.06788893 0.12976807
0.19423704 0.089781985 0.2483416 0.19551668 0.111300915 0.15852477 0.3787178 0.17191014
0.35925892 0.09129792 0.10322378 0.20918201 0.111178555 0.1540355 0.3598627 0.15474126
0.1489519 0.12595934 0.42468762 0.4037022 0.22559835 0.12103126 0.2176893 0.4320822
0.10409924 0.23958752 0.22722848 0.09732832 0.13844515 0.11700105 0.14477031 0.094929524
0.090061694 0.21352468 0.1245928 0.13809337 0.121149264 0.120955646 0.095593646 0.1304112
0.18874866 0.29431078 0.19158205 0.14065278 0.058609005 0.10874797 0.17088747 0.15006302
0.09384611 0.066530086 0.21232274 0.11695245 0.3021005 0.124415755 0.12125079 0.11937052
0.16332822 0.1927112 0.089489646 0.07178345 0.09512608 0.108407184 0.10375319 0.1538765
0.20928925 0.0919662 0.3421611 0.30990592 0.14975652 0.07579484 0.104234554 0.08309929
0.35338566 0.18795817 0.121211864 0.10519195 0.07325355 0.12153178 0.15976188 0.15167074
0.32010597 0.18074559 0.0847668 0.053932194 0.22985566 0.3179247 0.35853073 0.12835059
0.3239513 0.3942377 0.3535295 0.14353754 0.18054898 0.12862723 0.15327862 0.2941091
0.5387405 0.15761217 0.10762841 0.18801211 0.20059174 0.18899481 0.109538406 0.09806996
0.115976125 0.23000434 0.33897954 0.12760817 0.1677018 0.16799106 0.2764174 0.103022106
0.090103514 0.2141147 0.13282993 0.35142404 0.22755808 0.22209896 0.1014044 0.26648852
0.118408844 0.14190482 0.16902962 0.18042858 0.37151843 0.16067296 0.6426578 0.28273612
0.1696584 0.18067718 0.1160359 0.10147547 0.4323616 0.40855575 0.22770076 0.2704656
0.23733632 0.26476175 0.11273089 0.28377864 0.07802994 0.1522049 0.15193003 0.10473972
0.18996793 0.06620603 0.19074157 0.45101115 0.14379135 0.20164123 0.13497144 0.17180656
0.26844823 0.12781353 0.16575715 0.3513654 0.11669652 0.099083245 0.22634856 0.25168124
0.16016166 0.23994726 0.15239722 0.25404274 0.10328956 0.15858279 0.094130255 0.06884254

bn1.running_var f4 [200]
00000000: e7c0 8c3e 017a 1e3e c3c4 9c3d 33e8 563d
00000010: f941 1a3e 6cb2 f23c 85dc 8f3d 2d07 bc3d
00000020: 4518 603e fdfb 093d d442 953d 9fc1 d33d
00000030: 330a 4d3d b58b d53d a6ba 4d3e 8cf0 2d3d
00000040: 6253 cb3c d46e de3d 54c3 243e 55f8 743d
00000050: 37b3 bc3d 7930 c03d a052 723d 74ae eb3c
00000060: 60f8 b53d 204d 453d a77a 803d 1a17 1d3e
00000070: 9f6d b73c c006 6a3d c8c0 403d a3af 953d
00000080: bf9f c73d e033 1c3d b98d da3d 99f1 c13d
00000090: 8325 813d 7cd1 a73d 1977 8b3e c1fa ba3d
000000a0: 12fc 353e 4fd3 ed3c 2203 953d 197b cb3d
000000b0: 6ee2 333d af6c 9b3d 9247 7f3e 375e 4d3d
000000c0: 6250 0a3e 001e 693d 1b71 423e 7726 a03e
000000d0: 16ea de3d 6065 4d3d c5fd 8e3d cb09 083e
000000e0: d668 4a3d e8c1 3c3e fee8 893d 169b 4d3d
000000f0: e3c3 a43d 9878 6a3d 0c48 943d 8176 543d
00000100: bf98 d93c f249 7a3d 52d6 7c3d e8d8 8e3d
00000110: 865d 1a3d 0bc3 9c3d 3c43 4d3d 9816 6a3d
00000120: 5ca1 f23d 64ad 333e 357b 1f3e 6a7b d33d
00000130: 7bea a83c 3da8 393d 1baa 993d 6e1f 7d3d
00000140: cb11 d53c f28c e73c a793 f23d 74be 533d
00000150: 7818 3a3e 428f 3d3d 2e7e b43d 0c3e 6c3d
00000160: 3960 d03d 6b84 023e 4779 253d a7cf f93c
00000170: 6318 473d c23a 173d 545c 813d dc74 8b3d
00000180: b79e 433e 77b4 853d 3e9f 4b3e 9dfa 7a3e
00000190: ce9a 873d ccad 9d3d 72a0 dd3d 0f67 063d
000001a0: 0471 853e fafc f03d 3f54 a13d 89a3 7b3d
000001b0: 56a5 d93c af9c 703d 2af3 083e ee3e a63d
000001c0: c0bf 613e 199d cd3d 34ef e73c fd32 9d3c
000001d0: 1c54 093e e497 e43d 574b 803e eedc a23d
000001e0: a548 e33d 86cd 8b3e 296c 933e 8cda 803d
000001f0: 1896 fa3d 184f 803d b567 913d d987 553e
00000200: 40b6 7d3e 3f1f a43d 8d63 333d ab8a 8b3d
00000210: 1ecd 783d f98e 3f3e ac9b 053d ec1e 083d
00000220: c334 913d 1a7c 053e a0e8 8d3e 37d6 3e3d
00000230: d843 623d e9e8 de3d 6ad8 043e c282 573d
00000240: cd04 1d3d 9bed a93d 524d 8c3d 31a7 7b3d
00000250: 6f2f 223e 126a 1e3e a1f8 413d 6e77 ef3d
00000260: 6043 993d 0605 a63d 0e04 8b3d 77a1 ad3d
00000270: 557d 973e a605 3d3d 785f b83e 3162 523e
00000280: 01dc 7e3d 3f40 0f3e b26e 043d 22a4 b03d
00000290: 6f5f 843e 09b7 a43e aed4 9c3d fd06 2e3e
000002a0: 0e9d 883d 7f82 3e3e e42b 8e3d 2fb1 2c3e
000002b0: 0884 d83c 1f04 333e 696c 7d3d 8997 8a3d
000002c0: 691e 983d b89f d13c 337a ba3d 32eb a53e
000002d0: c1d8 753d 3c32 293e 58f6 823e 322d 9b3d
000002e0: f7a8 033e 532e 4a3d cbd0 c03d 7b97 f43d
000002f0: 7c6c 533d 04a4 333d a4ed d83d d24a 0b3e
00000300: 700b 4e3d a1e9 073e 6310 cc3d 320b 1b3e
00000310: aa88 3d3d a4e3 5f3d 9e04 233d c7b9 e33c
0.27490923 0.15476228 0.07654717 0.052467536 0.15064229 0.029626094 0.07024483 0.09181056
0.21884258 0.03368758 0.07288137 0.10339665 0.050058555 0.104270376 0.20090732 0.04246573
0.024820033 0.108609825 0.16090137 0.05980714 0.0921387 0.093842454 0.05916083 0.02876971
0.088852644 0.048169255 0.06273394 0.15340844 0.022391139 0.057135344 0.04705885 0.07308891
0.09747266 0.03813541 0.10671563 0.09469909 0.06305983 0.08194253 0.27239302 0.09129859
0.17771938 0.029031424 0.07275988 0.099355884 0.043917112 0.07589089 0.24929646 0.05013868
0.13507226 0.056913376 0.18988459 0.31279346 0.10884492 0.050145507 0.069819964 0.13284986
0.049416386 0.18433344 0.06733893 0.05019673 0.08045175 0.057243913 0.07240304 0.051870827
0.026562093 0.061105676 0.06172783 0.06974965 0.037686847 0.07654389 0.050112948 0.057150453
0.11847183 0.17546612 0.15574344 0.10326274 0.020619622 0.04532646 0.07503148 0.06179755
0.02600946 0.02826545 0.11844569 0.051695302 0.18173397 0.0462792 0.08813129 0.05767636
0.10174603 0.12745826 0.040398862 0.030494524 0.04860724 0.03692127 0.06316438 0.068093985
0.19103514 0.065285616 0.19884965 0.24509664 0.066213235 0.07699165 0.10821618 0.032813128
0.26062787 0.117670015 0.07877397 0.061435256 0.026568096 0.058743175 0.1337401 0.08117472
0.22045803 0.100397296 0.028312303 0.019189352 0.13410991 0.11161783 0.2505748 0.07952295
0.1109784 0.2730524 0.28793457 0.062916845 0.12235659 0.06265086 0.07099859 0.20852603
0.24776554 0.08013772 0.04379611 0.06813558 0.06074249 0.18706883 0.032619163 0.033232614
0.070901416 0.13035622 0.2771654 0.04659101 0.055240482 0.10884268 0.1297318 0.052614935
0.038334657 0.08297273 0.06850685 0.061438743 0.15838407 0.1547015 0.04735625 0.11692701
0.07483554 0.08106427 0.06787883 0.084780626 0.29587808 0.046147965 0.36010337 0.2054527
0.06222153 0.13989352 0.03233213 0.08625056 0.2585406 0.32170895 0.07657753 0.16994853
0.06670581 0.18604468 0.06941965 0.16864465 0.026430145 0.17482041 0.061870966 0.06767184
0.07427675 0.025588855 0.09105339 0.32406002 0.060021166 0.16523069 0.2557857 0.0757698
0.12857424 0.049360584 0.09414824 0.11942955 0.05161713 0.04385759 0.10592201 0.1360276
0.050303876 0.13272716 0.09964063 0.1514099 0.04627291 0.054660454 0.039799325 0.027798546

fc2.weight f4 [400, 204]
00000000: 9797 073d a1df cbbc 554d 9abd 4ec0 1a3c
00000010: df3b e9bd ccca 6bbd 8d2f 173d 73fa bfbd
00000020: 8236 7e3d 0802 123e 1cdb 1d3d 955d 9c3c
00000030: d612 8f3d fc20 153d 9012 b63c 8f16 a7bd
00000040: 8fc7 94bd 64b9 953d 82a1 bb3d 0a4d ebbd
00000050: 7284 533d 4dbb c03b 57c5 cdbc 0c67 ca3d
00000060: 4b79 a8bc 1d5d babd 401d b83d 497a c43d
00000070: a8ca 78bc 10dd cfbd 066c acbd da27 a3bc
00000080: bc7f efbd 3e3b b2bd 9616 64bd 9c77 aabc
00000090: 5690 993b fdba 7e3c 2d67 f5bd 9b9d e13c
000000a0: b882 6fbd 2f3a 5fbd d136 aabd 95db 01bd
000000b0: 7150 fa3c d86c 62bd ceba 313c 9af1 733d
000000c0: e40c dabc 4684 7f3d 6e59 fcbb 709c 95bd
000000d0: 619e 833c 1fb7 41bd 2f68 633c a5b0 77bc
000000e0: 2471 533c 9c75 edbb 5558 ca3d 9570 c63c
000000f0: 1f7a e53a cb35 34bc e291 4f3c 6a8e eabc
00000100: be8c 913c 4c96 c2bc 0679 c5bc 1a7c 553c
00000110: 3acb 3d3d f530 92bd 8f5e cbbd 3aee abbd
00000120: a7ac acbb 1ab2 343d c393 6a3c 3d30 5c3b
00000130: a303 8d3d 810d 203d 6b43 603c acd8 63be
00000140: 277c d23c 0c3f 9a3d c211 223d 516b e7bd
00000150: 81d2 db3d 1c7f 9ebd 7959 4abc 42a7 d03c
00000160: 816d ee39 6472 82bd 2732 5ebd 31da 8ebc
00000170: 5593 ff3d 1a02 433d 9815 283d 4edc 533d
00000180: 7190 84bd 678a 433d 3153 12bd 6822 89bc
00000190: 78da 7b3c 698f 823c 2c94 0dbd 67f9 2fbd
000001a0: f7fd 56bd c5f5 67ba c70d 53bc 158e b1bc
000001b0: fe72 c23b b1fa 77bd 5c6d ed3d 699c ba3c
000001c0: 419c cdbb 5bba dc3d 0f67 89bb 28ec 07be
000001d0: 5c44 05bc fdcb 463d f73f 6cbe 547a bcbb
000001e0: 14b4 6e3d 2b6d 663c fa99 193d 782a 223d
000001f0: beaa 42bc cd3c febc ec64 ae3c 59a4 59bd
00000200: eb66 94bc e7f1 1c3d 0d40 08bd a367 63bb
00000210: 5c3c 443d c473 35bc 781a 14bd c7bc 383d
00000220: 49cd 853c 02e7 5e3d e6ab fd3d a32c a3bd
00000230: 2387 0c3d f455 c6bd 9ad0 6c3c 90f8 873d
00000240: 9d88 d4bb ea4b 98bc 8a9a 4f3d 79d3 7dbd
00000250: 0131 2fbd 928c a83d 8f96 023d aba3 b8bc
00000260: 58e0 df3c 55a3 3fbd e7e6 29bd 9ffb 503d
00000270: 6883 5a3d 61e1 093b 22fe 923a 558f 43be
00000280: 18a2 92bd ad67 3bbd eda9 f73c f888 c63b
00000290: 9ef6 1bbd 08a6 83bd 1963 9ebb 2aa5 103e
000002a0: 2061 3b3c 6e2d 82bc 2a86 bfbd 9a5f 093d
000002b0: d8a2 03bc 5f6e d2bc 4586 c83b fb6f 1ebc
000002c0: 67a5 283d 62ac 5d3d 05a5 f5bb dc46 b5bd
000002d0: cd16 d13c 3376 da3b 21a7 933c 1741 133d
000002e0: 71f4 843c eee1 e4bc c16b 793d e05d 88bd
000002f0: b5c2 13bd e95a 4cbe ece9 8a3d 2693 42bc
00000300: fc15 77bc 80f9 4cbd 1800 a33d 53ed d33c
00000310: 4c27 f4bc 4b5b 3fbd e18f aa3c c57e 4ebd
00000320: 3111 0cbd 5d95 d3bc 6d1a 303b d6f6 e6bc
00000330: 0e94 6e3d c876 24bd 0473 26bb e972 de3d
00000340: 07ed 51bd f442 bfbc e768 723b 22b8 3ebd
00000350: 8a00 46bd 2ebc 9f3d e72b a93d 105a b4bd
00000360: 9796 0abd f7ec a43a 36a2 0f3b c297 b5bd
00000370: b852 a5bd 897e 813c 1e0b 703b 2568 a4bc
00000380: 377d c7bd 3087 50bb b1c5 4abc 64c9 c7bc
00000390: 8ee7 183d a826 353d 9e5d 27bd be4c 403d
000003a0: ae8e c5bd c42d 753d c5ec e1ba 9b34 61bc
000003b0: e180 093d 73cd 0fbc 0212 d63c ca99 7b3c
000003c0: 3588 26bc fb6b fd3c 80b8 57bd bd04 ab3d
000003d0: 3e63 b93c fe25 783d 3305 eebc 7fea 19bc
000003e0: de94 773d 3eeb 2e3d c89e 8f3c 7081 923c
000003f0: 4a14 2cbc 17dc 1cbe 15fc 863c 896c ecbb
0.03310355 -0.024886908 -0.07534281 0.009445263 -0.11388373 -0.05756645 0.036910582 -0.09373941
0.0620637 0.14258587 0.038539037 0.019087592 0.069860145 0.03640841 0.022225648 -0.081585996
-0.07264625 0.07310751 0.091616645 -0.114893034 0.05163998 0.005881703 -0.025118513 0.09882936
-0.02056565 -0.09099791 0.08989954 0.095936365 -0.015185036 -0.10149586 -0.08419041 -0.019916464
-0.11694285 -0.08702706 -0.055685602 -0.020808987 0.0046863956 0.015547511 -0.1198257 0.027540972
-0.058474272 -0.054498848 -0.08311237 -0.03170355 0.030555936 -0.055279583 0.01084776 0.05955658
-0.026617475 0.062382005 -0.0077010905 -0.07305229 0.016066732 -0.04729378 0.01387982 -0.015117799
0.012905393 -0.007246686 0.09880129 0.024223605 0.0017507708 -0.010999153 0.0126690585 -0.028632361
0.017767306 -0.023753308 -0.02410556 0.013030076 0.04633639 -0.07138244 -0.09930145 -0.083950475
-0.005269605 0.044115163 0.014317456 0.0033598088 0.06885459 0.03907538 0.013687949 -0.22250623
0.025693966 0.075315565 0.039567716 -0.11299766 0.1073351 -0.07739088 -0.0123504335 0.02547038
0.00045476484 -0.063694745 -0.054247048 -0.017438026 0.12479273 0.047609426 0.04103622 0.05172377
-0.064728625 0.047739413 -0.03572387 -0.016740039 0.015371911 0.015937524 -0.034565136 -0.042962458
-0.052488293 -0.0008848573 -0.012881703 -0.021674195 0.0059341183 -0.060541812 0.11593124 0.02277966
-0.0062747304 0.10777732 -0.0041931937 -0.1327368 -0.008133974 0.048534382 -0.23071276 -0.0057518873
0.058277205 0.014064114 0.03750036 0.039591283 -0.011881528 -0.031034851 0.021288358 -0.05313525
-0.018115481 0.038316634 -0.03326421 -0.0034699223 0.047909126 -0.011074964 -0.036158055 0.045101907
0.01633324 0.054419525 0.12386303 -0.07967498 0.034308564 -0.09684363 0.014454031 0.066392064
-0.006486012 -0.018590886 0.05068449 -0.061969254 -0.042771343 0.08229937 0.031881865 -0.02253898
0.027328655 -0.046786625 -0.04147997 0.051021215 0.053347975 0.0021038877 0.0011214653 -0.19097646
-0.07159823 -0.04575317 0.030232394 0.0060588084 -0.03807699 -0.06428152 -0.0048335907 0.14125505
0.011436731 -0.015890803 -0.09351762 0.03353844 -0.00803443 -0.025687395 0.006119522 -0.009670253
0.041173365 0.054119475 -0.0074964785 -0.08851406 0.025523568 0.0066669225 0.01802403 0.035950746
0.01622984 -0.027939763 0.060893778 -0.0665853 -0.03607436 -0.19956554 0.06782898 -0.011875903
-0.015080925 -0.05004263 0.07959002 0.025870001 -0.029803894 -0.046717923 0.02082056 -0.050413866
-0.034196083 -0.025828058 0.002687122 -0.028193872 0.058246665 -0.04015234 -0.0025398144 0.10861761
-0.051251438 -0.023347355 0.0036988796 -0.04656232 -0.048340358 0.07799564 0.08260327 -0.088062406
-0.03383502 0.0012582828 0.0021916754 -0.08866836 -0.08072418 0.015807407 0.003662772 -0.020069191
-0.0974068 -0.003181886 -0.012376235 -0.024388023 0.037330203 0.04422632 -0.040860765 0.046948187
-0.096463546 0.0598581 -0.00172367 -0.013745452 0.033570174 -0.00877701 0.026131634 0.01535649
-0.01016431 0.030935278 -0.052666187 0.08350513 0.02263033 0.060583107 -0.029055214 -0.009394287
0.060444705 0.042704813 0.017531767 0.017883986 -0.010502884 -0.15318333 0.016477624 -0.007215087

fc2.bias f4 [400]
00000000: cd8e ddbd 8d2c 833c d4bc b0bd 9ed0 11be
00000010: 220d eebd fc28 8fbd 23fa ac3d 0504 adbd
00000020: e495 5f3d 0629 4bbd 5b82 febd e807 c13b
00000030: dd9b 4cbd c780 17be caa1 183d 4880 2cbe
00000040: f328 ad3d b426 2abe 455a 34be fe1c c6bd
00000050: 94f0 71bc 176e 06be ba41 f4bd e7f6 d9bd
00000060: f0d2 07be 0fb1 1d3d 2255 053d e27b ebbd
00000070: 3281 bd3d 1598 06bd 68e9 013d 0185 afbd
00000080: 1d80 9c3c 6ba4 3b3e 4a80 81bd d171 fbbc
00000090: d658 963d 99ea 753c 37e3 cbbb 87f5 2abe
000000a0: 7c09 00bd c6a6 2dbe 516a 21be 5071 01be
000000b0: 2b69 9bbc c1e0 08be a71d e0bd 46c1 20be
000000c0: 12e8 2f3d c992 aabd cf0c c53d 0582 edbd
000000d0: 0602 1e3e ca6d a9bc d140 90bd 9ab3 d5bd
000000e0: 87d1 babd a7fa 36be 917f 20be 5353 32bd
000000f0: 7a0e 8ebd d860 04be d661 07be 4a04 c1bd
00000100: 3c58 ffbc 5161 bfbd 4167 183e 75ac 563b
00000110: 9895 30be b6a7 c1bd af81 aebd 847d b7bd
00000120: 4a86 f6bc 2448 a7bd 0ece 26be 4624 24be
00000130: 088e 213d 0c3b b9bd af71 8cbd 0a5c dabd
00000140: 4193 d7bd fa9f febc a981 d9bd de49 ef3d
00000150: abab 09be b847 03be d0a5 8cbc 76b3 20bd
00000160: 1f04 813d a677 ccbc a9f5 2fbd 5fba 1fbd
00000170: 1527 4cbb ff25 1abe e2ad 56bd 9f57 de3d
00000180: 1aa6 28be 6f91 03be 9abc 6c3d 2755 e93d
00000190: 50b4 10be e3d0 bfbc 2b86 06be d632 d9bd
000001a0: ab07 dbbd 6956 a7bd 1c5d 20be 2aa4 793d
000001b0: 9a39 af3d 70e9 11be d9f1 4f3d ce2f 95bd
000001c0: 61c3 bbbd 8b31 a13d 2fd2 23be 39ef ecbd
000001d0: 0722 9abc 0c3e 2f3d 618d d0bd 467b b4bd
000001e0: 562d 1bbe 4bba 01be ed9a ffbd aeda 25be
000001f0: 0fb1 db3c fbbe c8bd 0e30 a4bd 489e b6bd
00000200: edcc 763c 5c52 10bc bd0e 16be eb72 c0bd
00000210: 763b 953c 3248 18be 1e3f efbd a78b 2cbe
00000220: 228e 22be 3007 f8bd 8e96 e93b bfd9 06be
00000230: a723 11bd e9d9 843c 17a4 25be 1e5c 1bbe
00000240: 8689 46bd 69c6 9bbc 4756 20be fb05 c53c
00000250: 5a6f e1bd 1ebc 3fbb fdfa e0bd 856d 98bd
00000260: cb25 ebbd 6a3e 20be 3386 59bd 34ce 1b3d
00000270: aa13 07be b9b0 28be fbbb d0bd b796 97bd
00000280: fba3 8f3c d469 c1bd bc51 c6bd e6a0 efbc
00000290: 948f 8c3c 621a c6bd da99 a6bc 9a30 36be
000002a0: 063d 24bd de27 0e3e e041 2bbe bebd 17be
000002b0: 8dbf 95bd 7d49 bdbd cade 553c 04d3 4cbe
000002c0: 57ee bfbd d224 06be 2154 a6bd fcda a4bd
000002d0: 91c0 a8bd 8783 643c afd5 cabd dff8 bdbd
000002e0: 4d28 62bd 79c7 57bd 339a 3c3d cf42 ddbd
000002f0: 6ee5 0a3e 5774 1fbe 23c8 0fbe f7e4 6abd
00000300: 750e 07be 4510 1dbe 58d8 043d 44ff 08be
00000310: c793 74bd cc96 0cbe 9da3 18be 75ab f3bd
00000320: 1a99 8c3c c7b2 e63b 374d 64bd 2f13 6cbd
00000330: b634 b0bd 911d 9b3d 6ae4 febd ba01 37be
00000340: 68ce 88bd 04ec cebd 4315 00be 5e55 d6bd
00000350: 89f0 2dbd bc4d 88bd f779 81bd c954 cfbd
00000360: 5b97 34bd 8745 f8bc 0ee8 263d 7151 59bd
00000370: 0df8 20be 6025 81bd 8e5c 16be 42d7 d7bd
00000380: c0ec 12be cb4f 7cbd 048b 26be fecc 043c
00000390: fcd0 dcbb 58dc 83bd a981 19be 0b7a a1bb
000003a0: c436 b2bd 5308 7f3c ec92 cb3d 3415 8dbd
000003b0: 5634 e6bc 8493 52bc 3a26 d73d 96b2 2ebe
000003c0: d936 47be a97c 0fbe 3ba0 0dbe 9840 b9bd
000003d0: 0ec3 f0bd 6a85 1abe b068 1fbe ebb4 64bd
000003e0: aa4a 08be d3a4 f1bd 1a6e d0bd bf3b 76bd
000003f0: 079b 3f3e 14ac 6dbc ffeb edbc 9692 bb3d
-0.10818253 0.016012454 -0.08629766 -0.14239737 -0.11623599 -0.06990239 0.08446147 -0.08448032
0.054586306 -0.04959967 -0.12427207 0.005890835 -0.04995333 -0.14795218 0.03726367 -0.1684581
0.08455076 -0.16616327 -0.1761256 -0.096734986 -0.014766831 -0.13127933 -0.11926599 -0.10642796
-0.1326406 0.038498934 0.032551892 -0.11498238 0.09253158 -0.03285988 0.031716734 -0.0857029
0.019104058 0.18324439 -0.06323297 -0.03069392 0.07341163 0.015009546 -0.0062221545 -0.16695224
-0.031259045 -0.1695815 -0.15763213 -0.12640882 -0.018971046 -0.13366987 -0.10943156 -0.15698728
0.04294593 -0.08328778 0.09621584 -0.11597065 0.1543046 -0.020682234 -0.07043613 -0.10434647
-0.091219954 -0.17869054 -0.15673663 -0.043536495 -0.06936355 -0.12927568 -0.13220915 -0.09424646
-0.031170003 -0.093447335 0.14883138 0.00327566 -0.17244565 -0.094558164 -0.08520829 -0.08959487
-0.03009333 -0.081680566 -0.16289541 -0.16029462 0.039442092 -0.090444654 -0.06857621 -0.10662086
-0.10526133 -0.031082142 -0.10620434 0.11684011 -0.13444392 -0.12820327 -0.01716891 -0.039233647
0.06299614 -0.024959397 -0.04295889 -0.038996097 -0.0031151224 -0.15053557 -0.05241192 0.10856556
-0.16469613 -0.12848447 0.057797052 0.11393195 -0.14131284 -0.023415035 -0.13137119 -0.10605399
-0.10694822 -0.08170778 -0.15660518 0.060947575 0.085559085 -0.14249206 0.050767753 -0.07284509
-0.09168125 0.07870778 -0.15998147 -0.115690656 -0.018815054 0.042783782 -0.10183216 -0.08812575
-0.15154013 -0.12668721 -0.124807216 -0.16196701 0.026817827 -0.09802052 -0.08016978 -0.089169085
0.015063507 -0.0088086985 -0.1465406 -0.09396919 0.01821683 -0.1487129 -0.116819605 -0.16850148
-0.15874532 -0.12110746 0.007128543 -0.13169001 -0.03543439 0.016217189 -0.16175877 -0.15171859
-0.048470996 -0.019015508 -0.15657912 0.024050703 -0.11007567 -0.0029256414 -0.10985372 -0.07442764
-0.11481818 -0.15648809 -0.053106498 0.038038447 -0.13191095 -0.16473664 -0.101921044 -0.074017935
0.017534247 -0.09444013 -0.09683558 -0.029251527 0.017158307 -0.09673001 -0.020337034 -0.17791978
-0.04009726 0.13882396 -0.16724348 -0.14818475 -0.07311926 -0.092425324 0.013053605 -0.20002371
-0.093716316 -0.13099983 -0.08121515 -0.080495805 -0.08239854 0.013947374 -0.09904038 -0.09275984
-0.055214215 -0.052680466 0.046045493 -0.10803758 0.13564083 -0.15571724 -0.1404119 -0.057347264
-0.13189109 -0.15338238 0.032432884 -0.13378626 -0.059711244 -0.137294 -0.14906164 -0.11897937
0.017162848 0.007040355 -0.0557377 -0.057635482 -0.08603804 0.07573999 -0.1244591 -0.17871752
-0.06679994 -0.1010361 -0.1250811 -0.10465501 -0.04246572 -0.06655452 -0.06322091 -0.10123593
-0.044089656 -0.03030659 0.04074865 -0.053056184 -0.15719624 -0.06305957 -0.14683744 -0.10539104
-0.14348125 -0.061599534 -0.16263968 0.008105515 -0.00673878 -0.064385116 -0.14990868 -0.0049278787
-0.08701852 0.0155659495 0.099401325 -0.0688881 -0.028101128 -0.012852553 0.10505338 -0.17060313
-0.19454516 -0.14012398 -0.13830654 -0.090455234 -0.11755954 -0.15089956 -0.15567279 -0.0558366
-0.13309732 -0.11799016 -0.1017725 -0.060115572 0.18711482 -0.014506359 -0.029043196 0.091588184

fc3.weight f4 [1, 400]
00000000: 7e2b bcbd 4afc b13d ae86 983d 4dbb d6bd
00000010: ea0c ae3d 1a97 ae3d 42fd c53d 9048 3fbe
00000020: 4732 593d 6899 023e 81bd e23d 2a53 ad3d
00000030: a758 75bd ae09 e8bd 8fc2 9c3d 6c03 09be
00000040: f683 a53d 9ffe 55be 34a9 babd b4b6 acbd
00000050: 5c5f 913d 84f0 c9bd 2193 acbd ec6a bdbd
00000060: 27a1 e9bd e511 5d3d 21c0 1c3d e76f efbd
00000070: 3900 753d ca33 9a3d 528d 4f3d 33b5 dbbd
00000080: cbdb 713d 4853 983d 21dc 0c3e 45fd 9d3d
00000090: c011 a63d 628f 493d 4187 533d 404a 5dbe
000000a0: f14b 8a3d 70e1 e9bd 5a4e 30be db62 d0bd
000000b0: 0703 e73d be93 d1bd b325 06be d8af c9bd
000000c0: baf9 133d 6a34 d6bd 68aa 533d b9a2 71be
000000d0: 05de 363d 3a23 c23d 42d1 f7bd 07d3 07be
000000e0: 6f8b 0bbe 8d04 d5bd 2891 c4bd 59d8 583d
000000f0: 16fe 913d ad15 bbbd 541b 0fbe 61d4 94bd
00000100: 4759 453d f429 1dbe 761d 523d 3a67 803d
00000110: a712 54bd 97f8 1cbe 88dc 91bd b771 45be
00000120: f2c6 9e3d 25fa 8cbd 0854 d9bd c0c8 04be
00000130: 5887 3f3d 4289 c6bd 5346 8cbd dc98 c6bd
00000140: d255 b2bd 3e8d ac3d 1887 01be 961d 623d
00000150: 7efc 8abd bd7c 1bbe 506c 953d d82b 9c3d
00000160: ccc5 413d 9a64 aa3d 7ad5 9e3d 2c5b a23d
00000170: caee 543d dcee 26be cd30 c9bd 49ad 753d
00000180: 71ea 39be 59a0 153e 1a06 4c3d 2a4f 823d
00000190: 6858 cfbd 9aee 863d 02ce adbd b38e e4bd
000001a0: 9a88 d0bd c5bb f6bd 38f9 06be 2b76 773d
000001b0: 8aa3 923d 33a0 b8bd 26e0 483d ddb1 51be
000001c0: ea18 dbbd 579b 853d 1313 9dbd daa9 0cbe
000001d0: 1592 853d 3fef 8b3d 6bcb fcbd c250 e6bd
000001e0: 56f0 e2bd 466b d1bd 55be 0bbe e617 d6bd
000001f0: 807e 4b3d e5f4 d6bd a0f4 133d f63b 16be
00000200: 59b9 763d bd71 c23d 2e34 4cbe 8f4b efbd
00000210: ee73 813d a206 25be e01f 1dbd 10ef d0bd
00000220: 46b1 5ebe ae8e 07be 8cbf 8f3d a1dd a5bd
00000230: 6aa9 8c3d b290 9d3d fbfe afbd 937f 07be
00000240: 0f5f 5d3d 54fa 973d 1497 e8bd f2f0 7c3d
00000250: 53db 0b3e a34c c23d b8a2 c6bd 66fe 123e
00000260: 5e5f 11be 9477 a8bd 89d0 abbd b9dd 5d3d
00000270: 8d05 f5bd 592f 87bd 2b2f aabd 9940 883d
00000280: df1e 6f3d df13 a4bd 5738 14be 4dc9 be3d
00000290: daac b23d a9ee eb3d 9f58 823d 1d4e dfbd
000002a0: 9e8e 973d b66f b53d 411b 1bbe 36c0 05be
000002b0: 60c3 b83d 0e20 24be 6718 663d 78e2 0bbe
000002c0: d02c a8bd 5927 76be b6d1 ecbd 8c1f 39be
000002d0: afac 9abd ffbb 5e3d 9c77 0fbe 350a b4bd
000002e0: 5ad1 c23d 9997 b43d cc13 6c3d 7e02 e1bd
000002f0: fb26 433d 45b2 e8bd 7344 e5bd 3dad 21bd
00000300: bbc3 00be fadf bdbd 1f4f 853d f99e dbbd
00000310: a8cc d83d d343 4bbd 1a37 1ebe ed6c fb3d
00000320: 7d39 6d3d d8a3 363d 820e 7c3d 19c6 15be
00000330: e26e 66bd f252 8a3d 0192 fbbd c48c 13be
00000340: 42bc ac3d 54b5 17be 8b9d 22be 5f66 cdbd
00000350: 6d4a 933d 5b52 c6bd 933f ef3d 04c7 183e
00000360: 5759 18be 0d79 bd3d dd49 853d 2410 da3d
00000370: 6a28 07be d88e c93d 453e 6cbd 733a aa3d
00000380: 78ed f0bd 8a83 d63d 98b9 44be 2008 6f3d
00000390: 358c 9d3d 8897 93bd a484 40be 0fd9 8f3d
000003a0: 9d02 003e a41e 673d 1097 4b3d 81d7 c13d
000003b0: e5c5 633d 0453 d53d ef1d 8b3d c0ef 01be
000003c0: 6b59 2abe 01ae c5bd 9e07 16be 9af2 e4bd
000003d0: 3a4e d3bd 36b0 12be 03c1 04be 4540 acbd
000003e0: 5be3 0dbe c717 00be 0274 9c3d 0988 113e
000003f0: 770f 823d 915d 243d 6e6d 9e3d b950 3b3d
-0.09187983 0.086906984 0.07447563 -0.104849435 0.08498557 0.08524914 0.09667446 -0.18680024
0.053026464 0.12753832 0.11071301 0.08463128 -0.059899 -0.11329971 0.076542966 -0.13380212
0.0808181 -0.20897911 -0.09114304 -0.08433285 0.070982665 -0.09860328 -0.084265 -0.09248909
-0.114076905 0.053972144 0.038269166 -0.116912656 0.059814665 0.07529409 0.050671883 -0.107279204
0.0590475 0.0743776 0.13755848 0.07714323 0.08108854 0.049209006 0.05164266 -0.21610355
0.06752766 -0.11419952 -0.17217389 -0.10175105 0.11279874 -0.10233258 -0.13100319 -0.09847993
0.03612683 -0.10459216 0.051676184 -0.2359723 0.044645328 0.09479375 -0.1210046 -0.13264094
-0.13627408 -0.104012586 -0.09597999 0.0529407 0.07128541 -0.09134994 -0.13975269 -0.072670706
0.048180845 -0.15348035 0.051297627 0.06269689 -0.0517756 -0.15329204 -0.07122141 -0.1928166
0.077527896 -0.06883649 -0.10611731 -0.12967205 0.046759933 -0.096941486 -0.06849351 -0.09697124
-0.08707775 0.08425377 -0.1264919 0.055203997 -0.0678644 -0.15184303 0.072960496 0.0762555
0.047307774 0.083199695 0.07755561 0.07927546 0.05198554 -0.16302055 -0.09823761 0.05997971
-0.18155839 0.14611949 0.049810506 0.063627556 -0.10124284 0.065884784 -0.084865585 -0.1116003
-0.10182305 -0.12047533 -0.13181007 0.060415428 0.07160099 -0.090149306 0.04904189 -0.20478006
-0.10698111 0.06523769 -0.07669654 -0.13736668 0.065220036 0.06832742 -0.123434864 -0.11245872
-0.11080997 -0.10225539 -0.13646825 -0.10453777 0.049681187 -0.10495929 0.036121964 -0.14671311
0.060235355 0.0949435 -0.1994178 -0.116843335 0.0632094 -0.16115811 -0.038360476 -0.102018476
-0.21747312 -0.13238022 0.070189565 -0.08098913 0.06868251 0.07693614 -0.085935555 -0.1323226
0.054045733 0.07420793 -0.11356941 0.06175322 0.13657884 0.094872735 -0.09699005 0.14354858
-0.14196536 -0.08225933 -0.08389384 0.05416653 -0.11963949 -0.06600828 -0.08309778 0.06652946
0.05837905 -0.080116026 -0.14474617 0.09315739 0.08724375 0.1152013 0.063645594 -0.10903571
0.07400249 0.08859198 -0.15147115 -0.13061604 0.0902164 -0.16027853 0.056175616 -0.1366061
-0.08211672 -0.24038447 -0.11563437 -0.1807844 -0.07552468 0.054378506 -0.14010471 -0.08791009
0.09512587 0.088179775 0.057636067 -0.109868035 0.047644597 -0.11362127 -0.11194696 -0.039471854
-0.12574665 -0.09271236 0.06509232 -0.10723681 0.1058591 -0.04962523 -0.15450707 0.12276635
0.057916153 0.044589847 0.061537273 -0.1462635 -0.05625809 0.06754102 -0.122837074 -0.14409167
0.08434345 -0.14815265 -0.1588041 -0.10029291 0.0719193 -0.09683677 0.11682048 0.14919668
-0.1487783 0.09251604 0.06508229 0.1064761 -0.1319901 0.098416984 -0.057676572 0.083119296
-0.117640436 0.10474308 -0.19211423 0.058357358 0.07692758 -0.07206637 -0.18800598 0.070238225
0.12500997 0.056425706 0.04970461 0.09464932 0.05560865 0.104162246 0.06792819 -0.12689114
-0.16635673 -0.09652329 -0.14651343 -0.11179085 -0.10317655 -0.14325032 -0.12964253 -0.08410696
-0.1385626 -0.1250907 0.07639314 0.1421205 0.06350606 0.040128294 0.07735716 0.04573128
