experiments/exp2/models/checkpoint_actor_2.pth (torch_old, 274248 bytes, 6 tensors)

fc1.weight f4 [200, 33]
-0.5356814 0.1506997 -0.56818795 0.511355 -0.0071124462 2.0895905 -0.87677604 0.08930331
0.24973488 -0.11770905 0.36108068 -0.29088202 -0.19690275 -0.061994426 0.065710716 -0.027192319
-0.8888033 0.59544224 0.6020252 -0.019245723 -0.2375398 -0.37197843 -0.41380233 -0.120237626
-0.24419527 -0.12242906 0.32554504 0.8677146 0.0016135494 -0.027685829 -0.7489849 -0.020862743
0.8634897 -0.3028476 0.307753 0.5829057 -1.8245807 -0.6476316 2.3961651 -1.6854746
-0.20232095 0.005292743 0.13178577 0.084710285 0.09626657 0.16460693 0.12432486 -0.2501879
-0.17712283 0.7083931 1.2300043 -0.19813679 0.32339352 -0.08971537 0.43950582 0.015004794
-0.27212974 -0.31994024 -0.08304213 0.030123541 0.90704477 0.12598413 -0.023394048 -0.8052312
-0.05237589 1.8386959 -0.3730863 0.29087004 0.5454418 -0.5220793 -0.7514944 0.73111224
-0.53486204 -0.38186657 -0.7469635 -0.538388 0.2626998 0.32401636 -0.38398784 -0.11587378
0.3822809 -0.41779184 -0.33937204 0.03447555 0.30998275 0.11423914 -0.42910418 -0.13352714
-0.12813093 0.058084738 0.03737266 -0.45173496 0.25573495 1.1221473 0.19007276 0.013497174
-1.1633828 0.06457337 -0.68275046 -0.7907885 0.25335318 0.20196526 -1.1248418 0.14611249
0.60244703 -1.326042 0.04783084 0.45229328 0.014739719 0.31122938 -0.026081242 0.32978624
-0.08110664 -0.1134358 0.23180798 -0.8542165 -0.19135919 0.6681626 1.1600279 -0.36521557
0.27316883 -0.098863825 -0.13624083 -0.2648366 -0.101080135 0.32535684 1.1735342 0.05384093
-0.009567495 -1.2174444 -0.05247868 -1.218682 -0.129719 0.26816958 0.19827802 -0.2523511
1.1073295 0.64780253 -0.46053585 -0.099412106 0.31468788 0.031739008 0.28078955 0.39959574
0.10654071 0.1280231 0.3454499 0.13595577 -1.3207341 -0.15879022 0.28647086 0.049970187
-0.10416581 0.17298035 0.23103328 0.39481837 0.24473721 0.119638585 -0.16382387 1.4271293
-0.2770645 -0.068911515 -1.3706055 0.04202076 0.2721127 0.47351658 0.57650733 -0.38587967
0.3692801 -0.42982683 -0.3991716 0.31988192 -0.41120723 0.07715803 -0.19636737 0.23126651
-0.112508155 0.030025175 -0.06618502 -0.014599139 0.5084295 0.82148266 -0.79193246 -0.37117296
-0.1468372 0.06632598 0.20695007 -0.43867424 0.01874522 -0.13067515 0.40254337 0.6078461
-0.1372957 -0.3267121 -0.056211222 0.09904476 -0.01781167 4.285924 -1.0222678 0.5174101
0.33096138 0.18065102 0.23022874 0.38054153 -0.36122292 -0.370072 0.20415705 -0.85768104
-0.19567236 -0.07773673 -0.025592634 0.5901583 0.3710992 -0.038858827 -1.0221446 -0.3744316
-0.8680314 -0.799945 0.1943623 -0.30221307 0.21274279 -0.038449623 0.2706762 0.0347876
-0.7775043 0.11077655 -0.1638474 -0.061997917 -0.14730899 0.027941577 -0.8558337 -0.13653965
0.7235998 0.62818694 0.025607267 0.3287285 -0.7665415 -0.74123466 -0.28191558 0.6164697
1.3573599 -0.16334765 0.42409468 -0.13780576 -0.34701377 -0.35546952 -0.30311948 -0.08739976
-1.457035 -0.49941906 0.453271 -0.14814857 -0.08990235 0.105401374 -0.044022925 -0.092534244
00000000: 6b22 09bf 0651 1a3e c474 11bf 29e8 023f
00000010: 860f e9bb dabb 0540 6574 60bf a7e4 b63d
00000020: 80ba 7f3e 7111 f1bd 91df b83e 7dee 94be
00000030: e0a0 49be deed 7dbd 5793 863d 6dc2 debc
00000040: 9d88 63bf e76e 183f 531e 1a3f 35a9 9dbc
00000050: a23d 73be f573 bebe e6dd d3be 253f f6bd
00000060: 530e 7abe 16bc fabd d7ad a63e 8b22 5e3f
00000070: bc7d d33a 64cd e2bc 79bd 3fbf 58e8 aabc
00000080: a90d 5d3f d70e 9bbe cd91 9d3e 4f39 153f
00000090: dc8b e9bf 2fcb 25bf c55a 1940 a2bd d7bf
000000a0: 392d 4fbe bf6e ad3b d9f2 063e 967c ad3d
000000b0: 6827 c53d b88e 283e 089e fe3d a118 80be
000000c0: b05f 35be 4059 353f c870 9d3f 5fe4 4abe
000000d0: d693 a53e b1bc b7bd e806 e13e abd6 753c
000000e0: 9754 8bbe 35cf a3be fe11 aabd a5c5 f63c
000000f0: 1634 683f fc01 013e e0a4 bfbc a223 4ebf
00000100: 1a88 56bd 635a eb3f 2b05 bfbe ebec 943e
00000110: 13a2 0b3f fda6 05bf f061 40bf 2c2a 3b3f
00000120: b8ec 08bf 0484 c3be 0039 3fbf ccd3 09bf
00000130: 9780 863e 79e5 a53e 0e9a c4be 3b4f edbd
00000140: 52ba c33e d0e8 d5be 2cc2 adbe 3c36 0d3d
00000150: 0fb6 9e3e 36f6 e93d 8bb3 dbbe 57bb 08be
00000160: c134 03be 43ea 6d3d 1314 193d ce49 e7be
00000170: b1ef 823e 86a2 8f3f 6fa2 423e 4023 5d3c
00000180: bae9 94bf 0b3f 843d bcc8 2ebf 1d71 4abf
00000190: 82b7 813e fbcf 4e3e d1fa 8fbf 839e 153e
000001a0: f839 1a3f bfbb a9bf 45ea 433d fc92 e73e
000001b0: dd7e 713c 7559 9f3e 54a8 d5bc bed9 a83e
000001c0: 3d1b a6bd 0751 e8bd 125f 6d3e efad 5abf
000001d0: aaf3 43be b40c 2b3f cb7b 943f 89fd babe
000001e0: c9dc 8b3e 1e79 cabd b782 0bbe aa98 87be
000001f0: 1a03 cfbd 2c95 a63e 5e36 963f 4f88 5c3d
00000200: fcc0 1cbc 38d5 9bbf e2f3 56bd c6fd 9bbf
00000210: 0fd5 04be 864d 893e 6509 4b3e 2a34 81be
00000220: f9bc 8d3f 63d6 253f 5bcb ebbe 9398 cbbd
00000230: c51e a13e c300 023d a6c3 8f3e d097 cc3e
00000240: 0432 da3d 7d18 033e cfde b03e fd37 0b3e
00000250: d10d a9bf e799 22be 4fac 923e 8aad 4c3d
00000260: e254 d5bd c321 313e fd93 6c3e a225 ca3e
00000270: 649c 7a3e 1305 f53d 72c1 27be 2cac b63f
00000280: 66db 8dbe 7b21 8dbd 0070 afbf f61d 2c3d
00000290: 5b52 8b3e c470 f23e fc95 133f 0592 c5be
000002a0: 4812 bd3e 4312 dcbe 3860 ccbe 90c7 a33e
000002b0: c189 d2be 0705 9e3d 8714 49be 21d1 6c3e
000002c0: ad6a e6bd 5bf7 f53c 038c 87bd 3a31 6fbc
000002d0: 7028 023f b04c 523f 16bc 4abf 620a bebe
000002e0: 7e5c 16be ead5 873d b8ea 533e e999 e0be
000002f0: 938f 993c b5cf 05be 2a1a ce3e cd9b 1b3f
00000300: 3e97 0cbe cf46 a7be bd3d 66bd fbd7 ca3d
00000310: c8e9 91bc 4a26 8940 acd9 82bf fd74 043f
00000320: c573 a93e 95fc 383e 15c1 6b3e 57d6 c23e
00000330: 36f2 b8be 147a bdbe 8c0e 513e fc90 5bbf
00000340: 565e 48be 6f34 9fbd a5a7 d1bc 9d14 173f
00000350: b700 be3e 6f2a 1fbd a2d5 82bf 80b5 bfbe
00000360: 4e37 5ebf 32c9 4cbf e906 473e acbb 9abe
00000370: 3fd9 593e 5a7d 1dbd 1296 8a3e 717d 0e3d
00000380: 860a 47bf d1de e23d 9dc7 27be 87f1 7dbd
00000390: 2bd8 16be bce5 e43c eb17 5bbf 0dd1 0bbe
000003a0: d63d 393f dcd0 203f 55c6 d13c 1a4f a83e
000003b0: 103c 44bf 8ec1 3dbf 3d57 90be f5d0 1d3f
000003c0: f8bd ad3f 9b44 27be f022 d93e f41c 0dbe
000003d0: caab b1be 1a00 b6be 7a32 9bbe a5fe b2bd
000003e0: 1f80 babf dbb3 ffbe 2313 e83e 42b4 17be
000003f0: b91e b8bd addc d73d 6251 34bd 9882 bdbd

fc1.bias f4 [200]
-0.842266 -0.6908903 -1.2525132 -1.0273838 -1.5218058 -0.06508476 -0.17849948 -0.51863736
-0.22525807 -0.9677861 -0.5468405 -0.44914755 0.43645453 -0.82696646 -0.49546474 -0.33919853
-0.93528986 -0.49400944 0.22223194 -0.94861263 -0.8326759 -0.13214783 -0.57306886 -0.62779754
-0.9375989 -1.3976622 -1.1989187 -0.06527705 -0.6248671 -0.4534233 -0.7470852 -0.07363247
-0.4275288 -0.85826933 -0.35566974 -0.48151997 -0.8508594 -0.46295846 -1.1129078 -0.6700152
-0.9832106 -0.67475456 -0.6744166 -0.24756339 -0.7087274 -1.1090463 -0.80761224 -0.5011632
-1.0500807 -0.9973311 -0.5854178 -0.5939794 -0.5487562 0.14134651 -0.92288625 -0.88609934
-0.9248983 -0.38435557 -0.073356815 -0.23917602 -0.9497435 0.4219439 -0.88554287 -1.1226183
-0.12026811 -0.6006174 0.03902199 -1.031829 -1.0853789 -1.0318485 -1.172217 -0.7534146
-0.77226037 -0.18094756 0.211962 -0.7223103 -0.35152647 -0.5367472 -0.5139337 -0.8363732
-0.5962339 0.23525989 -0.49749088 -0.95721895 -0.9401607 -0.53494716 -0.4265293 -1.1726063
-0.4771512 -0.7160442 -1.3735112 -1.087565 0.48422387 -1.1413232 -0.644459 -0.9904758
0.26167685 -0.7945283 -0.0566811 -1.0799539 -0.3151569 -0.47624475 0.3980022 -1.0054563
-0.77413964 -0.42415345 -0.6969515 -0.22856982 -0.53242314 -0.82221025 -0.49644032 -0.54382944
-0.7788271 -0.89541864 -0.7957828 -1.1063399 -0.033693112 -0.34678409 -0.9745033 -1.0552863
0.072390705 -0.8803543 1.2334664 -0.3942227 -1.0033321 -1.018569 -0.7986317 -0.087969735
-0.43908924 -0.46508214 -0.664801 -1.0595993 -0.42171168 -0.5697488 -1.1637726 -1.116601
-0.3504573 -0.16321826 -1.0167187 0.054339334 -0.78698725 -1.2016774 -0.7795802 -0.7638712
-0.6897679 -0.3349205 -1.3572111 -1.0880117 -0.3944071 -0.7305919 -0.6239635 -0.88301593
-0.80288756 -0.070315994 -0.5995377 -0.8567253 -0.52565056 -0.529494 -0.7138818 -1.1716256
-0.30462316 0.04546153 -0.9483439 -0.64991915 -0.6337402 -0.19301161 -0.71662396 -0.38414106
-0.81132936 -0.3354203 -1.106679 -0.682233 -0.64718866 -0.31691363 -1.196378 -0.36819902
-0.42616165 -0.943867 -1.010204 -0.5877998 -0.22567615 -0.52199024 -0.6262859 -1.1728853
-0.9135263 -0.3105437 -0.6066134 -1.3838298 -0.17707206 -1.0533092 -1.1938162 -1.2401658
-1.2486662 -1.116099 -0.6042498 -1.2474737 -0.99680567 0.090404205 -1.0234882 -0.24684277
00000000: bf9e 57bf 30de 30bf 5a52 a0bf 5081 83bf
00000010: 88ca c2bf 294b 85bd 91c8 36be 6bc5 04bf
00000020: 0daa 66be d4c0 77bf bdfd 0bbf abf6 e5be
00000030: f876 df3e 13b4 53bf 8ead fdbe 6eab adbe
00000040: 286f 6fbf ceee fcbe c590 633e 47d8 72bf
00000050: 3f2a 55bf c351 07be a4b4 12bf 57b7 20bf
00000060: 7b06 70bf 98e6 b2bf 2b76 99bf f9af 85bd
00000070: 4af7 1fbf 1927 e8be fa40 3fbf 9fcc 96bd
00000080: 0ee5 dabe 8ab7 5bbf 581a b6be c989 f6be
00000090: ecd1 59bf e408 edbe c373 8ebf 1e86 2bbf
000000a0: b1b3 7bbf b7bc 2cbf 91a6 2cbf 4281 7dbe
000000b0: 296f 35bf 3bf5 8dbf adbf 4ebf 3b4c 00bf
000000c0: 0b69 86bf 1751 7fbf f1dd 15bf 090f 18bf
000000d0: 497b 0cbf 24bd 103e 4642 6cbf 68d7 62bf
000000e0: 23c6 6cbf 41ca c4be 193c 96bd 8fea 74be
000000f0: 6422 73bf 0809 d83e f0b2 62bf f5b1 8fbf
00000100: 204f f6bd 10c2 19bf 86d5 1f3d f912 84bf
00000110: b2ed 8abf 9d13 84bf 350b 96bf c7df 40bf
00000120: dbb2 45bf 514a 39be 910c 593e 54e9 38bf
00000130: 47fb b3be 4468 09bf 2991 03bf 8e1c 56bf
00000140: c9a2 18bf f8e7 703e 20b7 febe 4d0c 75bf
00000150: 5fae 70bf 4cf2 08bf 0c62 dabe f717 96bf
00000160: 294d f4be ac4e 37bf 37cf afbf 5435 8bbf
00000170: 31ec f73e e116 92bf 44fb 24bf d28f 7dbf
00000180: 82fa 853e 3566 4bbf 712a 68bd ee3b 8abf
00000190: 3f5c a1be 5ad6 f3be f2c6 cb3e cbb2 80bf
000001a0: 042e 46bf a42a d9be 6a6b 32bf 350e 6abe
000001b0: e24c 08bf 5f7c 52bf 6d2d febe 6838 0bbf
000001c0: 3661 47bf 283a 65bf 6cb8 4bbf 8c9c 8dbf
000001d0: ca01 0abd af8d b1be 0c79 79bf 9f13 87bf
000001e0: 9441 943d e65e 61bf 3ae2 9d3f 8fd7 c9be
000001f0: 306d 80bf 7860 82bf 2173 4cbf 7a29 b4bd
00000200: 4ed0 e0be 3f1f eebe 6630 2abf f3a0 87bf
00000210: 98ea d7be 0fdb 11bf 80f6 94bf c8ec 8ebf
00000220: 246f b3be b022 27be d723 82bf ec92 5e3d
00000230: ff77 49bf 91d0 99bf 9192 47bf 108d 43bf
00000240: a194 30bf b37a abbe 18b9 adbf f843 8bbf
00000250: baef c9be 1208 3bbf 12bc 1fbf 550d 62bf
00000260: 0a8a 4dbf d501 90bd 4d7b 19bf 5952 5bbf
00000270: 0991 06bf eb8c 07bf f5c0 36bf d4f7 95bf
00000280: 91f7 9bbe df35 3a3d aac6 72bf 1a61 26bf
00000290: cc3c 22bf d6a4 45be ab74 37bf 23ae c4be
000002a0: 48b3 4fbf 36bc abbe a8a7 8dbf d2a6 2ebf
000002b0: 28ae 25bf 8142 a2be ea22 99bf 9584 bcbe
000002c0: dc31 dabe 45a1 71bf 5d4e 81bf 0c7a 16bf
000002d0: a617 67be 27a1 05bf 4654 20bf 1b21 96bf
000002e0: dcdc 69bf 95ff 9ebe 044b 1bbf 5621 b1bf
000002f0: 6152 35be d6d2 86bf f8ce 98bf c1bd 9ebf
00000300: 4bd4 9fbf 55dc 8ebf 1db0 1abf 38ad 9fbf
00000310: a82e 7fbf d725 b93d a901 83bf 5ac4 7cbe

fc2.weight f4 [300, 200]
-0.6128155 -0.1614538 -0.40136185 -0.28849608 0.056773927 -1.2458093 -0.2888221 -0.6447707
-0.2954176 -0.7954497 0.117888995 0.21076524 -1.1739632 0.43056142 -0.011409887 -0.69311416
-0.21678385 -0.40075862 -0.58717906 -0.2769048 -0.21300957 -0.24966109 0.121710464 0.7525499
0.38936055 0.3430178 -0.047641415 -0.3894228 -0.20735529 -0.024690446 0.22291115 -0.54926735
-0.2642197 0.013625246 -0.087488174 -0.39640746 -0.06986003 -0.34584805 0.17833386 0.4533971
-0.40727305 -0.09611093 0.06477047 -0.27266556 0.066363126 0.31161404 0.07416949 0.1767044
-0.16452207 -0.25936633 0.99909556 -0.15771662 -1.3315535 0.457918 -0.11918966 0.47223693
0.05392179 -0.5556541 -0.21544868 -1.0943068 0.38724092 -0.42785043 -0.376986 0.28496894
0.17726323 -0.68824893 -0.22882722 -0.4541503 0.12918092 0.22256179 -0.17395447 -0.24962953
-0.21671587 -0.028114175 0.571554 0.2853411 -0.20994487 -0.20246011 -0.44426957 -0.8912202
0.72891843 -0.77282363 -0.8072425 -0.40615544 -0.32270306 0.2557736 -0.0060962643 -0.102295354
0.08127065 0.16859874 0.4259096 -0.919528 -0.5067969 0.63928765 -1.5102909 -0.02172229
-0.08137847 0.19369398 0.41190422 0.23344055 0.16699778 -0.68200105 -0.46331814 -0.5193078
-0.53171736 -0.20113978 0.5171635 -0.43771693 0.08030847 0.09926953 0.09914638 -0.45252264
-0.80789834 -0.64499915 0.03154736 0.87396365 0.13986349 -0.4909226 -0.43160963 0.38534236
0.47516775 -0.18158692 0.6523978 -0.04843735 0.13989925 0.27968317 -0.012542277 0.19636406
-0.027722482 0.3380227 0.6292966 -0.09412304 -0.582713 -0.039873175 -0.124158576 -0.2196574
-0.46776345 -0.11888348 -0.45624626 -0.0776694 0.34585318 0.82552594 0.14850198 0.08658252
0.32687247 -0.49167046 0.42216045 0.04573539 -0.1481874 -0.26997745 -0.3710153 -0.15113029
0.062026445 0.22015834 0.021157755 1.0535328 -0.2105706 0.07767503 -0.068548135 0.84641355
0.12758082 0.10257829 0.37294558 -0.19318603 -0.712996 0.32161868 -0.29834878 -0.31900123
0.382932 -0.9339594 0.42991546 0.46901175 0.40724313 -0.21075371 0.63084435 -0.8864018
0.31420916 -0.3026645 0.61281985 0.5089262 0.19386575 -0.6423289 0.3352244 0.64321285
0.47601238 -0.70226985 -0.4296871 0.61298424 -0.12982495 0.7975162 -0.16638198 -0.54533786
-0.25445405 -0.6538026 -0.093508475 0.24504109 -0.2704481 -0.46446994 0.16139074 -0.40198615
0.19968778 -0.4160864 0.34742412 0.5652993 -0.11317166 -0.7375692 0.47681737 -0.014669321
0.20021486 -0.117699094 0.26285055 -0.12432848 -1.2663476 -0.18658794 0.31303605 -0.9972834
-0.8033961 0.16334553 -0.39750957 -0.47786736 0.12566656 0.04760229 -0.9657941 -0.002167569
0.31955913 -0.7900838 0.9132105 -0.9711166 0.7863919 -0.5867907 -0.14515395 0.07801173
-0.1523679 0.6503805 -0.5952721 0.27209523 -0.2773062 -0.14442453 0.606195 0.5759509
0.0441661 -0.2670677 0.3278256 -0.532333 3.5509176e-05 0.5226708 0.33880845 -0.18665712
0.050982777 0.038093522 -0.1794945 -0.86553305 0.6276153 0.0046498356 0.5977867 0.17830761
00000000: 7ae1 1cbf 2554 25be 4d7f cdbe c2b5 93be
00000010: c78b 683d ae76 9fbf 7ee0 93be b10f 25bf
00000020: fa40 97be 97a2 4bbf c96f f13d d8d2 573e
00000030: 6d44 96bf 8c72 dc3e 89f0 3abc ee6f 31bf
00000040: 96fc 5dbe 3c30 cdbe 5e51 16bf 77c6 8dbe
00000050: 2e1f 5abe 28a7 7fbe 5643 f93d 1ca7 403f
00000060: 445a c73e 07a0 af3e a523 43bd 6d62 c7be
00000070: f254 54be 9e43 cabc d242 643e c99c 0cbf
00000080: ce47 87be 6c3c 5f3c 002d b3bd ebf5 cabe
00000090: c712 8fbd ff12 b1be 279d 363e aa23 e83e
000000a0: 1886 d0be cfd5 c4bd 61a6 843d d29a 8bbe
000000b0: 64e9 873d e08b 9f3e 2ce6 973d 00f2 343e
000000c0: 7978 28be aacb 84be bac4 7f3f 7780 21be
000000d0: 5870 aabf 3a74 ea3e b519 f4bd 0ac9 f13e
000000e0: 18dd 5c3d 593f 0ebf 949e 5cbe 3f12 8cbf
000000f0: 7144 c63e 360f dbbe 4f04 c1be 73e7 913e
00000100: 7e84 353e 1531 30bf af51 6abe 6386 e8be
00000110: 0148 043e 3de7 633e 1f21 32be e29e 7fbe
00000120: c4ea 5dbe b34f e6bc 5d51 123f 3b18 923e
00000130: cafb 56be b451 4fbe 4d77 e3be 0227 64bf
00000140: 669a 3a3f c5d7 45bf 72a7 4ebf 9bf3 cfbe
00000150: 5639 a5be c2f4 823e 2cc3 c7bb 3a80 d1bd
00000160: 3a71 a63d 26a5 2c3e d310 da3e 3066 6bbf
00000170: 71bd 01bf 5ba8 233f 3651 c1bf f2f2 b1bc
00000180: c1a9 a6bd b757 463e 1ce5 d23e 0a0b 6f3e
00000190: 7701 2b3e 9f97 2ebf 0938 edbe 5bf1 04bf
000001a0: a11e 08bf 96f7 4dbe d464 043f 6f1c e0be
000001b0: c478 a43d d34d cb3d 420d cb3d 0cb1 e7be
000001c0: 6dd2 4ebf aa1e 25bf ce37 013d 15bc 5f3f
000001d0: 6038 0f3e 355a fbbe f0fb dcbe 984b c53e
000001e0: 3049 f33e ecf1 39be 8b03 273f 3e66 46bd
000001f0: c041 0f3e a232 8f3e 1f7e 4dbc a913 493e
00000200: 421a e3bc 5011 ad3e 9519 213f 95c3 c0bd
00000210: ae2c 15bf 0e52 23bd da46 febd dfed 60be
00000220: b17e efbe 2f79 f3bd 1c99 e9be 2211 9fbd
00000230: ab13 b13e ab55 533f e710 183e 2d52 b13d
00000240: d45b a73e 3bbc fbbe 6a25 d83e 0855 3b3d
00000250: 70be 17be 7c3a 8abe b8f5 bdbe e6c1 1abe
00000260: 710f 7e3d 3071 613e 0753 ad3c 2ada 863f
00000270: d29f 57be 1614 9f3d f762 8cbd 8fae 583f
00000280: 8ca4 023e 9114 d23d b9f2 be3e 8fd2 45be
00000290: e886 36bf 34ab a43e 2cc1 98be 2154 a3be
000002a0: aa0f c43e f717 6fbf e11d dc3e 4f22 f03e
000002b0: 2c82 d03e d2cf 57be 047f 213f 3aeb 62bf
000002c0: 06e0 a03e d7f6 9abe c3e1 1c3f fd48 023f
000002d0: be84 463e ab6f 24bf 88a2 ab3e 99a9 243f
000002e0: e5b7 f33e f5c7 33bf f3ff dbbe 89ec 1c3f
000002f0: d5f0 04be 062a 4c3f 0a60 2abe 439b 0bbf
00000300: cd47 82be 9b5f 27bf 5f81 bfbd 0dec 7a3e
00000310: 2c78 8abe 01cf edbe 9d43 253e 21d1 cdbe
00000320: f47a 4c3e 4709 d5be 93e1 b13e 74b7 103f
00000330: 8bc6 e7bd 56d1 3cbf 6821 f43e 9757 70bc
00000340: 2005 4d3e 390c f1bd 5994 863e ee9f febd
00000350: ae17 a2bf e910 3fbe 4346 a03e f74d 7fbf
00000360: 5eab 4dbf 0d44 273e 6086 cbbe 08ab f4be
00000370: bcae 003e 9efa 423d 483e 77bf c60d 0ebb
00000380: 419d a33e ef42 4abf 2ac8 693f 199b 78bf
00000390: fb50 493f ea37 16bf 3da3 14be 9dc4 9f3d
000003a0: 5506 1cbe 567f 263f c163 18bf 1150 8b3e
000003b0: 14fb 8dbe 06e4 13be 982f 1b3f 8571 133f
000003c0: 83e7 343d 19bd 88be c2d8 a73e fa46 08bf
000003d0: b0ef 1438 c1cd 053f 4d78 ad3e 0b23 3fbe
000003e0: 51d3 503d f407 1c3d 68cd 37be 9393 5dbf
000003f0: 65ab 203f a65d 983b 8d08 193f 4596 363e

fc2.bias f4 [300]
-0.42955163 -0.62050563 -0.6507957 -0.39916867 -0.503935 -0.52672255 -0.43541467 -0.322777
-0.5832769 -0.42373088 -0.40389085 -0.79440314 -0.30279383 0.1159917 -0.24982285 -0.47052956
-0.44305623 -0.14150038 -0.273633 -0.34715602 -0.6142768 -1.002931 -0.4239584 -0.22362733
-0.23601559 -0.40325642 -1.0211539 0.05016565 -0.13940178 -0.81255186 0.21249072 -0.30896816
-0.486642 -0.28592497 -0.17932989 -0.4402718 -0.1985056 -0.21050254 -0.23698236 -0.83719534
-0.6412213 -0.604449 -0.8371942 -0.72148216 -0.54529595 -0.31521034 -0.7495398 -0.18450174
0.10654496 -0.96476454 -0.3898784 0.1552878 -0.23860967 -0.07260015 -0.63208675 -0.29776907
-0.2879398 -0.36650184 -0.79953176 -0.030298578 -0.32466978 0.2954938 -0.63921964 -0.5198423
-0.4170725 -0.21009775 -0.64377016 -0.50228083 -0.13109739 -0.40800515 -0.34854293 -0.21564367
-0.40090424 -0.13633586 -0.27386245 -0.49051607 -0.21140419 -0.22660145 0.2954476 -0.2987118
-0.1816549 -0.4651198 -0.6314054 -0.009169463 -0.40038264 -0.17537563 -0.5439877 -0.3780723
-0.49318892 -0.5527058 -0.6343431 -0.600364 -0.28399223 -0.013566076 -0.0028431802 -0.30386597
-0.47221628 0.09854501 -0.005575343 -0.6000906 -0.22235827 -0.8548787 -0.36211628 0.055766627
-0.56489694 -0.15169527 -0.45872575 -0.3752342 -0.9286586 -0.6187147 -0.43868142 -0.77793664
-0.7879452 -0.38092205 -0.38932702 -0.24378662 0.30551678 -0.261299 -0.22479643 -0.8761415
-0.396357 -0.5806067 -0.6088543 -0.2704209 -0.6133066 -0.16429041 -0.07112976 -0.2951707
-0.42827815 -0.1153181 0.0044676634 -0.745574 -0.061913203 -0.40509424 0.0043462343 -1.0373093
-0.54548323 -0.35536993 -0.69465345 -0.81569207 -1.0514768 -0.47985563 -0.45887747 -0.29822317
-0.586489 -0.2164777 -0.3878568 0.13954382 -0.0904514 -0.5075731 0.12930533 -0.2534498
-0.388513 -0.26464632 -0.38201898 -0.75486964 0.15844059 -0.18783341 -0.045023534 0.03334646
-0.07046168 -0.10659265 -0.25883466 -0.69135624 -0.5304908 -0.4742272 -0.35344443 -0.044502348
-0.80461985 -0.20283224 -0.41901225 0.1365105 -0.47216752 -0.2008797 -0.32143 -0.27588028
0.13638641 -0.2959901 -0.46701637 -0.5148231 0.17054479 -0.4824256 -0.38137418 -0.27259436
-0.17277017 -0.514936 -0.36638704 -0.8321894 -0.32050785 -0.1340613 -0.29602814 -0.2941844
-0.34651777 -0.33860144 -0.4709164 -0.36236912 -0.4811347 -0.42083672 -0.48002407 -0.8154717
-0.14356667 -0.17184587 -0.2284072 -0.016234057 -0.66369337 -0.39225248 -0.32468745 -0.14960633
-0.1291491 -0.19107345 -0.39158925 -0.38347325 -0.15665895 0.06104384 -0.3901434 -0.7280279
-0.31010658 -0.20617154 -0.5915464 0.40275687 -0.12695058 -0.2965985 -0.025099492 -0.38145432
0.09298434 -0.05255422 -0.109545134 -0.20643012 -0.010301838 -0.42007965 -0.64012635 0.0624906
-0.20863856 -0.5531262 -0.13482724 -0.35811326 -0.4196396 -0.23145366 -0.3807466 0.014955962
-0.3840187 -0.30961308 -0.30171132 0.03772758 -0.6793313 -0.6717594 -0.54743004 -0.2175765
-0.21056819 -0.11587421 -0.11827016 -0.049145684 0.04031588 -0.30011997 -0.37131873 -0.06111446
00000000: 31ee dbbe 75d9 1ebf 8c9a 26bf d65f ccbe
00000010: e201 01bf 4ad7 06bf acee debe 0743 a5be
00000020: a351 15bf 41f3 d8be c8ca cebe 015e 4bbf
00000030: cb07 9bbe 0e8d ed3d 90d1 7fbe 40e9 f0be
00000040: 44d8 e2be 7ae5 10be a019 8cbe 6fbe b1be
00000050: 3f41 1dbf 0b60 80bf 1311 d9be 90fe 64be
00000060: 12ae 71be a077 cebe 2cb5 82bf 7f7a 4d3d
00000070: 57bf 0ebe 6603 50bf 2b97 593e 1331 9ebe
00000080: 2429 f9be c264 92be 41a2 37be 4e6b e1be
00000090: 0d45 4bbe fa8d 57be 81ab 72be 6f52 56bf
000000a0: 1427 24bf 2bbd 1abf 5c52 56bf 0eb3 38bf
000000b0: 8498 0bbf 4063 a1be d7e1 3fbf 06ee 3cbe
000000c0: 3e34 da3d cffa 76bf 249e c7be c403 1f3e
000000d0: 1856 74be 63af 94bd 70d0 21bf 3075 98be
000000e0: d86c 93be 21a6 bbbe 1dae 4cbf b934 f8bc
000000f0: 1e3b a6be f74a 973e e6a3 23bf 6314 05bf
00000100: 878a d5be dd23 57be 1fce 24bf 7a95 00bf
00000110: 653e 06be 0de6 d0be 3874 b2be b2d1 5cbe
00000120: 5243 cdbe a19b 0bbe b337 8cbe ec24 fbbe
00000130: 577a 58be 360a 68be e844 973e c1f0 98be
00000140: be03 3abe 2f24 eebe c9a3 21bf 843b 16bc
00000150: f4fe ccbe ab95 33be c742 0bbf b192 c1be
00000160: 4283 fcbe 217e 0dbf 4f64 22bf 75b1 19bf
00000170: 6e67 91be 3f44 5ebc a654 3abb 5294 9bbe
00000180: 55c6 f1be f7d1 c93d 5eb1 b6bb 8a9f 19bf
00000190: e3b1 63be 55d9 5abf 4e67 b9be 8c6b 643d
000001a0: 169d 10bf 0156 1bbe 1ade eabe b21e c0be
000001b0: 92bc 6dbf 1664 1ebf da9a e0be db26 47bf
000001c0: c7b6 49bf 3708 c3be df55 c7be 33a3 79be
000001d0: b26c 9c3e fcc8 85be 0931 66be cf4a 60bf
000001e0: 4eef cabe a4a2 14bf e0dd 1bbf 9c74 8abe
000001f0: a901 1dbf bf3b 28be 7bac 91bd 9d20 97be
00000200: 4647 dbbe e52b ecbd 7a65 923b f0dd 3ebf
00000210: b398 7dbd 8368 cfbe db6a 8e3b 8dc6 84bf
00000220: caa4 0bbf 0cf3 b5be cfd4 31bf 32d1 50bf
00000230: cb96 86bf a3af f5be fdf1 eabe b5b0 98be
00000240: 2524 16bf 55ac 5dbe 2b95 c6be 93e4 0e3e
00000250: 953e b9bd 50f0 01bf 9e68 043e 2cc4 81be
00000260: 2deb c6be b97f 87be fe97 c3be 233f 41bf
00000270: 403e 223e 6757 40be 996a 38bd 4c96 083d
00000280: 374e 90bd 3f4d dabd fa85 84be b9fc 30bf
00000290: 3fce 07bf e8cd f2be abf6 b4be 1848 36bd
000002a0: 91fb 4dbf 41b3 4fbe c688 d6be 69c9 0b3e
000002b0: f1bf f1be 68b3 4dbe 7992 a4be 2e40 8dbe
000002c0: e1a8 0b3e 048c 97be c51c efbe 72cb 03bf
000002d0: 4ba3 2e3e 7d00 f7be 7a43 c3be 7d91 8bbe
000002e0: aaea 30be d8d2 03bf 1597 bbbe 5d0a 55bf
000002f0: 9b19 a4be 5e47 09be 0091 97be 569f 96be
00000300: c76a b1be 2b5d adbe f41b f1be 7288 b9be
00000310: 4a57 f6be e977 d7be b7c5 f5be c1c2 50bf
00000320: 2403 13be 5df8 2fbe 94e3 69be 49fd 84bc
00000330: cfe7 29bf 51d5 c8be 6f3d a6be 6732 19be
00000340: a93f 04be c2a8 43be 637e c8be 9b56 c4be
00000350: 346b 20be 1b09 7a3d e0c0 c7be 0960 3abf
00000360: 4ac6 9ebe a21e 53be 966f 17bf 2636 ce3e
00000370: 55ff 01be c2db 97be 739d cdbc fb4d c3be
00000380: 936e be3d 1843 57bd 3359 e0bd 6b62 53be
00000390: 0ac9 28bc ae14 d7be 52df 23bf 25f6 7f3d
000003a0: 59a5 55be ae99 0dbf 2710 0abe 9f5a b7be
000003b0: 00db d6be 3002 6dbe 38f1 c2be da09 753c
000003c0: 199e c4be 9b85 9ebe e879 9abe 3c88 1a3d
000003d0: a8e8 2dbf 6df8 2bbf 6024 0cbf 60cc 5ebe
000003e0: 309f 57be 754f edbd a037 f2bd fc4c 49bd
000003f0: 4422 253d 53a9 99be 7d1d bebe 2853 7abd

fc3.weight f4 [4, 300]
-0.14355277 -0.54635143 -0.53232783 0.33447635 -0.14039445 0.74699026 -0.9161044 0.50285345
-0.9647327 0.45445442 -0.09362363 -0.13232769 -0.18805902 -0.10506003 -0.50628203 -0.80954
-0.40158248 0.53020334 -0.5055692 0.22757252 -0.72602093 -0.21801706 -0.12801762 0.11147357
0.66812724 0.42197278 -0.6443404 0.0013561948 -0.17314833 0.41873506 0.036304984 0.01043227
-0.53854 -0.32750493 -0.08628762 -0.7481214 0.04691294 -0.8103337 0.8212614 -0.5263714
0.3569773 -0.5448409 -0.13769518 -0.5539288 0.23261273 0.51725686 -0.50564116 -0.6332479
-0.4278715 0.9297253 0.29105276 -0.072794035 -0.095659405 0.012890179 -0.5491203 0.56634605
-0.11849195 0.8878552 -0.3160351 -0.3524853 0.3000889 0.029484188 1.0469316 -0.58340824
0.11156737 0.20499466 -0.12432609 -0.20860021 0.11037886 0.13838582 -0.30432296 0.62687784
0.42836136 -0.58461285 0.055151436 0.6587628 -0.008293299 -0.47917834 -0.22804765 0.38386
-0.26841265 0.4716247 -0.3265144 0.06184925 0.22623856 0.56797993 -0.22718309 -0.47051206
0.38315496 -0.20389053 0.13486993 -0.40820503 -0.063218765 0.6467244 -0.028365957 -0.047807828
0.57884777 0.50611174 -0.6061858 0.6762665 0.28008798 0.21840525 0.22646473 0.04263435
-0.27143863 0.50690246 -0.41298306 0.28782016 -0.38012123 0.48429024 0.08858312 -0.5448258
0.27342862 -0.5124066 0.13533814 0.016030505 -0.11291359 -0.6997847 0.8422367 0.2852056
-0.12255455 -0.7897308 0.032015298 0.30102214 0.33282873 -0.3497886 -0.085186966 0.49771655
-0.42502066 0.1930538 -0.6379672 0.20427355 0.40335804 -0.09537881 0.025385348 -0.6256416
0.16614434 -0.0939708 -0.21728204 -0.14802675 0.37779605 -0.60696566 1.1516266 -0.005645577
-0.21284914 0.16163445 -0.27829698 0.13366883 -0.1271482 -0.6387214 0.058756966 -0.46129975
-0.3140364 0.13135472 -0.9188158 -0.10646586 -0.14282356 0.7649281 0.43597555 -0.58627117
-0.6914047 -0.70181394 -0.53985035 -0.18325172 0.21637227 -0.15186292 0.7354625 -0.7601879
0.5821961 0.13607872 0.023053005 0.18965404 0.044794008 0.21254212 -0.77088696 -0.60648936
0.015850041 -1.0057484 0.59787905 -0.5337468 0.44320247 -0.027793305 -0.07601701 0.61990106
-0.55901843 -0.21299128 0.064285 -0.35157412 -0.47880766 0.34533992 -0.3802379 -0.26272893
0.3833554 -0.63523334 0.32277098 -0.6078215 -0.3447447 0.21533947 -0.36151314 -0.41840696
0.6636774 -0.1960993 0.35434937 0.016923735 -0.81083447 -0.039571278 0.15935642 -0.7669822
0.7044153 -0.5253963 -0.51913035 0.74810344 0.28511646 0.030687394 -0.31801757 0.07704667
0.19005707 -0.3038546 -1.0326877 0.35136652 -0.41970727 -0.5937615 0.49438897 -0.368591
0.21317105 0.6748669 -0.2936404 0.1923695 0.36821622 0.5701071 -0.011201509 -0.41489717
0.11531943 0.32224962 -0.82296836 -0.7115729 0.051999103 0.4127142 -0.93355167 0.90629816
-0.19083363 0.0019079961 0.07433789 0.5807877 -0.31519592 0.37818998 0.10881054 0.38138193
0.42365173 0.023874754 -0.36334836 -0.023073591 0.5883828 1.0494969 0.4587173 0.36679
00000000: 7fff 12be b0dd 0bbf a346 08bf 7c40 ab3e
00000010: 90c3 0fbe c13a 3f3f d185 6abf 01bb 003f
00000020: b9f8 76bf 40ae e83e bfbd bfbd e980 07be
00000030: 8b92 40be b729 d7bd b39b 01bf 033e 4fbf
00000040: 389c cdbe 68bb 073f fc6c 01bf c508 693e
00000050: 82dc 39bf dd3f 5fbe 0d17 03be 414c e43d
00000060: 630a 2b3f d10c d83e 7ef3 24bf 59c2 b13a
00000070: cc4d 31be 7164 d63e 89b4 143d 1dec 2a3c
00000080: c2dd 09bf baae a7be 90b7 b0bd e284 3fbf
00000090: c827 403d 0872 4fbf 303e 523f 47c0 06bf
000000a0: bbc5 b63e b17a 0bbf f7ff 0cbe 47ce 0dbf
000000b0: 0832 6e3e f26a 043f b371 01bf 891c 22bf
000000c0: f911 dbbe 7a02 6e3f de04 953e 0a15 95bd
000000d0: 14e9 c3bd 5431 533c 2693 0cbf 0efc 103f
000000e0: e8ab f2bd 7a4a 633f 5acf a1be f478 b4be
000000f0: 41a5 993e d388 f13c db01 863f 3e5a 15bf
00000100: 6f7d e43d 1fea 513e ad9e febd 4b9b 55be
00000110: 500e e23d 03b5 0d3e 38d0 9bbe 117b 203f
00000120: 2e52 db3e 30a9 15bf 79e6 613d aea4 283f
00000130: 9ee0 07bc dd56 f5be 5385 69be 4c89 c43e
00000140: 626d 89be cb78 f13e e52c a7be a455 7d3d
00000150: 15ab 673e 2267 113f afa2 68be f5e6 f0be
00000160: e32c c43e aec8 50be 581b 0a3e 4000 d1be
00000170: d778 81bd bb8f 253f b95f e8bc 24d2 43bd
00000180: 5e2f 143f 8a90 013f fe2e 1bbf cd1f 2d3f
00000190: b167 8f3e a0a5 5f3e 5fe6 673e 5ba1 2e3d
000001a0: 01fa 8abe 5cc4 013f 8472 d3be 2a5d 933e
000001b0: 409f c2be e4f4 f73e 116b b53d b479 0bbf
000001c0: d6fe 8b3e 142d 03bf 1596 0a3e 6852 833c
000001d0: 3e3f e7bd 1725 33bf d39c 573f 7806 923e
000001e0: e1fd fabd cc2b 4abf 7922 033d 931f 9a3e
000001f0: 8768 aa3e 7e17 b3be 8176 aebd b4d4 fe3e
00000200: 4f9c d9be e5af 453e d251 23bf 162d 513e
00000210: f284 ce3e f755 c3bd eff4 cf3c 0c2a 20bf
00000220: be21 2a3e c373 c0bd 2f7f 5ebe 5394 17be
00000230: 7c6e c13e 1a62 1bbf 8068 933f 88fe b8bb
00000240: 20f5 59be 8083 253e f17c 8ebe 7be0 083e
00000250: 2333 02be 3f83 23bf 25ab 703d 7b2f ecbe
00000260: 61c9 a0be da81 063e 8337 6bbf c60a dabd
00000270: 5740 12be 54d2 433f 3038 df3e de15 16bf
00000280: e6ff 30bf 14aa 33bf a233 0abf 57a6 3bbe
00000290: b190 5d3e f481 1bbe 4547 3c3f ad9b 42bf
000002a0: ce0a 153f 3858 0b3e a8d9 bc3c ab34 423e
000002b0: ec79 373d a4a4 593e d958 45bf e342 1bbf
000002c0: f2d7 813c 5dbc 80bf 9a0e 193f a1a3 08bf
000002d0: 6feb e23e c9ae e3bc ceae 9bbd d6b1 1e3f
000002e0: d51b 0fbf 631a 5abe dba7 833d 8601 b4be
000002f0: 4726 f5be 65d0 b03e 8bae c2be 6884 86be
00000300: 2947 c43e a79e 22bf 3d42 a53e 319a 1bbf
00000310: 6182 b0be f381 5c3e 4018 b9be 7039 d6be
00000320: c3e6 293f 41ce 48be 486d b53e a5a3 8a3c
00000330: d992 4fbf 7e15 22bd 542e 233e f258 44bf
00000340: 9054 343f 5f80 06bf bae5 04bf b583 3f3f
00000350: c9fa 913e 2164 fb3c 33d3 a2be a5ca 9d3d
00000360: 529e 423e d592 9bbe 1c2f 84bf 50e6 b33e
00000370: dfe3 d6be c100 18bf 8d20 fd3e f6b7 bcbe
00000380: 8349 5a3e 14c4 2c3f 0958 96be 83fc 443e
00000390: d686 bc3e 8af2 113f 8986 37bc 676d d4be
000003a0: 982c ec3d e7fd a43e 0eae 52bf a429 36bf
000003b0: 03fd 543d 474f d33e 3efd 6ebf 2803 683f
000003c0: e469 43be ba15 fa3a 773e 983d 81ae 143f
000003d0: 5c61 a1be 1ea2 c13e 0fd8 de3d 7e44 c33e
000003e0: e1e8 d83e fd94 c33c cc08 babe d404 bdbc
000003f0: 41a0 163f ea55 863f fedc ea3e e6cb bb3e

fc3.bias f4 [4]
0.5511211 -0.05657703 0.22574131 -0.08421988
00000000: 4616 0d3f 51bd 67bd bb28 673e 797b acbd
