experiments/exp2/models/checkpoint_critic_2.pth (torch_old, 279240 bytes, 9 tensors)

fc1.weight f4 [200, 33]
0	0xbd355aa1	-0.044275884
1	0xbc365c7a	-0.011130447
2	0x3d76fbc8	0.06029871
3	0xbe3c8cd4	-0.18413097
4	0x3dde6e4f	0.108608834
5	0xbe4c7b76	-0.19968972
6	0xbd449ca6	-0.048000954
7	0x3ca86258	0.020554706
8	0x3e04432a	0.12916246
9	0xbd5c793d	-0.05382656
10	0xb9b36067	-0.00034213366
11	0x3c9c6af3	0.019093966
12	0x3cc5817f	0.0241096
13	0xb9c8542a	-0.0003820968
14	0x3bdaa365	0.00667231
15	0xba8d96e4	-0.0010802415
16	0x3df1121e	0.11771034
17	0xbb830d23	-0.0039993688
18	0x3bac3fe6	0.0052566407
19	0xbd916666	-0.07099609
20	0x3b8b4ab5	0.004250849
21	0xbc672e22	-0.01411012
22	0x3bf50e24	0.0074784923
23	0x3ac83390	0.0015274156
24	0xbbda6731	-0.0066651334
25	0xbd34a25e	-0.044100158
26	0x3c92edb9	0.01793562
27	0x3d60dfa5	0.054900784
28	0x3cbe51d1	0.023232372
29	0xbc68d180	-0.014210105
30	0xbcae307b	-0.021263352
31	0x3ce00488	0.02734591
32	0xbf02768f	-0.50962156
33	0xbd5120d6	-0.051056705
34	0x3d6c970d	0.05776124
35	0x3d6a52a9	0.057207737
36	0x3c6b3698	0.014356278
37	0x3c8ac60d	0.016940141
38	0x3ccd0c48	0.02503027
39	0xbd216134	-0.03939934
40	0x3bd6e9e0	0.006558642
41	0x3ce6d53c	0.02817785
42	0xbd9ce18b	-0.076602064
43	0x3caf53ac	0.021402203
44	0x3c192e64	0.009349439
45	0xbc18cc60	-0.009326071
46	0x3d9ed9ec	0.07756409
47	0xbd2a0a28	-0.041513592
48	0xbd84112c	-0.06448588
49	0x3da6f80f	0.08152782
50	0x3cab548c	0.020914339
51	0xbd789c8a	-0.060696162
52	0x3d4cfdab	0.050046604
53	0x3c17ae3f	0.009257852
54	0xbaf1ff62	-0.0018462951
55	0x3b66eeb9	0.0035237505
56	0x3d196be5	0.037456412
57	0xbc47541d	-0.01216605
58	0xbd0c2600	-0.034215927
59	0xbdb51058	-0.08841008
60	0x3db6c1fb	0.089237176
61	0x3d232a6c	0.03983538
62	0x3d845359	0.0646121
63	0xbe1ae921	-0.15127994
64	0xbcd0bcee	-0.025480714
65	0x3f0a4f9d	0.5402773
66	0xbbfc3724	-0.007697003
67	0x3c342715	0.010995646
68	0x3b81923d	0.0039542005
69	0xbcf2a00f	-0.029617338
70	0xbd4fc0d9	-0.050721023
71	0xbd57f914	-0.052727774
72	0xbbf75209	-0.007547621
73	0xb93e74a9	-0.00018163271
74	0xbae3bbee	-0.0017374733
75	0xbb49fa20	-0.0030819252
76	0xb93a710a	-0.00017780453
77	0x3af768df	0.0018875859
78	0x398c636a	0.0002677695
79	0x3b7ce862	0.003859066
80	0xbb3407dc	-0.0027470505
81	0xbbb49427	-0.005510825
82	0xbc9c03f8	-0.019044861
83	0xbc8d8b19	-0.017278241
84	0x3c316955	0.010828336
85	0x3bfca5d1	0.0077101965
86	0xb8c4db0b	-9.386808e-05
87	0x39c3d225	0.00037349868
88	0x3afa58a1	0.00190999
89	0x3900b690	0.00012275041
90	0x3a31c62f	0.0006781546
91	0xbaae490e	-0.0013296918
92	0xbbff062b	-0.0077827177
93	0x3d92f8ee	0.07176386
94	0x3ce674f8	0.028131947
95	0xbca0abf6	-0.019613247
96	0xbd198fb3	-0.037490558
97	0xbd80e424	-0.06293514
98	0x3f3747be	0.71593845
99	0xbe02d6e3	-0.12777285
100	0x39356dd7	0.00017302424
101	0xbbd25a79	-0.0064194766
102	0xbe069dd2	-0.13146141
103	0xbd053c12	-0.03252799
104	0x3e0b2e9b	0.13591997
105	0xbe31752b	-0.17329852
106	0x3c08041b	0.00830176
107	0xbe10aefa	-0.14129248
108	0xbcbc81fb	-0.023011198
109	0xbd461650	-0.048361123
110	0xbc5986ad	-0.013276738
111	0x3c46f420	0.012143165
112	0xbd60d94f	-0.05489474
113	0xbca604a8	-0.020265892
114	0x3d18de0f	0.037321147
115	0xbb66b166	-0.0035200953
116	0x3d1d89ef	0.03846162
117	0x3e0f6f3b	0.14007275
118	0x3d9c6c78	0.07637876
119	0x3bffcaf8	0.007806178
120	0xbb3dea83	-0.0028978891
121	0x3af43ded	0.0018634178
122	0xbd32fed2	-0.043700047
123	0x3b801d77	0.0039097625
124	0x3ccb6437	0.02482806
125	0x3dc839f3	0.09776678
126	0x3e0483b9	0.12940873
127	0x3cfa4342	0.03054965
128	0xbd38c063	-0.04510535
129	0xbdb9ba4b	-0.09068736
130	0x3c705bd0	0.014670327
131	0xbe8bb1f8	-0.27284217
132	0x3baf95e5	0.005358445
133	0x3b56d77b	0.0032782245
134	0x3cfeb638	0.031092748
135	0x3da420c9	0.08014066
136	0x3e704525	0.23463877
137	0x3e7277c0	0.23678493
138	0xbe0305b3	-0.12795143
139	0xbdcd5673	-0.100262545
140	0x3df8d767	0.1215046
141	0xbba6b443	-0.005087407
142	0x3d3edcb0	0.046597183
143	0x3d1444d2	0.036198445
144	0x3ce4cca3	0.02792961
145	0xbdd80751	-0.105482705
146	0x3d787ab0	0.06066388
147	0x3d015baa	0.03158156
148	0xbd055bc3	-0.032558214
149	0xbe81d047	-0.25354216
150	0xbd97d72e	-0.07414089
151	0x3c1d178c	0.009588134
152	0xbbc05146	-0.0058690635
153	0x3c7eb68f	0.015546455
154	0xbcaa5534	-0.020792581
155	0xbd2de708	-0.042456657
156	0x3cd1df46	0.02561916
157	0x3d07cb53	0.03315289
158	0x3d3c0fae	0.04591339
159	0x3baedc45	0.005336317
160	0x3b6d5bc6	0.0036218031
161	0x3b90e680	0.004422009
162	0xbd683303	-0.056689274
163	0xbc1eeca0	-0.0096999705
164	0x3da9eca2	0.08297087
165	0x3c5a95d7	0.013341389
166	0x3d7ea4ca	0.062168874
167	0x3dd25bae	0.10271393
168	0x3d0be9a4	0.034158364
169	0x3e7d8033	0.24755935
170	0x3d0e5ea4	0.034758225
171	0xbdc1b3af	-0.094581
172	0xbc958dd4	-0.018256105
173	0xb9e16b93	-0.00042995493
174	0xbdd978db	-0.106187545
175	0x3d354c43	0.044262182
176	0xbd2b8034	-0.04187031
177	0xbaf47c04	-0.0018652682
178	0xbb96a616	-0.0045974357
179	0x3dad54e1	0.08463455
180	0xbc2a63fa	-0.010399813
181	0x3e761f57	0.24035393
182	0xbdbf6843	-0.09346058
183	0xbe530a40	-0.20609379
184	0x3ced73f4	0.028985955
185	0x3ca8ccae	0.020605411
186	0xbbf4c177	-0.007469352
187	0xbc287ae2	-0.010283204
188	0x3d48babf	0.04900622
189	0xbd5406d5	-0.051764328
190	0xbca0b92b	-0.019619545
191	0xbd6506ad	-0.05591457
192	0xbde5823e	-0.11206482
193	0x3d0191ab	0.03163306
194	0x3d3a9288	0.0455499
195	0xbb006ade	-0.0019594948
196	0xbcff363a	-0.031153787
197	0x3ebc6b38	0.3680055
198	0xbd3cb12e	-0.04606741
199	0x3e03cf71	0.12872101
200	0x3e1f5c71	0.15562607
201	0x3d9429de	0.07234548
202	0x3cc05b62	0.023481075
203	0x3db08d70	0.08620727
204	0xbdb3c99b	-0.087786876
205	0x3a4f21f5	0.00079014833
206	0xbd1a9d1e	-0.037747495
207	0xbc61a8f8	-0.013773195
208	0xbd49a32b	-0.049227875
209	0x3c9f4a7a	0.019444693
210	0x3d5617a1	0.052268628
211	0xbb60d153	-0.0034304454
212	0xbccf1c01	-0.025281908
213	0xbc49ab7a	-0.01230895
214	0x3dad3fff	0.08459472
215	0x3dd01d0d	0.10161791
216	0xbe34d684	-0.17659956
217	0xbe06ab2a	-0.13151231
218	0x3b9e6771	0.0048341085
219	0x3bd6dc6a	0.006557037
220	0x3ba690c0	0.0050831735
221	0x3c50e582	0.012750031
222	0x3cfce280	0.030869722
223	0x3bb06f6c	0.0053843763
224	0x3bfbdf5e	0.0076865396
225	0x3d43667e	0.047705166
226	0xbdd8d94c	-0.10588321
227	0x3c1da8d8	0.009622775
228	0xbd3a05e2	-0.045415767
229	0xbc179508	-0.00925184
230	0xbe9dfdff	-0.30857846
231	0x3d06ed85	0.03294136
232	0x3b12acfb	0.0022380936
233	0xbcc6304a	-0.024192948
234	0xbda44543	-0.08021023
235	0xbb8b1a42	-0.0042450735
236	0x3e6ba96f	0.23013853
237	0x3d37a804	0.044837967
238	0x3b3ee584	0.0029128501
239	0x3d836c5c	0.06417152
240	0x3d7abc83	0.061214935
241	0xbcaf1190	-0.02137068
242	0xbd03f34c	-0.032214448
243	0x3cc975d2	0.024592314
244	0x3d012475	0.03152891
245	0x3d7c0b60	0.061534286
246	0xbd98880c	-0.07447824
247	0x3e0dc5e7	0.13845025
248	0xbc739c03	-0.014868739
249	0x3d1be0a8	0.038056046
250	0x3ea9bc65	0.33151546
251	0x3c62206c	0.013801675
252	0x3b0d7847	0.0021586583
253	0x3cf1319f	0.029442606
254	0x3ccfc5fd	0.025362963
255	0x3d1a934c	0.03773813

fc1.bias f4 [200]
0	0xbddf57b1	-0.10905398
1	0x3d418229	0.04724327
2	0xbe643f17	-0.22289692
3	0xba81d8fc	-0.0009906585
4	0xbdf214f9	-0.118204065
5	0xbddf59e2	-0.10905816
6	0xbe273c88	-0.16331685
7	0xbd9dc2d7	-0.077031784
8	0xbe07ec5d	-0.13273759
9	0xbb6efe70	-0.0036467575
10	0xbde10534	-0.109873205
11	0x3d416eb4	0.047224715
12	0x3d8c9b30	0.06865537
13	0xbdf7ff3e	-0.121092305
14	0xbd49243f	-0.049106833
15	0xbe81e71e	-0.2537164
16	0xbe3eeaef	-0.18644308
17	0xbbc7c138	-0.0060960315
18	0x3d7ca5ad	0.06168144
19	0xbe554a66	-0.20829162
20	0x3d67e6bd	0.056616534
21	0x3d132d9c	0.03593217
22	0xbd745c31	-0.059658233
23	0xbe461239	-0.19342889
24	0xbdc937d6	-0.09825103
25	0xbe27e060	-0.16394186
26	0xbe3f3101	-0.18671037
27	0x3c943e2b	0.01809605
28	0xbe07dab6	-0.13267025
29	0xbe3219a4	-0.17392594
30	0xbd9b47c0	-0.075820446
31	0x3deb9673	0.11503305
32	0xbc85be19	-0.016325997
33	0xbd799b28	-0.060938984
34	0x3cd5fa1a	0.026120234
35	0xbc825ce8	-0.015913442
36	0xbca7e307	-0.020493997
37	0xbe0a09cc	-0.134803
38	0xbdeee7e0	-0.116653204
39	0x3df0211f	0.11725067
40	0xbcee939c	-0.02912312
41	0xbde39eb4	-0.111142546
42	0xbe088f27	-0.13335858
43	0x3da6993a	0.081346944
44	0x3dda49a8	0.1065858
45	0x3c36b73d	0.011152086
46	0xbe47acf3	-0.19499569
47	0x3ca777b1	0.020442815
48	0xbe17502b	-0.14776675
49	0xbe92b27f	-0.28651807
50	0x3bebcd42	0.0071960995
51	0xbe87a9a3	-0.2649661
52	0xbcdb365b	-0.026759317
53	0x3d9df9c3	0.07713654
54	0xbe56a8a9	-0.20962776
55	0x3de0182d	0.10942111
56	0x3d1b4007	0.037902858
57	0xbd80e0e6	-0.06292896
58	0xbd2c976a	-0.042136587
59	0xbe07cea4	-0.13262421
60	0x3e3b5db8	0.1829747
61	0x3e313cdf	0.17308377
62	0xbd653a6a	-0.05596391
63	0x3ce15ab3	0.02750907
64	0xbe284145	-0.16431148
65	0xbc11caaf	-0.008898421
66	0x3d8576b3	0.06516781
67	0xbe362c93	-0.17790441
68	0xbd7f1936	-0.062279902
69	0xbdeaafa3	-0.11459281
70	0xbe57da2e	-0.21079323
71	0xbc018b9f	-0.007906823
72	0x3d11ade2	0.03556622
73	0x3e3133a6	0.17304859
74	0x3caf7c20	0.021421492
75	0xbe8e9c78	-0.2785375
76	0x3d112b56	0.03544172
77	0xbe68245c	-0.2267012
78	0x3e24134a	0.16022983
79	0x3e35f9c5	0.17771061
80	0x3cde4b71	0.027135583
81	0xbe592736	-0.21206364
82	0x3db5b2b8	0.088719785
83	0xbe9f2ab2	-0.3108726
84	0xbdf34939	-0.118792005
85	0x3cdbf58a	0.02685048
86	0xbddf67cb	-0.10908469
87	0xbd8f6846	-0.070023105
88	0x3d8c3b89	0.06847293
89	0xbd5e1fd4	-0.054229572
90	0xbdfa0440	-0.12207842
91	0x3dbc0dd7	0.09182327
92	0x3dbee8a3	0.09321716
93	0xbe4e7450	-0.20161557
94	0xbd8229f7	-0.063556604
95	0xbc24538e	-0.010029687
96	0x3d98017f	0.0742216
97	0x3dfe029e	0.12402843
98	0x3c92e451	0.017931135
99	0xbdba88e7	-0.09108143
100	0xbc80027f	-0.01562619
101	0xbd652185	-0.05594017
102	0x3dba891b	0.09108182
103	0xbd335bac	-0.043788597
104	0x3bef7f39	0.0073088673
105	0xbd64d219	-0.055864427
106	0xbd82a4c8	-0.06379086
107	0xbe0f0073	-0.13965015
108	0xbde3246c	-0.11090931
109	0x3c2e0914	0.010622282
110	0x3d20bead	0.039244343
111	0xbcf3c94d	-0.029759074
112	0x3d02bcdc	0.03191839
113	0x3de9962e	0.114055976
114	0xbd9d2258	-0.07672566
115	0xbe3000d1	-0.17187811
116	0x3d1b34f8	0.03789231
117	0xbe8db2b9	-0.27675417
118	0xbe30a7b3	-0.17251472
119	0xbda8c2ce	-0.08240281
120	0x3d9cf533	0.076639555
121	0xbc98bc73	-0.018644547
122	0x3e19eb13	0.1503108
123	0xbe831075	-0.25598493
124	0x3e076524	0.13222176
125	0xbe0cc0cf	-0.13745426
126	0x3e05bf08	0.13061154
127	0x3d4dccc7	0.05024412
128	0xbdc4e57c	-0.09614083
129	0xbddca44e	-0.10773526
130	0xbe503182	-0.20331386
131	0xbd87f71b	-0.066389285
132	0xbe09a99e	-0.1344361
133	0x3e2c345e	0.16816851
134	0xbd95d22b	-0.07315477
135	0xbe25ff13	-0.16210584
136	0xbe2d5be8	-0.1692959
137	0xbdcf936c	-0.1013554
138	0xbe89d682	-0.2692147
139	0xbdacc865	-0.0843666
140	0xbd0cfe28	-0.03442207
141	0xbdc8addd	-0.09798787
142	0xbdce2224	-0.100651056
143	0xbd2e1f93	-0.04251058
144	0xbe064184	-0.1311093
145	0xbce9b53e	-0.028528806
146	0xbe5633a6	-0.2091814
147	0xbdd983a9	-0.10620815
148	0xbe158f09	-0.14605345
149	0xbc1176b0	-0.008878395
150	0xbd7a23f2	-0.061069436
151	0xbd96dd21	-0.07366396
152	0x3cda2957	0.02663104
153	0xbe0fac36	-0.14030537
154	0xbd8075f8	-0.06272501
155	0xbe00e9cf	-0.12589191
156	0xbd6e9e97	-0.05825671
157	0x3c4f49d2	0.0126518775
158	0x3d8a507e	0.06753634
159	0xbdf68b63	-0.12038305
160	0x3d0b93b1	0.034076396
161	0xbd8f66e7	-0.07002049
162	0xbe595c02	-0.21226504
163	0xbdfb3b83	-0.1226721
164	0xbca98ad4	-0.020696081
165	0xbd1e2adb	-0.03861509
166	0x3bd8d30c	0.0066169556
167	0xbe49cb59	-0.19706477
168	0x3e6f534f	0.23371623
169	0xbd186100	-0.03720188
170	0x3dae2de7	0.08504849
171	0x3a9a7326	0.0011783584
172	0xbd95b095	-0.07309071
173	0xbe333616	-0.17501101
174	0xbddde544	-0.108347446
175	0xbd421e08	-0.04739192
176	0xbad41f1b	-0.0016183587
177	0xbd332be2	-0.04374302
178	0x3c61ce35	0.013782074
179	0x3d949463	0.07254865
180	0x3d2e22d4	0.042513683
181	0xbe2ffe29	-0.17186798
182	0xbda19a5e	-0.07890771
183	0xbe2a1e5e	-0.16613147
184	0xbd354a79	-0.044260476
185	0x3b8a5c78	0.004222449
186	0x3e95a0f5	0.29224363
187	0xbcb9096e	-0.022587504
188	0xbb06c287	-0.0020562725
189	0xbd06ec06	-0.032939933
190	0xbdaed6b7	-0.08537047
191	0xbd2c58fd	-0.042077053
192	0xbdc3c5a1	-0.09559179
193	0xbd57a07b	-0.05264328
194	0x3dd58770	0.10426223
195	0xbe5ad091	-0.21368624
196	0xbe5205da	-0.20510045
197	0xbddc8975	-0.10768405
198	0x3e1718a2	0.1475549
199	0xbd6d6331	-0.057955924

bn1.weight f4 [200]
0	0x3f3f6921	0.7476979
1	0x3f0a0bf6	0.539245
2	0x3f6c1889	0.9222494
3	0x3efd3d1c	0.49460685
4	0x3e2a6d02	0.16643146
5	0x3eed31dd	0.46327105
6	0x3e9f95d2	0.3116899
7	0x3f07d142	0.5305368
8	0x3ed57bcc	0.41696012
9	0x3e45dfb5	0.19323619
10	0x3e85c564	0.2612716
11	0x3edaf533	0.42765197
12	0x3efebf67	0.49755403
13	0x3efb085b	0.49029812
14	0x3f5a6dfd	0.8532408
15	0x3e22a5c2	0.15883544
16	0x3f54643c	0.82965446
17	0x3f16f661	0.58969694
18	0x3e7247b6	0.23660168
19	0x3efd0c12	0.4942327
20	0x3f5bedcf	0.8590974
21	0x3f550ddd	0.8322428
22	0x3e5c8a66	0.2153717
23	0x3f0d9351	0.5530291
24	0x3f1f058e	0.6211785
25	0x3f6d50b7	0.92701286
26	0x3ebf8715	0.37407747
27	0x3e81c591	0.25346044
28	0x3f2c67bf	0.67345804
29	0x3f5b28d0	0.8560915
30	0x3e6d582a	0.23178163
31	0x3f3eb72b	0.7449824
32	0x3f6411e0	0.89089775
33	0x3eb94175	0.36182752
34	0x3f4ec21f	0.80764955
35	0x3f0cab07	0.54948467
36	0x3ee1a0b4	0.4406792
37	0x3f2c6dad	0.6735485
38	0x3e207a35	0.15671618
39	0x3f5bbd43	0.85835665
40	0x3f029d51	0.51021296
41	0x3f455670	0.7708502
42	0x3e987a35	0.29780737
43	0x3ea41ac3	0.32051668
44	0x3f217fa5	0.63085395
45	0x3f39720a	0.72439635
46	0x3f38a8f6	0.72132814
47	0x3ef094c8	0.4698851
48	0x3f0907de	0.5352763
49	0x3eb6dd1c	0.35715568
50	0x3f1ea7c5	0.61974746
51	0x3e8457f0	0.2584834
52	0x3f16dd59	0.589315
53	0x3f0429a6	0.5162605
54	0x3f1b834b	0.6074721
55	0x3ec2992e	0.38007492
56	0x3de7b6c2	0.11314155
57	0x3ea997ba	0.3312357
58	0x3e53e518	0.20692861
59	0x3f361920	0.7113209
60	0x3efdff56	0.49608868
61	0x3f34730c	0.7048805
62	0x3f22c54f	0.6358232
63	0x3ebc25aa	0.36747485
64	0x3e7de042	0.24792579
65	0x3f83a646	1.0285118
66	0x3e845151	0.2584329
67	0x3f000580	0.5000839
68	0x3ea22c57	0.31674454
69	0x3e3347b4	0.17507821
70	0x3eb3d22c	0.35121286
71	0x3e9bd83e	0.30438417
72	0x3f21a553	0.6314289
73	0x3f30a0cc	0.68995357
74	0x3ec1b0cb	0.37830195
75	0x3ed5711e	0.41687864
76	0x3f296836	0.6617464
77	0x3f33a867	0.70178837
78	0x3f0fe0f2	0.56202614
79	0x3f377038	0.7165561
80	0x3f599ed8	0.85008
81	0x3ed34c77	0.41269276
82	0x3e226505	0.15858848
83	0x3e36391f	0.17795227
84	0x3eba5092	0.36389595
85	0x3e7b9867	0.24569856
86	0x3ebf317d	0.37342444
87	0x3f6270e4	0.8845351
88	0x3e72cf95	0.23711999
89	0x3f2f61e5	0.6850875
90	0x3f3a8b81	0.72869116
91	0x3ed52aed	0.41634312
92	0x3e993257	0.2992122
93	0x3f2d4fe1	0.6770001
94	0x3f5893e8	0.8460069
95	0x3ee2b96e	0.44282097
96	0x3f0d2296	0.551309
97	0x3ed85f20	0.42260075
98	0x3ef50e00	0.47862244
99	0x3e9bf800	0.30462646
100	0x3f1c5d5c	0.61079955
101	0x3e9eaa5f	0.30989358
102	0x3ed99689	0.42497662
103	0x3f416968	0.7555146
104	0x3ea368df	0.31915948
105	0x3f122e11	0.5710154
106	0x3ea90903	0.33014688
107	0x3e912c32	0.2835403
108	0x3eed406a	0.46338207
109	0x3f82a607	1.0206918
110	0x3ec3bb50	0.38228846
111	0x3f119979	0.56874806
112	0x3f2456fb	0.6419522
113	0x3f401ce8	0.7504411
114	0x3f07d97f	0.5306625
115	0x3ea9c1a9	0.33155563
116	0x3eb48108	0.35254693
117	0x3e4eac95	0.20183022
118	0x3cf2f814	0.029659308
119	0x3f4b08b3	0.7931015
120	0x3f4815ec	0.7815845
121	0x3f03898a	0.5138174
122	0x3f1703fb	0.5899045
123	0x3eafd543	0.34342393
124	0x3f6d2261	0.92630583
125	0x3f1172f7	0.5681605
126	0x3f16bbd0	0.5888033
127	0x3f080d53	0.5314533
128	0x3f07bccc	0.53022456
129	0x3f015346	0.5051769
130	0x3e3d0b8e	0.18461439
131	0x3f4ab9c4	0.79189706
132	0x3f2144a5	0.6299537
133	0x3f6c49d4	0.9230015
134	0x3f0bdbf9	0.54632527
135	0x3f53f12f	0.8278989
136	0x3f4732ad	0.778117
137	0x3ee3c8b8	0.44489074
138	0x3e27dc0e	0.16392538
139	0x3f856ad7	1.042323
140	0x3f8d6a38	1.104804
141	0x3f06a00b	0.52587956
142	0x3f27110a	0.65260375
143	0x3ec2e2b8	0.38063598
144	0x3f065633	0.5247528
145	0x3ece8692	0.40337044
146	0x3e3fd2fc	0.18732828
147	0x3f160a29	0.58609253
148	0x3ec36da9	0.38169602
149	0x3f88b7b1	1.0681058
150	0x3ea3e879	0.320133
151	0x3eb74860	0.35797405
152	0x3f3203e9	0.69537216
153	0x3ec34080	0.38135147
154	0x3f5c1590	0.859704
155	0x3ea8c17a	0.3296011
156	0x3f3e644f	0.7437181
157	0x3f5c2908	0.8600011
158	0x3ebd2623	0.36943159
159	0x3f350538	0.7071109
160	0x3ea136ff	0.3148727
161	0x3ebfb438	0.37442183
162	0x3f04d99e	0.5189456
163	0x3f1518cc	0.5824096
164	0x3f3d9e02	0.74069226
165	0x3e4611b5	0.19342692
166	0x3e8bb2e0	0.27284908
167	0x3f524df0	0.82150173
168	0x3f309ec6	0.6899227
169	0x3f39de3a	0.72604716
170	0x3f17a16e	0.592307
171	0x3f260f8e	0.64867485
172	0x3e8e1859	0.2775295
173	0x3f589882	0.8460771
174	0x3f16cb29	0.5890375
175	0x3f3ecfca	0.7453581
176	0x3ee8a6e1	0.45439819
177	0x3e69c062	0.22827294
178	0x3f5d72bb	0.8650319
179	0x3ee9841c	0.45608604
180	0x3f47b466	0.7800964
181	0x3c8bc710	0.017062694
182	0x3f1579ef	0.5838918
183	0x3f2b8b73	0.6700966
184	0x3f2299f0	0.6351614
185	0x3f29ed4e	0.66377723
186	0x3f45f472	0.7732612
187	0x3f4e5c2f	0.8060941
188	0x3f20cecc	0.62815547
189	0x3f4a04de	0.78913677
190	0x3f1f10e9	0.6213518
191	0x3e75fe92	0.24022892
192	0x3f0285cf	0.50985426
193	0x3f2e511e	0.68092525
194	0x3f303f7f	0.6884689
195	0x3e9b0c39	0.30282763
196	0x3efb9fb2	0.49145275
197	0x3ef4c7fa	0.4780882
198	0x3ea46694	0.3210951
199	0x3efab36c	0.48965013

bn1.bias f4 [200]
0	0x3cdc3fb6	0.026885848
1	0x3d9ad195	0.07559506
2	0xbd9b91b6	-0.075961515
3	0xbe237406	-0.15962228
4	0xbbcd3e12	-0.006263503
5	0x3d4f8951	0.050668065
6	0xbddce051	-0.107849725
7	0x3d7b4096	0.06134089
8	0x3c224f7e	0.009906648
9	0x3d25d1de	0.040483348
10	0xbd452bd1	-0.04813749
11	0xbd6ee5b9	-0.05832455
12	0x3e019e18	0.12657964
13	0x3dc30981	0.09523297
14	0xbde4b15f	-0.11166643
15	0xbd63df09	-0.055632625
16	0x3d9ab1bc	0.075534314
17	0x3dc93483	0.09824469
18	0x3cbf2a15	0.023335496
19	0x3de04a13	0.109516285
20	0xbdf33e12	-0.11877073
21	0xbcec3256	-0.028832596
22	0x3bc9dd0a	0.006160383
23	0x3d4b3558	0.04961142
24	0xbdfb0101	-0.12256051
25	0x3dd2f435	0.10300485
26	0xbe58ab5f	-0.21159123
27	0x3dba298e	0.09089957
28	0x3d2b2dc1	0.04179168
29	0x3d2c7179	0.042100403
30	0x3e0a2a5a	0.13492718
31	0x3d9f3fdc	0.07775852
32	0x3da8d82a	0.08244355
33	0x3dacfb87	0.084464125
34	0x3ce41660	0.0278427
35	0xbda0f7af	-0.07859742
36	0x3d8fdc61	0.07024456
37	0xbd603e53	-0.054746937
38	0xbca5362d	-0.020167435
39	0xbd6ab21d	-0.05729877
40	0x3e060d4e	0.13091013
41	0xbd6b8aa7	-0.057505276
42	0x3d5947a4	0.053046837
43	0x3dc092bc	0.09402987
44	0xbd198f31	-0.037490074
45	0x3d47476c	0.048652098
46	0x3c04cd13	0.008105534
47	0xbd736991	-0.059426848
48	0xbd0db025	-0.034591813
49	0xbc936853	-0.017994082
50	0xbcfdfcc2	-0.031004313
51	0x3d104401	0.035221104
52	0x3de62070	0.11236656
53	0x3db38973	0.08766451
54	0x3cd30c96	0.025762837
55	0x3d8b4520	0.06800294
56	0x3e916d3d	0.28403655
57	0x3d8d25d9	0.068919845
58	0xbe195bd0	-0.1497643
59	0xbb70c0da	-0.0036736042
60	0xbd5f8738	-0.054572314
61	0x3ddc7b79	0.10765738
62	0x3d578e9b	0.052626234
63	0x3dd4bc1f	0.10387444
64	0x3dc2ef79	0.09518332
65	0xbd156242	-0.03647066
66	0xbd414c62	-0.047191985
67	0x3d900eff	0.0703411
68	0xbbf50f9f	-0.007478669
69	0x3d922667	0.07136231
70	0x3c1d0884	0.00958455
71	0x3cb08a88	0.021550432
72	0x3e4cefd5	0.20013364
73	0xbd32e50b	-0.043675464
74	0xbe631c48	-0.22178757
75	0xbd2b6430	-0.041843593
76	0x3e059520	0.13045168
77	0x3d722446	0.059116624
78	0x3e0979ff	0.13425444
79	0x3e65ab70	0.2242868
80	0x3e01c286	0.12671861
81	0x3dab7456	0.08371799
82	0x3be387fe	0.0069437018
83	0x3da7f1ba	0.082004026
84	0x3e5934f2	0.21211603
85	0xbd99845a	-0.07495947
86	0x3c509a33	0.012732076
87	0x3e22e755	0.15908559
88	0xbde04a21	-0.10951639
89	0x3d9bff91	0.07617105
90	0xbccfa38f	-0.025346546
91	0xb9cdcfc4	-0.00039255444
92	0x3da6f636	0.0815243
93	0x3cbc92cf	0.023019223
94	0x3de53bef	0.11193072
95	0x3e473eaa	0.19457498
96	0xbd1786c3	-0.036993753
97	0x3d269d8e	0.0406776
98	0x3d933b60	0.07189059
99	0xbcc1768c	-0.023616098
100	0x3d9c8644	0.07642797
101	0xbe05e236	-0.13074574
102	0x3e31549b	0.1731743
103	0x3d848d76	0.06472294
104	0x3c6122ad	0.0137411775
105	0x3d5bfcc5	0.053707857
106	0xbe41a264	-0.18909603
107	0x3d1fb1ba	0.038987853
108	0xbceb03ff	-0.028688429
109	0x3e053fa3	0.13012557
110	0x3da6ad1c	0.08138487
111	0x3df44e10	0.11928952
112	0xbd4afbef	-0.04955667
113	0xbdd82c00	-0.10555267
114	0x3dbced1a	0.09224911
115	0xbdacb952	-0.084337845
116	0x3b5a9642	0.003335372
117	0xbdb41c84	-0.087945014
118	0xbe33ab9a	-0.1754593
119	0x3e020ac2	0.12699416
120	0xbda811bf	-0.0820651
121	0xbd81f437	-0.063454084
122	0x3e30ee47	0.17278396
123	0x3b33dc82	0.0027444665
124	0xbce0e09b	-0.02745085
125	0x3d92bab8	0.0716452
126	0xbddcb784	-0.1077719
127	0x3e2b1121	0.16705753
128	0x3e3fd54a	0.18733707
129	0x3cdb761f	0.026789723
130	0x3e113c0a	0.1418306
131	0xbdb0cff2	-0.086334124
132	0x3d3ca919	0.0460597
133	0x3d8428a3	0.06453063
134	0x3da449be	0.08021878
135	0x3df9df33	0.12200775
136	0x3deffb84	0.11717895
137	0xbd832712	-0.064039364
138	0xbe42957b	-0.19002335
139	0x3d8496ed	0.06474099
140	0x3d84935a	0.064734176
141	0x3dc1f4d7	0.094705276
142	0xbde45eba	-0.1115088
143	0x3dc617d8	0.096725166
144	0x3c2d43ad	0.010575217
145	0x3e1f81ee	0.15576908
146	0x3d1e5499	0.038654897
147	0x3cdfe34a	0.02733006
148	0xbe382f15	-0.1798671
149	0x3da16f83	0.07882597
150	0xbc6f1a05	-0.014593606
151	0x3c91c522	0.017794196
152	0xbe369d85	-0.17833526
153	0x3e0d4ce1	0.13798858
154	0x3e06e4df	0.13173245
155	0x3dbc439a	0.091925815
156	0x3dab7dd3	0.083736084
157	0x3c04f82a	0.008115808
158	0x3ce8dc09	0.028425233
159	0x3e4f39de	0.20236918
160	0x3d959e3b	0.07305571
161	0x3d1a814c	0.037720963
162	0xbdc943a7	-0.09827357
163	0x3d160358	0.036624283
164	0x3d371387	0.044696357
165	0xbc5f0da0	-0.013614088
166	0x3d29495b	0.041329723
167	0x3ce59b6b	0.02802821
168	0xbdb55bcb	-0.08855399
169	0xbc92606c	-0.017868243
170	0x3e0dde20	0.13854265
171	0x3ceca566	0.028887462
172	0xbe027bfc	-0.12742609
173	0x3da55342	0.08072521
174	0x3e573fde	0.21020457
175	0x3d562a78	0.052286595
176	0x3e12e297	0.1434425
177	0x3da73635	0.08164636
178	0x3da1d2f1	0.07901562
179	0x3d2bd6ee	0.04195302
180	0x3d2e0ae7	0.042490866
181	0x3e871738	0.26384902
182	0xbd8ea5db	-0.06965228
183	0x3db037ff	0.086044304
184	0x3e021ace	0.12705538
185	0x3d869703	0.06571772
186	0x3e006e64	0.1254211
187	0xbd16edd1	-0.036847893
188	0x3ddc8bf9	0.10768885
189	0x3e20fefa	0.15722266
190	0x3e08c101	0.13354875
191	0x3ea00c78	0.31259513
192	0x3cdc33d5	0.026880184
193	0xbd131834	-0.035911754
194	0xbd860aef	-0.06545054
195	0x3d64f15c	0.05589424
196	0xbdf50461	-0.11963726
197	0x3d66b183	0.056321632
198	0xbe07c4c2	-0.13258651
199	0x3dacdaaa	0.08440144

bn1.running_mean f4 [200]
0	0x3d83f18a	0.06442554
1	0x3e13f68c	0.14449519
2	0x3d59eeff	0.05320644
3	0x3e0c0870	0.13675094
4	0x3d9e6b5e	0.077353224
5	0x3e0555f2	0.13021067
6	0x3dcc2b09	0.09969146
7	0x3e997289	0.29970196
8	0x3d82dac7	0.06389385
9	0x3e5ddd3a	0.21666422
10	0x3e62f4fe	0.2216377
11	0x3e413688	0.18868458
12	0x3e80822f	0.25099322
13	0x3d0c3d64	0.034238234
14	0x3e14f5dc	0.14546913
15	0x3c971bca	0.018445868
16	0x3e214615	0.1574939
17	0x3e05e456	0.13075384
18	0x3e23186c	0.15927285
19	0x3de81544	0.11332181
20	0x3e8dd5cd	0.2770218
21	0x3eaedbff	0.3415222
22	0x3dc90d18	0.098169506
23	0x3dca49ed	0.098773815
24	0x3e0743b9	0.13209428
25	0x3dbd5a2b	0.09245714
26	0x3dea1dd7	0.11431473
27	0x3d4f05e9	0.050542746
28	0x3d66cd4d	0.056348134
29	0x3e30052f	0.17189477
30	0x3ddb2140	0.10699701
31	0x3e97b9c0	0.29633904
32	0x3d9ea8b9	0.07747025
33	0x3eb7e6b9	0.35918215
34	0x3e13e1e6	0.14441642
35	0x3e4d2b0f	0.20035957
36	0x3d13f9c6	0.036126874
37	0x3e278231	0.16358258
38	0x3e0690e6	0.13141212
39	0x3e1649e4	0.14676625
40	0x3e7082b9	0.23487367
41	0x3e0d5cb5	0.13804896
42	0x3d96fcb0	0.07372415
43	0x3e9d81af	0.30763003
44	0x3e742ec9	0.23845972
45	0x3e778f74	0.24175817
46	0x3e03bb0a	0.12864318
47	0x3ebff89f	0.3749437
48	0x3ec8652a	0.39139682
49	0x3d920a2a	0.07130845
50	0x3d312e98	0.043257326
51	0x3cc33d0f	0.023832826
52	0x3e031456	0.12800726
53	0x3e242c5d	0.16032548
54	0x3daac55c	0.083384246
55	0x3df36a1c	0.11885473
56	0x3f01ac2e	0.5065335
57	0x3d915c4e	0.07097684
58	0x3e75e3d7	0.24012695
59	0x3ddeb01d	0.10873435
60	0x3ec0c285	0.37648407
61	0x3e85b8b9	0.26117495
62	0x3e162fa0	0.14666605
63	0x3e334a8a	0.17508903
64	0x3dae2a7f	0.08504199
65	0x3de0d410	0.10977948
66	0x3dd13aa2	0.102162614
67	0x3d28d58c	0.04121928
68	0x3e048c90	0.12944245
69	0x3e128521	0.14308597
70	0x3d66a357	0.056308117
71	0x3d3f8a2a	0.046762623
72	0x3e34dbb3	0.17661934
73	0x3e47fe18	0.19530523
74	0x3e2481d6	0.16065153
75	0x3e892d7d	0.26792517
76	0x3ddc62a5	0.107610025
77	0x3d4a19ae	0.049340896
78	0x3e40a5c1	0.1881323
79	0x3ee16b90	0.44027376
80	0x3e6baba3	0.23014693
81	0x3e6fb965	0.23410566
82	0x3ed575f3	0.4169155
83	0x3d3a8f89	0.045547042
84	0x3e20b6e4	0.15694767
85	0x3e427b73	0.18992405
86	0x3ddda474	0.108223826
87	0x3e46f1c0	0.19428158
88	0x3e537a57	0.20652138
89	0x3e052851	0.1300366
90	0x3e9c9309	0.3058093
91	0x3e536649	0.20644487
92	0x3e4ec3ff	0.20191954
93	0x3da187ff	0.07887267
94	0x3e9b37b3	0.30315933
95	0x3dd6c5b1	0.104869254
96	0x3e2f6da8	0.17131674
97	0x3e58da1a	0.21176949
98	0x3d8926e3	0.0669687
99	0x3dbfe6a6	0.093701646
100	0x3eff9320	0.49916935
101	0x3db5367d	0.088482834
102	0x3e3d78d0	0.18503118
103	0x3e3a2a6d	0.18180247
104	0x3dcf7b15	0.10130898
105	0x3e3bc90b	0.1833841
106	0x3e5d049a	0.21583787
107	0x3cf53eee	0.029937234
108	0x3df33d7a	0.1187696
109	0x3e7d68b9	0.2474698
110	0x3df4ae31	0.11947287
111	0x3e52dca6	0.20591983
112	0x3e4f4beb	0.20243804
113	0x3eae613c	0.3405856
114	0x3e564675	0.20925315
115	0x3e7f4173	0.2492731
116	0x3e3653a3	0.17805342
117	0x3d60e945	0.054909963
118	0x3e21161f	0.15731095
119	0x3e11aa57	0.14225136
120	0x3e677458	0.22602975
121	0x3e9cfdef	0.30662486
122	0x3e37b48a	0.17939964
123	0x3d1c62b2	0.03818006
124	0x3e25af5a	0.16180173
125	0x3e984647	0.29741117
126	0x3ede5af6	0.43428773
127	0x3e0bc39d	0.1364884
128	0x3e9bc2f4	0.30422175
129	0x3de8f8e1	0.11375595
130	0x3d63f725	0.055655617
131	0x3e90fe9a	0.28319246
132	0x3defbc93	0.117058896
133	0x3eaef676	0.3417241
134	0x3e877de4	0.26463234
135	0x3e11332b	0.14179675
136	0x3d979068	0.0740059
137	0x3e3316c2	0.1748915
138	0x3de6f3bc	0.112769574
139	0x3defec5d	0.117150046
140	0x3dd15494	0.1022121
141	0x3e1618e5	0.14657934
142	0x3d9f255a	0.07770796
143	0x3ee59fe2	0.44848543
144	0x3dc4c96b	0.0960873
145	0x3e254a6c	0.16141671
146	0x3e550ed7	0.20806442
147	0x3dab978e	0.08378516
148	0x3dccbfb7	0.09997504
149	0x3e18056e	0.14845821
150	0x3e191b76	0.14951882
151	0x3d5bba24	0.053644314
152	0x3e1c3b03	0.15256886
153	0x3eafe3ce	0.3435349
154	0x3dedc620	0.11610055
155	0x3de9464a	0.1139036
156	0x3e6d5659	0.2317747
157	0x3e350b7c	0.17680162
158	0x3ebd9e39	0.37034777
159	0x3e7f6497	0.24940716
160	0x3df880f3	0.1213397
161	0x3dcfc762	0.10145451
162	0x3e2ac216	0.166756
163	0x3db759a2	0.08952643
164	0x3dd4fe0b	0.10400017
165	0x3e4c6ad2	0.19962624
166	0x3e12ff4c	0.143552
167	0x3db945db	0.09046527
168	0x3ec29b12	0.38008934
169	0x3d66bb06	0.056330703
170	0x3e6649ae	0.22489044
171	0x3eb73f7b	0.3579062
172	0x3da70736	0.08155672
173	0x3e0c430a	0.13697448
174	0x3db3dc7f	0.08782291
175	0x3e53ce5e	0.20684192
176	0x3e8e93a1	0.27847007
177	0x3ec8e9d3	0.39240894
178	0x3dfdb745	0.123884715
179	0x3e42360e	0.18965933
180	0x3dcb5408	0.09928137
181	0x3d90fa0e	0.07078944
182	0x3dd75466	0.105141446
183	0x3e645a52	0.2230008
184	0x3e8ae1ee	0.27125496
185	0x3e308c36	0.17240986
186	0x3ec967a9	0.393369
187	0x3e1e30d6	0.15448317
188	0x3dacbfb6	0.084350035
189	0x3e2c4905	0.1682473
190	0x3e519a80	0.20469093
191	0x3e5cb1f1	0.21552254
192	0x3d59e903	0.053200733
193	0x3e19d579	0.1502284
194	0x3e9151c3	0.28382692
195	0x3cf89023	0.030342167
196	0x3e059942	0.13046744
197	0x3ce4d995	0.027935782
198	0x3e5b943f	0.2144327
199	0x3e124f21	0.14287998

bn1.running_var f4 [200]
0	0x3ce60923	0.028080529
1	0x3d949070	0.07254112
2	0x3c845145	0.016152034
3	0x3db6c7aa	0.08924802
4	0x3d5d675f	0.05405366
5	0x3da7e706	0.08198361
6	0x3d702d05	0.058636684
7	0x3e579b40	0.21055317
8	0x3d0a2b10	0.033732474
9	0x3e1c7491	0.15278842
10	0x3df11c57	0.117729835
11	0x3d8e7f30	0.06957853
12	0x3e08d0f7	0.13360964
13	0x3c7c837f	0.0154122105
14	0x3d85a103	0.06524851
15	0x3c209da3	0.0098032085
16	0x3dd2f36f	0.103003375
17	0x3d52d894	0.051476076
18	0x3dc25beb	0.09490188
19	0x3d8a101d	0.067413546
20	0x3de6c0c4	0.11267236
21	0x3e9c48a7	0.3052418
22	0x3d7fd97c	0.06246327
23	0x3d1a71f0	0.037706316
24	0x3d94a8a1	0.07258726
25	0x3d1c7006	0.03819277
26	0x3d96e7c2	0.07368423
27	0x3d5c2f90	0.053756297
28	0x3ccafc68	0.02477856
29	0x3da1d840	0.079025745
30	0x3d3ab86f	0.045586046
31	0x3dfc38cb	0.1231552
32	0x3d50defe	0.050993912
33	0x3e30e8de	0.17276332
34	0x3d828d1f	0.06374573
35	0x3dd0a879	0.101883836
36	0x3c7f4fff	0.015583037
37	0x3dabdfa7	0.08392268
38	0x3d98a5d3	0.074535035
39	0x3d6aa4bb	0.057286005
40	0x3e113d84	0.14183623
41	0x3d8391b4	0.06424275
42	0x3d1dbe1a	0.038511373
43	0x3e4596c7	0.19295798
44	0x3dd6364b	0.10459574
45	0x3e061b5b	0.13096373
46	0x3d423c15	0.04742058
47	0x3e896350	0.26833582
48	0x3e14ac4d	0.14518853
49	0x3d143992	0.036187716
50	0x3caf8b87	0.021428837
51	0x3c327614	0.01089241
52	0x3d8b7a26	0.06810407
53	0x3d9eafbe	0.07748364
54	0x3cce45ea	0.025179822
55	0x3d5db5a7	0.054128315
56	0x3e965f55	0.29369608
57	0x3ce00057	0.027343912
58	0x3e5b868e	0.21438047
59	0x3d8edac2	0.069753185
60	0x3e3c2aa5	0.18375643
61	0x3e1091a6	0.1411806
62	0x3da7ee63	0.081997655
63	0x3db57172	0.088595286
64	0x3d12ee53	0.035871815
65	0x3d157c53	0.036495518
66	0x3d8701d3	0.06592145
67	0x3c9621e0	0.0183267
68	0x3d29f948	0.0414975
69	0x3db564a8	0.08857089
70	0x3cd6ac7e	0.026205298
71	0x3d45e65e	0.0483154
72	0x3d58f43b	0.05296729
73	0x3d8727c4	0.065993816
74	0x3da6e792	0.08149637
75	0x3e419569	0.18904652
76	0x3d8c9fb7	0.06866401
77	0x3c994889	0.018711345
78	0x3dcb3ef4	0.09924117
79	0x3dd0982d	0.10185275
80	0x3ddaaf33	0.10677948
81	0x3e019c35	0.12657245
82	0x3e96c0d3	0.29443988
83	0x3cab91f7	0.020943625
84	0x3d871348	0.065954745
85	0x3dae580c	0.08512887
86	0x3d816f2a	0.06320031
87	0x3da51412	0.08060469
88	0x3debd222	0.11514689
89	0x3d79e367	0.061007883
90	0x3defca58	0.11708516
91	0x3db241a2	0.08703925
92	0x3daa49c7	0.08314853
93	0x3cdf913a	0.02729093
94	0x3e48fc5f	0.19627522
95	0x3d1414a2	0.03615249
96	0x3dc19639	0.09452481
97	0x3da703e7	0.08155041
98	0x3cd51f69	0.026015954
99	0x3d1d2f5a	0.038375236
100	0x3ea8f251	0.32997373
101	0x3d901259	0.070347495
102	0x3d83a10d	0.064272024
103	0x3d9ac729	0.07557518
104	0x3d0e1a99	0.034693334
105	0x3db8e882	0.09028722
106	0x3de49a71	0.1116227
107	0x3c577256	0.013149818
108	0x3db1fb71	0.08690537
109	0x3dc42d38	0.09578937
110	0x3da4fc2d	0.08055911
111	0x3e3ed92d	0.18637533
112	0x3e1b9a54	0.1519559
113	0x3e16b4df	0.14717434
114	0x3e067846	0.13131818
115	0x3dffcd0b	0.12490281
116	0x3dbc2fd8	0.09188813
117	0x3d057364	0.03258075
118	0x3dfcf12a	0.12350686
119	0x3dd7ca16	0.10536592
120	0x3db0e95e	0.08638261
121	0x3e10b6cb	0.1413223
122	0x3d82d1bd	0.06387661
123	0x3c667956	0.014067015
124	0x3d947766	0.07249336
125	0x3e50ea32	0.20401838
126	0x3e95fc92	0.29294258
127	0x3d88e123	0.066835664
128	0x3e50cc71	0.20390488
129	0x3d871a9c	0.06596872
130	0x3ce76a46	0.028248917
131	0x3e09eb7b	0.13468735
132	0x3da4149b	0.08011743
133	0x3e2ef5c6	0.17085943
134	0x3e26d568	0.16292346
135	0x3d6935f3	0.056936216
136	0x3d065135	0.03279229
137	0x3dd4483d	0.10365341
138	0x3d238564	0.039922133
139	0x3d35aea3	0.044356
140	0x3d1d2601	0.03836632
141	0x3d9bd0e4	0.07608202
142	0x3d132eaa	0.035933174
143	0x3e8ad375	0.27114454
144	0x3d0ec994	0.03486021
145	0x3db89999	0.090136714
146	0x3e11fdaa	0.14256921
147	0x3d362238	0.044466227
148	0x3d339469	0.043842707
149	0x3d45c67a	0.048284985
150	0x3d9030a0	0.070405245
151	0x3c9d7a79	0.019223439
152	0x3da90844	0.0825353
153	0x3e8b5b43	0.27218065
154	0x3d77e0ed	0.06051724
155	0x3d89a438	0.06720775
156	0x3e15f5ab	0.14644496
157	0x3dd12107	0.102113776
158	0x3e634220	0.22193193
159	0x3e125cc6	0.14293203
160	0x3d978ac0	0.07399511
161	0x3d5413ca	0.051776685
162	0x3db9deee	0.090757236
163	0x3d668967	0.05628338
164	0x3d01e1de	0.031709544
165	0x3dc828b3	0.09773388
166	0x3d965b10	0.073415875
167	0x3d209665	0.039205927
168	0x3e1329bf	0.14371394
169	0x3cf8a41a	0.030351687
170	0x3dbfe4b1	0.09369791
171	0x3e1f0bde	0.1553187
172	0x3d6785a2	0.056523927
173	0x3d904837	0.07045024
174	0x3d42ce47	0.047560003
175	0x3dccadfe	0.09994124
176	0x3dfd057e	0.12354563
177	0x3e1a88c9	0.15091242
178	0x3d39073f	0.045172926
179	0x3dea6c3b	0.114464246
180	0x3d7bba10	0.06145674
181	0x3d267492	0.040638514
182	0x3d202ae5	0.039103407
183	0x3e08ab27	0.1334654
184	0x3e273f6b	0.16332786
185	0x3dae8516	0.08521478
186	0x3e273876	0.16330132
187	0x3d942906	0.07234387
188	0x3d28dd99	0.041226957
189	0x3dab0d85	0.08352188
190	0x3d8ef5de	0.06980489
191	0x3e1366cd	0.14394684
192	0x3ce6531b	0.0281158
193	0x3d2824df	0.041050788
194	0x3e084df9	0.13310994
195	0x3c4a6aca	0.012354562
196	0x3d6b44b7	0.05743858
197	0x3c36fd0d	0.01116873
198	0x3e1f0aff	0.15531538
199	0x3dac50d7	0.084138565

fc2.weight f4 [300, 204]
0	0xbc3db8fb	-0.011579747
1	0xbd8f6ff3	-0.070037745
2	0x3cf4fbc2	0.029905204
3	0x3c1f097e	0.009706853
4	0x3d66725f	0.056261417
5	0xbcc47a3f	-0.023984073
6	0xbd1f6464	-0.0389141
7	0xbdc0a168	-0.09405786
8	0xbcc0b12b	-0.02352198
9	0xbd366770	-0.04453224
10	0x3e060cdc	0.13090843
11	0xbc1fa679	-0.00974428
12	0x3b60926e	0.0034266966
13	0x3ba31faa	0.00497814
14	0x3d1df239	0.03856108
15	0x3c9a7e1f	0.018858967
16	0xbd000682	-0.031256206
17	0x3de181fe	0.11011122
18	0x3dc99665	0.098431386
19	0x3d16d6b4	0.03682585
20	0xbc70ce4b	-0.014697622
21	0xbd21ffe9	-0.039550696
22	0xbdd41a5a	-0.10356589
23	0xbd86b811	-0.06578077
24	0x3d13ac46	0.036052965
25	0xbdb7c683	-0.0897341
26	0x3da240ff	0.07922553
27	0xbe262fe5	-0.16229208
28	0x3dc30517	0.09522455
29	0x3c9a0abd	0.018803949
30	0x3c0f5f64	0.00875077
31	0xbd9176cf	-0.07102739
32	0xbd0b4c07	-0.034008052
33	0xbd3af0fa	-0.04563997
34	0xbd37c546	-0.04486587
35	0xbd834303	-0.06409266
36	0x3dd0daa2	0.10197951
37	0x3cef1828	0.029186323
38	0xbd978854	-0.073990494
39	0x3d81b033	0.063324355
40	0xbda7fd5f	-0.082026236
41	0x3cc83835	0.024440864
42	0x3d00e446	0.0314677
43	0xbda68334	-0.08130494
44	0xbb681887	-0.003541501
45	0x3cefab87	0.029256595
46	0xbb920966	-0.004456687
47	0x3dcbab17	0.09944742
48	0xbce44e57	-0.027869387
49	0x3c394892	0.011308806
50	0x3d0eb426	0.03483977
51	0xbcd25727	-0.025676323
52	0xbca80f58	-0.020515129
53	0x3c16e3af	0.009209557
54	0xbda7fef7	-0.082029276
55	0xbca789f3	-0.020451522
56	0xbd6ebc52	-0.058285065
57	0xbd633690	-0.055471957
58	0x3da5179f	0.08061146
59	0xbc3850e8	-0.011249758
60	0xbd5590e5	-0.052140135
61	0x3dfe249f	0.12409329
62	0xbd863a9d	-0.06554148
63	0x3d41109e	0.047134988
64	0x3b96c443	0.004601033
65	0xbc37fa8c	-0.011229169
66	0xbd14f5c1	-0.03636718
67	0x3d044b7a	0.032298543
68	0xbc8af16f	-0.016960828
69	0xbd18d412	-0.03731162
70	0x3cd5808f	0.026062278
71	0x3bc3770f	0.0059651206
72	0x3bd5ac13	0.006520757
73	0x3d982896	0.07429616
74	0x3d8e4901	0.06947518
75	0xbcb30c40	-0.021856427
76	0xbd8db36a	-0.06918986
77	0x3d321850	0.043480217
78	0x3c7c9b6b	0.015417914
79	0x3d5233ed	0.05131905
80	0x3b06ca96	0.0020567528
81	0xbdd142b2	-0.10217799
82	0xbda73ef9	-0.08166308
83	0xbe3072b5	-0.17231257
84	0xbd83aa15	-0.06428925
85	0x3d479dc9	0.04873446
86	0x3d5d01b4	0.053956702
87	0xbc3a27f9	-0.011362069
88	0xbdc601ae	-0.09668289
89	0x3e0398af	0.12851213
90	0xbdc782ae	-0.09741722
91	0x3bacb435	0.005270506
92	0xbdb5a91f	-0.08870148
93	0xbd77a456	-0.060459457
94	0xbbf21c9e	-0.0073886653
95	0x3ca9d3da	0.020730902
96	0x3cd53b7a	0.026029337
97	0x3cc787ef	0.02435681
98	0xbdba77c9	-0.091048785
99	0x3d14dd6e	0.036343984
100	0xbd94d64b	-0.07267436
101	0xbd761eb1	-0.060087863
102	0xbd635669	-0.05550233
103	0xbd70ef4e	-0.05882197
104	0xbb76c690	-0.0037654974
105	0xbc98485b	-0.01858919
106	0xbda33bd0	-0.07970393
107	0x3d990b6c	0.07472882
108	0xbb5ad389	-0.0033390245
109	0x3d37b4be	0.044850104
110	0xbd4a36e2	-0.049368747
111	0x3d31d69f	0.04341757
112	0x3c9ad7a3	0.018901652
113	0xbd090c51	-0.03345901
114	0x3c2a0af0	0.010378584
115	0xbdb6c953	-0.08925118
116	0x3e143c4a	0.14476123
117	0x3e072220	0.13196611
118	0x3e10d8aa	0.14145151
119	0xbc8b7c0d	-0.017026925
120	0xbd4fb2a6	-0.05070748
121	0x3d6631c3	0.0561998
122	0x3b1a76fc	0.0023569455
123	0x3de95b4f	0.11394369
124	0x3b261540	0.0025342256
125	0x3d016266	0.03158798
126	0x3d60cdd7	0.054883804
127	0x3c8e1212	0.017342601
128	0xbe0b2713	-0.13589124
129	0x3d8b2c6f	0.067955844
130	0xbe0fa840	-0.14029026
131	0xbce7fab2	-0.028317783
132	0x3cd66b3c	0.02617418
133	0xbbf44e1a	-0.0074555995
134	0x3d0b4613	0.034002375
135	0x3e064b71	0.13114716
136	0xbdd4dc23	-0.1039355
137	0xbd3dc080	-0.04632616
138	0x3d7819f3	0.060571622
139	0xbda33066	-0.07968216
140	0xbd94a691	-0.072583325
141	0x3d262c27	0.04056945
142	0xbc1c1c47	-0.009528226
143	0xbe0c8eeb	-0.13726394
144	0x3d00010c	0.031251
145	0xbd3ab5e4	-0.04558362
146	0x3da067e9	0.07832319
147	0x3cafb55d	0.021448785
148	0xbabce32f	-0.0014410968
149	0xbde26d7c	-0.11056039
150	0x3ceeac3d	0.029134864
151	0xbc47f4e0	-0.012204379
152	0xbd2877c3	-0.04112984
153	0x3d0eae98	0.034834474
154	0x3d91634d	0.07099018
155	0x3b8be0a7	0.004268724
156	0xbcc596fd	-0.024119848
157	0xbd35d7ce	-0.04439526
158	0xbd74eb83	-0.059794914
159	0xbd8b0eef	-0.06789958
160	0x3df0d3c5	0.11759142
161	0xbd5967bf	-0.053077456
162	0x3cb48c49	0.02203955
163	0x3d4e3c6a	0.050350584
164	0xbd832c91	-0.06404985
165	0x3e11d765	0.14242323
166	0xbd7ca638	-0.061681956
167	0xbcf77856	-0.030208748
168	0x3d7b1f7c	0.061309323
169	0xbe2a9a8e	-0.1666052
170	0xbdba41df	-0.09094595
171	0x3d3148e8	0.04328242
172	0x3e005829	0.1253363
173	0xbb652187	-0.003496261
174	0xbc90d6f7	-0.017680628
175	0xbd8ef7a2	-0.06980826
176	0xbe38dc86	-0.18052873
177	0xbd3d96a1	-0.04628623
178	0xbd671e6c	-0.056425497
179	0x3d1a799a	0.037713625
180	0xbd36b337	-0.044604506
181	0xbe00a161	-0.12561561
182	0x3c3a822c	0.011383574
183	0x3d60a87a	0.05484817
184	0x3d2dc0e0	0.042420268
185	0x3cfa1e41	0.030532004
186	0xbdbf3261	-0.09335781
187	0x3cfa6bf6	0.030569058
188	0xbc95248f	-0.018205909
189	0x3a8644ab	0.0010243853
190	0x3bde8f07	0.0067919525
191	0xbdeadae3	-0.114675306
192	0xbcbd43e0	-0.023103654
193	0xbc3484be	-0.011017976
194	0x3b193f7c	0.0023383787
195	0xbdaf06f5	-0.08546249
196	0x3cbb3862	0.022854034
197	0xbd734f3c	-0.059401736
198	0x3d3cdafd	0.04610728
199	0xbdb353ad	-0.08756194
200	0xbb5a3714	-0.003329699
201	0x3c065dca	0.008201072
202	0xbbbb37f0	-0.0057134554
203	0x3cb9fd39	0.022703754
204	0x3d88bb5e	0.066763625
205	0xbdd58fc3	-0.10427811
206	0xbca17d29	-0.019713001
207	0xbaaa444c	-0.0012990325
208	0xbcf60dc1	-0.030035855
209	0xbe0b75f2	-0.13619211
210	0x3ce0b539	0.027430164
211	0xbc00cd2b	-0.007861416
212	0xbd181ef8	-0.03713891
213	0x3d4afbaa	0.04955641
214	0x3cbddf8f	0.02317789
215	0x3dd344d6	0.10315864
216	0xbdf0feef	-0.11767375
217	0xbd097bde	-0.033565395
218	0xba63692f	-0.00086750364
219	0x3da3541d	0.07975028
220	0xbd213b35	-0.039363105
221	0x3c4e72d5	0.01260062
222	0x3dfaccfb	0.12246128
223	0xbe0ff7eb	-0.14059417
224	0xbd79ee26	-0.06101813
225	0xbe0dcb6d	-0.13847132
226	0x3d412996	0.0471588
227	0x3b7a9d08	0.003824057
228	0xbd540b12	-0.05176837
229	0xbd064bdc	-0.03278719
230	0xbb44e99b	-0.0030046466
231	0xbdfb4380	-0.12268734
232	0x3c5441b3	0.012955117
233	0xbc7da4d2	-0.015481191
234	0x3c8b6eeb	0.017020663
235	0xbdafc447	-0.08582359
236	0xbc031e6f	-0.008002861
237	0xbdf73674	-0.12070933
238	0xbcb9ed21	-0.02269608
239	0x3ba6bd74	0.0050885025
240	0xbd7777db	-0.060417037
241	0x3d309cff	0.043118473
242	0xbdba1b9a	-0.09087296
243	0x3ca884cc	0.020571135
244	0xbd096cd5	-0.033551056
245	0xbb021a67	-0.0019852163
246	0xbdc9c465	-0.098519124
247	0x3e0ce54e	0.13759348
248	0xbd8a0672	-0.067395106
249	0x3d28b17f	0.0411849
250	0xbc44f3bb	-0.0120210005
251	0x3de79a21	0.11308695
252	0xbb85122c	-0.004061004
253	0x3c5e1a16	0.013556024
254	0xbda5788c	-0.08079633
255	0xbca4df50	-0.020126015

fc2.bias f4 [300]
0	0xbcae67a0	-0.021289647
1	0xbe3c17d2	-0.18368462
2	0xbdfe0f5f	-0.124052756
3	0xbdb6add4	-0.08919874
4	0x3d430d60	0.047620177
5	0x3dbae52d	0.09125743
6	0x3dcec7ab	0.100966774
7	0xbdb78d32	-0.08962478
8	0xbe1b7198	-0.15180051
9	0x3ce0da63	0.027447885
10	0xbc97d98b	-0.01853635
11	0xbdc22d06	-0.09481244
12	0xbdec5e8f	-0.11541473
13	0xbe1556e7	-0.14583932
14	0xbe00e99e	-0.12589118
15	0x3e017e8d	0.12645932
16	0x3da6b297	0.08139532
17	0x3ddc17a6	0.10746698
18	0x3d3b05eb	0.04565994
19	0xbe408e06	-0.18804178
20	0x3c407795	0.011747261
21	0xbdbda715	-0.09260384
22	0xbc994a61	-0.018712224
23	0xbdecdfbb	-0.11566111
24	0xbd948496	-0.07251851
25	0xbe2b73b8	-0.16743362
26	0x3e3715e3	0.17879443
27	0x3c16d72f	0.009206577
28	0xbdccf760	-0.100081205
29	0x3e278234	0.16358262
30	0x3c47b62f	0.012189432
31	0xbdc4e3c1	-0.09613753
32	0xbd0cfd66	-0.034421347
33	0x3dfc324f	0.12314283
34	0x3d8d6d8f	0.06905662
35	0xbe1aa295	-0.15101083
36	0x3e3c7dfe	0.18407437
37	0xbdf8563c	-0.12125823
38	0xbe318187	-0.17334567
39	0xbe01fe2d	-0.12694617
40	0x3d67b566	0.05656948
41	0xbdcb11e6	-0.09915523
42	0xbde4183f	-0.11137437
43	0xbe0f88d1	-0.14017035
44	0xbe3c5b90	-0.18394303
45	0x3d27a945	0.040932912
46	0xbe017a59	-0.12644328
47	0x3d8b2e36	0.067959234
48	0xbdf501ad	-0.1196321
49	0xbe25a814	-0.16177398
50	0x3d5f46ba	0.05451081
51	0xbdaad5c8	-0.08341557
52	0xbac9b87e	-0.0015390066
53	0x3baf7730	0.0053547844
54	0xbe12234b	-0.14271276
55	0xbda96752	-0.0827166
56	0x3d96b535	0.07358781
57	0xbdc2be30	-0.09508932
58	0x3bd65bef	0.006541721
59	0xbe126f21	-0.14300205
60	0x3d9de87c	0.077103585
61	0xbddc52ca	-0.10757978
62	0xbd770b43	-0.060313474
63	0xbd718574	-0.05896516
64	0xbe2da04f	-0.16955684
65	0xbdf32d58	-0.11873883
66	0xbe205493	-0.15657263
67	0xbcd73471	-0.026270123
68	0x3db6d89f	0.08928036
69	0xbd3c1968	-0.045922667
70	0xbbfb7c75	-0.0076747485
71	0x3e0cb0a6	0.13739261
72	0x3e10e6c6	0.14150533
73	0x3941b9e1	0.0001847516
74	0xbe1a7899	-0.15085067
75	0x3d43ae2f	0.047773536
76	0xbe22221d	-0.15833326
77	0xbda55a63	-0.080738805
78	0xbe1bccec	-0.1521489
79	0xbe2a1b9c	-0.16612095
80	0xbe292bb0	-0.16520572
81	0xbe2bc806	-0.16775522
82	0xbe14f489	-0.14546408
83	0x3dd8471a	0.105604365
84	0x3cc3921a	0.023873378
85	0xbe38302e	-0.17987129
86	0x3b474bb7	0.003041012
87	0xbe18ab23	-0.14909033
88	0xbe2c412e	-0.16821739
89	0xbe30756d	-0.17232294
90	0xbdcea89a	-0.10090752
91	0x3cf6a2cc	0.030106924
92	0x3defd3ec	0.11710343
93	0x3e1ab8ce	0.1510956
94	0xbe55733d	-0.20844741
95	0xbe459261	-0.1929412
96	0xbe29f4d2	-0.16597298
97	0xbe23282f	-0.15933298
98	0x3d817760	0.06321597
99	0xbd5a6789	-0.053321395
100	0xbe5d5f9a	-0.216185
101	0x3d3ff3d7	0.046863403
102	0x3de1c262	0.11023404
103	0xbcb9c01d	-0.022674615
104	0xbe3a8cc4	-0.1821776
105	0xbd6a06a5	-0.057135243
106	0xbe4cf1a5	-0.20014055
107	0xbdcd8236	-0.100346014
108	0xbdcb9fe9	-0.0994261
109	0x3e00d316	0.12580523
110	0x3deab56b	0.11460384
111	0x3dbd0f36	0.09231417
112	0x3d9e39e9	0.07725889
113	0x3d801a18	0.06254977
114	0x3d1ef287	0.03880551
115	0x3dedfe97	0.11620825
116	0xbd827a78	-0.06371015
117	0x3d847075	0.06466762
118	0xbe53ab3e	-0.20670792
119	0x3d55196a	0.05202619
120	0xbe1fd7d9	-0.15609683
121	0x3d06e2e2	0.032931216
122	0x3dbde3be	0.09271954
123	0xbd5a7d91	-0.053342406
124	0xbe277d9e	-0.16356513
125	0xbdd717dc	-0.10502598
126	0x3dda890d	0.106706716
127	0xbe26bff4	-0.16284162
128	0xbe11dbfc	-0.14244074
129	0xbe0fbeb0	-0.14037585
130	0x3def24f3	0.116769694
131	0xbd9c8e82	-0.07644369
132	0xbe35d647	-0.17757522
133	0x3da6b6be	0.08140324
134	0x3cf1b52e	0.029505339
135	0x3cdf33fd	0.02724647
136	0xbd4504fa	-0.04810045
137	0xbe0e3b81	-0.13889886
138	0x3d9ca0dc	0.07647869
139	0x3dac1080	0.084015846
140	0xbdb5350e	-0.0884801
141	0x3cf88c77	0.030340416
142	0xbdc4bb6a	-0.09606059
143	0x3d414edf	0.047194358
144	0xbe3b012c	-0.18262166
145	0x3c9c642c	0.019090734
146	0xbdf9d0c3	-0.12198021
147	0x3d713100	0.05888462
148	0xbdeae942	-0.11470272
149	0x3d3fca0a	0.04682354
150	0x3e239ea2	0.15978482
151	0xbdd16cb2	-0.1022581
152	0xbe30a314	-0.1724971
153	0xbdc9896a	-0.09840663
154	0xbde3a930	-0.11116254
155	0x3dc68f17	0.09695261
156	0xbbc2d1b8	-0.0059454106
157	0x3c284b52	0.010271864
158	0xbe03c476	-0.12867913
159	0xbe27b352	-0.16376999
160	0xbd0da93e	-0.03458523
161	0x3d31f297	0.043444242
162	0x3e00f3b6	0.12592968
163	0xbe009194	-0.12555534
164	0x3de32f18	0.11092967
165	0xbe281157	-0.16412865
166	0xbd59855f	-0.05310571
167	0xbe094ebe	-0.13408944
168	0x3d1a3630	0.037649333
169	0xbe2a3f19	-0.16625632
170	0xbe2e61c0	-0.17029476
171	0x3d328de7	0.04359236
172	0x3e4b568c	0.19857234
173	0x3e1e280b	0.15444963
174	0x3e2b025d	0.1670012
175	0xbe00aa1b	-0.1256489
176	0xbd38a117	-0.045075502
177	0x3d50568e	0.050863795
178	0xbad0ecba	-0.0015939691
179	0xbe0c1502	-0.13679889
180	0x3de461b1	0.11151446
181	0x3dd82129	0.105532
182	0xbe3fbe72	-0.18724993
183	0xbdcb0f39	-0.09915013
184	0x3c93972b	0.018016418
185	0xbe3e0538	-0.18556678
186	0xbd3b0bb3	-0.045665454
187	0x3cbee991	0.023304733
188	0xbdcf3601	-0.10117722
189	0xbd152ef7	-0.036421742
190	0x3dcafa73	0.09911051
191	0xbc0a825a	-0.00845393
192	0xbde4941d	-0.11161063
193	0xbe18e3f0	-0.14930701
194	0x3ca2ec47	0.019888056
195	0xbe54002b	-0.20703189
196	0xbdc28eb3	-0.09499874
197	0x3c4997a6	0.012304222
198	0xbe26f8fd	-0.16305919
199	0xbe4b5e08	-0.19860089
200	0xbdbef584	-0.09324172
201	0xbdac83c8	-0.08423573
202	0xbe1e3ca0	-0.15452814
203	0xbe465af9	-0.19370641
204	0xbe3c1464	-0.18367153
205	0xbdea3b6e	-0.114371166
206	0x3e5fe4b3	0.21864586
207	0x3d6535e6	0.055959605
208	0xbde3680e	-0.11103831
209	0xbdbb2351	-0.091375954
210	0xbdcb7362	-0.09934117
211	0x3cbc733d	0.023004169
212	0x3e393844	0.1808787
213	0xbdbadd24	-0.091242105
214	0xbd209f89	-0.039214645
215	0xbe07bf24	-0.13256508
216	0xbdb3ff3b	-0.08788916
217	0x3d08e4d2	0.033421345
218	0xbd83b3d5	-0.064307846
219	0xbdb0c6c7	-0.08631664
220	0xbd6fef78	-0.058577985
221	0xbe3e0405	-0.18556221
222	0xbe24aad2	-0.16080788
223	0xbe0b73a7	-0.13618337
224	0xbe228e55	-0.15874608
225	0x3cd76d7e	0.026297327
226	0xbd8a7d70	-0.067622066
227	0x3e146c75	0.14494498
228	0xbe197fbf	-0.14990138
229	0xbe1c50eb	-0.15265243
230	0xbdbceed5	-0.09225241
231	0xbd7428bc	-0.05960916
232	0xbda9b8bf	-0.08287191
233	0xbd962d74	-0.07332888
234	0xbdfb1641	-0.12260104
235	0x3cd347b9	0.025791036
236	0xbd823f7f	-0.06359767
237	0xbdd02684	-0.10163596
238	0xbd97fbed	-0.07421098
239	0xbdd655aa	-0.10465558
240	0xbdc2fab8	-0.09520477
241	0xbe4829d1	-0.19547202
242	0x3d96dc59	0.07366247
243	0xbe432772	-0.19058016
244	0xbdeba8cd	-0.115068056
245	0x3c233300	0.00996089
246	0x3ceecd9c	0.029150777
247	0x3e024dc0	0.12724972
248	0xbdca27cf	-0.09870874
249	0xbdf1a315	-0.117986836
250	0x3dbee2d8	0.09320611
251	0xbdf4d9a1	-0.11955572
252	0xbe3006ce	-0.17190096
253	0xbe1147b6	-0.14187512
254	0xbe1e63d8	-0.15467775
255	0x3e244f93	0.1604598
