experiments/exp2/models/checkpoint_critic_4.pth (torch_old, 275436 bytes, 5 tensors)

fc1.weight f4 [200, 33]
0	0x3d869886	0.0657206
1	0x3c9ae8c7	0.018909825
2	0x3cb3e8dd	0.021961624
3	0xbe7574d2	-0.23970345
4	0x3d8a8e2a	0.06765397
5	0xbd8787b1	-0.06617678
6	0x3d1e144d	0.03859358
7	0xbcee66cb	-0.02910175
8	0x3d5f57dc	0.05452715
9	0x3e082cae	0.13298294
10	0xbcca2a43	-0.024678355
11	0x3d20a90a	0.03922371
12	0xbd063d76	-0.032773457
13	0x3d22ec01	0.039775852
14	0xbc9e64a2	-0.019335095
15	0x3d536d41	0.051617865
16	0x3e0cb819	0.13742103
17	0x3da14a3e	0.07875489
18	0xbd535437	-0.051593985
19	0x3e5c7a3c	0.21531004
20	0xbce31935	-0.02772198
21	0xbb3c7894	-0.0028758394
22	0x3d2d629b	0.042330366
23	0x3c4c5224	0.012470756
24	0x3b9668b8	0.00459012
25	0x3b9d050f	0.004791863
26	0xbdd2c689	-0.10291774
27	0x3d1d7ddf	0.03845012
28	0xb9ca4d28	-0.00038585928
29	0xbd57fe94	-0.05273302
30	0xbd812f19	-0.06307811
31	0x3d87dbe1	0.066337354
32	0xbf0aeeb1	-0.54270464
33	0x3dc4b777	0.09605306
34	0x3d7838b7	0.060600962
35	0x3c28e1fb	0.010307784
36	0x3e8e7586	0.27824038
37	0xbeaaf982	-0.33393484
38	0x3d98c162	0.0745876
39	0xbe2d5c27	-0.16929685
40	0x3cd5e771	0.026111336
41	0x3db6b663	0.08921506
42	0x3d30637b	0.043063622
43	0xbc5394ef	-0.0129139265
44	0x3c6fa367	0.0146263605
45	0xbc775eaf	-0.015098258
46	0x3cb7822d	0.02240094
47	0x3b4a0c28	0.003083
48	0x3cb93003	0.022605902
49	0xbe00db56	-0.1258367
50	0xbebeeb78	-0.37289023
51	0xbe231e14	-0.15929443
52	0x3d12e72c	0.035864994
53	0x3cbee295	0.023301402
54	0xbc897a1d	-0.016781861
55	0xbcebae9e	-0.028769787
56	0xbd2ca98a	-0.042153873
57	0xbb08cc30	-0.0020873658
58	0xbd1c382f	-0.03813952
59	0xbd83f097	-0.06442373
60	0x3c6db044	0.014507357
61	0xbcde90db	-0.027168682
62	0xbd90a15f	-0.07062029
63	0xbca38c29	-0.019964295
64	0x3d28f8b0	0.041252792
65	0xbcc4b614	-0.024012603
66	0xbda3d5ba	-0.079997495
67	0x3c93704c	0.017997883
68	0x3d8a7960	0.06761432
69	0x3dba2db3	0.09090748
70	0xbce92fe6	-0.028465223
71	0xbe8661a9	-0.26246384
72	0xbd8b08b4	-0.06788769
73	0x3d989614	0.074505
74	0x3ce5aa19	0.02803521
75	0x3d8a7ae2	0.06761719
76	0xbd64ea59	-0.055887554
77	0x3d284940	0.04108548
78	0x3cdf2a6e	0.027241912
79	0xbd762b54	-0.060099915
80	0x3d841477	0.06449216
81	0x3c38cdcf	0.011279537
82	0xbc2f277c	-0.010690566
83	0x3e452d46	0.19255552
84	0xbe819c72	-0.2531467
85	0x3d836ac5	0.06416849
86	0xbcde89c4	-0.027165301
87	0xbb32b7d5	-0.0027270217
88	0xbcf2cc2c	-0.029638372
89	0xbcedb4fb	-0.029016962
90	0x3d2629f6	0.04056736
91	0xbdc7c078	-0.097535074
92	0x3d8153ee	0.063148364
93	0x3d1960a0	0.037445664
94	0x3c232edc	0.009959903
95	0x3d1abdc6	0.03777864
96	0xbabccafb	-0.0014403755
97	0x3d294312	0.04132373
98	0x3ebc9656	0.36833447
99	0xbdcc3874	-0.09971705
100	0x3cda5611	0.026652368
101	0x3de998ec	0.11406121
102	0x3d52c1ea	0.051454462
103	0x3e9fc922	0.3120814
104	0x3c914818	0.017734572
105	0xbd0b1bc8	-0.03396204
106	0x3cf5ce60	0.030005634
107	0x3d734963	0.05939616
108	0x3db21753	0.08695855
109	0xbc323604	-0.010877136
110	0x3b761933	0.003755164
111	0x3d1917b0	0.037376106
112	0x3dab5b3f	0.08367013
113	0xbdd12d52	-0.10213722
114	0xbd24806c	-0.040161535
115	0x3d1830b2	0.037155814
116	0xbe321da6	-0.17394122
117	0xbd0dc350	-0.034610093
118	0x3d16e36a	0.036837973
119	0xbc2d961c	-0.010594871
120	0x3c99d8bb	0.018780103
121	0x3c8566a0	0.016284287
122	0xbcfc247d	-0.030779118
123	0x3c8ba89c	0.017048173
124	0x3b2695fb	0.0025418985
125	0xbd9f0266	-0.07764129
126	0x3d8009cf	0.06251871
127	0xbd6c926e	-0.057756834
128	0xbd806e96	-0.062710926
129	0xbcb73607	-0.02236463
130	0xbc636a28	-0.01388029
131	0xbe86f97b	-0.26362213
132	0x3dd0dd7a	0.10198493
133	0xbd4cc839	-0.049995635
134	0xbda4eabf	-0.08052587
135	0x3c4554b8	0.012044124
136	0x3e112b16	0.14176592
137	0xbe03404a	-0.12817493
138	0x3d2c03b0	0.041995704
139	0x3db98024	0.09057644
140	0x3d10e290	0.035372317
141	0xbbc6c88e	-0.0060663885
142	0x3d106882	0.035255916
143	0xbc6e1eb6	-0.014533689
144	0x3d80f6c5	0.062970676
145	0xbe2deced	-0.16984911
146	0x3cbe2624	0.023211546
147	0x3cfbdaf6	0.030744057
148	0x3c56e12a	0.013115207
149	0xbdc3582d	-0.095383026
150	0xbd93f1a4	-0.07223824
151	0xbe1f99d2	-0.15586022
152	0x3cdf8fdb	0.027290275
153	0xbbe35617	-0.006937753
154	0x3d07fc7c	0.033199772
155	0x3c852319	0.016252087
156	0x3d6ae2e1	0.057345275
157	0xbc90534b	-0.017617842
158	0x3db5eae1	0.0888269
159	0x3d611357	0.054950085
160	0xbd46028f	-0.048342284
161	0x3cfff540	0.031244874
162	0xbdc8189e	-0.0977032
163	0xbd87c3b1	-0.06629122
164	0xbe9b0188	-0.30274606
165	0x3d03876e	0.032111578
166	0xbdd53d51	-0.10412086
167	0x3e262b0a	0.16227356
168	0xbcc30f3b	-0.023810973
169	0x3df0c9e4	0.117572576
170	0x3e6ef3d6	0.23335204
171	0x3de28208	0.11059958
172	0xbc9c7608	-0.01909925
173	0xbe4578cd	-0.19284363
174	0x3a0ac1a5	0.00052931375
175	0xbc1d9b11	-0.00961949
176	0x3c2a166e	0.010381324
177	0xba847905	-0.0010106867
178	0x3d04916f	0.03236526
179	0xbd27901a	-0.04090891
180	0xbe14fe5f	-0.1455016
181	0x3e88d3e2	0.26724154
182	0xbd88bb56	-0.066763565
183	0xbd5f805a	-0.054565765
184	0xbe9e809f	-0.30957505
185	0x3c67c241	0.014145435
186	0xbce386ae	-0.027774181
187	0x3cd7cacc	0.026341818
188	0x3d0736d1	0.03301126
189	0x3ccf8960	0.02533406
190	0xbc8c9029	-0.017158585
191	0x3bcddee5	0.0062826746
192	0x3dfae6ff	0.1225109
193	0x3d51a680	0.051184177
194	0x3d7ba33a	0.06143496
195	0xbe0a7f7c	-0.13525194
196	0xbd8b8408	-0.06812292
197	0xbe18dd43	-0.14928155
198	0xbad4774c	-0.001620987
199	0x3d731f02	0.059355743
200	0xbe306866	-0.17227325
201	0xbd7f594e	-0.062341027
202	0xbe80d230	-0.2516036
203	0xbe086299	-0.13318862
204	0xbe55c3eb	-0.20875518
205	0xbde0aaec	-0.10970101
206	0x3da7b53d	0.08188865
207	0x3cb6401b	0.022247365
208	0x3aca344c	0.0015426963
209	0xbd6ec03c	-0.058288798
210	0xbdb1cb87	-0.08681398
211	0x3db2a798	0.08723372
212	0x3df1be1a	0.11803837
213	0x3d58bd1a	0.052914716
214	0x3dc12c46	0.094322726
215	0xbec597d1	-0.3859239
216	0xbec3ea7a	-0.3826483
217	0xbde912c0	-0.113805294
218	0x3b2c720b	0.0026313092
219	0xbd7ca941	-0.06168485
220	0x3cfab66c	0.030604564
221	0x3cc78f9f	0.024360476
222	0xbb29a597	-0.0025886053
223	0x3d3afcc4	0.045651212
224	0x3c891095	0.01673154
225	0xbc8919a3	-0.016735857
226	0x3d8381f4	0.06421271
227	0xbc99304a	-0.018699784
228	0x3da843fd	0.08216093
229	0xbc68d180	-0.014210105
230	0x3ca4416b	0.020050725
231	0xbcffbbb8	-0.031217441
232	0x3cbd0386	0.02307297
233	0xbe03820b	-0.12842576
234	0x3d17aa07	0.037027385
235	0x3e7784b8	0.24171722
236	0x3de9408c	0.113892645
237	0xbe32e289	-0.17469229
238	0x3cb17d1c	0.021666102
239	0xbd89e6bc	-0.06733462
240	0x3e01d562	0.12679055
241	0xbc97d80c	-0.018535636
242	0xbcad94f1	-0.021189185
243	0x3d0dbca0	0.034603715
244	0x3de8a014	0.113586575
245	0xbd2f0def	-0.042737897
246	0x3e33f872	0.17575243
247	0xbc971d32	-0.018446539
248	0x3de8088e	0.11329757
249	0x3dcc6fab	0.099822365
250	0x3dc39aaa	0.09550984
251	0x3c30c9a2	0.0107902605
252	0xbb07c49e	-0.0020716558
253	0xbc44d499	-0.012013578
254	0x3a8f69a4	0.0010941518
255	0xbbf806fa	-0.007569191

fc1.bias f4 [200]
0	0xbddfc9c5	-0.10927156
1	0x3e1415ed	0.14461489
2	0xbe112235	-0.14173205
3	0x3e0a9040	0.1353159
4	0xbdef1f7a	-0.116759256
5	0xbe706586	-0.23476228
6	0xbd59bd6f	-0.053159174
7	0xbd8db087	-0.069184355
8	0xbdba8b98	-0.09108657
9	0xbc26aef3	-0.010173547
10	0xbd633bf9	-0.055477116
11	0x3e293555	0.16524251
12	0x3d8c18e8	0.06840688
13	0xbe156908	-0.14590847
14	0xbc850c8f	-0.01624134
15	0xbe0e0297	-0.13868175
16	0xbe8a7666	-0.27043456
17	0x3d32b7e6	0.04363241
18	0x3cb4faab	0.022092184
19	0xbe105197	-0.14093624
20	0x3c91b6e8	0.017787412
21	0x3dc9ed3b	0.09859701
22	0x3d62711e	0.05528366
23	0xbe67c9ec	-0.22635621
24	0xbdfcd611	-0.123455174
25	0xbddbf919	-0.10740871
26	0xbdff5712	-0.12467779
27	0x3e0dd8eb	0.13852279
28	0xbcf0e895	-0.029407779
29	0xbe2073a8	-0.1566912
30	0x3d9d7f63	0.07690313
31	0x3e0d5450	0.13801694
32	0x3d44311d	0.0478984
33	0xbd7308ae	-0.05933445
34	0x3ca57fef	0.020202605
35	0xbc4cabdd	-0.012492147
36	0x3d7d3c62	0.061825164
37	0xbde42f96	-0.11141889
38	0xbc832ade	-0.016011652
39	0x3d9bc7ce	0.07606469
40	0xbd866ba6	-0.06563501
41	0xbdf7ba19	-0.12096042
42	0xbd81b1b4	-0.06332722
43	0x3d29083b	0.041267615
44	0x3e0544d2	0.13014534
45	0xbe0876b2	-0.13326529
46	0xbe9c9dab	-0.3058904
47	0x3e23dffd	0.16003413
48	0xbe2a463a	-0.16628352
49	0xbe2726a5	-0.16323335
50	0x3e15a250	0.14612699
51	0xbe4d19f7	-0.20029436
52	0x3cd3a86b	0.025837144
53	0x3e359bd5	0.17735226
54	0xbe3a3d62	-0.18187478
55	0x3dce6c54	0.10079256
56	0x3da2227c	0.079167336
57	0xbcebbc8d	-0.028776431
58	0x3da44d31	0.080225356
59	0xbddca806	-0.107742354
60	0x3d315d6b	0.04330198
61	0x3e36d835	0.17855914
62	0xbd36e1c5	-0.044648904
63	0x3d82d3e1	0.06388069
64	0xbb3a682b	-0.0028443437
65	0x3d173f4c	0.0369256
66	0x3d9386b6	0.072034284
67	0xbdf1d03d	-0.118072964
68	0xbdf52d2c	-0.119715065
69	0xbe03b88e	-0.12863371
70	0xbddff440	-0.10935259
71	0x3d5878d2	0.0528496
72	0xbd32e565	-0.0436758
73	0x3e0eb647	0.13936721
74	0xbda695b7	-0.081340246
75	0xbe7c56b3	-0.24642448
76	0x3dcb0bce	0.09914361
77	0xbe738e44	-0.23784739
78	0x3da7b3ea	0.08188613
79	0x3d912356	0.07086818
80	0x3d86d0a3	0.06582763
81	0xbe4769c1	-0.19473936
82	0x3e220b30	0.1582458
83	0xbe481904	-0.19540793
84	0xbbc33013	-0.0059566586
85	0x3e07491c	0.13211483
86	0xbd56b1f9	-0.05241582
87	0xbe10fa85	-0.14158066
88	0x3dbbd10e	0.091707334
89	0xbc8b9916	-0.01704077
90	0xbe1a1307	-0.15046321
91	0x3d475261	0.048662547
92	0x3da15a36	0.078785345
93	0xbe0e39b9	-0.13889207
94	0xbdfbdf9d	-0.1229851
95	0xbcc16541	-0.023607852
96	0x3dd16935	0.10225145
97	0x3da8ba65	0.08238677
98	0x3d7dfce8	0.06200877
99	0x3c795789	0.015218624
100	0x3d94a493	0.072579525
101	0xbd5fcff7	-0.05464169
102	0x3dfe3a5d	0.12413476
103	0xbd4c8629	-0.049932633
104	0x3bff8fbf	0.0077991183
105	0xbe497073	-0.19671802
106	0xbe00ee76	-0.12590966
107	0xbe4775ac	-0.19478482
108	0xbd9084ac	-0.07056555
109	0xbd068e27	-0.03285041
110	0x3d2de33c	0.042453036
111	0xbddff3f6	-0.10935204
112	0xbd82af12	-0.06381048
113	0x3dc03780	0.09385586
114	0xbe0dfc14	-0.13865691
115	0xbdf8340c	-0.12119302
116	0xbd91660f	-0.07099544
117	0xbe5e88b9	-0.21731843
118	0xbe7b996e	-0.24570248
119	0xbe8af262	-0.27138048
120	0x3d5cdaa9	0.053919468
121	0x3b39ce0b	0.002835157
122	0x3dd751f6	0.1051368
123	0xbde74833	-0.11293068
124	0x3dd31ceb	0.1030825
125	0xbd85a297	-0.06525152
126	0x3d57ecd2	0.052716084
127	0x3dcf0a3c	0.10109374
128	0xbc777054	-0.015102465
129	0x3b78f42e	0.003798734
130	0xbe2fd22c	-0.17170018
131	0xbe0a1cac	-0.134875
132	0x3d0fd833	0.035118293
133	0x3e214877	0.157503
134	0x3c9a973e	0.018870946
135	0xbe7cf607	-0.24703227
136	0xbe037107	-0.12836085
137	0x3cc0e49c	0.02354651
138	0xbe221fa5	-0.15832384
139	0xbd4b67e1	-0.049659614
140	0xbb0b1096	-0.0021219603
141	0xbe0834cb	-0.13301389
142	0xbd7d92ff	-0.061907765
143	0xbdea90ce	-0.114534006
144	0xbe0d4314	-0.1379512
145	0x3de632f8	0.1124019
146	0xbe39d120	-0.18146181
147	0xbd025af3	-0.031825017
148	0xbda968d3	-0.08271947
149	0x3b97dfa5	0.004634815
150	0x3e4e5da4	0.20152909
151	0xbbe1a21b	-0.0068857796
152	0x3cf858f6	0.030315857
153	0xbe055471	-0.13020493
154	0xbdfe758e	-0.124247655
155	0xbd4e328e	-0.05034118
156	0xbe392541	-0.18080617
157	0x3ce4c19f	0.027924357
158	0x3dc70016	0.09716813
159	0xbe73de4c	-0.23815268
160	0x3dfaf29d	0.12253306
161	0xbd1ebceb	-0.038754385
162	0xbe6470a2	-0.22308591
163	0xbde70635	-0.11280481
164	0xbd95ccbd	-0.07314441
165	0x3d720683	0.05908824
166	0x3d625351	0.055255238
167	0xbe2650f3	-0.16241817
168	0x3dce1b78	0.10063833
169	0xbc8cd6bd	-0.017192239
170	0x3dbbb670	0.091656566
171	0xbdf4f5aa	-0.11960919
172	0xbdd6f4aa	-0.10495885
173	0xbe195b50	-0.14976239
174	0xbd235537	-0.03987619
175	0xbcf9a099	-0.030472087
176	0x3d102a79	0.035196755
177	0xbc6b2711	-0.014352576
178	0x3db7fc08	0.08983618
179	0x3e2ea83f	0.17056368
180	0x3de77f58	0.11303586
181	0xbe39023e	-0.18067262
182	0xbde1f1f8	-0.1103248
183	0xbda6a36a	-0.081366375
184	0xbe3addb8	-0.18248641
185	0x3d650d8d	0.055921126
186	0x3dcfb250	0.10141432
187	0xbc1d8d85	-0.00961626
188	0x3cd9c3f9	0.026582705
189	0xbba40f0e	-0.0050066775
190	0xbd67c2f6	-0.056582414
191	0x3cb8bac9	0.022550004
192	0xbcbac8dd	-0.022800857
193	0xbdab8c68	-0.0837639
194	0x3e26f284	0.1630345
195	0xbe8eb838	-0.27874923
196	0xbdae4b29	-0.085104294
197	0xbb8bf29e	-0.0042708656
198	0x3dc63c2e	0.09679447
199	0xbda37e88	-0.07983118

fc2.weight f4 [300, 204]
0	0xbe093158	-0.1339773
1	0x3e2b8bad	0.16752501
2	0x3d7eeb0e	0.062235884
3	0xbdbff901	-0.093736656
4	0x3d10f320	0.035388112
5	0x3c072c36	0.008250287
6	0x3d67a7dc	0.056556568
7	0x3c1c5eee	0.009544117
8	0xbd2c020f	-0.04199415
9	0xbd05414d	-0.03253298
10	0xbddaf1a7	-0.10690623
11	0xbccdd1e3	-0.025124496
12	0x3dea0237	0.11426204
13	0xbcc09775	-0.02350972
14	0xbda7f636	-0.08201258
15	0xbdd19373	-0.10233202
16	0xbdc87e6e	-0.097897395
17	0x3d8aee05	0.0678368
18	0xbde2e982	-0.11079694
19	0x3d200ef7	0.03907677
20	0x3d683f5c	0.05670105
21	0xbd8d27a1	-0.06892324
22	0xbda4a9e3	-0.08040216
23	0x3d6a6f32	0.05723495
24	0xbd52421d	-0.05133258
25	0xbc0cc014	-0.008590717
26	0x3d6404a5	0.055668492
27	0x3d1b65e8	0.037938982
28	0x3d5a7cc0	0.053341627
29	0xbdb609f3	-0.088886164
30	0xbd78cbab	-0.060741108
31	0x3acd82c8	0.0015679235
32	0x3c572df3	0.013133514
33	0xbeefec81	-0.46860126
34	0xbd3ea7be	-0.04654669
35	0xbe05e17b	-0.13074295
36	0xbd1b0391	-0.037845198
37	0x3d83b7b8	0.06431526
38	0xbd10fd1f	-0.035397645
39	0xbc372bae	-0.011179848
40	0x3cc18d07	0.023626817
41	0xbc55b9f2	-0.013044821
42	0x3cb65940	0.022259355
43	0xbc926a28	-0.017872885
44	0xbd84d34f	-0.064856164
45	0xbc9b67a3	-0.018970316
46	0xbd6b1223	-0.057390343
47	0xbdbd5dfd	-0.092464425
48	0xbe906098	-0.28198695
49	0x3c983665	0.018580625
50	0x3bf73478	0.0075440966
51	0x3d1e1df8	0.0386028
52	0xbc8dc194	-0.01730422
53	0xbd349ffa	-0.044097878
54	0x3c8a175d	0.016856844
55	0xbb2e4a0c	-0.0026594428
56	0xbe0cd0a0	-0.13751459
57	0x3bbbaf1e	0.0057276627
58	0x3d8dfc0f	0.06932842
59	0xbd8f11f2	-0.06985845
60	0xbe060019	-0.13085975
61	0x3c27d44a	0.010243485
62	0xbb8c1389	-0.0042747897
63	0xbbc02911	-0.0058642705
64	0x3c9a192f	0.018810837
65	0x3d865e46	0.0656095
66	0x3ca4d0ca	0.02011909
67	0xbcb4a75a	-0.022052456
68	0xbdefbf01	-0.11706353
69	0xbcb94265	-0.022614667
70	0xbcdb6280	-0.026780367
71	0xbdb38377	-0.08765309
72	0xbdcb7672	-0.09934701
73	0x3db6c134	0.08923569
74	0x3a0eea1c	0.0005451755
75	0xbdc2cf97	-0.09512251
76	0x3d057bd1	0.032588784
77	0x3d8e1a8f	0.069386594
78	0xbc1c9a75	-0.00955831
79	0x3d834e42	0.06411411
80	0x3cd32531	0.02577457
81	0x3d851685	0.06498436
82	0xbcca145d	-0.024667913
83	0xbd2c4c05	-0.042064685
84	0xbd2e37dd	-0.042533744
85	0x3d943d0a	0.07238205
86	0xbdd23c41	-0.10265399
87	0xbd2e44d2	-0.0425461
88	0x3d861e94	0.06548801
89	0x3cb77ded	0.022398913
90	0x3d6a8a7c	0.057260975
91	0x3d11e716	0.03562077
92	0x3d97e1b0	0.07416093
93	0x3c6bf794	0.014402289
94	0x3dc64fe5	0.096832074
95	0x392f7e01	0.0001673624
96	0x3dad5fb4	0.084655195
97	0xbe2aa66b	-0.16665046
98	0xbd6fabee	-0.058513574
99	0xbe23d46a	-0.15998998
100	0xbdbc7fb0	-0.09204042
101	0xbd35ee01	-0.04441643
102	0xbd8a4624	-0.067516595
103	0xbdb4b54b	-0.088236414
104	0xbc5346a9	-0.012895265
105	0x3d39ecd0	0.045391858
106	0xbce2c353	-0.027681028
107	0xbd342207	-0.043977764
108	0xbdc018eb	-0.09379753
109	0xbe052465	-0.13002165
110	0x3d652b9c	0.055949792
111	0xbc72ca4d	-0.01481874
112	0xbb412888	-0.0029473621
113	0xbd12259f	-0.03568041
114	0x3dbf9849	0.09355218
115	0xbda56be4	-0.08077219
116	0x3d3ca4d1	0.04605562
117	0x3c83cc93	0.01608876
118	0xbe0023e0	-0.12513685
119	0xbdb0581e	-0.08610557
120	0xbcb1e8fd	-0.021717543
121	0x3d06623d	0.03280853
122	0xbd9076d7	-0.07053917
123	0xbd5f1deb	-0.05447189
124	0xbd856dda	-0.06515093
125	0xbd1994c6	-0.037495397
126	0xbb3cc964	-0.0028806562
127	0x3c95f7e5	0.018306682
128	0xbd6c17dd	-0.057639945
129	0xbbd0049f	-0.006348207
130	0x3d3a6577	0.04550692
131	0xbdd38800	-0.10328674
132	0xbc552da6	-0.013011372
133	0xbdb85d08	-0.09002119
134	0xbc8d1706	-0.017222892
135	0xbce4608a	-0.027878065
136	0x3c3ba7e7	0.011453605
137	0xbd85e5fa	-0.06538005
138	0xbe058562	-0.13039163
139	0xbe01c0fe	-0.12671277
140	0x3c2b5cb1	0.010459111
141	0xbe0fd07d	-0.14044376
142	0xbbf7dc9f	-0.007564142
143	0x3d34aa07	0.044107463
144	0x3cc27415	0.023736993
145	0xbdf4fdbc	-0.119624585
146	0x3b81c026	0.0039596735
147	0x3d3d3f2a	0.046202816
148	0xbbe87d59	-0.0070950207
149	0xbcfd62f0	-0.030930966
150	0xbdbefd77	-0.09325688
151	0xbda723a6	-0.08161096
152	0x3d9cbf58	0.076536834
153	0xbccf7b58	-0.02532737
154	0xbb813399	-0.0039429185
155	0x3d601b53	0.05471356
156	0x3d343016	0.04399117
157	0x3cbddc31	0.023176285
158	0x3d80a9e4	0.06282404
159	0xbc9de512	-0.019274268
160	0x3d064e27	0.032789376
161	0xbde37553	-0.11106362
162	0xbc9b5290	-0.018960267
163	0x3d32bf43	0.043639433
164	0xbe57e916	-0.21085009
165	0x3e0c4633	0.13698654
166	0x3d554ac5	0.05207326
167	0x3cab7775	0.020930985
168	0xbdacd27e	-0.08438586
169	0x3c28c771	0.010301457
170	0xbd160394	-0.036624506
171	0x3d9669bd	0.07344387
172	0xbd39fc0c	-0.045406386
173	0x3d1f8e93	0.03895433
174	0x39fdddd8	0.00048421207
175	0xbd38e46e	-0.045139723
176	0x3d1addc6	0.037809156
177	0x3dc8f6ea	0.0981272
178	0x3d275453	0.040851902
179	0xbc8ef239	-0.017449485
180	0xbe27fe87	-0.16405688
181	0x3d3dab36	0.046305858
182	0xbd81b548	-0.06333405
183	0xbda44525	-0.08021001
184	0x3d8fce99	0.07021827
185	0xbc2d8bac	-0.010592382
186	0x3b006766	0.001959288
187	0xbc452360	-0.01203236
188	0xbe8a3a6e	-0.26997703
189	0xbdc69060	-0.09695506
190	0xbc9ad031	-0.018898102
191	0xbe0064ad	-0.12538405
192	0x3dcc5204	0.09976581
193	0x3d92fab6	0.071767256
194	0x3c000024	0.0078125335
195	0xbde7c17d	-0.11316202
196	0x3db02dcb	0.08602484
197	0x3d374766	0.044745825
198	0xbbda3793	-0.006659457
199	0x3d8f2722	0.06989886
200	0xbcd03d08	-0.025419727
201	0x3bc2f45e	0.005949541
202	0x399ef1ad	0.0003031617
203	0x3c0c0e05	0.008548264
204	0xbe019b57	-0.12656914
205	0xbd3db973	-0.046319436
206	0xbd75ed47	-0.06004074
207	0xbd62b0c4	-0.055344358
208	0xbd39f6e2	-0.04540146
209	0x3c005afa	0.0078341905
210	0x3c76eb2b	0.015070717
211	0xbd593b9b	-0.05303536
212	0xbdf9b215	-0.121921696
213	0x3d91e2a3	0.07123306
214	0xbd86ddcb	-0.065852724
215	0xb8e93f5c	-0.000111221074
216	0x3db76c88	0.089562476
217	0xbda0981e	-0.07841514
218	0x3ce147bd	0.027500028
219	0xbd0b41a8	-0.03399816
220	0xbb9c768e	-0.004774875
221	0xbd5aae9a	-0.05338917
222	0xbd381674	-0.044943288
223	0x3b724546	0.003696756
224	0x3d847cde	0.06469129
225	0xbd476e31	-0.04868907
226	0xbd041147	-0.03224304
227	0xbde93e97	-0.11388891
228	0xbd2a6da0	-0.041608453
229	0x3c3865d4	0.0112547465
230	0x3d5a2188	0.053254634
231	0x3d602af4	0.054728463
232	0x38e6bb9a	0.00011002198
233	0xbcdfb62c	-0.027308546
234	0xbda0f65a	-0.07859488
235	0xbdb1b861	-0.086777456
236	0x3d81e216	0.063419506
237	0xbd002f25	-0.03129496
238	0xbdbf8931	-0.09352339
239	0xbb833749	-0.0040043932
240	0xbad700f0	-0.0016403478
241	0xbdad200f	-0.0845338
242	0xbe5c16b9	-0.21493043
243	0xbd26920a	-0.040666617
244	0x3d7ce16c	0.061738417
245	0x3d50de22	0.050993092
246	0x3d5169ff	0.051126476
247	0x3d70d846	0.058800004
248	0xbdd45ad4	-0.103688866
249	0xbd39df0e	-0.045378737
250	0xbdcd372c	-0.10020289
251	0xbcb3dfdb	-0.021957329
252	0x3d421814	0.047386244
253	0xbd1d93bd	-0.038470972
254	0xbae3179e	-0.0017325764
255	0xbce79a22	-0.028271738

fc2.bias f4 [300]
0	0xbc8a5ade	-0.016889032
1	0x3e0378a3	0.12838988
2	0xbc91507f	-0.017738579
3	0x3ded56e6	0.1158884
4	0xbe04cffb	-0.12969963
5	0x3dc84c6c	0.09780201
6	0x3d91607d	0.07098482
7	0x3cdedadc	0.02720397
8	0xbdc02706	-0.09382443
9	0x3db03d09	0.086053915
10	0x3d2a6545	0.041600484
11	0xbc6d7d8f	-0.0144952675
12	0x3de3bf98	0.11120528
13	0x3dcee3a5	0.101020135
14	0x3c565766	0.013082361
15	0x3d3e57b6	0.046470366
16	0xbda0882f	-0.07838475
17	0xbe1e2154	-0.15442401
18	0x3e4b360a	0.19844833
19	0xb85f271e	-5.3203774e-05
20	0xbd9babe9	-0.07601149
21	0xbb51a478	-0.00319889
22	0x3de51616	0.11185853
23	0x3c11c69e	0.008897452
24	0x3d857ed9	0.06518335
25	0xbd1fc4f4	-0.03900619
26	0x3deef3bc	0.116675824
27	0x3917056f	0.00014402506
28	0xbd09d62e	-0.033651523
29	0x3d272ceb	0.04081432
30	0x3d762e73	0.06010289
31	0x3cfdd34f	0.030984549
32	0xbbed0b27	-0.0072339955
33	0xbced2e7d	-0.028952831
34	0xbdfab3f8	-0.122413576
35	0x3d1fecb2	0.03904409
36	0x3cbdb236	0.023156267
37	0x3d9bcde3	0.07607629
38	0x3debd266	0.1151474
39	0x3de68de5	0.11257533
40	0x3e0e577d	0.13900562
41	0x3d7cf745	0.061759252
42	0x3cd23715	0.02566103
43	0xbdae0b56	-0.08498256
44	0xbd191ccd	-0.037380982
45	0x3c01431b	0.007889534
46	0x3d01b0e8	0.03166285
47	0x3d10691b	0.035256486
48	0x3d3aacac	0.04557483
49	0xbccfc708	-0.02536346
50	0xbdd3052e	-0.10303722
51	0x3e40b290	0.18818116
52	0x3d0670d4	0.032822445
53	0x3e0199b9	0.12656297
54	0x3d02fa69	0.03197709
55	0xbdbd65b2	-0.092479125
56	0x3c01f6b7	0.007932357
57	0x3ab87457	0.0014072758
58	0xbd18e315	-0.037325937
59	0xbdc66306	-0.09686856
60	0xbd53d255	-0.05171426
61	0x3db96b8c	0.09053716
62	0x3e439853	0.19101076
63	0x3dabef8e	0.08395301
64	0xbc317e2d	-0.010833305
65	0x3e4da6c2	0.20083144
66	0xbda59151	-0.080843575
67	0xbd0b3984	-0.033990398
68	0x3d6b0660	0.057379127
69	0x3d787d4b	0.060666364
70	0x3dcbd46d	0.099526264
71	0x3d93f626	0.072246835
72	0xbdda9082	-0.10672094
73	0x3dc74f8b	0.097319685
74	0xbdd54dc9	-0.10415227
75	0x3d776900	0.06040287
76	0x3e3b0260	0.18262625
77	0x3dfe6a0b	0.1242257
78	0x3e05e0ac	0.13073987
79	0x3e606f85	0.21917541
80	0xbdc75717	-0.09733408
81	0x3bd2f088	0.006437365
82	0x3d91a48e	0.071114644
83	0x3e05f760	0.13082647
84	0x3dd14072	0.1021737
85	0x3de1c788	0.11024386
86	0x3bb9be5a	0.0056684436
87	0x3de45ffc	0.1115112
88	0x3c71f6e0	0.014768332
89	0x3d535115	0.051590998
90	0xbd3a6214	-0.04550369
91	0xbcdc8b54	-0.026921906
92	0xbd93078d	-0.071791746
93	0xbd732171	-0.059358064
94	0x3df0730c	0.117406934
95	0xbdc58e30	-0.09646261
96	0xbd84c52e	-0.064829215
97	0x3d2638ef	0.04058164
98	0xbd15dd36	-0.036587916
99	0x3d29893c	0.041390643
100	0xbdf43e62	-0.11925961
101	0x3cc240ea	0.023712594
102	0x3e164509	0.14674772
103	0xbda0ff40	-0.07861185
104	0x3e0f27b8	0.13979995
105	0x3db9fed0	0.09081805
106	0x3d9c08f1	0.07618893
107	0xbdf7eb86	-0.121054694
108	0xbd3f1314	-0.046649054
109	0xbc4f4dbd	-0.012652812
110	0x3e041ff4	0.12902814
111	0xbcbc51fe	-0.022988316
112	0x3e131b29	0.1436583
113	0xbd6e8646	-0.058233522
114	0xbdc824ec	-0.09772667
115	0x3dac853d	0.08423851
116	0x3de66f07	0.112516455
117	0x3d91acec	0.0711306
118	0x3d2a5460	0.041584373
119	0x3d0d3123	0.03447069
120	0x3dd78c0f	0.10524761
121	0x3cee310d	0.029076124
122	0x3dd9312a	0.106050804
123	0x3cbc1a7c	0.022961847
124	0xbbe3fc63	-0.006957577
125	0x3c60e881	0.013727308
126	0x3e0b719e	0.1361756
127	0x3deb23a6	0.11481409
128	0xbd27f69f	-0.04100668
129	0x3cbb433e	0.022859212
130	0xbd511ded	-0.05105393
131	0xbbc65c9d	-0.006053521
132	0x3ba0131a	0.0048850896
133	0xbdb3def6	-0.08782761
134	0x3e0bd65a	0.13655987
135	0x3c078454	0.008271296
136	0x3d9f37e7	0.077743344
137	0xbd1ee155	-0.038789112
138	0x3a266a54	0.00063482416
139	0x3dc89e29	0.09795792
140	0x3e0f7a8b	0.1401159
141	0xbce6a392	-0.028154168
142	0xbdfd9bdc	-0.123832434
143	0x3e13c809	0.14431776
144	0xbda6e840	-0.08149767
145	0xbbc5fb27	-0.0060419026
146	0x3df01775	0.11723224
147	0xbd8bdfd4	-0.06829801
148	0xbcdc4885	-0.026890049
149	0x3d245beb	0.040126722
150	0xbc2ab1a8	-0.010418333
151	0xbd90f07c	-0.07077119
152	0x3cefe84b	0.02928557
153	0x3d2ba5f2	0.041906305
154	0x3df6c64a	0.120495394
155	0xbda5dc68	-0.0809868
156	0x3ded3226	0.11581831
157	0x3b9d0c28	0.004792709
158	0x3e0ead3e	0.13933274
159	0x3e0e5b96	0.13902125
160	0x3d8611fc	0.06546399
161	0x3d30c94b	0.043160718
162	0x3d7aafca	0.0612028
163	0x3dde91ab	0.10867628
164	0xbd748aec	-0.0597028
165	0x3c866b97	0.016408725
166	0x3e08ec5d	0.13371415
167	0x3b50df55	0.0031871398
168	0xbe80ae75	-0.251331
169	0xbdf909ea	-0.12160094
170	0xbdb2139f	-0.08695149
171	0x3d8f77b5	0.07005254
172	0xbc8855c0	-0.016642451
173	0x3d4d05a4	0.050054207
174	0x3d747df9	0.05969045
175	0x3d4da59b	0.05020676
176	0xbd9c40b6	-0.0762953
177	0x3da7eee7	0.08199864
178	0xbd5ce73e	-0.053931467
179	0x3dac1e6e	0.084042415
180	0xbdc53de2	-0.09630944
181	0xbd827b3b	-0.063711606
182	0x3d063829	0.032768402
183	0x3d98bea4	0.07458237
184	0xbd3467a1	-0.04404414
185	0xbd0ce6cc	-0.034399793
186	0x3c4ae7ee	0.012384398
187	0xbc7fa204	-0.015602592
188	0x3dd94188	0.10608202
189	0xbd887fd5	-0.06665007
190	0x3e026fdc	0.12737983
191	0x3dbeb361	0.093115576
192	0x3de70aa0	0.112813234
193	0x3e489c0a	0.19590774
194	0xbd5cc37c	-0.053897366
195	0xbb92743d	-0.004469423
196	0xbd9ad175	-0.07559482
197	0x3d2e2870	0.042519033
198	0x3d65eda3	0.05613483
199	0x3d8f5002	0.06997682
200	0x3c324dbf	0.010882794
201	0xbe2f4d8d	-0.17119427
202	0xbd2d7ade	-0.042353503
203	0x3d82ecc5	0.063928165
204	0x3e247cd1	0.16063239
205	0xbd7e1c61	-0.062038783
206	0x3dbf1421	0.09330011
207	0x3ce76ce7	0.02825017
208	0x3d533b1b	0.05157004
209	0x3dd90f99	0.10598678
210	0xbd86e599	-0.06586761
211	0x3c9a35f6	0.018824559
212	0x3e112c8d	0.14177151
213	0x3c720777	0.014772288
214	0x3cde3def	0.027129142
215	0x3d97f628	0.074199975
216	0x3d323884	0.04351093
217	0x3dab1846	0.08354239
218	0xbe98a3ed	-0.29812565
219	0x3d39e0d8	0.045380443
220	0x3e21e438	0.15809715
221	0x3cf33281	0.029687168
222	0xbd444f69	-0.047927294
223	0xbd019ec5	-0.031645555
224	0x3daee376	0.085394785
225	0xbdfbd520	-0.1229651
226	0x3e7b8070	0.24560714
227	0x3c2e2646	0.010629242
228	0x3d26b0bb	0.040695887
229	0x3d431643	0.047628652
230	0xbdb85e48	-0.09002358
231	0x3e39e5ee	0.18154117
232	0x3df84b27	0.12123709
233	0x3e12dc1d	0.14341779
234	0x3db113ed	0.08646379
235	0xbdbc6f55	-0.092009224
236	0x3e0d88fa	0.13821784
237	0x3d76ad1b	0.06022368
238	0x3d48228b	0.048861068
239	0xbb99ca91	-0.0046933373
240	0x3da37a51	0.079823144
241	0x3d1a7dc3	0.037717592
242	0x3cbc6a7d	0.022999996
243	0x3d7faf5d	0.0624231
244	0x3d4d0c65	0.05006065
245	0xbd8a4ca1	-0.06752897
246	0xbd819b9a	-0.06328507
247	0x3e304bbb	0.17216389
248	0x3d088d70	0.03333801
249	0x3d921b88	0.071341574
250	0x3de2b828	0.11070281
251	0x3d0e7864	0.034782782
252	0x3e1463c3	0.14491181
253	0x3a882913	0.0010388218
254	0xbc044462	-0.008072944
255	0x3d71f2a8	0.059069306

fc3.weight f4 [1, 300]
0	0x3ea5caca	0.32381278
1	0x3dc42c88	0.09578806
2	0x3ea3f57f	0.32023236
3	0x3d9cba0e	0.076526746
4	0xbe1b25fb	-0.15151207
5	0x3ddf71ff	0.10910415
6	0x3dfea867	0.12434464
7	0x3df06627	0.11738234
8	0xbd9b4697	-0.07581823
9	0x3e40ff50	0.18847394
10	0x3e26be4c	0.1628353
11	0xbe5e2f43	-0.21697716
12	0x3e5de5c7	0.21669684
13	0x3e4512cb	0.1924545
14	0x3de702d4	0.11279836
15	0x3df38157	0.11889904
16	0xbe858799	-0.26080015
17	0xbdf5f3a2	-0.1200936
18	0x3d7ed36f	0.062213358
19	0xbe4174f9	-0.18892278
20	0xbe42ede2	-0.19036058
21	0xbe87c8bb	-0.26520333
22	0x3e062f76	0.13104042
23	0x3e5f4d8e	0.21806929
24	0x3e1789ce	0.14798662
25	0xbe67cf3c	-0.22637647
26	0x3dab09b7	0.08351462
27	0xbe67e9ff	-0.22647856
28	0x3e3a8298	0.1821388
29	0x3e1ff109	0.15619291
30	0x3e1bfb66	0.1523262
31	0xbe38bbb6	-0.18040356
32	0xbebbd8d9	-0.3668888
33	0xbec6ae14	-0.38804686
34	0xbe568782	-0.2095013
35	0x3e3383ca	0.17530742
36	0xbdb6566d	-0.08903203
37	0x3dc8f8e7	0.09813099
38	0x3dbaf264	0.091282636
39	0x3dfe0e97	0.124051265
40	0x3dc8381d	0.09776328
41	0xbe4c9839	-0.19979943
42	0xbe8d2542	-0.27567488
43	0xbe9ab22a	-0.30214053
44	0xbe609627	-0.21932279
45	0xbe8feaa9	-0.2810872
46	0x3e677e98	0.22606885
47	0x3dd3c895	0.10340992
48	0x3e536d26	0.20647106
49	0xbdfc39a8	-0.123156846
50	0xbe5659ae	-0.20932648
51	0x3d934384	0.07190612
52	0x3e20c309	0.156994
53	0x3e197823	0.14987235
54	0x3e2b7895	0.16745217
55	0xbe4b75f7	-0.19869219
56	0x3e23dc09	0.16001906
57	0x3e12cfda	0.14337102
58	0xbe30e107	-0.17273341
59	0xbe1508fc	-0.14554209
60	0xbe73d9ae	-0.23813507
61	0x3e039d84	0.12853056
62	0x3d88c327	0.06677847
63	0x3d8b307a	0.067963555
64	0xbe257e37	-0.16161428
65	0x3dccf8a8	0.10008365
66	0xbea43294	-0.32069838
67	0xbe784c74	-0.24247915
68	0x3e471329	0.19440903
69	0x3e0c61b5	0.13709147
70	0x3dbb5e1d	0.0914881
71	0x3df92071	0.12164391
72	0xbe3bfcb9	-0.18358125
73	0x3e821dce	0.25413364
74	0xbe48a532	-0.19594267
75	0x3e85ebfa	0.26156598
76	0x3d9e8ed9	0.0774209
77	0x3e357567	0.17720567
78	0x3e050bd3	0.12992792
79	0x3d9029a8	0.07039195
80	0xbdf9d8d0	-0.12199557
81	0x3dffe223	0.12494304
82	0x3e4eb240	0.20185184
83	0x3defd549	0.11710603
84	0x3e8e7bed	0.27828923
85	0x3e04e902	0.1297951
86	0xbe5ea7ca	-0.21743694
87	0x3dfd4d1b	0.12368222
88	0x3e35d573	0.17757206
89	0x3dcc109d	0.09964106
90	0xbe775caf	-0.2415645
91	0xbe78f57e	-0.24312398
92	0xbe635f01	-0.2220421
93	0xbe1f7952	-0.15573624
94	0x3ddf7e9d	0.109128214
95	0xbe4cdecb	-0.20006864
96	0xbe0cce24	-0.13750511
97	0x3e15bf11	0.14623667
98	0xbe3694a5	-0.17830141
99	0xbe73c680	-0.2380619
100	0xbe0f5618	-0.13997686
101	0xbe4eac20	-0.20182848
102	0x3e025993	0.12729482
103	0xbdfdf435	-0.124000944
104	0x3db560ee	0.088563785
105	0x3e435a58	0.19077432
106	0x3e091ac4	0.13389117
107	0xbdf9eb02	-0.12203027
108	0xbe6a41b0	-0.2287662
109	0x3e2f98b2	0.17148092
110	0x3dac6733	0.08418121
111	0xbe816ac7	-0.25276777
112	0x3d8a1f1d	0.06744216
113	0xbe623c87	-0.22093402
114	0xbe1f2332	-0.1554077
115	0x3e889b78	0.26681113
116	0x3e0eb93e	0.13937852
117	0x3e59a9ec	0.21256226
118	0xbe81bf5b	-0.25341305
119	0x3e6b8ccf	0.23002933
120	0x3e87533d	0.26430693
121	0x3e4104fb	0.18849556
122	0x3dc31ee6	0.09527378
123	0x3e374007	0.17895518
124	0x3e644fbc	0.22296041
125	0xbe361fd6	-0.17785582
126	0x3de873ae	0.11350189
127	0x3e1a2ac9	0.15055384
128	0xbe5f4620	-0.21804094
129	0xbdec10d1	-0.11526645
130	0xbe444b04	-0.19169241
131	0x3e65c3e6	0.2243801
132	0xbe85ee16	-0.26158208
133	0xbe8ad760	-0.27117443
134	0x3dccc2b0	0.09998071
135	0x3e29dd80	0.16588402
136	0x3e72e574	0.23720342
137	0xbe2a679e	-0.1664109
138	0xbe85025f	-0.25978372
139	0x3dad9b47	0.084768824
140	0x3e300741	0.17190267
141	0xbe52a92a	-0.20572343
142	0xbe912b2a	-0.28353244
143	0x3de520c3	0.111878894
144	0xbdc2bacf	-0.09508287
145	0x3e91c09d	0.28467265
146	0x3d9a9683	0.07548239
147	0xbe8cbb8a	-0.2748683
148	0xbe8008ba	-0.25006658
149	0x3e01dc07	0.1268159
150	0xbdc76ed0	-0.09737933
151	0xbe9d6a4d	-0.30745164
152	0xbe2ceb8f	-0.16886733
153	0x3e6eddf7	0.2332686
154	0x3da69ac0	0.08134985
155	0xbe133fd2	-0.14379814
156	0x3e2b9f10	0.16759896
157	0xbe835f15	-0.2565848
158	0x3de9a32f	0.11408078
159	0x3da34eb3	0.07973995
160	0x3e1a1808	0.1504823
161	0x3e3a0dad	0.1816928
162	0x3dadd9ba	0.08488794
163	0x3daebe74	0.0853242
164	0xbe8c21f7	-0.27369663
165	0x3e786a03	0.2425919
166	0x3e0c4eca	0.1370193
167	0x3e4a0367	0.1972786
168	0xbdd45dab	-0.10369428
169	0xbe28fad9	-0.16501941
170	0xbe0a0406	-0.13478097
171	0x3e235f17	0.15954243
172	0xbec8dee8	-0.39232564
173	0x3e4ab5d8	0.1979593
174	0x3e530b37	0.20609747
175	0x3df81db6	0.12115042
176	0xbe560272	-0.2089937
177	0x3e7c78cf	0.2465546
178	0xbe11f7bf	-0.14254664
179	0x3d952b57	0.07283657
180	0xbe8757fd	-0.26434317
181	0xbe2ef2ef	-0.1708486
182	0xbe189b0d	-0.14902897
183	0x3e4ce171	0.20007874
184	0xbe971fd4	-0.2951647
185	0xbe29a62f	-0.165673
186	0xbe4c6100	-0.19958878
187	0x3e469680	0.19393349
188	0x3d5a0272	0.05322499
189	0xbe86707b	-0.2625769
190	0x3e41b155	0.18915303
191	0x3e19fb4b	0.15037267
192	0x3db50f7e	0.088408455
193	0x3dd935ed	0.10605989
194	0xbe13d9a5	-0.14438494
195	0xbe8c3d19	-0.27390364
196	0xbe7a8233	-0.2446373
197	0xbe7095df	-0.23494671
198	0xbea33920	-0.3187952
199	0x3dcc8894	0.09986988
200	0xbe2a9d18	-0.16661489
201	0xbdf72de7	-0.12069302
202	0xbe1d40ff	-0.15356825
203	0x3dddb747	0.10825973
204	0x3d94d050	0.07266295
205	0xbe2e5c41	-0.1702738
206	0x3d972854	0.07380739
207	0xbe67c1c8	-0.22632515
208	0x3e112976	0.14175972
209	0x3dc4caab	0.09608968
210	0xbe24ec3b	-0.1610574
211	0xbe44e4dd	-0.1922793
212	0x3dd6d00d	0.10488901
213	0xbe456cc9	-0.1927978
214	0xbe84992a	-0.25898105
215	0x3e695860	0.22787619
216	0xbe060050	-0.13086057
217	0x3e3f570b	0.18685548
218	0xbdddf32e	-0.108373985
219	0x3db80641	0.08985568
220	0x3de17cda	0.11010142
221	0x3dd1142c	0.102089256
222	0xbe3fdace	-0.18735811
223	0xbe3d7b81	-0.18504144
224	0x3dc2534a	0.094885424
225	0xbe422470	-0.18959212
226	0x3da62fd9	0.08114595
227	0xbe8f203f	-0.2795429
228	0x3dbd702a	0.09249909
229	0x3e0c767c	0.13717073
230	0xbe32ec3c	-0.17472929
231	0x3d939350	0.07205832
232	0x3dfff045	0.12497
233	0x3d865957	0.06560009
234	0x3e28ee4c	0.16497153
235	0xbe020a5a	-0.12699261
236	0x3db2aa4d	0.087238885
237	0x3e91b8f8	0.28461432
238	0x3d65ac97	0.056072798
239	0x3e5e19b0	0.21689487
240	0x3e18f7ec	0.14938325
241	0x3e206a19	0.15665473
242	0xbe1749a7	-0.1477419
243	0x3e37d872	0.17953661
244	0xbe11e542	-0.14247611
245	0xbe830794	-0.2559172
246	0xbe22422f	-0.1584556
247	0x3dc217af	0.094771735
248	0xbe763a2e	-0.24045631
249	0x3db25d8a	0.087092474
250	0x3e6cb043	0.23114114
251	0x3e0ea2f1	0.13929345
252	0x3dab2ee1	0.08358551
253	0x3e06b73e	0.13155839
254	0x3e46b3b8	0.19404495
255	0x3e5d1416	0.21589693
