experiments/exp2/models/checkpoint_critic_8.pth (torch_old, 357838 bytes, 5 tensors)

fc1.weight f4 [200, 33]
000000 04 0b 62 bd 2d 17 1d 3d 0c 4f 84 bd 36 f5 13 be
       -0.055186287 0.03835218 -0.064603895 -0.1444901
000010 43 e5 09 3e b7 34 b2 3e 64 27 aa bd e1 5b d9 3d
       0.13466363 0.34805843 -0.083082944 0.10613228
000020 f1 94 31 3c 92 60 0c 3e 63 71 d3 3d 6a de 51 3b
       0.010838733 0.13708714 0.10324361 0.0032023438
000030 c8 1c 83 3d c7 8d 82 3d a1 d1 47 3d 35 38 8d bd
       0.06401974 0.06374698 0.048783902 -0.06895486
000040 eb 82 67 be 1f 1f 4f 3e 8c c3 ed 3c 84 25 9c 3e
       -0.22608535 0.20226716 0.029023908 0.30497372
000050 1d 9b f1 3b 04 3c c6 bd 42 60 78 bd b4 b7 b2 bd
       0.0073732273 -0.09679416 -0.060638674 -0.08726445
000060 2d d3 99 bb ab 9a 1b 3d e8 43 98 bd e8 72 a3 bd
       -0.0046943636 0.0379893 -0.07434827 -0.07980901
000070 46 41 f0 3c ca bb 37 3d 92 bd a2 3b 40 15 58 bc
       0.029328 0.044856824 0.004966446 -0.01318866
000080 a6 ad a3 bb bf 47 80 3d 9f 22 21 bd d1 bd fb bd
       -0.0049950657 0.062636845 -0.039339658 -0.12292064
000090 44 f8 f9 3d 92 cf 9b 3e fa 93 4e 3e 0a ea c7 bd
       0.12205556 0.304318 0.20173636 -0.09761436
0000a0 a2 12 6d bb 6c 3d 89 bd 6d 84 8a bb 50 3a c7 bc
       -0.0036174436 -0.067011684 -0.004227212 -0.024319798
0000b0 c1 ea 9d 3b 2d ed 65 bc 2a 87 d2 bd 75 18 34 bd
       0.0048192446 -0.014033598 -0.10279687 -0.043968637
0000c0 d9 b2 32 3d 13 8f 99 bd a2 8f de 3a 85 cd 59 3d
       0.043627594 -0.07497992 0.0016980062 0.053174514
0000d0 ee 2b 50 3e 2e 27 05 bd be d3 3a 3d 8e b3 29 bb
       0.20329258 -0.032508068 0.04561209 -0.0025894376
0000e0 05 f2 dc 3c 4c 8a 95 bd f3 b4 2c 3b 91 b5 c2 3d
       0.026970873 -0.07301769 0.0026352971 0.09507287
0000f0 36 49 83 3d df a2 7a 3d 50 09 fd 3c 3b dc 78 bd
       0.06410448 0.061190482 0.03088823 -0.060756903
000100 44 95 b4 bc 30 70 52 be c7 a4 e5 3c 79 fd b9 bc
       -0.022043832 -0.20550609 0.028032674 -0.022703873
000110 9c 1a da bd 8b 80 dd 3b 8c 92 87 3e 07 72 6a 3e
       -0.106496066 0.0067597083 0.26478994 0.2289506
000120 85 36 62 3e d6 89 60 bd 1e 27 29 bc fd 95 c0 3d
       0.2209111 -0.05481895 -0.010324268 0.09403608
000130 69 a9 a1 3c e5 da e9 bc 75 cd 53 3d 61 db 08 bc
       0.019734101 -0.02854676 0.05170961 -0.008353085
000140 83 3e 4b bd 6d 24 d4 3d e7 7b 03 3e 9d b1 54 bd
       -0.049620163 0.1035851 0.12840234 -0.051927198
000150 19 63 f2 3e df c1 5b 3e 64 2a 4f bc 9e a9 59 bc
       0.4734123 0.21460675 -0.012644384 -0.013285069
000160 13 02 ad 3a da e8 23 3c c8 dc 48 bd 90 09 7a 3c
       0.0013199471 0.010004247 -0.04903868 0.015261069
000170 56 34 d0 3c 51 d9 8b 3c d7 95 ef 3d 4c e4 30 3d
       0.02541558 0.017071398 0.116985016 0.04318647
000180 75 cd 2c bc f6 c1 16 3d b2 86 9b 3c fa 67 96 3d
       -0.010547032 0.03680607 0.018985126 0.07344051
000190 e7 2e 5d bc f2 92 ca bd 85 78 69 3d 75 2e b4 bd
       -0.013499952 -0.09891309 0.056999702 -0.087979235
0001a0 77 78 0d be c7 75 8e 3a 1c fc 21 bd 22 00 41 3d
       -0.13815485 0.0010868841 -0.03954707 0.047119267
0001b0 71 25 f5 3d ca a0 83 bd 99 cb a4 3b 47 7b af 3d
       0.11970032 -0.064271525 0.0050291535 0.08568435
0001c0 fa c8 c0 bd 13 4f 8d bd cd 53 ce 3d 0a 56 3a be
       -0.09413333 -0.06899848 0.100745775 -0.18196884
0001d0 eb e1 5f 3e a8 12 35 3e 81 0c b9 bd 74 29 96 3d
       0.21863525 0.17682898 -0.09035588 0.07332125
0001e0 ac 9d 6a 3d ea c6 27 3d 9b 75 92 3c 78 6d 6c bb
       0.057279274 0.040961184 0.017878344 -0.003607599
0001f0 0c 49 5b bc 01 b7 27 3b 57 8a 08 3e ff 77 36 bd
       -0.013384115 0.0025591257 0.13334022 -0.04454803
000200 3c e0 29 bc 3c a8 6f be 86 e1 18 3d fd 0f aa 3c
       -0.010368403 -0.2340402 0.03732445 0.020759577
000210 c1 d6 4e 3e 87 a9 7d bd d3 ef 65 3d 3f f9 86 3d
       0.2019911 -0.061929252 0.056136917 0.06590509
000220 1b 1c f6 bd 40 ae 08 be 96 54 db 3d 23 2d 5a bd
       -0.120170794 -0.13347721 0.10709493 -0.053265702
000230 26 42 8e bd 6b 6a 81 bc 4f a3 b0 3c c2 99 d0 bc
       -0.069462106 -0.015797814 0.021562247 -0.025463942
000240 df 1f ad bc 25 75 2f bd 4d b3 0b bd 21 74 43 bc
       -0.021133361 -0.042836327 -0.03410654 -0.011929543
000250 4c ff 43 3d a7 3c 67 3d 39 e9 10 3e e2 69 0d 3e
       0.047850892 0.056454327 0.14151467 0.13809922
000260 94 62 d8 bc e7 93 61 bd 03 db ba 3c 7e 42 e1 bc
       -0.026414193 -0.05507269 0.022809511 -0.027497526
000270 56 b9 ab bc 06 bc 6d bb f0 b0 40 bd 04 a4 8f 3c
       -0.020962398 -0.00362754 -0.04704374 0.017534263
000280 82 ad 63 3d 80 5f f4 bb 14 a2 fe bd 41 d8 85 bd
       0.05558539 -0.0074576735 -0.12433258 -0.06535388
000290 19 3e 07 3e 69 8d 23 be b6 32 90 bd e4 50 36 be
       0.13207282 -0.15971912 -0.07040922 -0.17804295
0002a0 24 76 c3 bd f7 55 30 be e0 af 9c 3e 47 58 0d 3e
       -0.09544018 -0.17220293 0.30602932 0.13803206
0002b0 aa bf 29 bb b1 b3 cd 3d bf dd 79 bd fc 54 26 bd
       -0.0025901594 0.10044039 -0.06100249 -0.04060839
0002c0 2d 17 34 3d b1 72 44 3d a9 43 f3 bc 5b a1 99 3d
       0.043967415 0.04796094 -0.029695349 0.07501479
0002d0 07 ec e8 3c 8c ff d3 b9 6a 75 50 3d 03 c3 a4 bd
       0.02843286 -0.00040435453 0.050893225 -0.08045008
0002e0 4f b6 80 3e 69 49 12 bc 50 48 84 bc 65 9a be bc
       0.2513909 -0.008928635 -0.016147763 -0.02326698
0002f0 a8 51 72 bc d6 6d b7 bc 00 71 23 3c 44 d1 40 3d
       -0.014789976 -0.022391241 0.009975672 0.04707457
000300 05 8a 4f 3c cb 25 fa 3d 40 51 0c 3b 5b 29 4b bc
       0.012667184 0.1221424 0.0021410733 -0.012399997
000310 74 a5 04 3d 79 12 ba be 54 23 f7 3d 95 ac ae 3d
       0.03238435 -0.3634222 0.12067285 0.08529011
000320 f9 ef d1 3d e6 c9 c7 3d af 8a 1a 3e 25 54 d9 3e
       0.10250849 0.09755306 0.15091966 0.4244701
000330 58 a0 b3 be ea 6f 52 3d eb 33 3c bd 30 bd 09 3d
       -0.3508327 0.05137626 -0.04594795 0.03362769
000340 25 c2 39 3b 23 da c1 bd 5f 6d 98 3d 6d ac 23 bd
       0.002834448 -0.094654344 0.07442736 -0.03995936
000350 77 8b ba bd 5c b4 03 bd ac e0 d9 bd f2 5f 27 be
       -0.09108632 -0.032154426 -0.10638556 -0.16345194
000360 f2 35 41 3e 89 36 e1 3d 21 43 13 bb 13 9f f3 bd
       0.18868235 0.1099673 -0.0022470432 -0.118955754
000370 78 73 72 bd cc 71 89 3d 4d bf 9d bc 1d d8 85 bd
       -0.05919215 0.06711158 -0.019256258 -0.06535361
000380 a6 6a 7d 3c d6 66 67 3d 8c 32 36 3c 08 ef ce bc
       0.0154673215 0.056494556 0.01112045 -0.025260463
000390 2b 67 3c 3c 45 b8 81 3d ce 4a cd be d1 bf dd 3b
       0.011499207 0.06333975 -0.40096134 0.006767251
0003a0 17 52 d9 3d e1 e1 e9 3b 6a 40 a0 bd be d3 f7 bd
       0.106113605 0.0071375226 -0.07824786 -0.121009335
0003b0 6e 2f b5 3c e5 05 99 be fa 50 88 bd 49 23 5c bd
       0.022117343 -0.2988731 -0.0665607 -0.053744588
0003c0 c2 75 74 bd ba 32 3a bc a6 ed 1e 3c ae 14 45 bc
       -0.059682615 -0.011364633 0.0097002145 -0.012028856
0003d0 12 f2 1f 3d c3 d2 ba bd 8a 20 3c 3e 1f bc c6 3e
       0.039049216 -0.09122231 0.18371788 0.388154
0003e0 ed c7 ea bd 74 ad 31 be 47 5a 6e bc 40 37 86 3b
       -0.11463914 -0.17351323 -0.014547891 0.004095942
0003f0 c0 56 28 bc b7 b6 72 3d 13 a7 c4 bc ee 91 ba bc
       -0.010274589 0.05925628 -0.024005448 -0.022774663

fc1.bias f4 [200]
000000 12 d5 aa bc aa 7b c8 3d 84 3f 24 be f6 b4 df bc
       -0.020853553 0.09789212 -0.16039854 -0.027307969
000010 19 ff 18 be 92 ee 13 be da 25 dc bd 2b 5d 04 be
       -0.14941062 -0.14446476 -0.10749407 -0.12926166
000020 a9 91 4b be c3 47 97 3c 00 83 06 be 43 10 44 3e
       -0.19879784 0.018466836 -0.1313591 0.19146828
000030 01 46 8d 3d 2b 36 d8 bd 9d c4 12 3d 95 e9 ef bd
       0.06898118 -0.10557207 0.035832036 -0.11714474
000040 2a c8 13 be ae 6b 44 bc 46 ad e6 3c 38 3f 19 be
       -0.14431825 -0.011988563 0.028158795 -0.14965522
000050 c5 ff a3 3d 13 49 1b 3e 90 ea f4 3a 38 ef 58 be
       0.080077685 0.15164594 0.0018685628 -0.21185005
000060 44 38 19 be f9 41 19 be 68 4a d2 bd 30 92 12 3e
       -0.1496287 -0.14966573 -0.10268098 0.14313579
000070 b5 7c 95 bd 98 f3 22 bd 3b 0d 81 bb 43 09 45 3e
       -0.072991766 -0.03978309 -0.003938345 0.19241814
000080 4e fa 4d 3c c2 74 02 be 43 f8 e3 3a 0f a9 a0 bd
       0.012571884 -0.12739852 0.0017392713 -0.07844745
000090 d4 b0 27 3d 13 f0 8f bd 25 d1 b9 bb a6 8b 29 3d
       0.04094012 -0.070282124 -0.005670684 0.041392945
0000a0 37 d6 8c bd fb 8f fd bd 3e 0c f0 bd ac 4d 1e 3d
       -0.06876796 -0.12380978 -0.11721085 0.038648292
0000b0 45 34 27 3e dd f7 89 bd da a4 0a be ef ae ed 3d
       0.16328533 -0.06736729 -0.13539448 0.116056316
0000c0 03 eb a6 be 58 ad 86 be 87 66 15 bd 8f 4c eb bd
       -0.32601175 -0.26304126 -0.03647473 -0.11489212
0000d0 9c 53 04 3d dc 5c 49 3e d6 16 19 be 40 45 1b 3e
       0.0323063 0.1966433 -0.14950117 0.15163136
0000e0 00 9f 08 bc 48 55 87 bd 4b 7d d8 3d 2b dc 76 bd
       -0.00833869 -0.06608063 0.10570773 -0.060268562
0000f0 8d 78 31 3e df f5 39 3e 78 db bf bc ce 39 85 3d
       0.17331143 0.18160199 -0.02342008 0.06505166
000100 b9 19 92 bd cf 9d 15 3e 68 62 a7 3d 3c 26 da bd
       -0.071338125 0.1461098 0.081730664 -0.10651824
000110 7b d3 2d be 0b 77 b9 bd 4e 5b 04 be 96 16 e6 3d
       -0.16975205 -0.09055909 -0.12925455 0.11234777
000120 72 41 66 3d 81 f6 20 3c 3d b6 86 3c df fc 68 be
       0.056214757 0.009824396 0.01644432 -0.22752713
000130 00 9f 1e bc bb 44 a2 bd a3 3b 14 3e ee 06 c2 3d
       -0.009681463 -0.079232655 0.14475875 0.09473978
000140 40 0c 8f 3d 01 05 66 be 1b 40 ec 3d 9a 7c 57 be
       0.069847584 -0.22462846 0.11535665 -0.21043625
000150 aa e5 cd 3c be 94 22 3e 60 6c a3 bc f4 83 df bd
       0.025133926 0.15877053 -0.019949138 -0.1091384
000160 4b 7f 69 3d 8f a1 33 bd 3f 6e 16 be 2f 57 12 3e
       0.05700616 -0.043855246 -0.14690493 0.1429107
000170 44 44 e3 3c 1d 8b 51 be 69 92 01 be e6 37 12 3b
       0.027742513 -0.20463224 -0.12653507 0.002231115
000180 e4 3d c1 3c 24 da 02 3d 6a ee 04 3e 52 bb ef bd
       0.023589082 0.031946316 0.12981573 -0.117056504
000190 6c ff b3 3d 85 ba a6 bd 2b 28 dc 3d 28 71 da 3c
       0.08788952 -0.081410445 0.10749849 0.026665285
0001a0 bf 51 4d bd ba 89 ad bd 47 1c 71 3c 05 b3 12 be
       -0.050126787 -0.08473535 0.0147162145 -0.14326103
0001b0 80 80 e9 bd d4 5a 9e 3c 23 56 ef 3c 97 19 fe 3c
       -0.114014626 0.01933042 0.029215878 0.031018062
0001c0 a2 55 e1 bd 4f b1 e7 3d 58 7e a0 bd 7f b4 f9 bd
       -0.11002661 0.11313116 -0.07836598 -0.1219263
0001d0 e5 e4 f8 3d 16 03 00 be 2f 74 05 be ad e5 40 be
       0.12153033 -0.12501177 -0.13032602 -0.18837614
0001e0 86 8c c3 3d 20 d2 c9 bc ba 95 56 3e ed 0d 8b bd
       0.09548287 -0.024636328 0.20955554 -0.067897655
0001f0 b6 be 4f 3d d3 7f fe bd 81 a1 05 3d a3 ba 9a 3d
       0.050718985 -0.12426724 0.032624725 0.075551294
000200 e7 9b 02 be 01 2e 87 bd 09 70 09 be 3b 7d 98 bd
       -0.12754785 -0.066005714 -0.13421644 -0.07445761
000210 3d 9f 88 3d e4 e7 29 3e 13 37 f8 bc 45 19 41 be
       0.06670997 0.16592366 -0.030299699 -0.18857296
000220 a3 d8 55 be e1 8d 92 bc d2 a7 91 be c2 a3 e1 bd
       -0.20883422 -0.017889919 -0.2844835 -0.110175624
000230 b3 25 5c bd 9f 63 d9 bd e9 19 8d bd 96 f3 e8 bd
       -0.05374689 -0.10614704 -0.068897076 -0.11374585
000240 ec e8 9d bd 0d 75 2f 3e f6 29 4d be 69 cb 1b bc
       -0.07710442 0.17134495 -0.20035538 -0.009508946
000250 9e 82 90 bd 06 d3 a1 3d fe 73 09 3e ec f6 26 3d
       -0.07056163 0.07901578 0.13423154 0.040762827
000260 92 6d 10 bb 37 7d 62 be f6 a8 1d 3c 0e 8f 02 be
       -0.0022037965 -0.22118078 0.009622803 -0.12749884
000270 f0 13 96 3c f7 bf 04 3d ff d0 51 3d da f9 43 be
       0.018320054 0.032409634 0.051224705 -0.1913828
000280 13 28 30 3e 2c 42 c9 bb e7 1e 7a be 01 7e 14 be
       0.17202787 -0.0061419215 -0.24425851 -0.14501192
000290 56 a0 44 3d ce e7 26 bd 79 c0 d2 3d 4c f9 84 be
       0.04800447 -0.04074841 0.102906175 -0.25971448
0002a0 df d4 f2 3d dc 2e a0 bd 8a 44 6c 3c 70 3e d1 bd
       0.11857008 -0.07821438 0.014420638 -0.10216987
0002b0 7e 23 31 bd b5 5a 3a be f3 31 47 3d 15 e3 63 bd
       -0.04324674 -0.18198664 0.04863162 -0.055636484
0002c0 8a ee 10 be 8f 7a c8 bd 60 1b 91 3c bf e4 0c bc
       -0.14153495 -0.09789001 0.017713249 -0.008599459
0002d0 6c 3b cb 3d e7 9d 23 be 7f 4c c3 bd d9 fc b1 bd
       0.09923443 -0.15978204 -0.09536075 -0.08690805
0002e0 c0 91 11 be 73 c0 8d bd 3e a8 0a 3e 5b 14 a7 3c
       -0.14215755 -0.069214724 0.13540742 0.020395448
0002f0 5f 9e 4f 3d db c6 32 be 5d 21 69 bd 19 a7 b8 3c
       0.050688144 -0.1745867 -0.056916583 0.022540616
000300 de 84 ae bd b8 b7 49 be b6 a9 15 3e 1d f2 1a be
       -0.08521436 -0.1969899 0.14615521 -0.15131421
000310 70 b6 d4 bd 63 c7 28 3d f7 7c 1d 3e 16 1a 11 be
       -0.1038636 0.041205775 0.15379702 -0.14170107

fc2.weight f4 [400, 204]
000000 6f be 4e bb 54 28 98 3d 8b c0 7d bd 34 ef a3 bd
       -0.0031546613 0.07429567 -0.0619512 -0.08004609
000010 86 c5 2e bd 51 b4 cb 3d f7 48 d0 bd 1d f4 2e bd
       -0.04266884 0.09946502 -0.10170167 -0.042713273
000020 25 f3 1f bc db 5d 65 3c 57 3e 9c bc b8 e5 fd bc
       -0.00976256 0.013999428 -0.019072695 -0.030993327
000030 16 90 b1 3c 6e 6a ba bc 20 47 36 3c 67 2e cf bc
       0.02167515 -0.022755828 0.011125356 -0.025290681
000040 0d b9 02 3b 67 9f 16 bd 30 aa 54 bd aa 30 53 3c
       0.0019946725 -0.03677311 -0.051920116 0.01289002
000050 1b 7f 6b bc 18 39 2f 3c f4 88 16 3e b8 d5 cc 3d
       -0.014373566 0.010694765 0.14700681 0.10001701
000060 41 2d 2c 3d 4e c6 6b ba 6a ad 0a 3a c7 32 08 be
       0.042035345 -0.0008994088 0.0005290123 -0.1330062
000070 6a 46 27 3b ec ea ce bd b1 41 85 bc ce d4 18 be
       0.0025524148 -0.101034015 -0.016266676 -0.14924929
000080 0d 38 f0 bc ad 51 df 3b a9 7f 03 be c3 39 ab bc
       -0.029323602 0.0068151564 -0.12841667 -0.020901566
000090 51 12 26 bd 47 20 84 bd 7a 42 08 bd 8f a9 bd 3c
       -0.04054481 -0.06451469 -0.033266522 0.02315214
0000a0 92 3c b8 bc ab 83 69 ba 09 73 5c 3c 76 fd 97 bc
       -0.02248982 -0.00089078647 0.013455161 -0.018553477
0000b0 a6 90 96 3c eb 24 b3 3d af 49 c9 3d 74 c6 46 3c
       0.01837952 0.08747276 0.09828507 0.012132276
0000c0 0a 40 07 3d f9 54 dd bc ac bb 0b bd 95 7f 96 3c
       0.033020057 -0.027018057 -0.034114525 0.018371383
0000d0 cf df 2b bc 33 d1 fd 3c 7a 25 10 3d ab 1f 65 3c
       -0.010490372 0.030983543 0.03519199 0.013984601
0000e0 64 df cd 3b fe af 44 bd 69 70 b1 3c 4b d2 dc bc
       0.0062827338 -0.0480194 0.021660047 -0.026955744
0000f0 34 5e cd bb 53 64 37 3d 20 91 8b 3d f4 a0 15 bd
       -0.0062673334 0.04477341 0.0681479 -0.03653045
000100 0b 6c 5c 3d 1c 05 7a 3d 73 64 b7 3d fd 54 dd bc
       0.053813975 0.06104003 0.08954706 -0.027018065
000110 2f 56 14 bd ef e1 d3 bd f7 99 67 bd 07 1b b3 3c
       -0.036215004 -0.10345828 -0.056543317 0.021863474
000120 36 e4 aa 3d 04 29 0c 3d 91 51 56 bc 42 fa 50 3c
       0.08344309 0.034218803 -0.01308097 0.012754979
000130 9e d6 43 bb 49 97 5c 3d 82 4c 3e bc 71 d1 2d 3e
       -0.002988256 0.053855214 -0.011614921 0.16974427
000140 bc ed 0b bc c5 8d 09 3d ef 8c 25 3c 17 ea 37 bd
       -0.008540567 0.033582468 0.010104402 -0.04490098
000150 b1 d1 df 3c 9b b9 c6 ba a5 ce 20 bd a6 64 87 3d
       0.027321668 -0.0015161516 -0.03925957 0.06610994
000160 8f 6c a8 bd 7d aa 7e 3d da ba 46 bd ef a1 99 3b
       -0.08223831 0.06217431 -0.04851804 0.0046884934
000170 08 22 20 3c 14 cd 54 bd 14 78 ad 3d de 3f 2d be
       0.009773739 -0.05195339 0.08470169 -0.16918895
000180 87 f1 1d bc 75 61 ac 3c e1 f1 28 bd 12 10 90 3d
       -0.009640104 0.021042565 -0.0412463 0.07034315
000190 89 9f 00 3c 34 f2 4f bd e1 8c 8a 3d f9 01 ae 3c
       0.007850536 -0.050768092 0.06765152 0.021241175
0001a0 c1 26 82 3b b3 3b 27 bd 13 b4 d7 3c 37 1d f2 3d
       0.003971905 -0.040828418 0.026330983 0.118219785
0001b0 92 9e 42 3d 2c 2e a9 bd da 43 bc 3b d0 78 8f 3c
       0.047514506 -0.0826076 0.005745393 0.017513663
0001c0 05 e2 a7 bd fd 9b a9 3d 09 99 b5 bc e5 24 c6 bc
       -0.08197407 0.082817055 -0.0221677 -0.024187515
0001d0 c2 ec f1 3c 09 90 a4 bc 28 b6 1e bc 1c a2 95 bb
       0.02953184 -0.020088213 -0.009686984 -0.004566444
0001e0 51 1b c7 bb 14 72 36 bd 63 49 20 3d 52 70 0f 3c
       -0.0060762544 -0.044542387 0.039132487 0.008754807
0001f0 dc 84 92 bd 68 4d 6e 3c d9 3b 91 3d 25 cd 21 bd
       -0.07154247 0.014544822 0.07091493 -0.03950228
000200 04 07 de bd 14 16 b8 3d 22 b2 f6 bd f0 70 99 bd
       -0.10841182 0.08988586 -0.12045695 -0.07492244
000210 d7 8d 4f ba 3c 3e ef 3c 8d 05 51 3d 1e 72 5d 3d
       -0.0007917559 0.02920448 0.051030684 0.05406391
000220 06 a2 60 bd a0 d0 1c 3d 9e 65 ca bd 58 a7 90 3c
       -0.054842018 0.038284898 -0.09882663 0.01765792
000230 81 e3 d2 ba c6 13 f6 bc bb 2c e5 bd 1b 85 ca 3c
       -0.001608953 -0.030038726 -0.11190172 0.024721673
000240 32 08 1b 3c fc 41 93 3d a5 1d ca 3b 1c 46 71 3c
       0.009462403 0.0719032 0.0061680847 0.014726188
000250 76 f0 bb 3c 48 81 bf 3d eb a5 32 3d 24 81 b3 bd
       0.02294181 0.0935083 0.043615263 -0.08764866
000260 23 c8 b9 bc 90 1f 29 bd 38 34 d8 bc 56 8e 03 3d
       -0.02267844 -0.041289866 -0.026392087 0.032118164
000270 2f ca 9d 3a 4b 4d 4f 3c 59 8c 31 bc 31 db 9a bb
       0.0012038405 0.012652705 -0.010836684 -0.0047258367
000280 df 22 84 bb f2 1d 40 3c 58 fd a5 bb 51 7e 46 3d
       -0.0040324773 0.0117258895 -0.0050656013 0.04846031
000290 01 dd 05 3d 5b 5f 76 bd d9 47 e4 3c 30 f1 3e bd
       0.03268147 -0.06014953 0.02786629 -0.046616733
0002a0 b3 ac c2 3b d1 64 fd bd 7a 68 b6 bd 12 4b 99 3b
       0.0059409975 -0.12372745 -0.08906646 0.0046781385
0002b0 de 53 70 3d 92 7c 70 bd 31 fd d0 3d 76 d2 99 3c
       0.058673732 -0.05871255 0.102045424 0.018777113
0002c0 cd 37 06 bd 4b 46 a2 bd ab 3e 33 3c ed d3 eb bc
       -0.03276806 -0.079235636 0.010940234 -0.028787578
0002d0 a3 7f d5 3c 0d 54 20 3d 94 1f 43 3b f7 40 a1 bd
       0.026061838 0.039142657 0.002977346 -0.07873719
0002e0 83 48 e8 bd 2e af 73 3d c4 c3 27 3d 26 f2 ac bb
       -0.113419555 0.059493236 0.04095818 -0.00527789
0002f0 3f 30 1f bc cf 9e 00 bc 92 9a fe 3c 0a 31 2c bd
       -0.009716093 -0.007850363 0.031079564 -0.042038955
000300 28 f3 e2 bb 17 a8 1f 3d f7 82 2e bd aa 81 e8 3b
       -0.006925959 0.038978662 -0.042605367 0.0070955353
000310 44 d0 56 bd d2 f3 a3 3c a8 cb cf bd 1b 48 ac bd
       -0.05244471 0.020013724 -0.10146266 -0.084121905
000320 75 5d ab 3b fb b8 49 bd 16 a2 58 bd 85 cc 2c 3d
       0.005229647 -0.049248677 -0.052888952 0.042187233
000330 7c d8 2a 3d 7f bb 68 3d 1f 92 6e 3d e9 0b 43 bb
       0.04171036 0.056819435 0.05824482 -0.0029761738
000340 ad 6e 39 3d bb a1 91 3c 42 2c bb 3c 6a 84 10 bc
       0.045271564 0.017777314 0.022848252 -0.0088206325
000350 d0 f3 15 3e a3 d6 0b 3e c5 e5 bd bc 31 84 7f bd
       0.14643788 0.13656096 -0.023180852 -0.062381927
000360 fe 35 8e be 38 e0 1a be 89 cf a5 bd f5 a9 f9 bc
       -0.27775568 -0.15124595 -0.08096225 -0.03047655
000370 8d 9c b4 3c e6 22 8d 3c d6 45 d8 3b 73 2a 10 3b
       0.022047305 0.017228555 0.006600122 0.0021997958
000380 1b a5 da bc 1d bb 5c bc 64 e3 21 3e d2 ec 78 bc
       -0.026690057 -0.013472346 0.15809399 -0.015193181
000390 9a 99 6e bd c2 d3 98 bd 18 28 4f 3b d6 02 13 bd
       -0.058251955 -0.074622646 0.003160959 -0.035891376
0003a0 42 cb 58 be 4a 86 14 3d 91 0e 0f be 5a f8 fd bc
       -0.21171287 0.03626088 -0.139704 -0.031002212
0003b0 83 0b 17 be a6 12 d3 3c d2 52 e1 bd 1c 03 8f 3c
       -0.14750485 0.025765728 -0.11002125 0.017457537
0003c0 8d b2 13 3d d9 0b ba bd b8 03 a2 ba 9a 8e b3 bc
       0.03605895 -0.09084291 -0.0012360727 -0.021918584
0003d0 9e b7 4f be 44 5d fa 3c 41 c5 02 3b 77 53 2e be
       -0.20284888 0.03056205 0.0019953998 -0.17024027
0003e0 ac eb 22 bb 2a a3 05 be c1 30 db 3d bb 8f 36 bd
       -0.002485971 -0.13050523 0.107026584 -0.044570666
0003f0 25 79 03 bc ac b5 f0 bc fc 88 7a bd 0b 82 b8 3d
       -0.008024489 -0.029383503 -0.061165795 0.09009179

fc2.bias f4 [400]
000000 80 76 3c 3e 56 e1 fe bc 28 96 17 3e 0b e0 66 3d
       0.18404579 -0.031113308 0.14803374 0.056366008
000010 a2 9c 66 bc 3e ca 4f be 20 f0 64 3d c3 2e 8c 3d
       -0.01407543 -0.20291993 0.055893064 0.068448566
000020 ac 67 3a 3e 5b 84 9f 3d 46 12 8d bd e2 81 a2 3d
       0.1820361 0.07788917 -0.06888251 0.079349294
000030 27 34 d7 bd 65 24 ba bc 3a 3b 27 bd 9e 80 ce 3d
       -0.10507994 -0.022722432 -0.040827967 0.100831255
000040 02 bd 05 be 5d f7 d2 3d ed 77 2f 3c c1 0c 9d bd
       -0.13060382 0.10301087 0.010709745 -0.07668448
000050 d3 c8 1d bd 1a 58 4b bd 97 c2 c3 3d e0 fc 65 bc
       -0.0385216 -0.049644567 0.095585994 -0.014037341
000060 88 f2 31 bd 79 25 e9 3d d4 9a 7e 3d 3c dc 02 bb
       -0.043444186 0.113841005 0.062159374 -0.0019967696
000070 90 68 af bc 81 51 a5 3d c7 89 50 3d b2 2b a9 3b
       -0.021412164 0.08072186 0.050912645 0.0051626796
000080 0f ca 86 3d 6d be 01 3d f2 74 b7 3d 79 25 8c bc
       0.06581508 0.031675745 0.089578524 -0.017107712
000090 42 bf 8d bc 80 92 92 bd 68 95 46 bd 77 70 52 3d
       -0.017303113 -0.07156849 -0.04848233 0.051376786
0000a0 fe d7 e1 3d 07 a3 e0 3c f8 f2 0b 3e a8 da 7f 3e
       0.11027525 0.027421487 0.13666904 0.24985754
0000b0 70 6c 40 3e 58 35 d9 bd d1 7b 2d 3c 97 f3 b6 3c
       0.18791366 -0.10605878 0.010588602 0.02233295
0000c0 5f 2a c1 3d 1c 12 8e bd 22 90 be bb ce 6b dd 3d
       0.0943191 -0.06937048 -0.005815522 0.10811578
0000d0 3f d2 80 3d 8d d7 59 bd b0 dd 34 3e 4d 0a 2c 3d
       0.06290101 -0.05318408 0.17662692 0.04200201
0000e0 19 07 aa 3d 11 6d 8d bd 7c 84 ad 3d 10 a7 c4 bc
       0.08302135 -0.069055684 0.08472535 -0.024005443
0000f0 9e 5c 4a 3d dd 7b 04 3e f6 e5 ed 3d 06 cd 73 bd
       0.049404733 0.12937875 0.11616127 -0.059521697
000100 10 e4 53 3d aa 13 a2 3b 21 51 89 bd 6e 91 46 3d
       0.05173117 0.004946192 -0.06704927 0.048478536
000110 ff 16 69 bd 53 2c 01 bc 3a bb c0 bc df 0d 93 3d
       -0.056906696 -0.007884103 -0.023526777 0.0718038
000120 03 96 35 be aa 99 d3 bc c7 6a a4 3e ab 1e 20 3e
       -0.17733006 -0.025830109 0.32112715 0.15636699
000130 cb 31 a3 3a f2 36 9f bd 1a a2 03 3d 97 47 bc 3d
       0.0012450753 -0.07774152 0.032137014 0.09193342
000140 b9 36 b3 bd d0 b9 91 3e 8b 6c 11 3d 49 fd bf bc
       -0.08750672 0.28462076 0.035503905 -0.023436205
000150 c4 46 af 3d f4 af e2 3d 35 af 19 bd 6b 82 10 3e
       0.08558419 0.11068717 -0.037520606 0.1411225
000160 35 17 4d 3d 05 18 d5 bc 8c 56 2a 3e f9 c0 19 bc
       0.05007096 -0.02601243 0.16634578 -0.009384387
000170 36 3a 0c bd ba 50 62 bc 0a f5 27 3e 25 7a 74 bd
       -0.0342352 -0.013813192 0.16402069 -0.0596868
000180 b7 fa f2 3d 4f 77 33 3e 5f ee de 3d e1 e4 a5 bc
       0.11864226 0.17525981 0.108853094 -0.02025074
000190 34 0a c7 3c 12 12 78 bd da a5 0d 3d 93 be 91 3d
       0.024296857 -0.06056411 0.034581997 0.07116427
0001a0 58 2a 22 3d 0c e8 4a b8 27 2e dc 3d 30 89 3f 3d
       0.039591163 -4.8376663e-05 0.1075099 0.04676169
0001b0 b6 58 39 3e ce bf 6a 3d 34 f0 85 bd 59 3f e5 3d
       0.18100247 0.057311825 -0.06539956 0.11193723
0001c0 24 12 0f 3c 05 a7 1e 3e ba 88 91 3d f2 e6 42 bc
       0.008732352 0.154934 0.07106157 -0.011895882
0001d0 22 1f fa bd c9 56 b0 bd 07 ab d0 3d f7 5b 68 bc
       -0.12212969 -0.08610303 0.10188871 -0.014182082
0001e0 34 15 ac 3d fe f5 b8 3d 4e e5 8f 3d 28 c7 6a bc
       0.08402482 0.09031294 0.07026158 -0.014329709
0001f0 61 91 8c 3e 5b 98 e3 3c c4 2a 83 bd cf fd 13 3d
       0.27454665 0.02778261 -0.06404641 0.036130723
000200 d9 51 b8 bd df 95 7b 3d d4 98 88 3d 36 e7 15 3d
       -0.08999986 0.061422225 0.06669775 0.036597453
000210 9f b5 24 3b 9d 29 21 bd 00 ff 5b 3d 27 98 a4 3d
       0.0025132669 -0.039346326 0.053709984 0.08036833
000220 ae 81 ec bd 20 b6 9c bd 4a 72 25 bd 08 ba 8f bd
       -0.11548172 -0.07651925 -0.040392198 -0.070179045
000230 0c 40 59 3e 81 42 a8 bd ac c0 bd 3d 2d 9f 08 3e
       0.21215838 -0.082158096 0.09265265 0.1334197
000240 89 85 08 bc 8f 2d e8 3d be c5 af 3d 65 84 e3 3d
       -0.0083326185 0.113368146 0.08582638 0.11109237
000250 06 17 bb 3d 5a 1d 1d 3e b6 63 72 bd a8 e4 d2 3d
       0.09135251 0.15343228 -0.059177123 0.10297519
000260 4a 2a d4 bc 27 99 13 3d e9 0f 75 bc a1 5f 4f 3d
       -0.025899071 0.03603473 -0.014957407 0.05062831
000270 52 f6 27 3e 7f 1c 82 3d b7 65 f5 bc cb 2f cc bd
       0.16402557 0.063530914 -0.029955728 -0.09970053
000280 cf 40 86 3d 8a 9b 88 3d b5 2e e3 3d 8a f6 50 3e
       0.0655533 0.06670292 0.11092893 0.20406547
000290 f4 fe 10 3e 22 9b 36 bd ed 85 6a 3e ed 64 89 bb
       0.14159757 -0.04458154 0.22902651 -0.0041929395
0002a0 5d 05 94 3d 0f 44 83 3d 06 f5 56 3b f6 57 03 3e
       0.072275855 0.064094655 0.0032799854 0.12826523
0002b0 c8 82 33 3d 41 21 92 bd 49 36 0e 3e 5d 28 1c bd
       0.043825895 -0.07135249 0.13887896 -0.03812443
0002c0 9e a8 7e bb fd fc f0 3d 32 de 7b 3c e1 65 cb 3d
       -0.0038857828 0.11767004 0.0153728 0.09931541
0002d0 2d 2e 2b bd a1 8d 3f 3e 4f 6a 03 3e 0a f5 de 3a
       -0.041792084 0.18706371 0.12833522 0.0017010283
0002e0 8f 93 b6 3d 90 38 12 3d d9 02 4f 3e f6 b9 0b 3c
       0.08914863 0.035698473 0.2021593 0.008528223
0002f0 db f2 48 3d 32 1d b0 bc d9 75 35 bd 6c 1b 2e 3d
       0.04905973 -0.021498296 -0.04430184 0.04250662
000300 1a c3 d6 3d 66 6b fa ba f9 75 70 3e 6a 58 1a bc
       0.104864314 -0.0019105494 0.23482503 -0.009420494
000310 12 d4 0d 3e 4f 18 13 3e 58 cc 5e 3c 7b 35 21 3d
       0.1385043 0.14364742 0.013598524 0.039357644
000320 d6 3d 01 3e 08 91 33 3d e1 4d ef bd b0 c3 59 3d
       0.12621245 0.043839484 -0.11684776 0.053165138
000330 f3 50 4b 3a 26 41 df bd f6 fa ec 3d 2e c3 1e 3e
       0.0007755898 -0.10901098 0.115713045 0.15504143
000340 d2 bd 4c 3e 6b ca 95 3d 94 7f 02 be 0c 75 f8 3d
       0.19994286 0.07313999 -0.1274398 0.121317
000350 12 39 03 3e 3e e4 f2 bd 70 e0 4a 3d 02 b2 0c be
       0.1281474 -0.1185994 0.049530447 -0.1373978
000360 78 bb d2 bc a6 29 7c bd 72 a1 24 3c 0e 13 10 bd
       -0.025724158 -0.061563157 0.010048257 -0.035174422
000370 de cd 1d 3e 15 7e 5b bc 25 88 b6 bd 5c 52 f5 3d
       0.15410563 -0.0133967595 -0.08912686 0.119785994
000380 11 af c0 3d b0 f9 f0 bd b3 dc d7 3c 03 5a 8d bc
       0.09408391 -0.11766374 0.026350355 -0.017254835
000390 d8 7a 0a bd 8c 72 b4 3d 9d 56 bf bc 81 a2 a0 bd
       -0.03380856 0.088109106 -0.02335673 -0.07843495
0003a0 74 b5 08 3c 72 7f 95 3d fc 59 15 bd 5c 81 b2 bd
       0.008344043 0.07299699 -0.03646277 -0.087160796
0003b0 c1 6e 84 3c 1e 56 cc 3d 94 bc 14 3d 9a e2 fa 3d
       0.016166093 0.09977363 0.036312655 0.12250252
0003c0 b0 f0 27 3d 57 57 02 bd 8e bc e3 3c ce fc ed 3b
       0.04100102 -0.031821575 0.02779987 0.0072628027
0003d0 07 c3 ee 3d c2 c3 86 bd 9b 9a 05 3e 53 b6 29 3c
       0.11658292 -0.065803066 0.13047259 0.010358411
0003e0 d6 44 02 3d e5 9d 01 3e 30 21 8b 3d 18 86 b8 3d
       0.03180393 0.12657888 0.067934394 0.09009951
0003f0 7d a8 09 3e 0f 7c b8 bd 15 9d 2f 3c 32 c6 be bc
       0.1344318 -0.09008037 0.010718604 -0.023287866

fc3.weight f4 [1, 400]
000000 f8 90 77 3d be f1 1f be a4 c4 93 3d ed 98 4e 3e
       0.060440987 -0.15619561 0.072152406 0.20175524
000010 d8 bb 76 3e 66 49 41 be da d4 d3 3d a8 e6 29 3e
       0.24095094 -0.18875656 0.103433326 0.16591895
000020 60 b3 97 3d 67 f7 83 3e 3f 0c 95 be 15 27 8b 3e
       0.0740726 0.2577469 -0.29110906 0.27178255
000030 b9 ac 79 be b5 5c d5 3e d3 80 47 be df 02 0d 3e
       -0.24382295 0.41672292 -0.19482736 0.13770626
000040 96 a8 af be 55 29 ae 3e 09 d3 5d be cf dc c1 be
       -0.34308308 0.3401591 -0.21662535 -0.37863776
000050 27 e5 ec bd 44 b7 70 be 37 f2 71 3e 5f 30 58 be
       -0.11567145 -0.2350741 0.23627554 -0.21112202
000060 ba c5 3f be 3c 9c 6a 3e 7d 84 b3 3e ae 1b 1e 3e
       -0.1872777 0.22911161 0.35062018 0.15440246
000070 7b 66 86 3e 3f 55 3a 3e b6 9e f7 3d 57 c9 91 3e
       0.2625006 0.18196581 0.120908186 0.28473923
000080 c4 60 8b 3e 41 74 e5 3d ad 1d 9b 3d a2 cb 6c 3e
       0.27222264 0.11203814 0.075740196 0.23124555
000090 d9 ea 51 be f3 69 9c be 92 50 87 be 72 0c 7c be
       -0.20499744 -0.30549583 -0.26428658 -0.24614123
0000a0 d9 d3 0a 3e b8 5e 24 3e 44 5b 13 3e ed ff 4f 3d
       0.13557376 0.16051757 0.14390284 0.05078118
0000b0 0b 36 c5 3d 3b db b6 be 09 af bb 3e 80 d4 1e 3e
       0.096294485 -0.35714135 0.3665698 0.1551075
0000c0 00 be 15 3e 80 1b ac be c7 5d db bd 0d ce e9 3d
       0.1462326 -0.3361473 -0.10711246 0.11416254
0000d0 46 95 05 3e 96 6d ba be ba 10 b2 3d 09 25 96 be
       0.13045225 -0.36411732 0.086945966 -0.2932513
0000e0 18 52 81 3e 31 8b 87 be 71 32 65 3e 7a a1 85 be
       0.25257945 -0.26473382 0.22382523 -0.2609976
0000f0 ab dd 4a 3e 9c ca 29 3e 50 4c 70 3e b3 4c 88 be
       0.19811122 0.16581196 0.23466611 -0.26621017
000100 8e 8c a8 3d e8 df 5e 3e 2d 62 53 be 50 0c 86 3e
       0.08229934 0.21765101 -0.2064292 0.2618127
000110 8f 68 6c be da ef 0d bf cc b3 99 3e 04 b2 17 3e
       -0.23086761 -0.5544411 0.30019987 0.14814001
000120 03 ba 47 be 7e 8f 3c 3e 80 75 97 3d 20 75 16 3e
       -0.19504552 0.18414113 0.07395458 0.14693117
000130 8c bb 79 3e 18 ec 63 be 90 54 c8 3e 2e 05 78 3e
       0.2438795 -0.22258031 0.39127016 0.24220726
000140 08 00 f6 be 6c 1f 9a 3d ba 5a 79 3e 67 26 7e be
       -0.480469 0.075255245 0.24351016 -0.24819337
000150 ee 6d 80 3e 90 86 32 3e 03 50 bf be 7c 75 96 3d
       0.2508387 0.17434144 -0.37365732 0.07346627
000160 3f 63 3b 3e ab 6e 20 be af 77 8f 3d 70 bd b3 be
       0.18299578 -0.15667216 0.0700525 -0.35105467
000170 31 33 d7 be 98 29 76 be d7 8a 19 3e e5 bc 04 be
       -0.42031243 -0.24039304 0.1499437 -0.12962683
000180 68 ec bb 3d c7 76 c7 3d 56 1f ea 3d 47 27 2f be
       0.0917595 0.09739452 0.11431758 -0.17104827
000190 8e b1 2b 3e 99 8d a3 be 87 b7 93 3e 91 98 04 3d
       0.1676695 -0.31943968 0.28850958 0.03237206
0001a0 1d 48 e1 be c0 c5 28 be bb 04 58 3e c7 70 89 be
       -0.4400033 -0.16481686 0.21095555 -0.26843855
0001b0 b0 e2 a8 3d 1b 16 62 3e ae 36 61 be e9 c2 4c 3d
       0.08246362 0.22078745 -0.21993515 0.04999057
0001c0 24 96 89 3e ab b8 98 3d 63 e7 ae 3e 7b b0 d1 be
       0.2687236 0.074570976 0.3416091 -0.40954956
0001d0 23 6b e5 bd 2f 38 af be 57 e3 68 3d 15 3f 94 be
       -0.11202075 -0.34222552 0.056857433 -0.28954378
0001e0 44 44 e0 3d b7 14 8a 3e 52 94 af 3d 04 66 2b 3e
       0.10950521 0.2696893 0.08573212 0.16738135
0001f0 e2 c8 89 3d 99 98 15 3e 70 0f bf be 4a fd 8c be
       0.067277685 0.14608993 -0.37316465 -0.27536994
000200 4e 2e 8f be 25 07 93 3d ea f2 81 3e 0f c6 5f 3e
       -0.27965015 0.07179097 0.2538064 0.21852897
000210 c1 85 32 3e 85 b2 35 be f4 ad 62 3e 35 ac 08 3e
       0.17433836 -0.17743881 0.2213667 0.13346942
000220 21 29 c9 be f7 62 4c be c3 54 96 be 35 a0 85 be
       -0.3928919 -0.19959627 -0.29361543 -0.2609879
000230 ca 17 b4 3d d5 c6 b2 be 7d b7 d2 3e 91 cc b5 3d
       0.087936 -0.34917322 0.41155615 0.088769086
000240 d6 d2 76 3e 80 1f 8e 3d 39 c8 16 3e af f9 26 3e
       0.24103865 0.06939602 0.14724816 0.16306184
000250 2f 92 96 3e 10 a4 ee 3d 45 ff d5 bd da 98 d4 3d
       0.29408404 0.11652386 -0.104490794 0.103807166
000260 77 51 0b 3e 1b f5 ad be 72 d9 74 be dc 4a ed 3d
       0.13605295 -0.33976063 -0.23911074 0.11586544
000270 bf 0a c7 3d 08 08 8a 3e a3 21 9e 3e 69 b0 13 be
       0.097188465 0.26959252 0.30885038 -0.14422764
000280 cf 4c a8 3d 60 f9 dc 3d e2 45 63 3e 86 b3 1b 3e
       0.08217775 0.10789752 0.22194627 0.15205202
000290 26 7c 0c 3e 0b 53 60 be 34 53 ad 3d 10 1c 30 be
       0.13719234 -0.21906678 0.08463135 -0.17198205
0002a0 f8 6f 1d 3e 1a aa 2f 3e da b9 2f be 73 83 4b 3e
       0.15374744 0.17154732 -0.1716074 0.19874363
0002b0 ea d6 79 3e c4 c7 d0 be bb e0 bd 3d 27 6d b2 be
       0.2439839 -0.4077741 0.092713796 -0.34848902
0002c0 e1 cd 92 be e3 02 e6 3d 72 17 51 3e 7c 76 7e 3d
       -0.28672698 0.11231019 0.204191 0.062124714
0002d0 f3 34 2f be 7b 51 96 3d 7f 30 18 3e ae 9a e5 bd
       -0.17110042 0.0733976 0.1486225 -0.112111434
0002e0 46 b8 72 3d 34 a8 94 3e 74 74 76 3d db 6a 5a 3e
       0.059257768 0.2903458 0.060169652 0.21329825
0002f0 18 68 4f 3e 6c 15 33 be 5a b0 69 be 09 a9 38 be
       0.20254552 -0.1748864 -0.22821179 -0.18033232
000300 fe 91 d7 3e e2 d3 84 be 0b 53 96 3d 34 bb 13 3e
       0.4210357 -0.25942904 0.07340058 0.14426881
000310 2f 24 54 3e 56 9d 46 3d 71 cb 50 be 34 99 32 3e
       0.20716928 0.04848989 -0.20390107 0.17441255
000320 75 43 78 3e b7 29 ab 3e ab 84 49 be 4b 92 b4 3e
       0.24244483 0.33430263 -0.19679515 0.35267863
000330 77 2a a2 3e 58 c9 99 be c3 b9 fc 3d 39 f2 f3 3d
       0.31673023 -0.30036426 0.12340119 0.11911435
000340 94 67 75 3d c8 2b c6 3d 83 f8 39 be 0b d0 c3 3d
       0.059913233 0.09676319 -0.18161206 0.095611654
000350 1f b3 4d 3d 5e 0f 49 be cb 3a 59 3e 8b 9f 8e be
       0.05021965 -0.19634768 0.21213834 -0.27856097
000360 55 f8 5a be 5c ae 9c be 4c d7 1d 3e e1 4e 24 be
       -0.21383794 -0.30601776 0.1541416 -0.16045715
000370 31 0c 2e 3e 29 db 9a 3e e6 6e 79 be c8 73 2d 3e
       0.16996838 0.3024533 -0.2435871 0.16938698
000380 c3 51 fe 3d 10 f4 2e be 63 a4 98 be 76 83 8c be
       0.124179386 -0.1708529 -0.29812917 -0.27444047
000390 d0 7d f8 be 96 7f bc 3d be d6 dd 3e bc 28 3a be
       -0.48533487 0.092040226 0.43327898 -0.18179601
0003a0 1a db 8c be 3e 95 63 3e a5 18 8a 3e 03 dd a9 be
       -0.2751091 0.222249 0.26971927 -0.3317643
0003b0 ac e4 b0 3e 6b e2 8c 3d 71 1b 84 3e 65 20 97 3d
       0.34549463 0.06879123 0.25802186 0.07379226
0003c0 c4 de 29 3e 4b f4 9c be 19 b4 94 3e 47 06 e3 be
       0.16588885 -0.3065513 0.29043654 -0.44340727
0003d0 dc df 29 3e b3 a6 32 be bd d3 bd 3d 5d 58 30 3e
       0.16589302 -0.17446403 0.092689015 0.17221208
0003e0 65 c8 00 3e 04 9b 8a 3e 86 f1 9a 3e 70 40 f1 3d
       0.12576444 0.27071393 0.30262393 0.117798686
0003f0 56 3f 2a 3e 0f 96 00 be 94 ac 98 be 60 6b a5 be
       0.16625723 -0.12557243 -0.29819167 -0.32308483
