experiments/exp2/models/checkpoint_critic_13.pth (torch_old, 536877 bytes, 9 tensors)

fc1.weight f4 [300, 33]
-0.086862184 0.0029551284 0.048820265 -0.010382236 -0.00588705 -0.11886207 -0.016844878 -0.043023374
-0.011199642 -0.04562942 0.018492047 0.027785847 -0.012324303 0.12009931 -0.05539424 -0.042618267
-0.004824415 -0.00869689 0.016723469 -0.012738239 0.007869547 0.010245455 0.009509616 -0.013716436
-0.0048390166 -0.04983843 -0.090822875 0.081839174 0.012259839 -0.054254994 -0.07623653 -0.021854013
-0.282652 0.049848605 0.06893446 -0.12570573 -0.04218832 0.004484454 -0.059566736 0.0066499077
-0.03839182 0.057200093 -0.09921579 0.040273774 -0.007111174 -0.0077341204 0.035568744 -0.008972767
0.12430397 0.04293584 0.0932866 -0.1622173 0.024242822 -0.0012056669 -0.04146187 -0.021535058
0.03299158 -0.010185317 0.05651982 -0.04815907 -0.042743992 -0.08407569 -0.005221054 0.012958489
0.007423565 -0.019010508 -0.0007296374 0.005754471 0.014830325 -0.12752329 0.07248283 0.18605447
-0.15100704 0.030771771 -0.1175546 -0.01782331 -0.011204077 0.013834415 0.02404569 -0.026022837
0.020173062 0.030290717 0.069432735 0.041615237 -0.1701761 -0.009098115 -0.008732168 0.01659075
0.007893635 -0.021829663 0.0031666246 -0.029723562 0.036945254 0.16799438 -0.03905021 -0.02044056
-0.16205779 0.0018607602 -0.3908254 -0.048636824 0.090758175 -0.13964872 0.04262248 -0.038797267
0.06565447 0.060010057 0.009179497 0.038158566 0.10548752 -0.04131963 0.033003524 -0.0051074815
0.09722174 -0.02371995 -0.036692716 -0.012023709 -0.12033167 -0.042440448 -0.07640842 0.017530229
0.0043632393 -0.033752047 0.00481333 -0.023183677 -0.024862938 -0.017461296 0.06467691 0.05735912
0.04864818 0.0053106924 -0.022482067 0.13608359 -0.015293253 0.06864343 -0.029630454 -0.12165641
-0.033869717 -0.10924297 -0.06631662 -0.0050298786 0.04484566 -0.11332337 0.041632526 0.026445838
0.013420683 0.076334976 -0.006366862 0.034533456 -0.06407944 -0.062549725 -0.0493437 -0.018360252
0.021225108 -0.010952837 0.023094827 0.030563887 0.0029360256 0.060465854 -0.075710356 0.016470227
-0.04004532 -0.028849907 -0.043985665 -0.05742477 0.33366472 0.016997216 0.085082695 -0.036627844
-0.09636715 0.1127504 0.21295181 -0.06542067 0.0035366025 -0.0408239 -0.008967865 0.049772315
-0.003247932 -0.0024231796 0.091711596 0.012537762 0.0252015 0.006480515 0.10070271 0.02826353
-0.123182215 0.0068244734 -0.004236204 0.01723268 0.032649864 0.033707142 -0.02960418 -0.028779088
0.10220085 0.03166167 0.021844313 -0.032473132 -0.015564311 0.2439568 0.03390041 0.08972884
0.052214824 0.18651257 0.02788973 0.13829057 -0.08754163 -0.068616234 0.042326927 -0.09663278
0.024116103 -0.0279139 0.052803237 0.0035426794 -0.06264422 0.025391173 -0.13267864 0.035824075
0.020507403 0.0070595886 0.04019895 -0.019736748 -0.013250688 0.014378523 -0.012822843 -0.026519181
-0.011725991 0.11256562 -0.0555969 0.040877394 -0.07732354 -0.02203532 0.24078627 0.042753834
0.049445584 -0.009858182 -0.052519325 0.08595722 -0.04120724 0.048451774 0.0658833 -0.1211024
0.07241182 -0.014693653 -0.027638512 -0.014203911 -0.026339259 -0.048033234 -0.017274879 -0.12579772
0.048849717 0.026321903 -0.046119124 -0.0011739531 -0.0063675707 -0.0014452649 -0.045156818 -0.0059104403
00000000: cde4 b1bd d4aa 413b c2f7 473d 411a 2abc
00000010: 28e8 c0bb f56d f3bd 45fe 89bc 4739 30bd
00000020: b47e 37bc eae5 3abd a27c 973c 259f e33c
00000030: e0eb 49bc a1f6 f53d 12e5 62bd 7e90 2ebd
00000040: 2016 9ebb 677d 0ebc a8ff 883c 0cb4 50bc
00000050: 46ef 003c 8edc 273c 38ce 1b3c e7ba 60bc
00000060: 9d90 9ebb 6223 4cbd 5801 babd 4c9b a73d
00000070: 7edd 483c 7c3a 5ebd e621 9cbd 3007 b3bc
00000080: c3b7 90be 0d2e 4c3d 832d 8d3d 01b9 00be
00000090: a9cd 2cbd 54f2 923b 40fc 73bd 78e7 d93b
000000a0: be40 1dbd a54a 6a3d a631 cbbd 1df6 243d
000000b0: da04 e9bb 816e fdbb 88b0 113d 8302 13bc
000000c0: 1493 fe3d 7edd 2f3d 0c0d bf3d 4b1c 26be
000000d0: e298 c63c 7807 9eba ecd3 29bd 4a6a b0bc
000000e0: 2e22 073d 51e0 26bc 5481 673d 7242 45bd
000000f0: 5314 2fbd e02f acbd 6015 abbb d84f 543c
00000100: 6041 f33b edbb 9bbc 2345 3fba 0090 bc3b
00000110: e4fa 723c 7795 02be e171 943d 1085 3e3e
00000120: 97a1 1abe 1515 fc3c 77c0 f0bd 3102 92bc
00000130: 4e91 37bc bea9 623c 78fb c43c d82d d5bc
00000140: fa41 a53c 3d24 f83c c032 8e3d bd74 2a3d
00000150: a542 2ebe 4310 15bc 5e11 0fbc 53e9 873c
00000160: 4e54 013c 1fd4 b2bc 2587 4f3b d47e f3bc
00000170: e853 173d b806 2c3e 1df3 1fbd f672 a7bc
00000180: 7af2 25be c0e4 f33a 441a c8be 6837 47bd
00000190: 6cdf b93d 1300 0fbe e994 2e3d e2e9 1ebd
000001a0: da75 863d 1bcd 753d 9a65 163c 284c 1c3d
000001b0: d709 d83d c63e 29bd b42e 073d a95c a7bb
000001c0: 311c c73d 5750 c2bc 1a4b 16bd 17ff 44bc
000001d0: 7370 f6bd 09d6 2dbd 057c 9cbd 8e9b 8f3c
000001e0: 81f9 8e3b 963f 0abd 23b9 9d3b b2eb bdbc
000001f0: 5cad cbbc fe0a 8fbc 5475 843d 66f1 6a3d
00000200: 5043 473d 5105 ae3b 502c b8bc 7f59 0b3e
00000210: 8d90 7abc ed94 8c3d 91bb f2bc ff26 f9bd
00000220: f9ba 0abd c7ba dfbd 02d1 87bd aed1 a4bb
00000230: 15b0 373d 1516 e8bd de86 2a3d f1a4 d83c
00000240: 6de2 5b3c 8355 9c3d 1ca1 d0bb f472 0d3d
00000250: 153c 83bd 121a 80bd 9f1c 4abd 3d68 96bc
00000260: 47e0 ad3c 8773 33bc 5d31 bd3c 1e61 fa3c
00000270: 566a 403b 0bab 773d 080e 9bbd 92ec 863c
00000280: 9006 24bd a456 ecbc 502a 34bd 3c36 6bbd
00000290: 1ad6 aa3e bf3d 8b3c d63f ae3d 1407 16bd
000002a0: 245c c5bd afe9 e63d 0a10 5a3e 46fb 85bd
000002b0: 58c6 673b f636 27bd f4ed 12bc 0ede 4b3d
000002c0: 42db 54bb 35ce 1ebb 4ad3 bb3d 2f6b 4d3c
000002d0: 6073 ce3c 805a d43b 393d ce3d eb88 e73c
000002e0: f546 fcbd d59f df3b dbcf 8abb 8d2b 8d3c
000002f0: ddbb 053d 8010 0a3d 7784 f2bc 1fc2 ebbc
00000300: ae4e d13d abaf 013d d8f2 b23c 8c02 05bd
00000310: 7401 7fbc d0cf 793e 28db 0a3d c1c3 b73d
00000320: 36df 553d 27fd 3e3e 0179 e43c 0b9c 0d3e
00000330: 0749 b3bd ab86 8cbd 005f 2d3d 68e7 c5bd
00000340: 228f c53c b1ab e4bc 3548 583d 4c2c 683b
00000350: 9d4b 80bd 2601 d03c e9dc 07be 44bc 123d
00000360: 24ff a73c 1f54 e73b a7a7 243d f6ae a1bc
00000370: 6a19 59bc e693 6b3c e716 52bc c13e d9bc
00000380: 5f1e 40bc ce88 e63d 93b9 63bd 0e6f 273d
00000390: ce5b 9ebd 6a83 b4bc ad90 763e a51e 2f3d
000003a0: 7487 4a3d 3684 21bc 811e 57bd 570a b03d
000003b0: ecc8 28bd 5e75 463d d3ed 863d 8904 f8bd
000003c0: a64c 943d a6bd 70bc 296a e2bc 85b7 68bc
000003d0: 6ec5 d7bc 7fbe 44bd 0c84 8dbc 1ed1 00be
000003e0: a416 483d 08a1 d73c 68e7 3cbd 54df 99ba
000003f0: 0ea7 d0bb 0b6f bdba 5bf6 38bd 5eac c1bb

fc1.bias f4 [300]
0.045091946 0.14618546 -0.040741675 -0.12840126 0.07966836 -0.10163151 -0.13211524 -0.23753668
0.08537841 -0.09506581 -0.08917419 -0.15336671 0.098786436 -0.060341537 -0.20587783 -0.13084991
-0.007061187 -0.15183893 -0.0033750483 -0.0037622077 0.06318331 -0.14412425 -0.16368705 -0.16612734
-0.061718497 0.069509044 -0.10318679 -0.04745424 0.06991825 -0.052313484 -0.1465743 0.04925463
-0.017212918 -0.102330476 -0.024384458 -0.05453541 0.056324355 -0.1400993 -0.061538123 -0.17916647
-0.106492765 -0.12596308 0.07700582 -0.21143289 -0.23705138 -0.10831999 -0.22516173 -0.15984869
-0.202716 -0.23773307 -0.19702765 0.043493282 -0.16100867 0.18398161 0.087521546 0.026095973
0.006439671 -0.03851288 0.039193973 -0.11287152 0.07527791 0.02326371 -0.17485845 -0.18525486
-0.103160605 -0.05240479 -0.08896711 -0.1506956 0.030887228 -0.14038624 -0.17740539 0.050005697
0.032832053 0.10266719 -0.11688411 -0.17976135 0.0020355175 -0.17322354 -0.052584484 -0.11557692
-0.03727718 -0.05153853 -0.23282878 -0.15048929 -0.035200365 -0.13959596 0.033383206 -0.047655538
0.070341244 0.030203454 -0.1747638 -0.25612712 -0.15710977 -0.1791892 -0.1468882 -0.21094981
-0.1788943 -0.023865689 0.048576023 -0.20908062 0.10896446 -0.11561541 0.056572266 0.07545197
-0.066868685 -0.13551584 0.07526411 -0.051501505 -0.14920604 -0.19647671 -0.24491271 -0.21132591
-0.07174012 -0.08059609 0.011664876 -0.15281504 -0.28430098 0.09650879 0.12708801 -0.21902482
0.13568318 -0.23042814 -0.27119234 -0.11424107 -0.02031787 -0.15161814 -0.091646 -0.020153794
-0.0183778 -0.038555607 -0.19080752 -0.22484066 -0.19592285 0.06507785 -0.09290302 -0.18423426
-0.18167754 -0.08714858 -0.2835333 0.08363063 0.059801903 0.16779307 0.12220527 -0.07359559
-0.009794309 0.11118371 -0.20055579 -0.22763176 -0.24490227 0.04219949 -0.13216382 -0.045216057
-0.03732948 -0.16618831 -0.0015230096 -0.15514216 -0.14574629 -0.12526764 -0.124670364 -0.112754114
-0.013944135 -0.06772457 0.043188408 -0.16175069 0.01308992 -0.025691643 -0.21978992 0.009535317
-0.17387545 -0.08022546 -0.16810617 -0.023213714 -0.15443206 -0.14833932 -0.15036973 -0.06896027
0.019744636 -0.23213987 0.13822202 -0.16481435 -0.07914158 -0.057425562 -0.06394487 -0.13624486
-0.17926931 0.003571264 -0.12032994 -0.0040332866 -0.15099804 -0.14215282 0.059981544 -0.13413045
-0.09562645 0.10065007 0.08737564 -0.28798887 -0.0009452202 -0.0071077463 0.070204645 -0.12444482
-0.23928718 -0.21423438 -0.17147274 0.15123956 0.118621744 0.08276134 0.07694734 -0.0055918815
-0.014065266 -0.11712689 -0.21925966 -0.21406601 -0.037007272 -0.11188938 0.010462452 0.04009071
0.101747535 -0.08261057 -0.08639228 0.17161073 -0.16505332 -0.13221304 -0.22211772 -0.07831767
-0.095653184 -0.12659496 -0.11453889 -0.15484402 0.034790788 -0.14595279 -0.10644878 -0.0941648
0.13933526 -0.11914999 0.041925006 -0.20035195 0.043580033 0.054474395 -0.15710716 0.16036902
-0.11662631 -0.103319265 0.0744143 -0.101571314 0.14905499 -0.20116602 -0.094923496 -0.08536204
0.05069476 -0.0004136229 0.13459468 -0.08066832 -0.11409599 0.13310608 -0.17361772 -0.025007103
00000000: 55b2 383d a4b1 153e bee0 26bd 9f7b 03be
00000010: 2a29 a33d 2e24 d0bd 3849 07be d13c 73be
00000020: e0da ae3d ddb1 c2bd f5a0 b6bd 2a0c 1dbe
00000030: 8b50 ca3d b028 77bd a3d1 52be 85fd 05be
00000040: 8861 e7bb aa7b 1bbe ea2f 5dbb 5f8f 76bb
00000050: 4066 813d 4f95 13be 949d 27be 491d 2abe
00000060: 89cc 7cbd c25a 8e3d 9953 d3bd 615f 42bd
00000070: 4d31 8f3d aa46 56bd 9317 16be 39bf 493d
00000080: 1b02 8dbc a492 d1bd eac1 c7bc 8660 5fbd
00000090: 5eb4 663d 3176 0fbe 660f 7cbd 6a77 37be
000000a0: e118 dabd 77fc 00be 3ab5 9d3d dd81 58be
000000b0: 99bd 72be dfd6 ddbd cc90 66be 60af 23be
000000c0: c894 4fbe 4c70 73be 9ec1 49be 0326 323d
000000d0: 75df 24be ad65 3c3e 7f3e b33d 39c7 d53c
000000e0: e003 d33b afbf 1dbd dc89 203d 2f29 e7bd
000000f0: 4e2b 9a3d 8993 be3c 180e 33be 73b3 3dbe
00000100: de45 d3bd 68a6 56bd 6334 b6bd f34f 1abe
00000110: 3607 fd3c 69c1 0fbe c2a9 35be c6d2 4c3d
00000120: e77a 063d 2d43 d23d f060 efbd 5c13 38be
00000130: 5166 053b 8361 31be d462 57bd 98b3 ecbd
00000140: f5af 18bd 111a 53bd ab6a 6ebe dd19 1abe
00000150: 422e 10bd 3ef2 0ebe d4bc 083d 7432 43bd
00000160: 120f 903d 3c6d f73c 48f5 32be 1823 83be
00000170: 62e1 20be 607d 37be dc69 16be 3a03 58be
00000180: 1130 37be fa81 c3bc a7f7 463d 3b19 56be
00000190: c228 df3d c6c7 ecbd 52b8 673d 9086 9a3d
000001a0: 73f2 88bd aac4 0abe 1224 9a3d 3ef3 52bd
000001b0: 78c9 18be 3131 49be 66ca 7abe d265 58be
000001c0: 7cec 92bd 900f a5bd 091e 3f3c 8c7b 1cbe
000001d0: e68f 91be 67a6 c53d 5c23 023e 0b48 60be
000001e0: 88f0 0a3e 5bf5 6bbe b9d9 8abe 39f7 e9bd
000001f0: a971 a6bc c941 1bbe e6b0 bbbd 9219 a5bc
00000200: 0a8d 96bc 7cec 1dbd 0c63 43be a13c 66be
00000210: 00a0 48be 8947 853d f043 bebd e8a7 3cbe
00000220: ad09 3abe f47a b2bd 472b 91be 8946 ab3d
00000230: d7f2 743d f2d1 2b3e c246 fa3d 49b9 96bd
00000240: 4f78 20bc 49b4 e33d 7f5e 4dbe 4d18 69be
00000250: a9c7 7abe 5fd9 2c3d f455 07be 7934 39bd
00000260: cce6 18bd 452d 2abe b99f c7ba 96dd 1ebe
00000270: 843e 15be 2946 00be 2d53 ffbd a1eb e6bd
00000280: f175 64bc 2eb3 8abd 54e6 303d f9a1 25be
00000290: 1b77 563c 4877 d2bc 9c10 61be 053a 1c3c
000002a0: 680c 32be 3f4d a4bd 0624 2cbe b02a bebc
000002b0: 7023 1ebe 43e6 17be 86fa 19be 0b3b 8dbd
000002c0: 81bf a13c 13b6 6dbe 138a 0d3e 18c5 28be
000002d0: fb14 a2bd 1137 6bbd 87f5 82bd c683 0bbe
000002e0: 6092 37be de0b 6a3b 8b6f f6bd a929 84bb
000002f0: 3b9f 1abe 8290 11be 35af 753d 7e59 09be
00000300: cdd7 c3bd a021 ce3d 00f2 b23d 4773 93be
00000310: a7c8 77ba 19e8 e8bb 74c7 8f3d eddc febd
00000320: b307 75be 4260 5bbe 8d96 2fbe 8bde 1a3e
00000330: f5ef f23d c77e a93d 9196 9d3d 1a3c b7bb
00000340: 0072 66bc 39e0 efbd 9b85 60be 1f34 5bbe
00000350: f094 17bd 4226 e5bd b46a 2b3c 2836 243d
00000360: 0361 d03d bb2f a9bd 70ee b0bd b9ba 2f3e
00000370: bd03 29be db62 07be d472 63be 0465 a0bd
00000380: d1e5 c3bd 1ca2 01be 5e93 eabd 6e8f 1ebe
00000390: c980 0e3d a674 15be d101 dabd 7ad9 c0bd
000003a0: e7ad 0e3e e904 f4bd 8eb9 2b3d 1029 4dbe
000003b0: fa80 323d 8b20 5f3d b3e0 20be c737 243e
000003c0: c6d9 eebd 0d99 d3bd 8666 983d 9f04 d0bd
000003d0: dfa1 183e 77fe 4dbe 4067 c2bd 4bd2 aebd
000003e0: 4fa5 4f3d 87db d8b9 30d3 093e 6f35 a5bd
000003f0: 29ab e9bd f64c 083e d8c8 31be b2db ccbc

bn1.weight f4 [300]
0.19229504 0.8994525 0.2550403 0.52251446 0.8065382 0.7814034 0.3263813 0.22061314
0.5215481 0.11767141 0.50908434 0.5560695 0.34897688 0.3502309 0.24693644 0.2867104
0.02009028 0.18376175 0.09968099 0.53996754 0.7883778 0.532546 0.79345256 0.76287603
0.16296932 0.15414207 0.5596495 0.81586856 0.47422245 0.277993 0.6735113 0.7280251
0.35756266 0.34956113 0.723525 0.33253533 0.24185336 0.36710367 0.1887311 0.24878636
0.08247243 0.119032905 0.09604672 0.5304003 0.30596417 0.66899484 0.30631557 0.70611566
0.07546516 0.08180333 0.21347776 0.30592486 0.44297886 0.3892612 0.27283075 0.22475623
0.29545304 0.4402235 0.6760828 0.36387256 0.2899078 0.75582516 0.66658556 0.7089982
0.60367614 0.58817667 0.42757612 0.5904737 0.62234944 0.75631523 0.53530407 0.07083317
0.5995382 0.75161 0.25164756 0.3653575 0.792653 0.41507456 0.5955703 0.684503
0.66909724 0.08758576 0.42148298 0.1636387 0.6595638 0.20981935 0.43271235 0.41413397
0.323311 0.7945981 0.76250714 0.73351 0.777887 0.44209424 0.7286455 0.6749111
0.52815974 0.4363644 0.46412128 0.257168 0.49908882 0.13140532 0.6116267 0.4338243
0.53943276 0.775302 0.8245257 0.20975779 0.55262446 0.13452801 0.37329927 0.74575585
0.6831894 0.27918825 0.43629253 0.33300093 0.35471347 0.43158346 0.6164198 0.28754756
0.051344898 0.40081978 0.23669057 0.13884728 0.29390687 0.04741171 0.6791609 0.20765293
0.72369266 0.40140522 0.12795798 0.12131764 0.7281944 0.22282022 0.6947733 0.4115452
0.056559216 0.50210667 0.32648972 0.63647956 0.43299618 0.29001337 0.68684876 0.45428097
0.1553201 0.24217544 0.69538337 0.43434048 0.31604204 0.6715124 0.08516672 0.32373714
0.60173976 0.68327767 0.3371646 0.6519069 0.25077423 0.63270396 0.7720839 0.74796253
0.042123355 0.2636385 0.113471396 0.2535968 0.6655936 0.5224546 0.46608543 0.53334343
0.681053 0.5493209 0.43001133 0.52418786 0.3412504 0.7694471 0.13513432 0.38304013
0.7788391 0.37974113 0.39361832 0.31386903 0.23704273 0.61572033 0.29272676 0.17567863
0.29076305 0.38191932 0.4068908 0.48268914 0.42028674 0.12759659 0.6454338 0.6891795
0.06789762 0.307246 0.29913405 0.5165161 0.31014556 0.69421613 0.45320916 0.8044164
0.5136324 0.55993116 0.67302614 0.48024547 0.7297601 0.65353733 0.5152964 0.5736241
0.21364331 0.41117048 0.5740387 0.32479593 0.5385013 0.44192287 0.75786513 0.35607383
0.797824 0.60466194 0.6400645 0.58995384 0.48483622 0.27356833 0.16099511 0.7769682
0.59445447 0.068688065 0.27764577 0.07986886 0.28460577 0.31711167 0.42856967 0.43054375
0.30916345 0.8008064 0.5827308 0.41075546 0.4933037 0.16004795 0.4099636 0.7588315
0.57053304 0.6979404 0.87875336 0.8489866 -0.058956347 0.70428455 0.9154557 0.6963832
0.116951875 0.061040886 0.4272799 0.088727586 0.5667246 0.44957346 0.5061517 0.09075459
00000000: fee8 443e 8542 663f a494 823e 82c3 053f
00000010: 4a79 4e3f 0e0a 483f 731b a73e 69e8 613e
00000020: 2d84 053f b5fd f03d 5a53 023f 925a 0e3f
00000030: 19ad b23e 7751 b33e e8dc 7c3e b5cb 923e
00000040: 5f94 a43c 0a2c 3c3e 8c25 cc3d 503b 0a3f
00000050: 21d3 493f ef54 083f b51f 4b3f d84b 433f
00000060: 6ee1 263e 6bd7 1d3e 3145 0f3f c3dc 503f
00000070: 49cd f23e 1955 8e3e 3d6b 2c3f da5f 3a3f
00000080: 7412 b73e adf9 b23e ef38 393f 1242 aa3e
00000090: 68a8 773e 03f5 bb3e ba42 413e dac1 7e3e
000000a0: 4ee7 a83d 86c7 f33d 25b4 c43d 50c8 073f
000000b0: 56a7 9c3e 3f43 2b3f 65d5 9c3e ffc3 343f
000000c0: 7a8d 9a3d 8188 a73d ea99 5a3e 2fa2 9c3e
000000d0: 20ce e23e 3e4d c73e 79b0 8b3e 7f26 663e
000000e0: 9f45 973e f964 e13e c313 2d3f 814d ba3e
000000f0: cc6e 943e c27d 413f 5aa5 2a3f e880 353f
00000100: 858a 1a3f bf92 163f 42eb da3e 4929 173f
00000110: 4b52 1f3f e09d 413f b009 093f fb10 913d
00000120: 567b 193f 8369 403f f3d7 803e 2310 bb3e
00000130: 4feb 4a3f a784 d43e 4c77 183f 973b 2f3f
00000140: f549 2b3f 2a60 b33d 9ecc d73e e790 273e
00000150: 2cd9 283f e2da 563e 798c dd3e 5e09 d43e
00000160: 0589 a53e c86a 4b3f ab33 433f 50c7 3b3f
00000170: 9a23 473f 2d5a e23e 8388 3a3f f9c6 2c3f
00000180: 7a35 073f 286b df3e 4ea1 ed3e 86ab 833e
00000190: 9288 ff3e 1e8f 063e 9193 1c3f 381e de3e
000001a0: 4418 0a3f 317a 463f 1e14 533f bfca 563e
000001b0: cc78 0d3f b6c1 093e 1521 bf3e dbe9 3e3f
000001c0: 80e5 2e3f c3f1 8e3e bc61 df3e 197f aa3e
000001d0: 019d b53e 82f8 dc3e b0cd 1d3f 6f39 933e
000001e0: 074f 523d 4038 cd3e 035f 723e fb2d 0e3e
000001f0: f67a 963e c832 423d 7ddd 2d3f f8a2 543e
00000200: ec43 393f fc84 cd3e 6b07 033e 6275 f83d
00000210: f36a 3a3f fc2a 643e aadc 313f 0db6 d23e
00000220: a3aa 673d 108a 003f a929 a73e 53f0 223f
00000230: adb1 dd3e a27c 943e 52d5 2f3f 8497 e83e
00000240: 3b0c 1f3e d7fc 773e a504 323f e061 de3e
00000250: 43d0 a13e 3de8 2b3f e46b ae3d e0c0 a53e
00000260: 9e0b 1a3f 49eb 2e3f d7a0 ac3e 5fe3 263f
00000270: 7b65 803e e3f8 213f 4aa7 453f 797a 3f3f
00000280: 8a89 2c3d a0fb 863e b163 e83d 71d7 813e
00000290: 5864 2a3f 96bf 053f c0a2 ee3e 3289 083f
000002a0: 7d59 2e3f 4ba0 0c3f 722a dc3e 2d31 063f
000002b0: 5fb8 ae3e 7cfa 443f a760 0a3e d61d c43e
000002c0: 0062 473f 6e6d c23e 5788 c93e 71b3 a03e
000002d0: 54bb 723e d99f 1d3f 48e0 953e 19e5 333e
000002e0: e5de 943e ee8a c33e fe53 d03e 0823 f73e
000002f0: d32f d73e aea8 023e 263b 253f 116e 303f
00000300: e80d 8b3d 594f 9d3e 1928 993e 663a 043f
00000310: 66cb 9e3e 26b8 313f 080b e83e 3cee 4d3f
00000320: 6a7d 033f a657 0f3f 714b 2c3f bce2 f53e
00000330: 8fd1 3a3f 394e 273f 77ea 033f 07d9 123f
00000340: 50c5 5a3e f084 d23e 33f4 123f a74b a63e
00000350: 39db 093f b743 e23e 7303 423f 4f4f b63e
00000360: 323e 4c3f 20cb 1a3f 44db 233f 3707 173f
00000370: 743c f83e 2611 8c3e e7db 243e 63e7 463f
00000380: 2b2e 183f 54ac 8c3d 9627 8e3e 4992 a33d
00000390: d9b7 913e 765c a23e 7c6d db3e 3b70 dc3e
000003a0: ac4a 9e3e a601 4d3f d92d 153f 8a4e d23e
000003b0: 4d92 fc3e 9ce3 233e c0e6 d13e c842 423f
000003c0: 740e 123f 39ac 323f fbf5 603f 3057 593f
000003d0: 367c 71bd fe4b 343f 4e5b 6a3f 2b46 323f
000003e0: 7784 ef3d 0206 7a3d 6ec4 da3e cfb6 b53d
000003f0: dd14 113f 7e2e e63e 2893 013f 8bdd b93d

bn1.bias f4 [300]
0.116704024 0.03822894 0.07640417 0.15373002 0.052119207 0.09742764 0.11888477 0.09667077
0.17403054 -0.10606516 -0.09844179 0.065440744 -0.096308365 0.06397294 0.10639622 -0.015523527
-0.20963828 0.0772103 0.14926034 0.10412426 0.010381245 0.0979251 0.06093041 -0.10754095
0.0019272469 0.048060738 0.027385242 0.16194792 0.035945848 0.1740887 0.03642714 -0.022567112
0.07034223 0.019862128 0.039624102 0.045282025 -0.1270838 0.18707198 0.057765868 0.09772728
0.18544869 -0.11403208 0.19743152 0.046807457 0.013534906 0.1422893 0.06861506 -0.061605696
0.18728063 -0.19790597 -0.059772704 0.19129415 0.07443455 0.16071413 -0.039070617 0.014631978
-0.02852595 -0.04178598 0.07389558 -0.05003875 -0.0038560524 0.051022038 -0.054200154 0.045524545
0.033557344 -0.0938971 0.064818084 0.16564167 0.033451766 0.06887278 0.066480964 -0.13373414
-0.121544585 0.04511004 0.0054161483 -0.06653256 0.053227656 0.116518885 0.10453418 0.10589684
-0.05956595 -0.08271133 -0.019890497 -0.0063629663 0.08214745 0.058828987 0.083364464 0.008091664
-0.032035287 -0.055207457 0.0115651665 0.0858368 0.045063674 0.13408121 0.16886099 0.091853574
0.04524886 0.077100284 0.21461941 -0.059080865 0.16897072 0.09851145 0.13250704 0.07650499
-0.03378738 0.06712539 -0.031788908 0.031019058 0.06940322 0.09203784 0.05891401 0.17092319
0.12539257 0.124010794 0.116523065 0.09544162 -0.101860404 0.12168467 -0.077884965 0.09353403
0.1097392 0.0667254 0.07616342 -0.0593319 0.054508027 -0.18779759 0.1788481 -0.07480129
-0.089674555 -0.040459685 -0.14404401 -0.06916239 -0.069462895 -0.0140029 0.15791523 0.016875604
0.16571724 0.15453781 0.10103105 0.115655415 0.043553904 0.19214605 0.15469392 0.098613426
0.10622433 -0.00970123 0.08606896 0.10908744 0.12689176 0.078224085 0.14744195 0.05023016
0.07748043 0.15161018 0.050989594 0.13660593 0.19612075 0.082126856 0.053564295 0.07566467
-0.21506253 0.040353514 0.05434464 0.019013247 0.05521152 0.105147846 0.00965013 0.059098896
-0.017523844 0.17031056 0.054359455 0.117830835 0.06642449 0.01988398 -0.074170195 -0.10674168
0.03557708 0.12351026 0.07504793 0.075523876 0.060892962 -0.025403973 0.04598383 -0.0045255814
0.09307599 0.1525391 0.059287757 0.081351094 0.13139188 -0.15876256 0.064346425 0.123805396
-0.16441703 -0.08976336 -0.047440283 0.0995466 0.060752667 0.05565469 0.057181384 0.04474767
0.18284175 -0.08787035 0.11054677 -0.098827004 -0.029764261 0.09052784 0.12591222 -0.107320584
0.19340007 0.03945253 0.12449991 0.08524922 0.11208547 0.06592057 0.1335783 0.09558963
0.016455425 0.0801641 0.077701166 0.0717144 0.15586372 0.08073602 0.08492968 -0.061487526
0.09635411 -0.18494086 0.053269904 0.20603323 -0.042042404 0.09001799 -0.004190628 0.13413386
0.14008833 0.053782854 0.046750903 0.15307914 0.10630687 0.059307057 0.109021164 0.14696904
0.07066108 -0.12672035 -0.036059283 0.14482753 -0.18216382 0.10310999 0.075417966 0.08273938
0.12608808 -0.18916796 0.15218467 0.028782576 0.104537256 0.05589159 0.039517473 0.13288943
00000000: 8502 ef3d f395 1c3d ca79 9c3d 676b 1d3e
00000010: f37a 553d 2488 c73d dc79 f33d 53fb c53d
00000020: 1035 323e b138 d9bd d99b c9bd cc05 863d
00000030: 523d c5bd 3f04 833d 43e6 d93d 6456 7ebc
00000040: 6bab 56be 6f20 9e3d b4d7 183e 1a3f d53d
00000050: 1916 2a3c f48c c83d 2a92 793d 6e3e dcbd
00000060: ad9b fc3a 56db 443d 0457 e03c add5 253e
00000070: f43b 133d 4f44 323e a034 153d aade b8bc
00000080: 960f 903d e7b5 a23c e24c 223d a579 393d
00000090: 4122 02be cc8f 3f3e e79b 6c3d 3d25 c83d
000000a0: 43e6 3d3e a789 e9bd 7d2b 4a3e 2db9 3f3d
000000b0: 83c1 5d3c 49b4 113e 0d86 8c3d 4156 7cbd
000000c0: 7ec6 3f3e dda7 4abe 39d4 74bd 9de2 433e
000000d0: 2471 983d 3f92 243e 8308 20bd f7ba 6f3c
000000e0: 41af e9bc c727 2bbd 9156 973d 6ff5 4cbd
000000f0: d3b5 7cbb 7cfc 503d fb00 5ebd f277 3a3d
00000100: 6d73 093d 1f4d c0bd 58bf 843d f89d 293e
00000110: b804 093d 2c0d 8d3d 2c27 883d 9af1 08be
00000120: 5eec f8bd 4ec5 383d f279 b13b 3942 88bd
00000130: 3e05 5a3d 74a1 ee3d 0416 d63d 71e0 d83d
00000140: 6dfb 73bd 8f64 a9bd 65f1 a2bc 6e80 d0bb
00000150: ec3c a83d aaf6 703d fdba aa3d e692 043c
00000160: 6f37 03bd 3721 62bd d37b 3d3c 34cb af3d
00000170: b094 383d 964c 093e e5e9 2c3e ba1d bc3d
00000180: de56 393d c1e6 9d3d 31c5 5b3e c7fe 71bd
00000190: a906 2d3e 5fc0 c93d edaf 073e a6ae 9c3d
000001a0: a364 0abd 0979 893d 1635 02bd ae1b fe3c
000001b0: 4723 8e3d 567e bc3d d14f 713d 7d06 2f3e
000001c0: e966 003e 5ff9 fd3d a5a3 ee3d e576 c33d
000001d0: 309c d0bd d035 f93d 2782 9fbd c58e bf3d
000001e0: f2be e03d 54a7 883d 91fb 9b3d 0206 73bd
000001f0: cf43 5f3d 034e 40be f523 373e 6b31 99bd
00000200: 4ba7 b7bd 0eb9 25bd 4680 13be 03a5 8dbd
00000210: 9042 8ebd 6b6c 65bc 88b4 213e b53e 8a3c
00000220: c8b1 293e 293f 1e3e 5ee9 ce3d bfdc ec3d
00000230: 9465 323d efc1 443e 1568 1e3e d6f5 c93d
00000240: 248c d93d e8f1 1ebc ec44 b03d 3c69 df3d
00000250: eaef 013e f333 a03d 06fb 163e 24be 4d3d
00000260: 0fae 9e3d b33f 1b3e 77da 503d 6de2 0b3e
00000270: e1d3 483e 2032 a83d 3c66 5b3d 14f6 9a3d
00000280: 5a39 5cbe ba49 253d 7c98 5e3d abc1 9b3c
00000290: 7a25 623d c157 d73d 941b 1e3c af11 723d
000002a0: 2a8e 8fbc e465 2e3e 05a8 5e3d 4b51 f13d
000002b0: 9009 883d bae3 a23c 8be6 97bd 629b dabd
000002c0: 46b9 113d f2f2 fc3d bbb2 993d 43ac 9a3d
000002d0: e66a 793d fe1b d0bc 8a59 3c3d 544b 94bb
000002e0: a09e be3d 3633 1c3e b8d7 723d 679b a63d
000002f0: 988b 063e a792 22be 0fc8 833d af8d fd3d
00000300: f05c 28be dad5 b7bd be50 42bd 16df cb3d
00000310: cad7 783d 2cf6 633d 0737 6a3d 5549 373d
00000320: de3a 3b3e 5ff5 b3bd 5866 e23d d065 cabd
00000330: 2ed4 f3bc a966 b93d 22ef 003e e5ca dbbd
00000340: ab0a 463e fa98 213d cff9 fe3d 2597 ae3d
00000350: 118d e53d 5d01 873d c0c8 083e 7fc4 c33d
00000360: 87cd 863c 132d a43d ca21 9f3d 00df 923d
00000370: bd9a 1f3e ed58 a53d 9def ad3d 58da 7bbd
00000380: 4e55 c53d 2361 3dbe 8b31 5a3d 60fa 523e
00000390: a834 2cbd 5a5b b83d 8951 89bb 635a 093e
000003a0: 5173 0f3e 694b 5c3d e07d 3f3d c7c0 1c3e
000003b0: 6bb7 d93d f5eb 723d 7d46 df3d 0d7f 163e
000003c0: c2b6 903d fbc2 01be e6b2 13bd ab4d 143e
000003d0: 2789 3abe 552b d33d bc74 9a3d 4473 a93d
000003e0: 3c1d 013e 3fb5 41be 4cd6 1b3e 70c9 eb3c
000003f0: a117 d63d 94ee 643d 13dd 213d 2b14 083e

bn1.running_mean f4 [300]
0.25656968 0.21358423 0.010269067 0.08536497 0.17995882 0.06686388 0.08641997 0.021471364
0.25465292 0.09226705 0.16746509 0.08940011 0.25503904 0.091245666 0.018325463 0.2721033
0.37467614 0.23085304 0.23424926 0.17567 0.08885491 0.053535372 0.021293104 0.030520646
0.1432653 0.2654692 0.1485087 0.20713647 0.15497264 0.2261721 0.0451444 0.2786461
0.07109645 0.14484474 0.12450038 0.049004167 0.15771139 0.123839125 0.057347424 0.086985
0.35724807 0.47258788 0.8236539 0.10113317 0.028276836 0.16291943 0.082872845 0.08970933
0.07794253 0.1625174 0.04065945 0.15504421 0.08783365 0.36371627 0.41418532 0.09307253
0.09474586 0.29401767 0.11678535 0.065963924 0.10037616 0.09264976 0.15312698 0.2124823
0.0894561 0.22744335 0.09497077 0.1583116 0.097842425 0.07768326 0.08009693 0.16784945
0.11780074 0.11864387 0.062162228 0.045801327 0.16425866 0.10713652 0.10503918 0.15649086
0.07956258 0.27355075 0.065371595 0.5265744 0.08805115 0.04013707 0.25282088 0.109344564
0.3933176 0.2517876 0.071448654 0.061576147 0.0606222 0.12145194 0.13066898 0.04567113
0.05065877 0.09001296 0.21808456 0.09131984 0.4629603 0.07013815 0.1367214 0.09385098
0.13898599 0.15543407 0.2460304 0.15743494 0.30550787 0.44246808 0.047479153 0.10858327
0.16518833 0.03487556 0.11331128 0.14389375 0.01936339 0.42749345 0.595869 0.1252453
0.20483334 0.045189776 0.07743977 0.087892905 0.50321186 0.13822399 0.14220102 0.07702208
0.49317488 0.09519664 0.063542664 0.115281135 0.07442868 0.2689829 0.203986 0.1487999
0.5362878 0.03629165 0.014894266 0.16145718 0.21516098 0.61480916 0.39039308 0.08480409
0.23183672 0.44008806 0.110407606 0.034534663 0.059187755 0.121338636 0.16873251 0.036224272
0.08875502 0.2018229 0.03072597 0.21452601 0.20947991 0.12619019 0.17886332 0.17731516
0.271906 0.06793114 0.45840257 0.07285072 0.26749155 0.17377953 0.09316473 0.22914165
0.13667949 0.24474019 0.053029787 0.17182817 0.072766714 0.095950946 0.12322991 0.25301135
0.16381733 0.072874665 0.1633987 0.0715964 0.058104254 0.12493967 0.13963898 0.04742078
0.043807447 0.07045249 0.3596947 0.1536091 0.22953008 0.5996794 0.11432675 0.105609685
0.22618577 0.17107253 0.52919585 0.060306374 0.057051044 0.11088128 0.6371396 0.14091718
0.13107535 0.0801978 0.08750723 0.80384594 0.36493424 0.09736586 0.13932732 0.30992827
0.32689857 0.13183407 0.09411951 0.07418475 0.047837455 0.072675906 0.28302655 0.1683319
0.19854964 0.07302417 0.14960793 0.22338627 0.081523165 0.09019301 0.037632667 0.041504353
0.11737857 0.090196155 0.08942605 0.09787444 0.1635271 0.30131233 0.062681764 0.08900858
0.21514332 0.06933113 0.24701832 0.32568032 0.16758105 0.22755755 0.26736584 0.17424138
0.1498397 0.14803672 0.17747298 0.055812906 0.5002392 0.067441925 0.051851552 0.1095177
0.15959014 0.23987567 0.40671346 0.12548763 0.09189163 0.09065148 0.30060142 0.17042787
00000000: 1a5d 833e d3b5 5a3e 973f 283c d4d3 ae3d
00000010: 2047 383e eeef 883d f4fc b03d b7e4 af3c
00000020: de61 823e 82f6 bc3d f87b 2b3e 6817 b73d
00000030: 7a94 823e 02df ba3d 481f 963c 2051 8b3e
00000040: 8dd5 bf3e bd64 6c3e 0adf 6f3e d6e2 333e
00000050: 90f9 b53d e847 5b3d e06e ae3c 6f06 fa3c
00000060: 24b4 123e 94eb 873e aa12 183e 951b 543e
00000070: 26b1 1e3e a999 673e 56e9 383d b4aa 8e3e
00000080: 049b 913d 2e52 143e 0efa fe3d 98b8 483d
00000090: 187f 213e 5e9f fd3d 22e5 6a3d 3125 b23d
000000a0: 38e9 b63e 0af7 f13e fbda 523f e81e cf3d
000000b0: d3a4 e73c 5ad4 263e 3db9 a93d 86b9 b73d
000000c0: 55a0 9f3d f66a 263e 868a 263d e9c3 1e3e
000000d0: 21e2 b33d 0539 ba3e 1910 d43e d09c be3d
000000e0: 1e0a c23d 7c89 963e 282d ef3d 1818 873d
000000f0: 0492 cd3d 28bf bd3d 52cd 1c3e f694 593e
00000100: c234 b73d e9e6 683e 0980 c23d 701c 223e
00000110: 9c61 c83d 6718 9f3d dc09 a43d bae0 2b3e
00000120: 8441 f13d 8ffb f23d d29d 7e3d 2c9a 3b3d
00000130: 6c33 283e 646a db3d c81e d73d 243f 203e
00000140: b5f1 a23d d80e 8c3e 8be1 853d 94cd 063f
00000150: 2954 b43d c566 243d bd71 813e 0bf0 df3d
00000160: ed60 c93e 4eea 803e ac53 923d 4537 7c3d
00000170: fc4e 783d cbbb f83d 17ce 053e a711 3b3d
00000180: 927f 4f3d b758 b83d 8f51 5f3e e505 bb3d
00000190: 2209 ed3e 97a4 8f3d b200 0c3e f134 c03d
000001a0: 5852 0e3e 1c2a 1f3e 65ef 7b3e a036 213e
000001b0: 876b 9c3e 2d8b e23e 8079 423d e860 de3d
000001c0: 2127 293e add9 0e3d bf0f e83d e258 133e
000001d0: f99f 9e3c 6ce0 da3e df8a 183f 4e40 003e
000001e0: d5bf 513e ea18 393d be98 9e3d 3201 b43d
000001f0: 7ed2 003f 978a 0d3e 259d 113e c1bd 9d3d
00000200: 6b81 fc3e 75f6 c23d a822 823d 8418 ec3d
00000210: 106e 983d 20b8 893e b5e1 503e 005f 183e
00000220: 284a 093f 8ea6 143d 1407 743c 0855 253e
00000230: 2953 5c3e 2264 1d3f 9ae1 c73e c4ad ad3d
00000240: 9b66 6d3e 3953 e13e 621d e23d 3874 0d3d
00000250: dc6e 723d 6480 f83d 37c8 2c3e e75f 143d
00000260: 31c5 b53d aaaa 4e3e 08b5 fb3c b5ac 5b3e
00000270: e781 563e 0038 013e f227 373e 1b92 353e
00000280: 4337 8b3e 7b1f 8b3d beb3 ea3e c232 953d
00000290: a7f4 883e 43f3 313e 26cd be3d 1ca4 6a3e
000002a0: b5f5 0b3e 2c9d 7a3e c335 593d b9f3 2f3e
000002b0: b706 953d ee81 c43d f75f fc3d b48a 813e
000002c0: bbbf 273e 503f 953d fd51 273e 22a1 923d
000002d0: bafe 6d3d 5fe0 ff3d 85fd 0e3e 4b3c 423d
000002e0: 706f 333d 6549 903d e729 b83e b44b 1d3e
000002f0: ef09 6b3e 9784 193f 2524 ea3d e449 d83d
00000300: 3e9d 673e a32d 2f3e 6179 073f d103 773d
00000310: 5bae 693d b915 e33d 951b 233f 984c 103e
00000320: 9e38 063e bf3e a43d fe36 b33d d9c8 4d3f
00000330: a9d8 ba3e c167 c73d d2ab 0e3e ebae 9e3e
00000340: 405f a73e 83ff 063e bbc1 c03d 2dee 973d
00000350: 35f1 433d 1bd7 943d dbe8 903e 335f 2c3e
00000360: 9950 4b3e b28d 953d d232 193e 5fbf 643e
00000370: 9ef5 a63d 1db7 b83d b624 1a3d 7800 2a3d
00000380: 2d64 f03d c3b8 b83d 0125 b73d 6572 c83d
00000390: a673 273e 9c45 9a3e 4c5f 803d 214a b63d
000003a0: 884e 5c3e 7bfd 8d3d 5ff2 7c3e 92bf a63e
000003b0: 5e9a 2b3e d904 693e 2de4 883e 556c 323e
000003c0: 946f 193e f096 173e 7abb 353e 139c 643d
000003d0: ad0f 003f fe1e 8a3d 4b62 543d d14a e03d
000003e0: 996b 233e f8a1 753e bf3c d03e d47f 003e
000003f0: ae31 bc3d 7ca7 b93d 6ee8 993e a584 2e3e

bn1.running_var f4 [300]
0.19679627 0.1589367 0.0085430425 0.048227258 0.17462684 0.04194808 0.050209396 0.010338599
0.21350457 0.05639847 0.076051995 0.09613106 0.11897727 0.076895475 0.0154598495 0.15404192
0.3007433 0.13232423 0.19400017 0.09171228 0.02399947 0.034422103 0.00696155 0.0076372083
0.07625954 0.28835413 0.06970848 0.20728888 0.05557467 0.2528997 0.026511772 0.17404115
0.03031384 0.07352039 0.13088109 0.02392922 0.059173122 0.07157367 0.02546455 0.054597266
0.22573541 0.45150834 0.26065904 0.07500174 0.030817928 0.07570491 0.13561213 0.061978955
0.07629438 0.11155572 0.03653435 0.093380675 0.048334308 0.24165384 0.16583115 0.055836353
0.05404223 0.20751537 0.06960825 0.04872443 0.051447738 0.0384187 0.16970035 0.14178461
0.08029579 0.19979338 0.06770501 0.16755018 0.04677097 0.050830763 0.033740405 0.1674011
0.039617293 0.096153036 0.02642177 0.027686514 0.13794136 0.08870371 0.04761166 0.12644018
0.032578092 0.15646824 0.02562267 0.21466969 0.04427055 0.02933542 0.16253242 0.0576558
0.3818855 0.17615575 0.07215015 0.034514233 0.046284 0.06932912 0.048034575 0.038906764
0.021259278 0.044741195 0.09224132 0.06290971 0.1589496 0.067489505 0.10662384 0.04936477
0.15181476 0.0655877 0.14391078 0.16172755 0.18507127 0.33065495 0.018036146 0.08839481
0.17244698 0.015216742 0.06778945 0.14636658 0.016074546 0.3261291 0.6297227 0.092483826
0.124544755 0.033356845 0.034435 0.04259442 0.5588459 0.1218668 0.064949006 0.033305395
0.3721801 0.0962923 0.045054283 0.046898454 0.040059827 0.090702794 0.20581852 0.09698299
0.49138203 0.031232985 0.0065438566 0.109189704 0.09279584 0.5430215 0.29428503 0.044917833
0.15074444 0.28013763 0.06992343 0.029908484 0.04028016 0.1905656 0.15428944 0.04779457
0.120277666 0.28664723 0.024774121 0.057277028 0.12790157 0.041919548 0.15834509 0.12737377
0.17381589 0.09986265 0.34729806 0.052052177 0.17147456 0.118199706 0.10241263 0.1794631
0.095428504 0.17247066 0.033567768 0.1489363 0.029951222 0.11084766 0.09716704 0.13864005
0.085090354 0.036212567 0.080360726 0.06149659 0.047465235 0.115012735 0.07461901 0.035052653
0.020201553 0.064075164 0.26445493 0.08788465 0.27380916 0.48149055 0.034511846 0.10758628
0.15377691 0.27567437 0.2180161 0.06918086 0.031358104 0.06295426 0.19864784 0.20093302
0.08914028 0.042348325 0.048738282 0.45159826 0.10614595 0.030258806 0.06623576 0.19027382
0.21184665 0.118657865 0.06972233 0.05504005 0.042626224 0.05186663 0.07273947 0.1162807
0.067215905 0.03279087 0.111480035 0.15244482 0.07740801 0.047920417 0.019405035 0.011548665
0.15258174 0.05309694 0.09200208 0.0766403 0.13288325 0.17287306 0.056977104 0.03442111
0.084322445 0.03361976 0.18559805 0.33591464 0.22474366 0.14604832 0.07687562 0.18351628
0.12927806 0.053352334 0.095299385 0.030574443 0.43494081 0.054732304 0.016027171 0.10208849
0.13574211 0.27842236 0.15716536 0.0552073 0.0641153 0.09903064 0.21869716 0.19568346
00000000: f684 493e 4dc0 223e 1ef8 0b3c f289 453d
00000010: 61d1 323e c0d1 2b3d 5ea8 4d3d 3a63 293c
00000020: f1a0 5a3e 1502 673d 26c1 9b3d 5ce0 c43d
00000030: 5baa f33d 607b 9d3d 4f4b 7d3c 2abd 1d3e
00000040: 07fb 993e 0180 073e fba7 463e a6d3 bb3d
00000050: 899a c43c 31fe 0c3d b71d e43b 8c41 fa3b
00000060: f62d 9c3d 27a3 933e 52c3 8e3d 8943 543e
00000070: 44a2 633d 127c 813e 372f d93c d837 323e
00000080: bb54 f83c dc91 963d b105 063e 3607 c43c
00000090: 845f 723d 3795 923d 089b d03c 62a1 5f3d
000000a0: 2f27 673e 1a2c e73e 1a75 853e 839a 993d
000000b0: e175 fc3c 2d0b 9b3d e8dd 0a3e a5dd 7d3d
000000c0: 3a40 9c3d 5377 e43d 0ba5 153d 5e3e bf3d
000000d0: 32fa 453d 1b74 773e a4cf 293e a9b4 643d
000000e0: 635b 5d3d e97e 543e c58e 8e3d 4593 473d
000000f0: ddba 523d ed5c 1d3d eec5 2d3e fc2f 113e
00000100: 1f72 a43d a396 4c3e eda8 8a3d 4692 2b3e
00000110: eb92 3f3d eb33 503d 6133 0a3d 326b 2b3e
00000120: be45 223d e2eb c43d 7872 d83c d4ce e23c
00000130: 8040 0d3e 4aaa b53d 7204 433d 8979 013e
00000140: 9b70 053d 3639 203e a2e6 d13c 5fd2 5b3e
00000150: 0955 353d d650 f03c e66e 263e 7d28 6c3d
00000160: 7f86 c33e 2c62 343e 75c3 933d cc5e 0d3d
00000170: 4b94 3d3d 6dfc 8d3d e7bf 443d b35c 1f3d
00000180: f027 ae3c 8b42 373d 04e9 bc3d ced6 803d
00000190: afc3 223e f037 8a3d 9a5d da3d b732 4a3d
000001a0: 5475 1b3e d852 863d 595d 133e e89b 253e
000001b0: 5383 3d3e 9b4b a93e 8ac0 933c 5708 b53d
000001c0: f195 303e a44f 793c 32d5 8a3d 1fe1 153e
000001d0: c4ae 833c 65fa a63e 8235 213f 2968 bd3d
000001e0: 5211 ff3d 30a1 083d b70b 0d3d 7d77 2e3d
000001f0: 8610 0f3f 4d95 f93d fc03 853d 3d6b 083d
00000200: 648e be3e e634 c53d d78a 383d 9818 403d
00000210: c615 243d 63c2 b93d 17c2 523e 059f c63d
00000220: 6d96 fb3e 51dc ff3c d96d d63b da9e df3d
00000230: bf0b be3d 7503 0b3f 87ac 963e c3fb 373d
00000240: c05c 1a3e 336e 8f3e 0434 8f3d a302 f53c
00000250: cffc 243d a123 433e 0dfe 1d3e 3dc4 433d
00000260: 2354 f63d 6dc3 923e 19f3 ca3c 519b 6a3d
00000270: a1f8 023e d5b3 2b3d 3725 223e 456e 023e
00000280: cbfc 313e ca84 cc3d 0dd1 b13e aa34 553d
00000290: 0797 2f3e b012 f23d b7bd d13d 2dc5 373e
000002a0: 0570 c33d 269c 303e 5b7e 093d c282 183e
000002b0: 445c f53c 1904 e33d 83ff c63d a8f7 0d3e
000002c0: da43 ae3d a153 143d 2a94 a43d d9e3 7b3d
000002d0: e86a 423d cc8b eb3d dad1 983d 5f93 0f3d
000002e0: ba7d a53c d739 833d a366 873e defc b33d
000002f0: b730 8c3e ee85 f63e 4b5c 0d3d 3256 dc3d
00000300: b277 1d3e 3125 8d3e 9d3f 5f3e b2ae 8d3d
00000310: 5b71 003d 2aee 803d 576a 4b3e 63c1 4d3e
00000320: 2e8f b63d 7075 2d3d cba1 473d e337 e73e
00000330: 0c63 d93d 51e1 f73c 9da6 873d 24d7 423e
00000340: 54ee 583e e502 f33d 95ca 8e3d ad71 613d
00000350: d698 2e3d 1a72 543d 6ef8 943d 9324 ee3d
00000360: 7ea8 893d b84f 063d a54f e43d 7f1a 1c3e
00000370: 1788 9e3d 3348 443d 4ff7 9e3c 9d36 3d3c
00000380: 633e 1c3e 2d7c 593d 966b bc3d 97f5 9c3d
00000390: 8c12 083e a305 313e d360 693d 26fd 0c3d
000003a0: 3fb1 ac3d e0b4 093d 6a0d 3e3e 01fd ab3e
000003b0: 3423 663e b18d 153e f770 9d3d b1eb 3b3e
000003c0: 7861 043e fa87 5a3d 532c c33d 4177 fa3c
000003d0: 90b0 de3e fb2e 603d 6a4b 833c c513 d13d
000003e0: fbff 0a3e 608d 8e3e f5ef 203e 0d21 623d
000003f0: e24e 833d 94d0 ca3d 26f2 5f3e 3f61 483e

fc2.weight f4 [400, 304]
-0.22828119 0.067170516 -0.036269635 -0.00340708 0.011074533 -0.007002669 -0.0728409 -0.096293435
-0.02477944 0.13321814 -0.040202036 0.065773584 0.029637348 0.019823976 -0.13718583 0.0077812956
0.45545316 -0.035571728 -0.26777494 -0.10074918 0.11999706 -0.009428438 0.040835656 0.11343265
-0.005048396 -0.05312803 0.13876124 0.018807614 0.017462377 -0.03470702 0.099008955 0.07896721
-0.035132363 0.028566485 -0.026532719 -0.014899378 0.14719866 -0.08362011 -0.15374371 -0.154544
-0.3318765 0.15451653 -0.39251822 0.020361817 0.03196682 -0.018105263 -0.0657436 0.026307357
-0.32911146 0.28103408 0.054950017 -0.09369129 0.054156862 -0.032924563 0.044839982 -0.045061134
0.093295 0.03555125 0.02781431 0.050853748 0.037862316 0.050736655 0.028954055 0.036058825
0.02294178 0.09729193 0.015313265 -0.04129945 0.03184023 0.023846203 0.05332706 0.26643708
0.06828961 0.012529948 0.1444958 0.024364753 0.027908275 0.0062116617 0.03269146 -0.01986862
0.022861473 0.15237002 0.011186529 -0.014238489 0.081981406 -0.1361484 0.028001714 0.0873674
0.096573174 0.013557745 0.037244048 0.014525149 -0.011875773 0.0026479177 -0.096799985 0.078973204
0.014277586 0.03442482 -0.020019418 0.119804434 -0.00520581 -0.19583058 -0.02849258 0.0035941312
0.077811964 0.024888806 0.046045084 -0.020818802 -0.023481809 -0.25612065 0.024394616 0.005572205
0.03339415 -0.10008533 0.047711007 -0.074911416 0.06189479 0.017361073 0.02766229 -0.019248605
-0.2983353 0.042648472 -0.025362823 0.15125436 -0.048108455 0.31860563 -0.040333614 0.083075546
-0.022609629 0.042127468 0.18467732 0.22674933 0.026314914 0.04304989 -0.01899431 0.06849183
-0.41010562 0.005553539 -0.034635384 0.026544994 -0.005854083 -0.098522276 -0.026217805 4.5022047e-05
-0.24742056 0.05366484 -0.020087577 -0.034720596 -0.049585454 0.022409791 -0.25325176 -0.06709248
0.0018353463 -0.01970442 0.043722603 -0.058329426 -0.05127255 -0.0025918141 -0.0017391085 0.022700088
0.40179095 -0.007654502 -0.19552119 0.0008372435 -0.0055800006 0.036576618 0.041151784 0.05488728
0.015453999 0.009382801 0.041585617 0.0045393943 -0.028581705 -0.0004013714 0.09071089 0.11503748
0.05438331 -0.011291383 0.017390674 0.005188519 -0.026724158 0.04155905 0.024406029 0.055274583
-0.057372212 -0.022794269 -0.011579961 0.020876981 -0.054042123 0.15923953 0.0531355 0.024612242
0.22094779 0.12863538 0.011675107 -0.011814094 -0.051004168 0.0497091 0.040066015 0.05385743
-0.06922099 0.058721792 -0.02132337 0.0358033 0.010268355 0.014269091 0.020495852 0.09925848
-0.15839542 0.003677856 -0.05342752 -0.010336341 -0.03795773 -0.004011326 -0.002481437 0.031600997
0.08387715 -0.033326663 -0.0041564316 0.015325258 -0.020466749 -0.00038612777 -0.20258157 0.048390366
-0.01981573 0.37893486 -0.005965581 -0.4124721 0.031495847 -0.048153833 0.09454237 -0.047930066
-0.027710667 0.00035594034 -0.037743505 -0.040260527 -0.048824865 -0.04865233 -0.046052646 0.029436998
0.033834 0.1143424 0.06840034 0.024943145 0.33814615 0.005454487 0.0576142 -0.04238363
-0.28876084 0.38130727 -0.04666252 -0.040443894 -0.0060306084 0.06275899 0.03146186 -0.07515499
00000000: 8bc2 69be b290 893d 788f 14bd 5149 5fbb
00000010: f571 353c a576 e5bb 9c2d 95bd 7e35 c5bd
00000020: 41fe cabc 566a 083e e4aa 24bd 4db4 863d
00000030: 06ca f23c e465 a23c 717a 0cbe 3dfa fe3b
00000040: 2831 e93e a9b3 11bd cc19 89be 9655 cebd
00000050: 05c1 f53d bc79 1abc 4a43 273d 614f e83d
00000060: 046d a5bb c79c 59bd 6d17 0e3e 6d12 9a3c
00000070: 420d 8f3c f328 0ebd 35c5 ca3d 90b9 a13d
00000080: f4e6 0fbd 4304 ea3c 255b d9bc 851c 74bc
00000090: 3fbb 163e 0541 abbd fe6e 1dbe c840 1ebe
000000a0: b7eb a9be 9539 1e3e 26f8 c8be d3cd a63c
000000b0: a4ef 023d 7d51 94bc 95a4 86bd 8782 d73c
000000c0: 4c81 a8be b3e3 8f3e 4513 613d 38e1 bfbd
000000d0: 96d3 5d3d e8db 06bd 21aa 373d 0692 38bd
000000e0: 7311 bf3d 309e 113d d6da e33c 054c 503d
000000f0: 8415 1b3d 3dd1 4f3d 0e31 ed3c 6bb2 133d
00000100: 66f0 bb3c fe40 c73d 7de4 7a3c 9d29 29bd
00000110: e76a 023d 1d59 c33c 7a6d 5a3d 716a 883e
00000120: 6cdb 8b3d 694a 4d3c b5f6 133e 9798 c73c
00000130: e59f e43c 328b cb3b 7be7 053d 84c3 a2bc
00000140: fc47 bb3c e306 1c3e b447 373c 8d48 69bc
00000150: dee5 a73d 7c6a 0bbe da63 e53c aeed b23d
00000160: 28c8 c53d 4e21 5e3c 378d 183d e4fa 6d3c
00000170: 9a92 42bc b088 2d3b 123f c6bd b4bc a13d
00000180: 89ec 693c 0a01 0d3d c3ff a3bc 075c f53d
00000190: 8095 aabb d087 48be 4569 e9bc 848b 6b3b
000001a0: e15b 9f3d 9ce3 cb3c c599 3c3d 318c aabc
000001b0: ec5c c0bc 3f22 83be 38d7 c73c 0b97 b63b
000001c0: 4ec8 083d 8af9 ccbd 9e6c 433d 286b 99bd
000001d0: 6485 7d3d cf38 8e3c 079c e23c 40af 9dbc
000001e0: 68bf 98be 2ab0 2e3d b2c5 cfbc 6ce2 1a3e
000001f0: 5f0d 45bd 4720 a33e dc34 25bd 8323 aa3d
00000200: d437 b9bc da8d 2c3d 0d1c 3d3e fa30 683e
00000210: 6092 d73c 1555 303d f599 9bbc 7245 8c3d
00000220: 5df9 d1be 76fa b53b d5dd 0dbd e374 d93c
00000230: 9cd3 bfbb 0cc6 c9bd b9c6 d6bc 0ed6 3c38
00000240: d15b 7dbe aacf 5b3d b48e a4bc 2f37 0ebd
00000250: 1e1a 4bbd bd94 b73c 37aa 81be c867 89bd
00000260: 0190 f03a 2a6b a1bc 7916 333d d6ea 6ebd
00000270: 2a03 52bd 6ddb 29bb ccf2 e3ba 89f5 b93c
00000280: 8bb7 cd3e 9ed2 fabb b536 48be 767a 5b3a
00000290: 70d8 b6bb 5dd1 153d c68e 283d 7cd1 603d
000002a0: c532 7d3c 52ba 193c ae55 2a3d 33bf 943b
000002b0: 2e24 eabc 286f d2b9 a2c6 b93d c598 eb3d
000002c0: 09c1 5e3d 7eff 38bc e376 8e3c 7404 aa3b
000002d0: 9fec dabc d339 2a3d 27ef c73c 9a67 623d
000002e0: 20ff 6abd 0cbb babc e0b9 3dbc 3406 ab3c
000002f0: 465b 5dbd b00f 233e 9ca4 593d 9d9f c93c
00000300: 2340 623e feb8 033e f348 3f3c e78f 41bc
00000310: bfe9 50bd c59b 4b3d 431c 243d 9c99 5c3d
00000320: bcc3 8dbd 4386 703d 59ae aebc 7ba6 123d
00000330: 9a3c 283c e8c8 693c ebe6 a73c 0848 cb3d
00000340: 6932 22be 2f08 713b d1d6 5abd c259 29bc
00000350: 9179 1bbd 7171 83bb 9b9f 22bb 0c70 013d
00000360: c9c7 ab3d 8a81 08bd ad32 88bb ca16 7b3c
00000370: e2a9 a7bc 3171 cab9 8b71 4fbe fa34 463d
00000380: 9954 a2bc c003 c23e ec7a c3bb 8b2f d3be
00000390: ca01 013d f43c 45bd 6e9f c13d 5152 44bd
000003a0: 7b01 e3bc 819d ba39 ef98 1abd 39e8 24bd
000003b0: 95fc 47bd aa47 47bd b3a1 3cbd dc25 f13c
000003c0: 8595 0a3d 592c ea3d 7a15 8c3d 9155 cc3c
000003d0: 7e21 ad3e 8ebb b23b defc 6b3d 759a 2dbd
000003e0: 76d8 93be b53a c33e 3321 3fbd 7fa8 25bd
000003f0: 699c c5bb c987 803d 27de 003d dcea 99bd

fc2.bias f4 [400]
-0.3931909 0.028612424 -0.071647935 -0.03150197 -0.0077057797 -0.067033 -0.124464415 -0.072742224
-0.0505099 -0.22529198 0.055554267 0.014872542 -0.062459823 -0.06715534 0.0002748024 -0.11764756
-0.14255634 -0.029323211 0.021446854 -0.028358892 0.04575648 -0.031310227 -0.04408779 -0.07439755
0.043128494 -0.029809762 -0.092426665 -0.06494689 -0.15465543 0.028154181 -0.12299822 0.01931728
0.05469618 -0.12619469 0.0530431 -0.0077697947 -0.04577677 0.0534438 -0.0029396364 -0.11871677
-0.059460204 -0.18826297 -0.007476638 -0.074375406 -0.005095567 -0.12775405 -0.17084126 -0.10459554
-0.045423307 -0.047613353 -0.020503486 0.05052782 -0.17229524 -0.01378863 0.07530696 -0.053140715
-0.028304273 0.013488517 -0.019947141 0.018931111 0.045971923 0.016657807 -0.110822 -0.049299132
-0.16605651 0.0055845347 0.099759914 -0.05394376 0.011294132 -0.34834674 0.045516316 -0.059246868
-0.14910085 0.0155073665 -0.08404294 -0.12341625 -0.43767792 0.005623892 0.03811457 -0.03298263
-0.12490196 -0.097737804 -0.019666823 -0.037824 -0.15333793 -0.019908478 0.009926374 -0.04766884
0.021840356 -0.11732474 0.028923802 -0.014272079 -0.11753536 -0.06983761 -0.06052146 -0.011652788
-0.12797388 -0.11014612 0.023877285 0.0319302 0.043034147 0.03102374 0.044265103 -0.15128063
0.027432313 -0.15007348 -0.049578443 -0.15228161 -0.15510932 -0.17435087 -0.20766272 -0.07276783
-0.12976135 -0.08146103 0.01776315 -0.076971024 0.055353813 -0.13424054 -0.062673025 -0.07902995
-0.17291346 -0.050116017 0.02542854 0.043363433 0.01300519 0.0100992955 -0.19154945 -0.39626756
-0.09369023 -0.15061986 -0.09512008 -0.15297148 -0.105202675 0.042080343 -0.028265912 0.016668653
-0.020595545 0.015196692 -0.010558144 -0.0061058006 -0.05570567 -0.0863972 -0.021281537 -0.13836426
0.011754898 0.021211829 -0.13262127 -0.059938867 0.0036802401 -0.12226149 -0.1227748 -0.05231417
-0.0076406877 -0.03747145 -0.31056538 -0.018653411 -0.010347723 0.029663006 -0.061088108 -0.10131794
-0.025960766 0.009719289 0.00812285 0.06646863 0.017533299 -0.0064714234 0.017889766 0.057060037
-0.19108757 0.052753393 -0.031751618 -0.24175861 -0.027274752 -0.10184081 -0.03020059 -0.045219157
-0.0010960364 -0.19532388 -0.04338228 0.006843956 -0.02428129 -0.18218693 -0.06317507 -0.017699571
0.054458514 0.024568593 -0.019808413 -0.13987699 -0.18187062 -0.19271192 0.02466212 -0.11587349
-0.10491694 -0.060745455 -0.11807764 -0.050617844 -0.13309352 -0.42831737 -0.01030143 -0.12405375
-0.08923437 -0.010381033 -0.21316522 0.025097078 -0.08350906 -0.047195278 -0.15766463 0.019559275
0.0608496 0.014378007 -0.21947159 -0.09032727 0.03797562 -0.119188935 0.0033043383 -0.05317414
-0.033550557 -0.06411822 -0.046339367 -0.23980902 -0.070963 -0.07750145 -0.014411989 -0.15091108
-0.11894556 0.036089886 -0.16650206 -0.16241919 -0.10137914 -0.1476304 -0.10479032 0.010123218
0.021361561 0.055764414 0.062651694 -0.10073422 0.055231076 0.008145298 -0.064980514 -0.09096022
0.021581903 0.022821184 -0.004331331 0.019819539 -0.4112921 -0.1343754 -0.25690895 -0.12641943
0.022675816 -0.10532729 -0.010997371 0.054742057 -0.07320979 -0.12853926 -0.17465381 -0.16427758
00000000: 5150 c9be 9a64 ea3c 27bc 92bd 3608 01bd
00000010: c480 fcbb 9948 89bd 33e7 febd e0f9 94bd
00000020: 78e3 4ebd f1b2 66be df8c 633d f6ab 733c
00000030: dfd5 7fbd bd88 89bd 5b13 9039 34f1 f0bd
00000040: 4afa 11be 3b37 f0bc 50b1 af3c e850 e8bc
00000050: 266b 3b3d 273f 00bd 6695 34bd be5d 98bd
00000060: 81a7 303d 9a33 f4bc 314a bdbd e002 85bd
00000070: fe5d 1ebe 99a3 e63c 7ee6 fbbd 463f 9e3c
00000080: 1a09 603d 2e39 01be b943 593d c399 febb
00000090: 6c80 3bbd e3e7 5a3d eaa6 40bb c721 f3bd
000000a0: 8b8c 73bd 02c8 40be 96fe f4bb 2252 98bd
000000b0: b7f8 a6bb f5d1 02be 03f1 2ebe 3036 d6bd
000000c0: ca0d 3abd 3806 43bd edf6 a7bc 42f6 4e3d
000000d0: 2a6e 30be b5e9 61bc 893a 9a3d 14aa 59bd
000000e0: 5dde e7bc f1fe 5c3c 3068 a3bc 6b15 9b3c
000000f0: 0e4d 3c3d f475 883c a5f6 e2bd e3ed 49bd
00000100: b80a 2abe 79fe b63b ed4e cc3d 22f4 5cbd
00000110: 060b 393c 815a b2be 516f 3a3d d8ac 72bd
00000120: e5ad 18be 9c12 7e3c b41e acbd a9c1 fcbd
00000130: 5217 e0be a048 b83b 061e 1c3d cb18 07bd
00000140: 99cc ffbd c22a c8bd 511c a1bc 57ed 1abd
00000150: 9e04 1dbe 1b17 a3bc 3ba2 223c 6740 43bd
00000160: 8cea b23c f447 f0bd 9cf1 ec3c 70d5 69bc
00000170: 61b6 f0bd 0507 8fbd 5ae5 77bd 56eb 3ebc
00000180: 960b 03be 4a94 e1bd 4c9a c33c 3ec9 023d
00000190: 9344 303d 8025 fe3c 534f 353d 4fe9 1abe
000001a0: bbb9 e03c ddac 19be c412 4bbd b6ef 1bbe
000001b0: fad4 1ebe 0989 32be 89a5 54be 4d07 95bd
000001c0: 29e0 04be 0ad5 a6bd 0784 913c fca2 9dbd
000001d0: aeba 623d 5a76 09be b75a 80bd 74da a1bd
000001e0: 3a10 31be 7446 4dbd 834f d03c db9d 313d
000001f0: b813 553c 8477 253c 8a25 44be 95e3 cabe
00000200: aae0 bfbd 183c 1abe 51ce c2bd 8ea4 1cbe
00000210: 8074 d7bd 705c 2c3d ea8d e7bc b38c 883c
00000220: fdb7 a8bc 8cfb 783c 11fc 2cbc 2b13 c8bb
00000230: a12b 64bd 04f1 b0bd 9e56 aebc 5caf 0dbe
00000240: 9e97 403c 6ec4 ad3c dfcd 07be 7582 75bd
00000250: 2f30 713b 3b64 fabd 5b71 fbbd 6247 56bd
00000260: bc5e fabb aa7b 19bd 6d02 9fbe 0acf 98bc
00000270: 7f89 29bc d5ff f23c 8637 7abd c87f cfbd
00000280: acab d4bc a73d 1f3c b415 053c b520 883d
00000290: fea1 8f3c 3c0e d4bb 8f8d 923c c9b7 693d
000002a0: 76ac 43be f113 583d fc0d 02bd 928f 77be
000002b0: 4d6f dfbc ea91 d0bd 3a67 f7bc b937 39bd
000002c0: e1a8 8fba fc02 48be 9eb1 31bd 4443 e03b
000002d0: 8ee9 c6bc 368f 3abe ee61 81bd b1fe 90bc
000002e0: e40f 5f3d 1344 c93c 4145 a2bc ea3b 0fbe
000002f0: 4b3c 3abe 4656 45be 3708 ca3c 154f edbd
00000300: b1de d6bd 3ad0 78bd b1d2 f1bd a854 4fbd
00000310: ab49 08be 6a4c dbbe 54c7 28bc e40f febd
00000320: 82c0 b6bd 3515 2abc fc47 5abe 6398 cd3c
00000330: cc06 abbd d64f 41bd d672 21be c63a a03c
00000340: 6e3d 793d bb91 6b3c 29bd 60be 81fd b8bd
00000350: 538c 1b3d 5419 f4bd 998d 583b 21cd 59bd
00000360: 4f6c 09bd 6a50 83bd 59ce 3dbd 7f90 75be
00000370: 0d55 91bd 15b9 9ebd 4320 6cbc 6f88 1abe
00000380: bb99 f3bd fdd2 133d 847f 2abe 3751 26be
00000390: de9f cfbd 6c2c 17be 4f9c d6bd dbdb 253c
000003a0: 71fe ae3c 3a69 643d 884f 803d be4d cebd
000003b0: fb39 623d db73 053c 8114 85bd 5a49 babd
000003c0: 88cc b03c 7ef3 ba3c d6ed 8dbb 965c a23c
000003d0: e194 d2be b499 09be 9289 83be 1874 01be
000003e0: a2c2 b93c d6b5 d7bd 512e 34bc 3539 603d
000003f0: 04ef 95bd cc9f 03be 73d8 32be 6238 28be
