experiments/exp3/models/checkpoint_actor_1.pth (torch_old, 529855 bytes, 6 tensors)

fc1.weight f4 [300, 33]
-0.28502005 -0.3354216 -0.19203378 0.90208364 -0.41298923 -0.36061853 1.1931221 0.058104932
-0.2594489 -0.05696126 -0.09234714 -0.085917234 0.21487916 0.46093154 0.7645856 0.021371584
-0.35826352 -0.63838905 0.39742196 0.346418 -0.008460743 -0.16747636 0.0550626 0.13708557
0.26146644 -0.08490499 -0.48211485 -0.14735846 -0.25086632 0.0534442 0.07787992 0.015976928
0.7097111 -0.1759034 -0.058436777 -0.01533247 0.19754088 0.06280581 2.0585976 -0.27263486
0.22015166 0.4024264 -0.16850562 0.17386994 0.43725365 -0.08781262 0.3634423 0.5186669
-0.04373383 0.040489443 -0.23172162 0.21461983 -0.37995464 0.12379773 0.0944723 -0.07227706
-0.12230995 0.33922848 -0.14970067 -0.53247625 -0.101732604 -0.002448864 0.0486738 0.14048235
-0.043191507 1.375737 0.37996456 0.7477533 0.044635717 0.27229017 -0.7867965 -0.9270426
-0.43409774 0.43589887 0.5371708 0.41088676 0.07364798 -0.0005825755 -0.42532888 -0.18404742
0.4222978 -0.047586598 0.41716367 -0.7346616 -1.2795287 0.32193506 0.15528569 0.33701494
0.052690286 -0.15190005 -0.16269636 0.08020077 -0.039521165 0.7155542 -0.14470834 -0.015476119
-0.74686533 -0.049675785 0.71457183 -0.02054714 0.56026113 0.09200986 -1.2567819 -0.45877188
-0.1368015 0.06946412 0.08935966 0.65581405 0.83752555 0.16375661 0.5249806 0.076394334
0.014695985 0.068399064 0.013189962 -0.43498185 -0.21402359 1.0993443 -0.3185226 -0.051900305
-0.26912805 -0.14278913 0.20726855 -0.3190976 0.38416404 0.24488957 0.819349 -0.28423822
0.022564396 -0.77295774 0.05591999 -1.0382098 -0.3355169 0.74427825 -0.05310205 -1.3876995
1.2148278 -0.55121696 0.13626045 0.0106605785 -0.38888383 0.33527327 0.22741218 -0.09420744
-0.07264316 -0.20965633 0.21962538 -0.30015028 -0.45919585 -0.49480104 0.49874225 0.11150136
0.11537688 -0.047942698 0.14046383 -0.0012026282 -0.21378382 0.047774002 -0.35809287 0.95154643
-0.046437502 -0.0062491074 -0.89496624 0.032436647 1.0626528 -0.008672266 -0.035873957 -0.024243653
-0.45374823 -0.13247658 -0.45581654 0.019069543 0.19554622 0.031206813 -0.072868235 -0.09240955
0.03930542 0.36940747 0.51774424 0.16986534 -0.22154035 1.4099082 -0.08417479 -0.37805066
-0.7937753 0.0663324 -0.093079 0.23935604 0.6293495 -0.11604042 -0.080460474 -0.26883328
0.62043935 0.045468695 -0.055694032 -0.68196934 -0.03615561 -0.75307125 -0.6034794 0.17302781
0.39050457 -0.10948628 -0.22809081 0.8359263 0.9053036 -0.104589306 -0.8170342 0.14475794
0.02861834 -0.41394165 0.02932107 0.37069607 -0.19355495 -0.5295521 -0.71571344 0.49759668
0.53072774 0.74050176 0.6118125 0.0892651 0.1905515 0.282134 0.05436697 -0.56920624
-0.20366184 0.797785 0.096201785 0.056529857 -0.7944707 0.032700986 1.3510658 -0.43383077
0.5247129 -0.45485088 0.23475915 -0.22189645 -0.3169752 0.34243643 0.22596653 0.6193776
-0.59684086 -0.03423603 -0.02511124 0.062077697 -0.3430276 0.12617601 -0.62231725 0.10569934
0.6245118 -0.776899 0.47030678 -0.43085998 -0.5847081 0.12382354 -0.282521 0.21349196
00000000: 26ee 91be 61bc abbe 81a4 44be f4ee 663f
00000010: 5373 d3be fea2 b8be 3ab8 983f 70ff 6d3d
00000020: 7cd6 84be 3650 69bd 7f20 bdbd 60f5 afbd
00000030: 4809 5c3e 38ff eb3e e2bb 433f 7613 af3c
00000040: 516e b7be 776d 23bf e47a cb3e b35d b13e
00000050: ee9e 0abc ec7e 2bbe 5289 613d 2960 0c3e
00000060: eede 853e abe2 adbd c2d7 f6be 23e5 16be
00000070: 8d71 80be 4ee8 5a3d 827f 9f3d 0ce2 823c
00000080: a0af 353f 0520 34be 675b 6fbd 0a35 7bbc
00000090: 2848 4a3e 55a0 803d 10c0 0340 cc96 8bbe
000000a0: 706f 613e d50a ce3e bd8c 2cbe f60a 323e
000000b0: b6df df3e 1ad7 b3bd 1c15 ba3e 5bc7 043f
000000c0: 3f22 33bd 42d8 253d 6f48 6dbe 4dc5 5b3e
000000d0: 6a89 c2be aa89 fd3d b17a c13d ff05 94bd
000000e0: a47d fabd 5baf ad3e 224b 19be 5d50 08bf
000000f0: 2f59 d0bd 1f7d 20bb 2e5e 473d 9bda 0f3e
00000100: 94e9 30bd 2618 b03f b78a c23e c36c 3f3f
00000110: f1d3 363d 9e69 8b3e 7f6b 49bf aa52 6dbf
00000120: 0f42 debe 232e df3e 0784 093f c05f d23e
00000130: c1d4 963d fbb7 18ba b5c4 d9be ed76 3cbe
00000140: 6b37 d83e 2aea 42bd 7a96 d53e c812 3cbf
00000150: 99c7 a3bf acd4 a43e 3603 1f3e 398d ac3e
00000160: c5d1 573d b08b 1bbe e099 26be 4d40 a43d
00000170: f2e0 21bd 8f2e 373f 6c2e 14be 8c8f 7dbc
00000180: 9132 3fbf d678 4bbd 2eee 363f 7a52 a8bc
00000190: 466d 0f3f aa6f bc3d 3bde a0bf 26e4 eabe
000001a0: b115 0cbe 3443 8e3d 3302 b73d 6ee3 273f
000001b0: 1368 563f d0af 273e 2165 063f a274 9c3d
000001c0: 6ec7 703c cf14 8c3d b61a 583c f1b5 debe
000001d0: 0029 5bbe 50b7 8c3f 6515 a3be 6a95 54bd
000001e0: 27cb 89be 5037 12be 353e 543e c360 a3be
000001f0: 26b1 c43e 55c4 7a3e dbc0 513f ac87 91be
00000200: f8d8 b83c 8fe0 45bf 5c0c 653d 0fe4 84bf
00000210: dfc8 abbe 0589 3e3f 8981 59bd 23a0 b1bf
00000220: 7a7f 9b3f 8e1c 0dbf dc87 0b3e b5a9 2e3c
00000230: c81b c7be f0a8 ab3e bdde 683e d5ef c0bd
00000240: f0c5 94bd 26b0 56be 7ae5 603e 4cad 99be
00000250: b81b ebbe 9056 fdbe 255b ff3e d35a e43d
00000260: b74a ec3d 905f 44bd c0d5 0f3e 82a1 9dba
00000270: 25ea 5abe acae 433d f357 b7be 8c98 733f
00000280: 4035 3ebd 50c5 ccbb 821c 65bf 4adc 043d
00000290: 0205 883f 1f16 0ebc 92f0 12bd a09a c6bc
000002a0: b051 e8be f1a7 07be c960 e9be bb37 9c3c
000002b0: 453d 483e 6ea5 ff3c f13b 95bd 3841 bdbd
000002c0: b8fe 203d fa22 bd3e e38a 043f 2ef1 2d3e
000002d0: 79db 62be df77 b43f d563 acbd db8f c1be
000002e0: dc34 4bbf 48d9 873d 34a0 bebd c019 753e
000002f0: 0d1d 213f 9aa6 edbd 76c8 a4bd 84a4 89be
00000300: 1dd5 1e3f 623d 3a3d 6d1f 64bd 8b95 2ebf
00000310: e817 14bd 47c9 40bf a07d 1abf 342e 313e
00000320: 37f0 c73e 583a e0bd a390 69be 44ff 553f
00000330: fac1 673f eb32 d6bd 2729 51bf 6d3b 143e
00000340: 0271 ea3c 29f0 d3be be32 f03c e0cb bd3e
00000350: 4533 46be ba90 07bf ff38 37bf fec4 fe3e
00000360: c6dd 073f 8691 3d3f be9f 1c3f 9fd0 b63d
00000370: ef1f 433e de73 903e e6af 5e3d 80b7 11bf
00000380: bb8c 50be a33b 4c3f 7105 c53d da8b 673d
00000390: 6f62 4bbf 78f1 053d b9ef ac3f 111f debe
000003a0: 9653 063f 37e2 e8be b464 703e d338 63be
000003b0: 934a a2be d453 af3e c563 673e 888f 1e3f
000003c0: 90ca 18bf 143b 0cbd 16b6 cdbc 2f45 7e3d
000003d0: 50a1 afbe 4934 013e 2f50 1fbf e578 d83d
000003e0: 01e0 1f3f dae2 46bf 0dcc f03e ae99 dcbe
000003f0: 6eaf 15bf 3297 fd3d 98a6 90be a39d 5a3e

fc1.bias f4 [300]
0.24145864 0.27915183 -0.64370984 -0.89879805 -0.8152211 -0.7253757 -0.80353576 -1.119036
-0.3728372 -0.093650416 -0.674782 -0.72844195 -0.79850054 -0.798975 -0.8070846 -0.5809123
0.36284027 -0.5295934 -0.15553154 -0.4407495 -0.47539797 -0.7135494 -0.702414 -0.7933204
-0.73126656 -0.31823802 -0.85055786 0.040518098 -0.54628634 -0.8039331 -0.5068829 -0.69266486
-0.08662968 -0.5733892 -0.78516704 -0.68285716 -0.9080893 -0.6131809 -0.60081017 -0.61295205
-0.63105106 -0.22865877 -0.3630354 -0.9663698 -0.5687573 -0.76668775 -0.29295048 -0.7588227
-0.6838135 -0.3212986 -0.30136955 -0.4993403 0.039566502 -0.49693665 -0.8410577 -0.9804154
-0.45378354 -0.40279692 -0.9486566 -0.052079707 -0.07458917 -0.34970188 -0.6252185 -0.91939443
-0.7172488 -0.7857719 -0.3916548 -1.0118375 -0.17377526 -0.7548692 -1.0141597 -0.11865813
0.042780228 -0.86663306 -0.70945764 -0.3678821 -0.67071927 -0.43022442 -0.6160951 0.18899575
-0.68786573 -0.8879996 -0.5008529 -1.1772047 0.2889048 0.42654884 -0.8866604 -0.39121327
0.07221639 -0.38467106 -0.5695659 -0.36099878 -1.2614928 -0.86944324 -0.23196413 -0.38018122
-0.4608984 -0.49751946 -0.7619026 -0.34517267 -0.6106876 -0.9231631 -0.4594794 -0.3983693
-0.62518865 -1.0875502 0.3880982 -0.43972594 -0.796251 -0.7246158 -0.8321004 -0.647586
-0.85176075 -0.60915005 -0.4845668 -0.7812278 -0.50968534 0.15761831 -0.7237735 -0.6625707
-0.11773691 -0.32045308 -0.7093435 -0.6381355 -0.72520447 -1.0440198 -0.2917698 -0.5518558
-0.72340894 -0.49381432 -0.19886965 -0.9989048 -0.7510753 -0.3557751 -0.46210566 -0.904839
-0.5463096 -0.57116497 -0.60459036 -0.3184423 0.09982056 -0.572098 -0.6798945 -0.598092
-0.63486046 -0.21025178 -0.79060876 -0.35309723 -0.3044034 -0.3428777 -0.8070058 0.1974143
-0.0025054603 -0.9505867 -0.6129637 -0.94520634 -1.0938995 -0.84848994 0.10289983 -0.6587835
-0.6010674 -0.8181302 -0.2776166 -0.56219184 -0.33719772 -0.5193562 -0.7584966 -0.7943826
-0.14153546 -0.8160142 -0.29172558 -0.42614883 -0.9366576 -0.72622836 -0.79162264 -0.9664199
-0.6931699 -0.92641795 0.06359773 -0.71656716 0.19997944 -0.4548644 -0.75757545 -0.5802116
-0.14705291 -0.34773287 -0.4834628 -0.71100956 -0.69298834 -0.1709098 0.27892306 -0.6829358
-0.8286358 0.05630258 -0.22318222 -0.6545691 -0.40822038 -0.2694161 -0.9714056 -0.5688207
-1.1223935 -0.86955047 -0.37271556 -0.33336532 -0.49119955 -0.1589309 -0.6836858 -0.38564995
-0.605297 0.013069186 -0.72257906 -0.32647184 -0.025858926 -0.32011256 -0.4298585 -0.761167
-0.068375066 -0.31314296 -0.58962107 -0.4034824 -0.79310656 -0.2185723 -0.831495 -0.72218597
-1.0785533 -0.35060218 -0.26942405 -0.3198282 -0.98994327 0.17643672 -0.6511662 -0.39167503
-0.614455 -0.91434425 -0.8071014 -0.67408615 -0.67726 0.108275056 -0.8663269 -0.4046052
-0.902777 -0.87243074 -0.3518207 -0.75132716 -0.69678044 -0.76229095 -0.42864838 -0.41400692
-0.2706831 -0.5119671 -0.28516644 -0.19144592 -0.73443925 -0.4954049 -0.5130202 -0.5291412
00000000: ef40 773e fdec 8e3e 2bca 24bf a117 66bf
00000010: 54b2 50bf 39b2 39bf 85b4 4dbf 923c 8fbf
00000020: 84e4 bebe cacb bfbd 83be 2cbf 2c7b 3abf
00000030: 886a 4cbf a089 4cbf 199d 4ebf abb6 14bf
00000040: 33c6 b93e 6f93 07bf a943 1fbe eba9 e1be
00000050: 5d67 f3be 2cab 36bf 67d1 33bf 0c17 4bbf
00000060: 4934 3bbf 18f0 a2be 29be 59bf 4ef6 253d
00000070: 6cd9 0bbf 8fce 4dbf 14c3 01bf 7c52 31bf
00000080: e76a b1bd a2c9 12bf b500 49bf bacf 2ebf
00000090: 8a78 68bf 6cf9 1cbf b2ce 19bf 6dea 1cbf
000000a0: 908c 21bf 8625 6abe c7df b9be 0364 77bf
000000b0: 149a 11bf a645 44bf 9bfd 95be 3442 42bf
000000c0: 670e 2fbf 4081 a4be 1c4d 9abe 88a9 ffbe
000000d0: 7c10 223d 7b6e febe 8f4f 57bf 81fc 7abf
000000e0: 5156 e8be 663b cebe 29db 72bf 8851 55bd
000000f0: 35c2 98bd 200c b3be 520e 20bf 6f5d 6bbf
00000100: 9e9d 37bf 5928 49bf fa86 c8be e483 81bf
00000110: 24f2 31be 1c3f 41bf fccf 81bf 0903 f3bd
00000120: 523a 2f3d aadb 5dbf 049f 35bf 0b5b bcbe
00000130: 42b4 2bbf 6046 dcbe 69b8 1dbf 1a88 413e
00000140: f817 30bf f153 63bf e537 00bf a5ae 96bf
00000150: 54eb 933e 9c64 da3e 2dfc 62bf 1b4d c8be
00000160: 30e6 933d 9bf3 c4be 12cf 11bf d5d4 b8be
00000170: 9978 a1bf d593 5ebf 0188 6dbe 1da7 c2be
00000180: e0fa ebbe dfba febe 0c0c 43bf 79ba b0be
00000190: 0656 1cbf 6b54 6cbf e240 ebbe 10f7 cbbe
000001a0: 5d0c 20bf d834 8bbf cfb4 c63e c223 e1be
000001b0: 1bd7 4bbf 6c80 39bf 8804 55bf 32c8 25bf
000001c0: fe0c 5abf 42f1 1bbf 2419 f8be 8cfe 47bf
000001d0: bd7a 02bf b266 213e 3849 39bf 3c9e 29bf
000001e0: 0d20 f1bd 6d12 a4be 8997 35bf d95c 23bf
000001f0: 00a7 39bf 71a2 85bf da62 95be 6c46 0dbf
00000200: 5431 39bf 3bd5 fcbe 7ca4 4bbe 3ab8 7fbf
00000210: 7946 40bf 2728 b6be 1d99 ecbe 87a3 67bf
00000220: f2da 0bbf de37 12bf 6fc6 1abf df0a a3be
00000230: b96e cc3d 0475 12bf 910d 2ebf 8f1c 19bf
00000240: 3786 22bf 3e4c 57be 5665 4abf 29c9 b4be
00000250: c3da 9bbe aa8d afbe ef97 4ebf f926 4a3e
00000260: a632 24bb a659 73bf 30eb 1cbf 0bf9 71bf
00000270: e604 8cbf a336 59bf 25bd d23d 09a6 28bf
00000280: 8edf 19bf fb70 51bf c323 8ebe ceeb 0fbf
00000290: 2ea5 acbe 87f4 04bf d52c 42bf a85c 4bbf
000002a0: acee 10be 4ee6 50bf 0e5d 95be 2e30 dabe
000002b0: cbc8 6fbf 1aea 39bf c8a7 4abf 4b67 77bf
000002c0: 9573 31bf ba29 6dbf 873f 823d f270 37bf
000002d0: 69c7 4c3e fde3 e8be 77f0 41bf bf88 14bf
000002e0: 0a95 16be 0b0a b2be 7088 f7be b904 36bf
000002f0: af67 31bf fb02 2fbe 01cf 8e3e e1d4 2ebf
00000300: 7a21 54bf 899d 663d e189 64be d791 27bf
00000310: 4302 d1be e8f0 89be 0aae 78bf 3c9e 11bf
00000320: 97aa 8fbf dc9a 5ebf 93d4 bebe dcae aabe
00000330: 827e fbbe c8be 22be 0806 2fbf e973 c5be
00000340: bff4 1abf 2420 563c f1fa 38bf 5127 a7be
00000350: 19d6 d3bc cbe5 a3be 6a16 dcbe d7db 42bf
00000360: 3a08 8cbd 4654 a0be 68f1 16bf 3f95 cebe
00000370: 0809 4bbf 6bd1 5fbe dbdc 54bf 2ee1 38bf
00000380: 090e 8abf 2182 b3be f3f1 89be 86c0 a3be
00000390: ec6c 7dbf d4ab 343e d4b2 26bf a189 c8be
000003a0: ec4c 1dbf 7712 6abf 339e 4ebf e990 2cbf
000003b0: e960 2dbf 50bf dd3d 9ac7 5dbf 6a28 cfbe
000003c0: 651c 67bf 9f57 5fbf d821 b4be fa56 40bf
000003d0: 3460 32bf 8025 43bf cd77 dbbe b7f8 d3be
000003e0: fa96 8abe 4710 03bf 5601 92be 660a 44be
000003f0: 3604 3cbf b6a5 fdbe 4b55 03bf cc75 07bf

fc2.weight f4 [400, 300]
0.12159441 -0.3304703 -0.008609208 -0.0064566983 -0.110395834 0.7379237 -0.2089484 -0.31083077
-0.35479203 -0.29641208 -0.90480775 -0.1052333 -0.7852044 0.26747605 -0.24819948 -0.21832818
0.06905019 0.16020876 -0.34224904 -0.0920559 0.22448817 -0.14738613 0.26071614 -0.039480872
-0.42178756 -0.34027845 -0.657503 0.1678134 -0.08611757 -0.60641354 -0.5336309 0.29622102
0.031927135 0.83413607 0.05207881 -0.3048069 -0.21531147 -0.53509235 -0.67041564 0.03537921
0.023173776 0.41661543 0.3697514 -0.71051174 -0.19172718 0.040938683 -0.21633029 -0.41367096
0.36420736 -0.11551354 -0.3474594 -0.28060845 0.006732509 -0.15205985 -0.7725287 -0.5573894
-0.15741831 -0.19000022 -0.025506852 -0.042795435 -0.2701673 -0.68785644 -0.453785 0.13119327
0.029153464 0.07689343 0.13489828 -0.13588057 -0.64534694 0.4118458 -0.1446638 -0.40703574
-0.7978907 -0.34339175 0.32313025 -0.08193333 -0.17063202 -0.1330108 0.17593125 0.07838313
-0.49896154 0.51852 -0.835157 -0.043825116 0.02999294 -0.24175313 0.093069315 0.29241896
-0.14714481 0.20991884 -1.0219556 -0.093329266 -0.4982385 0.06522889 -0.26521248 -0.23439676
-0.17425612 0.1623813 0.36526394 -0.25828975 -0.027876759 -0.39553198 0.0008222818 -0.10154338
0.0026148472 -0.113649525 -0.2038955 0.2526318 0.16378401 -0.4486713 0.005096072 -0.22205834
-0.4313699 -0.42544532 -0.13771175 0.07267925 0.26385543 -0.26960728 0.0077205463 0.051327553
0.17827027 -0.5354636 0.26966342 -0.13638666 -0.29087886 -0.13901901 -0.27842972 -0.28634655
-0.6123589 -0.18515001 -0.10375868 0.04329797 0.4761111 -0.7400214 -0.856113 0.16762842
-0.59385186 -0.41848043 0.092147045 -0.107656434 0.0552095 0.03890821 -0.5913749 -0.48386776
0.26043108 -0.022893814 0.25110582 -0.16285744 0.40080416 0.23637144 -0.1964721 -0.2880665
-0.12634212 -0.21188632 -0.53023446 -0.030542776 -0.40545008 0.048288077 -0.05363624 0.07752012
-0.47428375 0.19035155 -0.16027418 -0.07909285 -0.6004592 0.47169667 0.08731093 -0.076612785
-0.46556774 0.56829095 0.1457585 -0.38510072 0.43394408 -0.55786884 0.49669468 -0.6402927
-0.7480358 -0.47482982 0.010835063 -0.2758195 -0.9503083 -0.07773225 0.2580486 -0.014374303
0.14727959 -0.049515214 0.19066209 0.062042445 -0.19372852 -0.20619638 -0.1316225 0.10204216
-0.17805213 0.17909221 -0.600563 0.11034559 -0.41661254 -0.25536245 -0.3246944 0.21728775
0.30394346 -0.37636095 -0.736614 -0.09133981 0.5478727 -1.0030053 -0.19740628 -0.8700377
0.32678747 -0.5151111 -0.20265314 -0.49330354 0.008317322 -0.0675543 -0.349299 0.29247525
0.15871865 -0.12896276 -0.3393016 -0.49661416 -0.53335387 0.09384487 -0.38285175 0.2978429
-0.10857739 0.010844313 0.027258448 -0.34832066 -0.2594583 0.05484602 -0.6106635 -0.9424931
-0.3439254 -0.26881567 0.3514104 -0.25136253 0.023755511 0.22424744 -0.25343695 -0.46300346
-0.029032804 -0.5429634 0.28286925 -0.17117673 0.45200935 -0.54711926 -0.0698734 0.08253427
-0.4681826 -0.23774397 0.24949662 -0.65805435 -0.30379704 0.11704521 0.196155 -0.93427485
00000000: 7d06 f93d 6733 a9be a30d 0dbc b692 d3bb
00000010: 3617 e2bd 91e8 3c3f 92f6 55be 3625 9fbe
00000020: 4da7 b5be 53c3 97be 7ba1 67bf 8e84 d7bd
00000030: 2803 49bf 9ff2 883e 0128 7ebe 6c91 5fbe
00000040: 306a 8d3d c40d 243e 443b afbe ce87 bcbd
00000050: 3ae0 653e 64ec 16be 967c 853e b2b6 21bd
00000060: 8af4 d7be fa38 aebe 1e52 28bf 47d7 2b3e
00000070: 695e b0bd eb3d 1bbf 099c 08bf 48aa 973e
00000080: 07c6 023d f189 553f 9750 553d a60f 9cbe
00000090: 9c7a 5cbe d0fb 08bf 5ca0 2bbf cae9 103d
000000a0: eed6 bd3c 9e4e d53e 0e50 bd3e 19e4 35bf
000000b0: 2154 44be 52af 273d b085 5dbe aecc d3be
000000c0: 6379 ba3e 5d92 ecbd 33e6 b1be e9ab 8fbe
000000d0: 619c dc3b 94b5 1bbe 71c4 45bf 12b1 0ebf
000000e0: 4432 21be 6b8f 42be bff3 d0bc 444a 2fbd
000000f0: 5e53 8abe 5c17 30bf 8256 e8be 8757 063e
00000100: 3fd3 ee3c 4d7a 9d3d c622 0a3e 4724 0bbe
00000110: 7535 25bf 74dd d23e bf22 14be fd66 d0be
00000120: 9142 4cbf 0bd1 afbe 5471 a53e a9cc a7bd
00000130: 29ba 2ebe fc33 08be 5227 343e 5687 a03d
00000140: e377 ffbe babd 043f d9cc 55bf f781 33bd
00000150: c1b3 f53c 228e 77be 209b be3d f0b7 953e
00000160: 21ad 16be f7f4 563e 71cf 82bf 6a23 bfbd
00000170: 1e19 ffbe b996 853d eec9 87be b405 70be
00000180: 3270 32be 4947 263e e003 bb3e 8e3e 84be
00000190: cd5d e4bc 2b83 cabe 668e 573a faf5 cfbd
000001a0: db5d 2b3b 15c1 e8bd fbc9 50be f558 813e
000001b0: ffb6 273e 3fb8 e5be f3fc a63b 4363 63be
000001c0: 84dc dcbe f8d3 d9be 4f04 0dbe dcd8 943d
000001d0: 0f18 873e f709 8abe a3fc fc3b d73c 523d
000001e0: 7b8c 363e 2414 09bf 5311 8a3e f2a8 0bbe
000001f0: 13ee 94be 005b 0ebe 578e 8ebe 049c 92be
00000200: 8ec3 1cbf f797 3dbe 6e7f d4bd 3659 313d
00000210: d6c4 f33e 0b72 3dbf 392a 5bbf c9a6 2b3e
00000220: ad06 18bf 1143 d6be 97b7 bc3d fa7a dcbd
00000230: 5b23 623d 375e 1f3d 5864 17bf 84bd f7be
00000240: 3957 853e cf8b bbbc f190 803e 1ac4 26be
00000250: 3436 cd3e 5b0b 723e fb2f 49be 747d 93be
00000260: d45f 01be baf8 58be 72bd 07bf d834 fabc
00000270: 2797 cfbe b8c9 453d adb1 5bbd dec2 9e3d
00000280: 52d5 f2be 84eb 423e ea1e 24be 6ffb a1bd
00000290: b2b7 19bf 3a82 f13e 13d0 b23d 2ae7 9cbd
000002a0: e55e eebe 847b 113f b741 153e ec2b c5be
000002b0: eb2d de3e 7ed0 0ebf c44e fe3e 39ea 23bf
000002c0: 467f 3fbf e51c f3be 8c85 313c 3738 8dbe
000002d0: 6847 73bf 1632 9fbd f21e 843e 3282 6bbc
000002e0: 76d0 163e 77d0 4abd ec3c 433e 3820 7e3d
000002f0: c560 46be 2525 53be 0cc8 06be 7bfb d03d
00000300: 4c53 36be f363 373e 7fbe 19bf defc e13d
00000310: 3d4e d5be debe 82be 583e a6be ae80 5e3e
00000320: 7a9e 9b3e 62b2 c0be bc92 3cbf 5e10 bbbd
00000330: 6341 0c3f 7a62 80bf df24 4abe caba 5ebf
00000340: b050 a73e 52de 03bf 4e84 4fbe 4892 fcbe
00000350: 6045 083c e959 8abd 52d7 b2be 51bf 953e
00000360: 2487 223e d00e 04be f0b8 adbe 3644 febe
00000370: e189 08bf bd31 c03d 2505 c4be dd7e 983e
00000380: d35d debd 58ac 313c 1c4d df3c 1657 b2be
00000390: b8d7 84be 38a6 603d 7154 1cbf 3a47 71bf
000003a0: fd16 b0be 35a2 89be 10ec b33e 97b2 80be
000003b0: eb9a c23c 1fa1 653e 7dc2 81be ca0e edbe
000003c0: 34d6 edbc a6ff 0abf 3dd4 903e f448 2fbe
000003d0: c56d e73e 0210 0cbf c919 8fbd ba07 a93d
000003e0: a1b5 efbe 2873 73be 0b7c 7f3e 4076 28bf
000003f0: 498b 9bbe 66b5 ef3d dbdc 483e a32c 6fbf

fc2.bias f4 [400]
-0.33840987 -0.3626921 -0.30054304 -0.43241858 -0.685087 -0.45716122 -0.4759838 -0.264663
-0.48947513 -0.5207176 -0.09408242 -0.3602772 -0.24326992 -0.4112283 -0.16376117 -0.6252119
-0.20750017 -0.33047965 -0.03782805 -0.28556362 -0.38035983 0.03548464 -0.346734 -0.7132017
-0.1530015 -0.2375649 -0.20385909 -0.45575875 -0.05171246 -0.47849512 -0.27133 -0.5085782
-0.6770329 -0.31413066 -0.39318326 -0.027018186 -0.13831584 -0.29991212 -0.22032145 -0.42581737
-0.6160096 -0.58687073 -0.17800723 -0.12961923 -0.2885055 -0.045090307 -0.68509585 -0.47473246
-0.3592302 -0.1356814 -0.189427 -0.44476467 -0.6063451 -0.8229198 -0.45486525 -0.36679173
-0.46379307 -0.5481081 -0.4075355 -0.3538154 -0.65283537 -0.4444749 -0.13812408 0.032379642
-0.21515895 -0.12880197 -0.15196586 -0.13762121 -0.58721006 -0.23182689 -0.18544185 -0.17851105
-0.119827434 -0.05598124 -0.4862612 -0.3578059 0.05457849 -0.15247881 -0.93341607 0.12676138
-0.46021315 -0.37356275 -0.4928885 -0.14380804 -0.5797894 -0.5360063 -0.65116227 -0.21641377
-0.48754767 -0.29573417 -0.71143997 -0.24641661 -0.32884562 -0.27826813 -0.44357032 -0.55941224
-0.26620972 -0.19444072 -0.47098428 -0.2585098 -0.264267 -0.6485511 -0.27460656 -0.22321726
0.15998296 -0.25456607 -0.13253164 -0.56063414 -0.45893502 -0.23336051 0.08819753 -0.23621722
-0.15347795 -0.103100106 -0.14380977 -0.15250868 -0.3992177 0.060496558 -0.35704464 -0.28167814
-0.27254432 -0.2323036 -0.49069908 -0.16181147 -0.77330184 -0.019283677 -0.23629774 -0.22639033
-0.22973524 -0.44785383 -0.32116967 -0.23838058 -0.44460955 -0.3028706 -0.36585912 0.01982197
-0.5143782 -0.50894475 -0.49115378 -0.400864 0.11125365 0.01986274 -0.23884079 -0.33387122
-0.24307182 -0.475702 -0.16250843 0.039218493 -0.25075832 -0.44249386 -0.52003294 0.15606494
-0.42260605 -0.538733 -0.73019207 -0.2777151 -0.23420046 -0.41517588 -0.52824134 -0.27173945
-0.25056124 -0.31020457 0.13465211 -0.40173733 -0.31693685 -0.51113003 -0.3954201 -0.6089762
-0.22430043 -0.37281644 -0.06895785 -0.28030068 -0.031946976 -0.11271792 -0.18900257 -0.5882334
-0.5002932 -0.29742342 -0.33217913 -0.411082 -0.24965173 -0.12075297 -0.25471306 -0.28716153
-0.29273632 -0.37234652 -0.34096694 -0.038645484 -0.50127524 -0.23855884 -0.18326364 -0.047605343
-0.26588562 -0.44247276 -0.34885713 -0.5873125 -0.53060126 -0.24285564 -0.28571942 -0.30741376
-0.49807888 -0.49189952 -0.09405827 -0.31984866 -0.23369855 -0.26141745 0.0014045972 -0.24339141
-0.26885778 -0.5906717 -0.49010426 -0.32328743 -0.2695098 0.15268937 -0.33029264 -0.4674322
-0.27608132 -0.17827947 -0.62006986 -0.0490117 -0.03440335 -0.19747165 -0.46214315 -0.43402183
-0.28660077 -0.5663173 -0.50599575 -0.74901843 -0.19379117 -0.3216857 -0.08254977 -0.42778367
-0.43216744 -0.37054488 -0.3482935 -0.12152722 -0.25463116 -0.48187327 -0.15876424 -0.13302666
-0.13488649 -0.330406 -0.014218516 -0.22668949 -0.20260637 -0.30423242 -0.2515911 -0.40345043
-0.53742796 -0.4218963 -0.3593542 0.0009902259 -0.4514869 -0.47672102 -0.06081394 -0.12098265
00000000: 0f44 adbe c7b2 b9be c7e0 99be f865 ddbe
00000010: dd61 2fbf 0911 eabe 26b4 f3be e981 87be
00000020: 7c9c fabe c04d 05bf 49ae c0bd 4176 b8be
00000030: c01b 79be 848c d2be 02b1 27be e30d 20bf
00000040: ed7a 54be a134 a9be 96f1 1abd 6535 92be
00000050: 86be c2be 5858 113d 1e87 b1be 6394 36bf
00000060: 6dac 1cbe 3744 73be 70c0 50be 3659 e9be
00000070: 72d0 53bd 50fd f4be c4eb 8abe 2e32 02bf
00000080: 0752 2dbf bcd5 a0be 514f c9be 3e55 ddbc
00000090: aba2 0dbe 158e 99be f29b 61be bc04 dabe
000000a0: ceb2 1dbf 293d 16bf 8747 36be e7ba 04be
000000b0: feb6 93be 9db0 38bd 7162 2fbf 2210 f3be
000000c0: 05ed b7be 11f0 0abe 27f9 41be 32b8 e3be
000000d0: 6f39 1bbf dfaa 52bf 19e4 e8be 20cc bbbe
000000e0: 4976 edbe d050 0cbf 7ea8 d0be 4b27 b5be
000000f0: 3820 27bf 3792 e3be 6670 0dbe 84a0 043d
00000100: a152 5cbe aae4 03be f09c 1bbe 93ec 0cbe
00000110: 6653 16bf 0764 6dbe 78e4 3dbe 9acb 36be
00000120: 1668 f5bd 964c 65bd 3af7 f8be 5632 b7be
00000130: b28d 5f3d 6823 1cbe 5bf4 6ebf bccd 013e
00000140: 0fa1 ebbe 9e43 bfbe e25b fcbe 6a42 13be
00000150: 146d 14bf b537 09bf 92b2 26bf 929b 5dbe
00000160: d99f f9be 786a 97be ee20 36bf a354 7cbe
00000170: 745e a8be 2979 8ebe a61b e3be a435 0fbf
00000180: a44c 88be 781b 47be da24 f1be 665b 84be
00000190: 014e 87be 7207 26bf 3b99 8cbe 1193 64be
000001a0: 93d2 233e 7c56 82be 60b6 07be b885 0fbf
000001b0: 88f9 eabe 0ff6 6ebe e8a0 b43d ede2 71be
000001c0: 5329 1dbe 2626 d3bd de42 13be 3c2b 1cbe
000001d0: 4366 ccbe 3dcb 773d 8ece b6be 1e38 90be
000001e0: ee8a 8bbe ffe0 6dbe e93c fbbe e8b1 25be
000001f0: 1cf7 45bf cdf8 9dbc 09f8 71be ded2 67be
00000200: b73f 6bbe 194d e5be 5a70 a4be 0a1a 74be
00000210: dda3 e3be db11 9bbe e351 bbbe af61 a23c
00000220: 4aae 03bf 344a 02bf 8278 fbbe 0c3e cdbe
00000230: f4d8 e33d 2fb7 a23c ae92 74be 2bf1 aabe
00000240: d2e7 78be 368f f3be 9c68 26be 92a3 203d
00000250: 6563 80be 8e8e e2be e120 05bf 7dcf 1f3e
00000260: d25f d8be 68ea 09bf deed 3abf ac30 8ebe
00000270: 3fd2 6fbe ef91 d4be d33a 07bf 6f21 8bbe
00000280: 9049 80be 22d3 9ebe 3ee2 093e 84b0 cdbe
00000290: 8c45 a2be 6bd9 02bf 8174 cabe dde5 1bbf
000002a0: 03af 65be cce1 bebe c639 8dbd 9283 8fbe
000002b0: d5da 02bd a7d8 e6bd e489 41be 7796 16bf
000002c0: 3713 00bf e247 98be 6213 aabe 5779 d2be
000002d0: b4a4 7fbe 554d f7bd c069 82be d606 93be
000002e0: 89e1 95be 34a4 bebe 3893 aebe ba4a 1ebd
000002f0: 9353 00bf c548 74be 77a9 3bbe d2fd 42bd
00000300: 2922 88be ca8b e2be 679d b2be 1d5a 16bf
00000310: 7cd5 07bf 26af 78be d149 92be 5665 9dbe
00000320: 3204 ffbe 41da fbbe 9fa1 c0bd 34c3 a3be
00000330: ac4e 6fbe 82d8 85be 761a b83a 993b 79be
00000340: baa7 89be 4336 17bf f2ee fabe ee85 a5be
00000350: 30fd 89be 9a5a 1c3e 1e1c a9be 4653 efbe
00000360: 885a 8dbe e58e 36be e6bc 1ebf 7ec0 48bd
00000370: 87ea 0cbd 0236 4abe 079e ecbe 1c38 debe
00000380: 56bd 92be 2cfa 10bf f088 01bf acbf 3fbf
00000390: 3171 46be fdb3 a4be db0f a9bd 7606 dbbe
000003a0: 0d45 ddbe 0fb8 bdbe 8753 b2be 43e3 f8bd
000003b0: 045f 82be 18b8 f6be 1893 22be 2438 08be
000003c0: af1f 0abe fa2a a9be c7f4 68bc 4a21 68be
000003d0: 0b78 4fbe 5ac4 9bbe 8cd0 80be 0e91 cebe
000003e0: e194 09bf cb02 d8be 46fd b7be 78ca 813a
000003f0: 4a29 e7be c714 f4be 0a18 79bd c0c5 f7bd

fc3.weight f4 [4, 400]
0.007236408 0.59313285 0.33039153 -0.44021553 -0.43774566 0.1286877 -0.18583737 -0.2468369
0.14042442 -0.033286285 -0.28669477 0.5212179 -0.40978804 0.3582147 0.2577769 0.104187414
0.4018067 0.20690402 -0.30036366 0.28866142 0.19276166 -0.117750965 -0.09953732 -0.19667108
0.045359176 0.029227009 0.17888898 0.0026454628 -0.05799942 0.018351106 -0.19836216 0.16033278
-0.48689014 -0.28970823 0.428684 -0.43108362 0.24542303 -0.13961338 0.0055301273 0.03589403
0.27152032 -0.08585444 -0.4509121 0.08051665 0.117029935 0.2819516 -0.115099385 0.26686606
0.18030377 0.23833132 0.34424672 0.23175976 0.034265522 0.17243105 0.20542665 0.30169615
0.2219466 -0.12519985 -0.213581 0.16992185 0.05017186 -0.41799 0.13391463 -0.14180547
0.20206039 -0.38842738 -0.23874113 0.047140963 0.033845417 -0.25381482 0.43216377 -0.18533897
-0.032098718 0.49743932 -0.04672122 -0.1679754 -0.4004665 0.2283846 -0.39751527 -0.047101807
0.23446614 0.43527502 -0.09930821 -0.5493612 -0.76860076 0.19216385 -0.30442807 -0.35092768
-0.043337665 -0.2263892 0.58893186 0.113095626 -0.21734756 0.11953985 0.036917385 -0.4089137
-0.4909237 -0.0041982373 0.31334925 0.25441095 0.09967406 0.23522544 0.45072895 0.318591
-0.013040398 -0.1452451 0.32450694 0.10948228 -0.0013971013 0.079027474 0.07338642 -0.00056141487
0.1775133 -0.2679444 0.40812534 -0.47429547 0.343934 -0.13301042 0.01922149 -0.5509447
-0.48944318 -0.13445827 0.33700475 -0.052538607 -0.3780085 0.30506003 0.2484588 0.028217873
0.1868788 -0.22019781 -0.60913396 0.33110973 -0.31126747 0.24870451 -0.34173602 -0.09279035
-0.20723106 0.13160454 -0.52562684 -0.08039903 0.04364806 -0.42025822 0.07303992 -0.339341
-0.3096281 -0.57256216 0.10051293 -0.31455922 -0.30225518 -0.2076794 0.1601463 0.44274354
0.022280073 0.21278568 -0.5618845 -0.07236298 0.33855736 0.42515516 0.17611058 -0.5206594
-0.45055857 -0.49794587 0.052921824 -0.12976749 -0.032100312 0.12415432 -0.32490483 -0.058520958
-0.23453732 0.3161705 -0.073047705 -0.26958334 -0.5502651 -0.18709444 0.42591566 0.24751264
0.36608237 -0.21676064 0.2071835 0.32688144 -0.28689122 0.42930532 -0.0170475 -0.31989533
0.34219617 -0.30832 0.5324571 0.29771572 -0.046026584 -0.3289322 -0.014531001 0.1277199
-0.17937317 -0.13714719 0.22361454 0.23332655 0.741731 -0.2602373 0.32818452 0.27226454
0.16361181 0.42769614 -0.32160383 -0.035078682 -0.38587826 0.30878553 -0.046417292 -0.21358486
-0.15913479 0.2830978 0.12907709 0.5231706 0.48539427 0.11044603 -0.052548565 -0.5182839
-0.24730287 0.37283862 -0.0768595 0.61258906 -0.13268705 0.1597287 0.40273088 0.22814235
-0.34510693 -0.18165474 0.30629227 -0.28444937 -0.26949027 -0.014002821 0.024265248 0.68495375
-0.10912826 -0.009244133 0.4137518 -0.20602237 0.31927332 0.25833458 -0.43053123 0.35325867
0.27080417 0.11405404 0.13829984 0.31220156 0.3744315 0.23101737 0.1478517 -0.2662768
0.11811249 0.4930656 -0.2782899 0.12882985 0.17160012 -0.178049 0.21291718 -0.12812713
00000000: 641f ed3b 8ed7 173f 1429 a93e ee63 e1be
00000010: 3320 e0be b5c6 033e 274c 3ebe d0c2 7cbe
00000020: 6bcb 0f3e 3357 08bd a8c9 92be 896e 053f
00000030: bdcf d1be eb67 b73e 55fb 833e 3660 d53d
00000040: 9cb9 cd3e a6de 533e 44c9 99be 6ecb 933e
00000050: 5063 453e 6b27 f1bd 39da cbbd 2564 49be
00000060: 8bca 393d 7b6d ef3c ac2e 373e 805f 2d3b
00000070: cd90 6dbd 0f55 963c 731f 4bbe 472e 243e
00000080: aa49 f9be a354 94be 787c db3e feb6 dcbe
00000090: 2d50 7b3e cff6 0ebe 1236 b53b 9e05 133d
000000a0: b604 8b3e 74d4 afbd f3dd e6be eae5 a43d
000000b0: 64ad ef3d f65b 903e 3ab9 ebbd aba2 883e
000000c0: 8da1 383e 200d 743e 1b41 b03e 6e52 6d3e
000000d0: 015a 0c3d c491 303e 5d5b 523e eb77 9a3e
000000e0: f845 633e 6434 00be fab4 5abe feff 2d3e
000000f0: 0281 4d3d c902 d6be eb20 093e 7435 11be
00000100: ebe8 4e3e f4df c6be 8e78 74be e216 413d
00000110: 7ea1 0a3d 04f4 81be 9244 dd3e 80c9 3dbe
00000120: f279 03bd 5eb0 fe3e c05e 3fbd be01 2cbe
00000130: f209 cdbe a7dd 693e 1f87 cbbe d3ed 40bd
00000140: e417 703e 5edc de3e 1a62 cbbd f0a2 0cbf
00000150: 05c3 44bf 9ac6 443e ffdd 9bbe cbac b3be
00000160: d682 31bd 92d2 67be 3dc4 163f ae9e e73d
00000170: 5c90 5ebe 4fd1 f43d af36 173d 235d d1be
00000180: 5a5a fbbe 5e91 89bb 506f a03e 2742 823e
00000190: ea21 cc3d f0de 703e f2c5 e63e 5c1e a33e
000001a0: 65a7 55bc 22bb 14be c625 a63e 3f38 e03d
000001b0: f11e b7ba 28d9 a13d 9f4b 963d ea2b 13ba
000001c0: 0cc6 353e 0230 89be cef5 d03e dbd6 f2be
000001d0: 1e18 b03e e233 08be 6376 9d3c b60a 0dbf
000001e0: 4c98 fabe 6eaf 09be e38b ac3e b932 57bd
000001f0: 558a c1be d430 9c3e fc6b 7e3e 2b29 e73c
00000200: 285d 3f3e 897b 61be 34f0 1bbf 3787 a93e
00000210: 735e 9fbe 65ac 7e3e 06f8 aebe de08 bebd
00000220: 6134 54be 57c3 063e 7b8f 06bf 3fa8 a4bd
00000230: 4fc8 323d 162c d7be f495 953d 1bbe adbe
00000240: 9387 9ebe 6f93 12bf b9d9 cd3d e80d a1be
00000250: 31c1 9abe e9a9 54be 64fd 233e 48af e23e
00000260: b384 b63c 7de4 593e aad7 0fbf 0b33 94bd
00000270: 6457 ad3e f0ad d93e 5556 343e ef49 05bf
00000280: 9daf e6be c3f2 febe 8ec4 583d c5e1 04be
00000290: 9e7b 03bd 9f44 fe3d ed59 a6be acb3 6fbd
000002a0: 8d2a 70be 1ae1 a13e 099a 95bd d406 8abe
000002b0: 2cde 0cbf af95 3fbe 9e11 da3e f473 7d3e
000002c0: 266f bb3e 80f6 5dbe e927 543e 015d a73e
000002d0: 68e3 92be e8cd db3e 33a7 8bbc 52c9 a3be
000002e0: 5634 af3e 1edc 9dbe 1c4f 083f 326e 983e
000002f0: 5f86 3cbd cd69 a8be 7013 6ebc 01c9 023e
00000300: 9aad 37be 5070 0cbe 36fb 643e 28ed 6e3e
00000310: 15e2 3d3f d33d 85be cd07 a83e 4266 8b3e
00000320: db89 273e fdfa da3e 42a9 a4be aaae 0fbd
00000330: d691 c5be 2319 9e3e 0f20 3ebd fdb5 5abe
00000340: 3bf4 22be 32f2 903e c92c 043e 82ee 053f
00000350: 9985 f83e 8731 e23d 2a3d 57bd 41ae 04bf
00000360: f73c 7dbe b4e4 be3e 8368 9dbd a3d2 1c3f
00000370: 1ddf 07be ec8f 233e be32 ce3e 269e 693e
00000380: dbb1 b0be b303 3abe 57d2 9c3e 59a3 91be
00000390: a1fa 89be 176c 65bc eac7 c63c 2159 2f3f
000003a0: a37e dfbd b474 17bc 47d7 d33e 87f7 52be
000003b0: cb77 a33e 6e44 843e 976e dcbe 52de b43e
000003c0: d8a6 8a3e 2a95 e93d 799e 0d3e e2d8 9f3e
000003d0: 7cb5 bf3e d18f 6c3e 7066 173e 6f55 88be
000003e0: f6e4 f13d 1873 fc3e 047c 8ebe f9eb 033e
000003f0: f1b7 2f3e 7a52 36be f606 5a3e c233 03be

fc3.bias f4 [4]
0.014945852 -0.050870363 -0.2048782 -0.046035375
00000000: 72df 743c 715d 50bd 97cb 51be 978f 3cbd
