experiments/exp3/models/checkpoint_actor_2.pth (torch_old, 529855 bytes, 6 tensors)

fc1.weight f4 [300, 33]
0	0x3d9fbba9	0.07799465
1	0x3f21fb13	0.63273734
2	0xbed0cdea	-0.407821
3	0xbf9416de	-1.1569479
4	0xbf0e6fa4	-0.556391
5	0x3e43b132	0.19110563
6	0x3fdc88d2	1.7229254
7	0xbc2a966e	-0.010411842
8	0x3eee4dcd	0.46543732
9	0xbea068bd	-0.3132991
10	0x3eb3f939	0.3515108
11	0x3e1df06f	0.1542375
12	0xbef2f31c	-0.47451103
13	0x3eee60c9	0.46558216
14	0x3f21b160	0.6316128
15	0x3e27ca11	0.16385676
16	0xbf7598d6	-0.95936334
17	0xbdcfefa2	-0.10153128
18	0xbf01ab1f	-0.50651735
19	0x3f6202ee	0.8828572
20	0xbe45b0cc	-0.19305724
21	0x3e2d716b	0.16937797
22	0xbe8a15dc	-0.26969802
23	0xbea41519	-0.32047346
24	0x3e03e74d	0.12881203
25	0xbe24b1f9	-0.16083516
26	0xbe0a1131	-0.1348312
27	0x3ecf2f9e	0.40466017
28	0xbeaedfdb	-0.34155163
29	0x3d5ae84e	0.0534442
30	0xbef2c1fa	-0.47413617
31	0x3c82e20c	0.015976928
32	0x3e66ee71	0.22551896
33	0x3ebd68d3	0.36994037
34	0xbeef5f37	-0.4675233
35	0x3f7aad1f	0.9792041
36	0x3f099992	0.53749955
37	0x3f370eb3	0.71506804
38	0x3f7fa5f2	0.9986259
39	0xbd163267	-0.03666916
40	0xbeb53e18	-0.35398936
41	0xbf2e00a3	-0.6796972
42	0xbeb9da9a	-0.36299592
43	0xbbffbbcb	-0.007804369
44	0xbde00763	-0.10938909
45	0x3d788798	0.060676187
46	0xbe505bff	-0.20347594
47	0x3e6f8f28	0.23394454
48	0xbea4eeb9	-0.3221338
49	0x3fda5951	1.7058507
50	0xbd57b632	-0.05266399
51	0xbeb9f1c5	-0.36317268
52	0x3dccd55d	0.10001633
53	0xbe7a2ad0	-0.24430394
54	0x3e07620b	0.13220994
55	0x3e27478f	0.16335891
56	0xbe0cab45	-0.13737209
57	0x3dbf4b69	0.09340555
58	0x3db42738	0.08796543
59	0x3ce80c05	0.028326044
60	0xbe851330	-0.259912
61	0x3dd23aff	0.10265159
62	0x3d475e2e	0.0486738
63	0x3e98ea0e	0.2986607
64	0xbd30e994	-0.043191507
65	0x40110d88	2.266451
66	0x3e944a0c	0.28962743
67	0xbe46d1b6	-0.19415936
68	0xbe0ce9d5	-0.13761075
69	0xbfa9c7c4	-1.3264089
70	0x3e3ea274	0.18616658
71	0xbfb1163c	-1.383491
72	0xbdc3c32e	-0.09558712
73	0xbd2c1ce7	-0.04201975
74	0xbdd64c0f	-0.10463726
75	0xbf0078c3	-0.5018427
76	0xbe979250	-0.29603815
77	0xbe2f3e42	-0.17113593
78	0xbe717e0c	-0.2358324
79	0xbd9e1251	-0.07718337
80	0x3e81fb3e	0.25386995
81	0xbe0bda8f	-0.13657592
82	0xbf091e69	-0.5356203
83	0xbf34d450	-0.70636463
84	0x3e7df3e1	0.24800064
85	0xbf98840e	-1.19153
86	0xbc801759	-0.015636133
87	0xbf029e63	-0.5102293
88	0x3f3cfd7d	0.7382429
89	0xbf0a084e	-0.5391892
90	0x3cf61895	0.030041019
91	0xbd649134	-0.05580254
92	0xbe2e0278	-0.16993129
93	0x3f52b385	0.82305175
94	0x3e517fda	0.20458928
95	0xbc7d8f8c	-0.015476119
96	0xbf5ab77d	-0.8543623
97	0xbd4b78d6	-0.049675785
98	0x3e4cb86c	0.19992226
99	0x3e933246	0.28749293
100	0x3f044dcc	0.5168121
101	0xbd0be430	-0.034153163
102	0x3f03878c	0.51378703
103	0x3f984744	1.1896749
104	0xbf81a1c3	-1.0127491
105	0xbe83ed5b	-0.25767025
106	0xbe2def0e	-0.16985723
107	0xbe7cf7eb	-0.24703948
108	0xbe5f92c2	-0.21833327
109	0xbe4f9001	-0.20269777
110	0x3ec0b3bf	0.37637135
111	0xbe5db29c	-0.21650165
112	0xbe9d1c9e	-0.30685896
113	0x3e6a3c18	0.22874486
114	0x3e40e444	0.18837076
115	0x3ea2ee9d	0.31822672
116	0xbf30d76d	-0.69078714
117	0xbf3f9d6f	-0.748496
118	0x3f32414d	0.6963089
119	0x3dad3d61	0.08458973
120	0x3e1937ae	0.14962646
121	0x3e45712e	0.19281456
122	0xbf147baa	-0.58001196
123	0x3d8effde	0.069823965
124	0xbead33fe	-0.3382873
125	0xbba71717	-0.005099188
126	0x3f34aacc	0.70573115
127	0xbe25c5fc	-0.16188806
128	0x3cb8d8f8	0.022564396
129	0xbf28caac	-0.6593425
130	0x3d650c5c	0.05591999
131	0xbffe0654	-1.9845681
132	0x3f3c40e6	0.7353653
133	0x3eef5bd4	0.46749747
134	0xbd889746	-0.06669478
135	0x3f623464	0.8836119
136	0x3e9947bd	0.29937544
137	0xbf03179e	-0.5120791
138	0xbf975a21	-1.182438
139	0x3d6fc71b	0.05853949
140	0x3ed1eb0e	0.40999645
141	0xbe8081ad	-0.25098935
142	0xbe689236	-0.22712025
143	0xbee7b58e	-0.45255703
144	0x3e998190	0.2998166
145	0xbe2e4fee	-0.17022678
146	0x3f1e795f	0.6190395
147	0xbe426fa4	-0.189879
148	0x3f0417af	0.5159864
149	0x3d53fc22	0.051754124
150	0xbe56d145	-0.20978267
151	0x3f667a31	0.900302
152	0x3db3c544	0.0877786
153	0xbe9c81df	-0.30567834
154	0x3f1f98c4	0.62342477
155	0xbeb78c08	-0.35849023
156	0xbe08f76e	-0.13375637
157	0xbe43d936	-0.19125828
158	0xbe16a05a	-0.14709607
159	0x3f1fa354	0.62358594
160	0xbe6bb2cd	-0.23017426
161	0xbbccc550	-0.0062491074
162	0xbf112792	-0.56701005
163	0x3d04dc4a	0.032436647
164	0xbf79798a	-0.9745108
165	0xbed3f4fd	-0.4139785
166	0x3db8fab0	0.0903219
167	0xbe08baa5	-0.13352449
168	0x3f6cb074	0.92456746
169	0xbf592ac4	-0.8483088
170	0x3f27b200	0.6550598
171	0x3e9d1e4f	0.30687186
172	0xbe91af15	-0.2845389
173	0xbd522a3b	-0.051309805
174	0x3e98f94e	0.29877704
175	0x3eb4b348	0.3529303
176	0xbec28298	-0.3799026
177	0xbe324103	-0.17407613
178	0x3e8a5b28	0.27022672
179	0x3e5d27f4	0.21597272
180	0x3e830f5b	0.25597653
181	0x3ead16c0	0.3380642
182	0xbc6ac893	-0.014330047
183	0x3f00c870	0.50305843
184	0x3f326f45	0.69701034
185	0x3f2409a2	0.640772
186	0xbec3298f	-0.38117644
187	0xbeab9c3d	-0.33517638
188	0xbe81a537	-0.2532136
189	0xbb550e34	-0.0032509686
190	0x3e9c0fe1	0.30480865
191	0x3d790efc	0.060805306
192	0x3f0ec660	0.55771446
193	0xbe2dc6d1	-0.16970374
194	0xbd641f6d	-0.055694032
195	0xbf1e86aa	-0.6192423
196	0xbd1417e8	-0.03615561
197	0x3f5f6c7a	0.872749
198	0xbe84eccd	-0.25961915
199	0x3e816de2	0.25279146
200	0xbf3dc572	-0.741294
201	0xbe15e1c5	-0.14636905
202	0x3eae9505	0.34098068
203	0xbf425087	-0.75904125
204	0xbfbb7527	-1.4645127
205	0xbe91da62	-0.28486925
206	0x3dc8934e	0.09793721
207	0x3cd7ee3f	0.026358722
208	0x3d621aad	0.05520122
209	0xbe58d172	-0.21173647
210	0xbe827553	-0.25480136
211	0x3ea2f438	0.3182695
212	0x3f0e8774	0.55675435
213	0xbd02413e	-0.0318005
214	0xbed814b9	-0.4220331
215	0x3f1cebb2	0.6129714
216	0x3f3f7463	0.7478697
217	0xbf27c94f	-0.6554155
218	0xbd4b8a65	-0.04969253
219	0xbda5199d	-0.08061526
220	0x3e104cb3	0.14091758
221	0x3e24e427	0.16102658
222	0x3eb62a4d	0.35579148
223	0xbe627651	-0.22115447
224	0xbec0d0bf	-0.3765926
225	0x3e604846	0.2190257
226	0xbce80124	-0.028320856
227	0x3d678bda	0.056529857
228	0xbe5ce334	-0.21571046
229	0x3d05f178	0.032700986
230	0x3fc95d8f	1.5731677
231	0xbe7f59d7	-0.24936615
232	0x3f0fa751	0.5611468
233	0xbd6e6b36	-0.058207713
234	0xbeee8a2b	-0.4658979
235	0x3f4f9f5e	0.8110255
236	0x3f305679	0.68881947
237	0xbf20b95f	-0.62782854
238	0x3e0d7442	0.1381388
239	0xbef58aa0	-0.47957325
240	0xbebd629b	-0.36989293
241	0xbd3e3de7	-0.046445753
242	0x3f011de4	0.50436234
243	0xbcc2a94a	-0.023762364
244	0xbdb57cc7	-0.0886169
245	0x3e21ff89	0.15820135
246	0x3f5170fc	0.81813025
247	0xbf4afc13	-0.79290885
248	0xbe78c8e5	-0.24295385
249	0xbedba40e	-0.428986
250	0xbe814a28	-0.2525189
251	0xbddd4d26	-0.108057305
252	0x3e807d72	0.25095707
253	0x3f3d0ff2	0.73852456
254	0xbe8fd55a	-0.28092462
255	0xbdfc0c52	-0.123070374

fc1.bias f4 [300]
0	0xbe9f018c	-0.31055868
1	0x3edfe9a8	0.43732953
2	0xbf404f25	-0.75120765
3	0xbf490168	-0.7851777
4	0xbef97a49	-0.4872611
5	0xbf29a3a0	-0.66265297
6	0xbe662b98	-0.22477567
7	0xbf278aa2	-0.6544591
8	0xbe8b6cb8	-0.27231383
9	0xbf2f195a	-0.6839806
10	0xbf4612fe	-0.7737273
11	0xbf08cd2a	-0.53438056
12	0xbc95fea4	-0.018309899
13	0xbf719bea	-0.9437853
14	0xbed35d16	-0.41281956
15	0xbf627244	-0.88455606
16	0xbf2aaed6	-0.6667303
17	0xbea10af0	-0.31453657
18	0x3d116b09	0.035502467
19	0xbf221c34	-0.63324285
20	0xbe9933ab	-0.29922232
21	0xbf4240da	-0.75880206
22	0xbf6c2a4b	-0.92252034
23	0xbf3c0e93	-0.7345974
24	0xbf15b2e2	-0.5847608
25	0xbf03a5a0	-0.514246
26	0xbf88222c	-1.0635428
27	0xbf0d8aa0	-0.5528965
28	0xbec9fb27	-0.39449427
29	0xbf1cb026	-0.6120628
30	0xbf275fab	-0.6538035
31	0xbf00a6c9	-0.50254494
32	0xbef64592	-0.48099953
33	0xbec5c221	-0.3862467
34	0xbf1935b1	-0.5984755
35	0xbf271438	-0.65265226
36	0xbf114f4c	-0.5676162
37	0xbec48d30	-0.38388968
38	0xbf019fa4	-0.5063422
39	0xbe7b4bf2	-0.2454069
40	0xbf43c705	-0.76475555
41	0xbf063e2e	-0.5243863
42	0xbf17d2b0	-0.5930586
43	0xbf385bca	-0.7201506
44	0xbf344efd	-0.70433027
45	0xbebb9bed	-0.366424
46	0xbf44303a	-0.7663609
47	0xbf4c9009	-0.7990728
48	0xbf718180	-0.94338226
49	0xbe92cb17	-0.2867057
50	0xbf7f7bac	-0.99798083
51	0xbf19180e	-0.5980233
52	0xbf6ec47c	-0.9326856
53	0xbf2004bb	-0.6250722
54	0xbecf55be	-0.40495104
55	0xbf166e25	-0.5876182
56	0xbf3c5e91	-0.73581797
57	0xbf54cf41	-0.83128744
58	0xbf41e4db	-0.7573983
59	0xbf79d7d1	-0.97594935
60	0xbf0a1041	-0.5393105
61	0xbf099eab	-0.53757733
62	0xbf265814	-0.64978147
63	0x3deaeffc	0.11471555
64	0xbf08064c	-0.5313461
65	0xbf3d6917	-0.7398848
66	0xbec88e76	-0.3917119
67	0xbf0004e1	-0.50007445
68	0xbebf849e	-0.37405866
69	0xbf519296	-0.818643
70	0xbecd1832	-0.40057522
71	0xbed302bd	-0.41213027
72	0xbf5e1e0b	-0.8676459
73	0xbf241297	-0.64090866
74	0xbf43c5cc	-0.7647369
75	0xbf634905	-0.88783294
76	0xbf507036	-0.8142122
77	0xbf9e9887	-1.2390298
78	0xbf860c02	-1.0472414
79	0xbf6515ae	-0.89486206
80	0xbf641049	-0.8908735
81	0xbe96d530	-0.29459524
82	0xbeed20f0	-0.46314192
83	0xbf19ee38	-0.6012912
84	0xbe95bf27	-0.292474
85	0xbf324c48	-0.69647646
86	0xbf5c8c7f	-0.8615188
87	0xbeb3f74f	-0.3514962
88	0x3ca4d589	0.020121353
89	0xbec08366	-0.3760025
90	0xbf64a1bd	-0.89309293
91	0xbf947706	-1.1598823
92	0xbf04a007	-0.5180668
93	0xbf6e2232	-0.9302093
94	0xbc828a99	-0.01593523
95	0xbf92c308	-1.1465769
96	0xbf1bdeaf	-0.60886663
97	0xbf17c1e9	-0.5928026
98	0xbf04a5c1	-0.5181542
99	0xbf7eae3e	-0.9948462
100	0xbe74eb5c	-0.23917907
101	0xbf9ab10a	-1.2085278
102	0xbe9894a9	-0.2980092
103	0xbe51b8a4	-0.20480591
104	0xbf45901a	-0.77173007
105	0xbf620384	-0.88286614
106	0xbeed592f	-0.46357104
107	0xbe75124f	-0.23932765
108	0xbf3be571	-0.73396975
109	0xbf13524a	-0.5754744
110	0xbf5a1ce6	-0.85200346
111	0xbef00017	-0.4687507
112	0xbf0a8e2c	-0.5412319
113	0xbd123d4f	-0.035703
114	0xbd1f3f3f	-0.038878676
115	0xbf96f5b7	-1.1793736
116	0xbf23f694	-0.64048123
117	0xbc2512fd	-0.010075328
118	0xbf1b7232	-0.60721123
119	0xbee31675	-0.4435307
120	0xbe084ada	-0.13309804
121	0xbfa0c66b	-1.2560552
122	0xbf77df4e	-0.9682511
123	0xbf57016f	-0.8398656
124	0xbf537aab	-0.8260905
125	0xbf3ccce6	-0.7375015
126	0xbf186bda	-0.5953957
127	0xbf438fec	-0.7639148
128	0xbf089ef4	-0.53367543
129	0xbf8dbd59	-1.1073409
130	0xbed1c8f0	-0.40973616
131	0xbf5e3385	-0.8679736
132	0xbe828fca	-0.25500327
133	0xbf199080	-0.59986115
134	0xbdb8412b	-0.08996805
135	0xbf89a12b	-1.075231
136	0xbf5f9256	-0.87332666
137	0xbe82f96d	-0.25580922
138	0xbf3efcac	-0.74604297
139	0xbf3f3fff	-0.74707025
140	0xbecb56fd	-0.39714804
141	0xbf2e9797	-0.6820006
142	0xbec4c78b	-0.3843349
143	0xbeeab0ee	-0.45838112
144	0xbeffafe3	-0.49938878
145	0xbf8e99f6	-1.1140735
146	0xbf5acd75	-0.8546975
147	0xbe3d6d35	-0.1849869
148	0xbf610fd3	-0.8791477
149	0xbe85fc9a	-0.26169282
150	0xbf159e7b	-0.58444947
151	0xbe1fc9f1	-0.15604378
152	0xbe97ada2	-0.2962466
153	0xbf92e202	-1.1475222
154	0xbf3805ce	-0.7188386
155	0xbf07ba05	-0.5301822
156	0xbf40fc40	-0.753849
157	0xbf628e31	-0.88498217
158	0xbf3f01ef	-0.74612325
159	0xbf2a3bba	-0.66497386
160	0xbf0566d0	-0.52110004
161	0xbf1af83b	-0.6053502
162	0xbc56db61	-0.013113827
163	0xbe9d3e71	-0.30711702
164	0xbe89d9b8	-0.2692392
165	0xbf2ec9c8	-0.68276644
166	0xbf5bfbc7	-0.85931057
167	0xbf03f2a3	-0.5154211
168	0xbeabd007	-0.3355715
169	0xbf3cce78	-0.73752546
170	0xbf578ffe	-0.8420409
171	0xbd26c1af	-0.040712055
172	0xbedf94bc	-0.43668163
173	0xbf613cd4	-0.8798344
174	0xbf629c5e	-0.8851985
175	0xbf4d74f5	-0.8025659
176	0xbf4ecc89	-0.80780846
177	0xbf655a5b	-0.89590997
178	0xbf3ed59c	-0.7454469
179	0xbf6ed50a	-0.9329382
180	0xbf63ba7d	-0.88956434
181	0xbf6fa10b	-0.9360511
182	0xbef6f23c	-0.48231685
183	0xbecb22ea	-0.39675075
184	0xbf2083bf	-0.6270103
185	0xbf22e8f4	-0.6363671
186	0xbf9167e2	-1.1359828
187	0xbef55868	-0.4791901
188	0xbf7bff56	-0.98436487
189	0xbf4f1f2c	-0.8090694
190	0xbe819761	-0.25310805
191	0xbf3b0a35	-0.7306245
192	0xbf07ff41	-0.5312386
193	0xbf24685a	-0.6422173
194	0xbea88d76	-0.32920426
195	0xbf06fad2	-0.5272647
196	0xbdf795dc	-0.1208913
197	0xbf38727e	-0.720497
198	0xbf1ed242	-0.6203958
199	0xbf7f6e6a	-0.99777853
200	0xbf91bea0	-1.1386299
201	0xbee523c7	-0.44753858
202	0xbf76d5f2	-0.96420205
203	0xbf648539	-0.8926578
204	0xbdf2a936	-0.11848681
205	0xbf4a1a5c	-0.7894647
206	0xbf61521c	-0.88015914
207	0xbec0fa00	-0.37690735
208	0xbf1545ee	-0.5830983
209	0xbedb4c0d	-0.4283146
210	0xbf8bed5c	-1.0931811
211	0xbf8968bd	-1.0735089
212	0xbf1a136a	-0.60185874
213	0xbf401dce	-0.7504548
214	0xbe39cb3f	-0.18143938
215	0xbef3f7dd	-0.47650042
216	0xbeb83810	-0.35980272
217	0xbea10d69	-0.31455544
218	0xbf23163c	-0.637058
219	0xbeceb8a9	-0.4037526
220	0xbf080d61	-0.53145415
221	0xbf0606d5	-0.52354175
222	0xbf10703f	-0.56421274
223	0xbf525384	-0.82158685
224	0xbf0ec6f6	-0.5577234
225	0xbec9599e	-0.39326185
226	0xbf734ae4	-0.9503615
227	0xbd885ed1	-0.0665871
228	0x3d808ccd	0.062768556
229	0xbf200a79	-0.6251598
230	0xbf15296c	-0.5826633
231	0xbf193fe0	-0.5986309
232	0xbf6beb79	-0.9215618
233	0xbf8d2208	-1.102601
234	0xbf056ac5	-0.5211604
235	0xbf3e950c	-0.7444618
236	0xbf64ba06	-0.8934635
237	0xbf81ab9f	-1.01305
238	0xbee8f808	-0.45501733
239	0xbdde0a9c	-0.10841867
240	0xbf811bc7	-1.0086602
241	0xbe7c6042	-0.24646094
242	0xbf24a6f3	-0.64317244
243	0xbf57ba4f	-0.8426866
244	0xbe0995b2	-0.1343601
245	0xbebec485	-0.37259308
246	0xbeeccd8f	-0.4625058
247	0xbefddce9	-0.49582604
248	0xbeae1d8d	-0.3400692
249	0xbee635ad	-0.44962826
250	0xbec7fa66	-0.39058226
251	0xbf0dbee9	-0.5536943
252	0xbf97cb17	-1.1858853
253	0xbf20af3a	-0.62767375
254	0xbf950795	-1.1642939
255	0xbf4cec8d	-0.8004845

fc2.weight f4 [400, 300]
0	0x3efefc2e	0.49801773
1	0xbd01acc8	-0.031658918
2	0xbdb344d8	-0.08753365
3	0xbf2e9cf9	-0.6820827
4	0x3dfdb960	0.12388873
5	0x3cf702cb	0.030152699
6	0xbe9ebf65	-0.31005397
7	0xbea7df18	-0.32787395
8	0xbe59dc78	-0.21275508
9	0x3f0cb35a	0.5496117
10	0x3e8ad820	0.27118015
11	0xbef44a67	-0.47713014
12	0xbed7e473	-0.4216648
13	0x3ecf087f	0.4043617
14	0xbd707d02	-0.058712967
15	0x3da68f39	0.08132786
16	0x3f266ca1	0.65009505
17	0xbdfc346f	-0.123146884
18	0x3c05a9f9	0.0081582
19	0x3da01f3f	0.0781846
20	0xbe97a9a7	-0.29621622
21	0x3e74fefc	0.23925394
22	0xbe505407	-0.20344554
23	0xbeb05163	-0.34437093
24	0xbe854b1d	-0.2603387
25	0x3d8b6db0	0.068080306
26	0xbec35226	-0.38148612
27	0x3b4338bf	0.0029788462
28	0xbe57690e	-0.21036169
29	0x3f4a0818	0.789186
30	0xbe87aa53	-0.26497135
31	0xbe7312ef	-0.23737691
32	0x3e5383eb	0.20655791
33	0xbf3da3ef	-0.7407827
34	0xbed6c71b	-0.4194878
35	0xbe9600cf	-0.29297492
36	0x3e27b2b6	0.16376767
37	0xbf046c0c	-0.51727366
38	0xbf26c72d	-0.6514767
39	0xbe891746	-0.2677557
40	0xbe7e2a42	-0.24820808
41	0x3ebbf32e	0.3670897
42	0xbf1662b7	-0.58744377
43	0x3ead6ea9	0.3387349
44	0x3ec18c45	0.3780233
45	0x3c26701d	0.010158566
46	0x3f2f367e	0.68442523
47	0xbed81b69	-0.42208412
48	0x3eff5065	0.49866024
49	0xbeafaba5	-0.34310642
50	0xbe8c43b2	-0.27395397
51	0x3e4dba65	0.20090635
52	0x3d93224a	0.071842745
53	0xbe73c7c6	-0.23806676
54	0xbf43aacf	-0.7643251
55	0xbf581a0f	-0.8441476
56	0xbe1472c1	-0.144969
57	0xbd0bd1ee	-0.03413575
58	0xbe1e4b4f	-0.15458415
59	0x3d3a18f4	0.045433953
60	0xbdfc38c8	-0.12315518
61	0xbda8a067	-0.08233719
62	0xbf08dcc6	-0.53461874
63	0xbe925487	-0.28580114
64	0xbee3a94f	-0.4446511
65	0x3df4b7f2	0.11949147
66	0x3e846778	0.2586019
67	0x3e80ac33	0.25131378
68	0x3cc7e934	0.024403192
69	0x3d339eb3	0.04385252
70	0xbdc8a24c	-0.09796581
71	0xbd22c5ee	-0.03973954
72	0xbd59cd21	-0.05317414
73	0xbecbb739	-0.39788225
74	0xbf0a7cf9	-0.54096943
75	0x3efc3ba0	0.4926424
76	0xbeba92d6	-0.36440152
77	0x3e6e3658	0.23262918
78	0xbf3ec3ee	-0.74517715
79	0xbda7cb45	-0.081930675
80	0xbeb15916	-0.3463828
81	0x3ea55ed4	0.3229891
82	0xbf27177d	-0.65270215
83	0xbef4b04c	-0.47790754
84	0x3e9c4bf4	0.30526698
85	0x3e673e3d	0.22582336
86	0x3e8b3d22	0.27195078
87	0xbf5798d7	-0.8421759
88	0xbf1bacb4	-0.608104
89	0xbe7c6e4e	-0.24651453
90	0xbee3dff9	-0.44506815
91	0xbedefbeb	-0.43551573
92	0xbf2332c4	-0.6374934
93	0xbe8dc792	-0.27691323
94	0x3ebbb252	0.36659485
95	0x3e581df3	0.21105175
96	0x3e8c9ee5	0.27464977
97	0xbc7c1298	-0.0153852925
98	0xbe8cc932	-0.2749725
99	0xbe7c1efe	-0.24621198
100	0xbe6bdcd1	-0.23033454
101	0xbe5d0e98	-0.21587598
102	0xbd2cf6d6	-0.04222759
103	0xbebe8c53	-0.37216434
104	0x3e002b2e	0.12516472
105	0xbf294b55	-0.6613057
106	0xbeb246c0	-0.34819603
107	0x3e485616	0.19564089
108	0xbdbcd25d	-0.09219811
109	0xbe9bb0be	-0.3040828
110	0xbf4c8a56	-0.79898584
111	0x3ef0a8b2	0.47003704
112	0x3f2561f6	0.646026
113	0xbc84899d	-0.0161789
114	0x3db83e0a	0.08996208
115	0x3d7d4839	0.061836455
116	0x3f4c0736	0.79698503
117	0xbf048e0a	-0.51779234
118	0x3de23df8	0.11046976
119	0x3d6a8c75	0.057262857
120	0x3e133dc9	0.14379038
121	0x3d0384ba	0.032109
122	0x3e99cb04	0.300377
123	0x3e9b1da9	0.30296066
124	0x3e895054	0.26819098
125	0xbeac1c44	-0.33615315
126	0xbf473aa8	-0.7782388
127	0x3be944cc	0.007118797
128	0x3e193499	0.1496147
129	0x3ee3e44c	0.44510114
130	0x3dce9b18	0.100881755
131	0xbe26c925	-0.16287668
132	0x3e4c11f3	0.19928722
133	0xbd99efe3	-0.07516458
134	0xbe036a1a	-0.12833443
135	0xbf02049c	-0.50788283
136	0x3ee5d0c5	0.4488584
137	0xbe9f43a1	-0.31106284
138	0x3da09706	0.078413054
139	0xbe161464	-0.14656216
140	0x3f1f2371	0.62163454
141	0xbe9d6633	-0.30742034
142	0x3edd3714	0.43206084
143	0x3ee2a9c9	0.4427016
144	0xbed67ab0	-0.41890478
145	0x3e65e561	0.22450782
146	0xbf10f45b	-0.56622857
147	0xbe97c101	-0.29639438
148	0xbdec4632	-0.11536826
149	0x3ec9f42b	0.39444098
150	0xbe2f63f6	-0.17127976
151	0xbea866a2	-0.32890803
152	0xbea418b0	-0.32050085
153	0xbec54741	-0.38530925
154	0xbf87f8f3	-1.0622848
155	0x3d7f50c5	0.062332887
156	0xbece644d	-0.40310898
157	0xbf3342b3	-0.7002365
158	0x3cf48c96	0.029852193
159	0xbeca4499	-0.3950546
160	0xbf03cc6d	-0.51483804
161	0x3c7c6c85	0.015406732
162	0xbe728494	-0.23683387
163	0xbeca849f	-0.39554307
164	0x3f521451	0.8206225
165	0xbd00e765	-0.031470675
166	0xbf7a627d	-0.9780653
167	0x3ef419f0	0.4767604
168	0xbf00b0f3	-0.50270003
169	0x3e1e6951	0.15469863
170	0x3edfee06	0.43736285
171	0xbf964ee4	-1.1742826
172	0xbe99c865	-0.300357
173	0xbdc2401c	-0.09484884
174	0xbe52884d	-0.20559807
175	0x3de2bd52	0.11071266
176	0xbf24442a	-0.6416651
177	0x3d4ad86a	0.049522795
178	0x3e2bb79a	0.16769257
179	0x3efc25c6	0.4924757
180	0x3e88180f	0.26580855
181	0xbf655c38	-0.8959384
182	0xbefed7d9	-0.49774054
183	0xbee1a785	-0.4407312
184	0xbf8c8651	-1.097849
185	0xbe465743	-0.19369225
186	0x3dca757a	0.09885688
187	0xbebd608e	-0.36987728
188	0xbf2281ce	-0.63479316
189	0x3eec7c0a	0.46188384
190	0xbed34de0	-0.4127035
191	0xbd5bb943	-0.053643476
192	0xbf2cc517	-0.67488235
193	0x3e613cf5	0.2199591
194	0xbf1fe666	-0.62460935
195	0x3d30a189	0.043122802
196	0x3f1900da	0.59766924
197	0x3eb173dc	0.34658706
198	0x3d9a116a	0.07522853
199	0xbe8064c7	-0.25076887
200	0xbecda11a	-0.40161973
201	0xbf44ab41	-0.7682381
202	0x3ebf23eb	0.3733209
203	0xbedfb6b0	-0.43694067
204	0xbe23e3de	-0.16004893
205	0x3ea9ef87	0.33190557
206	0xbf88c1e5	-1.0684172
207	0xbf9a97a3	-1.2077526
208	0xbe4ab38d	-0.19795056
209	0xbe6363f2	-0.22206095
210	0x3e66f4ab	0.22554271
211	0xbe1729b7	-0.14762007
212	0xbe6b040f	-0.22950767
213	0x3ed60ae5	0.41805187
214	0x3eb0e77f	0.34551618
215	0xbe3fe151	-0.18738295
216	0xbe169a7e	-0.14707372
217	0x3e060537	0.13087927
218	0x3cc928bf	0.024555562
219	0x3e2f4294	0.17115241
220	0xbf2ea01a	-0.68213046
221	0x3dc361b0	0.09540117
222	0x3e89d452	0.269198
223	0xbe7961bf	-0.24353693
224	0x3ed06e74	0.4070927
225	0xbf3ab3ed	-0.72930795
226	0x3ea90015	0.33007875
227	0xbe40b560	-0.18819189
228	0xbed115c8	-0.4083693
229	0x3dee8c05	0.116478
230	0xbfa91ebd	-1.3212506
231	0x3e6495da	0.22322789
232	0xbe29d27f	-0.16584204
233	0x3e56459a	0.20924988
234	0x3ed17824	0.40911973
235	0xbf18dc1f	-0.5971088
236	0xbf407231	-0.7517424
237	0x3f029b50	0.5101824
238	0xbd6ff296	-0.058580957
239	0xbd467ff8	-0.048461884
240	0xbbdc8b50	-0.0067304745
241	0xbcc7fe83	-0.024413353
242	0xbe81980c	-0.25311315
243	0xbd80892c	-0.062761635
244	0xbf18734a	-0.5955092
245	0xbea8fd4f	-0.3300576
246	0xbe63a969	-0.22232594
247	0xbf2de51d	-0.67927724
248	0xbf6557af	-0.8958692
249	0xbeb7e215	-0.35914674
250	0x3e1c684c	0.15274161
251	0xbc924369	-0.01785441
252	0xbeb028df	-0.34406182
253	0xbe99749a	-0.29971772
254	0xbf2ac570	-0.66707516
255	0xbcb17c4c	-0.021665715

fc2.bias f4 [400]
0	0xbe68b3e2	-0.2272487
1	0xbc1762b9	-0.009239846
2	0xbeeb7fc9	-0.4599593
3	0xbebde190	-0.37086153
4	0xbeefe997	-0.46857902
5	0xbe0044b6	-0.12526211
6	0xbe3acf76	-0.18243203
7	0xbf018d7b	-0.5060651
8	0xbee6280c	-0.44952428
9	0xbdaecf80	-0.08535671
10	0xbec6fbac	-0.38863885
11	0xbeb48569	-0.35258034
12	0xbec94b30	-0.39315176
13	0xbeb5f0e3	-0.35535344
14	0xbe84929b	-0.258931
15	0xbecd2f36	-0.40075082
16	0xbd7af9ab	-0.06127326
17	0xbec3815e	-0.38184637
18	0xbe593af8	-0.21213901
19	0xbef5d461	-0.48013595
20	0xbef1c39d	-0.47219554
21	0xbf372e6c	-0.7155521
22	0xbec3f94b	-0.38276133
23	0xbd87db87	-0.066336684
24	0xbecee662	-0.40410143
25	0xbe96b039	-0.29431322
26	0xbf248c4e	-0.6427659
27	0xbe48d5b7	-0.19612776
28	0xbdc20e9d	-0.094754435
29	0x3e0c1fb9	0.13683976
30	0xbe1ca248	-0.1529628
31	0xbd86db1a	-0.06584759
32	0xbe986a55	-0.29768625
33	0xbeb34164	-0.35010827
34	0xbf01bbca	-0.5067717
35	0xbdcb43d7	-0.09925049
36	0x3b9518e9	0.0045500887
37	0xbf2b5644	-0.66928506
38	0xbeaf7421	-0.34268287
39	0xbeddfae9	-0.43355492
40	0xbeeae891	-0.4588056
41	0xbf04a098	-0.51807547
42	0x3dfaa60d	0.12238703
43	0xbf236712	-0.6382915
44	0xbe9ed246	-0.310198
45	0xbeb28d68	-0.3487351
46	0xbea5763f	-0.32316777
47	0xbe0d1aeb	-0.137798
48	0xbf3b65d1	-0.73202235
49	0x3e220516	0.15822253
50	0xbd4514c8	-0.04811552
51	0xbec6d9e0	-0.388381
52	0xbed342a1	-0.4126177
53	0xbed751fd	-0.4205474
54	0xbe8e4ee0	-0.27794552
55	0xbee091d2	-0.43861252
56	0xbd99a81c	-0.075027674
57	0xbebf6645	-0.37382713
58	0xbe721819	-0.23642005
59	0xbeee9aba	-0.46602422
60	0xbecfb7d5	-0.4056994
61	0xbeb75f72	-0.35815006
62	0xbe420cc3	-0.1895018
63	0xbeebd77d	-0.46062842
64	0xbe6f37a0	-0.23361063
65	0xbe8dc0df	-0.2768621
66	0xbeaa5d22	-0.3327418
67	0xbd591948	-0.053002626
68	0xbe4bdaac	-0.19907635
69	0xbee5b622	-0.4486552
70	0xbf1e35e8	-0.61801004
71	0xbe5946e9	-0.21218456
72	0xbe42dbc8	-0.19029152
73	0xbd9d5d6d	-0.07683835
74	0xbe6cf476	-0.2314013
75	0xbd53483d	-0.051582564
76	0xbe3406c4	-0.17580706
77	0xbe1f1173	-0.15534
78	0xbed5857c	-0.41703403
79	0xbea59401	-0.3233948
80	0xbeb3a822	-0.35089213
81	0xbede24c5	-0.43387428
82	0xbe9b0ef1	-0.30284837
83	0xbf5934d8	-0.8484626
84	0xbedc6886	-0.43048495
85	0xbe4fefa1	-0.20306255
86	0xbeda23a5	-0.4260532
87	0xbe79721a	-0.24359933
88	0xbf35e8e8	-0.7105851
89	0xbe636c69	-0.22209324
90	0xbf14baa1	-0.58097273
91	0xbe294940	-0.16531849
92	0xbeeb3724	-0.45940506
93	0xbe612343	-0.21986108
94	0xbea00cf6	-0.31259888
95	0xbf06ea1f	-0.5270099
96	0xbec2bcb6	-0.380346
97	0xbf102b41	-0.56316
98	0xbd96111b	-0.07327481
99	0xbf49dfc0	-0.7885704
100	0xbea86228	-0.32887387
101	0xbf196b87	-0.599297
102	0xbf1af0ac	-0.60523486
103	0xbf484e44	-0.78244424
104	0xbea3e6b1	-0.3201194
105	0xbf6e7928	-0.9315362
106	0xbf0c0d7f	-0.54708093
107	0xbec1644d	-0.37771836
108	0xbe813c09	-0.25241116
109	0xbe110d01	-0.14165117
110	0xbe850b3a	-0.25985128
111	0xbe4889fb	-0.19583885
112	0xbebd7ade	-0.37007803
113	0xbdc0c965	-0.09413413
114	0xbf02262a	-0.50839484
115	0xbcaab324	-0.020837374
116	0xbf0dfc27	-0.5546288
117	0xbf112121	-0.56691176
118	0xbe6e782a	-0.23288026
119	0xbd9f50ad	-0.077790596
120	0xbe38add6	-0.18035063
121	0xbe8b2517	-0.27176735
122	0xbebc0e3c	-0.3672961
123	0xbf0e282e	-0.5553006
124	0xbf111db7	-0.56685966
125	0xbea35990	-0.31904268
126	0xbe1563c1	-0.14588834
127	0xbe197054	-0.14984256
128	0xbeb9e505	-0.3630754
129	0xbeeb42a0	-0.45949268
130	0xbe71a632	-0.23598555
131	0xbe3fe264	-0.18738705
132	0xbede06fc	-0.43364704
133	0xbea22349	-0.31667545
134	0xbf04d767	-0.5189118
135	0xbd593902	-0.053032883
136	0xbea4b06d	-0.32165852
137	0xbe86edd3	-0.2635332
138	0xbeae955e	-0.34098333
139	0xbf04b43e	-0.5183753
140	0xbeefacf1	-0.4681163
141	0xbf0bb855	-0.54578143
142	0xbe9d9957	-0.30781052
143	0xbf17fa0c	-0.59365916
144	0xbea157f2	-0.3151241
145	0xbe842d02	-0.25815588
146	0xbeddaa9b	-0.43294224
147	0xbd94ff96	-0.07275312
148	0xbf056b96	-0.5211729
149	0xbf37a4f1	-0.71736056
150	0xbe9ac190	-0.302258
151	0xbf3e4b75	-0.7433389
152	0xbe167ad3	-0.14695291
153	0xbec59f6a	-0.38598186
154	0x3e0beb06	0.13663873
155	0xbf04a299	-0.51810604
156	0xbe98f70a	-0.29875976
157	0xbef87b10	-0.4853139
158	0xbe0061fa	-0.12537375
159	0xbce4421f	-0.02786356
160	0xbe8e4056	-0.2778346
161	0xbe8528a2	-0.26007563
162	0xbf030cd9	-0.5119148
163	0xbe67d042	-0.22638038
164	0xbed2f3bb	-0.41201577
165	0xbf3800f5	-0.7187646
166	0xbe680415	-0.22657807
167	0xbe7048ed	-0.23465319
168	0xbeb43e27	-0.35203668
169	0xbef5687c	-0.47931278
170	0xbea48684	-0.32133877
171	0xbebe41ec	-0.3715967
172	0x3e3f8654	0.18703586
173	0xbe84f64f	-0.2596917
174	0xbefda0ad	-0.49536648
175	0xbf179040	-0.59204483
176	0xbee589fb	-0.44831833
177	0xbf1ca016	-0.6118177
178	0xbeab331f	-0.3343744
179	0xbe981432	-0.29702908
180	0xbdbcbdd1	-0.09215892
181	0xbe32c806	-0.17459115
182	0xbe5b1038	-0.21392906
183	0xbeacea56	-0.33772534
184	0xbf25f34b	-0.6482436
185	0xbe8c0222	-0.27345377
186	0xbdf24505	-0.11829571
187	0xbef3647b	-0.47537598
188	0xbf0b1e53	-0.54343146
189	0xbe9f58f6	-0.3112256
190	0xbe9a312d	-0.30115643
191	0xbea6533d	-0.3248538
192	0xbd97e8d7	-0.074174576
193	0xbe823340	-0.25429726
194	0xbf10b47e	-0.5652541
195	0xbf1263fc	-0.57183814
196	0xbf29fdfe	-0.66403186
197	0xbca5eb97	-0.02025394
198	0xbe7243af	-0.23658632
199	0xbebce704	-0.36895
200	0xbeae201d	-0.34008875
201	0xbe454e8c	-0.19268245
202	0xbf04c709	-0.51866204
203	0xbf030189	-0.5117422
204	0xbf38f553	-0.72249335
205	0xbe8e6774	-0.27813303
206	0xbea8238e	-0.32839626
207	0xbebdfcc7	-0.37106916
208	0xbe9077c7	-0.28216383
209	0xbed9dc0d	-0.42550698
210	0xbe327937	-0.17429052
211	0xbe471584	-0.19441801
212	0xbd6c8723	-0.057746064
213	0xbf0e1f67	-0.55516666
214	0xbe4a6ad6	-0.19767317
215	0xbf522530	-0.82087994
216	0xbe57981e	-0.21054122
217	0xbe98e972	-0.29865605
218	0xbf14e7bf	-0.58166116
219	0xbf1bf3a1	-0.60918623
220	0xbe73140c	-0.23738116
221	0xbed06571	-0.40702394
222	0xbe3e226d	-0.1856782
223	0xbe492ca0	-0.1964593
224	0xbe78120f	-0.24225639
225	0xbea8ca86	-0.32967013
226	0xbf1249f7	-0.5714411
227	0xbdfb7519	-0.12278194
228	0xbdc72f3d	-0.09725807
229	0xbd10ea8a	-0.035379924
230	0xbf161300	-0.5862274
231	0xbe81599d	-0.25263682
232	0xbeb7cafe	-0.35897058
233	0x3c0c97e4	0.008581135
234	0xbe527967	-0.20554124
235	0xbe813096	-0.2523238
236	0xbec336d9	-0.38127783
237	0xbf12546e	-0.5716008
238	0xbe80227c	-0.2502631
239	0xbee61494	-0.44937575
240	0xbd8626d9	-0.06550378
241	0xbc8d89cb	-0.017277619
242	0xbed9581a	-0.4245003
243	0xbf1b1d66	-0.60591733
244	0xbe936fff	-0.28796384
245	0xbe8e5230	-0.2779708
246	0xbd15275f	-0.0364145
247	0xbee16d31	-0.4402862
248	0xbeaa9220	-0.3331461
249	0xbf02ce42	-0.51095974
250	0xbef73fb2	-0.48290783
251	0xbda1430c	-0.07874116
252	0xbefa98af	-0.48944613
253	0xbf35d2f7	-0.7102503
254	0xbf1f5da6	-0.6225227
255	0xbeedc32f	-0.46437976

fc3.weight f4 [4, 400]
0	0x3de8929c	0.113560885
1	0xbee7ed25	-0.45298114
2	0x3e25a417	0.16175877
3	0xbf410fbb	-0.7541463
4	0xbd0e5abe	-0.034754507
5	0x3eeb4761	0.45952895
6	0x3ecce5db	0.40019116
7	0xbf03f6e2	-0.5154859
8	0x3e0f2ea5	0.13982637
9	0x3e8f13cc	0.2794479
10	0xbe27a981	-0.16373254
11	0xbea05f52	-0.31322724
12	0x3eed363b	0.46330437
13	0x3ea96171	0.33082154
14	0x3cea23f8	0.028581604
15	0x3ba81293	0.0051291673
16	0x3daf87bd	0.08570812
17	0x3e38e9f8	0.18058002
18	0x3e64cfdf	0.22344922
19	0xbe331ee9	-0.1749226
20	0xbec01780	-0.3751793
21	0xbe5b63d7	-0.21424805
22	0xbe7cd2d9	-0.24689807
23	0x3dd88f2d	0.105741836
24	0xbd5b19ab	-0.053491276
25	0x3d2f17a8	0.04274717
26	0xbed1ce75	-0.40977827
27	0x3e650747	0.22366057
28	0xbd846617	-0.064647846
29	0xbda4424f	-0.0802046
30	0xbe2c8d50	-0.16850781
31	0xbc27f5cc	-0.010251474
32	0xbc874c8f	-0.016515998
33	0x3ee9c112	0.45655113
34	0xbe728a9a	-0.23685685
35	0xbf52eb94	-0.82390714
36	0xbd87bc9c	-0.06627771
37	0xbc9849db	-0.018589905
38	0xbebf510c	-0.3736652
39	0x3e8e4691	0.27788213
40	0x3dd2dcfd	0.102960564
41	0xbdd2919e	-0.102816805
42	0x3d7bfd21	0.0615207
43	0x3f0d2384	0.5513232
44	0x3e43c334	0.19117433
45	0xbdb703c2	-0.089362636
46	0xbe7a92ec	-0.24470109
47	0x3ea9b213	0.33143672
48	0xbd1af568	-0.037831694
49	0x3e30bb6a	0.17258993
50	0x3edf81ba	0.4365366
51	0x3de54f94	0.11196819
52	0x3d2348ee	0.039864473
53	0xbe45b3f8	-0.19306934
54	0xbe29ce34	-0.16582566
55	0x3ecdc618	0.40190196
56	0x3e9dfc7f	0.30856702
57	0x3d91a3e6	0.07111339
58	0xbca18e17	-0.019721074
59	0x3eb8cddf	0.36094567
60	0xbba00189	-0.0048829955
61	0x3e0c80a3	0.13720946
62	0x3ee9d8f9	0.4567335
63	0x3e611138	0.21979225
64	0xbe89fdad	-0.26951352
65	0x3e1bbfe4	0.15209919
66	0xbf028d38	-0.5099673
67	0x3e219f5f	0.15783451
68	0x3e0711a2	0.1319032
69	0x3eb31c92	0.34982735
70	0xbec83488	-0.39102578
71	0x3e9e3cbb	0.3090571
72	0xbdef7852	-0.11692871
73	0x3e9fab96	0.31185597
74	0x3f48ec76	0.7848581
75	0xbdab4e47	-0.083645396
76	0x3d59ecf1	0.05320448
77	0xbea3d587	-0.31998846
78	0xbf033736	-0.5125612
79	0xbeb3f81d	-0.35150233
80	0x3cca425a	0.024689842
81	0xbeb13fc4	-0.34618962
82	0x3e504182	0.20337489
83	0x3e6a373a	0.2287263
84	0xbf55f794	-0.835809
85	0x3eee6299	0.465596
86	0xbe597874	-0.21237355
87	0xbe892727	-0.26787683
88	0x3ee0dc1a	0.43917924
89	0x3da58229	0.08081467
90	0xbbb89703	-0.0056332364
91	0xbee36562	-0.44413286
92	0xbe0f2fbd	-0.13983054
93	0xbd8e704a	-0.06955011
94	0xbec8f83f	-0.39251897
95	0xbf2bb777	-0.6707682
96	0x3dfdfb49	0.124014445
97	0xbe64050b	-0.22267549
98	0xbedde78c	-0.4334072
99	0x3eb7ce32	0.35899502
100	0xbeb6ee04	-0.35728467
101	0xbe136b10	-0.1439631
102	0xbef9b0ba	-0.48767644
103	0x3eaa3191	0.3324094
104	0xbeb58c2a	-0.354585
105	0x3ccc94ee	0.024973359
106	0x3e0891d7	0.13336883
107	0x3e9d296b	0.30695662
108	0xbd017842	-0.031608827
109	0x3d9a14dc	0.0752351
110	0x3e28ff63	0.16503672
111	0x3d447fe7	0.04797354
112	0x3d71cf90	0.059035838
113	0x3dcec4d0	0.10096133
114	0x3e9b692b	0.30353674
115	0xbe30df6f	-0.17272733
116	0x3e8abb43	0.27095994
117	0xbeee181e	-0.46502775
118	0xbe6b032b	-0.22950427
119	0x3d648e7e	0.055799954
120	0xbcd457a9	-0.025920706
121	0x3e4170e3	0.18890719
122	0x3d9eec0f	0.07759868
123	0x3be28bd1	0.00691364
124	0x3f13634f	0.5757341
125	0xbdce5f88	-0.10076815
126	0x3e9f7ff8	0.3115232
127	0xbc9286ce	-0.017886546
128	0x3d36cc93	0.04462869
129	0x3e42461a	0.18972054
130	0xbf066b5f	-0.52507585
131	0xbe84eadc	-0.25960433
132	0x3e026add	0.12736078
133	0xbe09fca7	-0.13475285
134	0x3e13cc6a	0.14433447
135	0xbb011f37	-0.0019702443
136	0xbe55be26	-0.20873317
137	0x3e59cadb	0.2126879
138	0x3d5f4ab7	0.054514613
139	0xbf074d30	-0.52852154
140	0x3b937f4c	0.004501259
141	0xbf0e5040	-0.555912
142	0xbe3087b4	-0.17239267
143	0x3eaa91a5	0.33314243
144	0xbdca8705	-0.09889034
145	0xbe8f9637	-0.28044292
146	0x3c93b887	0.018032325
147	0xbe0a6ae9	-0.13517345
148	0xbe056305	-0.13026054
149	0x3e7453f8	0.23860157
150	0x3e496336	0.19666752
151	0xbe414165	-0.18872602
152	0xbe5065c6	-0.20351323
153	0x3d4eef36	0.050521098
154	0x3e88acd5	0.2669436
155	0xbefddf0a	-0.49584228
156	0x3ef8e7ca	0.4861434
157	0x3e6accf3	0.22929744
158	0x3ee3ce20	0.44493198
159	0x3e3e878a	0.18606392
160	0xbe81b0d8	-0.25330234
161	0x3eeacd12	0.4585958
162	0xbeead5c9	-0.4586623
163	0x3e88a5ae	0.26688904
164	0xbe216a69	-0.15763249
165	0x3e0d20a4	0.13781983
166	0x3ed60484	0.4180032
167	0x3e956e8c	0.29185903
168	0xbebf4ecf	-0.37364814
169	0x3c40e7d2	0.01177402
170	0x3d11a754	0.035559967
171	0x3da25524	0.079263955
172	0x3ed9fd9c	0.425763
173	0x3d3f540b	0.04671101
174	0xbdcc37c5	-0.09971575
175	0x3db715bf	0.089396946
176	0xbecedd4e	-0.40403217
177	0x3c1c4955	0.009538968
178	0x3eb98d7a	0.3624075
179	0x3cb6aac5	0.022298226
180	0xbe12bd17	-0.14329945
181	0x3eac2ff6	0.3363034
182	0x3dda12d8	0.106481254
183	0x3d1cfdfb	0.038328152
184	0x3ec84557	0.39115402
185	0xbe2c2e48	-0.1681453
186	0xbdbe2699	-0.09284706
187	0x3ddde5cf	0.10834848
188	0xbf28fd9c	-0.6601198
189	0xbe3fd685	-0.18734176
190	0x3e369611	0.17830683
191	0x3ec5d366	0.38637847
192	0x3db1d341	0.086828716
193	0x3e9f0d63	0.310649
194	0x3ed97b1b	0.42476735
195	0xbe8dd5cf	-0.27702186
196	0x3ebad980	0.36494064
197	0xbd92fd00	-0.07177162
198	0xbed42821	-0.41436866
199	0x3f339f09	0.70164543
200	0x3e82eb17	0.25569984
201	0x3eaf1241	0.34193614
202	0x3f799921	0.9749928
203	0x3ea2a577	0.31766865
204	0x3ee44e04	0.4459077
205	0x3eb56085	0.354252
206	0x3ea3b7a8	0.31976056
207	0xbea0f452	-0.31436402
208	0xbf21f471	-0.63263613
209	0x3f025a45	0.5091899
210	0x3e6d7f66	0.2319313
211	0x3ed82f7a	0.42223722
212	0x3dad557b	0.0846357
213	0x3e3327b8	0.1749562
214	0x3dc0510c	0.093904585
215	0x3e0a2b31	0.13493039
216	0xbdbcdae7	-0.0922144
217	0x3ddc6f2e	0.10763393
218	0xbed403f3	-0.41409263
219	0xbee23bb2	-0.4418617
220	0x3d8f6039	0.07000775
221	0xbf4902cc	-0.7851989
222	0xbe7d51a1	-0.2473817
223	0xbe86c439	-0.2632158
224	0x3e8960a1	0.26831535
225	0xbebb4f12	-0.36583763
226	0x3e8250ad	0.25452176
227	0xbe1d4d34	-0.15361482
228	0x3da6087d	0.08107088
229	0x3db275aa	0.08713849
230	0x3f0eb358	0.55742407
231	0xbf02258c	-0.5083854
232	0x3e1707ab	0.14749019
233	0xbdba9816	-0.09111039
234	0x3c73022c	0.014832061
235	0xbef17e80	-0.47166824
236	0x3c1ee0b8	0.009697132
237	0x3ed27fde	0.4111318
238	0x3e02b082	0.12762645
239	0xbd8887b8	-0.06666511
240	0xbdc1ce4a	-0.09463175
241	0xbd299fc8	-0.041412145
242	0x3f16e24c	0.5893905
243	0xbe1fe6b8	-0.15615356
244	0xbe6df376	-0.23237404
245	0x3e21c625	0.15798242
246	0xbd89f249	-0.06735665
247	0xbe1ea4fa	-0.15492621
248	0x3e18c07b	0.14917175
249	0x3e414ff8	0.18878162
250	0xbd5eb4ae	-0.05437153
251	0xbc27c1ae	-0.010239048
252	0x3dbaa2a1	0.0911305
253	0xbe13cf6e	-0.14434597
254	0xbe54022a	-0.2070395
255	0x3e021147	0.12701903

fc3.bias f4 [4]
0	0x3db7b79d	0.08970568
1	0xbd88c697	-0.06678503
2	0xbdcd257d	-0.10016916
3	0x3e155dfa	0.1458663
