experiments/exp3/models/checkpoint_critic_9.pth (torch_old, 536855 bytes, 9 tensors)

fc1.weight f4 [300, 33]
000000 6c f5 af bd 80 a3 86 3d 27 9b 90 bc bb 5e 2b bd
       -0.085917324 0.06574154 -0.017652107 -0.04183839
000010 8c ff 77 3d b3 c6 f6 bc 62 0d 16 3d db 91 51 bc
       0.060546443 -0.030124044 0.036633857 -0.012791122
000020 00 c6 73 3c 5a b5 45 bc 49 61 6f b9 d5 e3 2d bc
       0.01487875 -0.012067163 -0.00022829058 -0.010613401
000030 ad 82 21 3c 22 b2 ed 3d c2 a0 ae bd 08 62 45 3c
       0.009857816 0.11606242 -0.08526756 0.012047298
000040 15 b4 84 bd 5f 3b a0 bd 99 9b 4b bd d6 cd c9 bd
       -0.064796604 -0.07823824 -0.049708936 -0.09853713
000050 ec ab f4 3b 79 fe 04 bc ed 90 89 3c 8c f3 e7 3c
       0.0074667837 -0.008117312 0.016792739 0.028314374
000060 13 09 d5 bc 99 8f 45 bc 56 48 69 bd c4 1f a3 3d
       -0.026005303 -0.012058162 -0.05695375 0.07965043
000070 ca 7f bc ba 7c 3a 5e bd 28 a6 97 bd 30 07 b3 bc
       -0.0014381346 -0.054254994 -0.07404739 -0.021854013
000080 83 1a 90 bd 36 42 a6 3d 4e 28 8e bb ae 9f ff bd
       -0.07036307 0.081180975 -0.004338301 -0.12481628
000090 50 4e 85 3d e0 4b 4b 3d 3f d2 24 3e 37 95 25 3c
       0.065090775 0.049632907 0.16095828 0.010106376
0000a0 b9 a9 bb bc 26 48 ca bd ae c3 6f 3c be 57 83 3c
       -0.022908079 -0.098770425 0.014634056 0.01603305
0000b0 25 be d1 3b 10 d2 4c 3c 8a e6 98 3b 4a e9 94 bc
       0.006400841 0.012501255 0.0046661543 -0.018177647
0000c0 a7 94 dc 3d 17 fd c7 bd d4 d2 82 3d ac 4c 18 bd
       0.10770541 -0.0976507 0.063878685 -0.037182495
0000d0 7b dc ab 3d 47 a7 01 bc 7b 8d e4 bc 3b a0 95 bb
       0.08391663 -0.007913417 -0.027899494 -0.00456622
0000e0 d5 8e 40 3d 57 5c 20 bd 94 e0 7b 3d b9 bb c8 3a
       0.047011215 -0.039150562 0.06149347 0.0015314735
0000f0 4e db ac bb 81 6e 3b bd 60 15 ab bb bc c8 c8 bc
       -0.0052751666 -0.04575968 -0.005221054 -0.02450978
000100 60 41 f3 3b b4 d2 83 3b 86 84 26 bc 91 b6 0c 3d
       0.007423565 0.0040229205 -0.010163432 0.034353796
000110 88 ba e1 3d 7d 41 8b 3d 8f c8 d5 3d 0a d3 5b bd
       0.11021906 0.067996 0.10438644 -0.05366806
000120 48 4b 87 be bc c2 ad 3c e3 3f d0 3c 17 48 af 3c
       -0.26424623 0.02121102 0.025421089 0.02139668
000130 69 7c 45 bb 74 b9 97 3b 88 fd a9 3c 68 5f 32 bd
       -0.0030133969 0.004630262 0.020750776 -0.043548018
000140 13 76 80 bc 7c 77 29 bd 89 56 9b bc 8b 89 e9 bd
       -0.015681302 -0.041373715 -0.018962162 -0.11403187
000150 0b 1b e6 3c b2 2f 27 be 74 53 43 3b ee 11 1b bd
       0.028089067 -0.16326788 0.002980438 -0.037858896
000160 dc 38 b0 3c e6 11 0b bc f8 ba 95 3c 32 ee 99 bc
       0.021511488 -0.008488154 0.01827763 -0.018790338
000170 81 9d 34 3d 1d b7 17 3e 36 8b e7 bc f6 72 a7 bc
       0.04409552 0.14815946 -0.028264623 -0.02044056
000180 ad a2 11 be c0 e4 f3 3a 2e 56 52 3e 98 ff 81 bc
       -0.14222212 0.0018607602 0.20540687 -0.015868947
000190 ba 93 79 3c 14 88 db bd a0 1f f5 3d b9 59 d3 bd
       0.015232975 -0.10719314 0.119689226 -0.103198476
0001a0 e1 35 a9 3d 02 dc 15 be 09 a4 82 bc 47 d1 0b 3d
       0.0826223 -0.14634708 -0.015947359 0.03413513
0001b0 65 9e 36 bd f7 c3 cd bc d0 06 06 bc 2c 98 30 bd
       -0.04458465 -0.025117857 -0.008180335 -0.043113872
0001c0 aa 90 45 3d 51 81 c9 3b f5 c7 2f bc b1 a2 38 be
       0.048233666 0.006149449 -0.010728826 -0.18030812
0001d0 52 8f 05 3e d7 60 1e be 0f 16 a6 3d 16 6a 01 3c
       0.13042954 -0.15466629 0.08109676 0.007898828
0001e0 d6 e6 df 3c 42 2d 89 3b 10 71 8c 3c 73 38 d5 3b
       0.02733175 0.0041863034 0.017143756 0.0065069734
0001f0 e3 03 2d bd 89 e5 c7 bc 0f d7 49 3d 3b ca 3b 3d
       -0.042240035 -0.024401443 0.04927736 0.04584716
000200 50 43 47 3d c4 a8 a9 3c 50 2c b8 bc 1f a0 4d 3e
       0.04864818 0.020710357 -0.022482067 0.20080613
000210 91 e0 84 bd 7a cd 8c bc 0b 26 c7 3c 10 88 4f 3c
       -0.06488145 -0.017187823 0.024310132 0.012666717
000220 e0 74 2f 3d a5 c7 e2 3c 2d 49 2b be 95 a7 02 bb
       0.04283607 0.027683089 -0.16727133 -0.0019936312
000230 11 b2 24 bc 66 f1 07 bd f2 be bf 3a 7f ca c2 3b
       -0.01005222 -0.0331892 0.001462905 0.0059445496
000240 69 0c af 3b ad 69 cd 3c 3d 68 cc 3b 00 98 d4 3c
       0.0053420556 0.025074804 0.006238012 0.025951385
000250 b2 41 85 bd 1e d8 66 bd 7b 72 36 3c cc 44 86 3d
       -0.06506671 -0.05635845 0.011135693 0.06556091
000260 1f 6f 83 3b bc 71 15 3b a7 44 38 3a 60 f5 89 3b
       0.0040110494 0.0022803387 0.0007029273 0.004210159
000270 67 a7 79 bb 6d 3c 65 3c 81 a9 94 bb 38 b1 87 3d
       -0.0038094164 0.013991457 -0.004536808 0.06625599
000280 0a f6 6a bd a4 56 ec bc 1a 0b c0 bd 3c 36 6b bd
       -0.057363547 -0.028849907 -0.093771175 -0.05742477
000290 49 d8 d2 3e 5a 5c 14 bd e6 ac a9 bd a5 d6 86 bc
       0.41180637 -0.036220886 -0.08284931 -0.016459772
0002a0 29 ea 04 be 60 e2 5d bd 4a 5b 49 3e ea 77 d5 3b
       -0.1297995 -0.054170966 0.1966373 0.006514539
0002b0 77 34 ed bc e0 04 27 3d 19 0d cb bd 51 bf 90 3d
       -0.028955681 0.040776134 -0.099146076 0.07067741
0002c0 e0 35 7c 3a da 78 95 3a fd 4c df 3d 29 bf a6 3d
       0.0009621065 0.0011403814 0.10903356 0.0814193
0002d0 c1 3b 89 3b 56 11 14 3d 1a f8 ff 3b da c8 c0 bd
       0.0041880314 0.036149345 0.0078115584 -0.094133094
0002e0 63 9b 81 bd d3 9e 01 3c 19 59 da bc 6a 15 9a bc
       -0.06328466 0.007911402 -0.026653813 -0.01880904
0002f0 01 6c f7 3c c6 ed e0 3b 71 5e 23 3c 0b 8b 0b bd
       0.030202867 0.0068642823 0.009971247 -0.03406815
000300 5b 95 8b 3d 99 96 ce 3b d8 f2 b2 3c ad 27 ce 3a
       0.06815597 0.0063045737 0.021844313 0.0015728377
000310 74 01 7f bc f5 32 5b 3e 07 7e f0 3c bd 95 3d bd
       -0.015564311 0.21406157 0.02935697 -0.04628538
000320 17 de ff 3c 20 09 24 3e 9c 58 26 be 67 16 56 3d
       0.03123383 0.16019106 -0.1624474 0.05226746
000330 0c 86 05 3e f6 04 07 bd f2 bf f4 bb 82 ea 1a bd
       0.13039416 -0.032963715 -0.0074691707 -0.0378213
000340 7f 2c 93 3d e5 c1 af bd 7e 63 34 3d da 31 ea 3c
       0.07186221 -0.08581904 0.044040196 0.028588224
000350 6c cd f1 bc ea e3 95 bb 10 2c bc 3c 36 f4 0f be
       -0.029516898 -0.0045742886 0.02297023 -0.14058003
000360 47 0a 63 3d 4e 0c 47 3e 78 c1 6f bd e7 02 5f bd
       0.055429723 0.19438288 -0.058534116 -0.054446127
000370 2c c8 25 3d 89 0d db 3c 59 51 64 bb 77 be bb 3c
       0.040474102 0.026739853 -0.0034838526 0.02291797
000380 69 e6 c5 bc d3 6d 6a 3d 96 81 ea bc 0e 6f 27 3d
       -0.02415772 0.057233643 -0.028626245 0.040877394
000390 66 28 b4 bc 6a 83 b4 bc e6 3b ab 3d 10 f8 3a bd
       -0.02199192 -0.02203532 0.08361034 -0.045646727
0003a0 97 33 e0 3c 9a 59 a0 3d 98 7d 6c be 7f c1 b4 bd
       0.02736835 0.0782959 -0.23094785 -0.08825969
0003b0 2e bc f0 bb 45 17 f9 bd a5 71 4d 3d c2 48 eb bd
       -0.0073466515 -0.121626414 0.050157208 -0.11488487
0003c0 77 8a c2 ba 3f 55 be bc 73 19 8c 3c 13 fc f0 3b
       -0.0014842291 -0.023234008 0.017101979 0.0073542683
0003d0 27 88 eb ba 48 72 44 bd 2a 54 1f bd 86 56 14 be
       -0.0017969654 -0.04796055 -0.038898624 -0.14486131
0003e0 2a d8 82 bd d5 c8 27 3e 16 35 3a 3d 52 91 cc 3c
       -0.06388886 0.16385205 0.045460783 0.024971638
0003f0 cd a8 88 3c 82 53 f6 bc 80 2d d7 bc 33 22 89 bc
       0.016682053 -0.030069117 -0.026266813 -0.01673994

fc1.bias f4 [300]
000000 9c ac 41 3d e7 a6 de 3d e1 45 ab bc 91 6d e7 bd
       0.047283754 0.10871678 -0.020907344 -0.11300195
000010 97 c7 f4 3c f1 6a 8a bd 24 41 9d bd 5d 3e 60 be
       0.029880328 -0.06758679 -0.0767844 -0.2189879
000020 fa 4b fc 3d 0a 92 4c bd ac eb bd bd b2 68 73 be
       0.12319179 -0.04994396 -0.092734665 -0.23770407
000030 a7 f1 ff 3d d0 77 d7 3c 14 48 a1 bd e5 ed d2 bd
       0.124972634 0.026302248 -0.07875076 -0.10299281
000040 28 6a c1 bb c0 57 b7 bc 04 4d c9 3c d6 88 16 3a
       -0.0059025474 -0.02238071 0.024572857 0.0005742436
000050 76 74 d6 3d 85 d4 29 be 57 83 c3 bd 26 3a f2 bd
       0.10471432 -0.16584976 -0.095465355 -0.11827497
000060 c0 27 04 3d d6 b1 93 3c f3 6a 9b 3b 71 46 0c be
       0.03226447 0.018029135 0.004742974 -0.13698746
000070 33 a1 cf 3d 8c 94 6b bd 74 ce 02 be 77 ba 49 bc
       0.10138168 -0.057514712 -0.12774068 -0.012312523
000080 ef aa 4c 3c 83 0a 0e bd 1b 90 86 bc 87 8f 66 bd
       0.012491926 -0.034677994 -0.016426137 -0.056289222
000090 9e 3a 53 bd 03 40 33 be 99 52 f2 3c 57 33 5e be
       -0.051569574 -0.17504887 0.029580401 -0.21699272
0000a0 68 d3 02 be 52 fc 45 be 45 90 82 bd 54 2c 32 be
       -0.12775958 -0.19334534 -0.063751735 -0.17399722
0000b0 2e 54 59 be de 85 f9 bd eb 87 79 be fe d3 82 bd
       -0.21223518 -0.12183736 -0.24368255 -0.063880906
0000c0 97 90 46 be 46 67 73 be 16 bf 10 be 6c c9 15 3d
       -0.19391094 -0.23769864 -0.14135394 0.036569044
0000d0 25 1f 20 be b9 63 d3 3c 89 e3 bd 3d 58 98 b9 bb
       -0.1563688 0.025804387 0.092719145 -0.0056639127
0000e0 6e 5b ce 3d 26 b2 13 be a0 0a 0a bd d1 2b 77 bd
       0.100760326 -0.14423427 -0.03370154 -0.06034452
0000f0 05 9d 98 3d 0f e1 d5 3c 57 21 01 be e0 20 0c be
       0.07451824 0.026108293 -0.12610374 -0.13684416
000100 ab eb 10 be 7c 4e da bd 14 c0 a7 bd 10 90 64 be
       -0.141524 -0.10659501 -0.08190933 -0.2232058
000110 3a eb e4 3d d3 0c c1 bd 69 4c 51 be 9c 87 09 bd
       0.111776784 -0.09426274 -0.20439304 -0.033576593
000120 fc bb 8f 3d 3e 38 a7 3d 3d 32 d3 bd e3 ba 04 be
       0.07018277 0.08165024 -0.103123166 -0.12961917
000130 e1 ca 3c bd ec f9 5d be e2 08 1e 3c 10 76 35 be
       -0.046091918 -0.21677369 0.0096456725 -0.17720819
000140 e9 b0 b9 bd 59 0a 2a be 48 28 44 be e6 e1 42 be
       -0.09066946 -0.1660551 -0.19155991 -0.19031486
000150 10 6e 56 bc d5 ee ee bc 47 83 24 3d 0c 15 5d bd
       -0.013087764 -0.029166618 0.04016426 -0.05397515
000160 9a 90 8b 3d 4a 07 74 bc 95 5c 28 be b4 90 68 be
       0.0681469 -0.014894316 -0.16441567 -0.2271145
000170 d1 92 36 be 11 31 5f be 15 1c 32 be f5 68 26 be
       -0.17829444 -0.21796061 -0.17393525 -0.16250975
000180 8b 71 90 be f2 6d 1d 3b e7 49 49 bd 56 8e 2d be
       -0.28211626 0.0024021831 -0.049142744 -0.16948828
000190 90 d9 d9 3c a4 a6 53 be cb 07 83 3d fa 3f d1 3d
       0.026593 -0.20669037 0.06397971 0.10217281
0001a0 e5 85 9b bd 54 40 24 be ff 8f c9 3d 35 3c c1 bc
       -0.07593898 -0.16040164 0.09841918 -0.02358828
0001b0 dc 70 69 be 02 95 f9 bd af 50 0e be e7 99 42 be
       -0.22796959 -0.12186624 -0.13897966 -0.19004022
0001c0 0a d8 17 be e0 d9 05 be e6 b3 03 bc 66 2e 19 be
       -0.14828506 -0.13071394 -0.008038497 -0.14959106
0001d0 09 37 85 be 65 ed 06 3e 0e 13 14 3e 4b a5 86 bd
       -0.2601855 0.13176496 0.14460394 -0.06574496
0001e0 6f 9b fd 3d 79 f1 63 be ed 49 4f be d6 fd b1 bd
       0.12383162 -0.22260083 -0.20243044 -0.086909935
0001f0 c7 fc 0f be a5 fe ec bd 35 e6 3c be fc 36 1c 3e
       -0.1406127 -0.11572007 -0.18447192 0.1525535
000200 7e 70 a6 bd 10 80 2f 3c 4b 0a 1d be f6 6b 1b be
       -0.08126925 0.010711685 -0.15335958 -0.15177903
000210 27 4d 05 be 83 21 80 3c c2 13 b9 bd 33 fa 88 be
       -0.13017713 0.01564098 -0.09036972 -0.26753387
000220 de 5e 49 be 8e 60 4d bc fe 68 5c be 76 bb 1d 3d
       -0.19665095 -0.012535227 -0.21524426 0.038508855
000230 57 3a fc 3c 16 47 b4 3d 9a 50 4a 3d 74 ec 07 be
       0.030789537 0.08802621 0.049393274 -0.13273793
000240 e8 0b 88 bd 1f 40 40 3c 3a 9e 5e be 97 1f 36 be
       -0.06642896 0.011734038 -0.21740046 -0.17785488
000250 23 42 68 be 01 fc 26 3d 64 4a 02 be d4 b0 db 3c
       -0.22681479 0.040767673 -0.1272369 0.026817717
000260 cb 59 e3 bc 5c 81 59 be 9a 51 ee 3d 83 e8 3d be
       -0.027752778 -0.21240753 0.11636658 -0.18545727
000270 10 f9 26 be 42 0f 3f be 18 a8 4c be 50 64 1a be
       -0.16305947 -0.18658164 -0.19985998 -0.15077329
000280 d5 11 71 3d 2b f5 d0 bd b4 9a ee 3d 02 87 54 be
       0.058854897 -0.10203012 0.11650601 -0.20754626
000290 2f 90 35 bd c3 4b da bd 61 45 46 be d9 21 58 bd
       -0.044326957 -0.10658982 -0.19362403 -0.052766655
0002a0 78 bf 11 be 51 4d b8 bd b1 c9 b9 bd 20 22 95 3c
       -0.14233196 -0.08999122 -0.09071673 0.018204749
0002b0 65 f7 1c be dd 0a 50 be b5 42 51 be f5 c5 14 be
       -0.15328749 -0.20316644 -0.20435603 -0.1452864
0002c0 3f b2 6a 3d 1f 47 52 be cb 62 e4 3d 32 44 f2 bd
       0.057298895 -0.20534943 0.11151656 -0.118294135
0002d0 40 7e be 3d d6 08 13 be 11 8d 2a be 25 26 d0 bd
       0.09301424 -0.1435884 -0.16655375 -0.101635255
0002e0 e6 d5 1c be 47 4f 45 bc db 4b ca bd ca c1 4d bc
       -0.15315971 -0.012042827 -0.098777495 -0.01255841
0002f0 0c 94 29 bd 3a 86 17 be ee 7a 04 3e 89 26 ba bd
       -0.041400954 -0.14797297 0.12937519 -0.09089381
000300 70 8f ce bd b6 e4 8f 3d f9 3c 32 bc 2f 64 73 be
       -0.10085952 0.07026045 -0.010878795 -0.23768686
000310 25 33 12 bc 17 eb 07 bd 9b 4b 93 bd 36 42 27 3c
       -0.008923327 -0.033183184 -0.07192155 0.010208657
000320 68 89 70 be 95 a6 22 be c4 57 7b be 44 c7 d0 3c
       -0.23489916 -0.15883859 -0.24545199 0.025485642
000330 c5 12 22 3d a9 81 27 3e 5b 5f 7a 3d 70 ad 73 bd
       0.03956868 0.16358055 0.061126094 -0.059491575
000340 8c ba 64 bd 65 14 2d bd b9 cc 2d be 12 ca 2d be
       -0.055841967 -0.042255778 -0.16972627 -0.16971615
000350 5f 5c 08 3d 55 88 f7 bd 04 94 a8 bb cd f6 3f bc
       0.033291217 -0.1208655 -0.005144598 -0.011716557
000360 ca b9 ae 3d fe 92 ee bd 9c a5 7c bd 0f 9a 5c 3e
       0.0853153 -0.1164913 -0.061681375 0.21543144
000370 09 d4 3f be 7c 7e e8 bd 17 24 f9 bd a3 7e 44 bd
       -0.18733229 -0.1135225 -0.12165087 -0.047972333
000380 88 75 ac 3d 30 06 2e bd 23 f0 ff bd e8 06 e5 bd
       0.08420855 -0.04248637 -0.12496974 -0.11182958
000390 d7 15 9c bc 4e 5f 37 be 1b c8 6c bc be 6f 29 bd
       -0.019053383 -0.1790745 -0.014452006 -0.04136633
0003a0 dc a9 e4 3d 98 80 20 be b1 78 2a bc ed c3 70 be
       0.111652106 -0.15674055 -0.010404752 -0.2351224
0003b0 9d bd 26 ba 49 b8 33 3d 0e 18 96 be ab b7 cf 3d
       -0.0006360652 0.04387692 -0.29315227 0.10142454
0003c0 d0 6f da bd 52 6c 65 be 8f 02 12 3e 60 e9 84 bd
       -0.10665858 -0.22404602 0.14258789 -0.06489825
0003d0 2f c4 5e bc d7 cb c6 bd dd fc dc bc 3c 20 1a be
       -0.0135965785 -0.09706848 -0.026976043 -0.15051359
0003e0 ca 92 bf bc 72 e8 8e bd f9 2d 8e 3d 4d e6 2d bd
       -0.023385424 -0.06977929 0.06942362 -0.04245596
0003f0 fd e4 cd bd a5 cc bf 3c a2 37 95 be 1c 39 02 be
       -0.10053442 0.023413012 -0.29144007 -0.12717098

bn1.weight f4 [300]
000000 d1 23 95 3e b8 57 61 3f 08 0b c6 3e 86 6a 2f 3f
       0.29128888 0.88024473 0.3868029 0.68521917
000010 b6 57 68 3f e1 ad 54 3f 0a 44 de 3e 90 c9 93 3e
       0.90758836 0.8307782 0.43411285 0.28864717
000020 15 07 52 3f 28 2d a4 3e a1 cc 1c 3f 97 af 47 3f
       0.82042056 0.320657 0.6124974 0.78002304
000030 c5 94 07 3f 04 27 13 3f fc b4 9a 3e da e8 c0 3e
       0.5296138 0.5748141 0.30216205 0.37677652
000040 56 50 00 3d e5 cc cf 3e dd 43 85 3e 6a 05 0c 3f
       0.031326614 0.4058601 0.26028338 0.5469576
000050 33 1e 47 3f 2e 58 65 3f 3f 5b 4c 3f 71 bc 5b 3f
       0.77780455 0.89587677 0.7982673 0.85834414
000060 8b 80 56 3e 88 f0 3c 3e bf 7b 1b 3f d4 18 44 3f
       0.20947473 0.1845113 0.60735697 0.76600385
000070 8d cd ed 3e 52 7c d2 3e 6e 93 85 3f 87 54 63 3f
       0.46445885 0.41110474 1.0435617 0.88800853
000080 4a f9 d6 3e a8 cc 00 3f 20 eb 66 3f 2e a6 fd 3e
       0.41987067 0.5031228 0.9020252 0.49540848
000090 ac 02 e6 3e 12 fd ca 3e 80 08 72 3e f4 9b aa 3e
       0.44923913 0.39646202 0.23636055 0.33322108
0000a0 af fc 84 3e 6f 8e dd 3e 5d dd bf 3e 72 fa 51 3f
       0.25974032 0.4327273 0.37473574 0.82022774
0000b0 66 ba d9 3e 44 38 74 3f b1 06 cb 3e 9a ce 4d 3f
       0.42525023 0.95398355 0.39653543 0.80393374
0000c0 0b 35 72 3e d2 e1 b9 3e 4c 10 ec 3e 24 ed fb 3e
       0.23653047 0.363051 0.46106184 0.4920436
0000d0 a4 dc 16 3f 04 c8 0a 3f d1 83 fb 3e 88 21 b1 3e
       0.5893042 0.5421145 0.49124005 0.34595895
0000e0 5b ed 12 3f 9d c3 2f 3f 1d 90 3e 3f 7b 12 15 3f
       0.57393426 0.6865786 0.7443865 0.58231324
0000f0 86 bb f7 3e 91 f8 50 3f a5 0b 5d 3f e5 aa 60 3f
       0.48385257 0.8162928 0.86345893 0.87760764
000100 c7 2e 26 3f 81 4b 48 3f 01 22 2e 3f cd d6 3d 3f
       0.64915127 0.7824021 0.68020636 0.74155885
000110 17 d0 4d 3f f6 42 68 3f 48 15 e8 3e 7d ae 5c 3e
       0.80395645 0.90727174 0.45328736 0.21550937
000120 97 73 24 3f 28 3d 46 3f 05 4e fd 3e ba 1c 2d 3f
       0.64238876 0.7743707 0.49473587 0.6762196
000130 e6 a5 4f 3f c0 06 03 3f b4 76 18 3f dd 7c 38 3f
       0.81112516 0.51182175 0.59556127 0.72065526
000140 1a c5 58 3f af c9 a9 3e a7 c0 07 3f 81 e8 07 3f
       0.84675753 0.33161685 0.5302834 0.5308915
000150 37 7b 5d 3f 74 02 fe 3d 15 83 2a 3f 32 32 fd 3e
       0.86516136 0.12402812 0.66606265 0.49452358
000160 70 32 e9 3e d4 79 7c 3f 01 c7 81 3f 99 81 6f 3f
       0.45546293 0.98623395 1.0138856 0.93557125
000170 8c a7 59 3f 3e 04 36 3f c4 5a 79 3f b5 9f 41 3f
       0.8502128 0.71100223 0.9740412 0.7563432
000180 60 9b 1e 3f 76 a3 22 3f d6 69 51 3f e2 c4 bf 3e
       0.61955833 0.6353067 0.8180212 0.37454897
000190 b3 64 15 3f a2 5a b6 3e 37 fe 30 3f c1 d6 e1 3e
       0.5835678 0.35616022 0.691379 0.44109157
0001a0 43 8d 47 3f 7d 34 6d 3f 71 4c 85 3f bc 18 b9 3e
       0.77949923 0.92658216 1.0413953 0.36151683
0001b0 fc 8d 1c 3f a9 09 16 3e f9 6c e6 3e 60 ed 6e 3f
       0.6115415 0.14652123 0.45005015 0.93330956
0001c0 4c ad 73 3f ae f6 02 3f f2 0b 10 3f 4f 50 19 3f
       0.95186305 0.51157653 0.5626823 0.59888166
0001d0 5e 06 4d 3f 3e e4 25 3f 3d 1c 44 3f 15 71 dd 3e
       0.8008784 0.64801395 0.7660559 0.43250337
0001e0 b0 89 3f 3e 2f 1d 03 3f dd c1 da 3e 87 e0 91 3e
       0.18704867 0.51216406 0.4272603 0.28491613
0001f0 bf 39 01 3f 55 3b 29 3e 00 c4 82 3f 88 76 ab 3e
       0.5047874 0.1652654 1.0216064 0.3348887
000200 1d 5a 60 3f 16 9d 2b 3f 79 97 85 3e 1c 35 85 3e
       0.876375 0.6703657 0.26092127 0.26017082
000210 c4 25 81 3f 85 e5 b8 3e 1d 71 49 3f 22 b6 07 3f
       1.008965 0.3611261 0.7868822 0.5301229
000220 41 6c 16 3d 3d 78 22 3f ce 64 07 3f 31 ad 41 3f
       0.036724333 0.6346472 0.5288819 0.75654894
000230 f4 7c 43 3f ee 16 ff 3e 1a 09 84 3f 2a 19 0f 3f
       0.7636254 0.4982218 1.0315278 0.5589777
000240 2a 43 b9 3e 09 94 ad 3e e8 5e 40 3f 54 ab 14 3f
       0.36184055 0.33902004 0.75144815 0.58073926
000250 6f d5 dd 3e 21 e5 44 3f f0 8a 59 3e 40 24 c4 3e
       0.433269 0.7691212 0.21244407 0.38308907
000260 2a 6f 4f 3f 8e 06 7c 3f 3a 6b 9b 3e 47 97 5c 3f
       0.81029 0.984475 0.30355245 0.8616833
000270 ee 4f 88 3e 80 b5 21 3f cc c7 57 3f 84 00 75 3f
       0.26623482 0.6316757 0.8428924 0.9570391
000280 61 77 a8 3d 1f 17 b5 3e 66 0d e9 3d bd 5c 14 3f
       0.08225895 0.35369202 0.11379509 0.5795401
000290 bd c4 84 3f c0 ee 35 3f 00 f0 57 3f be 16 3f 3f
       1.037254 0.7106743 0.84350586 0.74644077
0002a0 15 5b 56 3f fb 0a 3d 3f ea 4f 02 3f 59 4c 3d 3f
       0.8373273 0.7384488 0.5090319 0.7394462
0002b0 0b 2b 0b 3f 2d 0f 5d 3f 12 32 e3 3e 50 cd 18 3f
       0.54362553 0.8635128 0.44374138 0.5968828
0002c0 8b 53 69 3f 1b b2 34 3f 6a 6d 1a 3f 4a d7 ed 3e
       0.911431 0.7058427 0.603232 0.46453315
0002d0 1d e6 73 3e 5a 8e 6b 3f 1f a3 bd 3e 20 00 b4 3e
       0.2381825 0.92014086 0.37038514 0.35156345
0002e0 df be de 3e b2 1b 0f 3f e2 33 26 3f a7 32 29 3f
       0.43504998 0.55901635 0.64922917 0.66092914
0002f0 35 e9 15 3f 31 75 83 3e 12 31 0a 3f 8f e1 69 3f
       0.5855897 0.25675347 0.53981125 0.913598
000300 ea 42 de 3e ee ee 0d 3f 34 d3 12 3f fa ca 5b 3f
       0.43410426 0.554427 0.5735352 0.8585659
000310 03 0f ac 3e 35 65 4d 3f 47 f5 fd 3e 54 a7 67 3f
       0.33605203 0.80232555 0.49601194 0.904897
000320 47 64 76 3f e0 cc 37 3f 55 0d 67 3f 14 0d 2d 3f
       0.9624676 0.7179699 0.9025472 0.6759808
000330 79 56 76 3f 6b 46 39 3f ca 06 4b 3f 7f ac 79 3f
       0.96225697 0.72373074 0.79307234 0.97528833
000340 bd 62 cc 3e 23 58 22 3f c2 92 5a 3f ad 0a d4 3e
       0.3991908 0.63415736 0.85380185 0.41414395
000350 25 3e 14 3f 99 ae 25 3f 05 ea 82 3f a0 0f 44 3f
       0.57907325 0.6471954 1.0227667 0.7658634
000360 12 22 60 3f 6b 3a 3d 3f 9b 25 64 3f ba 50 4c 3f
       0.8755199 0.73917264 0.8911988 0.7981068
000370 4f 59 08 3f 57 a9 85 3e c1 14 4b 3e c4 4f 6c 3f
       0.53261274 0.2610576 0.19832136 0.9230921
000380 8e 63 2b 3f 18 6c 58 3e 8e bd a9 3e 08 63 b8 3e
       0.66948783 0.21134984 0.3315243 0.36013055
000390 f2 5a 1c 3f d1 c4 07 3f e9 76 25 3f 3d de 23 3f
       0.6107627 0.53034693 0.6463457 0.64010984
0003a0 5c dd fb 3e 55 b4 71 3f 3c 4e 55 3f 4b e4 46 3f
       0.4919232 0.9441579 0.833225 0.776921
0003b0 88 8a 21 3f d5 ca a1 3e b3 77 24 3f 57 03 79 3f
       0.63102007 0.3160006 0.64245147 0.9727072
0003c0 50 08 17 3f a3 c3 3d 3f 67 b6 5d 3f 90 c0 80 3f
       0.5899706 0.7412664 0.8660645 1.0058765
0003d0 ba 1f 73 3e d0 eb 53 3f b2 99 73 3f 75 17 69 3f
       0.23742571 0.82781696 0.95156395 0.9105142
0003e0 fe 1f 18 3e fe 86 6c 3e ce 0e 16 3f e8 0b 9f 3e
       0.14855954 0.2309837 0.5861634 0.3106377
0003f0 68 11 1f 3f 0b f9 1b 3f 96 d4 2c 3f 1e 3a e1 3e
       0.62135935 0.60926884 0.6751188 0.43989652

bn1.bias f4 [300]
000000 fa a2 95 3d 83 9e c4 3c 23 e9 89 3d 06 29 20 bc
       0.07306476 0.024001366 0.067339204 -0.009775406
000010 56 7d 9f 3c 5a df 02 3c 9f 83 3f bc 42 fb a0 bd
       0.019468945 0.0079878215 -0.011689096 -0.078604236
000020 7a 66 b9 bb e0 30 6a 3a ac f6 10 be 00 04 c0 3d
       -0.005657968 0.00089336745 -0.14156598 0.09375763
000030 50 69 d3 bd a9 68 3d ba ed d0 90 3d 6f da 0a 3c
       -0.10322821 -0.00072253734 0.070710994 0.00847493
000040 6b 72 3a be 5f be eb 3d 8a 86 2b bd ed 94 53 3d
       -0.1820771 0.1151092 -0.041876353 0.0516557
000050 ab 49 f9 bd 33 57 93 bc bf b5 5b bd 59 83 f4 3d
       -0.12172254 -0.017985916 -0.053640123 0.11939115
000060 fb 60 a8 bb 8a f3 91 bd 0d 59 06 bd 87 28 30 3e
       -0.005138514 -0.071265295 -0.03279977 0.1720296
000070 b6 fc 61 3d f7 be 45 3d 89 98 e8 3c e7 a1 b8 3d
       0.055172645 0.04827782 0.028393047 0.090152554
000080 70 c7 3f bd 3a f5 77 bd 35 9e 48 bd 6d 1a 5f 3c
       -0.046821058 -0.0605366 -0.048979003 0.01361714
000090 43 5b 2a bd de 23 e1 bc ac be de bb 6c 6d 82 bd
       -0.04159094 -0.027482923 -0.006797632 -0.06368527
0000a0 29 30 e8 3c af c9 53 bd 60 c2 58 bd 27 e2 a8 3c
       0.028343277 -0.051706012 -0.052919745 0.02061565
0000b0 f6 00 97 bb e9 d9 47 3d c1 ac 2b 3d 7b fd 3c bd
       -0.004608269 0.0487918 0.041912798 -0.046140175
0000c0 dd 8b 44 bc 99 2b 46 bd 48 d4 e8 3c a1 c1 20 bd
       -0.011996237 -0.04838142 0.028421536 -0.03924716
0000d0 75 bc 95 3c 63 34 88 3d 3c 57 d1 bc 44 af b3 bd
       0.01827834 0.06650617 -0.025554292 -0.08773664
0000e0 b4 8f 37 3d 0e 70 f0 3d 59 d3 38 3e 39 1f 4f 3c
       0.04481478 0.11740123 0.18049373 0.012641721
0000f0 94 d2 a8 3d d7 1b 7e 3b 3c 15 86 3b fa 85 00 3e
       0.082432896 0.0038773918 0.004091887 0.12551108
000100 07 1d c9 3c fa 3a 8b bd 8b b6 05 bd 2d 35 0b 3e
       0.024549974 -0.06798358 -0.03264479 0.13594504
000110 33 53 a7 3d 8f 88 c9 3d 17 50 71 3c 07 77 40 3e
       0.08170166 0.098404996 0.014728568 0.18795405
000120 5b 5f 8e 3d ea 06 c7 bc 6d 29 d9 bd a2 d7 44 3c
       0.06951781 -0.02429529 -0.106036045 0.0120143015
000130 38 c7 b4 3d 29 c2 5e bd f0 de d9 bb 2c f0 cf 3c
       0.088270605 -0.054384384 -0.0066488907 0.025383078
000140 3b eb d6 3c cd 55 08 bd 20 83 6b bb 12 5a ff bc
       0.026235214 -0.03328495 -0.003593631 -0.031170879
000150 b7 d9 c9 3d 2b 77 12 bd 4e 39 2c bd c4 3f 6b 3c
       0.09855979 -0.03575818 -0.042046838 0.014358465
000160 fb 5a bc bc 5c 8f bf 3d 6e fd 21 bd 28 44 13 3b
       -0.022992602 0.093535155 -0.03954833 0.0022471044
000170 50 9a 2b 3d 8b ce 7c bd 99 fa 6e 3d 79 f8 9d 3d
       0.04189521 -0.061720412 0.058344457 0.07713408
000180 f8 86 b6 bd 3b 85 6b 3d d8 0c 28 3e cb 08 8c 3c
       -0.08912462 0.057500105 0.1641115 0.017094037
000190 0f 20 88 ba aa c7 3f be c0 dc 1c 3e 5f c0 31 bb
       -0.0010385531 -0.1872851 0.15318584 -0.0027122719
0001a0 4a e4 b8 bd 12 22 0f bc 7f 37 7b 3c 7d f5 8f 3d
       -0.09027918 -0.00873615 0.0153330555 0.07029245
0001b0 33 6d 52 bc af 99 84 3d d4 ab 40 3d 57 82 1b bb
       -0.012843418 0.06474625 0.047038868 -0.0023728812
0001c0 9f fe a4 bd 6f 14 ec 3d f0 50 18 3d 22 b2 bc 3d
       -0.080563776 0.11527335 0.037186563 0.09213664
0001d0 ea b9 65 bd f0 09 09 3e 84 b6 b5 bd a5 21 a9 3c
       -0.056085505 0.13382697 -0.08872703 0.020645926
0001e0 78 ed 54 3d d2 27 91 3b c6 01 1a 3d ff 74 6b be
       0.05198428 0.004429796 0.037599348 -0.22993849
0001f0 04 73 dc 3d 15 f5 9d bc f9 fe 51 3e e1 bd 7b bd
       0.10764125 -0.019281903 0.2050742 -0.06146038
000200 27 2f 2c 3e 50 26 fd 3d 34 1b 1a bb 8d 8a c6 3c
       0.16814862 0.12360823 -0.002351475 0.024235988
000210 0b 0b 3f 3e bf 51 c7 bc 10 db 6f 3e 74 ec bd bd
       0.18656556 -0.024330972 0.2342341 -0.092736155
000220 16 32 1f 3e bf 8d da 3d 90 0b 21 3d a8 c5 b6 3d
       0.1554645 0.10671567 0.039317667 0.08924419
000230 19 51 bc 3d 46 4e 39 3d 77 9f b3 3d fe 33 94 bc
       0.09195156 0.045240663 0.0877065 -0.018091198
000240 98 95 aa 3d 94 21 f0 3c 11 05 8c 3d db 48 39 3d
       0.08329314 0.029312886 0.06836904 0.045235496
000250 ab 8e 2c 3e cb 1f 92 bd d8 72 c3 3d c5 c5 ac bd
       0.16851299 -0.0713497 0.09543389 -0.08436159
000260 55 4a b5 3d 39 f1 92 bd 84 48 86 bd 08 f7 e9 3d
       0.08852068 -0.07174916 -0.065568 0.114240706
000270 21 b0 a7 3d 1f 32 f7 3b 5c aa 3c bd 26 5c 69 3c
       0.08187891 0.0075438167 -0.046060905 0.014243161
000280 74 ab 03 be 21 df 1d 3d 9d 7e 24 be c3 ca 5f 3d
       -0.12858373 0.03854287 -0.16063924 0.054636728
000290 04 6e d3 3c a9 67 16 3d 9d df 86 3d fa de 5c bd
       0.025809295 0.03671995 0.065856196 -0.053923585
0002a0 a6 f3 c8 bc 39 82 87 bd 43 c5 00 be 1f 6b ae bd
       -0.024530243 -0.06616635 -0.1257525 -0.085165255
0002b0 bd 44 26 3d c6 45 8e bc da 78 41 3d 6d 66 21 be
       0.040592898 -0.017367255 0.047234394 -0.15761729
0002c0 9a cc f0 3c 7b 42 b2 3c c3 04 4c bc a7 3f e9 3d
       0.029394437 0.021760216 -0.012452307 0.11389094
0002d0 be ac 24 bc dd ea 36 bc 07 8a 9c 3c c6 9a d6 bc
       -0.010050951 -0.011164394 0.019108785 -0.026196849
0002e0 8a 83 c4 3d b3 99 d4 3b d8 61 f2 bb e3 1c a9 3b
       0.095954016 0.006488049 -0.007396918 0.0051609143
0002f0 6c 84 c6 3d 41 47 8e bc af b9 8c 3d 10 5b 89 bd
       0.09693226 -0.01736796 0.06871354 -0.06706822
000300 45 6b 83 3c 87 55 75 3d be aa 27 be 86 bb ad 3d
       0.016042361 0.05989602 -0.16373727 0.08483033
000310 9c c7 3c bd f8 89 00 3e f3 2e 15 3b 6d 20 2d 3c
       -0.0460888 0.12552631 0.002276358 0.010566813
000320 36 e8 40 3e 6f 5a 88 3b da da b9 3c 5d 1a 6f be
       0.18838581 0.004161171 0.022687364 -0.233499
000330 78 95 27 3d 70 f3 24 bd 96 b8 8d 3d ef 32 4b bd
       0.04091403 -0.040271223 0.069199726 -0.04960912
000340 32 e4 de 3d 89 fe c2 3d e5 16 14 3e ce 2d 2c 3d
       0.108833686 0.09521205 0.14461859 0.04203587
000350 5a df 4a 3c 6c 5f a6 3d c3 fe dc bb 52 96 75 3c
       0.012382353 0.08123669 -0.006744237 0.014989452
000360 ce f8 1f 3d 9c 40 25 3d 8c be 2e 3d 79 93 01 3d
       0.039055638 0.04034482 0.04266219 0.03163478
000370 f3 45 be bc bf 95 bb bb eb bc 85 3b c0 91 64 bd
       -0.023226714 -0.0057246382 0.0040813587 -0.05580306
000380 62 3a d8 3d f4 e2 ac 3d 69 18 14 bb 7c c7 8c 3c
       0.10558011 0.084417254 -0.0022597557 0.017184965
000390 a6 5b 43 3d 50 69 14 3e 80 b4 72 3d f6 76 b9 3d
       0.047694825 0.14493299 0.05925417 0.09055893
0003a0 4d 63 96 bb a4 c5 1f bd 7d 02 20 3e 35 e0 86 bc
       -0.0045894743 -0.039006844 0.15625949 -0.016464332
0003b0 62 fc 30 bc db fd 0d bd 3f 6f a9 3d 4a 8d 84 3d
       -0.01080236 -0.034665924 0.08273172 0.06472261
0003c0 7f c2 c0 bc d0 9c 8f 3d 27 b5 c9 bd 29 ac 60 bd
       -0.023530243 0.070123315 -0.09849005 -0.054851685
0003d0 9b 2c 99 be 54 a4 c9 3d 0c e9 ab bd 4a f3 8f bd
       -0.29916844 0.09845796 -0.083940595 -0.070288256
0003e0 f5 61 10 3c 0f 38 3c 3d 53 2a 9e 3d 8e 92 54 3a
       0.008812417 0.0459519 0.077229165 0.00081089966
0003f0 e6 67 75 3c 34 94 5a 3d 8c c7 ef 3c 80 d1 91 bd
       0.014978385 0.053363994 0.029269956 -0.07120037

bn1.running_mean f4 [300]
000000 c1 7c ed 3d cf 8b 8e 3e dc dc ef 3c 02 e6 ba 3d
       0.115960605 0.2784104 0.029280119 0.09125902
000010 08 9e c7 3d eb 37 65 3d 2b 0a 93 3e 80 e1 cc 3c
       0.09746939 0.05596153 0.28718695 0.02500987
000020 c5 88 9b 3d 1a 87 ce 3d ff ac 19 3e d2 79 5d 3d
       0.07594446 0.10084362 0.15007399 0.054071255
000030 bb 39 e9 3d c6 08 17 3e ac e8 54 3d e9 c4 4c 3d
       0.11387964 0.1474944 0.051979706 0.049992476
000040 22 c8 4c 3e 96 cb 19 3e 25 d1 fd 3c 6a 9e 5f 3e
       0.1999822 0.15019068 0.030983517 0.21837774
000050 31 84 98 3e b3 35 c8 3c 81 08 82 3d 0a a5 57 3d
       0.29788354 0.024439668 0.06349278 0.052647628
000060 bb 3f 5b 3e 5d e5 08 3e df 48 fa 3d 68 1f b9 3d
       0.2141103 0.13368745 0.1222093 0.090391934
000070 94 79 01 3e 11 47 70 3e b4 cd a4 3d a0 ea cb 3d
       0.12644035 0.2346461 0.08047047 0.099568605
000080 6a 69 fc 3d 3e d3 c9 3d 0e dc cd 3d 6b aa 00 3e
       0.12324794 0.098547444 0.10051738 0.1256501
000090 ff 60 d8 3c 6d 80 ef 3d a9 33 97 3d c5 51 8a 3d
       0.026413439 0.11694417 0.073829 0.067538776
0000a0 d0 47 bd 3d ba 81 1c 3d 52 32 9e 3d 65 ec d0 3c
       0.09242213 0.038209654 0.077244416 0.025503347
0000b0 b0 3f b2 3c 2e 97 05 3e ce 3b 33 3b 86 57 52 3e
       0.021758884 0.13045952 0.0027348879 0.205412
0000c0 a0 46 16 3d e3 f6 cf 3c e4 62 d3 3c f8 3a 3d 3d
       0.036688447 0.02538628 0.02580399 0.046198815
0000d0 46 04 ac 3d 3c f3 6f 3e b1 f0 4d 3e fa a1 04 3e
       0.083992526 0.2343263 0.20111348 0.12952414
0000e0 9a 63 ed 3d 14 d2 d3 3d 5e 79 f7 3d 2a 52 08 3d
       0.11591263 0.103428036 0.12083696 0.033281483
0000f0 96 73 85 3d 66 c9 d7 3d 7e eb b3 3d db aa d4 3d
       0.06516187 0.105364606 0.08785151 0.103841506
000100 23 c7 6b 3d f0 5d 46 3e 3a cd a3 3d 85 18 2a 3d
       0.05756296 0.19371772 0.07998128 0.04152729
000110 c2 bc 28 3e 25 0b 5e 3e 28 52 05 3e 41 ce 9e 3d
       0.16478255 0.21683939 0.13019621 0.077541836
000120 7c 1f 7b 3e c3 b7 a2 3d d3 54 b0 3c e9 94 85 3d
       0.24523729 0.07945206 0.021524822 0.06522543
000130 af 98 4e 3e d0 47 4e 3d 44 d7 c9 3d ad e5 c5 3d
       0.20175432 0.050361454 0.09855512 0.09662948
000140 f2 7b b6 3d 1c b9 8f 3d 6d de a5 3d 3d 7c 41 3d
       0.089103594 0.07017729 0.08099065 0.047237623
000150 b7 a8 59 3d a2 c8 e7 3d 06 66 14 3e 5f 6f 0d 3e
       0.053139415 0.113175645 0.14492044 0.13812016
000160 2c c3 aa 3d 92 83 ef 3d 82 98 07 3d 55 a4 63 3d
       0.08338007 0.11695017 0.033104427 0.05557664
000170 de 2e 32 3d 76 03 a5 3d de 0a da 3c e4 45 37 3d
       0.043501727 0.08057301 0.02661651 0.044744387
000180 6c a5 99 3c f4 1a 5e 3d 0e e3 78 3d ef e5 16 3d
       0.018755637 0.054224923 0.06076341 0.036840376
000190 89 0b 04 3e 51 60 90 3c 9f a2 cf 3d db cb d2 3d
       0.12895025 0.017624052 0.101384394 0.102927886
0001a0 8a a7 85 3d bb ed a8 3d c1 fb 0c 3e c1 e7 78 3d
       0.06526096 0.082484685 0.13767911 0.060767893
0001b0 7e b2 1a 3d 48 fe 9b 3e 49 c3 30 3e d2 61 66 3d
       0.03776788 0.3046744 0.17261995 0.056245632
0001c0 cb 10 3c 3d be f3 fd 3c 22 07 b6 3d 59 74 d9 3d
       0.045914453 0.031000014 0.08888079 0.10617895
0001d0 79 e6 e4 3c e5 91 97 3e 80 34 62 3e 48 98 2a 3e
       0.02794193 0.29603496 0.2209034 0.16659653
0001e0 5c 48 85 3d 57 84 98 3c be 9d 5d 3d e4 d8 aa 3d
       0.06507942 0.018617792 0.054105513 0.0834215
0001f0 83 39 80 3d 44 02 9c 3d 99 f4 e6 3d 85 2c 02 3e
       0.062609695 0.0761762 0.11277122 0.12712295
000200 70 d8 af 3e 16 4f aa 3d dd ba f0 3d f8 5e 9e 3d
       0.34344816 0.08315866 0.11754391 0.077329576
000210 d8 30 e7 3d 77 91 1e 3e 13 6c 55 3e 40 9d a6 3c
       0.11288613 0.15485178 0.20842008 0.020338655
000220 ba 68 60 3e f8 a8 7b 3e 8c 4c bf 3c a6 70 fc 3c
       0.2191495 0.24576175 0.02335193 0.030815434
000230 c3 ac ac 3d 61 b7 20 3e e0 48 0b 3e 86 97 6c 3d
       0.08431389 0.15694954 0.13602018 0.05776169
000240 2c 34 81 3d 40 d7 38 3e 84 5c be 3c f0 a5 79 3d
       0.06308779 0.18050861 0.023237474 0.060949266
000250 b8 a3 a8 3c a2 a6 d4 3d 6a 1b 96 3d 87 66 bd 3d
       0.02058588 0.10383345 0.073294476 0.09248071
000260 52 57 0b 3d ea 5c b1 3d c7 51 4c 3e a9 c1 a3 3d
       0.034018822 0.086603 0.1995307 0.07995922
000270 cb 12 d5 3d 58 93 6e 3d b6 25 c2 3d 9b ef 3b 3d
       0.10403975 0.058245987 0.09479849 0.045882802
000280 e3 29 6b 3e a4 da 90 3d 29 63 2e 3e 9c b4 49 3c
       0.22965197 0.070729524 0.17030014 0.012311127
000290 e9 0d c8 3d 00 cc 9d 3d 5f 42 9e 3d 7b e3 44 3e
       0.09768278 0.077049255 0.07727503 0.19227402
0002a0 55 a1 58 3d 40 8c 72 3d 16 04 e1 3d ae f1 c0 3d
       0.052888233 0.059215784 0.109871075 0.09421097
0002b0 b1 90 3d 3d 1b 30 3c 3d b8 8d 1b 3d 6c 07 13 3e
       0.046280567 0.045944314 0.03797695 0.143583
0002c0 85 5a c8 3d c4 d6 d2 3c 9b 04 86 3d 4d aa 30 3d
       0.0978289 0.025737174 0.06543847 0.04313116
0002d0 38 b4 3d 3e 2a 15 89 3d c3 5b fe 3d d2 93 06 3d
       0.18525779 0.0669349 0.12419846 0.032855816
0002e0 fe d9 1c 3d 2c c4 ba 3d b1 86 70 3e 6c 11 36 3e
       0.03829383 0.09119448 0.2348888 0.17780083
0002f0 ab 47 74 3e 64 4a 68 3e 63 3d b4 3d 52 53 88 3d
       0.23855464 0.22684628 0.08800771 0.06656517
000300 c5 71 44 3d fe 24 89 3d 1e e8 f2 3d 21 9d b5 3d
       0.04796006 0.06696509 0.11860679 0.088678606
000310 df 4e 47 3e 25 82 fd 3d 3d 65 42 3d b8 51 19 3e
       0.1946368 0.12378339 0.04745983 0.1497258
000320 77 98 73 3d c7 ef 29 3d c3 fc 87 3c 97 6e 44 3e
       0.059471574 0.041488435 0.016600018 0.19182812
000330 50 9d 37 3e 50 cd 02 3e 7e ed fd 3d 19 9b d0 3d
       0.17931104 0.12773633 0.12398814 0.101858325
000340 9c d9 c7 3c 9c 5d 95 3e 62 2a ae 3d 1e 9c 5a 3d
       0.024395756 0.2917298 0.08504178 0.05337154
000350 42 d6 4c 3e 18 69 8a 3c bd d6 ee 3d 01 43 cd 3d
       0.20003608 0.016895816 0.11662052 0.100225456
000360 a7 2c 52 3e 96 12 d6 3c 75 ea bd 3d fd f5 23 3e
       0.20524846 0.02613191 0.09273235 0.16011806
000370 9a 47 3a 3d 14 6e fd 3d d5 71 cb 3d 44 f4 d4 3d
       0.04547844 0.12374511 0.09933821 0.103981525
000380 4c b0 d9 3e ea d2 cc 3d a0 16 1b 3e 98 40 16 3d
       0.42517316 0.10001166 0.1514535 0.036682695
000390 bc a3 51 3d 3c 76 45 3d 78 8b 17 3e 52 aa a0 3d
       0.05118154 0.04820846 0.14799297 0.07844986
0003a0 64 35 a2 3e 1a 20 a1 3d c0 3a 8f 3d fd 7f 31 3d
       0.3168136 0.07867451 0.069936275 0.04333495
0003b0 06 ac 3e 3d 54 9c fe 3d 67 cd 97 3c d1 a8 83 3d
       0.046550773 0.12432161 0.01853056 0.064286835
0003c0 a8 b7 1a 3e e0 aa b5 3d fc 9c b4 3e 29 e1 8f 3d
       0.15109122 0.088704824 0.3527602 0.07025368
0003d0 8b 17 86 3d 65 71 45 3d 1e ca 8c 3d a4 ab 0a 3e
       0.06547459 0.048203845 0.06874488 0.13542038
0003e0 a8 b5 21 3e 5c ac 6b 3d b2 38 c4 3d 50 9d 86 3d
       0.15791953 0.05753742 0.09581126 0.06572974
0003f0 01 80 db 3c c8 4c 8a 3d fe 11 2a 3d 0d 8f c9 3b
       0.026794435 0.06752926 0.041521065 0.006151086

bn1.running_var f4 [300]
000000 ba 37 40 3d f5 b8 c3 3d 31 f3 09 3c 92 c0 18 3d
       0.046928145 0.09556762 0.008419798 0.037293024
000010 15 1f ee 3c a5 19 ce 3c 2d 8a a9 3d 0e 9b 3b 3c
       0.029067555 0.025158713 0.08278308 0.011450542
000020 55 5a 9b 3c 84 04 12 3d 34 4f 64 3d c1 b3 69 3c
       0.018963972 0.035648838 0.055739596 0.014264048
000030 b5 c2 32 3d 0b cc 2d 3d 44 f0 c3 3c 92 5c 83 3c
       0.04364272 0.04243092 0.023918279 0.016035352
000040 f3 d7 c1 3d 6b ee ac 3d b7 6d 21 3c 15 aa bf 3d
       0.09465017 0.08443912 0.009852818 0.093586124
000050 66 b8 0f 3e a3 84 b8 3b 11 ae a6 3c 8e b1 78 3c
       0.14035186 0.005631046 0.020346673 0.015179051
000060 d4 c7 e4 3d a1 99 9a 3d 18 67 6f 3d 0f 1f 0a 3d
       0.11170927 0.07548834 0.058447927 0.033721026
000070 73 59 09 3d d7 07 df 3d 45 db b5 3c e0 f4 15 3d
       0.03353257 0.10890167 0.022199282 0.036610484
000080 7b e5 0a 3d 9a 17 90 3c 3c f3 25 3d 46 fd 03 3d
       0.033910256 0.01758938 0.04051517 0.032223962
000090 63 86 00 3c 71 b3 2b 3d 68 91 1a 3d 9e 05 2f 3d
       0.00784454 0.041919176 0.037736326 0.042729966
0000a0 04 55 16 3d f3 c6 92 3c a6 4c 9d 3c b4 91 5d 3c
       0.03670217 0.017917132 0.019201588 0.013523508
0000b0 39 79 20 3c 22 5b 4d 3d dc 09 26 3b e8 f5 9a 3d
       0.009794527 0.05013574 0.0025335466 0.07566434
0000c0 59 3a 36 3c c3 5c 21 3c 19 45 27 3c 6a 20 7c 3c
       0.01112231 0.009848776 0.010209345 0.0153885875
0000d0 f1 ff eb 3c f1 18 0b 3e 90 d0 b7 3d 3d 82 2d 3d
       0.028808566 0.13583733 0.08975327 0.042360533
0000e0 e9 7b a9 3c a8 97 20 3d ef 44 54 3d 48 2d 11 3c
       0.020688968 0.03920713 0.051823553 0.008860894
0000f0 65 49 38 3d df 93 f3 3c 13 52 24 3d 2b 39 23 3d
       0.04499187 0.029733596 0.040117335 0.03984944
000100 22 f1 96 3c 8c 40 bc 3d 8b 38 c7 3c 58 99 86 3c
       0.018425528 0.09191999 0.024318954 0.016430542
000110 60 5b 81 3d 1e 11 bd 3d b6 aa 50 3d e7 07 f0 3c
       0.063162565 0.092317805 0.050944053 0.029300643
000120 98 d5 7e 3d c5 92 0b 3d 8b 32 bd 3b 52 af c4 3c
       0.062215418 0.034075517 0.0057738475 0.02400938
000130 ce 0b 71 3d 02 91 7c 3c c1 0e 17 3d 4d f1 3a 3d
       0.05884915 0.015415432 0.036879305 0.04564028
000140 4c 9d 16 3d fc 76 ed 3c da d1 eb 3c 2f 3d 8f 3c
       0.036771104 0.0289874 0.028786588 0.01748523
000150 48 97 92 3c 07 80 55 3d 7a 44 7f 3d f0 18 82 3d
       0.017894402 0.05212405 0.062321164 0.06352413
000160 53 9b b4 3c 46 ab 64 3d a5 ca 4c 3c f4 57 d3 3c
       0.02204672 0.0558274 0.012499486 0.025798775
000170 74 80 b9 3c a0 78 a1 3c d4 ce 14 3c 4a 67 be 3c
       0.022644259 0.019710839 0.009082515 0.023242611
000180 3a 3a 1b 3c 21 2e 83 3c d2 57 6e 3c c3 ba b6 3c
       0.0094743315 0.016013207 0.014547305 0.022305852
000190 ad 82 86 3d 03 4e d4 3b b8 a9 1e 3d 52 1e 25 3d
       0.06567893 0.0064790263 0.038736075 0.04031212
0001a0 eb db c3 3c b1 6f c5 3c f2 3a 36 3d 83 bd 96 3c
       0.023908576 0.02410111 0.04448981 0.018400913
0001b0 77 df 64 3c 7c 68 1b 3e 18 6a 7a 3d ef 16 88 3c
       0.013969294 0.15176576 0.061136335 0.016612498
0001c0 0f 64 5a 3c c3 19 0c 3c af 8b ff 3c 7b eb be 3c
       0.01332952 0.008551064 0.031194536 0.023305645
0001d0 03 a3 2c 3c 38 70 25 3e 2e e5 8c 3d ab df b0 3d
       0.010536912 0.1615609 0.0687965 0.08636411
0001e0 f7 42 cd 3c 59 5d ae 3b 4e e7 cf 3c ee fe e3 3c
       0.025056345 0.0053211865 0.02537885 0.02783152
0001f0 7f 6c f3 3c 70 34 10 3d d1 57 b8 3c 44 97 26 3d
       0.02971482 0.03520626 0.022502812 0.040671602
000200 2e cf 1b 3e 42 10 df 3c 5c 4d 93 3d 54 0a 0c 3d
       0.15215752 0.027229432 0.071924895 0.034189537
000210 40 9d 0e 3d 8d fe 45 3d c7 a5 a8 3d 41 b5 fc 3b
       0.034817934 0.04833846 0.082347445 0.007712037
000220 62 78 df 3d f1 6c 01 3e a6 ac fa 3b bc 8a 64 3c
       0.10911633 0.12639214 0.007649976 0.0139490925
000230 43 2a c4 3c 98 53 6d 3d 53 cb 42 3d 57 63 bd 3c
       0.023945933 0.05794105 0.047557186 0.023118658
000240 66 64 11 3d 51 5b a9 3d 05 32 1e 3c bc a8 e5 3c
       0.035496138 0.0826937 0.00965548 0.02803456
000250 60 af 08 3c 7e 09 54 3d eb 90 d9 3c b5 51 d3 3c
       0.008342594 0.051766865 0.02655836 0.025795797
000260 1e 4c 28 3c 77 9c ed 3c 08 0c 56 3d 0a 01 a6 3c
       0.010272054 0.029005272 0.052257568 0.020264167
000270 92 5c 17 3d d3 0e a7 3c cb 08 13 3d 01 21 49 3c
       0.036953516 0.02039281 0.035897058 0.012275935
000280 bb f6 ba 3d ba 7a 01 3d ed 42 ab 3d 1a f0 78 3b
       0.09129091 0.03161118 0.083623745 0.0037984909
000290 33 17 03 3d 26 26 a0 3c e0 9c cc 3c 49 65 2c 3d
       0.032004546 0.01954944 0.024977148 0.04208878
0002a0 06 76 d5 3c 50 9b a4 3c 24 de 39 3d 0d 29 09 3d
       0.026057255 0.02009359 0.045377865 0.033486415
0002b0 15 dc 31 3c 54 16 73 3c 94 cd 47 3c 83 39 6a 3d
       0.010855694 0.014836866 0.01219501 0.057183754
0002c0 5e 03 d7 3c 7f 7d 46 3c 54 7a b9 3c be 4a 29 3c
       0.026246723 0.012114882 0.022641338 0.010332761
0002d0 37 28 5d 3d 2b 06 e9 3c 6a 0f 04 3d cb b1 1d 3c
       0.05399343 0.028445324 0.032241262 0.009624909
0002e0 a1 c0 56 3c 21 b0 4e 3d 0f 70 d8 3d b4 55 77 3d
       0.01310745 0.05046094 0.105682485 0.060384467
0002f0 33 70 4e 3d 4b 25 5d 3d c4 39 19 3d c8 23 81 3c
       0.05039997 0.053990643 0.037408605 0.015764132
000300 ec c5 48 3c 2c 92 ac 3c ac f3 02 3d b9 85 08 3d
       0.0122542195 0.021065794 0.031970665 0.033330653
000310 ae f8 b3 3d 53 3b 15 3d 0d 21 1d 3c 08 c2 89 3d
       0.08787666 0.03643353 0.009590399 0.06726462
000320 b3 d2 81 3c 0d 25 43 3c a4 b2 af 3b a5 b7 8d 3d
       0.01584754 0.011910689 0.005361872 0.06919793
000330 e2 3a 3d 3d 0d e5 e3 3c af 22 18 3d 98 f6 0c 3d
       0.046198733 0.02781918 0.03714245 0.034414858
000340 88 21 32 3c 2b ac d4 3d 14 10 15 3d 15 37 a1 3c
       0.010872252 0.10384401 0.036392286 0.019679585
000350 07 24 50 3d 58 b4 1c 3c 9c 1e c0 3c f5 8f c3 3c
       0.05081561 0.009564482 0.023452096 0.023872355
000360 3f cc 81 3d 27 1f 05 3c 99 1e fb 3c 3f 0f 8e 3d
       0.06337785 0.008125103 0.030654239 0.06936502
000370 39 90 a5 3c ff 94 63 3d ba 80 53 3d 7d 85 01 3d
       0.020210372 0.055562016 0.051636435 0.031621445
000380 eb d4 44 3e c0 8a e7 3c 11 d6 8d 3d 31 82 55 3c
       0.19221847 0.028264403 0.069255956 0.013031528
000390 c1 bf 9a 3c f1 41 74 3c cd 1f 45 3d 48 6b 03 3d
       0.018890264 0.0149083 0.04812603 0.032084733
0003a0 a4 5c a3 3d a3 33 cd 3c 7b e3 ea 3c c6 2f 8b 3c
       0.07976654 0.025049036 0.028672924 0.016990554
0003b0 37 3b 65 3c 47 4d 50 3d 1e ec 3c 3c 21 89 06 3d
       0.013991169 0.050854947 0.011530904 0.03284562
0003c0 15 e0 9c 3d 5f a0 e8 3c 32 c0 a0 3d 9f 3a be 3c
       0.07659928 0.028396783 0.07849158 0.023221312
0003d0 c8 30 a8 3c 1c 41 a4 3c 67 d7 24 3d 7d c7 86 3d
       0.020531073 0.020050578 0.040244486 0.06581018
0003e0 8f 47 63 3d 28 1d ec 3c 9f de b3 3c 78 15 c7 3c
       0.055488165 0.028822497 0.02195674 0.02430223
0003f0 c1 93 2d 3c ee 88 78 3c 83 50 5d 3c 5f 51 0b 3b
       0.010594309 0.015169365 0.013507965 0.0021258218

fc2.weight f4 [400, 304]
000000 ac 1b 76 3c db ac a4 3c 0e 3c 4e 3d 74 5d 8c 3d
       0.015021246 0.020101955 0.05035024 0.06853762
000010 34 95 ce bb 8d 43 81 3c 60 d5 5e 3c b1 cd 61 3d
       -0.0063044075 0.015779281 0.013600677 0.055127803
000020 8e da e3 bd e3 b1 da 3c 7a 55 06 3d f2 e0 25 bd
       -0.111256704 0.026696151 0.03279636 -0.040497728
000030 34 ce 06 be 50 02 6e 3b bb aa fb bd bd 6b 52 3d
       -0.13164598 0.0036317296 -0.12288424 0.05137228
000040 42 3c 51 3d 22 60 a0 bc 25 48 6f 3d 07 e1 73 bd
       0.051082857 -0.01957709 0.05841841 -0.059540775
000050 5a 3a 79 bc 23 32 2e bd bc e9 a9 3c 54 cd 9a bd
       -0.015211666 -0.042528283 0.020741336 -0.075586945
000060 10 a2 24 3d 2e 22 98 bb af 96 91 3d c7 00 25 3d
       0.040193617 -0.0046427464 0.07108819 0.040283944
000070 78 7e 02 bc fb a0 ce 3c 12 f9 bc 3c 94 ed ff bc
       -0.007964723 0.025223246 0.023067985 -0.031241216
000080 cc 1a f4 3b f0 f8 f9 3c e6 5b 14 bd 0c 2c a5 bd
       0.0074494835 0.03051421 -0.036220454 -0.08065042
000090 32 93 33 3d f2 03 0c 3d 23 07 58 bd 97 6d f9 bc
       0.04384155 0.03418345 -0.05274118 -0.030447764
0000a0 6b fa 23 3d f0 ed 94 bc c5 b5 77 bb 52 41 84 3d
       0.04003374 -0.018179864 -0.0037797552 0.06457771
0000b0 85 b2 c2 bd 22 b0 18 bd da 47 81 bd 39 5f f3 bc
       -0.09506706 -0.03727735 -0.06312533 -0.029708492
0000c0 cf f3 be 3b 39 3a 27 3d a0 d1 42 3c c7 16 ee bc
       0.005827404 0.04082701 0.011890799 -0.029063595
0000d0 a2 a4 2f 3c 92 78 b1 bc 6d 86 a9 3d c4 3d 3a bc
       0.010720404 -0.021663938 0.08277593 -0.011367265
0000e0 04 79 07 3d 16 95 94 ba c8 65 25 3c 9f 50 ec 3c
       0.033074394 -0.0011335935 0.010095067 0.028847037
0000f0 7c fe cd bd 54 0c 46 bd 4f 45 18 bd d2 b8 cc bc
       -0.10058305 -0.0483516 -0.037175473 -0.024990473
000100 d1 cc 91 bc bf 34 30 3d 38 ed be 3d b4 e4 aa bc
       -0.01779786 0.043019053 0.0932259 -0.020861007
000110 71 46 50 bd de ad 1a bd 1a b9 16 3d 60 76 b1 3b
       -0.05084843 -0.03776347 0.03679762 0.0054157227
000120 ee 78 ee bc 8e 51 ea bd be 08 72 3c e7 50 37 bd
       -0.029110398 -0.114413366 0.014772592 -0.04475489
000130 86 0a 46 bc 8a 17 52 3c bb 7d 38 3d f6 29 d3 bc
       -0.01208747 0.012822995 0.04504178 -0.025776844
000140 0e b9 88 3d 97 34 9e bd ac fd 90 3c de d8 61 3c
       0.066759214 -0.077248745 0.017699085 0.013784615
000150 4c 34 13 3c 74 bc 16 3d c4 aa 23 3b ef 13 d7 3d
       0.0089846365 0.036800817 0.002497361 0.10501849
000160 43 69 64 bd 51 08 d7 bc 73 d8 7a 3d 33 ce 03 bc
       -0.055764448 -0.026249083 0.06124158 -0.008044767
000170 dd 83 7b 3d 8b ca 66 3d 45 7c 42 bd d7 14 54 3d
       0.06140505 0.056345504 -0.047481794 0.051777687
000180 b8 86 9f bb 77 0e cb 3d 08 25 92 bd 44 f5 4d bc
       -0.0048683546 0.09914868 -0.071359694 -0.012570683
000190 ad e4 e1 3c 0c 9a a4 3d ed 81 03 3d e5 60 21 bd
       0.027574861 0.080371946 0.03210633 -0.039399046
0001a0 98 8d 46 3d 77 81 64 bc fe a5 3c 3b 9c 96 a1 bd
       0.048474878 -0.013946882 0.0028785462 -0.078900546
0001b0 16 7f 1c bd 15 cb 99 38 04 64 8f 3d 4c 52 3e 3c
       -0.038207136 7.3334355e-05 0.07001498 0.011616301
0001c0 2f bb b9 3d 2d e8 40 bd ef 54 44 bc 82 3b a4 bd
       0.090689056 -0.04709642 -0.01198314 -0.08019163
0001d0 aa 00 ad 3d 1a f1 e7 3b 1e 5c 0a 3d 9a 8c 99 bd
       0.08447392 0.007078302 0.033779256 -0.07497521
0001e0 17 5d a1 bd 36 de a6 3c c4 34 4b bc 08 5a b4 bc
       -0.078790836 0.02036963 -0.012402717 -0.022015586
0001f0 a1 aa 0b bd fd 6d 6b bd 7a 33 58 3c 81 d1 71 3b
       -0.03409827 -0.05747794 0.013195867 0.0036898556
000200 11 c1 80 bd 3a 9d a4 bd 03 ac 54 bc da c1 c8 bd
       -0.062868245 -0.08037801 -0.012980464 -0.09802599
000210 78 76 47 3d 5d 5f 93 3c 06 4b 80 bc d5 06 80 3c
       0.048696965 0.017989809 -0.015660774 0.015628258
000220 f7 c2 21 bd 65 35 0c bd 52 b2 7c bd d4 3b e5 ba
       -0.039492574 -0.03423061 -0.061693497 -0.0017489144
000230 b0 3d 31 bd 65 20 47 3d 2d 6c c4 bc 57 d3 b7 bc
       -0.04327172 0.04861488 -0.023977363 -0.022439642
000240 3d fb b5 bd fc 85 33 3c 98 c4 24 bd d2 98 3a bd
       -0.088858105 0.010957237 -0.04022655 -0.045555897
000250 36 a4 43 3d e8 cd 74 bc 22 19 bb bc 1e c1 97 3b
       0.047764026 -0.01494167 -0.022839133 0.0046311757
000260 86 f2 10 bd 7a 86 2c bd 81 df dd 3c fc fa 58 bd
       -0.03538754 -0.042120434 0.027084114 -0.052973732
000270 cf ed fd 3c 31 8f 96 3d 68 db f4 3a da 59 2f bd
       0.030997185 0.0735153 0.0018681111 -0.0428103
000280 97 cf 79 bb d8 2a 27 3d 3f 3b ac 3d 47 e6 db bd
       -0.0038118118 0.040812343 0.08409738 -0.10737281
000290 6d d9 9b bd f0 56 af bc ca 31 50 3c f2 0e 1c 3c
       -0.0760983 -0.02140376 0.012707183 0.009525048
0002a0 b2 b1 bf 3b 95 fd a9 3c 8e 98 6e bd ee 69 fd bc
       0.0058500404 0.0207508 -0.058250956 -0.0309343
0002b0 53 b4 38 bd bd 86 a1 3c 40 e9 e1 bd 1f 1d 50 3d
       -0.045093846 0.019717569 -0.11030817 0.050809022
0002c0 04 9a e2 bc 09 cb fa bd ec 7f 81 bd 0b a1 85 3c
       -0.027661331 -0.12245757 -0.06323227 0.016312143
0002d0 2c 05 0a bd 38 74 0a 3d d6 cc 26 bd e9 f1 ee bc
       -0.03369634 0.03380224 -0.04072269 -0.029168086
0002e0 4e c8 a4 bd ef eb dd 3c ef 4e d3 3b 9f d1 b0 bc
       -0.080460176 0.027090041 0.0064486186 -0.02158433
0002f0 8e 73 17 bd cd 2d 93 3c 4e e7 74 bd 77 c6 ec bc
       -0.036975436 0.017966175 -0.0597909 -0.02890323
000300 eb 00 17 be fa ab b1 3d c8 c7 47 bd d4 0e af bc
       -0.14746444 0.0867538 -0.04877451 -0.021369375
000310 d0 1c 0d bd 50 4a 2a be 70 2a 76 3d 4a 2d dd 3c
       -0.034451306 -0.1662991 0.060099065 0.026999135
000320 71 06 c4 bc af 11 e7 bd 6c ae da bd 7b e9 79 3b
       -0.023928853 -0.1128267 -0.106777996 0.003813355
000330 56 d3 db bc db 67 64 bd ef ff 9c 3c c1 1f 84 3d
       -0.026834171 -0.055763107 0.019165007 0.06451369
000340 42 49 2e 3d 93 31 84 3d da ce 4a bb 14 12 7c bd
       0.042550333 0.06454768 -0.0030946047 -0.06154068
000350 6e 30 a0 bc b4 9f 98 bd 7b 0a 82 bc 31 73 00 3d
       -0.019554343 -0.07452336 -0.015874138 0.031359855
000360 57 b6 88 bc 18 98 fd bd dd 19 84 bc 6f 65 0d 3c
       -0.016688509 -0.12382525 -0.016125614 0.008630141
000370 f2 11 22 bd 56 f0 11 bd e8 8f e8 bc 69 34 89 bc
       -0.039567895 -0.035629593 -0.028388932 -0.016748624
000380 5b 95 71 3c 3f a3 6d 3d 44 3d 57 bc 58 71 2f 3c
       0.014745082 0.05801701 -0.013137165 0.010708176
000390 c7 48 f6 bc 6d 15 24 3d 54 fd 31 bd cb 2f 1e 3d
       -0.030064 0.040059496 -0.043454483 0.038619798
0003a0 53 6e 35 3d 9b ad 12 bd d8 3f c3 bc 39 bd a2 bc
       0.044294666 -0.035810094 -0.023834154 -0.019865619
0003b0 c9 c9 d1 bd 76 1c 2e 3b e3 39 b4 3d 87 9b cc 3c
       -0.102435656 0.0026567257 0.088001035 0.024976505
0003c0 45 90 9c 3c ba f0 6b 3d 00 98 c6 bd 6d dd 0a bc
       0.019111762 0.05760262 -0.096969604 -0.008475644
0003d0 8f 26 30 3d 62 d5 7a bc 95 c5 9c bc df f0 51 bd
       0.043005522 -0.0153096635 -0.019137183 -0.051255103
0003e0 60 1c 09 3d b4 8b 73 bd 21 1f de bb 0c 9f 4c 3d
       0.033474326 -0.059459403 -0.006778613 0.049956366
0003f0 83 ee 3a 3b e5 25 cc 3d cb 0e 1d 3d 70 01 1a bc
       0.0028523512 0.09968165 0.038344186 -0.009399757
