experiments/exp3/models/checkpoint_actor_8.pth (torch_old, 529855 bytes, 6 tensors)

fc1.weight f4 [300, 33]
00000000: 54b8 1cbf c237 b53e a191 acbd 5408 42bf
00000010: 762c 51bd 2491 003d 853a 57bf a92e 2f3e
00000020: db5a 873d cfdb 0fbe c8e7 933d c784 b03e
00000030: 448f 3c3e f6af 793e 6d4c b33e 7016 a9be
00000040: c7c7 1140 c658 cb3f 7100 263f 94cd 823e
00000050: f868 353f 999d ffbe 565c 2bbf b59b b7bd
00000060: 4f06 8e3e 1e1d 1bbe 699e 36be 2bd5 083f
00000070: 03df 193c 4ee8 5a3d fd9e 1abf 0ce2 823c
00000080: 3b81 08be 42c2 4ebf c5af b43e 84b7 65bd
00000090: f9b6 92bd bed0 bc3d 933d 5cbf 7931 673f
000000a0: 7b26 1c3d 5617 a9be 60c2 bebe 3ddf 003f
000000b0: e268 ad3e 33bb bd3e c878 3b3b fa28 523d
000000c0: f762 313f 8cab cd3e 4335 8dbf f3fc 8dbf
000000d0: 894e 593e 62ae 333f dfca 06be 47de b7be
000000e0: 455d 14be 554a 18be bf89 523d 9c22 373e
000000f0: 6252 623f 6c0e 24be 2e5e 473d ee66 58bf
00000100: 94e9 30bd bb04 d53e 47f0 3abf 3040 a13d
00000110: 12c4 413f 5c23 223e 6b22 4d3f 1dd4 76bf
00000120: 689e 3e3f 49ee 05bf a1aa bd3e 8cd0 a03d
00000130: 52d8 953e 1c40 0cbf 1fe8 3b3e 6868 363e
00000140: c0fd a9be 72e9 173e 1986 04c0 3ce0 8bbe
00000150: fff8 b83e 16db 853e 45a5 993e 3502 d7bd
00000160: e5eb eebe 838c eb3d db6e f33d c9ce 76bc
00000170: 2e25 17be 779e 0c3f ed76 81be 8c8f 7dbc
00000180: 7fa2 14bf d678 4bbd 4131 9bbd ffc5 2c3f
00000190: e4ff 303f ffae cebe 8bef a73e 74dc c03d
000001a0: c183 a33f bb61 3fbf 8126 4f3e d342 423d
000001b0: 0621 4d3e 63fa 56be a31c a5bd 310e d3bd
000001c0: 8eb2 0f3c d409 813e 8b44 c3be eceb bf3f
000001d0: 88bf dc3d cc49 c03f 813f 823d 639d a5be
000001e0: 98a0 183f 25d6 68be 8c41 103e 9ca3 8f3e
000001f0: 65b8 b63b 0d92 5dbe 7994 503f 9c6e e63c
00000200: f8d8 b83c 43b4 44bf 5c0c 653d f45b a4bf
00000210: f148 e1be a647 0a3f 6496 323d 9ffb c23f
00000220: 1ec3 63be 815c 3a3e 9b29 4ebe be5d 143e
00000230: be83 b93e 9a22 4abd 6202 783d bba7 d7bc
00000240: 1fe3 39bd 4fc5 c5bd c7bd 73be f8dc f4be
00000250: 3913 eebe a3f1 b5bf 68a1 153f 4025 25bf
00000260: 8cac b33e 2e63 253e d931 9d3e 6e42 d6bd
00000270: 5586 d3bc f9d5 17be dba4 23bd ae70 263f
00000280: e21d c73e 50c5 ccbb d6f4 17bf 4adc 043d
00000290: 95b1 1a40 9040 4abe dac9 623b b8e1 9c3d
000002a0: 0c1e fa3e 84bc 33bf e932 75bf 44fd 093e
000002b0: cd57 33be a04a 23bf ae8a 77be ec51 eebd
000002c0: 9b24 4bbe 40cc 88be c339 e03d 1ae2 d43c
000002d0: 0f42 74be f2aa 093e 777a 1e3d 3970 13bf
000002e0: 3d67 80bf 1e17 103d 511a 8bbe 9b31 10bf
000002f0: 8031 6b3e 7a7c 9b3b 6d9f 1a3d 2890 b13e
00000300: 7195 543e 3311 473e 6d1f 64bd 2ecb 89be
00000310: e817 14bd 3fe8 2740 8ec0 d8be faf6 fbbd
00000320: 8b19 323e f8b7 78bf 56a9 903f 5a9a acbf
00000330: cb1f 5b3e 8684 8fbe b2db 4bbf ac05 a1be
00000340: fe9e 35be 5044 c5bd 5a6f 083e dfb3 f93d
00000350: fdeb b13e 38b3 81be 7727 d3bf 1015 6d3f
00000360: 7f13 7f3f e49c 973f 0e23 e23e 0f73 bc3e
00000370: 814c 84be 82cf afbd 3b18 ab3c 2c12 56bd
00000380: 1807 04bd 641c 453e a7d4 b63c da8b 673d
00000390: 56b7 41be 78f1 053d 44c7 2b40 1ac0 ab3e
000003a0: 9a43 c03d f04f dcbd 5c30 053e fc7d 553f
000003b0: c48b b03f bc5b 113f 82b8 093e 41c6 8fbf
000003c0: 8e5f 03bc d611 533e 0276 323e bc13 29be
000003d0: 2b97 25bf bb5d 973d 7196 8abe e7fe b83f
000003e0: 1158 1abf 9b05 91bf d69a 1bbf 4073 44bd
000003f0: 7b8b 863c ce88 26be ab78 6ebe f7e8 953d
-0.6121876 0.35394102 -0.08426214 -0.7579396 -0.051067792 0.031388417 -0.8407367 0.17107643
0.06609126 -0.14048694 0.07221943 0.344763 0.18414026 0.2438353 0.35019246 -0.3302493
2.2778184 1.5886467 0.64844424 0.2554747 0.70863295 -0.49924925 -0.6693777 -0.08965246
0.27739188 -0.15147826 -0.17833866 0.5345027 0.009391549 0.0534442 -0.60398847 0.015976928
-0.13330548 -0.80765164 0.35290352 -0.056083217 -0.071638055 0.09219502 -0.86031455 0.90309864
0.038122635 -0.33025616 -0.3725767 0.50340635 0.33869082 0.37056884 0.0028605927 0.05130861
0.69291633 0.40169942 -1.1031879 -1.1092819 0.21221365 0.7018796 -0.13163327 -0.35911772
-0.14488705 -0.14872105 0.051400896 0.17884296 0.88406956 -0.16021127 0.0486738 -0.8453206
-0.043191507 0.41605172 -0.73022884 0.07873571 0.75689805 0.15833801 0.8013064 -0.9641741
0.7446046 -0.5231672 0.37044242 0.07852277 0.29266602 -0.54785323 0.18350266 0.17813265
-0.33201408 0.14835146 -2.0706847 -0.27319515 0.3612747 0.26143712 0.30008903 -0.10498468
-0.46664348 0.1150141 0.118863784 -0.01506395 -0.14760277 0.549293 -0.25286046 -0.015476119
-0.5806045 -0.049675785 -0.07577754 0.6748962 0.6914046 -0.40367886 0.32799944 0.09417048
1.2774583 -0.747585 0.20229532 0.04742701 0.20032129 -0.20993952 -0.08062103 -0.10305441
0.008770598 0.2520281 -0.38138232 1.4993873 0.10778719 1.5022521 0.06359769 -0.3234664
0.59620047 -0.2273794 0.14087504 0.28054512 0.0055761808 -0.21637745 0.8147655 0.028128915
0.022564396 -0.7683756 0.05591999 -1.2840562 -0.44000962 0.54015577 0.043600455 1.5233039
-0.222424 0.1819935 -0.20133059 0.14488885 0.36233324 -0.049349405 0.060549147 -0.026325097
-0.045382615 -0.09656774 -0.23802863 -0.47824836 -0.4649904 -1.4214367 0.5844941 -0.64509964
0.3509258 0.16151115 0.30702093 -0.10461889 -0.02582089 -0.14827718 -0.03995214 0.65015686
0.38889986 -0.0062491074 -0.59357965 0.032436647 2.4170887 -0.19751191 0.0034605176 0.0766024
0.4885105 -0.70209527 -0.9578081 0.1347552 -0.17513962 -0.63785744 -0.24173996 -0.11636719
-0.19838183 -0.2671833 0.10948517 0.02598672 -0.23853324 0.13444117 0.03869101 -0.57593113
-1.0031506 0.035178296 -0.27168515 -0.5632569 0.22968102 0.0047450634 0.037749697 0.34680295
0.20760132 0.19440155 -0.055694032 -0.26912826 -0.03615561 2.6235502 -0.42334408 -0.123029664
0.17392556 -0.97155714 1.1301677 -1.3484604 0.21398847 -0.28030795 -0.79632103 -0.3144964
-0.17736432 -0.0963217 0.13323727 0.12192511 0.34750357 -0.25332046 -1.6496419 0.92610264
0.99639124 1.1844754 0.4416737 0.36806533 -0.25839618 -0.08584501 0.020885577 -0.052263424
-0.032233328 0.19249111 0.022318197 0.056529857 -0.18917593 0.032700986 2.6840372 0.33545
0.09387894 -0.10757434 0.13006729 0.8339536 1.3792653 0.567806 0.1344929 -1.1232377
-0.0080183875 0.20612273 0.17427829 -0.16511434 -0.6468379 0.073909245 -0.27067903 1.445279
-0.6029063 -1.1329836 -0.60783136 -0.047961473 0.016423931 -0.16263124 -0.23288219 0.07319825

fc1.bias f4 [300]
00000000: f77b e1be 12e7 34bf 4b74 f4be 3feb 64bf
00000010: 7f8a 03bf 0c05 a0be aaff 4abe fe2d 21bf
00000020: 5e08 09bf 17dd 65bf bffa 06bf a7f5 16bf
00000030: 9911 12bf 8d83 fbbe 65ea 5fbf 13e7 3cbf
00000040: e692 45bf 532d 70bf 16dc aa3d 2a06 f3be
00000050: 3e6a 2ebf 76ee debe f162 88bf b9e6 1fbf
00000060: 394a 55bf 1b46 e0be 3b89 0b3e 4e93 2dbe
00000070: 49ae 23bf 2c2c 92bf 49d8 bfbe 6537 0cbf
00000080: 880b 11bf 18da 41bf 5396 7bbf 3a19 f1bd
00000090: db63 10bf 6581 173e 8c6f 66bf 5cf2 7c3e
000000a0: 0a2e c03d 29e3 64bf 1120 4abf 8085 fdbe
000000b0: 1263 58bf b9b8 05bf 3d77 88bf fb60 9dbf
000000c0: 25e3 3abf 2b90 1fbf d71e fdbe 01d6 9cbe
000000d0: a563 02bf 8da1 2fbe 36c1 ecbb 41dd 8dbe
000000e0: 7fb7 9fbe 9404 3ebf 6521 16bf 918a 2e3c
000000f0: 4ab4 49bf 358d 03bf ae20 30bf c3cc 33bf
00000100: f7f9 2bbf c3ab 53bf a273 e3be 7dbc 6ebf
00000110: ad4b aabe 9d89 90be 0452 03bf 2ff4 9ebe
00000120: 671e 83bd 0e26 eebe f91d 19bf 5114 4cbf
00000130: 5898 00bf 9b61 a4be 1564 59bf e70b 20bf
00000140: 0c4a 11be 846d 04bf dbab 34bf ba71 46bf
00000150: ecd0 5ebf 1763 9cbe 7b17 2abe e070 5cbf
00000160: 2a58 c8be 6a30 54bf 6fae 63bf ae1f 20bd
00000170: 6501 39bf 87a9 05bf 8dbd 5ebf a7f8 8fbf
00000180: b615 d3be 625d b43c e379 07bf 6c57 edbe
00000190: 89ee e0be 2f44 03bf 41d0 0abf 43c9 eebe
000001a0: 5ada c2be 1ce3 47be 65e4 a4be 516d 10bf
000001b0: 07b9 8bbf 9dc8 5bbf 122c f0be 6c24 6ebf
000001c0: b09c 2bbf c814 93be bf3d 713e bd81 35bf
000001d0: 5567 dabe f388 49bf 4662 62bf 3716 48bf
000001e0: a940 f7be 993e 15bf eb37 8ebf 493a 7abf
000001f0: 764e febe d94e 0ebf c246 23bf fee0 2ebf
00000200: 7f74 35bf ef69 b7bd 4bf6 58bf f4b4 14bf
00000210: f45d 6ebf 1dd6 b6be 415d d3be 0f8f 6f3d
00000220: 5870 97bf a7c7 dcbe cf5a 79bf 0eae ddbe
00000230: 1e68 48bd ac13 f1be 239c 01bf b621 11bf
00000240: 984e 06bf 2dc6 44be c83e 62bf 8ed3 98bf
00000250: 28b4 debe abb7 963d 938e 21bf a331 bdbe
00000260: ab4b ccbe d929 6ebf 06b2 42bf 73bd e1be
00000270: 92e7 aabe 679d b5be a39a 83bf 074e 80bf
00000280: ad6c 33bf 2e82 10bf 1f96 0cbf a681 57bf
00000290: f44d 20be 3905 bcbe 42c7 45be ec7c 19bf
000002a0: 36ff 58bf 4607 11bf 4731 03bf cc02 5ebe
000002b0: 356f dabe 3a5b cebe 58e0 66be 36da 50bf
000002c0: 3344 d3be 3ba7 8dbf a1c3 45bf e0c0 61bf
000002d0: f407 d9be eef5 59bf d6d0 1bbd 0320 89bf
000002e0: bf51 acbe bb68 f3be 8ce9 f5be 899e 18bf
000002f0: 0e91 e8be 045d 2bbf 63d9 33bf d2b1 37bf
00000300: 7d4c 3fbf 1e6a 913d 39f4 1bbf cef0 29bf
00000310: 6eec 2ebf 8cdb 0ebf 6de6 13bf 5e22 16bf
00000320: dcde 3dbe b046 50bf d8be 50bf 49d9 4abe
00000330: a22c 33bf bd35 b5be e060 1b3d d88a 98be
00000340: 8e91 bebe a251 1bbf ea76 7ebf 7ae2 0dbf
00000350: d98e 07bf 1f64 1bbf a88f 52be 6521 23bf
00000360: 4c39 0fbf 977a c7be 577e 96be ebb9 55bf
00000370: c85a 85bf 3f93 81be 828a 42bf f72b c9be
00000380: 18e8 09bf d6a7 7bbf 5fc4 2bbf 99b7 0dbf
00000390: 7289 ebbe 77ee 3abf b476 5dbf ca0e e7be
000003a0: 301e 5bbe 8434 52bf d1db cbbe e7ec 9dbf
000003b0: a745 95be 4b4f 09bf b9a3 34bf b964 cfbe
000003c0: 724e 9cbe a3b6 8abf 6b3d a9be 59a3 14bf
000003d0: 7ae4 603d 65e3 88bf 9c98 96bf 028e 17bf
000003e0: ce38 39bf f3c1 e3be c049 28bf 84ba 2ebf
000003f0: abdb bbbe 644f 1ebf c431 bbbe 040c ddbe
-0.4403989 -0.70665085 -0.47744974 -0.8942146 -0.51383203 -0.3125385 -0.1982409 -0.62960804
-0.5352839 -0.8979048 -0.5272636 -0.58968586 -0.570581 -0.49123803 -0.8746703 -0.7379009
-0.77177274 -0.9381916 0.08342759 -0.4746564 -0.6813086 -0.43541306 -1.0655195 -0.6246143
-0.8331638 -0.43803486 0.13626568 -0.16950724 -0.63937813 -1.141973 -0.374697 -0.54772025
-0.5665822 -0.7572341 -0.9827625 -0.1177239 -0.5640237 0.14795454 -0.9001396 0.24701828
0.09383781 -0.8940912 -0.7895518 -0.49515915 -0.8452617 -0.5223499 -1.0661389 -1.2295221
-0.73002845 -0.6232936 -0.4943759 -0.30632022 -0.50933295 -0.1715147 -0.007225181 -0.27707866
-0.31194684 -0.74225736 -0.58644706 0.010653154 -0.78790724 -0.5138734 -0.68799865 -0.70234317
-0.6717829 -0.8268396 -0.44424158 -0.9325636 -0.3326086 -0.2822999 -0.5129702 -0.31045672
-0.06402283 -0.46513408 -0.5981136 -0.797185 -0.5023246 -0.32105717 -0.8491834 -0.6251816
-0.14188403 -0.5172961 -0.7057473 -0.7751728 -0.8703754 -0.3054435 -0.1661052 -0.86109734
-0.39129764 -0.82886374 -0.8893804 -0.039092712 -0.7226775 -0.52211803 -0.8700798 -1.1247758
-0.41227502 0.022017185 -0.5292036 -0.4635576 -0.43931988 -0.51275915 -0.5422402 -0.46637926
-0.38057214 -0.19520229 -0.322055 -0.56416804 -1.0915841 -0.85852987 -0.46908623 -0.93024325
-0.6703596 -0.28726792 0.2355871 -0.7090109 -0.4265696 -0.7872459 -0.88431203 -0.781589
-0.4829152 -0.5829864 -1.1110815 -0.97745186 -0.49669236 -0.5558906 -0.6377984 -0.6831206
-0.70880884 -0.08955752 -0.84750813 -0.5808861 -0.9311211 -0.3571023 -0.41282085 0.05848604
-1.183116 -0.43121073 -0.9740419 -0.43296856 -0.04892742 -0.4708532 -0.5062887 -0.56692064
-0.52463675 -0.19216223 -0.88377047 -1.1939561 -0.43496823 0.07359251 -0.63108176 -0.36951932
-0.3990148 -0.93032604 -0.7605289 -0.4408985 -0.333798 -0.3547165 -1.0281566 -1.0023812
-0.700877 -0.5644864 -0.54916567 -0.841822 -0.15654737 -0.36722735 -0.19314292 -0.5995624
-0.8476442 -0.56651723 -0.51247066 -0.21680754 -0.4266297 -0.40303975 -0.22546518 -0.81582963
-0.4126297 -1.106666 -0.7725163 -0.8818493 -0.4238888 -0.85140884 -0.03804096 -1.0712894
-0.33656117 -0.4754084 -0.48029745 -0.59616905 -0.45423168 -0.66938806 -0.7025358 -0.7175571
-0.74726087 0.07100318 -0.6091953 -0.66383064 -0.68329513 -0.5580375 -0.57773477 -0.5864619
-0.18542045 -0.8135786 -0.81541204 -0.1980945 -0.6998998 -0.35392562 0.037934184 -0.2979343
-0.37220424 -0.60671437 -0.994002 -0.554237 -0.52952343 -0.6069965 -0.20562613 -0.6372283
-0.55946803 -0.38960716 -0.29393265 -0.83486813 -1.0418329 -0.25307652 -0.75992596 -0.39291355
-0.5386977 -0.9830297 -0.67096514 -0.5535827 -0.460033 -0.7302012 -0.8650925 -0.4512847
-0.21398234 -0.8211138 -0.39816144 -1.2337922 -0.29154703 -0.53636616 -0.7056232 -0.40506533
-0.305286 -1.0836986 -0.3305467 -0.5806175 0.054905392 -1.0694395 -1.1765323 -0.5920106
-0.723523 -0.4448391 -0.65737534 -0.6825335 -0.3669103 -0.6183989 -0.36561406 -0.4317323

fc2.weight f4 [400, 300]
00000000: b808 80be fc40 ffbe f023 75be 291c 02bf
00000010: d04e b3bd 5c5b f9be 794d 38be 67c8 c23e
00000020: 84ae e0bd 88da 4a3f 376f 1fbd 1281 213d
00000030: a09e b83e 8f6c ba3e c570 633d ba67 51bf
00000040: 6699 c1be 7779 5c3e 985d 0dbf 6d14 69be
00000050: 9113 ac3d a059 61be 7faf 583f 7d46 0cbf
00000060: ab32 eb3e 7751 023f 1284 c0bf 6e0c 513b
00000070: dd13 16bf 86da d93d 5602 bd3d cfd1 a43e
00000080: 0614 443e 0319 d83d 1bd2 88be 7dce 4ebf
00000090: 2cc4 09bf a2f7 213e 26ee c3be e42c b6bc
000000a0: 89bb a8be f0a8 a8bd 810f 83be 9e93 2c3c
000000b0: 2ccb e43e f3bf c7be 6015 723f 301c 79bf
000000c0: e060 eabe 1939 12bf 49fa 48bf e832 9abf
000000d0: 320e 37bf a031 32bc f554 b9be a4a2 42bf
000000e0: 5199 a53c fc88 bdbe eba1 453f f611 17bf
000000f0: 4022 073e a1ed 11be 80c5 a73d 0116 86be
00000100: 87da eebe 72c2 44be 133a cd3e d8dd 283e
00000110: 3999 b2bd f010 90be 50dc 97be e84e 573d
00000120: 09cd efbe 3d5c a33c aa9d d43e de14 f53e
00000130: 14dc 15bf cc1e babe 5b0c dabe 2de8 4abe
00000140: 272b d8be 2418 a33e 1e50 793f d6cf a93d
00000150: fd87 3a3e 471a 363e 33a0 29bd 4607 b8bd
00000160: 00f9 463f 5538 70bf 16bd 173e a82a 8bbf
00000170: e1f3 563e b63c b23d 3f69 e9bd a157 c0be
00000180: 2ee2 fcbd 3a84 00bf 9d56 0c3f a09b 633e
00000190: 5d3e 573b e363 143f 2ac9 d73e d510 babe
000001a0: ab3a c93e ed3b 8d3d d26b 883c b14a 1f3f
000001b0: 250e 8fbf 8761 c7bd 2f2c debd be89 223f
000001c0: 863d 7bbe aab5 0dbf 80b6 ae3e a3b6 36bf
000001d0: a5bf be3e 8bf0 273e 9356 9bbe 8379 f5be
000001e0: 47b0 bebe 055a f7be f0ab 213c 625f 063f
000001f0: e298 ca3d 9d79 afbf 0a79 edbe 1e95 74ba
00000200: 8631 44bf 5578 eabe 4776 723e 8282 2c3f
00000210: 4bd5 8bbe 5e43 533f f138 adbe b674 1f3c
00000220: 8af1 143f 393c 293f 927a e0bc 126c 903d
00000230: 3bc0 52be 0180 25be 766a 78be 6aae 9ebe
00000240: 89eb 33bf 8809 cbbe 4027 7e3e 4f37 f8be
00000250: 6ac8 9e3d 727d 243f ef10 a83d 48e0 b0bd
00000260: 7ff8 f2bc feea 0fbe 9106 173e d28e 33bd
00000270: ba68 4e3d e40f 7cbe 74b3 6cbe cc4d 54be
00000280: 4ad9 11bf a275 37be f168 753e a21c 3ebe
00000290: 39f9 683e 1986 083f 6bf1 683e f79f bd3e
000002a0: 4544 3ebe d716 a23e 81c7 72bf a479 ad3e
000002b0: 8447 13bf 671f f7be e783 0abf 2a10 0f3e
000002c0: 7123 00bf af13 863e 3f1d 90be 9bfd aebe
000002d0: 0a86 02bf 5808 463e 79f2 63bf 4139 16bf
000002e0: 4eb1 9f3e dd12 92bd ff63 82be 7951 86be
000002f0: e68c a9be 04ca 2a3f 3906 f83e e799 bf3d
00000300: 0479 323e f14f dbbe e4e4 bd3e c704 9dbe
00000310: 3e5d 56be 559e bebe a1f7 4dbf 4386 3a3d
00000320: 8c8b 7e3e bc1d b33e 4a62 34be 0549 88be
00000330: 250a 993e 7f6d 25bf d8ec a6be 2af2 1bbf
00000340: bd1d 383e 1d0f 25be 553e 1f3e 07c2 ac3d
00000350: d2e0 953d 2a08 13bf ab58 9ebe 1356 aabe
00000360: 2402 16bf 20d2 ad3e 0a17 f33d c1cf 5fbe
00000370: 5585 e73d 0a1e 2bbe 8ab3 32be 80c8 06bf
00000380: cd17 a3be 3556 c6bd f00d eebe e34a 983e
00000390: d847 d9be 930b 63be 802d 973e 069c 2e3f
000003a0: c31f d8bd 3916 8bbf 086f c6be ded5 fcbd
000003b0: 5d02 abbd 7fc3 52bd 5cea febe 825c f4be
000003c0: 0164 1c3c 7b20 a9be 4076 c5be a2ee 263e
000003d0: 799f 993d c7e8 d0bd efe9 18bf a779 b5be
000003e0: 7a62 73be 9943 e93c 2226 cdbd 7bf2 b7bd
000003f0: 3b85 4e3d f45a 89be 393d 4d3e 2dfa 33bf
-0.25006652 -0.49854267 -0.2393949 -0.5082422 -0.08755267 -0.48702514 -0.17998303 0.3804352
-0.10970786 0.792397 -0.038924422 0.03942973 0.3605852 0.3641095 0.055527467 -0.817989
-0.37812346 0.2153071 -0.5522094 -0.22761698 0.084021695 -0.22006845 0.84642786 -0.54795057
0.45937094 0.50905555 -1.5040305 0.0031898278 -0.5862406 0.10637383 0.09228961 0.3219132
0.19148263 0.105516456 -0.26722798 -0.80783826 -0.5381496 0.1581712 -0.3826763 -0.022238202
-0.32955578 -0.08235347 -0.25597766 0.010533242 0.44686258 -0.39013633 0.94563866 -0.97308636
-0.45777035 -0.57118374 -0.78506905 -1.2046785 -0.71506035 -0.010876089 -0.3619763 -0.7602942
0.020214709 -0.37018573 0.7720019 -0.5901178 0.13196659 -0.14250804 0.08191967 -0.26188663
-0.46651098 -0.192148 0.4008337 0.16490877 -0.08720631 -0.28137922 -0.29660273 0.052565485
-0.46836117 0.019941444 0.41526538 0.47867483 -0.5853894 -0.3635162 -0.4258755 -0.1981513
-0.42220423 0.31854355 0.97387874 0.08291595 0.18215938 0.17783462 -0.041412544 -0.08985762
0.77723694 -0.93835956 0.14818224 -1.0872393 0.2099147 0.08702986 -0.11397027 -0.37566856
-0.12347828 -0.5020176 0.5481966 0.22227335 0.0032843568 0.57964915 0.42145663 -0.36340967
0.39302573 0.068961956 0.016652975 0.62223345 -1.1176192 -0.09735399 -0.10848271 0.6349143
-0.24535188 -0.5535532 0.3412361 -0.7137243 0.37255588 0.16400354 -0.30339488 -0.4794427
-0.37243864 -0.48310867 0.009867653 0.5248929 0.09892441 -1.3708988 -0.46381408 -0.00093300815
-0.76638067 -0.4579493 0.23677932 0.6738664 -0.27311167 0.8252467 -0.33832505 0.009732416
0.5818106 0.6610752 -0.027402196 0.07051863 -0.20581143 -0.16162111 -0.24259362 -0.30992442
-0.70281273 -0.3965571 0.2481966 -0.48479697 0.0775307 0.64253914 0.08206355 -0.08636528
-0.029659508 -0.14054486 0.14748599 -0.043837376 0.050392844 -0.24615437 -0.23115331 -0.20732802
-0.5697218 -0.17915967 0.23965813 -0.1856561 0.22751321 0.53329617 0.22748344 0.37036106
-0.1858073 0.3165805 -0.9483567 0.33881867 -0.57531 -0.48266146 -0.54107517 0.1397101
-0.5005408 0.26186892 -0.28147313 -0.3417786 -0.5098578 0.1933912 -0.8904186 -0.5868111
0.3118996 -0.07132504 -0.25466916 -0.26234034 -0.3311531 0.667145 0.48442248 0.093555264
0.17428976 -0.42834428 0.37088692 -0.30667707 -0.20934007 -0.37230173 -0.80455977 0.0455382
0.2485792 0.34983623 -0.1761562 -0.2661821 0.29890552 -0.646202 -0.32602572 -0.6091639
0.17980094 -0.16119047 0.15551122 0.08435445 0.07318272 -0.5743433 -0.30927023 -0.33268794
-0.58597016 0.33949375 0.11869629 -0.21856596 0.11304728 -0.16710678 -0.17451301 -0.5264969
-0.31854096 -0.096844114 -0.46495008 0.29744634 -0.42437625 -0.22172384 0.295269 0.6820682
-0.10552933 -1.0866157 -0.38756585 -0.123454794 -0.0835006 -0.05145597 -0.49788177 -0.47726828
0.009545327 -0.33032593 -0.3856678 0.16301969 0.0750112 -0.10200649 -0.59731954 -0.35444376
-0.23768035 0.028474616 -0.10017039 -0.08981796 0.050420027 -0.26827204 0.20042886 -0.7030361

fc2.bias f4 [400]
00000000: 4ed6 87be 93f5 79be eddd cabe 5523 0bbf
00000010: 50b1 c2be 030b 12be 3239 54be ad69 debe
00000020: c77d 4dbf 1777 d5be c596 bebe a50e febe
00000030: 9603 0abf d1cf fdbe 9df9 f0be 784b 9abe
00000040: ecb5 95be 5a67 e5be 14f3 0cbf 9fca b6be
00000050: 60ad 24bf bf4e babb 83f0 72be 4544 98be
00000060: 0e83 0ebf 9112 5b3c 7078 14be 2892 a5be
00000070: a91c 0fbf f5ae 05bf 1971 02bf c88d 5a3e
00000080: f9ae c2be fda7 99be e82b 23bf 7a8d c0be
00000090: 6c49 e5be 9582 debe 6cfc 92be ea14 46be
000000a0: e4cc 97be 3e38 9dbe ba50 99be 8e0a 0abf
000000b0: 5652 e0be 4588 f3be 6500 4a3e b92c bc3c
000000c0: d75e 60be c3e6 cdbe 9539 b3be 2e43 b23d
000000d0: bf30 dcbe 5347 54bf e6c1 a6be 9a5f 30bf
000000e0: 2e05 1ebf e87f 6cbd 9437 eabe 6afd 49bf
000000f0: ffaa 0cbf 444e 17bf b252 2abf 6c0e f4bc
00000100: b22b a1be f9e1 d8be 1df2 a6be 9f3e 9bbe
00000110: 1b2c babe acab 04bf 77f6 04bf f500 8dbe
00000120: 50f7 1fbf e1b5 483c 6911 2cbf 6681 8c3d
00000130: d9d9 b4bd 2dc6 45bf 00b6 23bf 52c3 2ebf
00000140: 47c9 33bf c97c 7ebe 6f86 8fbe 59e7 d8be
00000150: 6f7a 1bbf 1b9a d8be 2ad9 62be 711b 20bf
00000160: d43b 09bf bef2 eebe 355d 3cbf 8df6 adbe
00000170: 1810 48bc 7aa7 b3bd 0f3e c4be a0bc b3bd
00000180: fef0 b0be dfcf cfbe 02bc d8be ef97 b6be
00000190: a06b 27bf 4e92 c2be 289a fabe 1ac5 2ebf
000001a0: 03cc c9be 0d73 4cbf 1aee 07bf 15cb 29be
000001b0: 8229 93be 8f7d f2be e756 54be 8ffa 33bf
000001c0: 08a3 32bf ed3c cabd ea3e 4bbe 975e f5be
000001d0: 6e9a 3cbf ec6e 7abe 555f 39bf f820 fbbe
000001e0: debd 80bd 2fb4 3abf 2ca3 b3be 4ca3 80be
000001f0: 08be dbbe 1594 2f3e 6e79 9abe 8df2 d8be
00000200: 3dc3 aebd aafd 32bf b82b f4be d1c8 03bf
00000210: 28fe afbe 2a73 cdbe e1d2 2abe dec2 febe
00000220: 8634 4bbf c52c 2abf 2171 54be 05bb 17bf
00000230: a19f 61bf b5d8 72be 5396 d7be 46f7 f1be
00000240: 7a56 6cbe 3627 77be 1ff8 8dbe 849e 6ebe
00000250: 5270 30bf 2043 dc3d bbd4 b6be d898 13be
00000260: 47ed babe 590b 15bf 6aa7 e2be 8e8e fabd
00000270: cf35 01bf cae8 4fbe dd12 11bf ca5e aabe
00000280: 9048 d0be 3299 7ebe 4812 03bf 2b8e a2be
00000290: a91a dbbe 6df2 d3be 052c 2fbf 60f0 1abe
000002a0: abf8 32bf eca2 823d f094 25bf 7557 9abe
000002b0: f476 32be 63df 99be 58d5 2cbf 4353 82be
000002c0: 5972 02bf 2e76 32be c1ec b8be 27d5 6fbe
000002d0: 2843 2bbf 7f5a 90be a2a0 333e 4a9e 1abf
000002e0: e187 ddbe 98ef 6fbe f640 01be c8d8 b4be
000002f0: 9e25 28bf 7a34 92be 1c57 13bd b3db 06be
00000300: 0c33 96be 6ade 74bf af1a 95be 1af4 b1be
00000310: 0efe 67bd f860 bbbe 8107 6dbe 956b 18bf
00000320: 1b3a 43bf c7be 4dbe b2a1 b13e 0ed8 9ebe
00000330: 208d 73be 0c03 89be 4418 9fbe 7331 d8be
00000340: baab 0fbf 7ecc 303e a8e4 b9be 0d7b 9dbe
00000350: 57d4 5fbe b46c bdbe 38ff a0be a545 76be
00000360: 869c 0cbf b969 fcbe a728 c6be dd1a 79be
00000370: bee4 e7be a4bb b5be 60ea 1abf 5add 833e
00000380: 971e 4abf e3d0 05bf 5c88 dbbe 4785 b2be
00000390: 2e50 2ebf 2839 9ebe 4a19 95be 5073 b1be
000003a0: 1a27 a5be 685a 60be 1de2 8fbe 8665 37bf
000003b0: f640 b7be c7fb 5ebf 6eb1 8bbf 2809 07bf
000003c0: 6150 dcbe 07a4 26be 3b5a c3be 3732 94be
000003d0: 965e 92be 22fa 9dbe aa28 8cbe 7a14 8fbe
000003e0: e25b 5cbe 73a4 acbe 32c4 09bf 97b3 3dbe
000003f0: acf5 a2be 908f 24bf b5bc babd db08 b7be
-0.2653069 -0.24410085 -0.3962244 -0.5435079 -0.38025904 -0.14262013 -0.20724943 -0.4344
-0.80270046 -0.4169242 -0.37224403 -0.49620548 -0.5391172 -0.49572614 -0.4706544 -0.30135703
-0.29240358 -0.44805413 -0.5505841 -0.35701463 -0.6432705 -0.005685657 -0.2372456 -0.29739586
-0.55668724 0.013371126 -0.14499068 -0.3233807 -0.55903107 -0.5222009 -0.50953823 0.21343148
-0.3802412 -0.30010977 -0.6373887 -0.37607938 -0.4478258 -0.43459 -0.28708208 -0.19343916
-0.29648507 -0.30706972 -0.29944402 -0.53922355 -0.43812817 -0.47564903 0.19726713 0.022970544
-0.21911179 -0.4021512 -0.3500487 0.0870422 -0.4300594 -0.8292133 -0.32569808 -0.68895876
-0.61726654 -0.05773917 -0.45745528 -0.78902304 -0.5494842 -0.591038 -0.66532433 -0.029792033
-0.3147865 -0.42359903 -0.32606593 -0.30321214 -0.36361775 -0.5182445 -0.51938576 -0.27539793
-0.62486744 0.012250395 -0.67214066 0.06860618 -0.08830614 -0.7725552 -0.63949585 -0.68266785
-0.70229 -0.2485229 -0.28032252 -0.42364004 -0.60733694 -0.42305073 -0.22153154 -0.6254187
-0.53606915 -0.46669573 -0.7357972 -0.33977166 -0.012210868 -0.08772178 -0.38328597 -0.08776212
-0.34558862 -0.4058828 -0.4233094 -0.3566279 -0.653986 -0.38002247 -0.48945737 -0.68269503
-0.3941346 -0.79863054 -0.5309769 -0.16581376 -0.28742605 -0.4736142 -0.20736276 -0.703042
-0.69780016 -0.09874902 -0.19848219 -0.4792373 -0.7367314 -0.24456376 -0.7241109 -0.4904859
-0.06286214 -0.7293119 -0.35085428 -0.25124586 -0.4291842 0.17146333 -0.30170768 -0.42372552
-0.085333325 -0.6991831 -0.47689605 -0.51478297 -0.34373593 -0.40126926 -0.16682006 -0.49758047
-0.7937702 -0.6647456 -0.2074628 -0.59269744 -0.881342 -0.2371548 -0.42106876 -0.47258967
-0.23079863 -0.24136052 -0.27728364 -0.23302656 -0.6892139 0.107549906 -0.35709175 -0.14413774
-0.36509153 -0.5822044 -0.44268352 -0.122342214 -0.5047273 -0.20303646 -0.5666941 -0.33275443
-0.4068036 -0.24863127 -0.5119977 -0.3174909 -0.42793778 -0.41395894 -0.68426543 -0.15130758
-0.6991069 0.06378731 -0.64680386 -0.3014485 -0.1742819 -0.30053243 -0.67513037 -0.2545415
-0.5095573 -0.17427894 -0.3611813 -0.23421155 -0.6689935 -0.28194043 0.17541745 -0.6039778
-0.4326773 -0.23431242 -0.12622437 -0.3532164 -0.656824 -0.2855566 -0.035971746 -0.13169746
-0.2933582 -0.95651877 -0.2912192 -0.34756547 -0.05663877 -0.3659742 -0.23147394 -0.5953916
-0.76260537 -0.20092307 0.34693676 -0.31024212 -0.23784304 -0.26760137 -0.310732 -0.42225227
-0.5612141 0.17265508 -0.36307263 -0.30757943 -0.21858345 -0.36996996 -0.31444716 -0.24050005
-0.54926336 -0.4929941 -0.3870289 -0.24326654 -0.45291704 -0.3549472 -0.6051388 0.25754815
-0.78952926 -0.5227186 -0.4287747 -0.34867308 -0.68091094 -0.30902982 -0.29120857 -0.3465829
-0.32256395 -0.21909487 -0.28102198 -0.7163929 -0.3579175 -0.8710293 -1.0913522 -0.52748346
-0.43030074 -0.16273509 -0.38154778 -0.2894456 -0.28587788 -0.308549 -0.27374774 -0.2794531
-0.21519426 -0.33719215 -0.53814995 -0.1852554 -0.31828058 -0.6428156 -0.09118024 -0.35748944

fc3.weight f4 [4, 400]
00000000: 07c0 5fbe 10d5 73be 8889 9b3e e81e 823e
00000010: 7841 fa3c 9364 a7bc 0366 c6be c054 eebd
00000020: 911b fc3e dca5 0fbd c294 17bf 37dd bc3d
00000030: 8a8a a73c a5b5 c5bc 29b4 fbbd a241 ce3e
00000040: 0a90 25bf f745 fcbe ac9b 153f 4a52 83be
00000050: d41f 1abe 0785 23be 5d64 963e 0030 6abe
00000060: b829 083d c627 5bbd e6a8 dcbd e34c 99bd
00000070: e7b7 183c 8b15 073e 6e9e 2fbe 5747 2dbd
00000080: fcc4 ec3c 5f9f a03e 95f2 2c3d 4c80 5a3d
00000090: fb4a 573f d60a f93d b08f 5e3e b8b3 8bbe
000000a0: 5c2e a13e 0a6b 9abe ea2c e9be 51dd babd
000000b0: bb8c 893e 9f58 0e3d ee8e 803d a83f 55bd
000000c0: 315c 513d e2ce 313c 09b6 983e 10d3 a7bc
000000d0: 5c60 653f 934b c2be c42b 7d3d 2ea9 d53e
000000e0: 1279 cd3e 6ff1 2b3d 2423 47be 3382 e8bc
000000f0: dc89 afbd e590 4ebf d2ad 973d 5283 f03d
00000100: a074 823e 83ee 4abc 5edb 74bd a29d 9b3e
00000110: 8e83 47be 1c64 1539 a626 bebe 8005 83be
00000120: 68cc 82bc fc95 b83d c871 0b3f 1ddf 2a3e
00000130: 1792 163e 5f03 58be aaa5 47bd 5619 a8be
00000140: 041c 19bf 2feb ebbe a561 95be 911c 1a3c
00000150: fc44 c1be 0c75 333e 42cd 43be 6c77 763e
00000160: ad35 b6be c122 91bd 8aff 663e a2ed 6ebe
00000170: 3eb4 403d fbeb 1b3d 022d b73d a82f 98be
00000180: 52a4 c8be 290e 97be e846 3dbe 3227 0a3f
00000190: 9c09 0d3d ebea 0f3e 08b3 313e 30fb c23e
000001a0: fbef ff3e 534e 04bf 1820 e8be 7902 a9bc
000001b0: 88ac ee3c 2270 9dbe 5788 0a3f 081c 31bf
000001c0: 6156 84be 2e27 b2be d57c 433c 45e9 1b3d
000001d0: 454d eb3d 6c4f 6ebb f1e8 6fbe 3e31 c3be
000001e0: 7bbc d03e dc3c 6cbe 28f6 b1be 5c60 ac3e
000001f0: b4a8 6fbe b53d 8f3d cb74 c93d 1092 46be
00000200: 7ffe cebc ce53 f5be e06d 6abe e154 473e
00000210: b1b0 58be 7601 ea3e 95ad 80bd bac1 b03c
00000220: cedc 553e 7caa 40bf 3001 fc3e aa88 6ebe
00000230: 858c ba3e 51d2 34be 9719 833e 6631 683d
00000240: 8cef 50be 269c 203d 386e f53e b538 e23c
00000250: 8067 4abe 6c99 e03e 83e3 653e 0d44 9abd
00000260: ac22 81be b1e3 73be b7e4 d2bd 9b67 10be
00000270: 936a 6bbe 58f4 cd3d bb22 523d 9a4a 473e
00000280: 940c 58be dbaa 8e3d fd3d 943e 9f97 a0bd
00000290: a607 4e3e fbfc 98be 6a32 63be b7f5 dd3e
000002a0: eef9 06bf a166 51be 7e42 e5bc da8d 07be
000002b0: 7cd2 3cbd a7c7 733e 636a 28bd 5be8 60be
000002c0: 10be 153f 6360 a83e 0e70 5f3d 87bd 243e
000002d0: 8951 323e 051f e53d 5da9 f9bd cb92 a4be
000002e0: e87d 3d3e 07b8 8e3e 53b1 fbbc 3b7c 66bd
000002f0: 9808 9c3e 4f09 9a3e 7e14 07bf d1e8 bb3c
00000300: 37a9 5abe 2bc4 b93e 05ab 043e 4b67 c5bd
00000310: d89f d63d 73d2 9cbe a691 52be df79 cbbe
00000320: 4b48 93be 3cd7 c63e 2ee6 2ebf c110 3cbf
00000330: 59ca dc3e cc5a 7e3e 60ee 943d 42c2 59be
00000340: f8c5 24bf af72 163f d585 123f b2ba f03e
00000350: 5496 033f 72a5 b8be 53d0 933d b6e0 b6bb
00000360: da4f e23d d974 10bf c985 a13e 92b8 ffbd
00000370: fef6 b7bd 371b 0abf 19cc 9dbd b403 42be
00000380: 9419 51be 9a58 e43d d5e4 633d 39b4 14bf
00000390: 7bc0 f33c a6d4 f4be 66dc 0d3f 5420 513e
000003a0: 442b 59bd 4218 993e a933 943e 9d06 793c
000003b0: d9e8 6c3d 5b24 02bf 1f4f 98be af80 13bf
000003c0: 9cf4 c03e bd36 ee3a a6e5 513f 5764 1dbf
000003d0: a0d7 7e3e c7b0 96be 1819 6bbe c9df cb3e
000003e0: 6754 193f 2504 fabb f80a c0be 87c6 c23e
000003f0: 647d a03e f4bc febe 56da 6f3e 5642 76bd
-0.21850596 -0.23811746 0.30378366 0.25414205 0.030548796 -0.0204337 -0.38749704 -0.116372585
0.49239781 -0.035070285 -0.5921136 0.09221881 0.020451803 -0.024134466 -0.12290222 0.4028445
-0.6467291 -0.4927213 0.5844066 -0.2564872 -0.15051204 -0.15968715 0.29373446 -0.22869873
0.03324291 -0.053504728 -0.10774402 -0.07485368 0.0093211895 0.13191812 -0.1715028 -0.042304363
0.028902523 0.3137159 0.04222353 0.05334501 0.84098786 0.1216027 0.217345 -0.27285552
0.31480682 -0.3015979 -0.4554208 -0.09124244 0.2686518 0.034752484 0.06277262 -0.05206266
0.05111331 0.010852547 0.29826382 -0.020486385 0.8960016 -0.37948284 0.061809316 0.41730636
0.40131432 0.041978296 -0.19446999 -0.028382396 -0.085712165 -0.8068984 0.074062005 0.11743797
0.25479603 -0.012385967 -0.059779517 0.30393702 -0.19483778 0.00014247041 -0.3713886 -0.25590134
-0.01596661 0.09012982 0.5447049 0.16686673 0.14704166 -0.21095036 -0.048741974 -0.3283183
-0.59808373 -0.46077868 -0.2917606 0.009406225 -0.37747943 0.17525119 -0.19121268 0.24068993
-0.35587826 -0.07086707 0.22558418 -0.23332837 0.047046892 0.038066845 0.089441314 -0.2972386
-0.39187866 -0.2950299 -0.1848408 0.5396606 0.034432992 0.14054458 0.17353451 0.38082266
0.49987778 -0.51682013 -0.45336986 -0.020631062 0.029135004 -0.30749613 0.5411429 -0.691834
-0.25847152 -0.34795517 0.011931618 0.03806426 0.11489347 -0.0036363257 -0.23428704 -0.38123506
0.407688 -0.23070091 -0.34758115 0.33667266 -0.23404199 0.069941916 0.098367296 -0.19391656
-0.025267838 -0.479155 -0.22893476 0.19465972 -0.21161152 0.4570424 -0.06283108 0.021576751
0.20885012 -0.7526014 0.49219656 -0.2329432 0.36435333 -0.17658354 0.2560546 0.056687735
-0.2040388 0.039211415 0.47935653 0.02761493 -0.19766045 0.43867052 0.2245007 -0.07532511
-0.25221765 -0.23817326 -0.1029753 -0.14102022 -0.22989874 0.100563705 0.051302653 0.19462052
-0.21098548 0.06966182 0.28953543 -0.078414194 0.20120105 -0.2988051 -0.221872 0.43351528
-0.5272511 -0.20449306 -0.027985808 -0.13237706 -0.04609917 0.2380663 -0.041117083 -0.21963637
0.5849314 0.32886037 0.054550223 0.16087924 0.17413916 0.11187557 -0.121905066 -0.32143244
0.1850506 0.27874777 -0.030724203 -0.05627082 0.30475307 0.30085227 -0.52765644 0.022938164
-0.21353613 0.36282477 0.12955864 -0.09638842 0.104797065 -0.3062931 -0.20563373 -0.39741418
-0.28766093 0.38836086 -0.68319976 -0.73463064 0.4312313 0.24839324 0.07272029 -0.2126551
-0.64364576 0.58768743 0.5723546 0.47017437 0.5140126 -0.36063725 0.07217469 -0.005580987
0.11050387 -0.56428295 0.31547382 -0.12486376 -0.08982657 -0.53947777 -0.07704944 -0.18946725
-0.20419914 0.11149712 0.055638153 -0.580875 0.029754868 -0.47818488 0.55414426 0.20422488
-0.053019777 0.2990132 0.28945664 0.015199331 0.05783925 -0.50836724 -0.29747865 -0.5761823
0.37686622 0.0018174272 0.8199104 -0.6148123 0.24886942 -0.29431745 -0.22958791 0.39819172
0.5989441 -0.0076298886 -0.37508368 0.3804209 0.31345665 -0.49753535 0.23423132 -0.060121857

fc3.bias f4 [4]
00000000: 65a1 f73c e61b f6bc 8416 febd ff43 813d
0.030228326 -0.0300426 -0.12406638 0.06311797
