experiments/exp3/models/checkpoint_actor_3.pth (torch_old, 529855 bytes, 6 tensors)

fc1.weight f4 [300, 33]
000000 02 79 e4 3c 67 b7 8c 3e e4 d7 8d bd 3c ce 1c 3f
       0.027889732 0.27483675 -0.069259435 0.6125219
000010 de 1d f1 3e e9 24 05 bf 87 b9 35 bf 02 8e a6 bd
       0.470931 -0.52009445 -0.7098622 -0.081325546
000020 14 5a 65 bf ba 88 3c 3e 31 8b cc 3e d2 9d 35 3e
       -0.89590573 0.18411532 0.39949945 0.17735985
000030 81 a7 2d bd 02 6e be 3e ab 33 05 3f 9a d9 b6 3e
       -0.042396072 0.37193304 0.52031964 0.35712892
000040 4e ea e7 be a0 df 9c bf 20 3d d3 3d eb a3 00 3e
       -0.45295948 -1.2255745 0.10314393 0.1256253
000050 40 92 2c be 53 34 9d be 15 3f 25 bf 94 f6 14 be
       -0.16852665 -0.30703983 -0.6454938 -0.14547187
000060 9c cb 03 3f 2c 97 01 3f c3 83 39 3e 8f e0 a9 3f
       0.5148256 0.50621295 0.1811667 1.3271655
000070 e2 18 b0 bd 4e e8 5a 3d 75 c5 b2 bf 0c e2 82 3c
       -0.08598496 0.0534442 -1.3966509 0.015976928
000080 bb 1f 8c 3e 1f 78 81 be f6 2f ae be d0 04 f3 bd
       0.27367958 -0.25286958 -0.34020966 -0.11866152
000090 99 8e 0e c0 93 bd 09 40 60 be 09 3d d9 8f 45 bf
       -2.2274535 2.1521957 0.03362882 -0.7717262
0000a0 65 62 6d bd 88 40 e5 3e a0 6d 57 3e a1 a3 96 3e
       -0.057955164 0.44775796 0.21037912 0.29421714
0000b0 f4 e3 8d be 5b 52 6d be 2a 29 49 bf 1b 79 9e 3e
       -0.27712977 -0.23175947 -0.78578436 0.3095177
0000c0 51 56 07 3f f0 da 02 3f 80 23 8c bd a8 9a 3e bd
       0.52866083 0.5111532 -0.068427086 -0.04653421
0000d0 3b b3 65 3f e1 98 47 be b4 83 00 bf 2e 49 35 3e
       0.8972661 -0.19491912 -0.50200963 0.17703697
0000e0 f1 dd 1e 3e 8e 3b 7f 3e 3c 50 a6 3d a4 63 d7 3e
       0.15514351 0.24925062 0.08120772 0.42068207
0000f0 81 57 1a 3f 41 6f cf be 2e 5e 47 3d cb 6b 10 bf
       0.6028977 -0.40514567 0.0486738 -0.5641448
000100 94 e9 30 bd be 19 c9 3f 6c 57 5e be f0 dc 28 3e
       -0.043191507 1.5710981 -0.21713036 0.16490531
000110 92 65 04 3d f2 e6 d3 bf d9 aa 83 3f dd 09 e0 3f
       0.032323427 -1.6554854 1.0286514 1.750301
000120 c9 e4 39 3f f7 90 74 be 1f e7 40 3e e8 b8 58 3e
       0.72614723 -0.23883425 0.18838166 0.21164286
000130 50 1a e5 be 5a 00 d0 3d f5 30 2a bf b6 8a 34 3d
       -0.44746637 0.10156317 -0.6648095 0.044077598
000140 53 da 67 be 9c 91 18 3f 40 bf 24 c0 bc fd 49 bf
       -0.22641878 0.5959718 -2.574173 -0.7890279
000150 fe 68 dc bf cb 68 e1 bf de ab 98 be f4 8d 95 bd
       -1.7219541 -1.7610105 -0.29818624 -0.07302466
000160 01 e2 3b 3e d2 1e 38 3d 50 e2 04 3e 99 27 32 3e
       0.18347932 0.044951268 0.12976956 0.17397918
000170 45 b6 55 3d 13 e6 2d 3f 56 8f 8c be 8c 8f 7d bc
       0.05217578 0.6792919 -0.27453107 -0.015476119
000180 ef e9 35 bf d6 78 4b bd 44 26 09 3f 8c 23 6b be
       -0.7106008 -0.049675785 0.53574014 -0.22962779
000190 82 ad a2 3c f8 93 1d 3f f3 e0 96 3e cb 21 9f 3f
       0.019858126 0.6155391 0.29468498 1.2432188
0001a0 d4 35 73 bf 4b 02 dd 3e 6d df 0e be 8d 24 83 3f
       -0.9500401 0.43165812 -0.13952418 1.024553
0001b0 85 0f cb bc 39 10 4e 3e 0b 2f c0 be 25 d5 52 3d
       -0.024787674 0.20123376 -0.3753589 0.0514728
0001c0 99 58 d4 3d f6 d9 cb 3b 2f 20 0d be b4 45 6f 3f
       0.10368461 0.0062210513 -0.13781808 0.93465734
0001d0 cc cf 0a c0 49 7d 1a 40 d1 39 73 bd e5 14 2e 3e
       -2.168933 2.4138968 -0.05938131 0.17000158
0001e0 b4 d6 8b be c3 3a 1d bf 7c 9b da 3c ac 9e a4 bb
       -0.27312243 -0.6141779 0.026685469 -0.005023798
0001f0 b3 66 13 be fa ea 30 3d 08 cd fa 3e f0 96 f7 3d
       -0.14394645 0.04319284 0.4898455 0.12089336
000200 f8 d8 b8 3c 7f 0c e3 be 5c 0c 65 3d 55 59 dd 3f
       0.022564396 -0.4434547 0.05591999 1.7292887
000210 2c 71 24 3f d2 16 4b be 35 b5 9f bc 01 84 02 c0
       0.64235187 -0.19832924 -0.019495586 -2.0393069
000220 4a f1 f9 3e 06 a2 2f bf 28 d7 ad 3f 79 93 81 3e
       0.488169 -0.68606603 1.3581285 0.25307825
000230 dc b4 2c 3f e9 9d cc be 93 9b ac 3e bf dc 2c 3d
       0.6746347 -0.39964226 0.33712444 0.042202707
000240 6a 29 46 3e a8 3d be 3e 22 cf d5 3e 13 e3 af 3e
       0.19351736 0.37156415 0.41759592 0.3435293
000250 75 41 6a bf 6a 84 72 bf b3 4c 38 3f e4 fc 44 3f
       -0.9150613 -0.947333 0.71992034 0.7694838
000260 ba 72 d7 bb 94 13 48 3e 61 d5 71 be df 4f a2 be
       -0.006574956 0.19538718 -0.23616554 -0.31701562
000270 24 c1 12 3e 4c 7f 0e be af 85 65 be 61 66 8e 3e
       0.1433149 -0.13915747 -0.22414277 0.27812484
000280 3f 33 27 bf 50 c5 cc bb ff dd 62 be 4a dc 04 3d
       -0.6531257 -0.0062491074 -0.22154997 0.032436647
000290 5a d5 98 3d ec f0 4d 3e e5 77 94 3e af 99 14 3f
       0.074625686 0.20111436 0.28997722 0.58047
0002a0 6c 20 f8 be 0b 9e ea 3f 76 b3 ea be e2 73 d7 be
       -0.48462236 1.8329481 -0.45840043 -0.420806
0002b0 32 14 dc 3e 3c 11 78 be a4 5b ee 3c dc 79 2d 3f
       0.42984158 -0.24225324 0.029096432 0.6776407
0002c0 aa e8 d8 3e 42 10 1f be e9 ec d5 bd 90 e1 20 3f
       0.4236501 -0.15533546 -0.10445578 0.6284418
0002d0 5a 57 ed 3c db ff 45 3f 47 2c 91 3f 9d d1 1c bf
       0.028972317 0.7734353 1.1341637 -0.61257344
0002e0 61 ff 09 bf d7 f6 51 be d9 56 03 bf 76 b7 88 bc
       -0.539053 -0.20504318 -0.51304394 -0.016689043
0002f0 a7 e2 94 3d 0b ff a8 3d 4a 84 99 3e 5b 80 42 3c
       0.07269793 0.082517706 0.2998374 0.011871423
000300 05 8a 37 3f b7 df 24 bf 6d 1f 64 bd 71 4a 47 bf
       0.71694976 -0.6440386 -0.055694032 -0.77847964
000310 e8 17 14 bd fc b9 a4 3f 2b 1a 96 3d 50 f5 a3 be
       -0.03615561 1.2869258 0.0732921 -0.32023096
000320 89 76 c9 3d 14 b6 63 be c2 ee 13 3d f5 25 19 3f
       0.09837062 -0.22237426 0.03611637 0.5982354
000330 31 5c 1a bf b4 4e 83 3d bb 61 aa 3e 4e dd 06 3f
       -0.6029692 0.06411496 0.33277687 0.52681434
000340 1b 79 d8 be d9 ad b3 bc ff 5e 09 3d e6 7c 7b 3d
       -0.42279896 -0.021933483 0.03353786 0.06139841
000350 03 c8 04 3d 8f d5 af 3e 20 cd 30 bf a5 4b 3d 40
       0.03241731 0.3434262 -0.69062996 2.957742
000360 37 ac e4 bf fb 33 81 3f 07 33 d6 3d 0d 62 ae 3d
       -1.7865056 1.0093988 0.104589514 0.085147955
000370 62 eb 03 3f 22 25 87 bd fe 60 d0 bb 2f 3a 7f 3e
       0.5153104 -0.065988794 -0.0063592186 0.24924539
000380 e8 d8 33 bd 28 2c b3 3e be 14 b2 be da 8b 67 3d
       -0.04390803 0.34994626 -0.3478145 0.056529857
000390 a6 79 b1 be 78 f1 05 3d d8 32 29 3f 5f 5e f9 be
       -0.34663123 0.032700986 0.66093206 -0.48704812
0003a0 a8 d8 21 3f 3e eb 92 bd 88 fa 1a bf 1f 1f a6 3d
       0.63221216 -0.07173775 -0.6053853 0.08111405
0003b0 52 1d c3 3d 31 79 88 3f 51 92 86 bd e8 d6 15 3f
       0.09527077 1.0661985 -0.065708764 0.58531046
0003c0 57 1a 67 3d ee f4 89 3d 73 f6 b5 3c 78 61 8f 3d
       0.056421604 0.0673617 0.022212243 0.070010126
0003d0 9f 21 62 3e 76 a2 29 be 1e 00 c2 be c2 74 32 be
       0.22083138 -0.1656588 -0.37890714 -0.17427352
0003e0 5c ab 41 bf ac e7 32 40 77 16 08 bf 7a a2 2f be
       -0.756521 2.7953901 -0.5315928 -0.17151824
0003f0 eb dc a2 3d dc 26 01 3a 5a 03 cc bc c6 7e e6 be
       0.07952293 0.000492675 -0.024903942 -0.45018595

fc1.bias f4 [300]
000000 c9 d4 9d bf fe d6 d9 be 0d 82 1b bf fb bc 11 bf
       -1.2330562 -0.4254684 -0.60745317 -0.56928986
000010 b5 34 11 be 59 67 52 bf da 1d b6 be de da 63 bf
       -0.14180262 -0.82188946 -0.3556965 -0.8900584
000020 01 39 56 bf a6 d2 12 bf 64 00 40 bf 16 5b 77 bf
       -0.8368073 -0.57352674 -0.75000596 -0.9662336
000030 2f 5a f4 be 86 fe 46 bf e8 72 87 bf 61 15 87 bf
       -0.47725055 -0.7773212 -1.0581942 -1.0553399
000040 9e 5c 84 bf c6 41 22 bf 3d b3 5a bf 2b 6a a3 be
       -1.0340765 -0.6338161 -0.85429746 -0.31916937
000050 7b 8b d8 be c7 13 0c bf 48 f5 03 bf 27 19 4c bf
       -0.42293915 -0.5471768 -0.51546144 -0.7972588
000060 3d 2d 35 bf ba 8f 09 bf 9c 94 56 bf 52 0d 67 bf
       -0.70772153 -0.53734934 -0.8382051 -0.902547
000070 e0 cf 95 bf 75 dd 09 bf e7 d7 40 bf d1 8f 53 bf
       -1.1704063 -0.5385354 -0.7532944 -0.8264132
000080 5b 14 25 bf 23 40 ee be f5 db f5 be 73 4e 09 bf
       -0.64484185 -0.46533307 -0.48019376 -0.5363533
000090 87 9c 0a be 5a 8c fb be ac 5c 43 bf 5a f7 80 bf
       -0.13536273 -0.49130517 -0.7631328 -1.0075486
0000a0 99 61 a7 be 9b 3f 33 bf 7e 33 3c be 72 4d 9e bf
       -0.3269165 -0.7001893 -0.18379018 -1.2367384
0000b0 78 06 74 bf be fb 77 bf f9 f4 1a bf 86 ba 55 bf
       -0.9532237 -0.96868503 -0.6053005 -0.8348774
0000c0 6a a1 8f bf 43 7e 8e be 56 7b 24 be 2e 64 41 bf
       -1.1221135 -0.27830705 -0.16062674 -0.7554349
0000d0 b7 34 85 bf 54 ac 6e bf dc ed 17 bf 47 3f 41 bf
       -1.0406712 -0.932317 -0.5934732 -0.7548718
0000e0 ba 77 45 bf da ac 82 bf 8a 29 38 bf 3a 78 4e bd
       -0.77135813 -1.0209 -0.71938384 -0.050407626
0000f0 dd 63 37 bf 99 25 2b bf f9 2f 59 bf 39 2d a7 bf
       -0.71636754 -0.66854244 -0.84838825 -1.3060676
000100 18 20 7a bf 8e 78 72 bf 86 6f 85 bf 52 08 6a bf
       -0.9770522 -0.947152 -1.0424659 -0.91418946
000110 20 63 3d be 56 26 52 bf ef eb ee be c1 ba bc be
       -0.18494844 -0.82089746 -0.46664378 -0.36861232
000120 88 69 13 bf 85 4e 41 bf 02 d9 a4 bf 21 7f 55 bf
       -0.575829 -0.75510436 -1.2878726 -0.8339711
000130 4b 6b 92 bf a0 06 9d bf 11 cb 51 bf 10 81 96 bf
       -1.1438993 -1.2267647 -0.8195048 -1.1758137
000140 22 41 3b bf 24 a5 62 bf ca 12 54 bf 93 c3 a2 bf
       -0.7314626 -0.88533235 -0.8284117 -1.2715935
000150 f0 f8 42 bf ac df 9a be 88 37 2c bf a8 33 10 bf
       -0.761611 -0.30248773 -0.67272234 -0.5632882
000160 5e 20 3d be 6f 12 34 bf 19 e0 8c bf 4d 2d 4c bf
       -0.18469378 -0.7034063 -1.1005889 -0.79756624
000170 0e fa 58 3c 13 7e 0b bf 3c 53 c2 be 65 5d 5f bf
       0.013243211 -0.5448925 -0.37954128 -0.87251884
000180 1e 17 7e bf 4a 55 2c bf 2f 5c 83 bf 65 6f 8c bf
       -0.99254024 -0.6731764 -1.0262507 -1.0971495
000190 05 ec 8c bf b9 22 40 bf 8e c8 65 bf 75 7b 44 bf
       -1.1009527 -0.7505298 -0.8975915 -0.7675088
0001a0 da b0 46 bf 66 94 5c bf b4 a9 9f bf 58 2f 06 bf
       -0.77613604 -0.8616394 -1.2473664 -0.5241599
0001b0 cc aa 02 bf 4e 50 92 bf 8a 2b 1e bf 45 ba 4b bf
       -0.51041865 -1.1430757 -0.61785185 -0.795811
0001c0 4d 04 94 bf 82 4f 32 bf 9c 3f 39 bf 8a 77 57 bf
       -1.1563812 -0.6965257 -0.72362685 -0.8416678
0001d0 6e 53 36 bf 3a ce 4a bf d8 7f 5e bf 37 08 40 bf
       -0.71221054 -0.79220927 -0.86913824 -0.75012535
0001e0 3a 41 35 bf 2d a2 9e bf 69 e5 27 bf 31 4e f8 be
       -0.7080265 -1.2393242 -0.6558443 -0.48497155
0001f0 c4 0a 77 bf cb a0 9e bf 71 2a 30 bf 94 eb 63 bf
       -0.965008 -1.239282 -0.6881476 -0.8903134
000200 e0 0a 7b bf 6b 88 71 bf 0d 01 4d bf 92 0e 06 bf
       -0.9806347 -0.9434878 -0.8007973 -0.5236598
000210 4a ce 2f bf d0 b4 3f bf 4a 7f 80 bf b1 15 82 bf
       -0.6867415 -0.7488527 -1.0038846 -1.016287
000220 b6 27 8b bf 92 3a 48 bf 83 20 79 bf 89 a6 9d be
       -1.0871494 -0.7821437 -0.97315234 -0.3079112
000230 08 66 3b bf b5 24 34 bf a5 13 55 bf ec 39 16 bf
       -0.7320256 -0.7036851 -0.832331 -0.5868213
000240 2a 32 55 be e8 a7 36 bf 3b a9 25 bf b2 d7 08 bf
       -0.20819917 -0.71349955 -0.6471135 -0.53454125
000250 32 fe 99 be 27 71 d9 be f2 cd 16 bf dd 87 9c be
       -0.30076748 -0.4246914 -0.58908 -0.30572405
000260 bf 08 37 bf 99 d4 4a bf 43 2c 55 bf ac 41 81 bf
       -0.7149772 -0.7923065 -0.83270663 -1.0098166
000270 61 ac 67 bf a0 ab 06 bf 57 3d b4 be c1 6c 48 bf
       -0.90497404 -0.5260563 -0.3520305 -0.78290945
000280 da 95 48 bf 5d 27 d9 be 4a 57 ea be 33 73 1b bf
       -0.78353655 -0.42412844 -0.4576972 -0.60722655
000290 13 78 76 be 67 01 87 bf cb e0 50 bf 52 2b e9 be
       -0.24069242 -1.0547303 -0.81593007 -0.45540863
0002a0 ef db 14 bf 74 e8 64 bf 3d b0 4a bf ad 72 58 bf
       -0.5814809 -0.89417195 -0.7917517 -0.8454998
0002b0 72 5f f9 be dd 63 7d bf 53 a3 52 bf 7b 19 0e bf
       -0.48705631 -0.98980504 -0.82280463 -0.5550763
0002c0 95 07 83 bf 14 a5 14 bf 4e e2 27 bf cb b3 3e bf
       -1.0236689 -0.5806439 -0.6557969 -0.7449309
0002d0 fa 28 3f bf 27 f5 2a bf 78 0f 69 bf 51 64 9b bf
       -0.746719 -0.6678032 -0.9103923 -1.2139989
0002e0 38 5b 08 bf 90 49 1c bf 14 20 37 bf 35 1f 6b bf
       -0.5326419 -0.6104975 -0.7153332 -0.91844493
0002f0 e7 dd 12 bf 43 ab 25 bf b6 83 f1 be a5 b4 26 bf
       -0.57369846 -0.6471445 -0.471708 -0.6511939
000300 92 f9 19 bf 00 a7 9a be e7 39 2b bf 0d 60 e7 be
       -0.6014644 -0.30205536 -0.66885227 -0.45190468
000310 79 7c 0b bf 05 80 56 bf 39 10 42 bf b4 2d 6d bf
       -0.54486805 -0.8378909 -0.75806004 -0.9264786
000320 86 25 4a bf 0d 6e 4e bf 98 b6 7f bf a4 da dc be
       -0.78963506 -0.80636674 -0.9988799 -0.4313556
000330 4a 6a 31 bf d2 57 34 bf 42 91 53 bf 90 41 28 bf
       -0.6930281 -0.70446503 -0.8264352 -0.6572504
000340 ad c5 53 bf ab 3a 66 bf 4a 61 16 bf fd 3c 85 bf
       -0.82723504 -0.8993327 -0.587422 -1.0409237
000350 0f 3b 80 bf 8e 86 6f bf 1a b3 12 bf 02 7e 12 bf
       -1.0018023 -0.9356469 -0.5730454 -0.5722352
000360 c0 7b cf be a0 93 53 bf be bd 67 be 61 ad 38 bf
       -0.405241 -0.8264713 -0.22630975 -0.72139555
000370 52 90 28 bf 56 de de be 81 1c 26 bf e3 e2 fc be
       -0.65845215 -0.43529004 -0.64887244 -0.4939185
000380 65 1a 9f be 4c 08 7d bf f1 bf 27 bf 6b 2f 49 bf
       -0.31074825 -0.98840785 -0.65527254 -0.7858798
000390 12 7c d2 be 85 88 55 bf 87 5e 40 bf de 9c 8b bf
       -0.41110283 -0.8341144 -0.7514424 -1.0907247
0003a0 0e 1c 10 be b6 62 ba be 42 a1 6c bf 32 2a b2 bf
       -0.14073202 -0.36403435 -0.9243356 -1.3919127
0003b0 57 71 3c bf f8 a8 ec be 0a 26 08 bf cf c1 46 bf
       -0.7361044 -0.46222663 -0.53183043 -0.7763948
0003c0 16 07 18 bf 98 d8 92 bf 7d cf 57 bf 2c 1e 40 bf
       -0.5938581 -1.1472349 -0.84300977 -0.7504604
0003d0 6c 29 0b bf 21 7a fa be cb 65 80 bf 40 28 1d bf
       -0.5436008 -0.48921302 -1.0031065 -0.6138954
0003e0 fe e4 36 bf 6b ed 2b bf a8 ff 82 bf 4b 0b 09 bf
       -0.71443164 -0.67159146 -1.023427 -0.53532857
0003f0 8b 09 80 bf 47 42 47 3e 73 3d 86 bf 73 7b 39 be
       -1.0002912 0.19458877 -1.0487503 -0.18113498

fc2.weight f4 [400, 300]
000000 74 f1 3c 3f 7b 57 a8 be 16 5c 1e bd 92 4e 1c 3f
       0.7380593 -0.32879242 -0.03866204 0.6105739
000010 a5 07 35 3e 86 ea d0 3f 24 be f8 be 5f 07 3a be
       0.17678697 1.6321571 -0.48582566 -0.18166874
000020 8e fe 10 3f 43 d0 8c be d0 b3 68 3f 8c 3f 0f bf
       0.5663842 -0.2750264 0.9089937 -0.5595634
000030 04 28 42 3d 68 c9 49 bd 37 92 1e 3f 13 15 ec bd
       0.047401443 -0.04926434 0.61941856 -0.11527457
000040 00 0b 08 3f b5 53 8c be 9b f4 cd bd dd c6 0a bf
       0.53141785 -0.27407613 -0.100564204 -0.5420969
000050 4f e9 27 be 64 16 ea 3e 61 b8 4a bf 22 94 8d bf
       -0.16397594 0.45720208 -0.7918759 -1.1060832
000060 33 8f 94 be 7a b4 a9 be 16 62 0d bd 77 b5 fb 3e
       -0.29015502 -0.33145505 -0.03451737 0.49161884
000070 38 3f de 3e e4 25 e8 bd 9b 9a 1e bf 20 fe 3c 3f
       0.43407607 -0.11335352 -0.6195466 0.73825264
000080 94 3a 39 3e da ee 10 3f cd 75 17 bf 3c fe 24 be
       0.18088752 0.5661446 -0.59164125 -0.16112608
000090 be 0a c9 3d 35 b4 18 3e 97 ec f0 3e a4 9e 2a be
       0.09816502 0.14912494 0.47055504 -0.16662079
0000a0 00 4b 06 3e 19 7a 0e bf c7 83 8c bf 39 48 ea bc
       0.13114548 -0.55655056 -1.0977715 -0.028598892
0000b0 0c a0 b9 be 9e 2d e5 be 98 23 75 be b4 08 4f 3f
       -0.3625492 -0.44761366 -0.23939359 0.80872655
0000c0 60 73 da 3e 16 47 e9 be 64 e0 da be 04 3c 65 3e
       0.4266615 -0.45562047 -0.4274932 0.22386175
0000d0 11 d6 34 3e 25 09 9a 3e 44 64 33 3f 2b c1 1b be
       0.17659785 0.30085102 0.7007487 -0.15210406
0000e0 dd 6e 2f bf f8 d1 dc 3d 9c 52 51 bf 49 37 57 bf
       -0.6852854 0.10782236 -0.81766677 -0.84068733
0000f0 0d 96 06 3f 62 9d c2 be ea 72 bc bd f1 b3 50 3f
       0.5257271 -0.380107 -0.092016056 0.8152457
000100 c6 64 fe 3e 4b 92 75 bf c2 45 82 3f 29 7a ad bd
       0.4968626 -0.9592635 1.0177538 -0.08470566
000110 9f 25 0f be ab 2f 5b be c8 8b ab 3d f6 70 a8 3e
       -0.13979195 -0.21404903 0.083762705 0.32898682
000120 8b 80 18 be 6e 53 c4 3e 76 31 c7 3e 08 55 bc be
       -0.14892785 0.38344902 0.38904923 -0.36783624
000130 bd 92 68 3e c7 3f 8a bc b7 46 8f 3d fe 70 42 bf
       0.22712226 -0.016876115 0.0699591 -0.7595366
000140 7a d4 1b 3e 83 16 93 be f2 09 5b 3f 44 96 69 be
       0.15217772 -0.28728113 0.8556205 -0.22811228
000150 63 00 93 be d1 77 2f 3e 5c fb e9 3d b2 36 80 3e
       -0.28711233 0.1713555 0.11424896 0.2504173
000160 86 9e a9 bd 4e 48 bb bd 20 31 10 3f 9f 8f 40 bf
       -0.08282189 -0.091446504 0.5632496 -0.7521915
000170 e6 10 39 3c f5 02 e4 be 01 14 3e 3e e8 0c 67 3e
       0.011295533 -0.44533506 0.18562318 0.22563517
000180 df 60 dc 3d 67 4b f1 be b1 b1 0d bf 74 5b c2 be
       0.10760664 -0.4712784 -0.5534926 -0.37960398
000190 96 b1 2f 3d b1 fb 9c bd a7 55 11 3f 18 b9 a8 3c
       0.04289397 -0.07665194 0.5677132 0.020596072
0001a0 82 b2 94 bf 13 a3 2c 3f 76 2c 02 be 00 54 af bd
       -1.1616976 0.6743633 -0.12712273 -0.085609436
0001b0 0c 75 9f bc 38 72 bf be 73 5a db 3d d9 7c 0e bf
       -0.019464992 -0.3739183 0.10710611 -0.5565925
0001c0 af 7f 30 bf dd e4 05 bd da 9d f4 3e 0b 43 56 3f
       -0.6894483 -0.032688964 0.4777668 0.8369605
0001d0 56 2c 7a be 43 d7 59 bf f4 c4 04 3e ca 27 2d bf
       -0.24430975 -0.8509409 0.12965757 -0.6763884
0001e0 b6 c1 04 be 3e d8 1c 3c d0 1c 9d be f1 5e 09 be
       -0.1296452 0.0095730405 -0.30686045 -0.13415124
0001f0 22 a7 36 3e 99 47 a2 bd ba d2 1c be 47 88 03 bf
       0.17837194 -0.079238124 -0.15314761 -0.5137982
000200 05 ef c9 3e 15 1a 79 3d 3c a0 96 bc 8a c5 72 bf
       0.3944017 0.06081589 -0.018386953 -0.9483267
000210 25 20 eb 3e ae e3 73 3e 7d 68 38 bf 00 d0 81 3f
       0.45922962 0.23817322 -0.72034436 1.0141602
000220 0c 3b 81 be 91 9d 62 3d 3e 57 54 3f 82 2b 69 bf
       -0.25240362 0.05532605 0.8294562 -0.9108201
000230 bb af 03 bf 26 f7 f6 3e ca 60 43 3f 6f f3 0a bf
       -0.5144002 0.48235434 0.76319563 -0.542777
000240 0f 85 7a 3d 23 87 57 be 51 29 45 3e 0b 04 b0 be
       0.06116205 -0.21047644 0.19254042 -0.34378085
000250 e0 a7 a1 bf c2 1c 2e bf 75 c4 4c bf dd 35 b0 be
       -1.2629356 -0.6801263 -0.7998727 -0.34416094
000260 73 45 b1 bc 1f 36 d0 bc 38 f5 07 bf dd 36 0a 3e
       -0.021639561 -0.025416432 -0.5310855 0.13497491
000270 79 eb 98 be 6b 35 48 3f 90 d1 8a bf 33 f6 80 bf
       -0.2986715 0.7820651 -1.0845203 -1.0075134
000280 16 35 9f 3e 48 c5 ba 3d 9c a0 08 3f b3 a6 ad bd
       0.3109519 0.0911966 0.5337007 -0.08479061
000290 4d b2 b9 bd bd 26 0a bf 96 eb d7 bf 73 15 a3 be
       -0.09067211 -0.5396536 -1.686877 -0.31852302
0002a0 68 3b 0d bf 7c b8 ee be 7d e5 37 3f a8 be 01 be
       -0.5516877 -0.46625125 0.71834546 -0.12670386
0002b0 72 9a 0e bf 2b ae 66 3e c1 ed 6f be 62 eb d9 3e
       -0.55704415 0.22527377 -0.2343054 0.42562395
0002c0 28 70 e5 3d cf 7e 8a 3e 8b 94 a7 be d8 d2 2f be
       0.11203033 0.27049872 -0.32730517 -0.17170274
0002d0 2c 6e c8 3e 57 e2 45 be 94 51 3d 3e 13 1c 2f 3e
       0.39146554 -0.19324623 0.18488151 0.17100553
0002e0 a4 f6 49 bf 5e ba 70 bf 09 0e 76 be 31 82 a3 be
       -0.7889197 -0.94034374 -0.24028791 -0.31935266
0002f0 7c ae 8a bf 65 50 8e be 2a 00 cc 3e a2 57 5a bf
       -1.0834498 -0.2779571 0.39843875 -0.8528997
000300 bb 71 02 3f c9 98 19 bd 17 0b 93 3e fa 3f f0 be
       0.5095479 -0.037499223 0.28719398 -0.4692381
000310 07 aa b6 bf 91 da 8c 3d fd a9 36 bf 54 33 10 3f
       -1.4270638 0.06877626 -0.7135313 0.5632832
000320 ac d2 d8 be 78 86 2a 3f 6b ea a0 3e 2f 00 a9 be
       -0.4234823 0.66611433 0.31428847 -0.33007953
000330 74 d3 0b 3f 71 88 b3 3d 38 e5 32 be 2c da 95 3e
       0.54619527 0.087662585 -0.17470253 0.29268014
000340 d1 dc 9e 3e 71 2c 3c be 89 96 15 3b e6 36 8d be
       0.31027845 -0.18376328 0.0022825322 -0.27580947
000350 f7 35 23 bf 84 f0 6e be a3 36 87 bf 58 79 e1 3e
       -0.6375422 -0.23333937 -1.0563549 0.4403789
000360 60 ec 21 bf 37 b0 94 3e 8b f8 c0 be 98 ce 05 3d
       -0.63251305 0.2904069 -0.37689623 0.032667726
000370 04 bc 33 bf 64 28 a8 bf 22 dc 40 bf de a4 ab be
       -0.70208764 -1.3137326 -0.75335896 -0.3352422
000380 41 bd 90 be e3 01 1b 3e 6c de 39 bf e9 12 fc bd
       -0.2826939 0.15137438 -0.72605014 -0.12308294
000390 65 06 f5 bd ea 24 3d bd 78 77 94 be aa 23 7e 3f
       -0.1196411 -0.046177782 -0.28997397 0.9927317
0003a0 1a 8d a4 be 52 b0 77 be ce 1c 34 3e 3c 79 ec 3e
       -0.32138902 -0.24188355 0.17589113 0.46186244
0003b0 86 20 1d be 4e 27 31 bf e4 53 88 bf 2f 00 f8 be
       -0.15344438 -0.692006 -1.0650601 -0.4843764
0003c0 89 c9 9e 3d e3 b9 0a 3e c9 cc e9 bd 09 4c 06 be
       0.077532835 0.13547473 -0.11416013 -0.13114943
0003d0 8c 28 82 3d 20 21 a2 be 56 ee 99 be 66 15 b5 3e
       0.0635539 -0.31665897 -0.30064648 0.35367888
0003e0 60 b1 f9 be 54 2e 08 bf 36 27 11 3f 9a 8e 1d bf
       -0.4876814 -0.5319569 0.56700456 -0.6154572
0003f0 af 7d e0 bd 6d ac e4 3e 0f e9 98 3c b5 eb bc be
       -0.10961472 0.446628 0.018665818 -0.3689858

fc2.bias f4 [400]
000000 56 d4 35 bf 84 2e e5 be e1 7b 21 bf b2 1a ca be
       -0.71027124 -0.4476205 -0.6307965 -0.39473492
000010 40 4c 2a bf a8 f9 c2 be d6 a4 7d be 88 25 79 bf
       -0.665226 -0.38081098 -0.24769911 -0.97322893
000020 7b 7f 0f bf 9b 07 85 be 0f d1 a4 be d8 52 5b bf
       -0.56053895 -0.25982365 -0.3219075 -0.85673285
000030 d2 73 90 be 2e 02 6e bf 6c 32 2d be 24 07 24 bf
       -0.28213364 -0.92972076 -0.16913766 -0.64073396
000040 53 76 0e bf 23 9a 2e bf 47 8d 3f bf a1 7f e7 be
       -0.556493 -0.68203944 -0.7482495 -0.4521456
000050 7c 3d cd be f3 ab f9 be a3 cf 36 bf 22 7d ab be
       -0.4008597 -0.48764 -0.7141058 -0.33493906
000060 22 fb 92 be 13 96 4a bd 5f e5 4c bf 36 a2 9b be
       -0.28707224 -0.04945953 -0.8003749 -0.30397195
000070 fc bf 03 bf 3b 5d 1b bf 62 04 08 bf 11 62 f3 be
       -0.5146482 -0.60689133 -0.5313169 -0.47535756
000080 8b 6f 48 be 9b 90 6b bd 25 6a 6f be fc 3e 33 bf
       -0.195738 -0.057510953 -0.23380335 -0.7001798
000090 db f8 86 be 60 30 04 be b8 c6 8b bf 92 c9 3b bf
       -0.26361737 -0.12909079 -1.0920019 -0.73354447
0000a0 80 f4 a0 be f8 cc 8f be b0 6c 80 be 02 bd 44 3c
       -0.3143654 -0.28086066 -0.25082922 0.012007954
0000b0 62 e2 c6 be 6c 0c 25 be 27 85 2c bf d9 ba 01 bf
       -0.3884459 -0.1611802 -0.67390674 -0.5067573
0000c0 0d 74 4c bf a7 30 0d bf 3b e6 f2 be e4 74 3b bf
       -0.7986458 -0.5515236 -0.47441277 -0.73225236
0000d0 a5 95 43 be fc e0 09 bf 9f 73 74 be ca 45 4a bf
       -0.19100054 -0.53858924 -0.23872231 -0.7901274
0000e0 89 f2 d2 be 83 83 98 be 48 ae a7 be 32 82 e1 be
       -0.41200665 -0.29787835 -0.32750154 -0.44044644
0000f0 59 93 6c be c5 ae 07 bf 6d 60 98 bf 49 ee 14 bf
       -0.23103084 -0.5300105 -1.1904427 -0.58176094
000100 27 4a 76 be 76 ce ed be 39 22 9a be 14 05 68 bf
       -0.24051724 -0.4644658 -0.30104235 -0.9063275
000110 7a b1 14 bf c0 f4 b4 be 5a 10 19 bf 72 0a 32 bf
       -0.5808331 -0.3534298 -0.59790576 -0.6954719
000120 25 84 35 bf 1e 45 b1 be 86 b2 e4 be dc 85 9e be
       -0.7090476 -0.34623045 -0.44667453 -0.30961502
000130 da 57 40 be 82 a4 b9 be b2 57 9b be 28 c6 0f bf
       -0.18783513 -0.36258322 -0.30340344 -0.5616174
000140 dc be eb be c6 03 20 bf 95 76 01 bf ee 5e e9 be
       -0.46044052 -0.6250576 -0.50571567 -0.45580238
000150 39 a4 36 bf af bc 09 bf f7 db fb be a4 49 f3 be
       -0.71344334 -0.53803533 -0.49191257 -0.4751712
000160 b5 42 e1 be e4 53 d0 bd 3e f2 1e be 0f 5c 50 bf
       -0.43996206 -0.10172251 -0.15522096 -0.8139047
000170 17 21 9b 3d a7 72 fc be b6 af 16 bf 41 e9 bd be
       0.07574671 -0.49306223 -0.58861864 -0.3709202
000180 c0 c1 54 be b4 86 1d bf 60 19 56 bf 41 ef d8 be
       -0.20777035 -0.61533666 -0.8363247 -0.42370036
000190 d9 bd 67 be 7e 12 06 bd 8d d7 0d bf 7e 24 0e be
       -0.22631015 -0.03273248 -0.5540703 -0.13881108
0001a0 8e 11 ed be 3d 3e 5d be 62 8b de be 3e 0c 45 bf
       -0.46302456 -0.21605773 -0.43465716 -0.76971805
0001b0 d2 05 c3 be ff 3b a9 be cc ab 1a 3e a1 33 93 be
       -0.38090378 -0.33053586 0.15104598 -0.28750327
0001c0 29 55 00 bf f6 b2 10 bf eb 14 db 3d 87 05 8b be
       -0.50129944 -0.5652307 0.10697349 -0.27152655
0001d0 19 8e b0 be 5a 82 f5 bb 0a 0d 03 bf 60 ec b5 be
       -0.34483412 -0.0074923458 -0.5119177 -0.35531902
0001e0 1d 5d 43 bf b1 fb 2d bf 02 8c 1f bf bb 6b d5 be
       -0.76313955 -0.67962176 -0.6232301 -0.41683754
0001f0 2b 3c 28 bf e1 3a 68 bf 0d 91 e8 be 11 f3 2d bf
       -0.6571681 -0.9071484 -0.45423165 -0.67949015
000200 eb 96 1f bf cb 2d e9 be bf f0 76 be 22 85 c7 be
       -0.6233966 -0.4554275 -0.24115275 -0.3896876
000210 a9 22 2f bd a2 50 0e bf 4c 12 f6 be f7 a5 d8 be
       -0.042757664 -0.55591786 -0.48060834 -0.4231412
000220 95 94 3c bf 46 ce 88 bf c9 31 fc be b2 a4 4c bf
       -0.7366422 -1.068795 -0.49256733 -0.79938805
000230 37 85 2a bf 81 ad a3 be 7c 8a 0d be f2 c0 2b bf
       -0.6660952 -0.3196831 -0.13822359 -0.67091286
000240 1d 72 7c be 73 86 3c bf df 1d 5d bf 44 ce 40 bf
       -0.24652906 -0.73642653 -0.86373705 -0.75314736
000250 55 cf 4c be ab f2 bb be 1f dd 99 be aa 8d cd be
       -0.20000966 -0.36708578 -0.30051515 -0.40147144
000260 16 a6 80 bc 57 fa 2c be 38 8c fc be 78 5b 1c bf
       -0.015704196 -0.16892372 -0.49325728 -0.6107707
000270 08 f8 89 be 81 05 0b bf 35 e2 93 be e0 eb 42 bf
       -0.26947045 -0.54305273 -0.2888352 -0.76141167
000280 a7 36 2b bf f6 9e 3d bf 00 61 07 bf ec cd 07 be
       -0.6688027 -0.7407068 -0.52882385 -0.13262147
000290 ca c8 ea be 96 91 5a bf 91 82 16 bf 2d 61 16 bf
       -0.45856315 -0.85378397 -0.5879298 -0.5874203
0002a0 07 e0 54 be 27 44 a6 be 37 6d 2d bf aa 5f c9 be
       -0.20788585 -0.3247387 -0.67744774 -0.39330798
0002b0 ba c8 d7 be f6 7b 2e bf fd 1e 23 be b8 14 10 bf
       -0.4214533 -0.681579 -0.1592979 -0.56281614
0002c0 d6 6c a2 be d5 c4 77 be ef bb 2e bf 92 23 fa 3d
       -0.3172366 -0.24196179 -0.68255514 0.12213816
0002d0 56 ae 8c be 2d 4f 00 bf c0 17 04 bf 53 99 cd be
       -0.27476758 -0.5012081 -0.5159874 -0.4015604
0002e0 0d ce 69 bf 0a 78 dd be 2a 40 53 bf 86 d9 1d bf
       -0.91330034 -0.43255645 -0.8251978 -0.6166004
0002f0 45 f5 3b bc 33 eb 00 bf 61 eb b3 3d a3 fe ee be
       -0.011472051 -0.50358886 0.08785129 -0.46678647
000300 e3 e7 d5 be bc b5 35 bf 32 78 3f bf c8 5d c7 be
       -0.41778478 -0.7098043 -0.7479278 -0.38938737
000310 73 28 1f be ce 0b be be 18 c0 a4 be de 1b bf be
       -0.15542774 -0.3711838 -0.32177806 -0.37325948
000320 8d 6a a6 be 39 39 05 bf 46 16 4a be b1 e1 41 bf
       -0.32503167 -0.5204044 -0.19735059 -0.75735
000330 b6 62 98 be 11 20 8f be 4d 92 f1 be b9 15 5c bd
       -0.2976281 -0.27954152 -0.4718193 -0.053731654
000340 c4 fc b3 bc 26 ee 5d be 30 fb 0a bf 6b 60 6d be
       -0.021971114 -0.21672878 -0.5428953 -0.23181312
000350 ce 80 0f bf b0 68 35 bf 59 75 35 bf 14 74 06 bf
       -0.56055915 -0.70862865 -0.70882183 -0.5252087
000360 55 65 83 3d 8e bb 42 bf 83 d7 57 be 57 2f d5 be
       0.06415812 -0.76067436 -0.21078305 -0.4163768
000370 75 3d bf be ba 65 9a be 3d 38 bb be db 03 f8 bc
       -0.37351575 -0.30155736 -0.36566344 -0.030275276
000380 18 19 49 bf 4c 45 90 be e2 b8 91 bd fb 08 0d bf
       -0.78553915 -0.2817787 -0.07115342 -0.5509183
000390 f2 f2 d5 be ff e0 12 bf f1 ff 26 be 43 13 3f bf
       -0.41786915 -0.57374567 -0.16308571 -0.74638766
0003a0 9d 57 39 be 14 1b 27 bf 29 dd 29 bf fa b1 73 be
       -0.18099828 -0.6527569 -0.6635309 -0.23798361
0003b0 b0 4b a6 be 93 0f 32 bf bf 99 60 bf 3a 57 e4 bd
       -0.3247962 -0.69555014 -0.877346 -0.1114945
0003c0 3a e0 cf be e7 9b 27 bf a3 da 1b bf 05 6d fd be
       -0.4060076 -0.65472263 -0.6088049 -0.49497238
0003d0 e7 9c ad be 09 f6 e4 be dd 4b b8 be 77 f5 ce bd
       -0.3390877 -0.4471896 -0.3599538 -0.101054125
0003e0 c7 7e 9f be 1c 6d 5d bf b5 86 9b bf 47 ca 00 bf
       -0.3115141 -0.8649461 -1.2150484 -0.5030865
0003f0 de ed a3 bd fb d2 03 bf ee 1e b9 be 1f 91 c5 be
       -0.08004354 -0.51493806 -0.3615641 -0.3858728

fc3.weight f4 [4, 400]
000000 07 1d b9 be 84 96 b3 bd 79 8b 76 bd 81 14 9b be
       -0.3615496 -0.08768943 -0.060191605 -0.3028908
000010 35 81 31 3c c2 fa 7f 3e 38 b8 d1 3e e9 4e 86 3e
       0.010834028 0.24998 0.4096086 0.2623208
000020 e5 19 30 3f 2a ce 7b be 36 a8 36 3d a9 71 41 3e
       0.6878951 -0.24590364 0.044594012 0.18891014
000030 b4 b1 84 be 03 d8 52 3e 9d 13 99 3e 6a 84 12 3f
       -0.25916827 0.20590214 0.29897776 0.572333
000040 52 98 3f 3d de 27 79 3e 11 d2 eb 3e 57 7f 0e bf
       0.046776123 0.24331614 0.46058705 -0.55663055
000050 be 52 25 bf 52 bf 74 3e 7a bd 84 bd ca 5d 20 be
       -0.6457938 0.23901108 -0.06481452 -0.15660778
000060 52 60 ad be 37 14 3a bf bc 2b 9d be 2b 78 cb be
       -0.3386255 -0.72687095 -0.3069743 -0.39740118
000070 91 3a d7 be ef 05 0e 3f 14 57 7b bf b0 3f a4 be
       -0.4203687 0.55477804 -0.98179746 -0.3207984
000080 74 e3 8a be 9b eb 90 3e c1 8e 34 be 85 d1 00 bf
       -0.27126658 0.28304753 -0.17632581 -0.503197
000090 f9 c1 27 be fd b5 79 3c a8 d6 66 3e ef 18 bd be
       -0.16382588 0.015241143 0.22542822 -0.36933085
0000a0 1f f4 66 3e b8 d1 0f 3f c5 95 c8 3e 7f 19 d4 3d
       0.22554062 0.5617938 0.39176765 0.103564255
0000b0 a2 41 44 3b 50 ad 23 bc 23 dd 44 be 5e b9 07 3e
       0.0029946347 -0.009990051 -0.19224982 0.13254306
0000c0 fc 82 47 be e0 37 df be d5 9e d8 3e 23 e8 cc 3d
       -0.1948356 -0.43597317 0.4230868 0.10005214
0000d0 09 7b d8 bd 63 bc ee be 9e 45 8d be 92 ba eb 3d
       -0.10570342 -0.46628103 -0.27592176 0.11510195
0000e0 c2 78 ad 3d 62 70 45 3f 67 a2 70 3f e9 c4 d7 3d
       0.08470298 0.7712461 0.93997806 0.105356045
0000f0 2a 28 93 bd 7f c3 ae 3d 4d 14 0e bf d0 08 b7 3e
       -0.07185395 0.08533382 -0.55499727 0.3574891
000100 c3 fd 1d bd f1 af 38 bf 14 cb ec be 0e 63 b1 3e
       -0.038572084 -0.72143465 -0.46248686 0.34645885
000110 44 ca 5b 3f 3a 8a d0 be aa 5f 31 be b5 4f ce 3e
       0.8585551 -0.40730458 -0.17321649 0.40295187
000120 75 ff 85 3e a1 3c b1 3d d2 71 4f 3e 18 ac af be
       0.2617146 0.08654142 0.20258263 -0.34310985
000130 d5 d0 1b be 98 90 e6 3d 4d c2 70 3e 9c cf ca 3d
       -0.15216382 0.11258048 0.2351162 0.099028796
000140 87 50 b8 be ab 6d ce be e3 a5 20 3f b8 ee 19 3f
       -0.35998937 -0.40318045 0.62753123 0.6012988
000150 9c 1c f0 be 50 35 79 bd 2f 15 95 bf c2 2d 88 be
       -0.46896827 -0.06084186 -1.164709 -0.2659741
000160 bb c1 06 3f fc 3c 2d 3e 6b 2b a2 3e 7b 60 c3 be
       0.5263936 0.16917795 0.3167375 -0.38159546
000170 25 a7 14 bf 32 3d 08 bd a5 c3 9e 3e ac b1 65 3e
       -0.5806754 -0.033261485 0.3100864 0.22431058
000180 a2 e9 d2 be b3 7b 42 3e ac 0b 22 be 19 cb d7 3e
       -0.41193873 0.189925 -0.15824765 0.4214714
000190 db 9c a1 be e5 ce 66 3d 94 31 55 3f 65 94 f9 ba
       -0.31564984 0.056349654 0.83278775 -0.0019041417
0001a0 7e 65 d5 3e a8 6b a0 be e9 06 f8 3c b9 51 71 bf
       0.41678995 -0.31332135 0.030276733 -0.94265324
0001b0 a2 69 d8 3e 54 f9 62 3e 82 d5 82 3d 19 31 e7 3e
       0.4226809 0.22165424 0.0638838 0.45154646
0001c0 c9 1c 9b 3e b3 e8 80 3e 96 8d 2f 3d 0f 4f b4 3d
       0.302954 0.25177535 0.042859636 0.08804142
0001d0 52 4a c6 3e 55 32 7e be a2 58 23 bf b9 d5 9c be
       0.38728577 -0.24823888 -0.6380712 -0.30631807
0001e0 fc e9 09 be da 3d 99 3e a2 ae 41 3e ff d3 b6 3e
       -0.13468164 0.29930001 0.18914273 0.35708615
0001f0 d2 5b 17 3e 4f 33 bf be f7 6e 02 3f 75 64 fe bd
       0.1478112 -0.37343833 0.5095057 -0.124215044
000200 99 fd d4 3e a4 8c 4a bf 06 70 78 3d 30 ae 92 3e
       0.4159973 -0.7912085 0.06065371 0.2864852
000210 2c d9 a5 3e c0 55 29 3e 86 eb 1a bb 52 fc 2f 3e
       0.32392251 0.16536617 -0.0023638918 0.17186096
000220 ae 28 2e bf cf 37 27 3f f6 9d d0 be fe 0f 03 bf
       -0.6803082 0.6531953 -0.40745515 -0.5119628
000230 40 99 0b bf 4e 9d 06 bf 39 1e 97 be 72 29 ec 3c
       -0.54530716 -0.5258378 -0.29515246 0.028828356
000240 1c f1 9b 3d af b8 e5 3d 9a 08 bd 3e f1 94 c7 be
       0.07614347 0.11216866 0.36920625 -0.3898082
000250 1b eb c7 be 76 74 e6 bd c7 dc 70 be 22 d5 a2 bd
       -0.3904656 -0.11252682 -0.2352172 -0.07950808
000260 7d 66 b3 be c1 8b 06 3e 45 fa ec bd 51 e5 95 bd
       -0.3503913 0.1313925 -0.115711726 -0.07319129
000270 06 26 bc 3c c1 f3 e6 3e d9 4d f2 3e b9 bb c8 be
       0.02296735 0.45107844 0.47325018 -0.3920572
000280 14 4e 11 be 06 6e f4 bd 57 ae a0 be 82 49 de be
       -0.1418994 -0.11935048 -0.3138301 -0.43415457
000290 d6 c9 85 be 12 4a 01 3e 1f 9c ab 3d 2a 89 8a bd
       -0.2613055 0.12625912 0.08379387 -0.06764443
0002a0 44 32 dc be 3e da f4 be 44 2c bc be 88 9c 1d 3f
       -0.430071 -0.47822756 -0.36752522 0.6156697
0002b0 2a 73 49 be b7 31 8e 3e 54 9b a8 be 6c 33 4e 3e
       -0.19672838 0.27772304 -0.32931006 0.20136803
0002c0 a0 f1 12 bf ed c4 b1 be 44 3e b9 bb 87 47 e9 bd
       -0.5739994 -0.34720555 -0.0056531746 -0.11390596
0002d0 e7 fa 8f be 92 0a 73 bd 65 65 f9 3d ae 73 f7 3e
       -0.2812111 -0.059336253 0.121775426 0.48330444
0002e0 f3 4d b7 3e ac f3 d1 be d8 b8 5c be a8 4a 49 be
       0.35801658 -0.4100622 -0.21554887 -0.19657385
0002f0 ea fb 5e be b1 2d 99 3e d1 ba 13 3f e3 bd e0 3e
       -0.21775785 0.29917672 0.57706934 0.43894872
000300 57 c9 cb 3e 01 b3 e1 bd a3 85 04 3f b3 45 35 3f
       0.39802048 -0.110204704 0.51766413 0.7080948
000310 18 57 fd be 42 1a 37 be 4b f1 63 bd b7 3c 68 3d
       -0.4948051 -0.1788111 -0.055650037 0.056698527
000320 48 cb c4 3e 26 c0 02 3d 6e 09 1c bf 8f 4c 9d 3d
       0.3843634 0.03192153 -0.6095189 0.07680618
000330 56 17 94 bb f8 af f8 bd 58 57 84 bd c8 06 0c bf
       -0.0045193834 -0.121429384 -0.06461972 -0.5469785
000340 87 7b 89 3e 9e 9b 00 3f d2 e9 05 3e 6f c6 96 be
       0.26852056 0.50237453 0.13077477 -0.29448268
000350 2c 25 7e 3e a8 a7 40 bf 25 74 2b 3f c6 6d 8f 3e
       0.24818867 -0.75255823 0.669741 0.28013438
000360 22 7e 9a be ca 82 b9 bd dc 47 8f be 4a 22 28 3d
       -0.30174357 -0.09058149 -0.27984512 0.041048326
000370 e7 33 26 be 98 0d f4 be e2 1f f2 3e f8 00 d8 3d
       -0.16230737 -0.4766662 0.4728995 0.1054706
000380 4e 2e c4 be ac 8b b9 be 96 4b 8a 3e 70 ba 0b be
       -0.38316578 -0.36239374 0.27010792 -0.13645339
000390 c3 37 60 3d d6 35 2c 3e 8f 1f d4 3d c9 71 06 3f
       0.05474068 0.16817412 0.10357582 0.5251737
0003a0 ef d3 a4 be f1 13 3b be 96 cd 09 be de a0 9a be
       -0.32192943 -0.18269326 -0.13457331 -0.30200857
0003b0 2e 55 cf 3e 03 48 db 3e 3f f3 21 3e bc cd 8d 3e
       0.40494674 0.42828378 0.15815447 0.27696025
0003c0 3a b6 99 be cd bc b1 be a9 6a 21 3f 2e 7f 2d 3f
       -0.3002184 -0.34714356 0.63053375 0.67772186
0003d0 35 a5 34 bd ea 15 88 3d 5d 08 35 be 73 18 0b 3e
       -0.044102866 0.06644805 -0.17678972 0.13583545
0003e0 b1 b5 4b 3d e5 2e 4b 3f d3 c1 a2 be 8f b3 d8 3e
       0.04973382 0.7936843 -0.317885 0.42324492
0003f0 9e 2f d4 3e 03 f4 e6 bd 77 7e 90 3b a4 11 ed 3e
       0.4144258 -0.1127701 0.004409607 0.4630252

fc3.bias f4 [4]
000000 1a 7f af 3d f3 f0 d5 3d 67 f7 f0 bd 63 6e dd bb
       0.085691646 0.10446348 -0.11765938 -0.006757544
