experiments/exp3/models/checkpoint_critic_6.pth (torch_old, 536855 bytes, 9 tensors)

fc1.weight f4 [300, 33]
000000 16 43 57 bd da 9a e2 bd d6 4a d1 3d e1 0f 2b 3b
       -0.052554213 -0.11064692 0.10219352 0.0026101994
000010 0f cc 60 3e b9 72 24 be 82 a7 d4 3d 03 c2 29 3d
       0.21952842 -0.16059388 0.10383512 0.04144479
000020 ae ed ab bd c5 aa c8 3d 71 ef 05 bc 84 3e d0 bb
       -0.08394943 0.09798197 -0.008174763 -0.0063551087
000030 d3 70 9b 3d ee e9 29 3d 3e 51 84 3c e5 8b 09 bd
       0.07589879 0.04148286 0.01615202 -0.03358068
000040 13 06 42 bd 65 c1 25 be b9 96 65 3e ac f8 56 be
       -0.047369074 -0.16187055 0.22420777 -0.20993298
000050 01 a4 f7 3c fa c9 4c bd 1f 29 66 3d ef 6d 14 3d
       0.03022957 -0.049997307 0.05619156 0.036237653
000060 bd 29 12 bd d2 6f a3 bc bf 0d 25 bd ae 92 36 3e
       -0.035684336 -0.019950781 -0.040296312 0.17829391
000070 e4 eb 44 bd 7c 3a 5e bd d8 d5 30 be 30 07 b3 bc
       -0.048076525 -0.054254994 -0.17269075 -0.021854013
000080 6d 7e f5 3c 12 7b 35 3c 99 3b 7f bd e5 ce f4 bd
       0.029967511 0.0110767055 -0.062312696 -0.119535245
000090 b5 cc d5 3d a6 b0 1f be 69 c0 2a 3e b4 6b 1e bc
       0.104394354 -0.1559473 0.16674961 -0.009669233
0000a0 78 5f c7 bb 13 8f 7e bc 1b 27 fa 3c 2c a7 90 3c
       -0.006084379 -0.015537041 0.030536225 0.017657839
0000b0 1a e9 06 b9 1a 7d 91 3c 7d 35 68 bd f3 54 31 3d
       -0.00012866073 0.017759848 -0.056691635 0.043293905
0000c0 ec a1 07 3e 1d a3 cb bd d9 d1 b3 3e 09 aa 2c 3d
       0.13245362 -0.09943221 0.3512104 0.042154346
0000d0 47 18 35 3e c6 a5 af bb d1 71 5e bc c2 73 1f bb
       0.17685042 -0.005360338 -0.013576941 -0.0024330472
0000e0 8d f5 b9 3c 2e c8 b5 bc 1e 3f 1e 3d a1 df 66 38
       0.022700096 -0.02219018 0.038634412 5.5044544e-05
0000f0 52 55 88 3d 1b d6 3e bd 60 15 ab bb b6 54 c5 bd
       0.066568986 -0.046590906 -0.005221054 -0.09635298
000100 60 41 f3 3b 7b 99 33 bd d1 a6 fa 3b 3f 35 1d 3b
       0.007423565 -0.043847542 0.0076492806 0.0023988036
000110 2a 1d e3 3d 2f 66 7d 3d 1c 60 44 bd f7 06 da bb
       0.11089547 0.061865028 -0.04794322 -0.0066536623
000120 78 40 a3 bd e7 1c d6 3c d5 2e c8 bb 6d 59 60 bc
       -0.07971281 0.026136829 -0.0061090984 -0.013693196
000130 81 50 be bc 52 32 09 3c 93 24 b8 bc 18 6b df 3c
       -0.023231747 0.008373814 -0.022478377 0.027272746
000140 e9 f8 1b 3d 4f a4 4a bd 3d fc 07 bc f0 43 43 bd
       0.038079176 -0.049473103 -0.008299884 -0.047672212
000150 de 11 78 be 01 cf 27 be c0 51 4d 3c 54 96 00 39
       -0.24225566 -0.1638756 0.012531698 0.00012263033
000160 3b 0e b4 3c 1a 78 2a bd ed 36 3a 3c 56 12 fb bc
       0.021979442 -0.041618444 0.011365634 -0.030648392
000170 92 1e a7 ba 93 02 46 3e da b2 8d bd f6 72 a7 bc
       -0.00127502 0.1933692 -0.06918879 -0.02044056
000180 fd ed 3f be c0 e4 f3 3a 00 fc 9f be 28 12 ca 3b
       -0.18743129 0.0018607602 -0.31246948 0.006166715
000190 71 eb 7e 3c 80 af 7d bb 5e 95 6c bb e8 6d 33 3d
       0.015559063 -0.0038709342 -0.0036099772 0.043805987
0001a0 60 ed 76 bd 62 1b fb ba 0a 93 f2 b9 2f e6 94 3b
       -0.060284972 -0.0019157941 -0.0004626739 0.0045440416
0001b0 da b1 3b bb 79 fc 45 3b fb 50 2e 3b 49 09 e1 b9
       -0.0028639943 0.00302103 0.002659856 -0.00042922262
0001c0 f4 4e 91 ba 49 0e de bb 98 15 93 b6 a2 60 21 bc
       -0.0011086152 -0.0067766053 -4.3834552e-06 -0.009849699
0001d0 e4 1e 8e 39 32 bf 3a 3c 60 0d 80 3c 90 58 9f 3a
       0.00027107366 0.011398124 0.015631378 0.0012157131
0001e0 82 08 c1 b9 31 09 28 3a f5 bf 6a 3a 4c 56 2e 3a
       -0.00036818167 0.0006410061 0.00089549954 0.00066504325
0001f0 3e cd 0a ba c3 75 0d bc 8b d6 63 3d 0b a2 a3 bc
       -0.00052948657 -0.008634034 0.055624526 -0.019974729
000200 50 43 47 3d 48 58 6b 3c 50 2c b8 bc 51 ee 70 3f
       0.04864818 0.01436431 -0.022482067 0.9411364
000210 f8 7b 5a 3c b6 43 fc bc 9e c0 4f bc de 62 0f be
       0.0133352205 -0.030794006 -0.012680201 -0.14002559
000220 97 66 4e bc 78 67 59 bd dc f4 93 bd f8 87 00 bc
       -0.0125977015 -0.05307719 -0.072244376 -0.0078449175
000230 79 d4 8c 3c 75 c3 16 3c a1 6c 2d bc 0d 80 ef 3b
       0.017191159 0.009201874 -0.010584981 0.007308966
000240 5f 7c c7 3c 50 e0 00 3d 45 98 13 3d 4d 68 18 3d
       0.024351297 0.03146392 0.036033887 0.037208844
000250 04 e1 8d bd 23 50 2e 3e 56 f5 8d 3e a6 6e 00 be
       -0.06927684 0.17022757 0.2772624 -0.12542209
000260 75 08 c3 bb 2d c2 45 bb 3c 98 28 3c ce 2b ec 3c
       -0.005951936 -0.0030175552 0.010290202 0.028829481
000270 eb b5 da bb 81 74 be 3b 92 19 9d bd ad 23 6f 3d
       -0.0066745183 0.005812228 -0.07670893 0.058383632
000280 cf 4d 9d bd a4 56 ec bc 47 eb af bd 3c 36 6b bd
       -0.076808564 -0.028849907 -0.085897975 -0.05742477
000290 4e 81 9f 3e b7 b5 d5 bd 74 dd b1 3c 61 43 0f be
       0.3115334 -0.1043505 0.021712042 -0.13990547
0002a0 ae 6b 82 bd 0f c0 4c 3d 30 97 6e 3e a7 07 4d 3e
       -0.063681945 0.04998785 0.23299861 0.2002245
0002b0 f5 19 0e bc 3a ec ad 3c cd 8f 44 3d 13 72 e2 bb
       -0.008673181 0.021230806 0.0479887 -0.0069105714
0002c0 16 e2 a1 3c f1 c4 38 bd 31 60 18 3d 36 dd 2d 3c
       0.019761126 -0.045109693 0.03720111 0.010611823
0002d0 84 b4 99 3c 78 53 9d bd c0 b9 75 ba 74 71 c4 3d
       0.018762834 -0.07681936 -0.0009373687 0.09591952
0002e0 64 53 5e 3d af f8 9b 3c 21 26 23 3c 6c 73 0a bb
       0.054278746 0.01903948 0.009957821 -0.0021125926
0002f0 01 53 30 3d a6 e1 14 3c 6e 6a d5 3c 3e c9 4c bd
       0.04304791 0.009087002 0.026051726 -0.049996607
000300 93 bf ee 3c a4 6b f3 3c d8 f2 b2 3c 2a 3b 26 3d
       0.029144084 0.029714413 0.021844313 0.040583767
000310 74 01 7f bc b0 90 01 3f 60 cd 8b bc 58 72 53 3d
       -0.015564311 0.506114 -0.017065704 0.05162272
000320 72 6c a8 3c a4 39 04 3e 60 e5 83 3e fe d8 14 3e
       0.020559523 0.12912613 0.25760937 0.14535901
000330 c1 64 df 3d ff b2 f4 bc d9 4c af 3c c9 6f 81 bd
       0.10907889 -0.029870508 0.021398949 -0.063201495
000340 bc d3 8c 3c 5a c6 15 bc c2 0a 5e bc ac 0f 51 bc
       0.017190807 -0.009141529 -0.01355237 -0.012760084
000350 1c 2f ed bc 45 12 29 3c ea fb 1c bd 86 e5 e4 3d
       -0.028953128 0.010319297 -0.03832618 0.111765906
000360 11 60 45 be 3a 84 43 be d6 e1 d8 3a 4f 0d b8 bc
       -0.19274928 -0.19093409 0.0016546797 -0.022467284
000370 50 c2 30 39 fc 52 29 bb a0 81 16 bd 5b 6c 1f 3d
       0.00016857055 -0.0025836816 -0.036744714 0.038921695
000380 8b 59 10 3d 6b f9 d9 3d 4c bd 1a bd 0e 6f 27 3d
       0.035241645 0.10643276 -0.037778184 0.040877394
000390 43 cd 91 bd 6a 83 b4 bc c2 ba df 3e 10 7d 36 3a
       -0.07119229 -0.02203532 0.43697172 0.0006961385
0003a0 0a 90 8a bb 08 dc ca 3c 2a 73 50 bd 36 ad aa 3d
       -0.0042285966 0.024763122 -0.05089108 0.083338186
0003b0 c5 e5 87 be 52 82 75 bd 75 76 f4 3c 28 ca 9f 3d
       -0.26542488 -0.059938736 0.029841641 0.0780223
0003c0 d3 a7 7e 3d c6 68 d8 bc b8 eb 39 bc a5 40 ee bb
       0.06217177 -0.026417147 -0.011347704 -0.00727089
0003d0 0e af a7 bc 9e 0b 02 bc e5 d4 1a bd 63 96 9a 3c
       -0.020469215 -0.00793734 -0.03780069 0.018870538
0003e0 06 85 eb bd 36 2c 1e 3e 30 57 41 3e b9 82 a7 bb
       -0.114999816 0.15446553 0.18880916 -0.005112019
0003f0 a8 26 1f 3c 2e 8c 14 b8 79 66 c1 bc fa b9 61 bc
       0.009713806 -3.5416502e-05 -0.023608433 -0.01377725

fc1.bias f4 [300]
000000 c3 5c 52 bd a7 08 17 3d 13 69 87 bd 80 6d f4 bd
       -0.051357996 0.036873486 -0.06611838 -0.11934948
000010 e3 a2 1a 3d 01 15 ea bc 8f 01 01 be a3 3d 80 be
       0.037752997 -0.028574469 -0.12598251 -0.25047025
000020 3a 3c 31 3c f8 ad a3 bd 92 de f1 bd b4 75 5a be
       0.010817582 -0.07992166 -0.1181003 -0.21333963
000030 70 b2 fa 3d e1 90 d0 bc 11 6d 18 be eb 35 2f be
       0.122410655 -0.025459709 -0.14885356 -0.17110412
000040 80 09 6b 3c 6b c6 5e be f9 42 9a 3c bf 8b 39 bd
       0.014345527 -0.21755378 0.018830763 -0.045299288
000050 a6 2d d9 3d 15 17 68 be 38 f4 df bd 12 1f 1e be
       0.1060441 -0.22665055 -0.10935253 -0.1544154
000060 71 c1 15 be 52 b2 4c bd af 64 c1 bd 3e 2c 03 be
       -0.14624573 -0.049974747 -0.09443032 -0.12809846
000070 d7 88 2b 3b 3c f9 d0 bd 5d 66 e1 bd 60 47 b5 bd
       0.0026174092 -0.10203788 -0.11005852 -0.08851504
000080 0a 0d b2 3d 94 a3 ae bd 64 14 dc bc 41 d2 76 bd
       0.08693893 -0.08527294 -0.026865192 -0.060259108
000090 3b 21 9b bd 0f c8 c8 bd cc 06 51 bd 2b 99 45 be
       -0.075746976 -0.09803783 -0.051031873 -0.1929671
0000a0 83 4c 16 be 0e f2 35 be 0f b7 fc bd 22 6f 67 be
       -0.14677624 -0.17768118 -0.12339603 -0.22600988
0000b0 33 09 7e be 11 01 37 be a6 8c 85 be 35 f7 06 be
       -0.24808197 -0.178715 -0.2608387 -0.1318024
0000c0 0c 5f bc bd 33 e7 90 be 50 0a 33 be 8a 39 76 3c
       -0.09197816 -0.2830139 -0.17484403 0.015028367
0000d0 55 f7 67 bd f9 b7 74 3d 93 a8 35 3e a6 5d c8 bd
       -0.05663236 0.059745762 0.17740087 -0.09783487
0000e0 69 63 cd bc 26 51 eb bd de 11 60 bd 8b eb 72 bd
       -0.025071817 -0.11490087 -0.05470454 -0.059306663
0000f0 c0 80 14 ba c8 3a f4 3d bb 66 6e be 59 79 29 be
       -0.0005664937 0.11925274 -0.23281376 -0.16550197
000100 1c 1a 75 be 6c 8e 03 be 75 3e 99 3c 3c 41 49 be
       -0.23935741 -0.12847298 0.01870654 -0.19653791
000110 9c e0 83 3d ce 07 0c be 89 06 41 be 88 9e 9d 3d
       0.06439325 -0.13674852 -0.18850149 0.07696253
000120 8e b0 82 bc 53 5a e7 bc f9 63 57 bd 9a 58 f5 bd
       -0.015953328 -0.028241312 -0.052585576 -0.1197979
000130 0b bf 26 3d 4b 0f 62 be d8 90 40 bd 20 aa 4e be
       0.040709537 -0.22076146 -0.047013134 -0.20182085
000140 d7 4e 93 bd 39 40 5d be c7 09 8f be 8d 08 0a be
       -0.07192772 -0.2160653 -0.27937147 -0.13479824
000150 fa b8 fc 3c 73 fc fb bd ec 36 ba bd 98 46 32 3d
       0.030849922 -0.1230401 -0.09092507 0.043524355
000160 26 69 9b bc 1e 04 2c be 5a 8c 8b be c5 77 ae be
       -0.018971037 -0.16798446 -0.27255517 -0.34075752
000170 ba a6 63 be 61 50 4b be 95 83 67 be 6a f2 7e be
       -0.2223157 -0.19854881 -0.22608788 -0.24897161
000180 7b 48 25 be bc da ea bd 88 3f e5 3b 5d 13 5f be
       -0.1614093 -0.114675015 0.006996099 -0.2178473
000190 7f 41 be 3d 52 a9 90 bd e3 ad 39 3d 6e bb 99 3d
       0.09289836 -0.07063545 0.045331847 0.075064525
0001a0 c6 c9 d7 bd 1d c1 5d be 22 2e 8e 3d d4 b9 d7 bc
       -0.10536532 -0.21655698 0.06942393 -0.026333727
0001b0 a2 73 41 be cd 98 52 be 8c 87 47 be 8c 04 30 be
       -0.18891767 -0.20566101 -0.19485301 -0.17189234
0001c0 63 26 42 bd 8b 61 16 be b8 70 9c 3d 49 2f 30 be
       -0.04739989 -0.14685647 0.07638687 -0.17205538
0001d0 9f 15 26 be 2f 4b ac 3c 68 07 2c bc 8e 52 38 be
       -0.16219185 0.021031944 -0.010499813 -0.18000242
0001e0 81 9a ab bb b4 58 5f be 0f 99 74 be 38 7a 80 bd
       -0.005236924 -0.21811181 -0.23886512 -0.062733114
0001f0 d2 14 61 bb 9f fc 80 be 29 2a 5f be ca 2e 83 3d
       -0.0034344685 -0.25192735 -0.21793427 0.06405409
000200 bf 33 dc 3c 4b 05 37 bd 1b 2e 0b be a0 c2 54 be
       0.026880143 -0.044682782 -0.13591807 -0.20777369
000210 48 29 62 be 1f 86 27 3d dd be 47 be 10 00 5f be
       -0.2208606 0.040899392 -0.19506402 -0.21777368
000220 be 9b 67 be d6 65 48 be 41 c3 4a be 2a 75 be 3d
       -0.22618005 -0.19570097 -0.19801046 0.09299691
000230 ea 92 fb bc 66 38 fe 3d c4 9d b1 3d 9c 68 2d be
       -0.030709703 0.12413101 0.086726695 -0.16934437
000240 c5 59 71 bd d9 78 8d 3b 6f ed 2e be 22 e5 68 be
       -0.0589235 0.0043173847 -0.17082761 -0.22743657
000250 00 7e 30 be 10 47 53 bb ba a2 cf bd f1 1b 24 bc
       -0.17235565 -0.0032238401 -0.101384595 -0.010016427
000260 fb 49 14 3d 58 16 23 be 6d 05 6c 3d c7 7e 07 be
       0.036203366 -0.15926492 0.057622362 -0.13231955
000270 7f 42 af bd 94 40 0d be 06 dd 2b be 8b f9 f8 bb
       -0.08557605 -0.13794166 -0.16783533 -0.007598107
000280 d8 b5 a7 bc 4b c5 f9 bd cb f8 d5 bc 24 6a 45 be
       -0.020472452 -0.12195834 -0.02611961 -0.1927877
000290 cd 27 f0 bd bc 98 a6 bc 84 d9 86 be b3 93 51 bc
       -0.117263414 -0.020336501 -0.26337826 -0.012791562
0002a0 18 2a 84 be 88 65 ce bd 28 25 2b be f4 bd ac 3b
       -0.25813365 -0.10077959 -0.16713393 0.0052716676
0002b0 ed 76 3f be ac 21 75 be a6 6f 61 be 70 5e 15 bd
       -0.1869771 -0.23938626 -0.22015247 -0.036467016
0002c0 ca 8b 38 3d d3 9f 6e be b4 16 35 3d 2d 87 b3 bd
       0.04505519 -0.23303156 0.044211105 -0.08766017
0002d0 d2 ae 78 3d c8 c1 5f be fc f7 f9 bd 5a 07 32 be
       0.060713597 -0.21851265 -0.122055024 -0.17385617
0002e0 fb 1f 6d be 77 5a a3 3d 84 e9 88 bd 74 10 ae 3b
       -0.23156731 0.07976239 -0.066851646 0.00531202
0002f0 ef 43 f7 bd 1b 0e 89 be 22 1b 06 3e 7d b2 e6 bd
       -0.12073504 -0.26768574 0.13096288 -0.11264513
000300 78 20 b2 bd 20 a8 01 bd a2 86 04 3d bd e9 5c be
       -0.08697599 -0.031654477 0.03235496 -0.21573539
000310 b5 33 b6 bd 00 de a1 bd 36 50 2b bd 6d c3 83 3c
       -0.08896581 -0.07903671 -0.041824542 0.016084397
000320 e2 7f 37 be 99 ff 83 be a4 9c 60 be bd 1f 50 3d
       -0.17919877 -0.25780943 -0.21934754 0.050811518
000330 b0 95 20 3d da d8 81 3d 41 42 ec 3d b6 82 db 3d
       0.039205253 0.06340189 0.115360744 0.107182905
000340 66 ba 25 bc 80 08 d4 bc 5d fd a0 bd 43 7b 74 be
       -0.010115242 -0.02588296 -0.07860825 -0.23875146
000350 7d f8 a1 3c 42 e8 b4 bd b8 44 3a 3d 96 41 b2 39
       0.019771809 -0.08833362 0.04547569 0.0003399967
000360 0e e4 bc 3d 8c a4 f7 bd 6a af 2a be 66 0e 58 3e
       0.092231855 -0.12091932 -0.16668478 0.21099243
000370 67 66 44 be ff 8f 11 be 7c 43 ee bd 57 b9 47 be
       -0.19179688 -0.14215086 -0.116339654 -0.19504295
000380 d3 b3 7e bd 81 83 c3 bd 74 eb 8e bd c0 78 1f be
       -0.062183212 -0.09546567 -0.06978503 -0.15573406
000390 31 4d 8f bd e1 f5 3b be 47 22 a7 bc d7 49 0b be
       -0.06997145 -0.18355514 -0.020402087 -0.13602386
0003a0 30 cf d7 3b d2 8c 1c be 86 f2 cf bd 62 16 8c be
       0.006585978 -0.15288094 -0.101536795 -0.27360827
0003b0 63 4b b9 3c ad c6 9b 3c a7 c3 f5 bd 82 b2 49 bd
       0.022618955 0.019015634 -0.12000208 -0.049242504
0003c0 95 c4 17 be e0 20 8a be 95 56 bb 3d b0 a4 1a be
       -0.14821084 -0.26978207 0.091473736 -0.15101886
0003d0 44 73 6d bd d0 20 c8 bd bb b1 0d be 81 be 9b bd
       -0.057971254 -0.097718835 -0.1383733 -0.07604695
0003e0 30 a2 d5 bd 0e 2d 99 bd ab b5 1a 3e 32 a1 1e bd
       -0.104313254 -0.074792966 0.15108363 -0.038727947
0003f0 30 29 fc bd 73 03 d3 3c d6 1c a1 be 9e b2 4d be
       -0.123125434 0.02575848 -0.31467313 -0.20087668

bn1.weight f4 [300]
000000 c4 24 c5 3e 75 6d 72 3f d5 ad c5 3e 26 81 87 3f
       0.38504612 0.9469827 0.38609186 1.0586288
000010 a1 1a 4b 3f fc 39 57 3f 9f f2 0c 3f 11 5c be 3e
       0.7933751 0.8407285 0.5505771 0.37179616
000020 14 81 47 3f 35 a3 c4 3e 37 3f 18 3f 06 23 60 3f
       0.7793133 0.38405767 0.5947146 0.8755344
000030 71 81 1e 3f 22 09 09 3f 63 54 d0 3e 3c 87 39 3f
       0.6191626 0.5352956 0.40689382 0.72471976
000040 bf 4d 28 3e 27 86 f4 3e 4c fa b6 3e 45 22 3c 3f
       0.16435908 0.477586 0.35737836 0.7348979
000050 e7 2b 61 3f d9 02 63 3f e5 22 73 3f ae 9b 61 3f
       0.87957615 0.8867622 0.9497512 0.88128173
000060 fd da d7 3e fa cd 31 3e e0 f3 43 3f ef 89 5f 3f
       0.42159262 0.1736373 0.76544 0.87319845
000070 b0 2e 05 3f 69 a6 f9 3e 29 83 37 3f 3a e5 80 3f
       0.52024364 0.48759773 0.7168451 1.0069954
000080 4f 45 0b 3f 48 8c 15 3f aa 4c 45 3f 62 e7 de 3e
       0.5440263 0.5841718 0.77070105 0.43535906
000090 27 4d c7 3e 16 db 07 3f 55 9f d2 3e 0f e7 01 3f
       0.3892605 0.53068674 0.41137186 0.5074319
0000a0 78 44 37 3e fa d3 fc 3e 7a ea 79 3e 38 9c 7a 3f
       0.17897213 0.49380475 0.24405852 0.9789462
0000b0 77 87 eb 3e 76 41 4d 3f ed 79 01 3f b2 de 52 3f
       0.4600179 0.8017801 0.5057667 0.82371056
0000c0 44 db 9d 3e 95 41 90 3e 05 4d 26 3f 67 4e e8 3e
       0.3083135 0.28175035 0.6496127 0.45372316
0000d0 2b 8f e9 3e ee 2f 14 3f a2 c1 e1 3e be 12 d2 3e
       0.4561704 0.57885635 0.44093043 0.41029924
0000e0 ef 5d 2d 3f 03 c8 14 3f 8d b8 23 3f b2 4f 42 3f
       0.67721456 0.58117694 0.6395348 0.75902855
0000f0 42 0c bb 3e d6 71 36 3f 17 36 4a 3f da aa 6a 3f
       0.3653279 0.7126745 0.78988785 0.9166695
000100 da 58 33 3f 40 f5 44 3f 8c d6 25 3f c8 e0 24 3f
       0.7005745 0.7693672 0.647805 0.6440549
000110 25 5a 6f 3f 05 32 44 3f 1a 54 01 3f bf f5 1d 3e
       0.93496925 0.76638824 0.50518954 0.15425776
000120 af 6d 05 3f 3d 7f 22 3f 13 1d b6 3e 54 1e 3e 3f
       0.5212049 0.634754 0.35569057 0.7426503
000130 71 3f 3c 3f 7f 36 d5 3e b7 63 43 3f fc 70 3c 3f
       0.73534304 0.4164314 0.7632403 0.736099
000140 94 1e 5b 3f 86 89 d3 3e 7b cb d4 3e df 22 26 3f
       0.85593534 0.4131586 0.41561493 0.6489696
000150 38 fd 28 3f 84 42 9f 3e 47 60 38 3f c4 43 04 3f
       0.6601138 0.31105435 0.7202191 0.516659
000160 c9 d2 fa 3e 07 9b 62 3f 2f 62 8f 3f c6 74 5a 3f
       0.4898894 0.885178 1.1201838 0.8533443
000170 3d 52 1e 3f 23 da 4e 3f 03 81 7b 3f 08 2a 53 3f
       0.61844236 0.808016 0.9824373 0.8248601
000180 db f2 11 3f e7 92 15 3f 5c c4 2e 3f 85 be 16 3f
       0.57011193 0.5842728 0.6826837 0.5888446
000190 41 8c 15 3f 52 3c 7a 3e a2 43 2e 3f a6 a2 f8 3e
       0.58417135 0.24437073 0.6807195 0.4856159
0001a0 6f ce 46 3f 84 5a 33 3f 42 d9 74 3f d6 ac 03 3f
       0.7765874 0.7005999 0.9564401 0.514356
0001b0 ca a8 46 3f bc 9f b3 3e c0 55 dd 3e 62 ae 52 3f
       0.776013 0.35082805 0.43229485 0.8229734
0001c0 e1 50 6c 3f 04 b3 ed 3e 27 7a 11 3f 9c 5d 12 3f
       0.9231091 0.4642564 0.56827015 0.57174087
0001d0 e5 d8 18 3f c0 78 4c 3f d5 9b 4c 3f 6b f8 05 3f
       0.59705955 0.7987175 0.7992528 0.5233218
0001e0 8c 9f 9c 3e cb 8f e3 3e 9b 0c 0c 3f 48 9c b9 3e
       0.30590475 0.44445643 0.54706734 0.36252046
0001f0 25 d4 e3 3e dc f4 b5 be 07 d9 62 3f 59 95 fb 3e
       0.4449779 -0.35538375 0.8861241 0.4913738
000200 d5 ae 34 3f cd 50 3b 3f c9 9b 90 3e 58 8a 72 3e
       0.7057927 0.7317017 0.28243855 0.23685586
000210 f0 e0 81 3f 29 bc e9 3e 78 53 3e 3f 49 5a 34 3f
       1.014677 0.45651367 0.74346113 0.70450264
000220 54 b2 79 be fb 3d 36 3f 90 d5 1b 3f 36 fd 37 3f
       -0.24384433 0.71188325 0.60872746 0.71870744
000230 6f c2 2f 3f f1 7f 02 3f 2a 72 6b 3f e9 5d 10 3f
       0.6865606 0.50976473 0.91971076 0.56393296
000240 ef 13 88 3e 4a d9 f5 3e 39 0d 16 3f 2c b4 15 3f
       0.26577708 0.4801734 0.58613926 0.58478045
000250 8f 67 07 3f 86 1b 41 3f d9 87 59 3c 08 b9 4d 3f
       0.5289239 0.7543262 0.0132770175 0.8036046
000260 18 03 33 3f ce bc 6c 3f a5 85 93 3e d1 e3 7d 3f
       0.69926596 0.92475593 0.288129 0.99175745
000270 5f 79 b2 3e 5d ad 2e 3f 70 a6 55 3f cc 63 6c 3f
       0.34858224 0.6823328 0.8345709 0.9233978
000280 91 96 7b 3e 73 6a ca 3e b5 ae a9 3e 78 a9 04 3f
       0.24569155 0.3953434 0.33141103 0.5182109
000290 f4 d5 53 3f b9 f9 24 3f 20 9e 5d 3f cc 10 4b 3f
       0.8274834 0.64443547 0.86569405 0.79322505
0002a0 f1 b7 36 3f 73 6f 39 3f c6 e3 18 3f 4c 8d 31 3f
       0.7137442 0.72435683 0.59722555 0.69356227
0002b0 f5 9b 09 3f 99 0e 54 3f 12 69 b6 3e 8a e5 1d 3f
       0.53753597 0.82834774 0.35627037 0.61678374
0002c0 68 81 67 3f 50 1c 24 3f ef 37 4a 3f 73 9f e7 3e
       0.90431833 0.641057 0.789916 0.45238838
0002d0 3f 09 46 3e fc 26 87 3f c1 05 f5 3e 33 22 dc 3e
       0.19339465 1.0558772 0.47855952 0.42994842
0002e0 c7 12 e4 3e 3b 06 04 3f 62 a6 2d 3f ff 33 08 3f
       0.44545576 0.51572007 0.67832005 0.5320434
0002f0 0e b8 19 3f d9 85 aa 3e f2 19 09 3f 8e c6 6f 3f
       0.6004647 0.33305243 0.53555214 0.93662345
000300 95 c2 c6 3e c9 fd 00 3f d6 bb f3 3e 46 30 57 3f
       0.3882033 0.50387245 0.47604245 0.84058034
000310 5b c8 06 3f a2 f3 59 3f e0 fc d4 3e 69 0e 4e 3f
       0.5264947 0.8513738 0.41599178 0.8049074
000320 bd 98 4b 3f f1 00 31 3f a5 1d 41 3f 03 a6 3a 3f
       0.79529935 0.6914206 0.7543586 0.72909564
000330 be c5 5a 3f f5 85 49 3f b7 b5 29 3f 53 7b 50 3f
       0.8545798 0.7872003 0.662929 0.8143818
000340 cd d0 9d 3e a2 4d 28 3f d8 41 2c 3f 99 b1 03 3f
       0.30823365 0.6574346 0.6728797 0.5144287
000350 6e e5 2c 3f b9 9c 22 3f c3 70 54 3f 00 b5 2c 3f
       0.6753758 0.6352039 0.8298456 0.67463684
000360 63 4e 46 3f 27 f4 2f 3f e8 21 47 3f 15 b1 34 3f
       0.7746336 0.6873192 0.7778611 0.70582706
000370 3c a4 16 3f e3 30 d7 3e c3 49 68 3e 63 18 68 3f
       0.5884435 0.42029485 0.22684388 0.9066221
000380 3a a7 1c 3f 1a dd 96 3e 54 af f1 3e de 2e f0 3e
       0.6119267 0.29465562 0.47204077 0.46910757
000390 43 da 2b 3f cb ff d7 3e 1d 45 58 3f 26 65 ea 3e
       0.67129916 0.42187342 0.8448046 0.45780295
0003a0 dd 28 e2 3e 5e e7 50 3f 4b 1a 34 3f 69 d9 25 3f
       0.441718 0.8160304 0.7035262 0.64784867
0003b0 a1 df 01 3f e1 53 ae 3e 38 b6 33 3f 67 e7 6b 3f
       0.50731856 0.3404837 0.7019992 0.92149967
0003c0 f7 4e 5c 3f 96 f3 44 3f 63 54 55 3f 12 2b 63 3f
       0.8605799 0.7693418 0.8333189 0.88737595
0003d0 c7 12 a8 3e 69 86 54 3f 5a 60 84 3f 7c ca 69 3f
       0.32826826 0.83017594 1.0341904 0.9132459
0003e0 7a ce 7d 3e b8 61 bf 3e ab 29 07 3f 71 bc a6 3e
       0.24785796 0.3737924 0.52797955 0.32565644
0003f0 d5 dd 33 3f 6f a4 05 3f 4f 08 28 3f 72 48 04 3f
       0.70260364 0.5220403 0.6563768 0.5167304

bn1.bias f4 [300]
000000 14 f3 34 3a 99 1b 84 3d 47 ba 83 3d 51 7c c0 3c
       0.00069026765 0.06450576 0.06432014 0.023496779
000010 9b 12 05 be 38 ae a9 3d 40 91 03 3e ef 5b 48 3e
       -0.12995379 0.08285183 0.12848377 0.1956632
000020 9f 7d 0d be a1 05 34 ba 68 ac eb bd ec de 61 3d
       -0.13817452 -0.0006867294 -0.11507493 0.055144235
000030 9c 66 54 3c ba 00 3a 3d e5 17 50 bd e6 12 5b 3d
       0.012963917 0.04541085 -0.050804038 0.05348482
000040 e7 5c af bd 7d 32 ae 3d 1b c6 8a 3d b1 6f 88 3d
       -0.085626416 0.085057236 0.06776067 0.066619284
000050 3e 74 df bd e9 54 44 3e 90 2c d9 3d 22 15 10 3e
       -0.10910843 0.19173016 0.10604203 0.14070562
000060 42 39 42 3e 5c 10 49 be 76 78 ad bd 14 9b 1b 3e
       0.18967155 -0.19635147 -0.08470242 0.15195876
000070 c3 dd dd 3d c1 fe 45 3b 99 42 2a 3c 25 af 07 3e
       0.10833313 0.003021166 0.010391855 0.13250406
000080 a2 82 0f bd 73 5f 6c 3c b3 4d 02 3e 9b cc 68 3c
       -0.03503669 0.014427054 0.12724952 0.014208938
000090 c3 ba e5 3b 83 7d 5e bd bc f1 09 3e b1 29 96 bd
       0.007010789 -0.054318916 0.1347112 -0.07332171
0000a0 a1 e9 d1 3e 2e 76 1c be fe ab 47 3d 9d f5 f6 3d
       0.40998557 -0.15279457 0.04874801 0.12058566
0000b0 7e 99 9b 3c 14 8b 70 3d dd ef b8 3d 4d aa db bd
       0.01899409 0.058726385 0.09030125 -0.10725842
0000c0 79 e3 55 bd be 0a 1a be e4 4a f2 3d df b6 20 bd
       -0.052218888 -0.1504316 0.118306905 -0.0392369
0000d0 56 ff 1f 3d 36 e6 0c 3e 3d d9 76 bc 0d fb 1b 3e
       0.039061867 0.13759694 -0.015066442 0.15232487
0000e0 57 1b 8a 3c da 97 e7 3c 10 72 39 3d ba 44 6e 3e
       0.01685874 0.02827065 0.045274794 0.23268405
0000f0 0a 0a cd bd 2e 68 a0 3d 15 32 b0 3d eb 82 c7 3c
       -0.100116804 0.07832371 0.086033024 0.024354419
000100 2e f0 0a 3d ab 3a 16 be 7a 11 16 bd 5a 11 0e 3e
       0.03392046 -0.14670818 -0.03663776 0.13873807
000110 72 fb 0e 3e a2 b4 3b 3e c1 3f dd 3d f4 95 a5 3d
       0.13963106 0.18330625 0.10803176 0.08085242
000120 eb d9 b6 bd 89 95 e8 bd 8d c1 04 be 65 8c d2 3d
       -0.08928283 -0.113566466 -0.12964459 0.102806844
000130 4f 87 6d 3d a2 ba fe 3c e7 6a f5 3d 5c c4 b9 3d
       0.05799037 0.031094853 0.11983281 0.09070656
000140 f9 61 a9 bd 2e b8 26 3d 90 8e 5a bd d3 41 96 3d
       -0.0827064 0.04070299 -0.053358614 0.07336774
000150 f4 69 8e 3d f8 ab b2 bd f0 74 a9 3b f5 80 21 3d
       0.06953803 -0.08724207 0.0051714107 0.039429624
000160 14 7f fd bd 95 5b 3f 3d 30 39 55 3e 36 85 82 bd
       -0.12377754 0.0467182 0.20822597 -0.06373064
000170 fe ce 84 3d 64 1b 8d bc 61 5e 53 3e 36 33 63 bd
       0.06484793 -0.017224975 0.20641471 -0.05546876
000180 7b f0 85 bc fb e9 e4 39 51 4b 04 3e b3 b2 b1 3c
       -0.016350022 0.00043661878 0.12919356 0.021691656
000190 0b d1 36 3e ac 16 14 3d 8b 80 27 39 78 9a 6c 3c
       0.17853181 0.036154434 0.00015974247 0.014441125
0001a0 bd ca e3 bd ca 6d 14 3d 84 b6 a2 bb 2b c1 e5 3d
       -0.11122654 0.036237516 -0.004965605 0.112184845
0001b0 e9 ba ac 3d 8d 41 59 ba 56 10 df 3d ef a2 01 3d
       0.08434088 -0.0008287661 0.10891788 0.031649526
0001c0 3c f6 ae 3d b4 75 53 3e c0 c9 25 3d f0 24 97 bd
       0.08543059 0.20650369 0.040475607 -0.07380092
0001d0 8f 36 e5 bd 03 95 d8 3d 13 5b b5 bb 68 75 cc 3d
       -0.11192047 0.10575297 -0.0055345385 0.09983331
0001e0 9a 12 1e 3d 8d d5 87 3d c4 8e f2 bc 78 83 70 be
       0.03859196 0.066325285 -0.029609092 -0.23487651
0001f0 88 8b 0a be 68 da 8f bb 24 6c 91 bc 5d 9e 2b bb
       -0.1352979 -0.0043900497 -0.01775176 -0.0026186921
000200 b1 d7 bb 3d a1 f5 07 bd 47 05 20 bd 05 92 8e 3d
       0.09171999 -0.033193234 -0.039067533 0.06961445
000210 d1 ee 03 3e 95 67 39 bd ff fa 11 3e b6 c3 74 3d
       0.1288407 -0.0452648 0.14255904 0.059756957
000220 3a fd 94 3e b9 67 77 3c f6 6a 83 bd 22 64 fc 3c
       0.29099447 0.015100413 -0.064168856 0.030809466
000230 31 62 71 bd 76 3b 01 3d 9e f7 40 3c aa 9d 96 3d
       -0.058931533 0.031550847 0.011777787 0.07354291
000240 b1 72 5a 3e 8a 2f c2 bd f1 7a 8b 3d 79 3c 19 3c
       0.21332814 -0.094817236 0.068105586 0.009352797
000250 53 d3 e0 3d 49 dd 13 3d be 4a 97 3e 32 44 3d 3e
       0.10977807 0.036099706 0.2954921 0.18483046
000260 fe ef 20 3e 21 e1 e0 3d 10 98 ce bd 79 60 46 3e
       0.1571655 0.1098044 -0.10087597 0.19372739
000270 a9 e9 0a bd d6 07 a4 3d 73 88 8a 3d 3f 02 c3 3c
       -0.033914242 0.08009307 0.06764307 0.023804782
000280 cd 27 fe bc 4e ab 09 be 33 3b bb 3c ef 56 89 bd
       -0.031024838 -0.13444254 0.022855377 -0.067060344
000290 d7 7b 32 3d 4f 14 e2 3d 0e f6 00 3e 36 e3 71 bb
       0.043575134 0.1103903 0.12593862 -0.003690911
0002a0 ad d7 8c 3d ae c3 0b 3e e8 b6 16 3c ee 90 d9 bd
       0.068770744 0.13648865 0.009198882 -0.10623346
0002b0 20 ca b2 3d ed 5d d8 bd 7b 09 c4 3b 39 a4 a6 3c
       0.087299585 -0.1056479 0.0059825755 0.02034198
0002c0 41 9d d6 3d 0c 75 b5 bc 51 c3 c4 3d ae 37 60 bd
       0.104792126 -0.022150539 0.09607566 -0.0547406
0002d0 8c 76 d3 bc f0 8d e2 3d ce 98 ed bd 71 66 af 3c
       -0.025813363 0.11062229 -0.11601411 0.021411153
0002e0 58 2c 7a 3c 6a 5b b8 3d 28 ad 17 be 76 2f a7 3c
       0.015269361 0.09001811 -0.14812148 0.020408373
0002f0 47 be 4b 3d e4 76 bd 3a 19 e7 24 3d ec e6 cf 3d
       0.04974201 0.0014454988 0.040259454 0.10151467
000300 0a 3f ca 3d c6 8b c7 3c d6 f3 25 3d b4 1f ef 3c
       0.09875305 0.024358641 0.040515743 0.029189922
000310 67 50 ae 3c 21 26 35 3e b6 9c fd bd 7d 61 8f ba
       0.021278573 0.17690326 -0.12383406 -0.0010939088
000320 28 2c 0b bb 5e 04 c4 3d 66 aa ed 3a ec 73 94 bc
       -0.0021236036 0.095711455 0.0018132448 -0.018121682
000330 f6 a7 c1 3d 9d 92 ea bb fc 52 f8 3c a0 fa b9 3d
       0.09455864 -0.007158591 0.030313008 0.09081006
000340 e4 75 a1 3c c0 2a 70 3d d3 7e e9 3d 3b d7 2c 3d
       0.019709535 0.05863452 0.11401143 0.042197447
000350 e9 a9 0d 3e 06 7c f6 3c a3 ec fb bd ce 84 ed 3d
       0.13834347 0.030088436 -0.12300994 0.11597596
000360 e5 c4 f0 3d f8 d6 6b 3d 03 a9 70 3d c3 7b b6 bd
       0.11756305 0.057578057 0.058754932 -0.089103244
000370 90 14 00 3e d6 81 b4 3c 0f 55 58 3c a0 a2 0d 3c
       0.12507844 0.022034567 0.013203873 0.00864473
000380 d6 44 b8 3d a7 4d 25 bd e3 21 6c ba 7d 5b 17 bd
       0.089975044 -0.04035726 -0.0009007735 -0.036952484
000390 64 67 3a 3d d5 c4 96 3c c7 8a 53 3d 45 8d 42 bd
       0.045508757 0.018404404 0.05164602 -0.047498006
0003a0 47 e8 ee 3d e9 7e a9 3d 0f 35 37 3d 3d b3 1c 3e
       0.11665397 0.08276159 0.044728335 0.15302749
0003b0 58 1a 07 3e 57 54 3a bd 8f ac 89 3d d2 8a 9a bc
       0.13193643 -0.04549059 0.06722366 -0.018865023
0003c0 dd ee 25 3d 2f 29 83 bc 17 63 b5 bd 8d 8f cd 3c
       0.040511 -0.016010849 -0.088567905 0.025092864
0003d0 2d d0 b8 bc 9c 09 67 3d 5a 37 51 3e 20 c8 ae bd
       -0.022560203 0.05640565 0.20431271 -0.085342646
0003e0 f0 48 78 be 86 b4 7e bc 9e 3e a4 3d af ef 67 bc
       -0.24246573 -0.01554597 0.08019756 -0.014156266
0003f0 02 e6 1b 3e 81 f3 72 3d 0e 4d 8e bd 3d 08 e9 3c
       0.1522446 0.059314255 -0.06948291 0.028446311

bn1.running_mean f4 [300]
000000 c3 9e b3 3d 18 5b 0d 3e f8 47 d1 3c ab 24 01 3e
       0.08770516 0.13804281 0.025547013 0.12611644
000010 8c 25 c3 3d d5 62 09 3e 8c aa 53 3d dd 1a af 3c
       0.09528646 0.13416608 0.051676318 0.021375114
000020 52 1e 99 3d c1 3a f4 3d ef 08 de 3d f3 be 24 3d
       0.07476486 0.11925269 0.10841548 0.040221166
000030 e4 c7 a8 3d 7c ca 8c 3d f6 db 24 3d 2d da 58 3d
       0.08241251 0.06874558 0.040248834 0.052942444
000040 6a e8 87 3d 69 f4 0a 3d 90 74 49 3d b1 6b d4 3d
       0.06636126 0.033924494 0.04918343 0.10372103
000050 c2 63 aa 3d 33 e7 a9 3c 05 ef c4 3d da ab 7d 3d
       0.083198085 0.020740127 0.09615902 0.06193147
000060 f5 9a 88 3c aa 4b b1 3d 2d a2 e5 3d b8 24 0e 3e
       0.016675452 0.0865701 0.11212573 0.13881195
000070 d2 de 70 3d cf 2e 25 3e 9e 03 94 3d 51 70 bb 3d
       0.058806248 0.16131137 0.072272524 0.09152282
000080 f1 6e c3 3d df ca fa 3d be a9 84 3e b0 4a c5 3d
       0.09542645 0.12245726 0.25910753 0.09633386
000090 c8 a8 b2 3d a4 97 6c 3d c2 00 c1 3d 6c 4b e2 3d
       0.08723599 0.057761803 0.09423973 0.11049542
0000a0 a9 77 cf 3d 4b b2 0b 3d 4b 78 1a 3e 63 4f 6e 3d
       0.10130245 0.03410558 0.1508495 0.058181178
0000b0 08 bb 1e 3d 26 54 ff 3d ee d9 7c 3c d7 d1 cf 3d
       0.038752586 0.12467222 0.015432818 0.10147446
0000c0 06 b4 83 3d 50 fd 3e 3d 38 14 12 3d c0 a0 98 3d
       0.06430821 0.046628296 0.035663813 0.07452536
0000d0 3b a1 1e 3e 50 24 e0 3d 4b 17 5a 3e 46 d5 46 3e
       0.15491192 0.10944426 0.21297948 0.19417295
0000e0 58 ec 88 3d 35 2d 15 3e cc 2e a1 3d 6a e6 eb 3d
       0.06685704 0.14568026 0.07870254 0.11518557
0000f0 ba e5 ae 3d 40 84 94 3e cf 8f 8b 3d 03 4e a3 3d
       0.085399106 0.2900715 0.06814539 0.07973864
000100 17 3f 75 3d 96 ac aa 3d 31 34 0c 3e 77 89 ac 3d
       0.05987462 0.083336994 0.13691784 0.08424657
000110 3f 8f f8 3d a5 f2 81 3d c6 9b 7c 3d c2 0a 87 3e
       0.12136697 0.06345109 0.061671995 0.26375395
000120 d8 ce 50 3e dc f6 06 3e 7d d1 bb 3d d9 f8 95 3d
       0.20391405 0.13180107 0.09170816 0.073228545
000130 5d d4 01 3e 0b 62 b0 3d d1 98 a9 3d 04 3a ef 3c
       0.12678666 0.0861245 0.082811005 0.029202469
000140 c8 63 00 3e b8 31 23 3d a6 80 5e 3d a0 33 29 3e
       0.12538064 0.039842337 0.054321907 0.165236
000150 b2 01 c0 3e 1c 0b 44 3d 38 70 c3 3d 78 0c 94 3d
       0.37501293 0.047862157 0.095428884 0.07228941
000160 67 35 8f 3e 19 53 93 3d 40 6f 80 3d a4 d6 9c 3d
       0.2797043 0.07193584 0.06271219 0.07658127
000170 4f 17 28 3d 25 6c 9b 3d b1 66 7f 3d 41 1a 86 3d
       0.041037854 0.07588986 0.062353794 0.06547976
000180 a7 ef 11 3d be 7e f3 3d 98 5a de 3d 25 3a c2 3c
       0.03562894 0.118894085 0.10857123 0.023709366
000190 77 19 42 3e c6 d6 97 3d 70 c1 05 3e 40 0a b1 3d
       0.18955027 0.07414012 0.13062072 0.08644533
0001a0 6b 8e e1 3d 38 9d 33 3e a0 6d 04 3e fa 77 90 3d
       0.11013492 0.17540443 0.12932444 0.07054134
0001b0 d5 fc 9d 3d 58 e6 33 3d 44 a4 02 3e 67 55 bc 3d
       0.077142395 0.043920845 0.12757975 0.09195977
0001c0 16 ab 21 3e ed 61 00 3d 7a ab 59 3e 06 32 a1 3d
       0.1578792 0.03134339 0.2125682 0.07870869
0001d0 c8 9f ee 3d c6 a9 47 3e dd 95 4c 3e 1c 2b 90 3d
       0.116515696 0.19498357 0.19979043 0.070394725
0001e0 df 17 b6 3d 37 a2 25 3c 5b b5 42 3d 96 9a 4c 3d
       0.08891272 0.010109476 0.047536235 0.049952112
0001f0 82 2f f8 3d a1 5b 1f 3d 5b 89 c7 3d e5 9e 75 3d
       0.121184364 0.038905744 0.09742995 0.059965987
000200 d8 03 99 3e c0 db 14 3d 82 ee d7 3d 0a bd 1b 3e
       0.29885745 0.036342382 0.10543539 0.15208831
000210 62 33 0d 3e 9b d3 0e 3e 9d 7e 46 3e 54 e1 db 3d
       0.13789132 0.13947909 0.19384237 0.10736337
000220 3f a3 bd 3d 38 c5 0e 3d bd c6 2d 3d 0d 05 4d 3e
       0.09259652 0.03485605 0.04242586 0.20021458
000230 6e b2 bf 3c d1 2f d7 3d 76 5c 97 3d e0 f4 b2 3c
       0.023400512 0.10507167 0.073906824 0.021845281
000240 6f e3 c9 3d 71 e6 08 3e e8 1a 4f 3d a8 51 a4 3c
       0.09857833 0.13369156 0.05056277 0.020058468
000250 f1 ad b4 3d 40 7a df 3d de f6 cb 3e 66 67 b1 3d
       0.08822239 0.10911989 0.39836782 0.086623
000260 a9 c3 62 3e 26 d9 37 3e 3d 62 a0 3d bb fa e9 3d
       0.22144951 0.1795393 0.078312375 0.11424776
000270 37 07 e9 3c 27 96 ae 3d 25 9b 94 3d ad 43 93 3e
       0.028445823 0.08524733 0.07256154 0.2876257
000280 1e 67 f1 3d 60 30 53 3e 5c 6e 07 3e 39 58 50 3d
       0.11787246 0.20623922 0.13225693 0.050865386
000290 e8 5b 88 3d 11 4f a9 3d cf bb 36 3d 5b 89 bb 3d
       0.06658155 0.08267034 0.044612702 0.09157058
0002a0 5e 25 ce 3c 51 cb 0b 3e 1a 63 50 3d c3 98 ce 3d
       0.025164302 0.13651778 0.05087576 0.10087731
0002b0 de c5 9b 3c a8 e7 ac 3d f8 03 72 3d c4 dd 53 3e
       0.019015249 0.084426224 0.059085816 0.20690066
0002c0 05 65 04 3e b5 e5 17 3d c5 b1 da 3d b1 c5 b2 3c
       0.12929161 0.0370843 0.10678438 0.021822782
0002d0 5e 76 78 3e e9 bd 91 3d c6 4d f3 3d c1 06 3f 3d
       0.24263903 0.071163006 0.118800685 0.0466373
0002e0 9a 55 77 3c 12 77 d7 3d e0 97 8f 3d 24 55 a3 3e
       0.015096093 0.10520758 0.0701139 0.31900895
0002f0 74 a0 0e 3e 81 7d 5d 3e 23 f8 cf 3d ab 6e a8 3d
       0.13928396 0.21629907 0.1015475 0.08224233
000300 b9 8d 76 3d f1 70 ba 3d ad b0 bb 3e fc 1e 09 3d
       0.06019375 0.09103573 0.3665823 0.033476815
000310 81 e1 4f 3d 3b e5 41 3d 3a 91 23 3e 29 f6 05 3e
       0.050752167 0.04733775 0.15973368 0.13082184
000320 ca 3c bc 3d 76 86 94 3d 20 a7 27 3d 55 97 02 3e
       0.09191282 0.07252209 0.040930867 0.12753041
000330 77 8c 2d 3e 4e 48 88 3d 9f e2 0e 3e f5 ac 7e 3e
       0.16948114 0.06654416 0.13953637 0.24870665
000340 0d b6 1c 3d 48 3c ee 3d 50 47 ae 3d a1 cc db 3c
       0.038259555 0.116325915 0.085096955 0.026830973
000350 a7 f2 3e 3e 28 82 81 3c 57 61 45 3e 05 a7 0e 3e
       0.18647252 0.015809134 0.19275413 0.139309
000360 f0 39 5f 3e 46 9a 3a 3d ce 85 34 3e 94 3f bb 3d
       0.21799445 0.045557283 0.17629167 0.09142986
000370 97 6b d1 3d a3 90 b2 3d e1 f7 cf 3d 9c 21 71 3d
       0.10225599 0.087189935 0.10154701 0.058869943
000380 f0 9a 6f 3d 56 5a 0c 3e 87 1e af 3d 95 9b 88 3d
       0.05849737 0.13706335 0.085507445 0.066703
000390 fe 0f 99 3d 80 2e fe 3c a7 54 14 3e ad 19 70 3d
       0.074737534 0.031028032 0.14485417 0.058618236
0003a0 3c 9b 57 3e 87 a4 a6 3d 8d 4f ca 3d 5a de 93 3d
       0.21055311 0.0813685 0.09878454 0.072201446
0003b0 38 48 a1 3d 50 e8 b7 3d f0 11 3b 3d ac 25 e9 3c
       0.07875103 0.08979857 0.045671403 0.028460346
0003c0 b1 e2 38 3d 2f 52 a0 3d 37 98 f6 3e 17 dc 75 3d
       0.045138065 0.07828175 0.48163006 0.060024347
0003d0 e4 d4 b4 3c 26 14 0d 3e 8e 78 53 3d 4b f9 70 3e
       0.02207417 0.13777217 0.05162864 0.23532598
0003e0 fb d6 83 3d a7 e1 fa 3c 1b c6 ab 3e 0b d4 8f 3d
       0.06437489 0.030625178 0.3354958 0.07022866
0003f0 c4 83 64 3d b0 fd 9d 3d 71 30 91 3d fd 5b c2 3c
       0.055789724 0.07714403 0.070893176 0.023725504

bn1.running_var f4 [300]
000000 79 d4 06 3d b6 1b 53 3d 8a 7c 0d 3c bc 41 53 3d
       0.032917473 0.0515401 0.008635649 0.05157636
000010 10 fe 16 3d ec bb 8a 3d d1 43 a7 3c ac 41 e5 3b
       0.036863387 0.067741245 0.02041808 0.006996354
000020 22 28 d5 3c 2f 8c 4e 3d 0f f2 44 3d 46 49 51 3c
       0.026020113 0.05042666 0.048082408 0.012773817
000030 c4 0f 46 3d 30 d4 0a 3d 85 56 6b 3c b3 be d3 3c
       0.04835488 0.033893764 0.01436389 0.025847768
000040 e4 1a c9 3c 77 4f a8 3c e1 e3 c1 3c ac 3d 42 3d
       0.024548955 0.020545704 0.023668231 0.047422096
000050 82 46 05 3d 29 24 06 3c df 5e 02 3d dd 51 b7 3c
       0.032537945 0.008187332 0.031828757 0.022377903
000060 be a7 23 3c 0d aa 7c 3d 9b 57 05 3d 8e 08 95 3d
       0.009988723 0.06168561 0.03255425 0.07277022
000070 7e f5 9e 3c 3f 67 c5 3d bf 40 cc 3c 19 7a 10 3d
       0.01940417 0.09638833 0.024933217 0.03527269
000080 bd 09 06 3d 8b f0 24 3d 54 19 35 3e cd b8 e1 3c
       0.03272413 0.040268462 0.17685443 0.02755394
000090 57 07 27 3d 57 87 93 3c cc 61 fd 3c 7a 21 05 3d
       0.040778484 0.018008871 0.030930422 0.03250263
0000a0 4f 62 6d 3d 2d 5c 03 3c 22 66 95 3d ec 1e b9 3c
       0.057955083 0.008017582 0.07294871 0.022597753
0000b0 3b a6 b6 3c 7f fd 2a 3d be ce c4 3b a3 c2 31 3d
       0.022296062 0.04174566 0.006006091 0.04339851
0000c0 e9 e4 be 3c 0d 82 d1 3c bd 1e 3e 3c 27 fc f9 3c
       0.023302512 0.025574708 0.011604008 0.030515743
0000d0 7c 44 80 3d d1 97 4f 3d af 40 ce 3d 08 b5 e7 3d
       0.06263062 0.050681893 0.10070931 0.11313826
0000e0 15 52 b8 3c 9d 63 bc 3d fc 7f 4b 3d ea 1f 25 3d
       0.022500077 0.09198687 0.049682602 0.04031364
0000f0 41 a5 e9 3c 56 6e be 3d c4 64 ee 3c 52 36 e5 3c
       0.028521182 0.09298389 0.029100783 0.027980004
000100 fa d9 a6 3c 69 4d 04 3d 87 ab 38 3d 7d 55 08 3d
       0.020367611 0.032300387 0.045085456 0.033284653
000110 02 5e 73 3d df 0b da 3c d6 61 19 3d 88 6f eb 3d
       0.059415825 0.026616989 0.03744682 0.11495882
000120 4c a0 91 3d f4 03 a4 3d 86 00 21 3d 8b d9 08 3d
       0.07110652 0.080085665 0.03930714 0.03341059
000130 bc ea 49 3d 26 f5 55 3d 1d 2e f8 3c cf 80 2f 3c
       0.049296126 0.052235745 0.030295426 0.010711863
000140 c4 69 72 3d 4c cf 58 3c 4d 8d 9c 3c f9 7e 74 3d
       0.059182897 0.013233017 0.019110346 0.059691403
000150 b8 78 15 3e 8b 15 8c 3c db 46 08 3d a6 13 e5 3c
       0.14596832 0.017100116 0.033270698 0.02796347
000160 ac 15 e2 3d 71 2a d6 3c 66 29 cf 3c 40 84 f1 3c
       0.1103929 0.026143285 0.025288295 0.029482007
000170 44 3b d1 3c 7d 4b c9 3c 59 6a c9 3c a7 43 d6 3c
       0.025540955 0.024572128 0.024586843 0.026155306
000180 cb 5c a5 3c 94 9f 23 3d e8 c9 0e 3d b8 94 16 3c
       0.020185849 0.039947107 0.03486052 0.009190731
000190 c1 26 cb 3d 8d 0c 04 3d 13 8c 34 3d ac 5e 0e 3d
       0.09919501 0.03223853 0.044078898 0.034758255
0001a0 fe 90 4f 3d e7 de b1 3d c9 99 47 3d bb 63 cf 3c
       0.050675385 0.086850934 0.048730645 0.02531611
0001b0 a3 79 de 3c 9a 23 db 3c e8 d9 97 3d 82 8b 22 3d
       0.02715761 0.026750375 0.07414609 0.039683826
0001c0 2e 1b 49 3d 64 b3 3c 3c ab c9 a4 3d bc 3b de 3c
       0.049098186 0.011517379 0.080462776 0.027128093
0001d0 02 9c 48 3d fe d6 9e 3d 09 91 78 3d b7 af b5 3c
       0.048976906 0.0775585 0.06068519 0.022178514
0001e0 d7 11 64 3d 2c 36 cb 3b 94 55 5c 3c 7b d3 aa 3c
       0.055681076 0.006201526 0.013448138 0.020852795
0001f0 df 3a 84 3d cc 36 98 3c 36 87 34 3d a4 f2 a3 3c
       0.06456541 0.018580817 0.04407426 0.020013161
000200 e6 d8 0d 3e 28 21 65 3c 82 e6 66 3d f8 02 a3 3d
       0.13852271 0.013984956 0.056372173 0.079595506
000210 f9 21 94 3d c9 c2 63 3d c9 0e d0 3d 4d b2 0d 3d
       0.07233042 0.055605683 0.1015907 0.03459387
000220 3f 58 62 3d a8 2b b8 3c ec 4c 79 3c 2f a3 9a 3d
       0.05525994 0.022481754 0.0152160935 0.07550656
000230 6c 50 0f 3c 89 38 35 3d d6 b5 e4 3c 45 14 2f 3c
       0.008747201 0.04424337 0.027918737 0.010685985
000240 c0 8b 37 3d 82 49 4d 3d 6e b4 d1 3c 32 67 24 3c
       0.04481101 0.05011893 0.02559873 0.010034369
000250 c3 a9 15 3d e7 14 00 3d a4 15 93 3e cf f5 c9 3c
       0.03653885 0.031269934 0.28727448 0.024653343
000260 e7 b8 c1 3d e9 fd 8b 3d 5e a3 2a 3d 33 31 15 3d
       0.094590954 0.06835539 0.041659705 0.036423873
000270 79 df 93 3c fd 46 03 3d 01 32 db 3c 0d 2f df 3d
       0.018050896 0.03205012 0.026757242 0.10897646
000280 07 94 41 3d fe 6e c6 3d 1d 47 1c 3d f9 c7 f8 3c
       0.04726031 0.09689139 0.038153756 0.030368792
000290 68 a1 ba 3c 24 a1 18 3d 36 42 83 3c 70 86 2c 3d
       0.022782043 0.03726305 0.016022783 0.042120397
0002a0 fb 9b 18 3c 79 78 62 3d 20 c8 80 3c d1 16 f1 3c
       0.009314532 0.055290673 0.015720427 0.029429825
0002b0 82 89 15 3c 17 65 cc 3c ff 2f b7 3c 58 8d c9 3d
       0.009127023 0.024950547 0.022361754 0.09841412
0002c0 20 a3 43 3d 66 43 76 3c e9 e9 23 3d fe b0 0a 3c
       0.04776299 0.0150307175 0.040017996 0.00846505
0002d0 b7 46 16 3e 30 8d ce 3c 85 45 42 3d 74 b7 be 3c
       0.14675413 0.025213808 0.04742958 0.023280837
0002e0 e9 a5 2f 3c 66 a4 31 3d 89 44 ea 3c e2 ec 1f 3e
       0.010720708 0.043369673 0.028597133 0.15617707
0002f0 23 53 60 3d 2b 5e a4 3d 5c 6a 72 3d 08 37 99 3c
       0.054766785 0.080257736 0.059183463 0.018702999
000300 47 34 78 3c 1b 48 3b 3d 6a 71 f4 3d 16 56 74 3c
       0.015149183 0.045723062 0.119356945 0.014913103
000310 b4 fd a3 3c db cd a8 3c dd a8 95 3d 45 57 aa 3d
       0.020018436 0.020605972 0.07307599 0.083174266
000320 ca 68 1e 3d 17 c3 d5 3c d9 fa 80 3c f7 46 64 3d
       0.038674153 0.026094003 0.015744613 0.05573174
000330 26 f6 8c 3d f1 74 c3 3c fc 73 7d 3d 9f db 1a 3e
       0.068828866 0.023859473 0.06187819 0.15122841
000340 a2 d3 e9 3c 0d 71 9b 3d d8 34 66 3d e8 f9 44 3c
       0.028543297 0.07589922 0.05620274 0.012022473
000350 49 f3 19 3d 5b a2 0b 3c 0a 7a 7f 3d 34 01 1a 3d
       0.03758553 0.008522595 0.062372245 0.037598804
000360 b2 04 05 3e 9c 04 69 3c b0 bb 8a 3d e8 2e 3f 3d
       0.12990072 0.01422229 0.0677408 0.046675593
000370 96 ea 22 3d 5f 14 14 3d 6c 6f f0 3c b6 0d bd 3c
       0.0397745 0.03615224 0.029350005 0.023077827
000380 ae d7 ff 3c 66 29 09 3d dd fb 04 3d ab 0e ec 3c
       0.031230774 0.033486746 0.032466758 0.028815588
000390 56 ab f4 3c 07 30 86 3c f8 25 7e 3d 01 89 bf 3c
       0.029866856 0.016380323 0.06204793 0.023380758
0003a0 3c db e6 3d d0 91 07 3d 72 c0 47 3d 0b 28 dd 3c
       0.112722844 0.033098042 0.048767515 0.026996633
0003b0 d4 2f 1a 3d a5 f7 36 3d ab 3c d0 3c 08 be 61 3c
       0.03764327 0.044669766 0.025419554 0.013778217
0003c0 c5 3d c2 3c 3d e6 fe 3c e7 fb 46 3e 2e 82 c4 3c
       0.023711095 0.031115646 0.1943203 0.023987856
0003d0 ef 40 1f 3c 13 af 16 3d e8 93 4d 3c c8 a8 e2 3d
       0.009720071 0.036788058 0.012547471 0.11067349
0003e0 40 70 ed 3c 5d 5c 2a 3c 8b 2b d4 3d 97 fe c3 3c
       0.028984189 0.010397998 0.10359868 0.023925109
0003f0 ac 46 b6 3c 52 f5 93 3c 38 6b c2 3c f9 28 fd 3b
       0.022250496 0.018061314 0.023732767 0.0077258316

fc2.weight f4 [400, 304]
000000 38 66 eb 3c c4 7e 20 bd a9 94 63 bb ab 9c a9 bd
       0.028735265 -0.039183393 -0.003472606 -0.08281835
000010 b3 78 e1 bd 9b 47 b5 3c 4a 60 dd 3c 4c 00 87 3a
       -0.1100935 0.02212887 0.027023453 0.0010299771
000020 9a ed 59 bd 82 85 56 3c 04 32 43 bd 30 d2 9f 3c
       -0.05320511 0.013093354 -0.04765512 0.019509405
000030 0c 77 a4 bd 9b ad bf bc 78 dd dd bd 41 d1 c4 3d
       -0.08030519 -0.023398211 -0.108332574 0.096102245
000040 61 cc 41 3d 01 db 1e 3d df 80 e2 3c f1 48 ca bd
       0.04731405 0.038783077 0.027649341 -0.09877194
000050 86 b2 a6 bd 19 30 d7 bd e2 57 a8 bd 1f cd 16 3c
       -0.081395194 -0.10507221 -0.08219887 0.009204178
000060 57 d1 1c 3d e8 0d 18 3d 0f 8a f8 bc e7 c8 98 bd
       0.03828558 0.037122637 -0.030339269 -0.07460194
000070 7b b7 93 bd ba 6d a3 3c b7 65 e3 3c d6 3b 07 bd
       -0.072127305 0.019949783 0.027758462 -0.03301605
000080 6e 8d 25 3d 8e df 69 3d 76 63 77 bc de 02 b4 bc
       0.04041808 0.057097964 -0.015099397 -0.021974023
000090 64 ac f3 3d 34 7a ce 3d 00 3e f7 bd e7 89 a2 bc
       0.11898115 0.10081902 -0.120723724 -0.019841148
0000a0 de 59 3d bd b6 a6 15 3d 98 d7 24 bd 84 4c ec 3d
       -0.046228282 0.03653594 -0.04024467 0.11538032
0000b0 bd df 04 bd 23 f7 ac bd eb b5 6d bd 66 77 98 bd
       -0.032439936 -0.08445575 -0.05803482 -0.074446484
0000c0 bd dd 2b bb 6e d3 98 3b f9 6c e1 bd 36 04 d9 3c
       -0.0026224696 0.0046638763 -0.11007113 0.026491266
0000d0 7d 48 f5 bd f5 d3 52 3d ea 9e 33 be 91 d1 1d bc
       -0.11976717 0.05147167 -0.1754109 -0.009632484
0000e0 ac a4 ca 3d 32 a6 24 bd 2f e4 29 bd ec a5 bb 3d
       0.0989469 -0.04019756 -0.04147738 0.091625065
0000f0 64 35 7a bc a3 4c 94 3c dd 6b 6f bd 63 2f 99 bd
       -0.015271518 0.01810295 -0.058452476 -0.074797414
000100 f0 02 22 3d 9f ab 77 3d 55 a8 25 3d 50 c5 6b bd
       0.039553583 0.060466405 0.040443737 -0.05756122
000110 aa fd f7 3c 41 8e a1 3c c5 34 62 bd 16 5c d0 3c
       0.030272324 0.019721152 -0.055226106 0.025434535
000120 24 9f 00 3d fe e0 1a bd 40 17 e8 3c ad 7f 41 3b
       0.03140177 -0.037812226 0.028331399 0.0029525564
000130 18 41 d8 3b 07 3f 96 bb 95 3b bc bc 5f a8 95 be
       0.0065995567 -0.00458515 -0.02297763 -0.2923002
000140 3c d7 aa 3d 56 82 63 bd 93 52 88 bd aa 2f 2d bd
       0.08341834 -0.05554422 -0.06656375 -0.042281784
000150 70 1b 76 bd 72 e5 1c 3d 17 28 46 3d 29 e2 0f 3c
       -0.06008476 0.038304754 0.048378076 0.008781948
000160 d7 8a 50 3d d2 3c d5 bc 40 26 a8 3d 42 46 14 3d
       0.050913658 -0.026029978 0.082104206 0.036199816
000170 6b 67 ce bd 50 98 05 3d a8 87 df 3b d6 c8 b9 3b
       -0.10078319 0.03261596 0.0068215914 0.0056696935
000180 3d 8b dd 3b 90 7d 00 3e 74 9f ec bc a1 7b 03 3c
       0.0067609833 0.12547898 -0.028884627 0.008025081
000190 14 d4 16 3d 47 1b ab 3c 1e 79 94 3d ba 1c 98 bc
       0.036823347 0.02088703 0.07249664 -0.018568385
0001a0 af 10 d8 bd 8c 75 bb 3c de 0a 3b 3c 94 b4 20 bd
       -0.10550057 0.0228832 0.011416165 -0.039234713
0001b0 7c 3d 28 bd 5d 55 e4 bd f6 01 06 be 93 1b e1 bc
       -0.04107426 -0.11149094 -0.13086686 -0.027478969
0001c0 07 c3 ce 3c fc 53 ae 3b dc 04 70 bc f0 62 64 bd
       0.02523948 0.0053200703 -0.014649596 -0.055758417
0001d0 b0 4e 9b 3c 1a 17 93 3d 7a 28 79 3d 0d 2c 19 3c
       0.01895842 0.07182141 0.060829617 0.009348881
0001e0 26 38 ef bd 99 c9 c8 3d 7d 55 6a 3c dc d1 4f 3d
       -0.11680631 0.09804077 0.014302609 0.050737247
0001f0 bd 93 94 bd b9 ff 9c 3d 05 f1 7a bd b0 06 ae bb
       -0.07254741 0.07665963 -0.06126501 -0.005310856
000200 f4 86 96 bd 36 29 f3 bc f8 45 11 bb b5 51 35 bd
       -0.07349959 -0.029682737 -0.0022166949 -0.044267375
000210 7c f3 3d bd 8e fd 85 3d 6b 67 4b bd d5 ef 65 bd
       -0.046374783 0.06542502 -0.049659174 -0.056136925
000220 92 a3 28 bd 1d e3 03 3c a8 1d ab bd 0f 30 43 bd
       -0.041171618 0.0080497535 -0.08355266 -0.047653254
000230 9b 5b d3 bd d7 ce 5d 3d 7f a7 94 3b e7 be ab 3b
       -0.10320207 0.054152336 0.0045365687 0.005241263
000240 58 dd 5b 3c 4e b8 9c 3a 5f 7d b4 bb 3d ca 3c bc
       0.013419472 0.0011956783 -0.0055081095 -0.011522827
000250 08 2e af 3c b4 15 20 be be 51 45 bd 74 2f 72 bc
       0.021384254 -0.15633279 -0.04817366 -0.0147818215
000260 36 2e 9d 3d 45 29 06 bd c1 28 c5 bc 17 3f 0a 3c
       0.0767483 -0.0327542 -0.024067285 0.008437893
000270 3c c5 86 bd b8 12 1a bd d6 1b 1b bc a1 96 08 bc
       -0.06580588 -0.037615508 -0.009467086 -0.008336694
000280 a4 b3 e4 3d 12 7f 1a 3d 11 e5 b0 3c 81 bc 74 3c
       0.11167076 0.03771884 0.021593602 0.014937521
000290 53 95 0b be cf 27 a3 3c 3e 8d 6f bb 46 9f e7 3b
       -0.13631181 0.019916443 -0.0036552693 0.0070685474
0002a0 58 60 d7 3c 56 3d 47 bc 9c 1b 89 bc 31 b8 a4 3c
       0.026291057 -0.01216062 -0.016736798 0.02010736
0002b0 39 3e af 3d d2 fa 84 3d b9 da b4 bb 15 0e bf 3c
       0.0855679 0.06493153 -0.005519238 0.023322145
0002c0 e5 ed a9 bc e6 e1 a5 bd f1 e1 70 3d ce e9 d8 ba
       -0.02074332 -0.08099727 0.058809225 -0.0016549171
0002d0 20 31 64 bd 89 bd 3d 3d 6c f7 15 bc fe 3d 0c be
       -0.05571091 0.046323333 -0.009153228 -0.13695523
0002e0 3f 77 af 3d 1c a8 83 bc 9c 26 91 bd 6e b7 36 bd
       0.08567666 -0.016071372 -0.07087442 -0.044608526
0002f0 2b 31 04 bd cf 88 dd 3d d9 09 6f bd 98 f6 a6 3c
       -0.032273453 0.1081711 -0.058359 0.020381257
000300 34 7e 6d bd 25 10 ab bd 8a bc bd 3c a0 fc 03 bd
       -0.057981685 -0.08352689 0.023161191 -0.032223344
000310 5a 41 13 3a 2e b1 ec 3a 85 e6 0f bc ac ed 34 bd
       0.0005617343 0.0018058175 -0.0087829875 -0.044171974
000320 ab 8a e3 bd 03 7b 4e bd 71 95 ac bd ec b0 9f 3b
       -0.11110433 -0.050410282 -0.08426941 0.0048733857
000330 9c a3 c0 bc c5 81 c6 bd 04 24 89 3d 8c 08 0d bd
       -0.023515515 -0.0969272 0.066963226 -0.03443198
000340 ad 03 73 3d 53 41 6c bd ef 1f e1 3b cc 68 09 bd
       0.059329677 -0.057679486 0.006870262 -0.033547208
000350 fc 34 2e 3d 1c b2 f7 3c 4f 95 b1 bd e2 ba dc 3d
       0.042531 0.030236296 -0.086710565 0.107778326
000360 27 58 86 3c 27 f0 85 bd 4a 89 04 bd 15 97 f2 3c
       0.016399456 -0.06539946 -0.03235749 0.029613057
000370 58 33 84 3d 71 e9 a3 3d e4 f2 51 3d 36 78 27 bc
       0.064551055 0.0800351 0.05125703 -0.010221532
000380 48 51 75 3d 1d a8 86 bd 14 2b 2a 3d 86 45 d3 ba
       0.05989197 -0.06575034 0.04154499 -0.0016118742
000390 6d cf ab bc 51 c5 f6 bb e1 76 db 3d 59 71 03 3e
       -0.020972932 -0.007530846 0.10716034 0.12836207
0003a0 9a 1a 68 3d a8 88 97 3c e6 c0 26 bd 62 78 a9 3d
       0.056665994 0.01849778 -0.040711306 0.08274914
0003b0 36 ac 7f bd 3e 14 10 3c 7a b4 8e 3c da 44 91 3d
       -0.062420093 0.008793889 0.017420042 0.070932105
0003c0 84 73 60 3c d3 94 61 bd 95 4e 04 3c 8a d5 f5 bc
       0.013699416 -0.05507357 0.008075376 -0.03000905
0003d0 45 80 8b bd b1 eb e7 3d 15 2a 90 3c c2 ed 71 3c
       -0.06811575 0.113242514 0.017598191 0.014766159
0003e0 42 61 ba 3c e7 ed 24 bd 75 1c a7 bd 40 6e d9 bd
       0.022751454 -0.040265944 -0.081597246 -0.10616732
0003f0 b9 c6 36 bc f8 80 9c 3d 33 51 4e 3d 02 ad 64 3c
       -0.011155778 0.07641786 0.050370406 0.013957264
