experiments/exp3/models/checkpoint_critic_1.pth (torch_old, 536855 bytes, 9 tensors)

fc1.weight f4 [300, 33]
00000000: f8ad b7bd b857 58bd 5085 c03d 423c 3dbd
00000010: efcd 41bd 41b4 5ebe 645f d03d 4fae be3c
00000020: 9d2b 793d cd15 25bd e889 643b 9bc2 863c
00000030: 7d07 763c 5218 8f3d 331e 323d f5ab 713d
00000040: 5dd9 a63d 734b 1a3d 5e27 b1bd 57c6 db3d
00000050: a9dc 123d b43b 633d 3fc1 203d 5d4d a83c
00000060: de44 8fbc 5a59 61bd 8a95 fbbc 1351 2a3d
00000070: 53d9 2fbd 7c3a 5ebd 9b5d 13bd 3007 b3bc
00000080: 94f6 e7bd 1e03 4d3d 4b6f 503c 3244 16be
00000090: 3f41 b3bd c807 41bd 0bf9 e13c d696 ac3d
000000a0: 9b3c 903b e27f 133d a0d8 8dbd 1acf 2b3c
000000b0: 5da0 f7bb 2653 e83a 41f3 023d 6b3b 68bd
000000c0: 2f5d ca3d 59b9 633d 8ec9 093e 2994 2fbe
000000d0: 3834 1e3e 2a0a 7cbb f40f b8bc ab23 863b
000000e0: 1538 ca3c fa01 9abc 1ba8 5e3c 3784 ecbc
000000f0: d931 39bc 477c a5bc 6015 abbb 7067 97bc
00000100: 6041 f33b d129 2a3e 0b34 2a3d 8008 333d
00000110: 1cac b1bb 4387 02bd 0051 9c3d 70bb 523d
00000120: e68d a5bd 3655 9cbb 943c a0bc 03ec 48bd
00000130: a445 023b 7696 133b 2083 1e3c 1ecf 1fbd
00000140: 8415 8fba 0ebc 953b 3a68 f0bd 6b2f 603c
00000150: 5b06 06be ddf2 fabc 7650 8cbb 5006 353a
00000160: fe35 a3bb 5ea6 b8bc a250 2c3c 2760 303d
00000170: 71db 8c3d 40d9 b13d 0734 05bd f672 a7bc
00000180: 28b0 a5bd c0e4 f33a 8c34 b63e 3951 08bd
00000190: bc5d 4a3c 6554 45bd 28a5 2fbb 89f5 45be
000001a0: f737 64be 31e0 98bc 0b5c 23bc 498c e7ba
000001b0: 7b72 403c f4a3 6dbc 2e4e df3b c4f3 d5ba
000001c0: 5cf6 fa3c a4a8 c13b 7a31 d3bb 1473 39bd
000001d0: 670d a4bb 62ac 40be feb5 aabc 0f21 d2bb
000001e0: 0fb3 3abc 7114 6a3c 2daf d0bc af78 ba39
000001f0: d0ca d6bb f7b0 30bd fed3 8d3d 886a 433d
00000200: 5043 473d 21e6 403a 502c b8bc 6592 a03e
00000210: cd70 83bd 8dda c93c b0c5 173d 488c ed3c
00000220: e518 433d 70a4 c53d 01b2 0d3e 78f6 d03c
00000230: e186 5a3d 4bbe a0bd e10e b239 2592 bfba
00000240: aa0e ed3c d0d8 b23d ee95 abba 339c 933c
00000250: 1a90 0abe edc0 513d c837 3dbd 09e9 95bd
00000260: c400 583b c580 953c 8662 363c ccb4 943c
00000270: 4729 0ebc b38d cd3b 2972 b2bd 76d5 403b
00000280: 31b9 1dbd a456 ecbc ba81 f9bc 3c36 6bbd
00000290: 3038 42be d17e 50bc 4760 fc3b ddac d2bd
000002a0: 6160 5fbd fe85 21be 1a66 003d cbe7 a7bd
000002b0: f832 263b b83c 71bd ef9c 9d3b 802f 17bb
000002c0: 5d3a 193d 18d5 483c 566b 823d c6bc 773d
000002d0: 10d0 333d 63e6 41be 82fc 02be ff4b d2bd
000002e0: 7494 b1bd 12f1 283c 31e3 5bbd ec48 c73c
000002f0: 5989 883d 590b 1e3d 1185 19ba d928 88bc
00000300: f4ca 833d 4a7a 333d d8f2 b23c 7e23 b03b
00000310: 7401 7fbc e032 05be 5994 903c 8d43 653d
00000320: 7f27 07bd 6881 d0bd dd00 d03d fe24 803d
00000330: efc5 68bd b1df e9bc 9f3b b23c 65c5 0b3b
00000340: ccd3 0f3d 5435 ec3b 65e9 323c 271c 4a3d
00000350: f97d 8fbc f86f 843d 6d7a b93d c529 a5bd
00000360: f143 cbbd 693a 8b3b 1a27 caba dc18 00bc
00000370: 950e 2fbb c00b 033d 0694 28bc fbdf 293d
00000380: af18 bfbc 2bd4 383d ad22 aabd 0e6f 273d
00000390: e2e8 21bc 6a83 b4bc 1741 473e d31b 06bd
000003a0: ee1a f03c 5327 56bd 6dc2 2b3e 56a6 fabd
000003b0: c308 b1bd a9bb 75bd b39c 633d 8f9c d7bc
000003c0: b378 8c3d 0f35 4bbd f220 4a3c b4f8 3fbc
000003d0: 99a1 97bd 7afc 20bc 35aa 80bd 535b 75be
000003e0: 312f d53c e22f 8d3d b4c1 123d af88 46bc
000003f0: 13c6 05bc 250f 9c3b d48f 33bd d5fc 7c3c
-0.08968729 -0.05281803 0.09400427 -0.046200044 -0.047315534 -0.21748449 0.10174444 0.023276476
0.06083261 -0.040303994 0.0034872238 0.016450217 0.015016434 0.069870606 0.04348583 0.05900188
0.081469275 0.03766961 -0.08650087 0.1073119 0.03585497 0.05547686 0.039246794 0.020544702
-0.017488893 -0.055016853 -0.030710954 0.041581225 -0.042931866 -0.054254994 -0.03597794 -0.021854013
-0.11326328 0.0500518 0.012721847 -0.14674452 -0.08752679 -0.04712656 0.027584573 0.08427207
0.004401756 0.03601063 -0.069260836 0.010486389 -0.0075569586 0.0017724975 0.031970266 -0.05669729
0.098810546 0.055596683 0.13455793 -0.17146362 0.15449607 -0.0038458207 -0.022468545 0.0040936074
0.024684945 -0.01879977 0.013589884 -0.028871639 -0.0113033885 -0.020200862 -0.005221054 -0.01848194
0.007423565 0.16617514 0.04155354 0.043709278 -0.0054221284 -0.031867277 0.07632637 0.051448286
-0.080837056 -0.0047709 -0.019560136 -0.049053203 0.0019877935 0.0022520102 0.009674817 -0.03901588
-0.0010916446 0.004569537 -0.1173863 0.01368318 -0.13088362 -0.030633384 -0.0042820526 0.00069055427
-0.0049808016 -0.022540268 0.010517271 0.043060448 0.068777926 0.08684015 -0.03252032 -0.02044056
-0.0809024 0.0018607602 0.35586965 -0.033280585 0.01235145 -0.048176188 -0.0026801322 -0.19331945
-0.22286974 -0.01866159 -0.009970675 -0.001766571 0.011746044 -0.0145044215 0.0068147397 -0.0016323258
0.030635051 0.005909996 -0.006445107 -0.045275763 -0.0050064805 -0.18815759 -0.020838734 -0.0064126323
-0.01139523 0.0142871 -0.025474155 0.000355666 -0.006554939 -0.043137517 0.069252 0.047709018
0.04864818 0.00073585106 -0.022482067 0.3136169 -0.064179994 0.024640346 0.037053764 0.028997555
0.047631163 0.096505046 0.13837434 0.02550815 0.053351287 -0.078487955 0.0003396189 -0.0014615698
0.028937656 0.0873276 -0.0013090947 0.018018818 -0.13531533 0.05120938 -0.046195775 -0.073198386
0.003295944 0.018249879 0.011131888 0.018152617 -0.0086768335 0.0062729954 -0.087131806 0.0029424108
-0.03850669 -0.028849907 -0.030457366 -0.05742477 -0.18966746 -0.012725548 0.007701907 -0.10286877
-0.054535273 -0.1577377 0.03134737 -0.08198508 0.002535997 -0.058895797 0.0048099677 -0.0023069084
0.037409175 0.012257837 0.06368129 0.060482763 0.043899596 -0.18935542 -0.12791637 -0.10268401
-0.08670893 0.010311382 -0.053683463 0.024326764 0.06666822 0.03858504 -0.0005856315 -0.01662104
0.064351946 0.043817796 0.021844313 0.0053753247 -0.015564311 -0.13007689 0.017648863 0.055972625
-0.03299665 -0.10180932 0.10156415 0.06257056 -0.05682939 -0.028549047 0.021756945 0.0021327373
0.035114095 0.0072085056 0.010919903 0.049343254 -0.017516123 0.06466669 0.09056554 -0.080646075
-0.09925068 0.0042489064 -0.001542303 -0.007818427 -0.0026711572 0.031993628 -0.010289198 0.04147337
-0.0233272 0.045124214 -0.08307395 0.040877394 -0.009882184 -0.02203532 0.19458424 -0.03274138
0.029309716 -0.052283596 0.16773386 -0.12238757 -0.08644249 -0.05999342 0.055569362 -0.02631977
0.06858959 -0.049611147 0.012336956 -0.01171701 -0.07403869 -0.00982582 -0.062824644 -0.23960619
0.02602348 0.068938985 0.03582926 -0.012117549 -0.0081649 0.0047625476 -0.043838337 0.015441139

fc1.bias f4 [300]
00000000: 2cce ae3d 4101 eb3d 128a 253d 482b 08be
00000010: 97dc be3d 54a0 82bd f373 84bd 3870 20be
00000020: fed6 a23d 6b36 debd 2550 aebd 06ea 1abe
00000030: 893e 3f3c f1e1 32bc fe08 f8bd a166 0dbe
00000040: cdb3 463d ded4 d1bd 542f 573d c32b 103c
00000050: 3577 243e 09cf 23be 32a9 d2bd cb2a 95bd
00000060: 9851 32bd 3a7e 47bd 8583 fabd 47ae b8bd
00000070: 4bea 6e3d 499c c33b 1e00 27be ef1f 4b3d
00000080: d919 cc3c 4b27 04bd 2be6 753d b527 afbb
00000090: 4c14 383d afbe eabd 9cdd 28bd d119 f4bd
000000a0: 0c6f 6abe 9d6f 38be 9f4e f4bc 7ad2 1dbe
000000b0: fa88 3bbe cc8c 7abe ff03 80be 4a0e 0abe
000000c0: dac0 32be 8767 e2bd 8e9e 4abe ddd3 023e
000000d0: a7bd 14be 1eb1 1d3e 93f6 df3d 45a1 af3d
000000e0: 1965 e13d b544 81bd 5d28 a53c 1e68 42bd
000000f0: c012 073e 77ed c33d 58e2 e6bd e684 d1bd
00000100: e78a e6bd 3b49 c4bd 2286 bdbd f3f7 16be
00000110: c445 dd3d 09e8 e7bd 21c5 32be 37de 963d
00000120: f844 6dbc 80bd d23d 3a61 b4bd b9f2 23be
00000130: 1f1a c8bc 5172 20be f2c1 ccbc 22c2 dabd
00000140: 3acd 65bd b0b9 28be 05c7 2ebe fb55 51be
00000150: 4980 ac3c ad1b cfbc c298 32bd aa40 173d
00000160: 2e50 903c 2338 7c3d 472d 44be 5714 29be
00000170: 17d6 39be ac3b 68be a7f1 4ebe 3bc6 2cbe
00000180: 131f 19be ac64 e7bc c690 173b 07b9 18be
00000190: fc9a c33c cfb2 fe3b 6ed2 1f3d 4913 023e
000001a0: dd02 db3c c7ef 52be 19e7 663d 5bfd 14be
000001b0: 6629 e5bd a589 36be 45e8 38be 77b7 0cbe
000001c0: 9946 a2bd 2c57 aabd 41c8 d23c c8bf 3ebe
000001d0: 735f 64be 1021 7a3d 60b1 503d d095 48be
000001e0: 71f0 c93b 76c0 1ebe 9934 86be 9857 a4bc
000001f0: acdb ff3c 60a7 18be 7cb3 3ebe a37e 013e
00000200: 3168 efbd 8cd7 1d3e 667e b0bd 4b9f 2fbe
00000210: 5ba0 31be cc88 8abd 346d 8cbd 851e 19be
00000220: 6510 84be 4975 17bd b4b9 46be 553e b63d
00000230: 00ca 823d 05cc 233e 6269 9c3d 32a5 eabd
00000240: 5cc5 44bc 968d ab3d fb83 42be 73ef 81bd
00000250: 0df5 49be b77f 143e 398e 03be 075c 0d3d
00000260: e8d0 bd3d e8b7 23be 607d 093c e32e e5bd
00000270: 6350 1fbe 0353 7dbd f6bf 94bd c3d7 adbd
00000280: eb32 243e e93d 82bc 3c6b fb3c 2a65 68be
00000290: 8df8 b4bc 7b64 a3bc e629 26be 3707 003c
000002a0: 8d99 28be bd9a d3bd 363d c3bd e0e3 0abd
000002b0: 65a2 1dbe 7226 65be 84eb 82be c909 87bd
000002c0: 0edf a03d edfb 1cbe b133 a53d db6a d1bd
000002d0: 6d03 a53c 0874 bbbd 67dd 1dbe 79af 04bc
000002e0: 427b f7bd da4d bc3d 8fb6 1abe 7dd2 90bd
000002f0: e2d0 1ebe bbc5 5ebe e22a b93d 1bcb 47bd
00000300: 5870 7cbd ce03 8d3d 955e a83c 7872 60be
00000310: 317c 6a3c b1de 55bb f3b9 2abc 9fe3 e6bd
00000320: 5625 87be b210 5bbe 8b99 cfbd b747 b43d
00000330: c4ec ca3d 95b4 973d 8d2d 763d 43e9 67bd
00000340: 8069 40bc b6ce 9ebd a696 37be 5c57 64be
00000350: 7da6 a53b 81c1 41bd 02ef 00bd 8865 263c
00000360: 8be3 8f3d 9293 c7bd 0f3e 82bd a519 153e
00000370: 269c e7bd 351e 3bbe 9d82 30be 5a61 f1bc
00000380: b643 83bd 015e 17bd 84e4 98bd 653b c5bd
00000390: 637c 133d 475a 49be 53b2 7a3d f042 82bd
000003a0: 5783 743d a7a4 debd a18d 11bd 4311 58be
000003b0: dcf8 87bb bfd6 c13d 9f45 12be 7e58 f93d
000003c0: c8b8 913b 1414 19be 01a4 4f3d 158b f6bd
000003d0: 3aac cc3d 46f3 f3bd 2173 f2bd 7a64 a5bd
000003e0: e249 443d a2a9 ecbc 4c12 9f3d b2ce a63c
000003f0: d8e8 d8bd 09af e13d 7bf0 83be 5347 b0bd
0.08535418 0.114748485 0.040414877 -0.1329776 0.09319418 -0.063782364 -0.06467428 -0.15667808
0.07951163 -0.10850223 -0.0851138 -0.15128335 0.011672624 -0.010918126 -0.1211109 -0.13808681
0.048511315 -0.10245679 0.05253537 0.008799496 0.16061099 -0.15996946 -0.10286178 -0.07283553
-0.043534845 -0.048704363 -0.122321166 -0.09017616 0.058328908 0.0059695584 -0.16308638 0.049591
0.024914669 -0.032264035 0.06003396 -0.0053453096 0.04494123 -0.11462151 -0.04122697 -0.119189866
-0.22893924 -0.18011327 -0.029822646 -0.15412322 -0.18313971 -0.24467772 -0.2500305 -0.13482013
-0.1745638 -0.110549025 -0.19787046 0.12776132 -0.14525472 0.15399596 0.10935702 0.085756816
0.11005611 -0.06311933 0.020160848 -0.047462575 0.13190746 0.09566777 -0.112736404 -0.102304265
-0.11256962 -0.0958428 -0.092540994 -0.14743023 0.10804322 -0.11323554 -0.17458011 0.07366603
-0.014481775 0.102900505 -0.08807607 -0.1601056 -0.024426518 -0.15668608 -0.024994824 -0.10681559
-0.056103922 -0.16477084 -0.17068107 -0.20442955 0.021057265 -0.025281752 -0.043602712 0.036926903
0.017616358 0.061576974 -0.19157897 -0.16511665 -0.18148075 -0.22679013 -0.2020937 -0.16872494
-0.1495326 -0.028246246 0.0023127063 -0.14914332 0.023877613 0.0077727805 0.03901904 0.12702669
0.026734764 -0.2059928 0.056372736 -0.14549772 -0.11189537 -0.17825945 -0.18057354 -0.13741861
-0.07923622 -0.08317408 0.025730254 -0.18627846 -0.22302036 0.061066687 0.050950408 -0.19588399
0.006162696 -0.15503106 -0.26212004 -0.0200613 0.031232677 -0.14907598 -0.18623155 0.12645964
-0.11689795 0.15414256 -0.086178586 -0.17150609 -0.17346327 -0.06764373 -0.06856766 -0.14953049
-0.25793758 -0.036977086 -0.19406778 0.08898608 0.06386185 0.15995796 0.07637288 -0.1145729
-0.012009945 0.08376615 -0.18995659 -0.063444994 -0.19722386 0.14501844 -0.12847222 0.034511592
0.09268361 -0.15988123 0.008391708 -0.111905836 -0.15558009 -0.061846744 -0.07263176 -0.08488419
0.16035049 -0.015898662 0.030690782 -0.22694841 -0.022091174 -0.019945374 -0.1622692 0.00781422
-0.16464825 -0.10332248 -0.095331594 -0.033908725 -0.1539398 -0.22377947 -0.2557031 -0.06593663
0.07855044 -0.15330477 0.080665 -0.10225459 0.020143235 -0.091529906 -0.1541649 -0.008098477
-0.120840564 0.091945365 -0.15108703 -0.070713975 -0.1550937 -0.21755116 0.09041382 -0.04877768
-0.061630577 0.06885491 0.020552913 -0.21918666 0.014311836 -0.0032633955 -0.01042031 -0.11273884
-0.26395673 -0.21393088 -0.10136708 0.08802741 0.09908441 0.0740749 0.060102034 -0.05661894
-0.011743903 -0.07754271 -0.17928562 -0.2229895 0.0050552473 -0.04730368 -0.031477936 0.010156043
0.07025822 -0.09744944 -0.06359493 0.14560564 -0.1130908 -0.18273242 -0.17237325 -0.029465366
-0.06409399 -0.036954883 -0.07465461 -0.09630469 0.036007296 -0.19663344 0.06120522 -0.063604236
0.059695568 -0.10871249 -0.03553546 -0.21100335 -0.0041495394 0.09464788 -0.14284371 0.12175082
0.0044470765 -0.14949065 0.050693516 -0.120382465 0.09993787 -0.11911635 -0.11838365 -0.08075805
0.047922023 -0.028889481 0.07767162 0.020362232 -0.105912864 0.110197134 -0.2576941 -0.08607354

bn1.weight f4 [300]
00000000: 9ad4 0d3e 87ee 613f 09c5 823e 8d0e 2d3f
00000010: 611e 523f c326 373f d663 cd3e aa76 743e
00000020: 07d6 153f a30e e93d 2410 1a3f ab90 133f
00000030: a5dd 073f 9b08 f13e bcfa 893e 0b57 813e
00000040: e497 203d 3a20 823e 201f 973e 542c 3f3f
00000050: 334f 443f 62fe 123f c35c 453f afe7 353f
00000060: 34e2 113e d1cd 373e 95cd 043f fdd0 5e3f
00000070: 4b8f 9f3e 094e a43e b17e 4e3f ca21 633f
00000080: 6250 8a3e 0909 ca3e 472b 303f 1926 e23e
00000090: 4e55 903e ce91 b83e dfed 123e 3d3d 323e
000000a0: b0cd cd3d b233 443e 3f8d 273e 5887 2e3f
000000b0: 02e7 933e 3f3f 3f3f d5a6 a63e 8eda 453f
000000c0: 4618 7c3d ae06 dd3d b025 933e 88d0 de3e
000000d0: 50b5 cb3e e1f6 f53e f8a6 ca3e 5ccb 7d3e
000000e0: 5a14 d73e 5913 0a3f 716c 393f effa f13e
000000f0: acb9 9c3e 6954 283f 7e8c 403f 787e 3d3f
00000100: e203 fe3e 5d66 263f 1154 ff3e 66c1 233f
00000110: 2556 1d3f 3590 513f 8a77 d23e 2b0e 153e
00000120: 0b99 1a3f 7277 3f3f 5e12 c13e ae17 ec3e
00000130: 9c88 433f d40e dd3e 36ba 0b3f adea 2a3f
00000140: 1399 383f 2266 853e bf1a e53e 6faf d23e
00000150: 9061 363f ba34 553d 29f1 033f ce7a fb3e
00000160: dcbf d03e 4272 653f 7c12 4d3f 6a64 3f3f
00000170: a7d6 353f f392 253f 7dde 4b3f 5f7c 2c3f
00000180: 2a8b fc3e 7670 0e3f 387c 083f 5910 a13e
00000190: d9eb f83e 1d63 b3bd 777f 113f 7e69 db3e
000001a0: eb1c 2d3f 3a99 3a3f cff7 4a3f 8587 a83e
000001b0: 1f1a 153f fe84 523e 8690 c83e 3320 633f
000001c0: 6596 473f e9ba 923e ea60 003f ceca c73e
000001d0: c2cc cb3e 1f5f 2e3f d9b7 323f 15f2 ad3e
000001e0: e766 383e 7094 d83e 445e a63e 55a4 4b3e
000001f0: 9931 b43e 7844 313e 2e3d 2d3f b051 993e
00000200: a756 453f 6019 da3e a362 643e 1541 eebc
00000210: ba59 6e3f 3d3f 7d3e e075 463f 6781 e83e
00000220: 07ff 19bd deb8 113f fb24 da3e 87cc 333f
00000230: abce 1a3f f049 0b3f d4f6 473f db94 f73e
00000240: 3068 843e 0ffd 9f3e d042 2d3f 215f d93e
00000250: 54e8 ae3e 688c 503f 68a3 d53d 331a 903e
00000260: ef65 1e3f 326d 773f 5684 4b3e f22a 743f
00000270: 3316 9c3e fa28 1e3f 9b26 613f dc27 553f
00000280: a865 523d f9bf 5d3e 6ced 363e 4ef4 d93e
00000290: 404f 543f 31e6 0b3f ff79 193f b603 343f
000002a0: a834 363f d58f 1e3f 8697 ea3e 272c 3b3f
000002b0: cf45 c33e 6638 3e3f 4975 7e3e 1882 073f
000002c0: 01a5 593f 8d07 f93e d004 f73e d406 933e
000002d0: df04 773e 5dbf 353f 34e4 833e f1be 143e
000002e0: 9068 853e 4083 1b3f f9fb 143f 42f2 f23e
000002f0: 5e14 193f bd58 913e b691 103f 830b 5f3f
00000300: 767d 873e 2f90 113f a64a d73e 8881 253f
00000310: 0134 983e dbf6 293f 772a cf3e 2d76 623f
00000320: 3e36 153f 072d 093f db8d 403f 0e52 1c3f
00000330: 83df 673f 2af0 483f eacd 223f 7873 373f
00000340: 0943 6a3e ef49 043f e294 1e3f 0dd9 c73e
00000350: 6770 f83e 24f1 0e3f db73 493f 751c 033f
00000360: e0bc 393f a711 133f 55da 2d3f 3064 2b3f
00000370: 8e78 093f f54b 8c3e c06f 413c 3aed 4a3f
00000380: 011e 0f3f 057c c63d 5871 b53e b67c 3c3e
00000390: 779c f03e b840 b23e ed09 ea3e 1255 d53e
000003a0: aa3d bd3e 101c 563f c76b 143f 2a01 163f
000003b0: ca5c 023f 2532 253e a08a 123f 1ff0 2f3f
000003c0: e06d 013f f607 323f 5804 613f f6a1 5a3f
000003d0: baa5 513e fcfe 123f 3733 5e3f a065 513f
000003e0: 1844 023e 6150 ca3d e41f f93e 25ab 1a3e
000003f0: 8b51 0c3f 4efe db3e 48f3 183f 132d b13e
0.13850632 0.8825459 0.2554095 0.6760033 0.82077605 0.7154352 0.4011523 0.23873392
0.58529705 0.11379745 0.6018088 0.5764262 0.5307258 0.47076878 0.26949108 0.2526172
0.039207354 0.25415212 0.29515934 0.74677014 0.7668335 0.5741941 0.7709467 0.71056646
0.14246446 0.17949606 0.51876193 0.8703764 0.3116401 0.32090786 0.80662066 0.88723433
0.27014452 0.39460018 0.68816036 0.4416969 0.28190082 0.3604874 0.14348553 0.17406173
0.100489974 0.19160345 0.16362475 0.6817527 0.28887182 0.7470588 0.32549158 0.77286613
0.061546586 0.1079229 0.2873969 0.43518472 0.39786768 0.48039916 0.39580512 0.24784607
0.42007715 0.5393577 0.72431093 0.4726176 0.30610406 0.657538 0.75214374 0.740211
0.49612337 0.64999944 0.49868825 0.6396698 0.6145957 0.8186067 0.41106826 0.14556186
0.60389775 0.74791634 0.37709326 0.46111816 0.76380324 0.43175375 0.5458101 0.66764337
0.7210857 0.26054484 0.44746968 0.4114947 0.7124262 0.052052237 0.51539856 0.4911713
0.40771377 0.8962747 0.8010633 0.74762595 0.7103066 0.6467735 0.79636365 0.67377275
0.49324924 0.5564035 0.5331454 0.31457785 0.48617437 -0.08759139 0.5683512 0.42853922
0.6762225 0.72890055 0.79284376 0.32915893 0.5824298 0.20558545 0.39172763 0.8872101
0.7796386 0.28658226 0.5014788 0.39021915 0.39804655 0.68113893 0.6981178 0.33973756
0.18008004 0.4230075 0.32493794 0.19886906 0.3519409 0.17311275 0.6767148 0.29945135
0.77085346 0.42597485 0.22303252 -0.029083768 0.9310566 0.24731155 0.7752361 0.45411226
-0.03759673 0.5692271 0.4260634 0.7023396 0.604716 0.54409695 0.78111005 0.48355755
0.2586074 0.31247756 0.6768007 0.4245539 0.34161627 0.8146424 0.10431558 0.28144988
0.6187429 0.96650994 0.19874701 0.9537803 0.30485687 0.61781275 0.8794953 0.83263946
0.05136648 0.21655263 0.17864007 0.42569202 0.82933426 0.5464812 0.59951776 0.7031816
0.711741 0.6193822 0.45818728 0.73114246 0.38139197 0.7430481 0.24849428 0.5293288
0.850174 0.48638573 0.4824586 0.28716147 0.24122952 0.7099512 0.25760043 0.14525963
0.26056337 0.60747147 0.5819698 0.47450453 0.597967 0.28388014 0.5647234 0.8712694
0.26462907 0.5686063 0.4204914 0.64650774 0.29727176 0.66392297 0.40462086 0.8846157
0.5828589 0.5358433 0.75216454 0.61062706 0.90575427 0.7849146 0.6359545 0.71660566
0.22877134 0.51675314 0.6194593 0.39032784 0.48523256 0.558367 0.78692406 0.51215297
0.72553825 0.5744881 0.67911273 0.6694975 0.53699577 0.274017 0.011806428 0.7926823
0.5590516 0.096916236 0.35438037 0.18406948 0.46994373 0.34815 0.45710698 0.41666466
0.36961108 0.8363657 0.57976955 0.58595526 0.50922835 0.1613241 0.57242775 0.6872577
0.5055828 0.695434 0.87897253 0.8540338 0.20473376 0.57420325 0.867969 0.8179569
0.12721288 0.09878612 0.48657143 0.15104349 0.54811925 0.42967457 0.5974622 0.346047

bn1.bias f4 [300]
00000000: 189d 813e 3eac 063b 293a 543d f054 40bd
00000010: c9cf 403d 1590 873c 9ecd fa3c 23ed 163d
00000020: 18cb 83bd 9804 8cbe 34bd 10bd a325 123d
00000030: e359 81bd 0161 cfb9 378a d43c 5e08 cdbd
00000040: a39c 57be 3290 893d 8d68 bd3d afa8 993d
00000050: b882 593d cb77 023e cf93 b53c f60d 4b3e
00000060: 1021 093e a66b 49bd 83f6 ffbc cee0 eb3d
00000070: 31c2 cc3d 6a73 a13c 896d 0a3d 3325 d93d
00000080: aaa4 423d b16b 26bd af9d 843c e60f 973d
00000090: 19e5 c8bd 6671 eb3d 9a35 e33b 1243 4ebd
000000a0: d693 5c3e fb57 98bd 065d 23bd 488c 75bc
000000b0: c5b2 743c 35a3 d2bb f4ac 8e3d 6501 24bd
000000c0: 9b47 04be dec0 94be a11a 84bd 024a 093e
000000d0: 51c7 9a3d 94d8 8d3e 1c72 1abe 67f9 5dbd
000000e0: 5959 cd3c 6ee0 99bd d470 533d 2261 603e
000000f0: a9ac 89bd 600e e3bc 06c1 4c3d c00e 973d
00000100: 180f f73c 8f83 9cbd 925c d63d 6c44 243e
00000110: 58b6 383d 880f 963d f87e 523d 3b24 713e
00000120: fa5d c73d 06a9 43bc 7c95 febc 4d33 90bd
00000130: 46df 3b3d 38ef 813d 8ed3 943d 8147 e73b
00000140: 6fda f2bd bc47 003e b9d6 213e b887 603d
00000150: 6b76 613c b2e4 53be 02a8 0b3d 9583 b0bc
00000160: af42 b93d 885f 173d d1dc 3dbd 5d28 443d
00000170: bab9 983d f381 a53d 65f8 683d a982 743d
00000180: d0c4 f13c 5726 fd3c e8c0 383b f40f 483d
00000190: 949e 593d e2a0 74be 758d 563d ab7f 5b3d
000001a0: 4ba7 86bb 59f1 70b9 b3d1 a4bd eff4 e83c
000001b0: 9738 debc e6eb 7f3d bad9 cb3c 677e c8bd
000001c0: df6b 84bc 7e46 a43d a7a0 ff3d 1cbe 7d3d
000001d0: 6747 16be 4e19 973c fb1c 18bc 0d9c bfbb
000001e0: 9f5a af3b 7580 a13b 7fce e8bd 3f62 e1bc
000001f0: 2fb7 3d3e 300a 9e3d cbfc 203c 58e6 573d
00000200: 6c7a c6bd 1071 d5bd 2e26 ce3c 2c3f 50be
00000210: 53e7 c8bd 0973 05be f2cf 5d3e 3863 55bd
00000220: 8e61 4cbe 1210 ff3c 5df6 b6bd 88ea 843d
00000230: 3e2d 8b3c ba12 a33d 9eb3 79bc f1ff df3d
00000240: a5de ca3c a66f 8e3b c812 b13d 24df 42bd
00000250: 8eef f93d e5f4 4b3d b612 723e a699 023c
00000260: a7b3 ba3d 9f78 ae3d d402 2cbe 7803 753d
00000270: 1015 27bd 2877 073d 725b 8d3d f7f5 cdbc
00000280: b5ae 393e 2662 96bc ae83 1ebc b89d 90ba
00000290: f8ca afbc 8fe9 983d e8a0 c4bc cd6d 033d
000002a0: dc2c 493e 63eb 5c3d 90e0 24bc a396 073d
000002b0: 3b8a 833d 2a05 acbc b602 033c 77d5 8bbc
000002c0: 24b2 b6bd 9464 9bbd d08a 20bd c0d5 a0bc
000002d0: 3b28 0d3d 6a93 2fbd c478 90bd ce70 81bd
000002e0: cf84 2d3c 37f4 a83d e311 91bd d96b 06bc
000002f0: e005 043d 29c2 873d c67f 82bd 4eee 7f3d
00000300: 6e6f e0bc 94d9 d2bc 92e5 edbc 951c b13d
00000310: 6192 8b3d d0c7 e2bb a619 9c3d 143a 6db9
00000320: 558a 6d3d a8d7 be3b 7bdb 4c3d c9be c5bc
00000330: 09fd 72bd 041b b23c da52 b43d cd34 193d
00000340: 5f42 1d3e 85a0 b7bd f3e3 f63d d1ec bb3d
00000350: 1578 5b3d 3666 86bd 7493 d2bc c0fb 2dbc
00000360: 2676 e6bc e059 e23c bd84 333d 04ea d63c
00000370: 1d7e 1bbd 272a 16bc 23e5 273e 47ff 8f3d
00000380: eb3e b9bc 8b2e b03d e21d 293e cf2b c93b
00000390: bcfb f03d a3fb b3ba 8893 b4bc 09bb 7cbd
000003a0: f600 db3d 57de 523d 4fdc 59bd a7d8 393d
000003b0: a510 afbc bf81 e0bc 1322 0fbc 5caf 2dbd
000003c0: beae 913e 59cf b53c 4937 90bd fcfa 75bb
000003d0: 0b2a cc3d 8454 a03a 45c4 4d3c 504d a73d
000003e0: 17e5 083e f58d 1fbe c012 0b3d cae3 3f3d
000003f0: dfb5 74bd 4580 9c3d ecc1 463c e018 a23d
0.25315166 0.0020549442 0.05181328 -0.046956003 0.04707316 0.016548196 0.030615624 0.036847245
-0.064352214 -0.27347255 -0.03533669 0.035680424 -0.06315973 -0.0003955439 0.025944812 -0.100113615
-0.21055846 0.06716956 0.09248457 0.07502877 0.05310318 0.1274101 0.022165207 0.19829544
0.13391519 -0.049174927 -0.031245476 0.115174875 0.099979766 0.019708354 0.033795867 0.10602798
0.047520317 -0.040630046 0.01618847 0.07376079 -0.09809322 0.114962384 0.00693388 -0.050356932
0.2154077 -0.07438656 -0.039883636 -0.014987059 0.0149352 -0.006428147 0.06966582 -0.040040392
-0.1291794 -0.29053396 -0.064503916 0.13407138 0.07557548 0.27704298 -0.15082592 -0.054192927
0.025067018 -0.0751351 0.051621273 0.21912053 -0.067223854 -0.027716815 0.04998877 0.0737586
0.030158564 -0.0764228 0.10466875 0.16041726 0.04509577 0.07327181 0.051390618 0.23548977
0.097347215 -0.011942154 -0.03107714 -0.07041035 0.045867227 0.063444555 0.07266913 0.0070580845
-0.11858069 0.12527364 0.15804566 0.05481693 0.013761143 -0.20692709 0.03409577 -0.021547118
0.09045922 0.03695634 -0.046353165 0.047890056 0.074572995 0.080814265 0.056877512 0.05969492
0.029512793 0.03090207 0.0028191153 0.04884334 0.053129748 -0.23889497 0.052380998 0.05358855
-0.0041092983 -0.00022978093 -0.080478095 0.028437106 -0.027126594 0.06248083 0.024884094 -0.09789734
-0.016164718 0.08021258 0.12481814 0.06194888 -0.14675675 0.018444683 -0.009284253 -0.00584746
0.005351379 0.0049286433 -0.11367511 -0.027512668 0.1852691 0.07716787 0.009825896 0.052709907
-0.09691319 -0.104219556 0.02516469 -0.20336598 -0.098097466 -0.13032164 0.21661356 -0.052096575
-0.19959089 0.031135593 -0.08933709 0.06490046 0.016989347 0.07962556 -0.015240578 0.10937489
0.024764368 0.0043468056 0.0864616 -0.047576085 0.122038946 0.049794096 0.2363995 0.007971203
0.09116297 0.085191004 -0.16797954 0.05981776 -0.04079157 0.03307262 0.069022074 -0.0251417
0.18133052 -0.018357348 -0.00967495 -0.0011033332 -0.021459088 0.07466423 -0.024002507 0.032087136
0.19646019 0.05393542 -0.0100633055 0.033102643 0.0642285 -0.020998556 0.007996252 -0.017069561
-0.089206964 -0.07587543 -0.039194882 -0.019633174 0.034462195 -0.042865194 -0.07054284 -0.06320344
0.010590746 0.08249705 -0.0708349 -0.008204424 0.032232165 0.0662883 -0.06372027 0.062483124
-0.027396884 -0.025738515 -0.029040132 0.0864803 0.06815029 -0.006920792 0.076220796 -0.00022623717
0.05799325 0.005824048 0.050014 -0.024138825 -0.059323344 0.021741398 0.08804865 0.03740387
0.1535735 -0.089661635 0.120551966 0.091760285 0.053581316 -0.06562464 -0.025705077 -0.010619104
-0.02813251 0.027630746 0.04382776 0.026234634 -0.037962068 -0.009165323 0.16396002 0.07031112
-0.02261301 0.08602627 0.16515306 0.0061392556 0.117667645 -0.001373161 -0.022043005 -0.061701808
0.10693543 0.05148157 -0.05318862 0.04537263 -0.021370241 -0.027405618 -0.008736151 -0.042403564
0.2845363 0.022193598 -0.07041795 -0.0037533632 0.099689566 0.0012232219 0.012559001 0.08169043
0.13368641 -0.15581496 0.03395343 0.046848096 -0.05974376 0.07641653 0.0121311955 0.07914901

bn1.running_mean f4 [300]
00000000: 10da 103e 7416 543e 7327 973d 964c 0f3d
00000010: aa7a db3d effb cb3c 5bee 173d 4f8e f43d
00000020: 287e ed3d a0df be3d 14bd 093e 6330 213d
00000030: bfd7 cb3d 07da f83c 5b45 983c b68c 373e
00000040: 059e f53e a276 543e 7f7b 143d b318 943d
00000050: 3f98 ce3d 4ed7 8d3a 6c56 363e 580a 1a3e
00000060: c5c1 2a3e 1648 0e3d 2685 f53d 61c4 5c3d
00000070: 2b9a 573c 88a3 7c3e af5a 223d d62a d33d
00000080: 9815 333e 78f6 a83d 63db 153e bcac c03c
00000090: 6e7b 313d cafd c23d 4e3e 493d 3e5c 423e
000000a0: 6ae9 0b3c 280d a23c e932 0a3e 0a33 393d
000000b0: 2f51 923d 94bc 383d 0741 0f3c dcd9 093e
000000c0: 04e0 b53c 2ee1 9e3e 7031 4f3d 3e00 9f3e
000000d0: df82 c03d 98a5 613e 62f8 793d 489f 863d
000000e0: 0d06 0a3e d586 be3d 96f6 693d f5a8 003e
000000f0: 18d8 cc3d 6b17 613e 3fba e73d 91b2 d53d
00000100: 330c a13d d0a7 2a3e 808d 7a3d f1a1 f23d
00000110: 0e3c 103e b0cc 543e b564 0e3d 5d37 983e
00000120: eccf 193e 4b47 ba3c 0f8f 963b 7b27 be3d
00000130: 036c 403e 4b2c 713d a80f e33d 03e5 1a3d
00000140: ef57 9e3d df55 a43c 26de a03d e6e4 9a3c
00000150: 30e9 313e ad54 1f3e 296c 9c3d 40ec 7e3d
00000160: fa72 183e 84b7 253e d918 003e bac2 013e
00000170: 26d2 80b9 ffa2 7f3d fef4 133d 2122 de3c
00000180: bf03 513d 7b84 913d 831a 283e 6223 5f3b
00000190: dbdb 103e a882 a33e 5fd2 9c3e 1a86 103e
000001a0: 1de8 173e cde9 423d cbd6 143e 686f 4e3d
000001b0: 7a4d ee3d 5729 013e a861 793e b3c2 a83d
000001c0: e2ae 823d 24fa 8d3d c0c6 1a3e a907 983c
000001d0: 69e9 783d 7e24 d53d f747 733e a494 0e3d
000001e0: 7a98 433d fc15 ff3b 6a1e 353d d407 183e
000001f0: 4a76 8b3e 488c 803d 50ba 983d 92dc cc3d
00000200: 035f 173e 9289 da3d 1e76 753d 5332 523e
00000210: d957 dc3d 8626 143d cde3 8e3e 31d5 ac3d
00000220: fe60 213e 2ee8 c03c b083 083c b63f 893d
00000230: 3ead 3b3d 0712 6b3e 94c6 0b3e 18c5 233c
00000240: 997b ab3d 6983 233e 62b1 053d bb67 763d
00000250: 2848 303d 3a41 d43d d6c8 783e 04b3 8e3d
00000260: a5ab 783e 5b4b e13d 92d1 b63d 9d9c db3d
00000270: 54d4 4c3d 5ddb 1a3e 0621 eb3d 3f0d d03e
00000280: 70bf 5e3f 3db6 d53c 6867 c93d 6dc4 4d3d
00000290: a8ec 9d3d 83cb 763e 781b 8b3d f3d9 073d
000002a0: 8c8e 013c 29b3 ee3d 6f21 3e3d 823a 003d
000002b0: 869e 733d 755d c43d 2502 8c39 7f49 753e
000002c0: c56c aa3d 4c3a c03b 5dc3 163e c3dd 0c3d
000002d0: 192e b43c 8eef a63d fac8 823d dec3 843e
000002e0: 867f a23c a42c cf3d 6d2a 543e 1d36 dc3e
000002f0: 42e3 773d 88b6 223d 23a8 c33c 43bf 0d3e
00000300: a90b 013d b4a3 f23d 2011 a33e a006 0e3d
00000310: a374 dc3d 6fc4 a33c 83f1 0b3e a66d 303d
00000320: c927 883d 44ac ad3d 3d90 ef3c f652 ab3e
00000330: 17be 2d3e d28a ca3c 6392 b63d 4da1 223d
00000340: 78d0 433d 4f34 6c3d bf7d d13c 13a0 9c3d
00000350: 70c5 413e ecb6 363d 26e3 eb3d c1d2 843d
00000360: 2ba1 6a3e 2d98 ac3d d1ff ae3d 1aa8 4c3d
00000370: 7f4f b63d 9f18 b03c cd9b 223d 0ccd 1d3e
00000380: feee 8f3d 1de5 473e 9fb8 ad3d 3a74 863d
00000390: 3c82 063e 4adb 913d ca00 463e c059 b83d
000003a0: 96de 4b3c 1c34 303d bb96 953d 7949 933d
000003b0: 2e35 a73d a63c 143e b124 083d ca58 923c
000003c0: 6b9c 943e 270c 883d 6c29 323e a1b7 4d3e
000003d0: 592d 113d 40fd b23d 8f71 803d 8ae6 af3d
000003e0: 6328 e33d 9254 303d 834c 6d3b 2f46 0a3d
000003f0: f08e 723d 7e01 303d ee27 f73d 205e 013d
0.14145684 0.2071169 0.07380571 0.034985147 0.10716756 0.024900405 0.037092548 0.11941206
0.11596328 0.09319997 0.13451034 0.039352786 0.0995326 0.030377401 0.018587759 0.1792477
0.47972122 0.2074838 0.036250588 0.072312735 0.100876324 0.0010821612 0.17806405 0.15043008
0.1667548 0.034736715 0.11988287 0.05389822 0.013159315 0.24671757 0.039637264 0.10310905
0.17488706 0.08250135 0.1463447 0.023519866 0.043330602 0.09521063 0.049131684 0.189805
0.008539537 0.019781664 0.13495983 0.04521469 0.07144391 0.045101717 0.008743531 0.13462013
0.022201546 0.31031173 0.050584257 0.31054872 0.09399962 0.22035825 0.061027892 0.06573349
0.1347887 0.09303061 0.05711993 0.12564452 0.10002154 0.2198159 0.113148205 0.104344495
0.07863655 0.16665578 0.0611701 0.11847294 0.14085409 0.20781207 0.03476401 0.2972974
0.15020722 0.022739073 0.0045946906 0.09284874 0.18791203 0.05888013 0.110869706 0.03781606
0.07731616 0.020060478 0.078548715 0.018907975 0.1737411 0.15559645 0.076378174 0.062237024
0.1488761 0.16183287 0.12509479 0.12671939 -0.00024570635 0.062411305 0.036122315 0.027115883
0.051028963 0.07105347 0.16416363 0.003404819 0.14146368 0.3193562 0.3062925 0.14113656
0.14834638 0.04758625 0.14535062 0.050399214 0.11635871 0.12613426 0.24353659 0.08240261
0.063810125 0.06932476 0.1511488 0.01855834 0.060769472 0.10407351 0.23757921 0.034809723
0.047752835 0.007784603 0.04421846 0.14846736 0.27238685 0.062767565 0.07457411 0.10003008
0.14782338 0.10670771 0.0599271 0.2052701 0.10758943 0.03616955 0.27908173 0.084391005
0.15759656 0.023548212 0.008332178 0.06701605 0.045819513 0.22956096 0.1364997 0.009995721
0.08373184 0.15968098 0.03263987 0.06015752 0.043037564 0.103640035 0.24295363 0.06967738
0.24284227 0.11000701 0.08926691 0.10723231 0.05000718 0.15122743 0.11480908 0.40635106
0.8701086 0.026087875 0.09834176 0.050236154 0.07711154 0.24101071 0.067923486 0.033166837
0.007907521 0.11655266 0.046418604 0.031305797 0.05947735 0.09588138 0.0002670448 0.23953818
0.083215274 0.0058663245 0.14722963 0.034391176 0.021994637 0.0815116 0.063859895 0.25930685
0.019836199 0.101159364 0.20719309 0.43010035 0.060519464 0.039724857 0.023883885 0.13842492
0.03150526 0.1184763 0.31849003 0.034674287 0.10764434 0.019991128 0.13666348 0.04307332
0.066482134 0.08480123 0.029243583 0.33461732 0.16967045 0.024724398 0.0891464 0.03970461
0.047806233 0.057667073 0.025572656 0.07647719 0.18922973 0.04460804 0.115179345 0.064855106
0.22913043 0.08427463 0.08544887 0.049965 0.089018814 0.021496115 0.039699364 0.1541025
0.07028006 0.19520994 0.08482479 0.06565137 0.13135618 0.07121904 0.19336239 0.090014935
0.012443205 0.043018445 0.0730414 0.07191748 0.0816444 0.1447626 0.033238117 0.017864604
0.29025587 0.06642943 0.17398614 0.2008958 0.035443638 0.0873971 0.062716596 0.08588894
0.110916875 0.043049403 0.0036208935 0.03375834 0.059218347 0.042970173 0.12068163 0.031583905

bn1.running_var f4 [300]
00000000: 981c 253d cf27 233d 544b ad3c 1245 093c
00000010: 8f3f f13c 7f20 213c 347e 3c3c ea1c 213d
00000020: 8761 163d 8691 0e3d 60d3 533d 953d 333c
00000030: 6024 823c dedc 2e3c 324e df3b e689 ad3d
00000040: b605 133e 7a44 a33d 3863 ee3b 8727 9b3c
00000050: 19b7 f63c fbc5 c03a 5dc7 773d 3f20 503d
00000060: fe96 c23d bd21 703c e767 6d3d 8d26 cd3c
00000070: aa24 a63b c5bf 943d 1549 253c eb43 da3c
00000080: 0693 8e3d 2bc9 e43c 9e20 843d 77f8 da3b
00000090: 1840 5c3c 198b a63c e90b 963c ded0 6b3d
000000a0: a27e aa3b 39da 2d3c c7d9 803d d708 9f3c
000000b0: 894a 1e3d 9a9f 943c 827a 813b 79dd 1b3d
000000c0: 6b11 103c 82a4 443e 3bc7 983c 5ff8 303d
000000d0: 861c b93c c8ec 563d 6692 aa3c c012 953c
000000e0: 4656 a93c d56e e73c 7f09 843c d071 183d
000000f0: 45a9 ec3c 1397 883d 64f4 6c3d b34c 003d
00000100: 1484 103d 8a7b 993d ee36 493c 313a 6e3d
00000110: 01d3 923d 6649 e23d a77c 7f3c 7e3d e73d
00000120: 1ac9 273d a691 1a3c 66bb 333b 8d54 d43c
00000130: 08a1 383d 9a97 083d 1787 363d 890e 273c
00000140: 07b0 a33c 7a7b 033c b65d e23c fff1 da3b
00000150: b24c 693d a1c1 963d ae4c d13c d67a a63c
00000160: 7131 243d 0659 613d 7a96 0c3d f8a5 4c3d
00000170: 4d18 5a3b 2290 853c 74eb 1b3c 7bd3 103c
00000180: b30c aa3c 4a3b 5c3c 7761 283d 8f98 313b
00000190: 25c1 8a3d 4498 973d 41c5 483d 459b 213d
000001a0: cb6d 443d e950 5c3c 86aa 3e3d d794 923c
000001b0: 6b4c 1b3d 449e 803d 8187 e03d 1361 c33c
000001c0: 8467 423c 2a5a b43c 3b4e 103d 3982 9b3b
000001d0: 6f94 883c 4095 d33c 18b5 cd3d 3883 df3b
000001e0: e2da 813c 818b 653b 8917 4e3c 0703 493d
000001f0: b5ac d03d d404 b63c 07e3 bd3c ff76 e33c
00000200: d55f 4b3d 634e 1e3d 9741 ce3c b777 d43d
00000210: 6d3b 213d 0417 1f3c 11d3 293e 8278 f33c
00000220: cc47 e63d 4bbd 333c 8526 173b c231 bf3c
00000230: ec14 4c3c 5ac1 873d 9fb1 273d d7a6 0e3b
00000240: fd13 ba3c d599 743d 364c 133c 16b4 a43c
00000250: a2b1 733c 2a7a f73c 4867 f73d eb96 aa3c
00000260: 8140 de3d b233 063d 27da 0a3d fd53 c53c
00000270: c2ef 913c 6837 4a3d 9433 173d fc44 303e
00000280: 4541 8e3e 6dfb 993c 8671 043d 218c 833c
00000290: 69fb 863c c37a f03d 4510 bd3c 18ce fa3b
000002a0: bb3d 813b 6d3f 453d 528c 3a3c 085e fb3b
000002b0: 9a0b 733c 141e ec3c 68f2 f93a 4b88 023e
000002c0: 9420 103d e195 683b c40c c83c 8989 063c
000002d0: c4dc a53b 2211 933c 2632 833c 3880 1c3e
000002e0: cf19 df3b 6066 da3c b6ef 963d 9d19 d43d
000002f0: 3081 883c 0f22 533c d437 013c fc46 e73c
00000300: 92b8 023c f1e5 013d 405c ab3d 613d 1d3c
00000310: 90e9 413d bbf2 af3b e050 4e3d 694f 523c
00000320: f449 8f3c 14a0 f53c 460c 1e3c 2a23 413e
00000330: 7842 403d 0062 9e3b 0e8a c33c d6c2 213c
00000340: 5c52 4c3c 780b 803c f84e 423c 7f36 c03c
00000350: 82bf 8d3d 5ca6 883c fd55 073d 7f30 6f3c
00000360: dc5b d33d 33fb 153d 698c d73c d3fb c13c
00000370: 7d9e bd3c 667a c33b d67f 703c 8b62 703d
00000380: 31df 063d 6101 9d3d 0571 e73c 7a4a 813c
00000390: d471 693d b7fc fd3c 3b06 533d 9c9a af3c
000003a0: 2604 903b b03d 613c a048 f43c ec6b bd3c
000003b0: 1353 0b3d 3acb 2a3d ee69 1a3c 735a 4a3c
000003c0: 0e1f 003e dd75 903c e64e 753d 2522 ba3d
000003d0: 96a0 9d3c 1c88 fc3c 11d2 863c 4c16 db3c
000003e0: 8be7 273d 49b8 7e3c e098 183b 09ee 2e3c
000003f0: c34b c43c cf4d 7e3c 8247 1b3d 98ce 1c3c
0.040310472 0.039832886 0.021154083 0.008378284 0.029449252 0.009834408 0.011504699 0.039334215
0.036714103 0.03480675 0.051715255 0.010939975 0.015886486 0.010672776 0.0068147415 0.08473568
0.14357647 0.07972045 0.0072750114 0.018939747 0.030116605 0.001470744 0.060492862 0.050812002
0.09501456 0.014656481 0.057960417 0.025042797 0.0050702887 0.0726314 0.010088225 0.026643714
0.06961636 0.027927956 0.06451534 0.0066824513 0.0134430155 0.020329999 0.018316226 0.05757224
0.005203084 0.01061111 0.06291538 0.019413395 0.0386453 0.01814251 0.0039513716 0.03805301
0.008793215 0.1920338 0.018649688 0.043205615 0.022596609 0.052471906 0.020821761 0.018197417
0.020671021 0.028251091 0.01611781 0.037217915 0.028889308 0.0666944 0.057850257 0.031323146
0.03528221 0.07494266 0.012281163 0.058160964 0.07169152 0.11049156 0.015593684 0.112910256
0.04096327 0.009434139 0.002742493 0.025919223 0.045075446 0.033347704 0.044562425 0.010196337
0.019981397 0.008025045 0.027632575 0.00668168 0.056957908 0.073611505 0.025549259 0.020322245
0.040086213 0.05501654 0.034323193 0.049962968 0.0033278645 0.01630408 0.009516586 0.008839483
0.020758009 0.01344187 0.041108575 0.0027098989 0.06775121 0.07402089 0.04901624 0.039454717
0.04795627 0.013447025 0.046549343 0.017893238 0.037914675 0.06280187 0.10963345 0.02385
0.0118655 0.02201565 0.035230856 0.0047457484 0.016672341 0.025828004 0.100443065 0.0068210624
0.015851442 0.0035025778 0.012578853 0.049075153 0.10189191 0.0222191 0.023179544 0.027766703
0.04965194 0.038648974 0.02517776 0.10374396 0.039363313 0.009710077 0.16584422 0.029720549
0.11244163 0.010970424 0.002306373 0.023339156 0.01245616 0.06628676 0.040940877 0.0021766925
0.02271461 0.05971702 0.008990338 0.020105403 0.014873894 0.03020962 0.12080246 0.020823916
0.10852147 0.032764144 0.033899453 0.0240879 0.01781452 0.049369246 0.036914423 0.17213815
0.27784172 0.018796647 0.032334827 0.01605803 0.016477304 0.11742165 0.023079047 0.007653963
0.0039441264 0.04815619 0.011385994 0.0076711215 0.014834309 0.028822936 0.0019069435 0.12747304
0.03518732 0.0035489725 0.02442015 0.008211502 0.0050617177 0.017952505 0.016015124 0.15283287
0.0068084965 0.026660144 0.0736994 0.10356448 0.016663164 0.012886538 0.007886846 0.02823209
0.007978575 0.03171343 0.08367205 0.009597153 0.047341883 0.005369512 0.050370097 0.012836316
0.017491318 0.029983558 0.009646481 0.1886107 0.04693839 0.00483346 0.02386954 0.009873113
0.012470808 0.015630469 0.011859648 0.023463486 0.06921293 0.016680889 0.03304099 0.014598965
0.10320255 0.036616515 0.02631207 0.02367965 0.023146862 0.0059655188 0.014678916 0.058687728
0.032927696 0.07666279 0.028252134 0.015782584 0.05699332 0.031004293 0.051519614 0.021436028
0.004395026 0.013747618 0.029819787 0.02312275 0.034014773 0.04169772 0.00942467 0.012350666
0.12511846 0.017634327 0.059889697 0.09088544 0.019241612 0.03082662 0.01645759 0.02674403
0.0409923 0.015546867 0.002328448 0.010676869 0.023961907 0.015521481 0.037909992 0.00957074

fc2.weight f4 [400, 304]
00000000: d746 cdbd 2917 5e3d 50db 21bd 4b36 d33c
00000010: 8d05 8abd 4095 2abd ee99 8ebc a14e 4fbd
00000020: 8a67 e73c ed14 053c 48f3 dcbd 316b 90bc
00000030: 2a1b debd 6c1f 08bd 4810 a5bd 75d2 d13b
00000040: 2d92 f83d 29fb b33d c439 65bc b0b1 83bd
00000050: e2c3 c4bb b309 03bd 0007 d4bb 02b6 1ebc
00000060: d651 a0bd 8855 633c fbd8 a83d 5045 c0bc
00000070: a8f7 34bd 244b ea3b be26 9b3d f320 6dbc
00000080: 9927 9e3d bdd2 263d 235f d23c 4954 96bd
00000090: f249 0c3d 3a99 75bd b4c0 743b d391 b83c
000000a0: da87 1cbe 861d 9c3c d79b 3fbc 8610 853d
000000b0: 3c33 d239 896d 4bbd 1d48 f6bd 5f8a 5bbd
000000c0: 556f a33c 9da1 013d a836 37bd 6f09 15bd
000000d0: b458 85bd b733 a2bc 45db f53d 9dc6 f3bc
000000e0: 8fd3 98bd 7c60 443d 4e98 80bd a542 23bc
000000f0: 8ab6 dfbb 7134 aebd 6390 023c a617 353d
00000100: 424a 54bc b720 813d 7f8f 923d 51f6 45bd
00000110: 6032 25bd ab3b 3e3b 8bf7 f8bc ac70 54bd
00000120: ae31 703c 5dc1 b0bd 51e8 0e3d 2942 693c
00000130: fec8 e6bc 09ec 27bd 858e 7f3d 5496 6ebd
00000140: f245 873d 93b8 55bd 207a bc3d d1c8 283d
00000150: efdc 1c3b baea a53c d292 8f3d 0326 273d
00000160: 2dc7 773d cba9 6dbc dd7b 3e3c 9f97 0abc
00000170: f455 9dbc f108 1abd 1526 c6bc 16c1 693d
00000180: 5adc a93b 6dc0 523d f7ff e63c 1974 95bc
00000190: de94 c63c 35ac 083e 63b5 813d ef99 a1bd
000001a0: 3741 403d 9d27 9f3b 7877 e93c e5a1 27be
000001b0: 8d6e 69bc f031 cbbd cdc3 84bd e9d1 173d
000001c0: 2f85 063d beb9 d6bc 5bce 0ebd cd44 bcbb
000001d0: e9fb 543b d8ba f5bc 829e 963c 3361 e03c
000001e0: d197 323b be7b 89bd 3b5d bcbc 413f 95bb
000001f0: 769c 08be b0e8 33bd 37b7 4ebd b29a 38bc
00000200: 5691 01bd b27d 773d 5198 f7bb c513 c23d
00000210: 6d75 8bbc 59cd a1bd c9e8 bfbb 7140 383c
00000220: 02fa b43d 96d5 94bc 7fbc 44bd 61ea aabc
00000230: 5c4c 46bd defa ecbc 0386 033d ed73 1d3a
00000240: 96c4 f1bc f811 33bd 4ede 81bc 7ffc c5bd
00000250: ae13 a5bc d5c7 edbc 9f6d b7bd a73b 85bc
00000260: 5323 ef3c c9fc 39bd 26e3 ee3d 741b ae3b
00000270: 4a0a 63bc 02bf b23d b84b 97bd 97f8 053d
00000280: 5c37 72bd 8ea0 d13a f633 483d 5c44 1d3c
00000290: 3a11 08be 9d3b ebbc 2890 193d b881 a3bc
000002a0: 38e7 fa3c 3e5b 5a3d be0e 853c ba28 3b3d
000002b0: 1ad7 3fbc cf68 9dbc 44e9 74bd 2fa4 8b3b
000002c0: 3976 3bbd c11d 4e3d 11bb 5b3d f2b7 0bbd
000002d0: 39a6 73bd 4684 3d3d 7eba 8abd fe32 9a3d
000002e0: 7908 4d3d 2524 afbd e498 053c 1d97 f3bc
000002f0: 2d1e 08bc 038b 023d 52fa 28ba 8937 78bc
00000300: 257c 18bd bd37 af3d 3d71 72bb 59c7 e43c
00000310: 0673 47bd 69ae 69bd 875d d83c 603d 23bd
00000320: 5b68 81bd 86da 13bc 45ec 97bd 9654 6b3d
00000330: d9d3 25bd 5fe6 26bd 5fbe 7fbc 70d0 1f3d
00000340: 8df2 91bc 092c 08bd 9cd8 e03c 065c 8dbd
00000350: c20c 92bd cfd8 0d3b 6a41 2fbd 579e 31bc
00000360: 3e1f 833d bddd c6bb 38b5 f9bc 3e43 2c3d
00000370: d272 3bbd 9e01 203d d325 1bbe be1a 373c
00000380: 9cc6 e2bd fb2f 213c 0db3 4abd f01f 06bd
00000390: 49f8 abbd 6470 c73c b169 283d 0e4a ac3a
000003a0: 2597 67bc 953c bbbb dccb 14bb eb61 513b
000003b0: bd0c 0cbd dfc0 343d 3b9e 163d 7128 35bd
000003c0: b222 01bd 0770 0fbd 3073 853c c53c 24bd
000003d0: c86d 71bd f28c 80bc b918 363d df27 70bd
000003e0: 3347 e1bd d663 f23d 2ff6 52bd db65 c8bd
000003f0: 2656 d33c a6ab 2b3d a8e9 903d f6e1 1cbd
-0.10023277 0.054221306 -0.039515793 0.025782725 -0.0673934 -0.041646242 -0.017407384 -0.050612096
0.028247613 0.008122665 -0.1078859 -0.017629238 -0.10845025 -0.03323309 -0.08059746 0.0064032623
0.12137256 0.087881394 -0.013990823 -0.064303756 -0.0060047964 -0.03199167 -0.006470561 -0.009686949
-0.07828109 0.013875373 0.08244511 -0.02347055 -0.044181496 0.0071500707 0.07575749 -0.014473188
0.077223964 0.04072832 0.02568013 -0.07340295 0.034250207 -0.05996058 0.0037346305 0.022530472
-0.15286198 0.019057047 -0.01169487 0.06497292 0.00040092494 -0.049665008 -0.12025473 -0.053598758
0.019950548 0.031648267 -0.04472986 -0.03638595 -0.065110594 -0.01980005 0.12004713 -0.029757792
-0.074622266 0.047943577 -0.0627905 -0.00996462 -0.0068271803 -0.08506096 0.007968995 0.044212006
-0.012957158 0.06305068 0.07156276 -0.04833061 -0.040331244 0.0029027264 -0.030391475 -0.051865265
0.014660282 -0.08630631 0.034889523 0.014236965 -0.028172012 -0.040996585 0.062391777 -0.058248833
0.06605138 -0.052177977 0.09202981 0.04120714 0.0023935398 0.020253528 0.070104256 0.040807735
0.060492683 -0.014505814 0.011626211 -0.008459001 -0.019206025 -0.037606183 -0.02418808 0.057068907
0.0051837387 0.051453043 0.028198225 -0.018243836 0.024240907 0.13346942 0.06333425 -0.07890689
0.046937194 0.004857017 0.02849935 -0.16370352 -0.014247549 -0.09921634 -0.064826585 0.03706542
0.032841858 -0.026211616 -0.034864765 -0.0057455064 0.0032498783 -0.02999632 0.01838613 0.027390098
0.0027251134 -0.06713055 -0.022993675 -0.0045546596 -0.13340935 -0.04392308 -0.050467696 -0.011267351
-0.031632744 0.060422607 -0.0075559993 0.09476427 -0.017023766 -0.07900495 -0.0058566076 0.011245833
0.08836748 -0.018168252 -0.048031326 -0.020863714 -0.048412666 -0.028928217 0.032110225 0.0006006349
-0.029512685 -0.04371831 -0.015853073 -0.096673004 -0.020150986 -0.029025951 -0.089564554 -0.016263796
0.029191649 -0.04540709 0.11664419 0.0053133313 -0.013857434 0.08727838 -0.07387489 0.032707777
-0.059134826 0.0015993284 0.04887768 0.009598818 -0.13287821 -0.02871495 0.037490994 -0.019959316
0.030627832 0.05330967 0.016242381 0.045693137 -0.011708999 -0.019215016 -0.059792772 0.0042615156
-0.045767043 0.050321344 0.053645197 -0.03411097 -0.059484694 0.046268724 -0.06773852 0.07529257
0.05005691 -0.08551816 0.008154128 -0.029735142 -0.008307976 0.031870853 -0.0006445992 -0.015149959
-0.03722777 0.08555553 -0.0036993765 0.027927088 -0.04869368 -0.057051096 0.026411785 -0.039853454
-0.06318732 -0.009024268 -0.07418112 0.057453714 -0.040485237 -0.040747043 -0.015609353 0.03901714
-0.017815853 -0.03324512 0.027447037 -0.06902318 -0.071313396 0.002164412 -0.042786993 -0.010840974
0.06402443 -0.0060689137 -0.03048192 0.042056315 -0.045763798 0.039064042 -0.15151148 0.011175809
-0.11073038 0.0098381 -0.049487162 -0.0327453 -0.08396966 0.024345584 0.04111642 0.0013144629
-0.014135157 -0.005714009 -0.0022704517 0.0031949233 -0.034191836 0.04412925 0.036771994 -0.04422802
-0.03152723 -0.035018947 0.016290277 -0.040097017 -0.058942586 -0.015692208 0.04445717 -0.058631774
-0.10999908 0.118354484 -0.05150431 -0.097850524 0.025797915 0.041911744 0.070758164 -0.03830143

fc2.bias f4 [400]
00000000: 2388 8ebd e288 86bd ccb6 9fbd 659b 303d
00000010: f96d afbd a709 d5bd 8f29 80bd b06e e13d
00000020: 3280 f4bb ff0b 13be b32c 8ebd d89f e4bd
00000030: 121d 34bd 7f3c cebc 19aa fb3d dde3 9e3c
00000040: 0ff7 10be 2e29 1c3e a308 c6bc 3261 99bd
00000050: c922 25bd 4a3f f3bd a983 5cbc 570c 28bd
00000060: f724 9bbd 2638 c8bd d5a7 cdbb 5af4 98bd
00000070: fa1d abbc 1582 3abd 32f6 25be 472e 4ebd
00000080: cd86 d83d 20b2 b6bd 507e 043d 13cc 153b
00000090: e6da f5bc 785f 2a3e 3f83 00be 450a 0ebe
000000a0: 61de 7abd e544 e1bd 1728 983d c319 f8bd
000000b0: d653 1abd c58b febd ddcf e8bb ceb3 363c
000000c0: 05ef c3bb eb2e 92bc b015 e9bd 9606 9cbd
000000d0: e7f4 703d df57 1abd 73b3 a5bb b496 3abe
000000e0: 37cc 9abd 4072 0e3d 7d90 443d ea85 0ebe
000000f0: 829d 663b f236 8fbd c4b4 b5bb 40b1 bebd
00000100: 3a7a 80bd ff5b aa3c c5f2 cc3d b5c0 ffbd
00000110: ba5e e6bc 3314 bbbd 3b54 60bd 5c27 31bd
00000120: 844b 1bbe 7af1 7f3d fa28 b0bd 57a7 efbd
00000130: d955 3b3d 2353 cc3d 292d 9b3d 60cf a6bd
00000140: 1655 dc3d db51 a7bd c963 8ebd bd5d 25bd
00000150: 7ed2 863c 4d8b 7dba 153a a53c 0df8 dfbd
00000160: 1a1d a43d a225 acbd 2e70 8bbd b55a 06b9
00000170: 6844 60bd ac88 c2bd ce12 33b9 565c 8d3c
00000180: 8593 cabd c39c d1bd 3500 283c 2226 4fbd
00000190: caf7 1a3d f35a f33d 3ec1 cebd 9804 9c3c
000001a0: d38f 94bd 2f7c ecbd b7c7 d7bd 1600 5dbc
000001b0: 7395 e0bd c663 b2bd 96b0 23be a51d 2ebd
000001c0: ec2a 05be 728a b03d 3dba d8bd 632e 95bd
000001d0: 428a adbd a84a efbd 62c2 aa3d 3398 d6bd
000001e0: 5f77 f9bd 5dec e43c 4545 8fbd 58ff 51bd
000001f0: 50cb 9cbd 67dc afbb b7b0 06bd 4dca 0cbe
00000200: 7653 89bd caf6 dcbd 3ff3 3bbc b612 babd
00000210: aa92 cdbd 1480 abbd 1a74 72bc 5541 1b3d
00000220: 057f d7bd c7b4 4d3d 22d4 093d 0dba 1a3d
00000230: aa5b 04be 56c9 82bd 4f02 d9bd 0868 cfbd
00000240: 2394 5ebd 5969 a4bd b184 ebbd 9923 253a
00000250: e636 f73d 4844 12be b547 abbd 3169 f5bd
00000260: fe95 a03d d49b 5abc 06f9 21be 43b2 08bd
00000270: d5ef ddbd 2287 8dbd 61cb a3bd 6a55 c6bd
00000280: 0573 18be 9d2b 473d 35f0 7ebc 853c 53bd
00000290: c414 8cbd 8b60 9f3d 6327 0fbd c215 98bd
000002a0: aa03 d5bc 04bd ec3d 7d7e 22bd a6f0 7cbc
000002b0: 7454 85bd c298 ddbd 3cab 6abd 0544 cfbd
000002c0: 2665 13be e2c2 07be 21b2 e83c 41c9 af3c
000002d0: 1d70 6dbd e88c c7bd 0013 e6bd 18b9 16be
000002e0: 9428 a73d de04 82bd faff 65bd ec50 0cbe
000002f0: 75de 2dbe b5cb e2bd fe20 613d 0491 2cbc
00000300: f88c bbbc a5db 13be 8c75 8dbd 6253 25be
00000310: dd4c 23be 08ea 98bb 899b 00be 43c2 e33d
00000320: 85d6 7cbd d221 efbd 8b24 21be e34f b13d
00000330: b6d6 b33d ce67 d4bd ae86 17be 869b eb3d
00000340: 78be 953d 6b23 78bd e2c4 afbd ef48 a9bd
00000350: 90ec a8bd 0bfd a0bd 4ff9 a3bd 9ee9 27be
00000360: 05f4 bebd c280 693c 6c9c 23be 9233 79bd
00000370: 0a96 94bd 5187 d53d 152b 8ebc e15b a13a
00000380: 4623 633d b699 90bd 5060 87b9 c5d5 b8bd
00000390: 9bb0 bebd c919 b0bd 1166 773c 4f48 42bc
000003a0: cc4b 583c 167e 1f3e 9c91 76bd ad57 6a3d
000003b0: c80b 473d 362f 98ba 5949 15be a03f 73bc
000003c0: 1c5d 793d d17f 9e3c 64b8 95ba cb80 a73d
000003d0: 7a29 71bd 7fd0 08be 42a5 0e3d 1ffc 09be
000003e0: 40bb 09bc 6a99 e0bd 60f0 a1bd 0133 b2bd
000003f0: 0ab5 76bd 64d7 043d 03de d3bd 08ec e2bd
-0.0695956 -0.06569077 -0.077985376 0.043116946 -0.085658975 -0.10402232 -0.06257927 0.1100744
-0.007461571 -0.14360045 -0.069421194 -0.111633 -0.043973036 -0.025175331 0.12288303 0.019395763
-0.14156745 0.15250084 -0.02417404 -0.07489242 -0.040316377 -0.11877306 -0.013459125 -0.041027393
-0.0757541 -0.097763345 -0.0062761107 -0.07468481 -0.020888317 -0.045534212 -0.16207197 -0.050337102
0.10572586 -0.089206934 0.032347023 0.0022857233 -0.030011605 0.16637981 -0.12550066 -0.13871105
-0.061247233 -0.10999469 0.074295215 -0.12114289 -0.03767761 -0.12429003 -0.0071048574 0.011151267
-0.005979421 -0.017844638 -0.1138109 -0.07618444 0.058827307 -0.037681457 -0.0050567924 -0.18221551
-0.07558482 0.034776926 0.047989357 -0.13918272 0.0035189097 -0.06992902 -0.0055452306 -0.093111515
-0.06273313 0.02079582 0.10007242 -0.12487928 -0.028121341 -0.09134712 -0.05476783 -0.043250427
-0.15165526 0.06248615 -0.08601566 -0.117018394 0.045736168 0.099767946 0.07576973 -0.081450224
0.10758416 -0.081699096 -0.06952626 -0.0403726 0.016457792 -0.00096719415 0.020169297 -0.10935984
0.08013363 -0.084056154 -0.06808506 -0.00012813027 -0.054752737 -0.09498724 -0.00017077776 0.017255943
-0.09891418 -0.10234978 0.010253956 -0.050573476 0.037833966 0.118825816 -0.10095452 0.01904516
-0.07253995 -0.11547124 -0.105361395 -0.01348879 -0.10966005 -0.087104365 -0.15985331 -0.04250874
-0.13004655 0.08620156 -0.10582397 -0.07284238 -0.08473636 -0.116841614 0.08337857 -0.104782484
-0.12180971 0.027944738 -0.06995634 -0.051268905 -0.07655966 -0.00536685 -0.032883372 -0.13749047
-0.06705372 -0.10789259 -0.011471569 -0.090856 -0.100377396 -0.08374038 -0.014798189 0.037904102
-0.10522274 0.05022123 0.03364957 0.037775088 -0.12925592 -0.06386058 -0.105961435 -0.10127264
-0.054340493 -0.08027906 -0.11499918 0.0006299555 0.12071018 -0.1428386 -0.083632864 -0.11982954
0.07841109 -0.013342816 -0.15817651 -0.03337313 -0.1083676 -0.0691054 -0.07997776 -0.0968426
-0.14887626 0.048625577 -0.0155601995 -0.051571388 -0.06839898 0.07782086 -0.03494967 -0.07426025
-0.026002724 0.11559489 -0.03967141 -0.015438234 -0.06510249 -0.10820152 -0.057292208 -0.101203956
-0.14394054 -0.13257936 0.028405251 0.02145827 -0.057968248 -0.097436726 -0.11234093 -0.14719045
0.081620365 -0.063485846 -0.05615232 -0.13702744 -0.16979392 -0.1107401 0.054963104 -0.010532621
-0.022894368 -0.14439256 -0.06907186 -0.1614509 -0.1594729 -0.0046665706 -0.12559332 0.11121037
-0.06172802 -0.116763726 -0.15736596 0.08657815 0.08781187 -0.10371362 -0.1479747 0.11504273
0.0731172 -0.060580652 -0.08582474 -0.08265864 -0.08248246 -0.07860764 -0.08006536 -0.16397712
-0.09323887 0.01425189 -0.15977639 -0.060840197 -0.0725518 0.104262 -0.017354527 0.0012310707
0.05545356 -0.07060568 -0.00025820965 -0.09025148 -0.093110286 -0.08598668 0.015100018 -0.01185806
0.013201665 0.15575442 -0.060197458 0.05721252 0.04859522 -0.001161075 -0.14578761 -0.014846712
0.06087981 0.019348057 -0.001142275 0.08178862 -0.058877446 -0.13360785 0.03482557 -0.13475083
-0.00840646 -0.109667614 -0.07907176 -0.087011345 -0.060231246 0.032431975 -0.1034508 -0.11080176
