experiments/exp3/models/checkpoint_critic_3.pth (torch_old, 536855 bytes, 9 tensors)

fc1.weight f4 [300, 33]
00000000: aac2 48bd 4d61 19bd 8f23 ccbc 3d7b abbc
00000010: 974f 1ebe 87b4 06be 63e3 c23d 1848 b0bd
00000020: 4102 b63d 10a6 71bd d15d a4bc 206e 273d
00000030: fd9b 36bb e801 4e3d 830c 4a3d d8cc 593b
00000040: c847 3f3b 7b1d 85be 2d06 89bc ada1 873c
00000050: 4928 753b eb1a bcbb 6d3d 92bd 0ff8 06bd
00000060: 1aec e73c ab82 2dbd 685f a8bd a478 293d
00000070: 514d 6cbd 7c3a 5ebd 2685 12bd 3007 b3bc
00000080: 89a0 e2bd c9db 333c b502 493d e3cf 04be
00000090: 2fbb 943c f356 023d 88ed 54be f1ab a33d
000000a0: 7d55 3a3b b307 703c c1d4 e2bc c57c fd3c
000000b0: 2590 643d f3b9 843c 75db 533d 89c2 433d
000000c0: 4572 d73d af46 d8bd 3cff 60bb 32b7 69be
000000d0: b18e 9b3d e7e7 39bd d4f9 1b3c fec6 8fbc
000000e0: bf5d 133c f0be 3fbd c7e1 cc3c 5b44 e5bc
000000f0: 0a33 8ebd a5fd 3abd 6015 abbb 8c65 223d
00000100: 6041 f33b ed3a 9f3d fc3b 4a3c be4a 063d
00000110: 76d5 973c 0986 d3bd 7ce4 dfbd 044a 09be
00000120: 2488 64be 094b 9e3b 74a1 69bd f62a b53d
00000130: 2330 19bd 9ce5 f23c 7381 adbb 2364 9abd
00000140: 5388 6cbd 3f9c 39bc 00ac 403e f812 f23d
00000150: f84e 13be 3db1 2fbd 12b0 b9ba 472f a73c
00000160: d85f 14bc 7bcd 52bd 9afa 483c ee8a f3bb
00000170: 166f 9d3b e2b6 4b3e 9105 81bb f672 a7bc
00000180: 4ea2 45be c0e4 f33a d7e2 393d 3e46 ffbc
00000190: 0170 493d dc36 dbbb 7547 d1bc 89aa b63d
000001a0: bb40 7c3d 7e23 003b 7100 18bd 67a7 fcbb
000001b0: 031c 9b3c 0274 153b 7cc7 4fba 87a0 a5bc
000001c0: c834 d83c 8818 05bb 4f5b 26bd 3579 1d3d
000001d0: 887d be3c 969b f0bd c88f 2c3d 6fcf 0a3c
000001e0: 7a61 6d3a cb63 b4bb f1d8 e33b e127 3bbc
000001f0: c6ca 97bc 4085 073d 7c79 0a3e f691 ba3d
00000200: 5043 473d df9c 85bd 502c b8bc 3c9a 98be
00000210: 7d30 283d abbd 8cbc 69c6 e33c 574a 3fbe
00000220: 4b1a 3abd a560 03be 0982 b33d f7ff 76bc
00000230: 0abe 50bc ce12 00bd a424 013c 901b ad3c
00000240: 04ba 553c 168a 283d 4ec1 dabc 24f9 183d
00000250: 3c06 60bd edf4 d53d 3c94 c2bd 544d e2bd
00000260: ebef ea3a 7347 e43a 4a33 a63c 08c3 4b3d
00000270: 26af 97bc aa7a be3c e84d 82bd 175d bc3b
00000280: 5be6 2ebd a456 ecbc 9a3e 08bd 3c36 6bbd
00000290: 0e6b 833e 796c f9bd 1b44 2fbd d250 21bc
000002a0: f32e 0dbd e96b 803e c308 d93e 6389 a6bd
000002b0: 712d 353c 950f 06bd 5506 613c 579f 8ebc
000002c0: 4f43 76bb 778a 55bb 8d70 463d f192 973c
000002d0: 40e6 55bc bcc0 72be d669 a0bd dc70 773d
000002e0: 62c4 5ebd 76e7 dabb c093 483b 7003 26bc
000002f0: 14a4 cd3c 0960 683b 4ba9 60bc d48e 36bc
00000300: 222e a93d ed4d 1c3c d8f2 b23c 1e0b 53bc
00000310: 7401 7fbc 0b1f 6a3e 275a 9ebc 8df3 603d
00000320: 1aba 91bc 43c4 053e 1d21 8b3d d072 cabd
00000330: 805d 263d fd2c 5ebd 92b8 ec3d 0f23 d6bd
00000340: 17ab 503d 92b2 e2bc 76e6 073d de0a b63c
00000350: b4e2 393c 27f0 78bd a91d 0bbe 2311 103e
00000360: 1850 883d 6115 2abe e8b5 0dbd 5856 ab3c
00000370: bc6f 233d 4415 f5bc 977c 73bd 8680 ff3b
00000380: f6f0 14bc fcd2 223d 4543 ce3c 0e6f 273d
00000390: e9ca 93bb 6a83 b4bc 96f9 883e e3cb ac3c
000003a0: eabd f9bc 2481 183c d925 3a3d f121 d13d
000003b0: c23c dbbd 82a6 abbd 5060 65bd df3f bd3b
000003c0: 2464 e6bd 7667 9d3c beae 6d3c 62d6 0bbd
000003d0: 7d8a bbbd 03e9 2ebc 54e0 66bc 0ebc 323e
000003e0: 2c36 883d 32cd dc3d 5462 7e3e a4c3 9dbc
000003f0: b391 07bd 1282 263d 522f 16bd 7a6a 013b
-0.04901377 -0.03744631 -0.0249193 -0.020932788 -0.15460049 -0.13154803 0.09516027 -0.08607501
0.08887149 -0.05899626 -0.020064266 0.040876508 -0.0027863972 0.050294787 0.04932834 0.0033233669
0.0029187072 -0.25999054 -0.016726578 0.016556585 0.0037408045 -0.0057405136 -0.07140622 -0.03295141
0.028310824 -0.042360943 -0.08221322 0.041374817 -0.057690922 -0.054254994 -0.03577151 -0.021854013
-0.11065776 0.010977694 0.049074847 -0.12969927 0.018155662 0.031821202 -0.20793736 0.079917796
0.0028432303 0.014650273 -0.02768934 0.030943284 0.05580153 0.016201949 0.051722962 0.047792945
0.10519842 -0.10560357 -0.003433182 -0.2282379 0.075955756 -0.045387175 0.009520013 -0.017550942
0.008994519 -0.04681295 0.025010003 -0.027986696 -0.06943329 -0.04565205 -0.005221054 0.039647624
0.007423565 0.07774911 0.012343403 0.032786123 0.018534403 -0.103282996 -0.10932252 -0.13407141
-0.22317559 0.004830722 -0.05703874 0.08846085 -0.037399422 0.029650502 -0.0052949726 -0.07538631
-0.057747196 -0.011328756 0.18815613 0.11820024 -0.14385593 -0.042893637 -0.0014166853 0.020408286
-0.009056054 -0.051465493 0.012266779 -0.007432333 0.0048045022 0.19893983 -0.003937431 -0.02044056
-0.19300196 0.0018607602 0.045382347 -0.031161424 0.04917908 -0.0066898894 -0.025546769 0.08919246
0.06158517 0.0019552405 -0.037109796 -0.0077103856 0.018934255 0.0022804742 -0.0007926149 -0.020218147
0.026392356 -0.0020308811 -0.040614422 0.03844567 0.023253217 -0.11748426 0.042129308 0.008472308
0.00090553577 -0.0055050603 0.0069533517 -0.011423082 -0.018529307 0.03308606 0.13522905 0.09109871
0.04864818 -0.065240614 -0.022482067 -0.2980517 0.041061867 -0.017180284 0.02780457 -0.18680702
-0.04543523 -0.12829836 0.087650366 -0.015075675 -0.012740621 -0.031267934 0.007882271 0.021131307
0.013044838 0.041147314 -0.026703503 0.037346974 -0.054693446 0.104471065 -0.0950093 -0.110499054
0.0017924284 0.0017416313 0.020288128 0.049746543 -0.018516134 0.02325185 -0.06362516 0.005748402
-0.042700153 -0.028849907 -0.033262827 -0.05742477 0.25667614 -0.12178893 -0.04278956 -0.009845929
-0.034468602 0.2508233 0.42389497 -0.08131673 0.011058197 -0.032729704 0.01373442 -0.017409964
-0.003757674 -0.0032583752 0.04844718 0.018502684 -0.013055384 -0.23706335 -0.078326866 0.060410365
-0.054386504 -0.0066804243 0.0030605644 -0.0101326555 0.025102653 0.0035457632 -0.013712238 -0.011142451
0.08260752 0.009540063 0.021844313 -0.0128810685 -0.015564311 0.22863404 -0.019330097 0.054919768
-0.017788935 0.13063149 0.06793425 -0.0988518 0.040616512 -0.054242123 0.115586415 -0.10455906
0.050944414 -0.02767304 0.03317877 0.022221979 0.011345554 -0.060775902 -0.13585533 0.14069037
0.06655902 -0.16609718 -0.034597307 0.020915195 0.03990148 -0.029917367 -0.05944499 0.0077973036
-0.009090653 0.03975199 0.025178561 0.040877394 -0.0045102728 -0.02203532 0.2675292 0.021093315
-0.030486066 0.009308133 0.04544625 0.10211552 -0.10704948 -0.08381368 -0.056000054 0.0057754363
-0.11249569 0.019214373 0.014506994 -0.03414 -0.09157274 -0.0106756715 -0.01409157 0.1745455
0.066509575 0.107813254 0.24842197 -0.019258328 -0.033097934 0.04065139 -0.036666222 0.0019747303

fc1.bias f4 [300]
00000000: ee38 af3d 4707 313e 02d0 92bd 66ba 4bbe
00000010: f41c b93d 9603 a8bd 88e6 72bd b208 82be
00000020: 92aa 103d f57f 41be 2c26 10be ca91 86be
00000030: 0b60 593c 182b 86bd 34f7 59bd bf95 e2bd
00000040: 3452 4e3c eadd fbbd c9c8 6b3d 615d 84bd
00000050: db5c 333c 4c02 4cbe 8b23 06be 0dc4 6cbd
00000060: 549c 863c f8c5 113d 676b 91bd e34c dbbd
00000070: 7ceb d83d f951 fdbc 720e 28be 8c7c 3abb
00000080: 34a6 e33c d9eb 04be 608a 8fbd 5085 c2bc
00000090: d5a2 623d e026 04be ac6d 493c 65f6 39be
000000a0: 519e 1cbe 3594 83be 2e11 46bd 7c0a 15be
000000b0: 28e6 48be 95e1 53be b3aa 81be 6f30 0ebe
000000c0: 2849 35be 9744 fbbd 5bf1 26be f5ed e63d
000000d0: 59c2 33be d577 e3bc da24 943d d160 bdbc
000000e0: e13e b33d add1 0dbe b2a1 7cbc d723 00bc
000000f0: 0d19 9a3d 48a3 973c b232 81be 79de c9bd
00000100: b158 8abd ebd2 09be 6652 d5bc 1797 68be
00000110: b3d5 063e 59bb 0abe b33a 44be b235 5d3d
00000120: 6886 8cbd c880 ee3d 60a9 17be a09b e0bd
00000130: e487 33bd b128 2dbe 0898 c4bb 850d 07be
00000140: 2017 05be feac d0bd 091c 46be 32a9 45be
00000150: 8722 39bc 21ee 03be 3a99 093e 747f b53d
00000160: ece0 a03d c859 e93c 6877 68be c1f2 59be
00000170: 4683 4dbe 0b8c 3cbe cec7 ddbd ec99 72be
00000180: 88bc 7fbe d573 a7bd 89d3 b4bc c861 09be
00000190: 1979 663d cd24 06be 8627 133d 0b0c 143e
000001a0: f130 5fbd a06b 19be 963f a43c 5488 15be
000001b0: 2d17 5bbe dc68 6abe b9c7 71be fd2f 85bd
000001c0: 69b1 dbbd e9e7 06be 05dc 68bc c9e1 92bd
000001d0: 008c 57be 4674 033e 3a08 2d3e 3972 48be
000001e0: 904a 013c 0724 56be cdcc 55be ee36 b2bd
000001f0: 8700 31bd f05c ffbd 4617 5ebe 8dbc 18bc
00000200: eb77 c1bd 9c36 663d c31b 9bbd 09ee 59be
00000210: 8707 18be b4c4 073d 4e88 3dbe 93d6 27be
00000220: 7db9 e3bd 2c1c 00bc cd43 64be 21cc ff3d
00000230: 4d1c d7bc b9e6 083e b1d8 cdbc 3018 9b3c
00000240: e091 27bd d830 543a d2e4 6abe 9d74 23be
00000250: 70b5 edbd cdaa 913d 361e 3abe ed75 3d3d
00000260: ac71 e83c cde8 b1bd d7a1 943b 94fe 41be
00000270: 1cbf 35be 346a 01be c17f fbbd c531 fabd
00000280: 0f31 af3d edb2 9abd 897c 943c aab4 0ebe
00000290: bd82 74bd 580f 88bd 8f07 55be 8b65 263d
000002a0: 2a68 edbd 3f84 4fbe 2179 3abe a935 cabd
000002b0: 8775 59be 35cd 7dbe cb29 3dbe 5666 3abd
000002c0: 2ede 933c 63dd 5ebe ecad dc3d 6d9f d2bd
000002d0: d19f 99bc cbd1 c3bd 4d84 08be f27e 13bd
000002e0: ee32 bcbd f58b 153e a501 bfbd 4123 d83b
000002f0: a851 2ebe a82b 34be 1b82 f83d d08b 35bd
00000300: 11b4 d0bd 6f36 14bd 7afd 98bd a727 4abe
00000310: a6a6 82bc 7af1 d43b 0e7c 3f3d f33a fe3c
00000320: 0475 45be efec 68be 09fb 3cbe 2a49 353d
00000330: d742 56bb 7c93 873c e21f 313d aadd c1bc
00000340: ea82 aebd d3c6 84bd 145f 61be 04f5 47be
00000350: 9980 60bc 3649 09be 51ec ba3d 0715 c9bc
00000360: 2b86 c13d 3db3 07be c6d2 aebd 05a8 d73d
00000370: 290d 28be 3f95 04bb e328 28be c67a ecbd
00000380: 8a65 013c 14a3 bc3c c7d0 45be 4d42 b8bd
00000390: 0f9e 15bd 34d6 10be 3efa 8bbd 6696 86bd
000003a0: 08e3 f63d 2049 21be 78e1 aa3c 7774 4fbe
000003b0: ddc3 9e3d 7427 8c3b a57b 78be f51f 0a3e
000003c0: 302e 2cbe da64 66be 052c 193e 95dc 32bd
000003d0: b979 8b3d dc4c 43be 8ac9 90bd 4a99 cdbd
000003e0: d063 c23d 9961 3abc 2ae3 bd3d 456b 26bd
000003f0: e5f5 e4bd be56 df3d f9e6 0fbe 9aef e0bd
0.0855578 0.17287932 -0.071685806 -0.19895324 0.090387255 -0.08203809 -0.059301883 -0.2539726
0.03531892 -0.18896468 -0.14077061 -0.26283103 0.013267527 -0.06551188 -0.053214267 -0.11063718
0.012592841 -0.12298186 0.05756453 -0.06463123 0.010947431 -0.19922751 -0.13099496 -0.057804156
0.016431965 0.03558919 -0.071005635 -0.10708024 0.1059179 -0.030922877 -0.1641176 -0.0028455583
0.027789213 -0.12980594 -0.07008815 -0.023745209 0.05533107 -0.12905455 0.012294214 -0.18160398
-0.15294768 -0.2569901 -0.048356228 -0.1455478 -0.19619048 -0.20691521 -0.25325546 -0.13885663
-0.17703688 -0.12268942 -0.16303007 0.112758555 -0.17554606 -0.027767101 0.072335914 -0.023117455
0.087522276 -0.13849516 -0.015419411 -0.007821045 0.07524309 0.018510476 -0.2523399 -0.098568864
-0.06755198 -0.13459365 -0.026040267 -0.22713886 0.13167457 -0.1354803 -0.19163017 0.054006286
-0.068615735 0.11645657 -0.14810705 -0.10967183 -0.043830767 -0.16910054 -0.005999569 -0.13188751
-0.12997103 -0.10189246 -0.19346632 -0.19302824 -0.011299736 -0.12883808 0.13437358 0.088622004
0.078554004 0.028485194 -0.227018 -0.2128401 -0.20069608 -0.18412797 -0.10829125 -0.23691529
-0.24974263 -0.0817639 -0.022073524 -0.13416207 0.05626783 -0.13099976 0.035926364 0.14457719
-0.054490034 -0.14982462 0.020049851 -0.14602786 -0.2139556 -0.22891563 -0.23611344 -0.06503294
-0.10727198 -0.13174404 -0.014212613 -0.07171971 -0.210495 0.12837324 0.1689767 -0.19574822
0.007891312 -0.20912181 -0.20878907 -0.08701883 -0.043213394 -0.12468898 -0.21688566 -0.009322298
-0.09446701 0.056204423 -0.075736545 -0.2128221 -0.14846621 0.033146575 -0.18509027 -0.16390447
-0.111193635 -0.007819217 -0.22291489 0.124901064 -0.026258612 0.13369264 -0.02512774 0.018932432
-0.0409106 0.00080944365 -0.2293885 -0.15962453 -0.11606872 0.07112656 -0.18175587 0.04625504
0.028374515 -0.08686981 0.0045358944 -0.1894477 -0.17748684 -0.1263817 -0.122802265 -0.12216524
0.08554279 -0.07553659 0.01812579 -0.13936105 -0.059694994 -0.066435516 -0.20803665 0.040624183
-0.11592133 -0.20265292 -0.1821027 -0.09873516 -0.2123624 -0.24785312 -0.18472974 -0.04550775
0.01805028 -0.2176414 0.107753605 -0.10284314 -0.018752964 -0.09561499 -0.13331719 -0.036009736
-0.091894016 0.1460417 -0.093264855 0.0065959995 -0.17023337 -0.17594779 0.12134191 -0.04432279
-0.10190595 -0.036184724 -0.07470222 -0.19741689 -0.015948605 0.006498513 0.046749167 0.031033969
-0.19282919 -0.22746633 -0.18455137 0.044259228 -0.0032693648 0.016549818 0.043243296 -0.023665268
-0.085210636 -0.06483235 -0.22008926 -0.1952706 -0.013702535 -0.13406834 0.09127105 -0.02454616
0.09449419 -0.13251968 -0.085362956 0.10530094 -0.1641127 -0.002023056 -0.16421847 -0.11546855
0.007897744 0.02302698 -0.19317923 -0.08997021 -0.03652769 -0.14144212 -0.06834839 -0.06571655
0.120550215 -0.15750551 0.020859465 -0.20259272 0.07752202 0.004277164 -0.24265917 0.13488753
-0.16814494 -0.2249941 0.14958198 -0.043667395 0.06810326 -0.19072288 -0.070696905 -0.10039003
0.09491694 -0.011375808 0.09271844 -0.040629644 -0.11179713 0.10905217 -0.14052953 -0.109832

bn1.weight f4 [300]
00000000: f0f4 433e 50ca 413f 7c32 bd3e 66a7 453f
00000010: 3ce5 543f 0779 823f 854d f63e b39e d23e
00000020: bbaa 413f 2c42 723e 3765 393f 7343 ec3e
00000030: bf0b 243f 85d4 313f b820 e23e d1a1 923e
00000040: 62fb 2a3e 67c7 b93e b315 803d 6a93 2c3f
00000050: 1c6a 803f a6ed 673f a413 743f 443b 763f
00000060: c0c5 893e db25 433e 925a 1f3f c6b9 723f
00000070: aa44 fa3e 5691 c93e b26b 3d3f 1c1b 863f
00000080: 2bb6 d63e 2a41 2c3f ab54 453f 3137 ec3e
00000090: 0315 f03e 7edb e73e 61d5 fb3d f019 b93e
000000a0: 4829 c53e c066 c63e 2009 c43e a6f7 493f
000000b0: 28a5 c43e f1f2 843f 0c4c 2a3f 68f8 4b3f
000000c0: 50fe 033f d2ec 553e eb2e 063f a32a fd3e
000000d0: 0add 123f 766d 0f3f 425a df3e 64c7 a53e
000000e0: d2f3 2b3f 0c5b 253f b15a 4d3f ce2f ad3e
000000f0: d0b6 0b3f 2df2 2d3f b73e 553f 48b3 573f
00000100: 7cd9 033f f59f 603f 4aba 1f3f 5136 313f
00000110: 9002 4a3f 4ca9 683f 7306 eb3e 79a2 393e
00000120: 0eaa 2a3f dfc9 403f 4a24 1c3f 783f 143f
00000130: 8283 253f f53d f93e 59ad 183f ddba 283f
00000140: 4597 433f 18a0 8a3e 0df6 153f 75df bd3e
00000150: dcca 393f 5692 9a3e 2778 343f 0768 eb3e
00000160: 0c8f d03e 8592 5d3f b4fd 6e3f 0fda 503f
00000170: b8e2 763f ee9e 4f3f 7174 283f af6e 7d3f
00000180: f34b 123f 68a7 1e3f 977a 143f d831 de3e
00000190: efd1 113f effe 1a3e 73ea 223f 980f bf3e
000001a0: 1559 3b3f bf45 763f 5ecd 683f 9d9a ca3e
000001b0: c2d5 4f3f 4d81 c03e a226 1a3f aba9 603f
000001c0: 8724 633f 5481 c03e a2ab 283f 45f1 c63e
000001d0: be34 1f3f 9d4b 183f 375d 2d3f 89c9 0d3f
000001e0: bc94 603e aff8 f33e 4449 be3e 728e 963e
000001f0: 9c68 213f 7fb6 f33d 79a5 543f 4769 b13e
00000200: 8909 663f 5633 053f e3dd 9d3e d717 ba3d
00000210: bd03 553f c112 da3e c835 733f 59e0 ca3e
00000220: 7098 cfbc f079 1b3f 5a56 283f 5364 3e3f
00000230: 4fb8 233f cb78 163f 474c 7a3f 274d 073f
00000240: 88f2 da3e c5e2 dc3e 029e 223f 1a14 083f
00000250: b805 993e f6d3 3f3f bc55 503e fb26 d23e
00000260: 65c6 233f 5381 6d3f 716a c83e 6359 813f
00000270: 7167 bb3e 935e 2e3f 5a4e 6d3f 272c 8a3f
00000280: 83e1 5d3e 34c4 cb3e 8999 6c3e d54f 083f
00000290: 0341 6d3f 7603 433f ea1c 353f 6ee4 293f
000002a0: d73e 643f 45af 543f e889 363f 6f67 413f
000002b0: 7278 113f 65c7 453f 2473 843e d929 f53e
000002c0: 1465 693f 9510 023f d9d8 0c3f 4822 003f
000002d0: ee7e ad3e 99f3 543f 21c3 7f3e e847 973e
000002e0: 6bbe be3e 35b4 fe3e 48ea 2f3f 2971 043f
000002f0: b997 153f cf52 993e 227b 1b3f 130e 633f
00000300: c3fb b53e 036b ec3e cbb4 0f3f 46ea 653f
00000310: 4e82 f83e 7ac5 1d3f 2c07 b43e d0a5 5c3f
00000320: 8bd5 2f3f dc96 703f 4090 753f c2fc 353f
00000330: c379 543f b0a7 783f 6bd4 303f 7c1d 413f
00000340: 4887 863e f83b 3b3f fb2b 6e3f 0353 b43e
00000350: b7a9 303f aae8 1a3f 3eed 703f 681a fc3e
00000360: ad0f 4d3f b602 473f bfdd 4a3f a85b 453f
00000370: 5505 073f b817 4e3e b7dc 973c 8a78 533f
00000380: f71b 423f 77f2 373e 336a cd3e 97e4 863e
00000390: e434 f93e cd0e fc3e f829 1b3f c071 103f
000003a0: 9b7a ca3e daee 783f c524 643f 4a6b 1a3f
000003b0: b636 223f 9f4f 5f3e 307a 343f 716b 353f
000003c0: 0969 023f 8732 453f daf0 763f 0a51 4c3f
000003d0: 985c 51bb 21b0 3d3f 1a8c 813f f075 853f
000003e0: f93e 9c3d 5e60 913e d206 373f 1f85 4f3e
000003f0: 0e0a 033f 91d9 e73e 5fec 393f a231 963e
0.19136405 0.7569933 0.3695258 0.77208555 0.83162284 1.0193185 0.48106018 0.41136703
0.7565114 0.23658055 0.72420067 0.4614521 0.64080423 0.69464904 0.44165587 0.2863908
0.16697457 0.36284944 0.06254139 0.67412436 1.0032382 0.90597 0.9534247 0.9618418
0.26908684 0.1905741 0.62247574 0.9481472 0.48880512 0.39368695 0.73992455 1.0477023
0.41935858 0.6728693 0.7708232 0.46135858 0.4689103 0.45284647 0.12296558 0.361526
0.38508058 0.38750267 0.38288212 0.78893507 0.38407254 1.038664 0.6652229 0.7967591
0.51559925 0.20891121 0.5241534 0.49446592 0.5736853 0.560264 0.4362355 0.32378685
0.67168915 0.6459205 0.8021651 0.33825535 0.54575825 0.67947656 0.8329882 0.84257936
0.5150373 0.87744075 0.6239363 0.69223505 0.7891016 0.90883327 0.45903358 0.18128385
0.6666573 0.7530803 0.6099287 0.57909346 0.6465379 0.48680082 0.5963951 0.6591013
0.76402694 0.27075267 0.5857857 0.37084547 0.72575164 0.3018977 0.7049584 0.45977804
0.40734136 0.86551696 0.9335587 0.8158273 0.96439695 0.8110188 0.65802675 0.98997015
0.5714714 0.6197419 0.5799956 0.43397403 0.5696096 0.15136312 0.6363899 0.37316585
0.73182803 0.96200174 0.90938365 0.39571086 0.81185544 0.3759865 0.602152 0.8775889
0.8872761 0.3759867 0.6588689 0.3885595 0.62189853 0.59490377 0.6772036 0.55385643
0.21931738 0.47650668 0.37165272 0.29405552 0.63050246 0.11900043 0.8306499 0.34650633
0.898583 0.5203146 0.3083335 0.09086578 0.8320883 0.42592433 0.9500394 0.3962429
-0.025341243 0.60732937 0.6575676 0.7437183 0.6395311 0.58778065 0.9777264 0.528521
0.42763162 0.4314176 0.6352235 0.5315567 0.29887176 0.749328 0.20345205 0.41045365
0.639746 0.9277546 0.39143708 1.0105404 0.36602357 0.6811306 0.9269768 1.0794724
0.21668057 0.3979813 0.23105444 0.53246814 0.92677325 0.76177156 0.70747244 0.6636418
0.89158386 0.8307994 0.7130418 0.7554845 0.5682441 0.77257377 0.25869095 0.4788349
0.9116986 0.5080655 0.55018383 0.5005231 0.33885902 0.831842 0.2497678 0.29547048
0.37254652 0.49746862 0.6871686 0.5173517 0.58434635 0.2994599 0.6073476 0.8869335
0.3554364 0.46175393 0.56135243 0.898106 0.48536915 0.6162945 0.35161722 0.8619051
0.68685216 0.93980193 0.95923233 0.710888 0.82998294 0.9713087 0.69074124 0.75435615
0.26275086 0.7313838 0.9303586 0.35219583 0.69008964 0.6051127 0.94112 0.49238896
0.80102044 0.7773851 0.7924461 0.7709298 0.5274251 0.20126235 0.018537862 0.82605803
0.7582392 0.17963587 0.40120086 0.26346275 0.48673165 0.49230042 0.60610914 0.5642357
0.39546666 0.9723946 0.89118606 0.6031996 0.6336473 0.21807717 0.70498943 0.7086707
0.5094152 0.77030224 0.9646126 0.79811156 -0.003194606 0.74096876 1.0120881 1.0426617
0.076291986 0.28393835 0.7149478 0.20265625 0.5118722 0.45283177 0.726263 0.29334742

bn1.bias f4 [300]
00000000: 823f 273e 86e6 413d 7aea dfbc f0a2 663c
00000010: 9dfa 623b 4af6 9abd 3fbc ab3c 5f14 1b3e
00000020: 3e1e ac3c 746d 26be cecb 063c 629b 29bd
00000030: 3739 a0bd ebff aa3d bf09 f03c 3a26 f5bd
00000040: 2305 4abd fdcf 623d 853f b43d ba77 b93a
00000050: 1359 953d 5284 553d 1826 873d a952 ab3d
00000060: 30cd 2abd b25b 37bd df2e 69bd 6d5b 273d
00000070: 67a6 553e b027 c13c 7d3f 03be 92e8 e63b
00000080: 9190 3ebc be93 d33d cf11 0fbd d472 e0bc
00000090: b79e 03be c94f 14be 6be4 ce3d fbd4 27be
000000a0: c024 d03c 1d2b 07be d00b 033a c95c 083e
000000b0: 4da8 aebc 1573 593e 7c83 2d3e c71d f83d
000000c0: b47c a23d 13d4 11bd da07 323d 9b5e 233d
000000d0: 733a a83d 4ffd b6bc 7c9b 353b d814 53be
000000e0: c0d1 403e 9f41 3cbd 613d b33d cc22 30bd
000000f0: eeb0 f3bc 6034 853d 2981 05be 6c10 5b3e
00000100: cd30 283c 6d68 4bbe 8ef7 04bd c769 ac3d
00000110: f47f 9d3d 8897 cd3d 4c86 49bd 2b7a 40bd
00000120: bfa5 333d e332 38bd 1daf a7bd b131 223c
00000130: 1ef8 f63d 8e15 7abd 1b95 d93b 6fe4 dd3b
00000140: c391 24be 39e8 8c3c 3e7b adbb 89af 4f3d
00000150: 3a97 c43d 5f64 82be 55d6 b13d bc5a ea3c
00000160: 36d2 77bc 6fb5 b83d 0a1c d0bd 3223 92bd
00000170: 98d0 c43c e94b ce3c 3bdb bf3b 4e7c 213e
00000180: 7b67 a7bd de46 b63b 0cb7 393d a348 0f3c
00000190: 6d4e 793c ca71 68be 0b26 513d 637a 03bd
000001a0: 1e9c 45be fa6f e03c f076 a7bc 74c3 7dbc
000001b0: 6f07 abbc d982 62bd b7df b93d dd4c cf3c
000001c0: 939b 0a3d 5a8a b73b dc40 5c3c c55e 38be
000001d0: f539 063d 4752 363d 1e10 eb3c 64fe 6c3d
000001e0: b229 c23d f718 7fbd 3d5f 81bd a061 843b
000001f0: b944 113d 3b09 04bd 7f0f 67bc 7ae1 b63c
00000200: 19e5 a23d 5896 a6bd d387 0cbd a33c c1bd
00000210: 4a98 8b3d bf00 97bd 8873 933d 4f48 6fbd
00000220: b5d1 713e 1547 ab3d e399 e9bc 58c1 a03b
00000230: 2fbc 7abc d81a 0a3e 27bd 5c3e d8e8 ab3c
00000240: a91d e5ba dcc6 663d 242b bc3d 7a10 043d
00000250: 7988 003d 6eb6 b9bd b558 1c3e 1d48 503c
00000260: 4b98 6bbd 8c66 2e3d 5567 c3bd a914 003e
00000270: 393a 98bd 92bd 0a3d ea09 7dbd 256e b43b
00000280: aa3b 84bd de42 3c3d 4209 6bbd 5897 c13d
00000290: d334 e13d ecfc cb3d 12c5 62bd c722 b23d
000002a0: c0a9 193d 144e 8dbc cdea d43d 5ef4 1bbd
000002b0: d5f8 973c 1bcc f6bd 2022 16bd 65f4 c7bd
000002c0: b900 b13d 074a bf3c 9ef8 13bd d4f9 243d
000002d0: b8b2 0b3e 08fe afbd 523e d7bc 1f32 9b3c
000002e0: eb71 2e3d bb29 2d3d 915f 7a3d 798f 5bbd
000002f0: a907 d33d ac3b a4bd 19b7 c03d 822d 473e
00000300: 50b2 033e f751 0e3a 5fac 15be 6863 b03a
00000310: 377d 1c3c a1d8 d8ba 4f2b dcbc 42fc 99bc
00000320: c5d3 cfbd 8246 b639 fb29 e13d 5945 87bd
00000330: 4f10 083d 4420 e93c 678c 33be 668c 223d
00000340: 3530 ad3d a04b b23c 2ee4 1e3e 19a5 203d
00000350: c6a6 b73c 8688 973b c168 4e39 bba5 55bd
00000360: d14e 80bd 993c 1e3d 3517 073c b8f2 afbc
00000370: af12 e6bc 0172 10bd 7440 113e 363b 713d
00000380: 2ffe 08be d14f 23bc d26e 033e 30d0 41bc
00000390: 3094 593d c408 263d a93e f2ba 2f7f 503c
000003a0: 4421 a53d 9243 9b3d 5b6b 343e 25b8 c3bd
000003b0: d79a ad3c 77b8 4c3b da49 f13c 5b3e 84bb
000003c0: 30aa a2bd c05f 86bc 2970 efbc 9540 dbbb
000003d0: 2120 4cbe 4796 053e 7fce d9bd 8070 ec3d
000003e0: ac9f 883e 9284 023e 162c c93d c09c 24bd
000003f0: 0aab b5bc 2646 5cbd bb18 7d3d 62cb 26bc
0.1633282 0.047338985 -0.027333487 0.014076933 0.003463424 -0.07566507 0.020963786 0.1514449
0.021010514 -0.1625269 0.008227302 -0.04140795 -0.07823413 0.08349594 0.029301522 -0.11970182
-0.049321305 0.055374134 0.08801178 0.0014150061 0.0729238 0.052128144 0.06599063 0.083653755
-0.04169959 -0.04476518 -0.056929465 0.040858675 0.20864259 0.023578495 -0.12817188 0.0070467675
-0.011631147 0.10330914 -0.034929093 -0.027398504 -0.12853514 -0.1448356 0.10102161 -0.1638984
0.025408149 -0.1320004 0.00049990136 0.13316645 -0.021320486 0.21235307 0.16944689 0.121150546
0.079339415 -0.03560264 0.04346452 0.039885145 0.08214273 -0.022337584 0.0027711084 -0.2061342
0.18830013 -0.04596102 0.087519415 -0.043001935 -0.029747453 0.0650413 -0.13037552 0.21392983
0.010265541 -0.19864054 -0.03246265 0.08418613 0.07690421 0.10038668 -0.04920034 -0.04699151
0.04385924 -0.044970404 -0.08187697 0.009899543 0.12059043 -0.061055712 0.006640089 0.006771616
-0.16071229 0.017200576 -0.0052942326 0.050704513 0.09599157 -0.25467202 0.08683459 0.028607719
-0.015125802 0.09018981 -0.10161598 -0.07135619 0.024025247 0.025182681 0.0058549917 0.15770075
-0.08174034 0.0055626472 0.045340583 0.008745345 0.015216452 -0.22699657 0.05106167 -0.03209914
-0.19297835 0.027397145 -0.020442456 -0.015488494 -0.020877568 -0.055300567 0.09075873 0.025305206
0.033839773 0.0056012096 0.013443198 -0.18004902 0.032770116 0.04451206 0.028694209 0.057859793
0.09480609 -0.062279668 -0.063169934 0.004039958 0.03546593 -0.032235365 -0.014102816 0.022324312
0.07953853 -0.081341445 -0.03430922 -0.09435394 0.06816156 -0.07373189 0.0719977 -0.05841857
0.23615153 0.08363167 -0.028515762 0.004905861 -0.0153036555 0.13486803 0.21556531 0.020985052
-0.0017480153 0.05634199 0.09187916 0.032242276 0.03138015 -0.09067999 0.15268214 0.012712506
-0.057518285 0.042578265 -0.095411934 0.12507881 -0.0743298 0.033872195 -0.061777033 0.0055062943
-0.064566925 0.045962207 -0.057381876 0.09452695 0.109964035 0.099603504 -0.055363722 0.086980395
0.0375154 -0.017249145 0.10396347 -0.038074844 0.01855127 -0.12050649 -0.036653638 -0.097634114
0.08642716 0.023350729 -0.03612577 0.040277317 0.13642395 -0.085933745 -0.026274834 0.018944798
0.04258911 0.042276125 0.061126295 -0.053603623 0.103041954 -0.08019194 0.09409923 0.19450954
0.1286099 0.0005429084 -0.14616536 0.001345736 0.009551338 -0.0016544053 -0.02687612 -0.018797044
-0.10147814 0.00034766278 0.10994335 -0.06605024 0.033218678 0.028457768 -0.17534028 0.039684676
0.084564604 0.021764576 0.15516731 0.03921995 0.022418391 0.004624429 0.00019684715 -0.052160006
-0.06265033 0.03863201 0.008245279 -0.021478042 -0.02808508 -0.035264973 0.14184743 0.05889436
-0.13378213 -0.00996776 0.12835243 -0.011829421 0.05311984 0.040535703 -0.0018481809 0.012725635
0.080629855 0.075812474 0.17619078 -0.09556607 0.021191997 0.003123788 0.02945416 -0.0040357537
-0.07942617 -0.016403079 -0.029228287 -0.0066910484 -0.19934131 0.13045608 -0.10635089 0.11544895
0.2668432 0.12745884 0.09822862 -0.04018855 -0.022176284 -0.053777836 0.061791163 -0.010180326

bn1.running_mean f4 [300]
00000000: 976c 873e f1eb ea3d 997c 043c e5f2 503c
00000010: 322f b63d 64ca c73c f1e3 2e3d 23cd 983d
00000020: 23c5 0d3d 9aa3 8d3c 841c 913d f8b3 1dba
00000030: 9f0a c63d ec98 0f3d c386 263d 1a1f b93e
00000040: e837 3d3d 0785 e43b 341c d03d b2af e73d
00000050: f48a 563d 262a 0f3d 72f3 6c3d a748 f23c
00000060: 8b42 a93d 2afd ab3e 868d d23c 282f 5a3d
00000070: f698 3e3e 4878 173e ae60 5b3d 43a9 6d3d
00000080: 1f96 973d 7fe9 e73c 1f77 1d3d 7676 bb3d
00000090: 215b 5e3d db2c c53c 6daf 4f3e fc47 463d
000000a0: f861 c73d 5a60 663c 61c9 233c 9e3e 223c
000000b0: 566c 3c3c ccf7 323e 8429 6a3c 10ed 303e
000000c0: 107d 633d 81e0 f73d e224 4c3d f86b 293d
000000d0: 9a6a 793d 7c7a 883d 4e88 e63d d5da ea3c
000000e0: eecf 123e 1e9e 963d d06b 593d a9b3 df3c
000000f0: 577c 0f3e 13d3 bf3e c052 6f3d f328 353e
00000100: be85 ca3d d416 f93d 5347 db3c 60e6 153c
00000110: c3ec f83d ec13 103e 408c 283d 4b33 813d
00000120: 4ef6 bc3e 2301 ae3d 188c 9f3c 9e58 913c
00000130: b24e 333c f2af 8f3d 8613 f83d 4db9 d23c
00000140: 966c 903c 3fc3 293d 42f3 e03d 24eb 293e
00000150: 0a95 d53d a7ba 9c39 59bf 003e 4cc8 d43d
00000160: c475 3f3e e4db c93e fcca 013d 1b14 823d
00000170: b838 873d 65ca 703d 00ed ba3b b3b8 2c3e
00000180: e43d 143c eed0 3b3d 24e3 d33c 4867 6c3d
00000190: d604 c63d 2e22 343d 9b87 483d e229 d73d
000001a0: e1df 813d 6b62 f53d f5bd df3c 4ebd 873d
000001b0: c5db 523d 82c2 ee3a 33dd b93c bff4 0c3d
000001c0: 089e 273d 8ab3 1b3d 9051 e83d b371 333d
000001d0: 84fe 9b3d bc0a 1a3e cf68 fb3e 15e6 353d
000001e0: f72e 413d ca16 843b d25d 623d d0b7 7c3d
000001f0: 66af f73c 7bc6 5e3c 7cf6 e53d 389e cd3d
00000200: f821 173e 5584 e53d 2c12 5e3d 01de d83d
00000210: d018 b53d 048c d83d e339 083d 5f2d db3b
00000220: e428 023f fbd0 113e 8e0a 843c 909d ea3d
00000230: a67c e23c e4a3 093e 55ff 8f3e 18fc f13d
00000240: ba9a 283c e6c6 823e d8ff 813b 44b8 5f3d
00000250: de5c 3c3e 36ee 093d 3220 b13d 8a29 3b3c
00000260: 968c 293d 0142 8f3d b26e 003d fbcb 723d
00000270: 3439 de3d 4b1b ca3d 70c4 093d d1fc dc3d
00000280: a49d 9e3d 409c f53d 8bfb 663c e8fc 0f3e
00000290: fd9c b53d 9d19 ee3d 6484 bc3d 059b cc3d
000002a0: 1b62 3c3c b68e 4d3d c1b6 683d c83a 153d
000002b0: ec3b 963d 64db 743c a41f 0c3d 806a 983e
000002c0: ea54 5c3e 2ae9 e23b 6b92 5e3d 5acf 733c
000002d0: c35c 5b3d 88d2 083d 050d 913d b24b 0d3e
000002e0: 98a9 053d d8d3 3f3e d434 253e a2ea 6d3e
000002f0: a88e 503d 6338 3e3e 0a3a c03d 9601 303e
00000300: 6a5e 013e da27 113d 630e 3d3d 3953 693d
00000310: 5a62 653c 231f 553d b5f0 9b3d d494 0b3e
00000320: f5c5 273d 3b1a 2e3d 596c de3d 460e a03e
00000330: 9c2b 433e 73ea 803c 5312 673d c2ef 4a3e
00000340: e1cb 1a3d 5fa4 a23d 523b de3c dd25 373d
00000350: 6151 633d daa4 193c 0df7 073e ecbc 8b3c
00000360: ab66 c33d 8ca3 203c 57da b43d 7bde 063d
00000370: 119a ff3d 40d6 933e 289c 253e 9c03 c83d
00000380: 2c87 003e 9752 263e e59d 793d c359 9a3d
00000390: bb9d dc3d 77b2 7f3d ba62 a63d 19f3 bb3c
000003a0: 540b 863e ffb7 7a3d fb85 0c3e da65 0e3d
000003b0: 35a8 c73c 450e 183e c595 e23c 4809 ab3c
000003c0: 5d51 903c dbce 833d 31e3 813e 7301 103d
000003d0: b78a 55ba 1570 073e 7bdc 273d 7e01 983d
000003e0: 77f5 c23e 1118 1a3d 7a85 683e 1b8e 7a3d
000003f0: 1614 e83b d12b cd3d f243 c93d 62d7 3c3e
0.26450035 0.114707835 0.008086347 0.012753223 0.088957205 0.0243885 0.04269785 0.07461002
0.034611832 0.017289925 0.07085517 -0.0006015892 0.096699946 0.035057947 0.040655863 0.3615654
0.046195894 0.006973866 0.10161629 0.11312808 0.05237861 0.034952305 0.057849355 0.029575659
0.08264645 0.33591586 0.02570225 0.053267628 0.18613037 0.14791977 0.053558998 0.05802275
0.0740168 0.028309582 0.03844368 0.09153454 0.054286126 0.02406924 0.20281763 0.048408493
0.09735483 0.014061058 0.009996743 0.009902624 0.011500439 0.1747734 0.014292125 0.17277932
0.05553919 0.121033676 0.04983986 0.041362733 0.06089268 0.06663987 0.11256467 0.0286688
0.14337131 0.07354377 0.053081334 0.027307348 0.14012276 0.37465724 0.058428526 0.17691402
0.098887905 0.12162557 0.026767408 0.009149164 0.12154534 0.140701 0.041149378 0.063086115
0.36906666 0.084963106 0.019475982 0.017742451 0.010944055 0.07015981 0.12113099 0.025723124
0.017629903 0.041445967 0.10983898 0.16593605 0.104288176 0.00029893706 0.12572993 0.10389766
0.18697268 0.39425576 0.03168772 0.06351491 0.06602615 0.05878677 0.005704522 0.16867332
0.009047959 0.045853548 0.025865145 0.057715684 0.09668891 0.04397791 0.04895745 0.105060354
0.0634153 0.11981662 0.027312258 0.06627904 0.05147912 0.0018215927 0.022688484 0.034413096
0.040922195 0.03801302 0.11343682 0.043809604 0.076169044 0.15043157 0.491034 0.044408876
0.04716393 0.004031037 0.055265255 0.061698735 0.030235004 0.013597126 0.11228654 0.100399435
0.14759052 0.11206881 0.05421655 0.10589219 0.08842623 0.10573581 0.03325833 0.0066887583
0.50843644 0.14239876 0.016118314 0.11455834 0.027647328 0.13441426 0.2812449 0.11815661
0.010290796 0.25542372 0.0039672665 0.05461909 0.18394801 0.03367444 0.08648719 0.011423478
0.04139384 0.06995011 0.031355567 0.059276562 0.108507544 0.09868487 0.033634603 0.107904084
0.07744911 0.11992693 0.014098058 0.1406132 0.08867834 0.11625979 0.09204939 0.09990505
0.011498 0.050184928 0.056814913 0.03643301 0.07335648 0.014944885 0.034209862 0.29768753
0.21516767 0.006924768 0.054338854 0.014880979 0.05355526 0.033403903 0.070825614 0.13798407
0.03263244 0.18733156 0.16133434 0.23234037 0.050917298 0.18576197 0.0938607 0.17188105
0.12633672 0.035438396 0.0461563 0.056964133 0.0140005 0.052031647 0.076142706 0.13630992
0.04096027 0.042505484 0.108605094 0.3126089 0.19059604 0.015736794 0.05641396 0.19818023
0.03779209 0.079415075 0.027127896 0.044713844 0.05549753 0.009377683 0.13277836 0.017057858
0.09541067 0.009804618 0.088307075 0.032927018 0.12480558 0.28874397 0.1617285 0.097663134
0.12551564 0.16242443 0.060941596 0.07536652 0.10772272 0.062426057 0.08124299 0.022943066
0.26180518 0.06121063 0.13722984 0.034765102 0.0243722 0.14849193 0.027659306 0.02087845
0.017616922 0.06435939 0.25368646 0.035157632 -0.00081459753 0.1322635 0.04098175 0.074221596
0.380779 0.037620608 0.22707167 0.06117068 0.0070824726 0.10018123 0.09827413 0.18441537

bn1.running_var f4 [300]
00000000: 7f5e da3d 5461 bf3c a5c4 813b 3c01 613b
00000010: 65be 053d 6590 bc3b 8c9f 963c 6ff5 a93c
00000020: 98ad 273c fc8e ad3b f90b a23c 09d0 643a
00000030: 04dd ac3c 8496 033c a7c5 443c fc0e 583e
00000040: bce2 393c 77cc 683b c828 d33c 6a78 163d
00000050: 957a 453c fc52 383c ad6c 903c 4789 da3b
00000060: d46a 083d 60ea 1d3e 8ec0 413c f5ea 833c
00000070: bff8 eb3c 985b 783d fea5 3e3c 5f6a a93c
00000080: e91f 9b3c d43d 243c c3e0 8b3c 9562 b33c
00000090: 35bb 243c a95f 083c 7ff2 9b3d 14fe 833c
000000a0: 83ad d73c 081c 983b a99f 553b 10ae 8b3b
000000b0: be01 a93b d129 583d fbc9 5f3b 50bd f73c
000000c0: 6561 893c 7443 313d bd5f 383c 848d 1f3c
000000d0: 9f76 633c 1a8f a03c c48b 0a3d 2db5 0d3c
000000e0: 7b26 8b3c cbb9 9b3c 0269 ba3c e509 883c
000000f0: 2953 343d b9e8 9d3d f304 b13c 5e74 8d3d
00000100: 2b3c d13c 0134 043d 08d4 cf3b d621 5f3b
00000110: 712a 773d 77c0 183d c31f 703c a563 993c
00000120: 0401 e83d 5987 e73c bb83 783b c57d f23b
00000130: 8414 a93b 647a ef3c f825 a83c ea71 123c
00000140: 2393 d03b 8534 583c 3ff8 033d 0bf8 903d
00000150: bca2 eb3c 7706 8e3a aa84 363d 2224 253d
00000160: e90c 963d 13b5 483e 219f 133c 60a0 c33c
00000170: bc99 a33c 00f6 4a3c f9b8 403b 0b0c 7d3d
00000180: 21a6 453b 8029 4c3c d721 463c 37af a93c
00000190: 8ec8 023d ed12 453c d608 8c3c 45af 093d
000001a0: e795 a83c dbce 003d b6b8 fc3b 6164 d03c
000001b0: 539a a43c e1ea c43a 4940 b83b 2f59 323c
000001c0: 7c84 4f3c 3bda 553c 4fd6 553d 7f29 673c
000001d0: 6efd 7e3c 143f 3f3d 26f1 3b3e e57d 1a3c
000001e0: ad82 633c 97ab 2a3b 0fda 883c 0d63 b33c
000001f0: 0323 313c 8fa6 f63b 37d8 e93c 8521 cc3c
00000200: 14f1 783d f94d e93c 9459 6f3c cb72 283d
00000210: 5a41 0b3d b7ee e53c 9135 213c 8535 a83b
00000220: 7a6b 393e b188 3f3d f603 843b 2f08 373d
00000230: 7da0 cc3b ec97 f23c 2196 033e 1b9f e63c
00000240: c1a9 333b 63cd 713d c9c7 0a3b b425 963c
00000250: 3799 353d 0e23 1e3c b008 f63c 80bb a93b
00000260: 693d 6b3c c846 ad3c 1a7e c83b 8a8f 7a3c
00000270: 0adb 0b3d 23b0 ff3c 0d02 323c b3c4 b93c
00000280: 052a e83c b713 8a3d 91fb a23b 0fd8 5c3c
00000290: 3468 8d3c a6c7 943c e385 fb3c 7112 df3c
000002a0: 4d67 833b 3ce6 813c 318e 8e3c e841 133c
000002b0: b407 c63c d625 a13b 9368 483c baf0 b33d
000002c0: 89fb 993d 79ad 8d3b 7536 753c f28d 353b
000002d0: 3058 5c3c 19c2 db3b d1d7 d13c c150 143d
000002e0: 3d94 283c 806f 4e3d 9263 103d c58a c83d
000002f0: 5583 683c f7e1 883d 321f cc3c 7617 fd3c
00000300: 63ff fc3c 885b 243c f23e 8a3c 741e 873c
00000310: 759c 623b cd5f d83c c976 d13c 5329 3d3d
00000320: 54ca 3d3c df42 443c ba14 153d 8ed0 8f3d
00000330: 6efe 833d cd0d 823b 7d1b 813c 7db4 893d
00000340: 78c9 783c d731 863c ac8b 053c e576 973c
00000350: 99a6 363c c0e7 bc3b ca81 1e3d 16c5 a23b
00000360: cde3 203d 8f11 6e3b 59e6 3d3d 8b77 453c
00000370: 6261 483d c2ba d53d 822b 793d 4fad b93c
00000380: 6e4b d33c 461f 3c3d 915d f03c c783 ad3c
00000390: eb3f ea3c 91f7 a53c 10d0 ea3c 435b 883b
000003a0: 4eb2 663d 7694 b43c a3ed e93c 5e76 533c
000003b0: f485 e73b 43df 513d 5cfe 0b3c 8457 463c
000003c0: 8809 e33b 4c2c 9e3c a9c8 613d 0693 8d3c
000003d0: 34a3 403b 068b 833d ccdd 493c f062 043d
000003e0: 73b2 243e 72f8 363c 1b23 093d ef72 9c3c
000003f0: e96e e23b 39bf 0b3d 0982 c73c 2567 ac3d
0.10662555 0.02336184 0.0039602094 0.003433301 0.032652277 0.005754518 0.018386625 0.020746915
0.010234259 0.005296586 0.0197811 0.00087285094 0.021101482 0.008031491 0.012010015 0.21099466
0.011345562 0.0035522261 0.025776282 0.03673593 0.012053152 0.011250254 0.017629946 0.0066691968
0.033305004 0.15421438 0.011825694 0.016103247 0.028805135 0.060634226 0.011636255 0.020680605
0.018936114 0.010024507 0.017074948 0.021897594 0.010054399 0.008323588 0.07614612 0.016112365
0.026327854 0.0046420135 0.0032596386 0.004262693 0.0051576784 0.052774254 0.003414749 0.030241638
0.016770074 0.04327722 0.011253295 0.00973833 0.013883262 0.019599486 0.033824697 0.008649153
0.016986122 0.019009491 0.02275515 0.01660628 0.04402462 0.07710404 0.021608805 0.06906961
0.025541386 0.032276157 0.0063424148 0.0034047267 0.06034321 0.037292924 0.01465601 0.018724272
0.11328319 0.028262781 0.0037920314 0.007400247 0.0051599164 0.029233165 0.020525917 0.008938292
0.0063651963 0.013196115 0.032219168 0.070785604 0.028764121 0.0010835667 0.044560112 0.040317662
0.07326681 0.19600324 0.009010107 0.023880184 0.019970767 0.0123877525 0.0029407127 0.061779063
0.0030158835 0.012461066 0.012093029 0.020713432 0.031929545 0.012028438 0.017094057 0.033614416
0.020579292 0.031447273 0.007712449 0.02543849 0.020093119 0.0015023613 0.0056228978 0.010885521
0.012665864 0.0130525185 0.052206334 0.0141090145 0.015563352 0.046691015 0.1835371 0.00942943
0.013886136 0.0026042217 0.016705541 0.021897817 0.01081157 0.0075271796 0.028545482 0.024918327
0.060776785 0.028479563 0.014608759 0.0411251 0.03399787 0.02806793 0.009839431 0.005133333
0.18107405 0.04676122 0.0040287925 0.04468554 0.0062447176 0.029613458 0.12850238 0.02815204
0.0027414414 0.059033763 0.002117621 0.018328525 0.04433557 0.009651912 0.03003344 0.0051798224
0.014357903 0.021151915 0.006118548 0.015293011 0.03414444 0.031211918 0.010864747 0.022676801
0.028340349 0.067420416 0.0049738367 0.013479247 0.017261602 0.018161606 0.03070349 0.027230473
0.004010117 0.015856855 0.017401787 0.008987881 0.024173595 0.0049178405 0.012231964 0.08786149
0.0751868 0.004323658 0.014966597 0.0027703014 0.01344876 0.006706488 0.025615605 0.036209825
0.010289249 0.050399303 0.035251208 0.09792093 0.014191468 0.066837244 0.024917219 0.030894976
0.030883497 0.010031588 0.016875718 0.016494013 0.003457812 0.026412869 0.025569336 0.046181988
0.011583883 0.011978834 0.03639672 0.070222005 0.06445013 0.0039689303 0.015760178 0.067238785
0.015184753 0.016381187 0.008150976 0.01848931 0.011148118 0.0057649314 0.038697995 0.004967342
0.039279748 0.0036326384 0.046362255 0.012052427 0.048920996 0.10436012 0.060832508 0.022665648
0.025792804 0.045928262 0.029341491 0.021181 0.028594932 0.02025965 0.028663665 0.00416127
0.05632239 0.022043448 0.028555697 0.012906639 0.007065529 0.05123831 0.008544531 0.012105826
0.0069286264 0.019308232 0.055123005 0.01728202 0.0029394152 0.06423001 0.012320947 0.032320917
0.16083698 0.011167632 0.033480745 0.019097773 0.006910194 0.03411791 0.024353998 0.08418111

fc2.weight f4 [400, 304]
00000000: 2d55 00bd 91ab 373d 15c2 38bd 0319 13bd
00000010: 2f0c b8bd c8ba 65bc 0ffd 6bbd 2713 bf3c
00000020: bd8c 08bc c73f 0ebd d6db 0f3d 7623 babd
00000030: 7808 d5bd 2914 0ebe be14 f9bd 54f1 733c
00000040: a2c7 c2ba 39d4 023e 2d5b 063c fbc6 89bc
00000050: e67c 1d3d 7b86 10bc c624 58bd 79c9 a33c
00000060: 27c6 7b3d a117 09bc 87ba f53c 30e2 0c3d
00000070: 3c1e d73a 1f52 5d3d b5cc 1a3d 2321 3bbc
00000080: a377 033d acd2 023c b178 d8bc 7e1c 3ebd
00000090: 2afe 943d 060b 6f3b dae0 a8bd e7e9 0dbe
000000a0: 2a7f 23be 19ab 11bc 6d44 00be e594 d23c
000000b0: c3e6 34be d640 6bbd c269 c63a 5499 9dbc
000000c0: 8971 65bd 25bd 69bd 2453 b7bd 8681 30bc
000000d0: e449 4cbd 7fb4 8dbb 15e1 cf3c 1e27 66bd
000000e0: 090b 6ebc 3b58 75bb c918 3abd 1c56 d5bd
000000f0: 7d99 17be d687 65bd 2ab0 c73a d02b 9c3d
00000100: 452b d93b fb2f 9a3c 8b2e 9c3c df68 68bd
00000110: 6612 713c 3490 0d3d 6840 2f3c 877b da3d
00000120: a527 353c 853e 2fbd 671c 97bc 6a10 d1bc
00000130: b84e d5bc d1a9 28bc 615a 7cbc 43e7 51bd
00000140: a81f b5bc e152 1ebe 4295 ab3d 2177 b3bb
00000150: c5ff 39bd d20a c03d 3d33 493d 0a21 f83c
00000160: 47ab 2f3d 4d1d 053d 9a20 b0ba 4693 323c
00000170: 2635 823d 6fe3 063d 4efc 12be 9270 e23d
00000180: a363 163d d900 64bd c4cf 7cbd d612 9dbd
00000190: e209 e3bc 4a5e eb3d d0d5 ac3d ed34 1cbd
000001a0: 7e50 d839 04f8 63bd e71f 30bd 2d80 90bd
000001b0: 10fe c3bd 6eb2 d93c e0fd 983b f63f 02bd
000001c0: 6825 7f3d c593 a3bb 87e7 60bd d2e5 70bd
000001d0: 08f2 043d 593c 463c a4d3 843c cbc3 96bc
000001e0: 85ca 823b e851 e43b dbde 56bd fc99 243d
000001f0: 1947 5e3c 6125 d9bd 5850 2ebd cb1f cbbc
00000200: 2aa7 90bb c9c7 be3d 3207 7ebd c5a8 193b
00000210: e7ac 5c3d 1f9e edbd 79d7 63bc 6a14 bbbd
00000220: 173e 5ebd 9972 59bc e027 cdbc 68b6 bfbc
00000230: 7468 593c e482 343d 2b56 a83b 4d96 a7bc
00000240: bd16 abbd 6ca0 62bd bc1b 2fbc 2601 35bd
00000250: 99c3 3fbd 4419 a5bd f36b 9a3c 6331 afbd
00000260: be3e d6bc 58a1 18bd 3a73 86bd cabe 57bd
00000270: 4bc4 8b3d 60f8 393d 59af 1a3b 1640 383d
00000280: 71bc b33d 243b 23bd 16a2 613d bcc3 0bbd
00000290: 6b48 2cbd 99b0 3abe 5143 12bd 0387 c73b
000002a0: 98e1 e53d fefa 4e3d 93d0 86bd 2df9 45bd
000002b0: 2411 c33c b9bd bcbc c1ea 27bd 6078 023d
000002c0: b5c8 d7bd 45b1 153d 7f7a 9abc b253 29be
000002d0: 4ee8 2a3c 9043 eb3a 89e1 31bd fec8 a6bc
000002e0: 9b8a 89bc 0720 86bd 88ef 55bd 5a02 f0bc
000002f0: f6ea 56bd e6df 143d 58ae ad3c b40c fa3c
00000300: 596b 19bd 608b db3c 686d 5e3d 5d73 76bc
00000310: cd5a f0bc 1ac1 45bd cf36 b13c 9194 35bb
00000320: 1940 a0bd 2769 39be 605f e93a e09a 693d
00000330: 1970 67bc 5f03 01be 5d42 efbc fa74 593d
00000340: b566 9c3d 6ee0 543d ec6f 70bc 7d25 2cbd
00000350: 994f e73c 3428 b2bd 9201 8abd 88bd bf3d
00000360: 4e8c dd3a 63f7 54bd 8618 98bc 76e5 373d
00000370: a62c 273c a00f 0b3d c926 d1bd 5b56 07bd
00000380: 0868 2a3d c29b f0bc 564e afbb f8c9 f6bc
00000390: 964c b43c b954 863c e14a 253d a2a1 e4bc
000003a0: 995c a43d 1def 28bd 43c0 9cbc 2c91 8a3c
000003b0: eea6 d9bc 3494 673d dbed 69bd 6b6f c13b
000003c0: 61ae 3f3d 706e 26bc fafe bebc d144 603d
000003d0: 3496 cc3d 4443 553c 1cb6 21bd 0e12 a23c
000003e0: cda5 8bbd ffb8 c5bd 6ebb d0bd 929f b5bc
000003f0: 7480 44bd e832 893a d0b0 453d fb68 a43d
-0.03133123 0.044841353 -0.045106966 -0.035912525 -0.08986699 -0.014021583 -0.057614382 0.023324562
-0.008334336 -0.03472879 0.03512176 -0.09088795 -0.10402006 -0.13874878 -0.121621594 0.01488908
-0.0014860521 0.12776269 0.008200449 -0.016818514 0.03844919 -0.008821125 -0.052769445 0.01999353
0.06146827 -0.00836745 0.02999617 0.034395397 0.0016412209 0.054033395 0.03779288 -0.011421475
0.032096516 0.007984798 -0.026424738 -0.04641389 0.072750404 0.0036475076 -0.08246012 -0.13858758
-0.15966478 -0.0088908905 -0.12526102 0.025705764 -0.17666154 -0.05743488 0.001513772 -0.019238152
-0.05601648 -0.057065148 -0.08951405 -0.010773068 -0.049875155 -0.0043244953 0.025375882 -0.05618965
-0.014528998 -0.0037436623 -0.045433793 -0.10416815 -0.14804645 -0.056037746 0.0015234996 0.07625544
0.0066274726 0.018821707 0.019065162 -0.056740638 0.014713859 0.03456135 0.010696508 0.10668092
0.011056815 -0.042784233 -0.01844616 -0.025520522 -0.026038513 -0.010294394 -0.015402407 -0.05124594
-0.022109821 -0.15461303 0.08378078 -0.0054768478 -0.045409936 0.09377064 0.04912113 0.030289192
0.042887952 0.032498647 -0.001343745 0.010899371 0.063577935 0.03293174 -0.14354059 0.11056627
0.036716115 -0.05566487 -0.06172158 -0.07669608 -0.027714673 0.114925936 0.08439219 -0.03813641
0.00041258702 -0.055656448 -0.042999174 -0.070556976 -0.09569943 0.02657434 0.004668936 -0.03179928
0.062291533 -0.0049919807 -0.0549083 -0.058812924 0.03245738 0.012099349 0.0162142 -0.018403908
0.0039914274 0.006967772 -0.052458625 0.040185913 0.013566756 -0.106028326 -0.04255709 -0.024795434
-0.0044144588 0.0931545 -0.06201858 0.0023446542 0.05387583 -0.11602425 -0.013906353 -0.09134753
-0.054258432 -0.013271951 -0.025043428 -0.023402408 0.0132695325 0.04407014 0.005137225 -0.020457411
-0.08353946 -0.05532877 -0.010687765 -0.04419055 -0.046817396 -0.0806146 0.018850302 -0.08554342
-0.026152965 -0.037263244 -0.065649465 -0.052672185 0.06824549 0.045402884 0.002360305 0.044982992
0.08776177 -0.039851323 0.055086218 -0.034122214 -0.04206125 -0.18231429 -0.03570873 0.0060890927
0.11224669 0.050532334 -0.06582751 -0.048333336 0.023811884 -0.023039686 -0.040995363 0.03185308
-0.10536329 0.03654601 -0.018857239 -0.16535833 0.010431362 0.0017949212 -0.043427978 -0.020359512
-0.016789725 -0.065490775 -0.052230388 -0.029297996 -0.05247017 0.03634634 0.021201298 0.030523635
-0.03745589 0.026799858 0.054303557 -0.015042153 -0.029340172 -0.04827986 0.02163258 -0.002770696
-0.07824726 -0.18106519 0.0017804913 0.057032466 -0.014125847 -0.12598942 -0.02920645 0.053090073
0.07636777 0.051971845 -0.014675122 -0.04202794 0.028236197 -0.086990744 -0.06738581 0.09362322
0.0016902776 -0.05199374 -0.018566381 0.044896565 0.010203516 0.033950448 -0.10212476 -0.03304134
0.04160312 -0.029371146 -0.0053499145 -0.030125603 0.022009175 0.01639782 0.040354613 -0.027909104
0.08025474 -0.04124366 -0.019134646 0.016914926 -0.026568856 0.056537822 -0.057111602 0.0059031746
0.04679716 -0.010158166 -0.023314942 0.05475313 0.099895865 0.013016526 -0.039480314 0.019784
-0.06818733 -0.09654426 -0.101919994 -0.022170816 -0.047974065 0.0010467442 0.048264325 0.08027836

fc2.bias f4 [400]
00000000: f0a5 69bd bd65 44bd c741 03be e5f0 84bd
00000010: ed5c c93d 6baa 47bd c9e1 b5bd fe75 fb3d
00000020: cb8d 08be 6059 11be bf9b 75bd 6784 40bd
00000030: 50b9 1cbd 5294 a93c 83fa 473c bc0f 183d
00000040: a127 153d 0bd5 ce3d cbc0 7b3d edf8 23be
00000050: 932a a9bd d815 03be ec5a e33b 6ffc 183d
00000060: 4b2b c9bd 97d3 dfbd c9a9 95bd 2aaa b5bd
00000070: e86a 1dbc 34fe d9bd b1cb c1bd 2f73 95bd
00000080: d6bc 113e 1751 8f3d ec22 683d af74 d2bc
00000090: a15d 603d b490 f03d 98cd f3bb a51c e7bd
000000a0: e444 3e3d 3ae2 dcbd a9e2 9d3c 1930 35be
000000b0: 4277 a7bd e877 02be 2eac d8bd 8e9e 57bd
000000c0: 2dd9 823c 3419 22bd fc74 86bd 46c5 26bd
000000d0: de54 0dbc de66 84bc 470c d4bc eab3 f6bd
000000e0: f6fd c5bd 737f 933c 267c a73d f27c 563d
000000f0: ce04 e13d fbc7 e23d 1f2d b6bd ca9c c1bd
00000100: 37c9 afbd 2e6d b93d 17c3 113e 663d 2bbe
00000110: 0e8c c2bd 73e6 cabd b7c2 bcbd ca01 463d
00000120: 85c8 1cbe 720d 873d 017e 8dbd 6528 b1bd
00000130: 100a 09be 5d10 8fbc a842 d33c cada 823d
00000140: 486e dc3d d2fe fdbd cbf7 07be e73f d13c
00000150: 3f6f 533d e602 c23d 76c8 743d 376a fbbd
00000160: 2b3a 993d 9cc3 c4bd c497 05be d231 2bbe
00000170: 4eee 223e 9e13 24bd 438a 0dbd 7ffa 26be
00000180: b50c a8bd 5e59 44be e1c2 9e3b be1e 1a3e
00000190: cf94 943d 3374 793d f9ac 8a3d 88df 333c
000001a0: 8a89 8ebc 23d7 1abd 8319 0ebe 215f 4fbd
000001b0: d092 b3bd 4dae 85bd dd95 f8bd 326d c53c
000001c0: 95c9 92bc 2355 413e f55a ebbd 9873 6cbc
000001d0: fa83 84bd 0358 fabd 2dd3 033e 4001 33be
000001e0: b981 afbd 3930 94bd 46ad c53c 541a f13d
000001f0: bf6c d43d 9ae5 773d 69a6 3bbd 2a2d 32be
00000200: 85da 0cbe 797d 28be 9b8c 36b9 5efd 743d
00000210: b406 36be 56a4 c2bb edda 20be 8a3a 283d
00000220: f3cc 80bc 6acb 273d 5f68 10bc cd1c febd
00000230: 5955 d3bd 4771 ac3d 20fe 0dbe 9075 10be
00000240: 7216 8fbd 9454 bf3d aaec 083d 3fc9 a33d
00000250: 36f8 053e 3013 27be bc7c 1fbd 654a b5bd
00000260: 7a57 a53d 7675 9e3c c43d c6bd f9f3 633d
00000270: c90f acbd b99e f3bc fb00 5e3c 9266 0abe
00000280: 25ce ebbd 96b1 11be cfd4 c23d 33d0 eebd
00000290: ecca 39be dad0 4e3d 31c2 b6bd c7af b7bd
000002a0: 98a4 63bd a942 143e 6b59 053d 9909 31be
000002b0: f4ce d4bd 6432 acbd c47a 8dbd a946 833c
000002c0: 6039 973d 0c8b dabd 8c5e d4bd 343e 793d
000002d0: 3367 b33b 7229 6ebd 442e 1ebe 5963 7c3c
000002e0: 102f 463d 276e e6bd 6525 513c 266d 23be
000002f0: 47b0 09be 0fba 3abd 7247 5dbd 2545 d7bd
00000300: acac c53d 50fd aabd 5fc7 eb3c 32c5 4cbd
00000310: 98a4 b8bd faa6 0d3b 987f f23c 7fdb dabc
00000320: 483a 42be 5ada e7bd e6b7 0abe a01a a53d
00000330: f423 ea3d 5982 d4bd ed62 ffbd 3630 8c3d
00000340: 908f c43d 507a cabd 352d 013d b0e3 88bd
00000350: 870d 8dbd 3d43 90bd d765 fb3d e6f7 26be
00000360: 74bd c6bd 53c5 35bd 0569 59be 6461 0ebe
00000370: 14f1 7ebd 7521 1f3e f3f0 3cbd 51f5 cc3d
00000380: 7cfe ad3d df29 c9bd 8364 0bbe 3a4f 2dbe
00000390: 386b c1bd 2e22 86bd af4e 2c3d 1313 023e
000003a0: 2a6f 58bd 1925 053e de1f 0cbd 08d2 8c3d
000003b0: 416c 883d d290 6e3d d72f 71be 833f ef3d
000003c0: ad70 3cbd 7f2d 323d e8e7 57be ddab e53d
000003d0: 3788 153d 90cc 35be 87c4 12be c38c e6bd
000003e0: c6c9 42be 1b86 a2bd 5d86 5fbd 5fb5 0a3e
000003f0: e64b 743c ec5e b23d 4226 0dbe c138 edbd
-0.057043016 -0.047948588 -0.12818061 -0.064912595 0.09832177 -0.048746508 -0.08880956 0.122783646
-0.1333534 -0.1419425 -0.059962984 -0.04700127 -0.038262665 0.020700607 0.012205723 0.03712438
0.036414746 0.100992285 0.06146316 -0.16012926 -0.082600735 -0.12801301 0.006938329 0.037350114
-0.098227106 -0.109290294 -0.073077746 -0.08870347 -0.009608008 -0.106441885 -0.09462679 -0.0729736
0.14232191 0.069978885 0.05667393 -0.025690405 0.05477679 0.1174635 -0.00744028 -0.112847604
0.046452418 -0.10785337 0.019273119 -0.17694129 -0.081770435 -0.12741053 -0.10579716 -0.052641444
0.015972698 -0.039574817 -0.06565282 -0.04071548 -0.008626191 -0.016162332 -0.02588476 -0.12046035
-0.0966758 0.018005108 0.08177976 0.05236525 0.109872445 0.110732995 -0.08895325 -0.09453733
-0.085833006 0.090540275 0.14234577 -0.1672264 -0.094993696 -0.09907236 -0.092168264 0.04834155
-0.15310867 0.06594361 -0.06908799 -0.08650283 -0.13382745 -0.017463857 0.02578862 0.06389387
0.10763222 -0.12402119 -0.1327812 0.025543166 0.051619764 0.09473209 0.059761487 -0.12276118
0.07481798 -0.09607622 -0.13046175 -0.16718224 0.15911219 -0.04005777 -0.034555685 -0.16306494
-0.08205549 -0.19174716 0.0048450087 0.1505079 0.072549455 0.06090183 0.06771273 0.010978587
-0.017399568 -0.037802827 -0.1387692 -0.05062783 -0.08768237 -0.06527386 -0.12137959 0.02409992
-0.017918387 0.18880133 -0.11491958 -0.014431857 -0.06470485 -0.12223818 0.12873526 -0.17480946
-0.085696645 -0.0723576 0.024130475 0.117726 0.10372304 0.0605217 -0.045812998 -0.17400041
-0.13755234 -0.16454114 -0.00017409252 0.059811942 -0.17775995 -0.0059400005 -0.15708514 0.041071452
-0.015722727 0.040965475 -0.0088139465 -0.12407837 -0.10319013 0.084200434 -0.13866472 -0.14107347
-0.06986703 0.09342304 0.033428825 0.07997369 0.13082966 -0.16315913 -0.038937315 -0.0885208
0.080733255 0.01934312 -0.096797496 0.055652592 -0.08401448 -0.02973877 0.013550038 -0.1351569
-0.11513928 -0.142279 0.09513246 -0.116608046 -0.18143815 0.050492145 -0.08923758 -0.08969074
-0.05557689 0.14478554 0.03255598 -0.17288817 -0.10391036 -0.08408049 -0.06908181 0.016024904
0.0738399 -0.10671052 -0.10369596 0.060850337 0.005474949 -0.058144994 -0.15447336 0.015404546
0.048384726 -0.11251479 0.012765263 -0.15959606 -0.1344615 -0.045587596 -0.054023214 -0.10511235
0.09652075 -0.08349097 0.028781591 -0.049992748 -0.09015769 0.0021614418 0.029601857 -0.026715992
-0.18967545 -0.11320944 -0.13546714 0.08061719 0.11432639 -0.10376424 -0.124700405 0.06845133
0.09597695 -0.098866105 0.031537253 -0.06684053 -0.06887346 -0.07044075 0.12275284 -0.16305503
-0.09704104 -0.044377636 -0.21231468 -0.13904339 -0.06224163 0.15540107 -0.046128225 0.10007728
0.08495805 -0.098224394 -0.13612561 -0.16924754 -0.094442785 -0.06549488 0.042067226 0.12702589
-0.05284039 0.13002433 -0.03421008 0.06875998 0.06661273 0.05824358 -0.23553406 0.11682036
-0.046005893 0.04350042 -0.21084559 0.11214421 0.036506858 -0.17753816 -0.14332782 -0.11257317
-0.19022283 -0.07935735 -0.0545715 0.1354575 0.014910674 0.08709511 -0.13784125 -0.115830906
