experiments/exp3/models/checkpoint_actor_6.pth (torch_old, 529855 bytes, 6 tensors)

fc1.weight f4 [300, 33]
0	0x3e58f027	0.21185361
1	0xbea7e94b	-0.32795176
2	0x3f5123f5	0.8169549
3	0x4018cf0d	2.3876374
4	0x3e93c83e	0.2886371
5	0xbe97fb56	-0.29683942
6	0xbf8920b7	-1.0713109
7	0x3e4c5258	0.19953287
8	0x3d9bc23a	0.07605405
9	0x3f22b9b3	0.63564605
10	0xbd7da28f	-0.061922606
11	0xbd65931e	-0.056048505
12	0x3e260a25	0.16214807
13	0xbe7fcd99	-0.24980773
14	0x3eeb8aa2	0.46004206
15	0xbf2c0d4c	-0.6720779
16	0x3f7c700a	0.9860846
17	0xbec0b02b	-0.37634405
18	0x3ed71fc7	0.42016432
19	0x3fae0136	1.359412
20	0x3e8a6848	0.27032685
21	0x3e192195	0.14954217
22	0xbdcac191	-0.09900201
23	0xbd608c94	-0.054821566
24	0x3e4ece1b	0.2019581
25	0xbedabfa9	-0.4272435
26	0x3eb66a6a	0.35628062
27	0x3f1818da	0.5941292
28	0x3e365eac	0.17809552
29	0x3d5ae84e	0.0534442
30	0xbf29e266	-0.6636108
31	0x3c82e20c	0.015976928
32	0xc00d8800	-2.2114258
33	0xbe10e9cd	-0.14151688
34	0xbf1fc607	-0.6241154
35	0x3ed8d0eb	0.42346892
36	0xbff589b5	-1.918265
37	0x3f892cc3	1.0716785
38	0xbe92a00d	-0.28637734
39	0xbed8e0af	-0.4235892
40	0x3ceff02e	0.029289331
41	0x3eec360e	0.4613499
42	0xbeaabbd2	-0.3334642
43	0x3ebd566d	0.3698
44	0xbd3d1c28	-0.04616943
45	0x3e76273f	0.24038409
46	0x3f52f1a5	0.8239997
47	0x3f511736	0.8167604
48	0xbd7dd699	-0.061972234
49	0x3ec6a61d	0.3879861
50	0x3f5ae20c	0.8550117
51	0x3e63133e	0.22175309
52	0xbfa1d379	-1.2642661
53	0xbd8211fb	-0.06351086
54	0x3e11fae3	0.14255862
55	0x3ef522c4	0.47878087
56	0xbe03196e	-0.1280267
57	0xbe77a1f1	-0.2418287
58	0x3e1639f9	0.14670552
59	0xbf1096e0	-0.56480217
60	0x3f76ccab	0.9640605
61	0xbe6e4aed	-0.2327077
62	0x3d475e2e	0.0486738
63	0xbf6ce13f	-0.925312
64	0xbd30e994	-0.043191507
65	0x405e17bc	3.4701986
66	0xbf077987	-0.5291981
67	0xbddd5bf2	-0.10808553
68	0xbf02acdb	-0.51045007
69	0x3f1659ab	0.5873057
70	0xbfb1ff98	-1.3906126
71	0x3fb80465	1.4376341
72	0x3fe90534	1.8204713
73	0x3e44f333	0.19233398
74	0xbe03496e	-0.1282098
75	0xbeb1d9d8	-0.34736514
76	0x3d8857d6	0.066573784
77	0x3d828b02	0.0637417
78	0x3e3fc6ff	0.18728255
79	0x3f3c7b1f	0.7362537
80	0x3e241607	0.16024028
81	0x3ebb16c2	0.365408
82	0xbbbdf9c0	-0.005797595
83	0x3fc41d91	1.5321523
84	0xbf2c4773	-0.6729652
85	0x401750a5	2.3642972
86	0xbbb0fd99	-0.005401325
87	0xbc6588cf	-0.0140096685
88	0x3e4472ce	0.1918442
89	0xbd9b83ac	-0.07593474
90	0x3e8f34c0	0.27969933
91	0x3f1dcf9e	0.61644924
92	0xbed44bbb	-0.41464028
93	0x3f83318b	1.0249494
94	0xbc366c18	-0.01113417
95	0xbc7d8f8c	-0.015476119
96	0xbf873332	-1.0562499
97	0xbd4b78d6	-0.049675785
98	0x3ddbe40a	0.107368544
99	0xbcc85408	-0.024454132
100	0x3fc91d9f	1.5712165
101	0xbce71c19	-0.02821164
102	0x3f7b9519	0.9827438
103	0xbfb28ed1	-1.3949834
104	0x3fed1ed2	1.8525031
105	0xbeda2334	-0.42604983
106	0x3e7312e7	0.2373768
107	0xbf11ccb4	-0.5695298
108	0xbeff4d1b	-0.49863514
109	0x3df43d9f	0.11925816
110	0x3ddbb559	0.10727949
111	0x3dc827a7	0.09773188
112	0x3f0170e3	0.50562876
113	0xbf37294c	-0.7154739
114	0xbe9d5d18	-0.30735087
115	0x3fbb4fd5	1.4633738
116	0x3f5cc9fb	0.862457
117	0x40025b0e	2.0368075
118	0xbd6b4595	-0.057439405
119	0x3d2dfdf6	0.042478524
120	0xbee3045b	-0.4433926
121	0xbec0c3f4	-0.376495
122	0x3d180968	0.037118345
123	0x3d11cfd1	0.03559858
124	0xbe008db4	-0.12554055
125	0xbe125825	-0.14291437
126	0x3f4b45ca	0.79403365
127	0x3ef6308a	0.48083907
128	0x3cb8d8f8	0.022564396
129	0xbf3f6538	-0.7476382
130	0x3d650c5c	0.05591999
131	0x3fcb96e3	1.5905422
132	0xbe84ac66	-0.2591278
133	0xbf351f69	-0.70751053
134	0x3ed9698e	0.42463344
135	0xbf2e353a	-0.6804997
136	0x3f37e4d4	0.7183354
137	0x3f856ff1	1.0424787
138	0x3d2f6905	0.042824764
139	0xbd7c9d35	-0.06167336
140	0x3f175439	0.5911289
141	0x3e190f34	0.14947206
142	0x3dc86ac7	0.09785991
143	0x3e0cf0e5	0.13763769
144	0x3d0f7f4a	0.0350335
145	0x3e48e7ba	0.19619647
146	0x3f8dbe54	1.1073709
147	0xbe36b24a	-0.1784145
148	0xbdbb4663	-0.091442846
149	0x3f41ef6e	0.75755966
150	0x3ed59c08	0.41720605
151	0xbeaede25	-0.34153858
152	0x3cd6fe89	0.026244419
153	0x3eed97e3	0.46404943
154	0x3db2f905	0.08738903
155	0xbd9db464	-0.077004224
156	0x3e981b26	0.29708213
157	0xbdea4da8	-0.11440593
158	0x3e31a037	0.17346273
159	0x3f7f0cd0	0.99628925
160	0x3f3ee31a	0.7456528
161	0xbbccc550	-0.0062491074
162	0xbf709034	-0.93970037
163	0x3d04dc4a	0.032436647
164	0x3e8ed5e4	0.2789756
165	0x3eeeb008	0.46618676
166	0xbe1b6f4c	-0.15179175
167	0xbe2645e9	-0.16237606
168	0xbec5124c	-0.38490522
169	0x3ebab3d9	0.36465338
170	0x401e71a3	2.4756858
171	0x3f7f0796	0.9962095
172	0x3e89454b	0.2681068
173	0xbee8d2ac	-0.4547323
174	0xbf33f5ac	-0.7029674
175	0x3e2dd66d	0.16976328
176	0xbdb51b08	-0.088430464
177	0xbd82f0c0	-0.06393576
178	0x3e795146	0.2434741
179	0x3ed05c5c	0.40695465
180	0x3e8f89e3	0.28034887
181	0xbef8ef66	-0.48620147
182	0x3f0c50fe	0.54811084
183	0x3f4e057a	0.80477107
184	0x3ede17e6	0.43377608
185	0xbe46e682	-0.19423869
186	0xbe78d8d2	-0.2430146
187	0x3e7536a5	0.23946626
188	0x3dc1dab4	0.094655424
189	0x3e2bbe0e	0.16771719
190	0x3ddf0dbd	0.10891292
191	0xbf6e331e	-0.9304675
192	0x3f82402a	1.0175831
193	0x3e69e40a	0.22840896
194	0xbd641f6d	-0.055694032
195	0xbf8a2014	-1.079104
196	0xbd1417e8	-0.03615561
197	0x3f8a80ff	1.0820616
198	0x3f1661a7	0.58742756
199	0x3f2231ff	0.6335754
200	0xbe36f549	-0.17867006
201	0xbfbee4ac	-1.4913535
202	0x3eb51b59	0.35372427
203	0x403e38b6	2.9722114
204	0x3e9d470d	0.3071827
205	0x3e3edf5d	0.18639894
206	0x3f5114b7	0.81672233
207	0x3e7f5fdf	0.24938916
208	0x3bc37541	0.0059649055
209	0xbe003305	-0.12519462
210	0x3e7ebb1c	0.24876064
211	0xbea249ef	-0.31697032
212	0xbea57434	-0.32315218
213	0x3ea1a83d	0.31573668
214	0xc014ebeb	-2.3268993
215	0x4003c76d	2.059047
216	0x3f00099b	0.50014657
217	0xbee60db8	-0.44932342
218	0x3d532de1	0.051557425
219	0x3ea883ae	0.32912964
220	0xbe25e08e	-0.16198942
221	0xbeda53b4	-0.42641985
222	0x3dcd2adc	0.100179404
223	0xbe35c2c7	-0.17750083
224	0xbd849632	-0.0647396
225	0x3f8552c5	1.0415884
226	0xbe55fa76	-0.20896325
227	0x3d678bda	0.056529857
228	0xbf84e615	-1.0382715
229	0x3d05f178	0.032700986
230	0x40293fc3	2.6445167
231	0xbf3e26c5	-0.7427791
232	0xbf167453	-0.58771247
233	0xbdd6fa08	-0.104969084
234	0xbfedcb6d	-1.8577706
235	0xbf5d282e	-0.86389434
236	0x3f6e2cd6	0.93037164
237	0xbef1bd94	-0.4721495
238	0xbe901fc7	-0.28149244
239	0xbe7461fa	-0.238655
240	0x3edf42be	0.43605608
241	0xbd00188e	-0.031273417
242	0xbe5b277a	-0.21401778
243	0x3db6434e	0.08899556
244	0x3f10dcc8	0.56586885
245	0xbc0c959f	-0.008580594
246	0xbe89eec7	-0.26939985
247	0xbfe158c7	-1.7605218
248	0xbfb78e3e	-1.4340284
249	0xbf0725a6	-0.5279182
250	0x3e8044fe	0.25052637
251	0x3de7b1b5	0.11313192
252	0xbe0e9a46	-0.13926038
253	0xbdb463cd	-0.08808098
254	0x3e057bf5	0.13035567
255	0xbe95639e	-0.29177564

fc1.bias f4 [300]
0	0xbf0002ba	-0.5000416
1	0xbf496179	-0.78664356
2	0xbf73ff25	-0.95311195
3	0xbf5f9c2a	-0.8734766
4	0xbf5c25ca	-0.8599516
5	0xbf8faee4	-1.1225247
6	0xbf860f15	-1.0473353
7	0xbfdbfbb0	-1.7186184
8	0xbf632cb9	-0.88740116
9	0xbf3466d9	-0.70469433
10	0xbfe20b89	-1.765977
11	0xbf6141e5	-0.8799117
12	0xbf4f30eb	-0.8093402
13	0xbf78a6ef	-0.9712972
14	0xbf8a3edf	-1.0800437
15	0xbf2e628c	-0.6811912
16	0xbf9c8465	-1.2227904
17	0xbfa045ce	-1.2521303
18	0xbec8cdeb	-0.39219603
19	0xbf825f09	-1.0185252
20	0xbf04842d	-0.51764184
21	0xbfa3889b	-1.2776064
22	0xbf970ddf	-1.1801108
23	0xbedfe045	-0.43725792
24	0xbf6c04b1	-0.9219466
25	0xbf636f45	-0.8884166
26	0xbfa9e3e1	-1.3272668
27	0xbeef85a7	-0.46781656
28	0xbe44c4bc	-0.19215673
29	0xbfae77b3	-1.3630279
30	0xbf29a443	-0.6626627
31	0xbf2fe15d	-0.6870325
32	0xbf671612	-0.9026805
33	0xbf328c6b	-0.6974551
34	0xbecea555	-0.40360513
35	0xbf37860e	-0.71688926
36	0xbd9a1d37	-0.075251035
37	0xbf22667b	-0.6343762
38	0xbf974225	-1.1817061
39	0xbf8d0092	-1.1015799
40	0xbf6eb9e6	-0.9325241
41	0xbf36a939	-0.71351963
42	0xbf0186f6	-0.5059656
43	0xbf85d17e	-1.0454557
44	0xbfcb4325	-1.5879866
45	0xbf4bd2d5	-0.7961858
46	0xbf52e2b9	-0.823772
47	0xbf1e4961	-0.6183072
48	0xbfae207b	-1.3603662
49	0xbfabbd62	-1.341717
50	0xbf6b6903	-0.9195711
51	0xbf670f49	-0.902577
52	0xbf8b04b9	-1.0860816
53	0xbf8ff7af	-1.1247462
54	0xbf00ee8e	-0.50364006
55	0xbfb33d3a	-1.400306
56	0xbeef8308	-0.46779656
57	0xbfb176d5	-1.386439
58	0xbf03b03f	-0.51440805
59	0xbfa40bd0	-1.2816105
60	0xbf83bca2	-1.0291941
61	0xbf982dbe	-1.188896
62	0xbdb914aa	-0.090371445
63	0xbf971cb1	-1.1805631
64	0xbf6e77de	-0.9315165
65	0xbf3572db	-0.7087838
66	0xbfd9994f	-1.6999911
67	0xbf647b7b	-0.89250916
68	0xbf54a521	-0.83064467
69	0xbe6fa1f9	-0.23401631
70	0xbfa6d633	-1.3034118
71	0xbf40c5a6	-0.7530159
72	0xbf2f394d	-0.6844681
73	0xbfae45f6	-1.36151
74	0xbf3e6172	-0.7436744
75	0xbf93e385	-1.1553808
76	0xbfa3d98c	-1.2800765
77	0xbf6bec58	-0.92157507
78	0xbfa7704c	-1.3081145
79	0xbebe786e	-0.37201256
80	0xbf865a9b	-1.04964
81	0xbf98c52f	-1.1935176
82	0xbf1c7fe4	-0.61132646
83	0xbf92d080	-1.1469879
84	0xbf603f15	-0.87596256
85	0xbf27cd14	-0.655473
86	0xbeab0f56	-0.33410138
87	0xbf7be479	-0.98395497
88	0xbf8ff77a	-1.1247399
89	0xbfa1fc43	-1.2655109
90	0xbf73e48e	-0.9527062
91	0xbf2fb66b	-0.6863772
92	0xbf886544	-1.0655904
93	0xbf3a6f20	-0.72825813
94	0xbfaaed51	-1.3353673
95	0xbf2efbe2	-0.6835309
96	0xbf8d3e65	-1.1034666
97	0xbe98d224	-0.29847825
98	0xbf9e79f3	-1.2380966
99	0xbfcda44b	-1.6065763
100	0xbda192fd	-0.07889364
101	0xbf861d0d	-1.0477616
102	0xbdf244c6	-0.11829524
103	0xbf7e405b	-0.9931695
104	0xbf4e9d2c	-0.80708575
105	0xbeb07508	-0.34464288
106	0xbf960908	-1.1721506
107	0xbf83b6c9	-1.0290157
108	0xbfb2ecfb	-1.3978571
109	0xbf8c3c31	-1.0955869
110	0xbf8ae4ca	-1.0851071
111	0xbf0f1563	-0.5589201
112	0xbee10aef	-0.43953654
113	0xbf95ad01	-1.1693422
114	0xbf70acd4	-0.94013715
115	0xbfdbc9a9	-1.7170917
116	0xbf1b1788	-0.6058278
117	0xbf969a19	-1.1765777
118	0xbf89c219	-1.0762359
119	0xbf827c0d	-1.0194107
120	0xbf94db69	-1.1629459
121	0xbf9bb73a	-1.2165291
122	0xbfc26216	-1.5186183
123	0xbef9a70d	-0.48760262
124	0xbfad6fcc	-1.3549743
125	0xbf126f8e	-0.5720147
126	0xbef49cd6	-0.47775906
127	0xbee088c2	-0.43854338
128	0xbf1c5b43	-0.61076754
129	0xbf8f76a9	-1.1208087
130	0xbf323947	-0.6961865
131	0xbf45ebc3	-0.7731287
132	0xbf530dd4	-0.82442975
133	0xbee7bb28	-0.45259976
134	0xbf747311	-0.9548808
135	0xbf81153f	-1.0084609
136	0xbf89434c	-1.0723662
137	0xbf6c6f8f	-0.92357725
138	0xbfc36ebe	-1.5268171
139	0xbf161c95	-0.5863736
140	0xbf806f08	-1.0033884
141	0xbeb7e98d	-0.35920373
142	0xbf7f2ff7	-0.99682564
143	0xbfa1e530	-1.2648067
144	0xbf5e477c	-0.86827826
145	0xbf388049	-0.7207075
146	0xbf55d5bc	-0.8352926
147	0xbf51b9d8	-0.819242
148	0xbfc76fcb	-1.5580992
149	0xbf0d3ca7	-0.55170673
150	0xbfa90a1c	-1.320621
151	0xbf5e4530	-0.8682432
152	0xbf2c86c5	-0.6739314
153	0xbf13f920	-0.5780201
154	0xbf8f2dbb	-1.1185831
155	0xbf256a7a	-0.64615595
156	0xbfb3c28f	-1.404375
157	0xbf8e1977	-1.1101521
158	0xbf368d98	-0.71309805
159	0xbf02c4a7	-0.5108132
160	0xbf8fcaa9	-1.1233722
161	0xbf2908f9	-0.66029316
162	0xbf890f07	-1.0707711
163	0xbf93d8f2	-1.1550581
164	0x3e511a9e	0.2042031
165	0xbf82a27a	-1.0205834
166	0xbf8b252c	-1.0870719
167	0xbe99a91a	-0.30011827
168	0xbf173f7d	-0.5908125
169	0xbf3a34c0	-0.7273674
170	0xbf2fdf12	-0.68699753
171	0xbf89acc9	-1.0755855
172	0xbf16dd77	-0.5893168
173	0xbfb130e0	-1.384304
174	0xbf072898	-0.52796316
175	0xbf7cb57e	-0.98714435
176	0xbc8f89e6	-0.01752181
177	0xbf5e7e5b	-0.86911553
178	0xbf097b1c	-0.53703475
179	0xbf4b51a5	-0.79421455
180	0xbf94ac3c	-1.1615062
181	0xbf8a19cd	-1.0789124
182	0xbf8a14d3	-1.0787605
183	0xbec120de	-0.37720388
184	0xbf8ff07e	-1.1245267
185	0xbf43e7ec	-0.7652576
186	0xbf48ef2a	-0.78489935
187	0xbf1d03c1	-0.61333853
188	0xbf222a35	-0.6334565
189	0xbf322a7a	-0.69596064
190	0xbf45c8c3	-0.77259463
191	0xbed58fcd	-0.41711274
192	0xbf4b7b68	-0.7948518
193	0xbe114f3a	-0.14190379
194	0xbf63b8ec	-0.88954043
195	0xbf8f3fe7	-1.1191376
196	0xbecaa401	-0.3957825
197	0xbf6bc4d0	-0.9209719
198	0xbf46ef4b	-0.7770888
199	0xbf8a539d	-1.0806767
200	0xbf874bdf	-1.0570029
201	0xbf3bc13a	-0.73341715
202	0xbf600f8e	-0.87523735
203	0xbedc56c1	-0.43034938
204	0xbf8114f9	-1.0084525
205	0xbf5f0e63	-0.8713133
206	0xbf810b25	-1.0081526
207	0xbf7bf4b5	-0.9842027
208	0xbf3b783b	-0.7323033
209	0xbf7f42c9	-0.9971128
210	0xbf2704fc	-0.6524198
211	0xbfeb231a	-1.8370087
212	0xbf8ce70d	-1.1008011
213	0xbed53d20	-0.41648197
214	0xbf1d24d6	-0.6138433
215	0xbf4965e2	-0.78671086
216	0xbdec1fba	-0.11529489
217	0xbf8de603	-1.1085819
218	0xbfc0f776	-1.5075519
219	0xbfa5bbba	-1.2947915
220	0xbcdf1f6c	-0.027236663
221	0xbf3bd9c8	-0.7337918
222	0xbf7d3913	-0.98915213
223	0xbeb54b1e	-0.35408872
224	0xbf49dbcb	-0.78851
225	0xbfa3095c	-1.2737231
226	0xbf9796bb	-1.1842874
227	0xbf814901	-1.0100404
228	0xbf984179	-1.1894981
229	0xbfa03135	-1.2515017
230	0xbf3da1ad	-0.7407482
231	0xbf363802	-0.7117921
232	0xbf149fd8	-0.580564
233	0xbf415452	-0.7551929
234	0xbf66c893	-0.901498
235	0xbf422d89	-0.7585073
236	0xbf2225bd	-0.63338834
237	0xbf01ef29	-0.50755554
238	0xbf6e6738	-0.9312625
239	0xbec742fd	-0.38918296
240	0xbfa6ccdf	-1.3031272
241	0xbfb011a2	-1.3755381
242	0x3ed05d33	0.40696105
243	0xbf863bb4	-1.048697
244	0xbf0c8bda	-0.54900897
245	0xbf9245b4	-1.1427522
246	0xbf599113	-0.8498699
247	0xbfb90d82	-1.4457247
248	0xbdf1d81e	-0.11808799
249	0xbf9068b2	-1.128195
250	0xbf6875c1	-0.9080468
251	0xbf7d2c11	-0.98895365
252	0xbf6fe59a	-0.9370972
253	0xbe9a40bb	-0.3012751
254	0xbeef3a62	-0.4672423
255	0xbf248a66	-0.6427368

fc2.weight f4 [400, 300]
0	0xbfcac122	-1.584019
1	0xbe992c14	-0.2991644
2	0xbf20019c	-0.62502456
3	0x3b8a0812	0.004212388
4	0xbdd1cd19	-0.102441974
5	0x3f25e066	0.6479553
6	0xbbfd8dec	-0.0077378657
7	0x3c8737b9	0.016506063
8	0x3e9f5b70	0.3112445
9	0xbf5e1e40	-0.8676491
10	0xbf891fe6	-1.071286
11	0xbf97421b	-1.1817049
12	0x3ec32c95	0.3811995
13	0x3ea31bd0	0.31857157
14	0xbfa88bb9	-1.316764
15	0x3e843d88	0.25828195
16	0xbf9842cc	-1.1895385
17	0xbea0d517	-0.31412575
18	0x3f147585	0.5799182
19	0x3e33bd4e	0.17552683
20	0xbf4ca928	-0.7994561
21	0xbd28b3bc	-0.041187033
22	0xbe3e587d	-0.18588443
23	0x3de00dcf	0.10940134
24	0x3ecd9939	0.40155962
25	0xbcf87f11	-0.030334027
26	0x3f5039c4	0.81338143
27	0x3eb43413	0.3519598
28	0xbf135e85	-0.575661
29	0xbdc49916	-0.09599511
30	0x3e294582	0.16530421
31	0xbf5a92af	-0.8538007
32	0xbf2162c9	-0.6304136
33	0xbfa26561	-1.2687188
34	0xbe36ade5	-0.17839773
35	0x3e11692b	0.14200275
36	0x3cc126a1	0.02357799
37	0xbd6a38ee	-0.0571832
38	0xbe3198d2	-0.17343453
39	0xbe976896	-0.2957198
40	0x3f393789	0.72350365
41	0xbea384b3	-0.3193718
42	0xbe5ec1aa	-0.21753564
43	0x3e19d256	0.15021643
44	0x3ed2f491	0.41202214
45	0x3e3adbb2	0.1824787
46	0xbf002ada	-0.50065386
47	0xbf89bc4b	-1.0760587
48	0xbe5bd527	-0.2146803
49	0x3cc4cb77	0.0240228
50	0xbf421cbf	-0.75825113
51	0xbec4ebc9	-0.3846114
52	0xbeddc8a8	-0.4331715
53	0x3f548e8e	0.8303002
54	0xbf2959e7	-0.66152805
55	0xbe1ca0c6	-0.15295705
56	0xbe3ff960	-0.18747473
57	0xbdb6866b	-0.08912357
58	0xbeb6e45d	-0.35721102
59	0xbebc6f83	-0.36803827
60	0xbb50b43a	-0.0031845705
61	0x3e9a4419	0.3013008
62	0xbe258b1e	-0.1616635
63	0x3e4404b3	0.19142418
64	0x3de294de	0.110635504
65	0xbfae5fd5	-1.3622996
66	0xbe78e6e8	-0.24306834
67	0xbe9b65be	-0.3035106
68	0x3f3b90c0	0.73267746
69	0x3eaf34fd	0.34220114
70	0xbf930fb1	-1.1489164
71	0xbf835d6f	-1.0262889
72	0xbf248637	-0.64267296
73	0xbec75697	-0.3893325
74	0x3edc06c2	0.42973906
75	0x3e3374ed	0.17525072
76	0x3de85e7a	0.11346145
77	0x3eeeaf64	0.46618187
78	0xbd849680	-0.06474018
79	0x3eab2aa3	0.33430967
80	0x3f29bc4a	0.6630293
81	0x3f1f87a7	0.62316364
82	0x3d14712e	0.03624075
83	0xbf752948	-0.95766115
84	0xbe2ae201	-0.16687776
85	0x3ee4d925	0.44696918
86	0x3f135c6c	0.575629
87	0x3f26a1b7	0.6509051
88	0x3f0ba8c3	0.54554385
89	0x3f380a40	0.7189064
90	0xbf81828e	-1.0117967
91	0xbdc8f9f4	-0.098133
92	0x3d96ee9b	0.07369729
93	0x3e675b6e	0.22593471
94	0x3efb1a25	0.49043384
95	0xbf7c920a	-0.9866034
96	0x3e2eb732	0.17062071
97	0xbf652adb	-0.8951852
98	0xbf246d10	-0.64228916
99	0x3f219b31	0.6312743
100	0xbf3accdf	-0.7296886
101	0x3f4b2c9f	0.7936496
102	0xbf65b411	-0.89727885
103	0xbf261765	-0.6487945
104	0xbf5fca08	-0.8741765
105	0x3f0fb945	0.56142074
106	0xbf044e82	-0.51682293
107	0xbf1c9bf0	-0.6117544
108	0xbe1be045	-0.15222271
109	0xbee25aae	-0.44209808
110	0xbe81a8a2	-0.2532397
111	0xbefcbe65	-0.4936401
112	0xbeb6e6a0	-0.35722828
113	0x3e692356	0.22767386
114	0x3ef9b786	0.4877283
115	0xbd947a47	-0.07249885
116	0xbef91a8f	-0.48653075
117	0xbdff941c	-0.124794215
118	0xbf972aea	-1.1809971
119	0x3d8c65f1	0.06855381
120	0xbf35c1e3	-0.7099897
121	0xbe177a7a	-0.14792815
122	0x3f0a5cb6	0.54047716
123	0x3debe317	0.11517923
124	0xbf1f8ccd	-0.6232422
125	0xbf89c1f7	-1.0762318
126	0x3ddac281	0.1068163
127	0xbf65a84d	-0.8970993
128	0xbfc7d19e	-1.5610845
129	0x3f01b7f3	0.5067131
130	0xbf94b006	-1.1616218
131	0xbead9449	-0.33902195
132	0xbf1c6ec7	-0.6110653
133	0x3f175eeb	0.5912921
134	0xbf210ba2	-0.62908375
135	0x3f315eea	0.6928545
136	0x3f43ee1d	0.7653521
137	0x3f945a65	1.1590086
138	0xbf3995d9	-0.72494274
139	0xbcf95083	-0.030433899
140	0x3ec33c12	0.38131768
141	0xbd448ed6	-0.04798778
142	0x3f28da14	0.6595776
143	0xbc4c64b0	-0.012475178
144	0xbf56f8d7	-0.8397345
145	0x3e0dc740	0.13845539
146	0xbf1e2727	-0.6177849
147	0xbf3a607d	-0.7280348
148	0xbe16e2e9	-0.14734997
149	0xbf6babb6	-0.92058885
150	0x3e901396	0.28139943
151	0xbeca7838	-0.39544845
152	0xbf8347cd	-1.0256287
153	0xbf565034	-0.8371613
154	0xbe0448b4	-0.12918359
155	0xbfa878e8	-1.3161898
156	0xbf407299	-0.7517486
157	0xbfb43712	-1.4079306
158	0xbeddfff1	-0.4335933
159	0xbe1abc1b	-0.15110819
160	0x3e7c23f7	0.24623094
161	0xbf0ba847	-0.54553646
162	0x3eda7a9a	0.42671663
163	0x3e6a5d83	0.22887234
164	0xbb3fe073	-0.002927807
165	0xbee6d898	-0.45087123
166	0x3dad1c84	0.084527045
167	0xbdcd6d2c	-0.100305885
168	0xbef06044	-0.46948445
169	0x3e8905ea	0.26762325
170	0x3f18aa2d	0.5963467
171	0xbd4c5b41	-0.049891714
172	0x3eccb302	0.39980322
173	0x3e2b9063	0.16754298
174	0x3e924bf8	0.28573585
175	0xbef95295	-0.48695818
176	0xbe211779	-0.1573161
177	0x3ed0cc14	0.407807
178	0x3f1110b6	0.56666124
179	0x3e1a7907	0.15085231
180	0xbd865366	-0.06558876
181	0x3e08b723	0.13351111
182	0xbfacf6ad	-1.351278
183	0x3fa65ce1	1.2997094
184	0xbe326e7f	-0.17424963
185	0x3dcd888a	0.100358084
186	0xbf90fffa	-1.1328118
187	0xbefc80c4	-0.4931699
188	0xbf5aee59	-0.8551994
189	0x3ef28093	0.4736372
190	0xbea19797	-0.31560966
191	0x3e9c1bbe	0.30489916
192	0x3e938a19	0.28816298
193	0x3ecbdfad	0.3981909
194	0xbf14e1cf	-0.58157057
195	0xbf1a30ff	-0.6023101
196	0xbe903bbb	-0.2817057
197	0xbeeea790	-0.46612215
198	0xbe3e4e34	-0.1858452
199	0x3e7f6139	0.24939431
200	0xbf8a576d	-1.080793
201	0x3e9f2774	0.31084788
202	0x3f485e4f	0.78268903
203	0x3e24b71d	0.16085477
204	0x3e236b11	0.15958811
205	0xbe34f120	-0.17670107
206	0x3f9f807c	1.2461085
207	0x3ed1cdcd	0.40977326
208	0xbd78aafa	-0.06070993
209	0xbf3ff300	-0.74980164
210	0x3e291518	0.16511953
211	0x3f25e3be	0.6480063
212	0x3ef8b555	0.48575845
213	0x3f04c509	0.5186315
214	0x3dfbf3ea	0.12302382
215	0x3e864527	0.26224634
216	0x3ed41710	0.41423845
217	0xbf014638	-0.5049777
218	0xbf84ab45	-1.0364767
219	0xbec57c14	-0.38571227
220	0xbf7c42ba	-0.98539317
221	0x3f04162e	0.51596344
222	0x3e8f1fcd	0.2795395
223	0xbe91c8bc	-0.2847346
224	0xbe923bc9	-0.28561237
225	0x3f65a702	0.8970796
226	0xbfc43a10	-1.5330219
227	0xbfc43c2e	-1.5330865
228	0xbf0892c4	-0.53348947
229	0xbf866d13	-1.0502037
230	0x3f10bf78	0.5654216
231	0xbecba478	-0.39773917
232	0xc01ee748	-2.4828663
233	0x3e9e27dc	0.30889785
234	0xbf87d2cd	-1.0611206
235	0xbe2b5538	-0.16731727
236	0xbf6097c7	-0.87731594
237	0xbfacd250	-1.3501682
238	0x3e5de8da	0.21670857
239	0x3e64c227	0.22339688
240	0x3f3037e7	0.688353
241	0xbdc90f2e	-0.098173484
242	0x3e830a92	0.25594002
243	0xbe88cc66	-0.26718444
244	0xbf1015e3	-0.56283396
245	0xbf005590	-0.5013056
246	0xbea8dc5a	-0.32980615
247	0xbe5b7d34	-0.2143448
248	0xbf0e8005	-0.5566409
249	0xbfc4e895	-1.5383478
250	0x3f335878	0.7005687
251	0x3dc24963	0.09486654
252	0xbe7cbec0	-0.2468214
253	0x3fa8b5f1	1.3180524
254	0xbded663f	-0.115917675
255	0xbd6e1f06	-0.058135055

fc2.bias f4 [400]
0	0xbf3336bb	-0.7000539
1	0xbf58bc57	-0.84662384
2	0xbf828358	-1.0196333
3	0xbf86e2d7	-1.0537976
4	0xbe852ef6	-0.2601239
5	0xbf0fa558	-0.5611167
6	0xbf98183e	-1.1882398
7	0xbe181572	-0.1485193
8	0xbfbaf96a	-1.4607365
9	0xbf8613c8	-1.0474787
10	0xbf14e46f	-0.5816106
11	0xbee985ab	-0.45609793
12	0xbf04f6f6	-0.5193933
13	0xbf2bc279	-0.67093617
14	0xbf508368	-0.8145051
15	0xbdbb7a82	-0.09154226
16	0x3bbb2195	0.0057107904
17	0xbeed8a43	-0.46394548
18	0xbebf0f62	-0.37316424
19	0xbf8662be	-1.0498884
20	0xbde40343	-0.111334346
21	0xbf66d4f8	-0.90168715
22	0xbf5be882	-0.85901654
23	0xbf6b750e	-0.91975486
24	0xbe9ee29e	-0.3103227
25	0xbe6b6c81	-0.2299061
26	0xbf40d246	-0.7532085
27	0xbe1112dd	-0.14167352
28	0xbea8610f	-0.3288655
29	0xbf7911f3	-0.97293013
30	0xbf23200a	-0.6372076
31	0xbf4e0648	-0.80478334
32	0xbebe322f	-0.37147662
33	0xbf70a35f	-0.93999285
34	0xbf4b61b0	-0.79445934
35	0xbf36ea2f	-0.71451086
36	0xbf138314	-0.57621884
37	0xbf059ba0	-0.5219059
38	0xbee781dc	-0.45216262
39	0xbf3217bb	-0.6956746
40	0xbf2920a2	-0.6606542
41	0x3df77cec	0.12084374
42	0xbdac3a8d	-0.08409605
43	0xbe0762bb	-0.13221256
44	0xbeed4d55	-0.46348062
45	0xbf21e689	-0.63242394
46	0xbfa743c8	-1.306756
47	0xbf10f07a	-0.5661694
48	0xbea219fa	-0.31660444
49	0xbf308abc	-0.6896169
50	0xbeff5195	-0.4986693
51	0xbd658501	-0.056035046
52	0xbf1ea330	-0.61967754
53	0xbf5de29f	-0.8667392
54	0xbe82d4d1	-0.2555299
55	0xbf77918e	-0.96706474
56	0xbf5ae0eb	-0.8549945
57	0xbf16aee0	-0.5886059
58	0xbec2a182	-0.38013846
59	0xbf533277	-0.8249888
60	0xbf784484	-0.96979547
61	0xbf1eb279	-0.6199108
62	0xbf0e223a	-0.55520976
63	0xbe148e24	-0.14507347
64	0xbf182af9	-0.5944057
65	0xbf7040f5	-0.93849117
66	0xbf2d05c0	-0.675869
67	0x3cb5edee	0.02220818
68	0xbf4a1640	-0.789402
69	0xbf5d04e3	-0.8633558
70	0xbf0a081d	-0.5391863
71	0xbf0e48dd	-0.5557993
72	0xbfa2e923	-1.2727398
73	0xbf491eea	-0.78562796
74	0xbd89635d	-0.06708405
75	0xbef5b4ea	-0.4798959
76	0xbe626996	-0.2211059
77	0xbf990eee	-1.1957681
78	0xbf8e7599	-1.1129638
79	0xbf39fc6a	-0.7265078
80	0xbeca51ca	-0.39515525
81	0xbf4529ca	-0.7701689
82	0xbed950be	-0.42444414
83	0xbf3ecfa0	-0.7453556
84	0xbe843ac9	-0.258261
85	0xbf181c3d	-0.5941809
86	0xbecc4486	-0.3989603
87	0xbf6b6f51	-0.9196673
88	0xbefee87a	-0.4978674
89	0xbf4da810	-0.8033457
90	0xbf27434e	-0.65337074
91	0xbee64e13	-0.4498144
92	0xbe754a67	-0.23954163
93	0xbf1a1eb2	-0.6020309
94	0xbf1a8c57	-0.6037039
95	0xbfc5b2f3	-1.5445236
96	0xbe82accf	-0.25522467
97	0xbf316cc8	-0.6930661
98	0xbf9b4543	-1.2130512
99	0xbf41c99e	-0.7569827
100	0xbf166b2e	-0.58757293
101	0xbeae7df2	-0.34080464
102	0xbecf4898	-0.40485072
103	0xbebdf053	-0.37097415
104	0xbf517242	-0.8181497
105	0xbf47eebf	-0.7809867
106	0xbec7ee16	-0.39048833
107	0xbf506bdb	-0.81414574
108	0xbf879692	-1.0592825
109	0xbf0cec91	-0.5504847
110	0xbde3b024	-0.111175805
111	0xbbfec610	-0.0077750757
112	0xbf13ade0	-0.5768719
113	0xbf42c8f8	-0.76087904
114	0xbf292a92	-0.6608058
115	0xbe82df6a	-0.25561076
116	0xbf44da1c	-0.7689531
117	0xbf95b27a	-1.1695092
118	0xbe29d9fb	-0.16587059
119	0xbf8cf844	-1.1013265
120	0xbf0f03d1	-0.558652
121	0xbdee40f9	-0.11633486
122	0xbefd1ddc	-0.49436843
123	0xbea0738d	-0.31338158
124	0xbf93b4bc	-1.1539531
125	0xbf47b06e	-0.78003585
126	0xbf741a6c	-0.95352817
127	0xbefd510c	-0.49475896
128	0xbe3008dc	-0.1719088
129	0xbf68100d	-0.9064949
130	0xbef5975c	-0.4796704
131	0xbf0c6be9	-0.5485216
132	0xbf3a4068	-0.72754526
133	0xbf3a8b47	-0.7286877
134	0xbc535384	-0.01289833
135	0xbf8cda35	-1.1004092
136	0xbf2fca62	-0.68668187
137	0xbf81c09e	-1.0136907
138	0xbf61c855	-0.8819631
139	0xbf0ce6a3	-0.55039424
140	0xbf5bbbc0	-0.8583336
141	0xbf0d6bd5	-0.55242664
142	0xbe623c87	-0.22093402
143	0xbf7198e5	-0.94373924
144	0xbd25ea9a	-0.040506937
145	0xbef8621b	-0.4851235
146	0xbf0b93e1	-0.5452252
147	0x3d4287ec	0.047492906
148	0xbf376acf	-0.7164735
149	0xbe1b6d3c	-0.15178388
150	0xbf649fda	-0.89306414
151	0xbec57c1b	-0.38571247
152	0xbeb8c278	-0.36085868
153	0xbf3bca32	-0.733554
154	0xbf1a8e95	-0.6037381
155	0xbde54207	-0.11194234
156	0xbf55ee45	-0.83566695
157	0xbe827ae0	-0.2548437
158	0xbf5414fd	-0.82844526
159	0xbf4f8018	-0.8105483
160	0xbf4f12bd	-0.8088797
161	0xbedf893c	-0.4365939
162	0xbf290218	-0.6601882
163	0xbe48277b	-0.1954631
164	0xbefc9a23	-0.49336347
165	0xbf59cc0c	-0.85076976
166	0xbf664a85	-0.8995746
167	0xbea8db91	-0.32980016
168	0xbf7206fe	-0.9454192
169	0xbf84992e	-1.0359247
170	0xbf8850a3	-1.0649608
171	0xbdfbb991	-0.12291253
172	0xbf2445f3	-0.64169234
173	0xbec3c5b0	-0.3823676
174	0xbf536fc5	-0.8259242
175	0xbf5e0b87	-0.8673634
176	0xbeca1fd9	-0.39477423
177	0xbec05c72	-0.3757053
178	0xbf4c27c6	-0.7974819
179	0xbf26beca	-0.6513487
180	0xbf1a377a	-0.602409
181	0xbe8dce23	-0.27696332
182	0xbf3a59ec	-0.7279346
183	0xbf2071f1	-0.6267386
184	0xbf21eea3	-0.63254756
185	0xbf02697c	-0.50942206
186	0xbe6f776c	-0.233854
187	0xbea4b62e	-0.32170242
188	0xbeb52c27	-0.35385248
189	0xbe8720af	-0.26392123
190	0xbedad15b	-0.4273785
191	0xbf38dfaf	-0.72216314
192	0xbf703cc0	-0.938427
193	0xbee1c29f	-0.44093797
194	0xbde7c6e4	-0.11317232
195	0xbe398e4b	-0.18120687
196	0xbeff9f23	-0.499261
197	0xbf1c2c89	-0.61005455
198	0xbf1dfd46	-0.6171459
199	0xbded2aff	-0.115804665
200	0xbf2de4eb	-0.67927426
201	0xbf4a473c	-0.79014945
202	0xbf241ddd	-0.6410807
203	0xbf5b9996	-0.8578123
204	0xbf5eb219	-0.86990505
205	0xbf755aae	-0.9584149
206	0xbf0174eb	-0.5056903
207	0xbf919279	-1.1372825
208	0xbf698220	-0.9121418
209	0xbf175630	-0.59115887
210	0xbefcc71f	-0.49370667
211	0xbe5594f8	-0.20857608
212	0xbe9b4829	-0.3032849
213	0xbea2f328	-0.31826138
214	0xbe8ea21e	-0.2785806
215	0xbedd4feb	-0.43225035
216	0xbf3749a8	-0.71596766
217	0xbf4a8d3e	-0.7912177
218	0xbf1b9665	-0.6077636
219	0xbe39ef7b	-0.18157761
220	0xbf6fd677	-0.9368662
221	0xbf98b748	-1.1930933
222	0xbeed7b7f	-0.46383283
223	0xbdc1bfda	-0.09460421
224	0xbe915084	-0.2838174
225	0xbea1a8f8	-0.31574225
226	0xbf3834fd	-0.71955854
227	0xbf219517	-0.6311812
228	0xbf59f82f	-0.85144323
229	0xbefbb599	-0.49161986
230	0xbf7c3904	-0.985245
231	0xbeba3445	-0.36368003
232	0xbf74cee0	-0.95628166
233	0xbf91a279	-1.1377708
234	0xbed9571c	-0.42449272
235	0x3da84930	0.082170844
236	0xbf4d3064	-0.80151963
237	0xbf7c3124	-0.9851248
238	0xbe97945e	-0.29605383
239	0xbefa5685	-0.48894134
240	0xbf37f46b	-0.7185733
241	0xbf423317	-0.75859207
242	0xbf1fb6f6	-0.6238855
243	0xbf131ce2	-0.57465947
244	0xbf7ab71a	-0.9793564
245	0xbf243b52	-0.64153016
246	0xbed24604	-0.41069043
247	0xbeb48434	-0.35257113
248	0xbf40c64c	-0.75302577
249	0xbf320ed0	-0.6955385
250	0xbf05dfe6	-0.52294767
251	0xbf7f6785	-0.99767333
252	0xbeee9447	-0.46597502
253	0xbf4f7d54	-0.8105061
254	0xbf30b2d5	-0.69022876
255	0xbf591c8f	-0.848092

fc3.weight f4 [4, 400]
0	0x3ec175fd	0.3778533
1	0xbf5da643	-0.8658182
2	0xbe0e245c	-0.13881058
3	0xbf0e3b51	-0.5555926
4	0xbdf74b18	-0.1207487
5	0x3e16d2fa	0.14728919
6	0xbc91acfd	-0.017782683
7	0x3d48d080	0.049026966
8	0xbede3853	-0.43402347
9	0xbf5df0e7	-0.8669571
10	0xbefe1145	-0.4962255
11	0x3f43a51b	0.76423806
12	0x3f0b74ec	0.54475284
13	0x3ebd571c	0.36980522
14	0xbe83888a	-0.2569011
15	0xbe50369e	-0.20333335
16	0xbea2d42f	-0.31802508
17	0xbe7ff6e0	-0.24996519
18	0x3f38a97e	0.72133625
19	0xbe7744a3	-0.24147277
20	0xbdacc251	-0.084355004
21	0x3e9d3cdc	0.30710495
22	0xbf6d3693	-0.926614
23	0xbfc2d968	-1.5222597
24	0x3eed5c81	0.46359637
25	0xbf0da9dc	-0.5533731
26	0x3e17d116	0.14825854
27	0x3ef83dfc	0.4848479
28	0x3ee51056	0.44739026
29	0xbe80f461	-0.25186446
30	0xbf8cd287	-1.1001748
31	0xbec9833e	-0.39357942
32	0xbf37f675	-0.7186044
33	0xbe613e3f	-0.21996401
34	0x3da5e6b9	0.081006475
35	0xbf47e48a	-0.780831
36	0x3f39279f	0.7232608
37	0xbf70cf56	-0.9406637
38	0xbed0d553	-0.40787753
39	0xbf0c83c7	-0.54888576
40	0x3db8b98c	0.09019765
41	0xbeb8c8b5	-0.36090627
42	0xbe5f6f55	-0.21819814
43	0xbef12c19	-0.47103956
44	0x3e1c4162	0.15259317
45	0xbe713982	-0.23557094
46	0x3f7b64fb	0.9820096
47	0xbe9b5381	-0.30337146
48	0x3f41b8dd	0.75672704
49	0xbe20222e	-0.15638039
50	0x3eaf02a5	0.34181705
51	0xbd25f85e	-0.040520065
52	0x3e832dc1	0.25620845
53	0x3dc51a5a	0.09624167
54	0xbddca833	-0.10774269
55	0x3ce12678	0.027484164
56	0xbd0418dc	-0.03225027
57	0xbe920448	-0.2851889
58	0x3e2e80b7	0.17041288
59	0xbf028f9e	-0.5100039
60	0xbf31b875	-0.69422084
61	0x3e39202a	0.18078676
62	0xbe90cabd	-0.28279677
63	0x3e299705	0.16561516
64	0xbe8f42c3	-0.27980623
65	0x3f627083	0.8845293
66	0x3e4aec63	0.19816737
67	0xbf01b38a	-0.5066458
68	0x3ee3026d	0.44337788
69	0x3f1cd2eb	0.61259335
70	0xbeb947ec	-0.36187685
71	0xbe9e1e36	-0.30882424
72	0x3cc9fe7f	0.024657486
73	0xbe50974f	-0.2037022
74	0xbf2e2b43	-0.6803476
75	0x3eee01f0	0.46485853
76	0x3d44ae74	0.048017934
77	0xbeab687d	-0.33478156
78	0xbeaf840d	-0.34280434
79	0x3e539a11	0.2066424
80	0xbf2c27b6	-0.67248094
81	0xbf303155	-0.68825275
82	0xbea0a2c3	-0.31374177
83	0x3ee6d69e	0.45085615
84	0xbe52a570	-0.20570922
85	0xbf316aa7	-0.69303364
86	0x3d12a7b4	0.035804465
87	0xbee5fc64	-0.4491912
88	0x3efc272e	0.49248642
89	0xbe56cfbb	-0.2097768
90	0xbf1f9dee	-0.62350357
91	0xbf3cb2fe	-0.7371062
92	0x3f062040	0.5239296
93	0x3f38b4a8	0.7215066
94	0xbce4bca7	-0.027921988
95	0xbe2f29ee	-0.17105839
96	0x3e1410e5	0.1445957
97	0x3e325ed4	0.17418987
98	0xbec33a26	-0.381303
99	0x3f4a6ee5	0.7907546
100	0xbea0d3b0	-0.31411505
101	0xbee9eafd	-0.45687094
102	0x3e8636ef	0.26213786
103	0x3e025be2	0.12730363
104	0x3f13007f	0.5742263
105	0xbf36e172	-0.7143775
106	0xbeeb3484	-0.45938504
107	0xbe21c2fa	-0.15797034
108	0x3ee87fff	0.45410153
109	0xbebad180	-0.3648796
110	0x3f168a64	0.5880492
111	0xbefebba8	-0.49752545
112	0x3e4e7cc2	0.20164779
113	0xbed50aca	-0.41609794
114	0xbedf5372	-0.4361835
115	0xbef377a9	-0.4755223
116	0xbd8aabc0	-0.0677104
117	0xbf0a1b40	-0.5394783
118	0xbd1dd306	-0.038531326
119	0xbee087e1	-0.43853667
120	0x3f193e86	0.5986103
121	0x3f662c7d	0.89911634
122	0x3ebccc26	0.36874503
123	0x3f0824f4	0.53181386
124	0x3e4cd9b4	0.20004922
125	0xbe9c3063	-0.30505666
126	0x3e46edd5	0.19426663
127	0x3cae318f	0.021263866
128	0x3cb7fb54	0.02245871
129	0xbe1857bf	-0.14877222
130	0xbe731d2d	-0.23741598
131	0x3c30d9b9	0.010794097
132	0x3ea4f6a5	0.32219425
133	0x3d5bcf92	0.05366475
134	0x3f1d399c	0.6141603
135	0xbe888644	-0.26664937
136	0x3e60df50	0.21960187
137	0xbf61dfea	-0.8823229
138	0x3d27e414	0.040988997
139	0xbcc739c9	-0.024319546
140	0x3f262c86	0.6491169
141	0x3e1a4ee7	0.15069161
142	0x3ec4d58a	0.38444167
143	0x3f08f167	0.5349335
144	0x3efa0eb2	0.48839337
145	0x3f0ba4d8	0.54548407
146	0x3e687a69	0.22702946
147	0xbeb49f3b	-0.35277733
148	0xbeba7394	-0.36416304
149	0xbe800819	-0.25006178
150	0x3eb795b8	0.35856414
151	0xbdded437	-0.108803205
152	0xbedf37b6	-0.43597192
153	0x3f03dcdb	0.51508874
154	0x3ec4615d	0.38355532
155	0x3d9d45d7	0.076793365
156	0xbe124e05	-0.14287575
157	0xbee814aa	-0.45328265
158	0xbf59704b	-0.8493697
159	0xbeb6cd9f	-0.3570375
160	0xbe03c9ea	-0.12869993
161	0x3f039c65	0.51410514
162	0x3efc96e7	0.4933388
163	0xbebdecff	-0.37094876
164	0xbe8cd4d7	-0.27506134
165	0xbe438a25	-0.19095667
166	0x3e97b81d	0.29632655
167	0xbea18f09	-0.3155444
168	0x3f24dc33	0.643985
169	0x3eb982fb	0.36232743
170	0x3f0c8156	0.5488485
171	0xbe45f7b3	-0.19332771
172	0x3e5442fe	0.2072868
173	0x3ee39a08	0.44453454
174	0xbd839d6a	-0.06426509
175	0xbf6f4a1d	-0.9347246
176	0x3e9be9ff	0.30451962
177	0xbe8a75bf	-0.27042958
178	0x3e42098f	0.18948959
179	0x3efbffca	0.4921859
180	0x3ec985ff	0.39360043
181	0x3f077add	0.5292185
182	0xbe939d22	-0.2883082
183	0xbda93c25	-0.08263425
184	0xbef42572	-0.47684819
185	0x3e429f12	0.19005993
186	0xbdf19f74	-0.117979914
187	0x3eef9fa8	0.46801496
188	0x3eb3a298	0.35084987
189	0x3e6c83a6	0.23097095
190	0x3d7ecb05	0.062205333
191	0xbe45b95b	-0.19308989
192	0xbe93adb5	-0.28843465
193	0x3ed287dc	0.41119277
194	0xbdaff224	-0.085911065
195	0xbe8bf70d	-0.27336922
196	0xbe3fc3cb	-0.18727033
197	0xbd6b58b3	-0.057457637
198	0xbf1f8d29	-0.6232477
199	0xbecef7f5	-0.4042355
200	0xbeb02a75	-0.34407392
201	0x3f610f7b	0.87914246
202	0x3f14223a	0.57864726
203	0xbd76eccf	-0.060284432
204	0x3f98f40d	1.1949478
205	0x3e298b5e	0.1655707
206	0x3f62395d	0.8836878
207	0x3e947ca8	0.29001355
208	0x3e3bf888	0.18356526
209	0xbdbff39c	-0.09372637
210	0xbc3f21b2	-0.011665748
211	0x3f2e5560	0.6809902
212	0xbeaf0c42	-0.3418904
213	0xbf40d764	-0.7532866
214	0xbe6c5875	-0.23080619
215	0xbdc2736d	-0.09494672
216	0x3f3fc265	0.74906
217	0x3f1c2bf6	0.6100458
218	0x3f122f53	0.5710346
219	0xbf017e4d	-0.50583345
220	0xbf518167	-0.8183808
221	0x3eee819c	0.4658326
222	0x3e74b5be	0.23897454
223	0xbd6b832b	-0.05749814
224	0x3e53d412	0.20686367
225	0xbe25865d	-0.16164537
226	0x3ecd3355	0.40078226
227	0x3c8682ae	0.016419735
228	0xbcf5d88e	-0.030010488
229	0xbf569fb5	-0.83837444
230	0x3f2aa533	0.66658324
231	0xbda0c835	-0.078506865
232	0x3dc15da9	0.094416924
233	0xbef9e787	-0.48809454
234	0xbf36e3bb	-0.7144124
235	0xbe5290fd	-0.20563121
236	0xbe7a4828	-0.24441588
237	0x3ee00d7c	0.43760288
238	0xbe5e6084	-0.21716505
239	0x3f8075b0	1.0035915
240	0x3ef643dd	0.4809865
241	0x3e97715d	0.29578677
242	0x3e74ce87	0.23906909
243	0xbdb30471	-0.087410815
244	0x3f2bf426	0.67169416
245	0x3ecfae3c	0.40562618
246	0x3e2c809f	0.1684594
247	0x3f544119	0.8291183
248	0x3f05efbe	0.5231894
249	0x3eeacf00	0.45861053
250	0x3f17819d	0.5918215
251	0x3d4b45ab	0.049626987
252	0xbf2c5bae	-0.6732739
253	0x3e2b76ca	0.16744533
254	0xbf0c8293	-0.5488674
255	0xbeb9fde2	-0.3632651

fc3.bias f4 [4]
0	0x3e08e38d	0.13368054
1	0x3d486c11	0.048931185
2	0x3dfb2836	0.12263529
3	0xbdb6a160	-0.089174986
