experiments/exp1/models/checkpoint_actor_10.pth (torch_old, 274270 bytes, 6 tensors)

fc1.weight f4 [200, 33]
0.3284392 0.29255536 -0.45248958 -0.3443177 0.7364842 -0.18206377 -0.87270635 -0.05890078
0.5075683 0.1304078 -0.11240001 -0.11091734 -0.1501745 -0.56122744 -0.18323475 0.44008487
1.0639617 -0.31818506 0.34693056 0.2532038 -0.21832217 -0.048835415 -0.12889047 -0.016449038
-0.024240287 0.14233145 0.42501375 0.81335735 0.29249972 -0.027685829 -0.6946261 -0.020862743
2.3353062 0.027191034 0.4795318 1.6021984 -0.55806684 0.38326302 -0.045752924 0.5421393
0.08962098 0.4122844 0.02619224 -0.21894297 -0.08337211 0.26236856 0.065789714 0.061458036
-0.6981213 -0.37076873 0.5632161 0.019074861 -0.080375366 0.054212794 0.20416516 0.22487174
-0.22218417 -0.13946779 0.06604326 -0.4346817 0.60533285 0.1471557 -0.023394048 -0.5035188
-0.05237589 0.20531525 -0.47417182 0.027139181 0.242895 -0.782972 -0.025015796 -0.3110933
0.67170864 -0.18112707 -0.34096903 -0.61264163 -0.007973935 0.3381409 0.19666669 0.11960294
0.46143994 0.06341899 -0.33133358 1.050578 0.927301 -0.026785705 -0.13248153 -0.09245701
0.023107093 -0.2836132 0.17088586 -0.05345852 -0.4799983 0.7018409 0.1688373 0.013497174
-0.7430843 0.06457337 -1.5678433 -0.38509303 -0.2203819 -0.1714002 0.63708013 -0.14257443
-0.92744225 -0.39470193 0.20103438 -0.68079823 0.39869452 0.33557004 -0.044313192 -0.21137255
0.3085212 0.5818552 -0.20073117 0.33840188 -0.31701785 0.84898955 0.15687303 0.13230275
-0.12919278 0.32208204 -0.078016 0.18044437 0.3818552 0.1256131 0.84415245 0.24510023
-0.009567495 -0.8880664 -0.05247868 -1.816768 -0.33780167 -0.14154254 -0.7461976 -0.045657698
0.014009861 -0.142297 0.113299005 -0.12790377 0.31911886 -0.07313926 -0.1731982 -0.115193464
0.050022356 0.60658056 0.13402095 0.80161786 -0.78501976 -0.76222485 0.23146974 0.2696959
-0.05213199 -0.32602373 0.026189772 0.009799368 -0.08902425 0.36758715 -0.5011401 0.35532832
-0.06652205 -0.068911515 -0.29881483 0.04202076 -1.3041773 -0.7800065 0.37851223 0.17554957
-0.8459226 0.014843744 -0.45399222 -0.10637776 -0.16232568 0.15732417 -0.7130596 -0.24562643
0.072554454 -0.08337179 -0.03157197 -0.24895337 0.42751896 0.6606981 0.6914304 -0.24231656
-0.2521271 -0.12260117 0.13102812 -0.062126637 -0.06051075 0.050670084 0.20588432 0.15933773
0.4971702 -0.053106114 -0.056211222 -0.5354198 -0.01781167 -2.2829251 -0.056546804 0.56562096
0.75233763 -0.19733338 -0.8584347 0.26857522 -0.19311891 0.49360025 -0.21261583 -0.03922811
-0.053439885 0.020409618 0.2328333 0.7725483 -0.34104693 -0.38309827 -0.24566756 -1.2353315
0.5797303 -0.49223575 -0.20815672 0.22466624 0.028982107 0.14142467 0.038288012 0.00499537
0.019876776 0.6805027 0.15012908 -0.061997917 -0.7170324 0.027941577 1.6968818 -0.31324205
0.87755114 -0.5495445 -0.5754914 -0.7496872 -1.5049691 -0.1491394 0.50897926 -0.8966536
0.6567843 -0.17753875 0.3640249 -0.45375878 -0.2035017 0.30534887 -0.4390472 1.3216486
-0.087041624 -1.2709159 0.036512554 -0.11012208 -0.10837382 -0.2006084 -0.27935138 0.0073679346
00000000: 2f29 a83e d1c9 953e b7ac e7be 694a b0be
00000010: 3b8a 3c3f ed6e 3abe af69 5fbf f241 71bd
00000020: ffef 013f 9f89 053e fa31 e6bd a128 e3bd
00000030: 58c7 19be 9aac 0fbf e4a1 3bbe ce52 e13e
00000040: e62f 883f 27e9 a2be e2a0 b13e eea3 813e
00000050: d98f 5fbe a507 48bd ddfb 03be 22c0 86bc
00000060: 9193 c6bc 56bf 113e 679b d93e 3038 503f
00000070: 86c2 953e 64cd e2bc 04d3 31bf 58e8 aabc
00000080: a875 1540 bbbf de3c 3185 f53e d614 cd3f
00000090: 78dd 0ebf 0d3b c43e 6b67 3bbd a4c9 0a3f
000000a0: 348b b73d f116 d33e 1c91 d63c 9632 60be
000000b0: ffbe aabd 2c55 863e c2bc 863d 6cbb 7b3d
000000c0: 14b8 32bf 66d5 bdbe ee2e 103f e242 9c3c
000000d0: d79b a4bd 3c0e 5e3d ac10 513e c744 663e
000000e0: 3f84 63be a5d0 0ebe b041 873d 9a8e debe
000000f0: 18f7 1a3f fcaf 163e e0a4 bfbc 9ce6 00bf
00000100: 1a88 56bd 293e 523e a6c6 f2be fd52 de3c
00000110: 78b9 783e da70 48bf eded ccbc 9f47 9fbe
00000120: 19f5 2b3f 6079 39be 7e93 aebe 15d6 1cbf
00000130: 1ca5 02bc ce20 ad3e fe62 493e 63f2 f43d
00000140: db41 ec3e d1e1 813d 8ea4 a9be 5779 863f
00000150: 9963 6d3f b26d dbbc 3da9 07be 1a5a bdbd
00000160: 164b bd3c c035 91be b4fc 2e3e 52f7 5abd
00000170: 56c2 f5be d8ab 333f afe3 2c3e 4023 5d3c
00000180: c63a 3ebf 0b3f 843d 17af c8bf ea2a c5be
00000190: cbab 61be 8983 2fbe af17 233f 08ff 11be
000001a0: db6c 6dbf 5f16 cabe f5db 4d3e cb48 2ebf
000001b0: b021 cc3e d6cf ab3e c081 35bd 0c72 58be
000001c0: 7ef6 9d3e 76f4 143f 798c 4dbe 0343 ad3e
000001d0: 2a50 a2be 6157 593f 53a3 203e 5f7a 073e
000001e0: 1d4b 04be f0e7 a43e dac6 9fbd 69c6 383e
000001f0: 8682 c33e b8a0 003e 601a 583f 8efb 7a3e
00000200: fcc0 1cbc 5258 63bf e2f3 56bd db8b e8bf
00000210: 57f4 acbe 87f0 10be ce06 3fbf 9103 3bbd
00000220: 9e89 653c 4eb6 11be 4f09 e83d 35f9 02be
00000230: 8c63 a33e 09ca 95bd de5a 31be 8dea ebbd
00000240: 3ee4 4c3d dd48 1b3f ca3c 093e d436 4d3f
00000250: 0ef7 48bf 2b21 43bf 6706 6d3e 9515 8a3e
00000260: 5b88 55bd 95ec a6be ef8b d63c 878d 203c
00000270: 5952 b6bd 6234 bc3e b84a 00bf 98ed b53e
00000280: b63c 88bd 7b21 8dbd 42fe 98be f61d 2c3d
00000290: 48ef a6bf 82ae 47bf 5bcc c13e 44c3 333e
000002a0: 628e 58bf 2d33 733c ab71 e8be 95dc d9bd
000002b0: b438 26be 9619 213e 138b 36bf 7f85 7bbe
000002c0: 6e97 943d d4be aabd 9c51 01bd a2ed 7ebe
000002d0: c4e3 da3e 8323 293f 9501 313f d521 78be
000002e0: ce16 81be 5216 fbbd 3c2c 063e 8078 7ebd
000002f0: 1fda 77bd 6f8b 4f3d 57d3 523e 6e29 233e
00000300: 188d fe3e cc85 59bd bd3d 66bd 4611 09bf
00000310: c8e9 91bc 721b 12c0 9f9d 67bd 89cc 103f
00000320: 3399 403f c311 4abe 60c2 5bbf b182 893e
00000330: f7c0 45be 2cb9 fc3e f7b7 59be a8ad 20bd
00000340: c8e3 5abd 1232 a73c da6b 6e3e bac5 453f
00000350: b49d aebe 7525 c4be 4790 7bbe 581f 9ebf
00000360: 3469 143f 5306 fcbe 0927 55be e80e 663e
00000370: e26b ed3c a1d1 103e e4d3 1c3d 33b0 a33b
00000380: 9fd4 a23c 6d35 2e3f 70bb 193e 87f1 7dbd
00000390: 6f8f 37bf bce5 e43c 6c33 d93f 4361 a0be
000003a0: 31a7 603f f3ae 0cbf 6853 13bf 80eb 3fbf
000003b0: d4a2 c0bf 00b8 18be 774c 023f 178b 65bf
000003c0: 0423 283f b8cc 35be 7961 ba3e 1253 e8be
000003d0: c062 50be b056 9c3e cbca e0be c82b a93f
000003e0: e142 b2bd 5fad a2bf 308e 153d af87 e1bd
000003f0: 18f3 ddbd 4a6c 4dbe 2507 8fbe b76e f13b

fc1.bias f4 [200]
-0.7879058 -0.38918155 -0.83221054 -0.69799244 -0.45000106 -0.6995627 -0.7482206 -0.65437883
-1.0325415 -1.5022156 -0.7743643 -0.9783878 -1.0278096 -0.13392474 -1.0038388 -0.5621596
-1.2137474 -0.668106 -1.2234666 -0.51192135 -0.33834705 -0.57573617 0.18822664 -1.0237894
-0.8617748 -0.58972836 -0.7397553 -0.4094406 -0.83110434 -0.7418436 -0.4553802 -0.7299563
-1.1392609 -0.9847745 -0.7460171 -0.15446806 -0.2759453 -0.28950253 -0.7442312 -0.53392607
-0.45016906 -0.82156116 -0.14031386 -0.33139238 -0.5518188 -0.58219266 -1.0503358 -0.637439
-1.0650065 -0.6877602 0.16746652 -0.40707198 -0.1658053 0.010117038 -0.9777248 -0.76752037
-0.82845855 -0.43996364 -0.5336239 -0.7616813 -0.19636977 -1.0952245 -0.81561774 -0.81154263
-0.7986351 -0.91618896 -0.7248235 -0.76721424 -0.5905306 -0.3944824 -0.43593168 -1.1349639
-0.84568137 -0.2324305 -0.38494685 -1.0285386 -0.29510722 -0.08102081 -0.9446987 0.3303434
-0.73486906 -1.1496524 -0.36226356 -0.8753378 -0.87460065 -0.32918307 -0.6619442 -0.69802105
-0.35766178 -0.70950294 -0.6299697 -0.81910557 -0.8756804 -0.44068268 -0.06935054 -0.4167878
-0.52088124 -0.6882887 -0.7992285 -0.06494706 -0.37588906 -0.7335573 -0.8032399 -0.89400387
0.34039128 -1.0525819 -0.91687673 -0.40827182 0.38397583 -0.9608639 -0.6876153 -0.41448846
-0.7662134 -0.006865615 -0.12810834 -0.086152494 0.4832839 -0.8366014 -0.8707928 -0.3314167
-0.69070387 -0.43549615 -0.35062018 -0.7602731 -0.57162726 -0.9295372 -1.010408 -1.1102905
-0.47071055 -0.84082603 -1.0486699 -0.55369353 -0.68859935 -0.59037155 -0.59880954 -1.0330247
0.23519604 0.55997044 -0.5270321 -0.6614952 -0.3910295 -0.7635645 -0.59838235 -0.6281858
-0.87240607 -0.6342479 -0.699272 -1.1808178 -1.2055054 -0.98224163 -0.71563536 -0.5138846
-0.6745381 -0.91873944 -0.4019527 -0.7378585 -1.3594203 -0.44758904 -0.6050341 -0.87737834
-0.5520595 -0.7662115 -0.9945374 -1.2656682 -0.5132318 -0.88740695 -0.39475602 -0.98634106
-0.35846636 -1.4602646 -0.50636274 -0.58630484 -0.6159093 -1.3424697 -0.79527014 -1.0538621
-0.816873 -0.88174593 -0.2854428 -0.82715553 -0.36296752 -1.0442303 -0.33804822 -0.39062864
-0.24349183 -0.44685382 -0.6676788 -0.5270723 -0.23135608 -0.60076314 -1.0319221 -0.6047151
-0.9106098 -0.5905732 -0.31598687 -0.82764626 -0.9400906 -0.3388096 -0.64555955 -0.040236283
00000000: 32b4 49bf ce42 c7be c00b 55bf a2af 32bf
00000010: 8a66 e6be 8b16 33bf 638b 3fbf 5f85 27bf
00000020: 522a 84bf 9a48 c0bf bd3c 46bf 9f77 7abf
00000030: 448f 83bf 9123 09be ca7d 80bf b1e9 0fbf
00000040: 135c 9bbf ff08 2bbf 8e9a 9cbf 470d 03bf
00000050: d33b adbe 7263 13bf 7cbe 403e 880b 83bf
00000060: 469d 5cbf 70f8 16bf 9a60 3dbf 33a2 d1be
00000070: 41c3 54bf 76e9 3dbf 9827 e9be 6bde 3abf
00000080: 4dd3 91bf 2e1a 7cbf fafa 3ebf e02c 1ebe
00000090: b448 8dbe ad39 94be f085 3ebf 61af 08bf
000000a0: 8f7c e6be d551 52bf 70ae 0fbe 43ac a9be
000000b0: ff43 0dbf 940a 15bf 6771 86bf 342f 23bf
000000c0: 2252 88bf 0d11 30bf 587c 2b3e bd6b d0be
000000d0: ddc8 29be efc1 253c 2c4c 7abf 377c 44bf
000000e0: dc15 54bf ea42 e1be 939b 08bf 8cfd 42bf
000000f0: 2815 49be 5130 8cbf 53cc 50bf 42c1 4fbf
00000100: 5a73 4cbf 5c8b 6abf 088e 39bf 2768 44bf
00000110: 032d 17bf 99f9 c9be 7032 dfbe 7f46 91bf
00000120: 937e 58bf 4302 6ebe c117 c5be 27a7 83bf
00000130: 4b18 97be 3dee a5bd c6d7 71bf c522 a93e
00000140: 6120 3cbf cf27 93bf 9c7a b9be 2316 60bf
00000150: d4e5 5fbf af8a a8be 2d75 29bf 82b1 32bf
00000160: 721f b7be fca1 35bf b245 21bf e7b0 51bf
00000170: 972c 60bf 29a1 e1be a807 8ebd 3665 d5be
00000180: 7958 05bf b033 30bf 3d9a 4cbf f702 85bd
00000190: 8874 c0be 69ca 3bbf 21a1 4dbf 70dd 64bf
000001a0: c447 ae3e 01bb 86bf 6fb8 6abf 0109 d1be
000001b0: 7b98 c43e 2dfb 75bf 8e07 30bf d537 d4be
000001c0: 9026 44bf f4f8 e0bb d52e 03be b870 b0bd
000001d0: fd70 f73e 822b 56bf 47ec 5ebf 73af a9be
000001e0: f8d1 30bf 5af9 debe 7d84 b3be 42a1 42bf
000001f0: 2a56 12bf 26f6 6dbf 0d55 81bf 001e 8ebf
00000200: f900 f1be 6040 57bf d13a 86bf dcbe 0dbf
00000210: 0c48 30bf 9722 17bf 954b 19bf 273a 84bf
00000220: 3bd7 703e 395a 0f3f 93eb 06bf c057 29bf
00000230: 0535 c8be f778 43bf 962f 19bf c9d0 20bf
00000240: 0156 5fbf 125e 22bf 7d03 33bf 0a25 97bf
00000250: 004e 9abf 3074 7bbf e133 37bf f18d 03bf
00000260: 87ae 2cbf 8232 6bbf bfcc cdbe 4be4 3cbf
00000270: 7c01 aebf 642a e5be 84e3 1abf de9b 60bf
00000280: c553 0dbf 7026 44bf 019a 7ebf 6a01 a2bf
00000290: 2963 03bf 1a2d 63bf 761d cabe d980 7cbf
000002a0: e788 b7be f3e9 babf fda0 01bf 1318 16bf
000002b0: 3bac 1dbf 0cd6 abbf d396 4bbf f4e4 86bf
000002c0: 971e 51bf 1aba 61bf 8f25 92be 77c0 53bf
000002d0: e1d6 b9be 57a9 85bf a814 adbe 7a00 c8be
000002e0: ec55 79be 06ca e4be ffec 2abf 36ee 06bf
000002f0: 9ce8 6cbe 9dcb 19bf 0616 84bf 9cce 1abf
00000300: b91d 69bf ce2f 17bf 08c9 a1be a0e0 53bf
00000310: c7a9 70bf 7478 adbe 6443 25bf cdce 24bd

fc2.weight f4 [300, 200]
-0.6996396 0.26666588 -0.0142694935 0.25385225 -0.2334636 0.11191882 0.40526062 0.6008069
0.247485 -0.25582847 -0.10158838 -0.32338744 0.5039652 -0.111033216 0.130725 -0.45326364
0.75079525 -0.16916093 0.79432285 0.14001489 -0.38968316 -0.03307254 -0.036893703 -0.09468497
-0.47513926 0.5789248 -0.41090852 -0.12524757 -0.34079584 0.046868935 0.070947014 0.09097617
-0.16560695 -0.12533754 0.39876768 -0.121335775 -0.20195024 0.34969014 0.46446657 -0.10199653
-0.13467598 0.2768118 -0.21312927 -0.04022782 0.3235478 -0.47151294 0.32756916 -0.38156885
-0.3446149 -0.62377745 -0.08777031 -0.11137113 -0.44191304 0.013575542 0.37324062 0.23417744
-0.54061884 0.40790644 -0.4435373 -0.43566984 0.12584971 -0.39132327 -0.6210045 0.13822532
0.08520333 0.4111826 0.2641363 0.28118226 0.0359893 0.15271443 0.3152672 0.6544801
-0.39295533 -0.46172667 0.26469204 -0.46736935 0.07212523 0.42556915 -0.40382937 -0.3883424
0.20194992 -0.08462456 -0.29480726 -0.15379666 0.4294789 -0.07349083 0.54132843 -0.13513695
-0.10163043 0.7458991 -0.4184399 -0.5015983 0.030338462 0.07516125 0.059501797 -0.16357635
-0.87467164 0.77437204 0.5132701 -0.004973527 0.24487129 -0.515659 0.2803957 -0.39514518
-0.18152316 -0.040630445 0.3234555 -0.16498813 0.2512889 0.29148427 0.24953316 0.064648226
-0.43162787 0.3666048 0.05488107 -0.29104668 0.05866601 0.0757096 -1.2748303 0.11234784
0.036997706 -0.91471344 -0.40062702 0.1336365 -0.07440823 0.3728007 -0.6416201 0.6216469
0.13291928 0.3859307 0.22100592 -0.25917482 0.5055411 0.36669293 -0.60305357 0.2807573
0.042886984 -0.52377254 0.23351908 0.2929681 -0.12641129 0.45907128 -0.99747324 -0.18576546
0.27743995 0.43497708 -0.0057266233 -0.094936416 0.017789137 -0.23129708 -0.080552876 0.50106627
-0.19570398 -0.41202465 -0.34776732 -0.22197512 0.13077578 -0.34291935 0.68448067 -0.036377177
0.19383304 0.80496705 0.029899642 -0.17829119 -0.0035187623 -0.2861689 -0.5814472 -0.5410994
-0.32343823 -0.0934631 0.32947564 0.47053716 0.31879544 0.20627843 0.06361793 -0.6407571
-0.08682324 -0.38587585 0.34230125 0.18846154 -0.45626685 0.33413708 -0.3554551 -0.6420211
0.098925695 -0.41801 -0.054269098 -0.09565035 -0.3767389 0.28548893 -0.34958637 0.6345659
0.44217622 0.4537528 -0.66058797 -0.046925716 -0.9147824 0.27903503 0.08476147 -0.24917562
-0.29721767 -0.1385279 -0.6394765 -0.6382407 0.1720039 -0.3655834 0.7575263 0.18697955
-0.8662452 0.047223974 0.30799782 -0.10673486 -0.27134722 -0.4457779 0.14706455 -0.36297446
-0.23330906 -0.08789651 0.98014575 0.083902955 -0.86469764 0.05019599 0.16387348 0.7155297
-0.04998918 -0.15526007 0.39524984 0.19027495 -0.44561896 0.5918257 0.1791054 0.68756926
0.19968614 0.354908 -0.09584939 -0.25419873 -0.28750312 -0.49187472 -0.27206293 0.103930764
0.30861717 0.14624485 -0.51339656 0.077541195 -0.75580376 0.090059996 -0.59481865 0.02341351
0.274022 0.34841487 -0.06499569 -0.12184555 -0.23432861 -0.022128556 -0.60391074 0.15975618
00000000: 951b 33bf 6e88 883e 98ca 69bc ecf8 813e
00000010: 1511 6fbe b235 e53d 527e cf3e 7bce 193f
00000020: b56c 7d3e f3fb 82be 920d d0bd 0a93 a5be
00000030: dd03 013f 6265 e3bd c6dc 053e 2c12 e8be
00000040: 1e34 403f 8638 2dbe be58 4b3f 1060 0f3e
00000050: 8d84 c7be 1277 07bd da1d 17bd 32ea c1bd
00000060: 7445 f3be 6a34 143f 9a62 d2be e640 00be
00000070: cb7c aebe a4f9 3f3d ab4c 913d b751 ba3d
00000080: de94 29be 7c58 00be 472b cc3e e47e f8bd
00000090: 0bcc 4ebe 960a b33e 90ce ed3e 8fe3 d0bd
000000a0: 80e8 09be 47ba 8d3e 8f3e 5abe edc5 24bd
000000b0: 0fa8 a53e 256a f1be 25b7 a73e fe5c c3be
000000c0: 5d71 b0be e1af 1fbf ecc0 b3bd 8c16 e4bd
000000d0: 6d42 e2be f36b 5e3c 6519 bf3e 36cc 6f3e
000000e0: ff65 0abf 1dd9 d03e 5217 e3be 1e10 dfbe
000000f0: bfde 003e 865b c8be 27fa 1ebf f08a 0d3e
00000100: 157f ae3d 8786 d23e e03c 873e 1ff7 8f3e
00000110: 8469 133d 2c61 1c3e b46a a13e 028c 273f
00000120: 7131 c9be 7067 ecbe b785 873e 094b efbe
00000130: 65b6 933d 33e4 d93e b9c2 cebe d1d4 c6be
00000140: f6cb 4e3e a44f adbd faf0 96be df7c 1dbe
00000150: a9e4 db3e 5c82 96bd 8094 0a3f 5761 0abe
00000160: 9d23 d0bd 3ef3 3e3f c13d d6be bf68 00bf
00000170: 5e88 f83c 24ee 993d 28b8 733d 8f80 27be
00000180: 7bea 5fbf 3f3d 463f ab65 033f f8f8 a2bb
00000190: 8abf 7a3e 3a02 04bf 0690 8f3e 7850 cabe
000001a0: 35e1 39be 1c6c 26bd f69b a53e a6f2 28be
000001b0: f0a8 803e 6d3d 953e 9f85 7f3e 4a66 843d
000001c0: 54fe dcbe a0b3 bb3e f9ca 603d 1204 95be
000001d0: c54b 703d a20d 9b3d a42d a3bf a016 e63d
000001e0: e88a 173d a92a 6abf fc1e cdbe 02d8 083e
000001f0: 5863 98bd bcdf be3e 3741 24bf 4024 1f3f
00000200: fe1b 083e b598 c53e 604f 623e 90b2 84be
00000210: 246b 013f 2dbf bb3e b861 1abf 6cbf 8f3e
00000220: 43aa 2f3d f515 06bf a01f 6f3e eaff 953e
00000230: f671 01be 640b eb3e 685a 7fbf 4d39 3ebe
00000240: 9c0c 8e3e 51b5 de3e 66a6 bbbb 066e c2bd
00000250: 86ba 913c 24d9 6cbe e8f8 a4bd e145 003f
00000260: a066 48be e5f4 d2be 8f0e b2be 724d 63be
00000270: 16ea 053e 2093 afbe 203a 2f3f 3c00 15bd
00000280: 2b7c 463e 5212 4e3f 18f0 f43c f791 36be
00000290: 099b 66bb bb84 92be b9d9 14bf 7e85 0abf
000002a0: b299 a5be 9569 bfbd 08b1 a83e 3fea f03e
000002b0: 2839 a33e a73a 533e 1e4a 823d a808 24bf
000002c0: 62d0 b1bd 8591 c5be 1c42 af3e 10fc 403e
000002d0: cf9b e9be 0414 ab3e 36fe b5be 7f5b 24bf
000002e0: 8e99 ca3d 6805 d6be 4649 5ebd 55e4 c3bd
000002f0: ece3 c0be 9b2b 923e fcfc b2be e972 223f
00000300: ec64 e23e 4952 e83e 4b1c 29bf 2e35 40bd
00000310: 2e2f 6abf aedd 8e3e 6c97 ad3d e527 7fbe
00000320: ea2c 98be 42da 0dbe bbb4 23bf be63 23bf
00000330: ca21 303e bf2d bbbe 3eed 413f 9177 3f3e
00000340: 3fc2 5dbf ed6d 413d e4b1 9d3e ce97 dabd
00000350: 06ee 8abe 003d e4be 1798 163e cad7 b9be
00000360: 92e8 6ebe 1603 b4bd d5ea 7a3f 50d5 ab3d
00000370: d35c 5dbf 4f9a 4d3d 73ce 273e f42c 373f
00000380: 74c1 4cbd 7ffc 1ebe 305e ca3e 70d7 423e
00000390: 2b28 e4be e481 173f 6867 373e 8a04 303f
000003a0: 867a 4c3e 80b6 b53e af4c c4bd 5626 82be
000003b0: 9c33 93be 01d7 fbbe d54b 8bbe a7d9 d43d
000003c0: 1203 9e3e 36c1 153e f56d 03bf ebcd 9e3d
000003d0: 5b7c 41bf 6071 b83d 0946 18bf b0cd bf3c
000003e0: 9d4c 8c3e 6f63 b23e 761c 85bd 298a f9bd
000003f0: d7f3 6fbe f246 b5bc e599 1abf 2097 233e

fc2.bias f4 [300]
-0.22334827 -0.29795495 -0.5228987 -0.19280043 -0.3664439 -0.4987479 -0.46177652 -0.6776686
-0.21769378 -0.38933152 -0.26160952 -0.22788845 -0.17198625 -0.3826493 -0.36383814 0.032483507
-0.456458 -0.27210543 -0.61647695 -0.059548866 -0.45569688 -0.113318264 0.003182433 -0.24742492
-0.35910884 -0.20147416 -0.46925136 -0.553822 -0.39049312 -0.52470756 -0.07357022 -0.6410434
-0.572546 -0.44072282 -0.27296823 -0.3201868 -0.4196076 -0.26261663 0.1188578 -0.35018408
-0.25685662 -0.40639123 -0.14564127 -0.5315918 -0.3177988 -0.21516174 -0.43865937 -0.3177502
-0.21985726 -0.28567472 -0.08327216 -0.07364603 -0.13760684 -0.30435774 -0.4046849 -0.3266735
-0.48429576 -0.13441223 -0.50460994 -0.62897545 -0.3667401 -0.27918902 -0.57101506 -0.17543504
-0.1288238 -0.30302903 -0.12612164 -0.33937094 0.009697733 -0.20803052 -0.2070105 -0.2221331
0.020412736 -0.06931011 -0.6261962 -0.71533567 -0.6732731 -0.4286114 -0.21884188 -0.4458759
-0.31127924 -0.47112066 -0.46121696 -0.22136365 -0.37646824 -0.58068657 -0.8188713 -0.33408317
-0.22787344 -0.43616024 -0.3147235 -0.262941 -0.6083226 0.036798455 -0.3837846 -0.25946024
-0.33510837 -0.33384925 0.17045482 -0.25223118 -0.8487134 -0.44909284 -0.13324459 -0.36164644
-0.21344012 -0.5494908 -0.65146375 -0.3638414 -0.4665364 -0.8468408 -0.3684949 -0.28729123
0.020022487 -0.17915276 -0.5429496 -0.36084569 -0.6536755 -0.015487581 -0.1639607 -0.24357782
-0.13377436 -0.42127675 -0.4368731 -0.3333814 -0.33631912 -0.36116803 -0.42800292 -0.72530025
-0.2127333 -0.09039963 -0.30641368 -0.29552308 -0.16867818 -0.2817771 -0.94387674 -0.33866546
-0.08677641 -0.36350423 -0.56998026 -0.75375146 -0.4816381 -0.30183777 -0.40304396 -0.05432716
-0.4368709 -0.39575186 -0.9326676 -0.59654266 -0.38148794 -0.23892054 -0.45550317 -0.33050087
-0.58871037 -0.17421584 -0.35714087 -0.47031462 -0.4841484 -0.292828 -0.17428699 -0.27755156
0.16300283 -0.22690375 -0.14095114 -0.14210345 -0.2697944 -0.5683084 -0.16620754 -0.16757323
-0.59256214 -0.42602322 -0.37421924 -0.3786259 -0.50440204 -0.23246965 -0.12026031 -0.5095553
-0.15990862 -0.36002174 -0.30877796 -0.54185814 -0.12383927 -0.17158777 -0.39335123 -0.2886219
-0.58328444 -0.22012523 -0.19474424 -0.46854892 -0.13293436 -0.44532904 -0.39069661 -0.37062398
-0.1217654 -0.16348228 2.6455455e-05 0.15073843 -0.1887626 -0.28606755 -0.33633173 -0.5639113
-0.18179362 -0.72206557 -0.5076199 -0.49780712 -0.3085999 -0.33876657 -0.31403202 -0.12874006
-0.22224031 -0.2077233 -0.15738554 -0.14784926 0.065735795 -0.45610136 -0.23182486 -1.1326718
-0.07431119 -0.65431404 -0.30808866 -0.23681808 -0.7142008 -0.5910299 -0.38423765 -0.45727873
-0.15598524 -0.42049623 -0.2863529 -0.08117843 -0.054546066 -0.03708327 -0.25560588 -0.06457495
-0.16243276 -0.39820296 -0.51983726 -0.14716612 -0.45022434 -0.38973287 -0.38328367 -0.35976243
-0.4643683 -0.08985308 -0.20329691 -0.503822 -0.24890433 -0.37126508 -0.66590536 -0.55934334
-0.63863134 -0.3795913 -0.6420088 -0.7852465 -0.28932372 -0.56107336 -0.5821223 -0.30533051
00000000: 69b5 64be 8d8d 98be b0dc 05bf 7a6d 45be
00000010: 899e bbbe e25b ffbe f96d ecbe b07b 2dbf
00000020: 1eeb 5ebe 7656 c7be aff1 85be 975b 69be
00000030: 2a1d 30be 9cea c3be fe48 babe 6d0d 053d
00000040: ddb4 e9be 6751 8bbe 6fd1 1dbf 83e9 73bd
00000050: 1a51 e9be 6813 e8bd 5e90 503b f55c 7dbe
00000060: 1ddd b7be 3e4f 4ebe b741 f0be 47c7 0dbf
00000070: b7ee c7be 3c53 06bf fcab 96bd 6c1b 24bf
00000080: 6092 12bf 6ca6 e1be 7ec2 8bbe 86ef a3be
00000090: cfd6 d6be b075 86be b86b f33d 544b b3be
000000a0: b682 83be 8312 d0be fc22 15be 6616 08bf
000000b0: 86b6 a2be 5c53 5cbe f697 e0be 27b0 a2be
000000c0: 4322 61be f543 92be 988a aabd bbd3 96bd
000000d0: cfe8 0cbe c7d4 9bbe dc32 cfbe c041 a7be
000000e0: 9df5 f7be 5ca3 09be 1e2e 01bf 8904 21bf
000000f0: 5cc5 bbbe ddf1 8ebe 0b2e 12bf 3ea5 33be
00000100: 63ea 03be 9f26 9bbe 0826 01be 07c2 adbe
00000110: 3ee3 1e3c f405 55be 8ffa 53be dc76 63be
00000120: 9c38 a73c 75f2 8dbd 654e 20bf 3d20 37bf
00000130: a05b 2cbf f472 dbbe 1618 60be d949 e4be
00000140: fe5f 9fbe ba36 f1be a124 ecbe 27ad 62be
00000150: 72c0 c0be e0a7 14bf 8da1 51bf f30c abbe
00000160: a857 69be 6550 dfbe 7023 a1be 34a0 86be
00000170: 08bb 1bbf fab9 163d 6a7f c4be f9d7 84be
00000180: 5393 abbe 4aee aabe b58b 2e3e 7224 81be
00000190: 4845 59bf 7fef e5be 4571 08be b929 b9be
000001a0: 0c90 5abe 6eab 0cbf 54c6 26bf 6c49 babe
000001b0: dcdd eebe 8fca 58bf 5dab bcbe d617 93be
000001c0: 3306 a43c d273 37be bffe 0abf c4c0 b8be
000001d0: 4757 27bf 9fbf 7dbc 50e5 27be 776c 79be
000001e0: 25fc 08be 96b1 d7be d5ad dfbe f8b0 aabe
000001f0: 0532 acbe 04eb b8be 3323 dbbe 47ad 39bf
00000200: c2d6 59be 7123 b9bd 41e2 9cbe cd4e 97be
00000210: f9b9 2cbe 1745 90be e8a1 71bf 8f65 adbe
00000220: d5b7 b1bd 3a1d babe 3aea 11bf dbf5 40bf
00000230: 4599 f6be 7b8a 9abe c75b cebe 2886 5ebd
00000240: 8bad dfbe fd9f cabe 4ec3 6ebf 05b7 18bf
00000250: 6352 c3be 96a7 74be b637 e9be 6937 a9be
00000260: b9b5 16bf a365 32be 2bdb b6be 14cd f0be
00000270: 4de2 f7be 8ded 95be 4a78 32be 3d1b 8ebe
00000280: 37ea 263e 7559 68be 7f55 10be 9183 11be
00000290: 7e22 8abe a97c 11bf 4f32 2abe 5198 2bbe
000002a0: 27b2 17bf b71f dabe aa99 bfbe 41db c1be
000002b0: 7e20 01bf 860c 6ebe 0a4b f6bd 3772 02bf
000002c0: 16bf 23be c554 b8be 2518 9ebe 37b7 0abf
000002d0: 719f fdbd b4b4 2fbe 5565 c9be 40c6 93be
000002e0: 2152 15bf 8268 61be 096b 47be a5e5 efbe
000002f0: f21f 08be 2b02 e4be 6309 c8be 6dc2 bdbe
00000300: 2360 f9bd e667 27be a8ec dd37 2d5b 1a3e
00000310: fc4a 41be 7277 92be ac33 acbe 7e5c 10bf
00000320: 1b28 3abe 4ad9 38bf 61f3 01bf 93e0 febe
00000330: ce00 9ebe d072 adbe cec8 a0be 6fd4 03be
00000340: f792 63be 6bb5 54be ad29 21be cc65 17be
00000350: 7da0 863d 1e86 e9be 7f63 6dbe 64fb 90bf
00000360: 7730 98bd 2081 27bf ccbd 9dbe 7080 72be
00000370: ddd5 36bf bc4d 17bf ccba c4be 7020 eabe
00000380: 98ba 1fbe 484b d7be d99c 92be e040 a6bd
00000390: b26b 5fbd a0e4 17bd c6de 82be df3f 84bd
000003a0: c654 26be 42e1 cbbe 0e14 05bf b7b2 16be
000003b0: ce83 e6be 118b c7be c23d c4be c832 b8be
000003c0: afc1 edbe e404 b8bd 112d 50be 7bfa 00bf
000003d0: c7e0 7ebe 7516 bebe c678 2abf 2031 0fbf
000003e0: 587d 23bf ca59 c2be b05a 24bf ea05 49bf
000003f0: 3d22 94be 81a2 0fbf f805 15bf 4854 9cbe

fc3.weight f4 [4, 300]
-0.18888363 -0.18578409 -0.09191508 0.17012334 -0.23156063 0.45547974 0.12970458 0.3043898
0.04546593 0.107470706 -0.06768766 0.08637377 0.52762395 -0.50336194 0.15960945 -0.2274153
-0.21615845 0.049901813 -0.04289566 -0.46399593 0.31173068 0.18836115 0.013638752 -0.3785083
-0.41614416 -0.17060551 0.22757843 -0.4121824 0.34943545 -0.54154086 -0.20181811 -0.10147843
0.13765734 0.012462609 -0.032055438 0.03877683 -0.14986373 0.0017264627 -0.5568699 0.2167762
0.28675392 0.603396 -0.36127225 -0.13413326 -0.3523408 -0.32566193 0.16376756 -0.02285436
0.19581543 0.119092554 -0.15128754 0.01637302 -0.16931137 0.3263653 -0.084830165 0.29456192
-0.2978241 -0.016026573 -0.56277084 0.5202633 0.06273979 0.098498486 0.004180032 0.36480132
0.030230924 0.17922516 -0.2053764 0.23217852 0.14442988 0.32168752 -0.07771893 0.07584613
0.54543585 0.724799 -0.053011633 0.39002818 -0.1276203 -0.0779957 -0.058023773 0.058327656
0.028721154 -0.33113712 -0.5045629 0.08482298 0.47071463 -0.12457095 0.08291032 0.47621793
-0.17533255 -0.13990957 -0.10537985 0.42249113 -0.10451199 0.0012023841 -0.37813777 -0.0850175
-0.30182958 0.53309095 -0.41151 -0.078406066 0.30399033 -0.0125970645 -0.16459042 -0.028544126
0.124013476 -0.103735864 -0.41382936 0.029261382 0.06452558 -0.19144467 -0.17692815 -0.038523436
0.0075527923 0.0046585957 0.19983646 -0.50690126 0.36879668 0.16904902 0.10645373 0.41263172
-0.054939143 0.16089809 -0.19860667 -0.08985229 -0.010895001 -0.62812775 0.41606495 0.0579802
-0.5252831 -0.4604354 -0.25922102 0.084358156 0.353375 -0.1353328 -0.29478458 0.037889604
-0.7313581 0.52921474 -0.0844582 0.08470237 -0.045601733 -0.26479253 -0.19495244 -0.07435233
-0.17554188 0.28395644 -0.0015457724 -0.16244052 -0.01650612 -0.11728909 0.7151125 -0.118298374
-0.65921164 0.07543288 -0.019281363 0.68651193 0.38799912 0.032705877 0.25216788 -0.05596981
-0.19589035 0.4486295 0.01686641 0.34282574 -0.48269734 0.7848568 -0.48635077 0.056943733
0.34986335 0.09976133 -0.075554125 -0.05095424 -0.07661653 0.16735786 -0.10020678 0.35731587
-0.0063879997 -0.067767054 -0.21481098 -0.47183383 0.07612812 0.124550685 0.052635122 -0.2469493
-0.2746668 -0.7367825 -0.020079717 0.16536082 0.2908516 -0.11803426 0.23590212 0.71867746
0.070135824 -0.07208194 0.035681512 -0.11007256 0.40384096 -0.2687519 -0.18513073 0.5737081
0.4197849 -0.057214987 -0.2844887 -0.0056606415 0.016094945 0.111229174 0.022401081 0.315575
0.25125808 -0.23290388 0.025140269 -0.5698279 -0.23898149 0.3533502 0.023576178 -0.19071631
-0.23173277 0.40395775 0.0017884484 0.08056336 -0.29385602 0.23053913 0.0061005726 -0.06217526
0.044449877 0.124475025 -0.24917588 0.0029366491 0.18279606 -0.115773596 -0.37659565 0.027422644
0.08008459 0.4615879 0.12633862 0.08267777 0.21829109 0.008796227 0.19138928 0.036591835
-0.17727815 -0.64138925 -0.22591145 -0.27056462 -0.22677758 -0.3724487 -0.2612832 -0.52227855
-0.20151572 -0.051920038 -0.0026178895 -0.07536379 -0.21156779 0.6365732 0.25853518 0.4087527
00000000: b66a 41be 2f3e 3ebe f93d bcbd d034 2e3e
00000010: 3b1e 6dbe a434 e93e 47d1 043e fbd8 9b3e
00000020: 7c3a 3a3d 9a19 dc3d d49f 8abd bbe4 b03d
00000030: 5d12 073f 54dc 00bf a970 233e 8edf 68be
00000040: a458 5dbe d865 4c3d 5cb3 2fbd e090 edbe
00000050: 2a9b 9f3e bfe1 403e 1275 5f3c d7cb c1be
00000060: d910 d5be 36b3 2ebe 520a 693e 9209 d3be
00000070: 34e9 b23e 6ca2 0abf 68a9 4ebe ecd3 cfbd
00000080: 0cf6 0c3e f92f 4c3c 904c 03bd 74d4 1e3d
00000090: e175 19be 7a4a e23a 078f 0ebf 95fa 5d3e
000000a0: 69d1 923e 2978 1a3f adf8 b8be 3b5a 09be
000000b0: 0366 b4be 29bd a6be afb2 273e 1139 bbbc
000000c0: d783 483e cce6 f33d 1feb 1abe b620 863c
000000d0: f65f 2dbe 5a19 a73e 70bb adbd d2d0 963e
000000e0: 677c 98be 294a 83bc c011 10bf fa2f 053f
000000f0: b87d 803d 93b9 c93d a6f8 883b 3dc7 ba3e
00000100: d8a6 f73c cd86 373e 314e 52be 35c0 6d3e
00000110: 6de5 133e 3ab4 a43e 1a2b 9fbd 3755 9b3d
00000120: afa1 0b3f 6d8c 393f ba22 59bd c6b1 c73e
00000130: e5ae 02be 36bc 9fbd 56aa 6dbd fbe8 6e3d
00000140: a048 eb3c ce8a a9be 092b 01bf acb7 ad3d
00000150: 8201 f13e 0e1f ffbd e3cc a93d d6d2 f33e
00000160: 608a 33be 7444 0fbe 64d1 d7bd c250 d83e
00000170: 620a d6bd 5199 9d3a 469b c1be a81d aebd
00000180: 6889 9abe a678 083f 70b1 d2be 5c93 a0bd
00000190: 9fa4 9b3e eb63 4ebc 648a 28be 5fd5 e9bc
000001a0: c7fa fd3d 7873 d4bd 71e1 d3be 91b5 ef3c
000001b0: fd25 843d 120a 44be a72c 35be c0ca 1dbd
000001c0: 6a7d f73b 22a7 983b eea1 4c3e 48c4 01bf
000001d0: ebd2 bc3e 301b 2d3e 6a04 da3d 7744 d33e
000001e0: de07 61bd 78c2 243e 8c5f 4bbe 7a04 b8bd
000001f0: f280 32bc fbcc 20bf 7706 d53e a57c 6d3d
00000200: f478 06bf 30be ebbe 9eb8 84be f8c3 ac3d
00000210: 91ed b43e ae94 0abe 01ee 96be 2132 1b3d
00000220: 493a 3bbf 9e7a 073f 6cf8 acbd 7078 ad3d
00000230: e2c8 3abd e392 87be 9da1 47be 0946 98bd
00000240: 40c1 33be bd62 913e 849b caba cf56 26be
00000250: d837 87bc 4335 f0bd 9d11 373f 6b46 f2bd
00000260: 18c2 28bf 8e7c 9a3d f3f3 9dbc 3fbf 2f3f
00000270: d2a7 c63e 99f6 053d 261c 813e 9940 65bd
00000280: 7b97 48be c4b2 e53e 6d2b 8a3c db86 af3e
00000290: 1b24 f7be 60ec 483f f802 f9be d53d 693d
000002a0: 4a21 b33e ab4f cc3d 1fbc 9abd 65b5 50bd
000002b0: 21e9 9cbd dc5f 2b3e 3639 cdbd 1bf2 b63e
000002c0: 6d52 d1bb 74c9 8abd 69f7 5bbe 3494 f1be
000002d0: 0fe9 9b3d 6e14 ff3d ed97 573d 47e0 7cbe
000002e0: 20a1 8cbe c79d 3cbf 387e a4bc 5954 293e
000002f0: 80ea 943e f2bb f1bd 5390 713e 3ffb 373f
00000300: 5fa3 8f3d b29f 93bd c726 123d b96d e1bd
00000310: 3ec4 ce3e d999 89be e992 3dbe 89de 123f
00000320: 0cee d63e 435a 6abd 81a8 91be e77c b9bb
00000330: 8cd9 833c 1fcc e33d 7982 b73c 0c93 a13e
00000340: e6a4 803e 5b7e 6ebe f7f2 cd3c 3ee0 11bf
00000350: 90b7 74be 51ea b43e d422 c13c 234b 43be
00000360: 5b4b 6dbe 8dd3 ce3e 5f6a ea3a 67fe a43d
00000370: 4c74 96be 7312 6c3e 50e7 c73b 7cab 7ebd
00000380: 1311 363d c3ec fe3d f627 7fbe cc74 403b
00000390: e42e 3b3e b51a edbd 25d1 c0be 74a5 e03c
000003a0: 6403 a43d 4055 ec3e e95e 013e f652 a93d
000003b0: b387 5f3e 0d1e 103c 8dfb 433e 52e1 153d
000003c0: 6788 35be 1632 24bf 5555 67be 7287 8abe
000003d0: 6238 68be 99b1 bebe e9c6 85be 0cb4 05bf
000003e0: 235a 4ebe 1baa 54bd e690 2bbb 5558 9abd
000003f0: 3aa5 58be 76f6 223f b95e 843e 0948 d13e

fc3.bias f4 [4]
0.03536302 0.20855728 0.032052085 -0.38129723
00000000: d0d8 103d 0a90 553e 0c49 033d 6439 c3be
