experiments/exp1/models/checkpoint_critic_10.pth (torch_old, 279240 bytes, 9 tensors)

fc1.weight f4 [200, 33]
0	0xbb888758	-0.004166525
1	0xbd5baa41	-0.053629164
2	0x3d81e821	0.06343103
3	0xbc88a2b7	-0.016679151
4	0x3e233dd2	0.15941551
5	0xbd4388cf	-0.047737893
6	0x3cc0cede	0.023536142
7	0xbc0a23bd	-0.008431372
8	0x3ce1c380	0.027559042
9	0xbcb2a259	-0.021805929
10	0xbcb5f9b6	-0.022213798
11	0xbc93f35b	-0.018060377
12	0x3cb58ed2	0.022162829
13	0x3c203e90	0.009780541
14	0x3d1f0fe3	0.03883351
15	0xbdf039cb	-0.11729773
16	0x3d87fae7	0.06639653
17	0xbe5f2e3b	-0.2179498
18	0xbc93d597	-0.018046184
19	0xbdb6152b	-0.08890756
20	0x3c1c7d94	0.0095514245
21	0xbce76dfb	-0.028250685
22	0xbbc4f600	-0.006010771
23	0x3cff3897	0.031154914
24	0x3c9d67c3	0.019214517
25	0xbde2a110	-0.110658765
26	0xbc4ce4d5	-0.01250573
27	0xbbfe68cd	-0.007763958
28	0x3d85c96c	0.06532559
29	0xbc68d180	-0.014210105
30	0x3d299418	0.041401
31	0x3ce00488	0.02734591
32	0xbd4e04f6	-0.0502977
33	0xbdba4e39	-0.09096951
34	0x3d43b1a3	0.04777683
35	0x3dcedffd	0.10101316
36	0xbd2d9569	-0.042378817
37	0xbcfce2a1	-0.030869784
38	0x3cf24fec	0.029579125
39	0xbdd28bf0	-0.10280597
40	0x3ce563dd	0.02800172
41	0xbcb20fa9	-0.021735983
42	0xbd22b60e	-0.039724402
43	0xbbd71a99	-0.00656445
44	0x3c781c2b	0.0151434345
45	0xbbe1fd22	-0.006896631
46	0x3dcdc425	0.10047177
47	0xbbbbfdca	-0.005737041
48	0xbdd4ccfd	-0.10390661
49	0xbbdb6b0c	-0.0066961106
50	0x3d6fa995	0.058511335
51	0x3d18eb88	0.037333995
52	0x3d5e8b13	0.05433185
53	0x3b33603e	0.0027370597
54	0x3ca5dfce	0.02024832
55	0x3c82da5d	0.015973264
56	0x3d3d3263	0.04619063
57	0xbbc1174a	-0.005892669
58	0xbcf5ea75	-0.030019024
59	0xbd7ab13b	-0.061204176
60	0x3d11ccf8	0.035595864
61	0x3d5d0442	0.05395914
62	0x3d845359	0.0646121
63	0xbdc7f699	-0.09763832
64	0xbcd0bcee	-0.025480714
65	0xbe893f31	-0.26806024
66	0xbcb3b785	-0.021938095
67	0xbc36b1b8	-0.01115077
68	0x3d8cb16c	0.06869778
69	0x3d1dd6c1	0.038534883
70	0xbe6ad914	-0.22934371
71	0xbe8a8a2d	-0.27058545
72	0xbe211e22	-0.15734151
73	0x3d08715c	0.033311233
74	0xbb89ea6e	-0.0042088544
75	0xbd608d24	-0.054822102
76	0xbab12c49	-0.0013517226
77	0xbc350c4a	-0.011050293
78	0x3cbc62b2	0.02299628
79	0xbb9ca487	-0.0047803554
80	0xba824b63	-0.000994068
81	0xbc691126	-0.01422528
82	0xbd4c02bd	-0.0498073
83	0xbd169e57	-0.0367721
84	0x3e14fe96	0.14550242
85	0xbdd91832	-0.10600318
86	0x3c70032b	0.014649193
87	0x3bca1ba9	0.006167848
88	0x3b676f56	0.0035314164
89	0x3c6db788	0.014509089
90	0xbb4c449d	-0.0031168826
91	0xbc762abf	-0.01502484
92	0x3d589eaf	0.052885707
93	0xbc931695	-0.017955104
94	0x3c1df511	0.009640948
95	0xbca0abf6	-0.019613247
96	0x3d55ee19	0.05222902
97	0xbd80e424	-0.06293514
98	0xbe9c73c2	-0.30557066
99	0xbde6136e	-0.11234175
100	0x3d83e6b6	0.06440489
101	0xbcf9444e	-0.030428078
102	0xbe26a35b	-0.16273253
103	0x3c856509	0.016283529
104	0x3d9bf7cf	0.07615625
105	0xbd20e3aa	-0.039279617
106	0x3c962e1d	0.018332535
107	0x3e02637b	0.12733261
108	0xbcdfb476	-0.02730773
109	0xbd277d58	-0.04089102
110	0x3a84c459	0.0010129317
111	0xbbeff927	-0.0073234024
112	0xbd6edec5	-0.05831792
113	0x3b673de7	0.00352847
114	0x3cc55493	0.02408818
115	0xbcbbfc08	-0.022947326
116	0x3c5a4b2c	0.013323586
117	0xbdb0269c	-0.08601114
118	0xbe16cea4	-0.14727265
119	0xbc5aa900	-0.013345957
120	0x3cf88969	0.03033896
121	0x3d042154	0.032258347
122	0xbdc75f05	-0.097349204
123	0x3d446c2e	0.04795473
124	0xbced97ac	-0.029002987
125	0x3d7c27f3	0.061561536
126	0x3dc867a7	0.09785395
127	0x3c698421	0.014252693
128	0xbd38c063	-0.04510535
129	0xbd72354f	-0.05913287
130	0x3c705bd0	0.014670327
131	0xbda50835	-0.08058206
132	0x3ca3332d	0.019921863
133	0x3dad2e9b	0.08456155
134	0x3a6a890f	0.0008946815
135	0xbbc04cb2	-0.005868518
136	0x3e6b456b	0.229757
137	0x3dff3ad9	0.12462396
138	0x3da6958f	0.08133995
139	0x3905f804	0.00012776261
140	0xbcfff3ce	-0.031244185
141	0x3b4329b7	0.0029779503
142	0x3c26685c	0.010156717
143	0x3ced8d33	0.028997993
144	0x3d9003b5	0.07031957
145	0xbd25fbc1	-0.040523294
146	0x3bff5b9f	0.0077929045
147	0x3c214425	0.009842907
148	0x3e13fed1	0.14452673
149	0xbe1462b8	-0.14490783
150	0x3d4e0309	0.050295863
151	0xbd053c2e	-0.032528095
152	0xbcbe220b	-0.023209592
153	0xbd201222	-0.039079793
154	0xbd8d1ebf	-0.0689063
155	0xbd2425e3	-0.040075194
156	0x3d49e109	0.049286876
157	0x3c937342	0.017999295
158	0xbc3be1bb	-0.011467393
159	0x3d50d98b	0.050988715
160	0xbdc2f884	-0.09520057
161	0x3b90e680	0.004422009
162	0xbdd197cf	-0.10234033
163	0xbc1eeca0	-0.0096999705
164	0x3c9d838d	0.019227767
165	0xbc0e1b62	-0.008673521
166	0x3de3b587	0.11118608
167	0x3d3fc90a	0.046822585
168	0x3d6add2b	0.05733983
169	0xbd7400a4	-0.059570923
170	0x3e070470	0.13185287
171	0x3e2f2e3f	0.17107485
172	0x3da5ddf1	0.080989726
173	0x3db391a2	0.08768012
174	0x3dbcb252	0.092136994
175	0x3bb6e022	0.005580918
176	0x3da0138c	0.07816228
177	0xbca473c8	-0.02007474
178	0xbd0fdde8	-0.035123736
179	0xbd0f2112	-0.034943648
180	0xbd445f2a	-0.047942318
181	0x3cf1ba27	0.02950771
182	0x3d5bf77b	0.053702813
183	0xbe44f66b	-0.19234626
184	0x3e04f47d	0.1298389
185	0x3d28bc1f	0.04119503
186	0x3be13a02	0.00687337
187	0xbcea1c59	-0.02857797
188	0x3d5bd614	0.053670958
189	0xbc447a7b	-0.011992092
190	0xbc91cd47	-0.01779808
191	0xbdad8ae2	-0.084737554
192	0xbc184749	-0.009294339
193	0xbd1569ce	-0.036477856
194	0x3d3a9288	0.0455499
195	0xbdd67cc7	-0.10473018
196	0xbcff363a	-0.031153787
197	0x3cca09cb	0.024662873
198	0xbdc49aed	-0.09599862
199	0xbc84fd25	-0.01623399
200	0x3d7a036e	0.061038427
201	0x3cc8fc29	0.024534302
202	0x3d8491de	0.064731345
203	0x3e2b2fb1	0.16717412
204	0xbc02fdf4	-0.007995117
205	0xbd0102f8	-0.03149697
206	0xbd7b049f	-0.061283704
207	0xbbc6cff8	-0.0060672723
208	0xbd86adc0	-0.06576109
209	0xbd78a4d5	-0.06070407
210	0xbd0967c1	-0.033546213
211	0x3c8148ec	0.015781842
212	0xbca273e0	-0.019830644
213	0x3c5a0a5a	0.013308132
214	0x3e046169	0.12927784
215	0x3e46e460	0.19423056
216	0xbd5293c6	-0.05141046
217	0x3d779a82	0.060450085
218	0xbd89c9a3	-0.06727912
219	0x3d5b48c1	0.05353618
220	0x3da79deb	0.08184417
221	0x3d032a73	0.032022905
222	0x3d296549	0.04135636
223	0x3bdfdc38	0.006831672
224	0x3d820a24	0.063495904
225	0x3d8e56e6	0.06950168
226	0xbd617867	-0.055046465
227	0x3c1da8d8	0.009622775
228	0xbd89a69e	-0.06721233
229	0xbc179508	-0.00925184
230	0xbde90797	-0.11378401
231	0xbdea9ace	-0.11455308
232	0xbd883951	-0.06651557
233	0x3d826fc2	0.06368972
234	0xbe024ffc	-0.12725824
235	0x3d5ebecf	0.054381188
236	0x3c82d2fe	0.01596975
237	0xbe5b061a	-0.21389046
238	0x3ca44aac	0.020055138
239	0x3d2746cd	0.040839005
240	0xbd973b38	-0.07384342
241	0xbacf7f67	-0.0015830816
242	0xbc4311af	-0.011906072
243	0x3d266709	0.040625606
244	0x3d77120a	0.060319938
245	0x3d865f31	0.06561125
246	0x3c22f2ce	0.009945584
247	0xbde05720	-0.10954118
248	0x3e19fe80	0.1503849
249	0x3dd1e583	0.10248854
250	0xbdddef45	-0.10836653
251	0xbcaa710c	-0.020805858
252	0xbc31a91b	-0.010843541
253	0x3c08bfc4	0.008346502
254	0xbd0f1c2e	-0.034938984
255	0xbcbd2a2e	-0.023091402

fc1.bias f4 [200]
0	0xbd3e0498	-0.0463911
1	0x3dce9d63	0.10088613
2	0xbe085ff0	-0.13317847
3	0x3cfa639e	0.03056508
4	0xbe27ca01	-0.16385652
5	0xbe58e8ba	-0.21182528
6	0xbe3d8e8e	-0.18511412
7	0xbdbf30aa	-0.09335454
8	0xbe2ff668	-0.1718384
9	0xbd50c29e	-0.05096685
10	0xbe581d82	-0.21105006
11	0x3e0c86af	0.13723253
12	0xbd530ac1	-0.051523928
13	0xbd4fbf49	-0.050719533
14	0x3c7bee01	0.015376569
15	0xbe8dc308	-0.2768786
16	0xbd934b56	-0.071921036
17	0xbd16a1a9	-0.036775265
18	0x3d2d0506	0.04224112
19	0xbe22c618	-0.1589588
20	0x3d92900f	0.07156383
21	0x3deb1043	0.11477711
22	0xbd349e43	-0.044096243
23	0xbe1eac29	-0.15495361
24	0xbe2c9844	-0.1685496
25	0xbe23ebb5	-0.16007884
26	0xbd0f51ee	-0.034990244
27	0x3e0f4f05	0.13994987
28	0xbcb723f9	-0.02235602
29	0xbdcca931	-0.09993208
30	0xbda5d58b	-0.08097371
31	0x3d584a9f	0.05280554
32	0x3d2b7bef	0.04186624
33	0xbda8010a	-0.08203323
34	0x3d80f07b	0.06295868
35	0x3c8b1400	0.01697731
36	0x3d3ec8e5	0.046578307
37	0xbe476d52	-0.19475296
38	0xbb8d4976	-0.0043117357
39	0x3c5ff6de	0.013669698
40	0xbd8ba3ca	-0.0681835
41	0xbdab57b0	-0.083663344
42	0xbdb8d28a	-0.09024532
43	0x3dc26b7a	0.09493156
44	0x3dcef35f	0.10105013
45	0xbb9471b6	-0.004530157
46	0xbdc889f1	-0.09791935
47	0x3def7f84	0.116942436
48	0xbe481168	-0.1953789
49	0xbe7ec130	-0.24878383
50	0x3ddb30dd	0.10702679
51	0xbe5e525c	-0.21711105
52	0x3cf989b8	0.030461177
53	0x3da2114c	0.07913455
54	0xbe262a20	-0.16227007
55	0x3e032861	0.12808372
56	0xbda9a05e	-0.08282541
57	0xbe0d0371	-0.13770844
58	0x3e539971	0.20664002
59	0x3d1502d4	0.03637965
60	0x3d2e6479	0.042576287
61	0x3e0b7f03	0.1362267
62	0xbe3108f0	-0.17288566
63	0x3d680b59	0.056651447
64	0xbd8647f2	-0.06556691
65	0x3d68e9f5	0.056863744
66	0x3df29651	0.11845077
67	0xbdc31a92	-0.09526552
68	0xbda94ab7	-0.08266204
69	0xbdddacd5	-0.10823981
70	0xbe7591ea	-0.23981443
71	0x3d3440f6	0.044007264
72	0xbc2ac691	-0.0104233185
73	0x3db7f9d8	0.08983201
74	0x3a58e253	0.0008273471
75	0xbe5d3a01	-0.21604158
76	0x3d07298b	0.032998603
77	0xbdd6987d	-0.104783036
78	0x3dc66d95	0.0968887
79	0x3dc918ca	0.09819181
80	0x3d05d5e3	0.03267468
81	0xbe591808	-0.21200573
82	0x3e639f6d	0.22228785
83	0xbe4d8999	-0.2007202
84	0xbdfbba86	-0.12291436
85	0x3e180a7f	0.14847754
86	0xbda6bfce	-0.081420526
87	0xbdf9d9c4	-0.121997386
88	0x3e3674e2	0.17818025
89	0xbc6d8193	-0.014496225
90	0xbd9e02ea	-0.077153996
91	0x3db1d92d	0.08684001
92	0x3d4f7197	0.050645437
93	0xbddc50b4	-0.107575804
94	0xbe185baa	-0.14878717
95	0x3b5fe861	0.0034165608
96	0x3cc99915	0.024609128
97	0x3c9026c0	0.017596602
98	0x3d25b75a	0.04045806
99	0x3aa5a839	0.0012638635
100	0x3df35d34	0.118830115
101	0xbd6dc2d9	-0.05804715
102	0x3d6be248	0.057588845
103	0xbd725691	-0.059164587
104	0x3c70c426	0.014695203
105	0xbe161cf9	-0.1465949
106	0xbdd4a9a9	-0.103839226
107	0xbe2bd8ce	-0.16781923
108	0xbd9dfd18	-0.077142894
109	0xb9e91d52	-0.00044463068
110	0xbc9c7f0d	-0.019103551
111	0xbd753224	-0.05986227
112	0xbd4e6f6f	-0.05039924
113	0x3d810d09	0.063013144
114	0xbe2a985d	-0.16659684
115	0xbe02279c	-0.12710422
116	0x3d18459e	0.037175767
117	0xbe80498e	-0.25056118
118	0xbe7b58e2	-0.24545625
119	0xbe399ff4	-0.18127424
120	0x3dc89afe	0.097951874
121	0x3d58b848	0.05291012
122	0x3e002103	0.12512593
123	0xbdf63242	-0.12021305
124	0x3e1a35af	0.15059541
125	0xbe15fa19	-0.14646186
126	0x3d93cbc5	0.072166
127	0x3e1432a0	0.14472437
128	0xbe41933a	-0.18903819
129	0xbdcd0f1f	-0.1001265
130	0xbe1247c8	-0.14285195
131	0xbba9bc93	-0.0051799505
132	0x3c9af689	0.018916385
133	0x3df2c1b8	0.11853355
134	0xbe04b645	-0.12960155
135	0xbe32a1b9	-0.17444505
136	0xbe5d7e00	-0.21630096
137	0xbc99a6bd	-0.018756265
138	0xbe04bff8	-0.12963855
139	0xbdaddf6b	-0.08489879
140	0x3d2bc6b4	0.041937545
141	0xbe49659c	-0.19667667
142	0xbd3a37cd	-0.045463372
143	0xbd9bed25	-0.07613591
144	0xbdcef4cd	-0.10105286
145	0xbc58cd96	-0.013232609
146	0xbe162414	-0.146622
147	0xbcaf0cf5	-0.021368483
148	0xbd8089ff	-0.06276321
149	0x3ce48140	0.027893662
150	0x3dcc5670	0.09977424
151	0xbce29df2	-0.027663205
152	0xbc6bd1c7	-0.014393277
153	0xbe1e9a86	-0.15488634
154	0xbcab39db	-0.020901611
155	0xbe120252	-0.14258698
156	0xbdce9b97	-0.1008827
157	0x3d859684	0.06522849
158	0x3cb23421	0.021753373
159	0xbe26c6dd	-0.16286798
160	0x3df31a01	0.11870194
161	0xbdeab50d	-0.11460314
162	0xbe361c21	-0.17784168
163	0xbe21bf11	-0.15795542
164	0x39cf6e33	0.00039564222
165	0xbcacb668	-0.021083072
166	0x3e311409	0.17292799
167	0xbe122d9f	-0.14275216
168	0x3e4568be	0.19278237
169	0x3bb34f3b	0.0054720915
170	0x3d8d42f3	0.06897535
171	0xbcc4d498	-0.024027154
172	0xbddfd934	-0.109301
173	0xbdf32e89	-0.1187411
174	0x3c01f0fd	0.007930991
175	0x3d4fb98a	0.050714053
176	0xbdec9666	-0.11552124
177	0xbd273a0c	-0.040826842
178	0x3d654e99	0.05598316
179	0x3db9f057	0.09079044
180	0x3d89e59e	0.06733249
181	0xbe383ab7	-0.17991148
182	0xbd799c86	-0.060940288
183	0xbcdf1cb4	-0.027235366
184	0xbd41dc42	-0.047329195
185	0xbce6032a	-0.02807768
186	0x3e61af2b	0.22039478
187	0x3bb3bf75	0.00548547
188	0x3b28f37d	0.0025779896
189	0xbdf3d2b5	-0.119054236
190	0xbd9c3c78	-0.07628721
191	0xbc830181	-0.015991928
192	0xbdea1c41	-0.1143117
193	0xba98653e	-0.0011626852
194	0x3dcfc0dd	0.101442076
195	0xbe51bba1	-0.20481731
196	0xbd852f7b	-0.06503197
197	0xbe02c4cc	-0.12770385
198	0x3e48a695	0.19594796
199	0xbdeef37f	-0.11667537

bn1.weight f4 [200]
0	0x3f49d947	0.78847164
1	0x3f00c9d0	0.5030794
2	0x3f32f7af	0.69909185
3	0x3f1048db	0.5636117
4	0x3da80fe8	0.08206159
5	0x3eeb2d3f	0.45932958
6	0x3e707152	0.23480728
7	0x3f1de3d4	0.61675763
8	0x3eb1aba6	0.3470127
9	0x3e419547	0.18904601
10	0x3e697f3b	0.22802441
11	0x3ee9b242	0.45643812
12	0x3f1b7d7f	0.60738367
13	0x3ec9d561	0.39420608
14	0x3f628607	0.8848576
15	0x3e3faf13	0.1871913
16	0x3f6d9123	0.92799586
17	0x3f026a1c	0.5094316
18	0x3e5eb8e5	0.21750219
19	0x3ee69db4	0.45042193
20	0x3f6b6ebe	0.91965854
21	0x3f66b5fb	0.9012143
22	0x3e7a50b4	0.24444848
23	0x3f04a35c	0.51811767
24	0x3f306087	0.6889729
25	0x3f5d7486	0.86505926
26	0x3eca1e59	0.39476278
27	0x3e61813a	0.22021952
28	0x3f12b12c	0.5730159
29	0x3f5467c1	0.82970816
30	0x3e3f6f51	0.18694808
31	0x3f486969	0.78285843
32	0x3f692581	0.9107285
33	0x3ef36a64	0.47542107
34	0x3f700b72	0.93767464
35	0x3f05cb70	0.52263546
36	0x3ea77c42	0.3271199
37	0x3f3ae560	0.7300625
38	0x3e1af4ec	0.15132493
39	0x3f4eaa9f	0.807291
40	0x3f12011c	0.5703294
41	0x3f52a0f0	0.8227682
42	0x3eb00fed	0.3438715
43	0x3eb59920	0.35468388
44	0x3f56d7c8	0.83923006
45	0x3f3e46a0	0.74326515
46	0x3f6e115b	0.9299523
47	0x3ee1dd66	0.44114226
48	0x3f241fb6	0.6411089
49	0x3ebc4af4	0.36775935
50	0x3f427c6a	0.7597109
51	0x3e8a9b86	0.2707178
52	0x3f2d2f3b	0.6765019
53	0x3ee0e353	0.43923435
54	0x3effafc6	0.49938792
55	0x3ed6848c	0.41898
56	0x3e4c8a8c	0.19974726
57	0x3e923ac6	0.28560466
58	0x3e77fc91	0.2421744
59	0x3f4583b3	0.7715408
60	0x3f133846	0.5750774
61	0x3f3e4d62	0.74336827
62	0x3f0c3db0	0.5478163
63	0x3ec80595	0.3906676
64	0x3e820f99	0.25402525
65	0x3f59402c	0.84863544
66	0x3e7faca3	0.249682
67	0x3efa9ec5	0.48949257
68	0x3e990f95	0.298947
69	0x3e5e133d	0.21687026
70	0x3e814739	0.2524965
71	0x3e9c32d1	0.3050752
72	0x3f0c32d7	0.54765075
73	0x3f3e4327	0.74321216
74	0x3f08c444	0.5342448
75	0x3ef4c600	0.47807312
76	0x3f2e4ab9	0.6808277
77	0x3f388d9e	0.7209109
78	0x3f261532	0.6487609
79	0x3f25888b	0.64661473
80	0x3f665f7e	0.8998946
81	0x3f05f157	0.5232138
82	0x3d8f6dc4	0.07003358
83	0x3e565b7c	0.20933336
84	0x3eb170c2	0.3465634
85	0x3e044beb	0.12919585
86	0x3edc072c	0.42974222
87	0x3f724a3e	0.94644535
88	0x3e1fd24c	0.15607566
89	0x3efe655d	0.4968671
90	0x3f5c66b7	0.8609423
91	0x3efc327d	0.4925727
92	0x3e452a98	0.1925453
93	0x3f27c6e8	0.6553788
94	0x3f68210a	0.90675414
95	0x3eafe02c	0.34350717
96	0x3f21b425	0.63165504
97	0x3ef966b2	0.48711163
98	0x3eefc96a	0.46833354
99	0x3e993f7e	0.29931253
100	0x3f22efb7	0.63647026
101	0x3e9015fb	0.2814177
102	0x3e9ff82e	0.31244034
103	0x3f3e26b4	0.74277806
104	0x3e79ad93	0.2438262
105	0x3f23600a	0.6381842
106	0x3ecd4fcf	0.40099952
107	0x3edccb92	0.43124062
108	0x3f190758	0.5977683
109	0x3f8554d7	1.0416516
110	0x3eb05743	0.34441575
111	0x3f23cad4	0.63981366
112	0x3f3b4f69	0.73168045
113	0x3f5d47d0	0.864377
114	0x3f4032e1	0.75077635
115	0x3e9d1e88	0.30687356
116	0x3eaca2d3	0.33717975
117	0x3e89301f	0.26794526
118	0x3e27957c	0.16365618
119	0x3f508a32	0.8146087
120	0x3f345d14	0.70454526
121	0x3f2dc907	0.6788487
122	0x3f2e7f0a	0.68162596
123	0x3ecacaa8	0.3960774
124	0x3f6517f8	0.894897
125	0x3f224e9c	0.634012
126	0x3f2bb1b9	0.6706806
127	0x3f164fc1	0.58715445
128	0x3f0bf2b3	0.54667205
129	0x3ecd655f	0.40116403
130	0x3e57be7e	0.21068761
131	0x3f5327f7	0.82482857
132	0x3f6ec4b5	0.932689
133	0x3f682efe	0.90696704
134	0x3f0f3bc0	0.55950546
135	0x3f38475e	0.719839
136	0x3f6573d7	0.8962988
137	0x3f018f18	0.5060897
138	0x3df0c946	0.1175714
139	0x3f4da6da	0.8033272
140	0x3f49a74f	0.7877092
141	0x3f04b80b	0.5184333
142	0x3f3b67fd	0.7320555
143	0x3eb5b516	0.3548972
144	0x3f07dd2e	0.5307187
145	0x3e8f5ae7	0.2799904
146	0x3dd41057	0.10354679
147	0x3f34cb59	0.70622784
148	0x3eb9734d	0.3622078
149	0x3f623286	0.8835834
150	0x3e8d8551	0.27640775
151	0x3ebcc4de	0.36868948
152	0x3f41a9d7	0.7564978
153	0x3ee48e78	0.44639945
154	0x3f8689b1	1.051077
155	0x3e8f7a2d	0.280229
156	0x3f4635ca	0.77425826
157	0x3f4774d3	0.77912635
158	0x3ed5c10c	0.41748846
159	0x3f3a7b4e	0.728444
160	0x3ea2bcb6	0.317846
161	0x3e8b0b07	0.2715685
162	0x3f1d0d8d	0.613488
163	0x3f1de054	0.6167042
164	0x3f38154a	0.71907485
165	0x3e1468c5	0.14493091
166	0x3e95076c	0.29107225
167	0x3f402aa7	0.7506508
168	0x3f417675	0.75571376
169	0x3f28d5ef	0.65951437
170	0x3f0b31af	0.54372686
171	0x3f37c9ed	0.7179249
172	0x3e644a41	0.2229395
173	0x3f3d953d	0.74055845
174	0x3f0cd380	0.55010223
175	0x3f29e72e	0.6636838
176	0x3eb5e513	0.35526332
177	0x3e6907e7	0.22756921
178	0x3f32a9de	0.69790447
179	0x3ef33d26	0.4750759
180	0x3f3d8068	0.7402406
181	0x3df9bd31	0.121942885
182	0x3f44228a	0.766152
183	0x3f13759c	0.5760133
184	0x3f441502	0.76594555
185	0x3f11c329	0.56938416
186	0x3f37a575	0.7173684
187	0x3f492a44	0.7858012
188	0x3f00b05c	0.50269103
189	0x3f461046	0.7736858
190	0x3f23f701	0.64048773
191	0x3e88db5c	0.26729858
192	0x3eeb9263	0.46010122
193	0x3f46bd11	0.7763224
194	0x3f29d1d4	0.663358
195	0x3e473045	0.19452007
196	0x3f132a55	0.5748647
197	0x3f00e112	0.5034343
198	0x3ea5145c	0.32242095
199	0x3edec099	0.43506315

bn1.bias f4 [200]
0	0x3cce7310	0.02520135
1	0x3dc083b3	0.0940012
2	0x3d805094	0.06265369
3	0x3b4a7072	0.0030889777
4	0xbe123d57	-0.14281212
5	0xbdbf22f6	-0.0933284
6	0xbdabe8b4	-0.08393994
7	0x3dab26ab	0.08356985
8	0x3cd5f2ce	0.026116755
9	0x3cff2715	0.031146565
10	0xbe22f3fa	-0.15913382
11	0xbd6c2e37	-0.05766126
12	0x3d361969	0.044457827
13	0x3da2b58c	0.079447836
14	0x3c8f689c	0.017505936
15	0xbdb9350a	-0.090433195
16	0x3d6af26d	0.0573601
17	0x3e140b7d	0.14457507
18	0x3c62578e	0.01381482
19	0x3dee0424	0.116218835
20	0x3d013c17	0.031551447
21	0x3c9575e2	0.018244687
22	0x3d4b4c88	0.049633533
23	0x3e00854d	0.1255085
24	0xbda69d89	-0.08135516
25	0xbc7c2941	-0.015390695
26	0x3d723321	0.05913079
27	0x3dc86822	0.09785487
28	0x3cf9d2fb	0.030496111
29	0x3d78a9bf	0.060708757
30	0x3df1f931	0.118151076
31	0x3d0cb7be	0.034354918
32	0x3cbd1954	0.023083366
33	0x3d986c3e	0.074425206
34	0x3d4730f0	0.048630655
35	0xbddaa86a	-0.10676654
36	0xbd0fd756	-0.03511747
37	0xbbca2834	-0.0061693434
38	0x3d71ff2b	0.059081238
39	0x3df65371	0.12027634
40	0x3dbf288f	0.09333908
41	0x3cd68fb4	0.02619157
42	0xbadf3a76	-0.0017030973
43	0x3ce8bb62	0.028409664
44	0x3d579d13	0.052640032
45	0xbcbb7071	-0.022880765
46	0x3daef998	0.085437
47	0xbd5df0bb	-0.054184657
48	0xbd6436e8	-0.055716425
49	0xbd062ac3	-0.032755625
50	0xbb8984a0	-0.0041967183
51	0x3cf3e137	0.029770477
52	0x3c67e78c	0.014154326
53	0xbcfe8220	-0.031067908
54	0xbd711812	-0.058860846
55	0x3d82408a	0.06359966
56	0x3c617011	0.013759629
57	0xbceba7f6	-0.028766613
58	0xbd29d798	-0.04146537
59	0x3db34ee4	0.087552816
60	0xbe1bf7b2	-0.15231207
61	0x3da13a5e	0.07872461
62	0x3cddaa6a	0.027058799
63	0x3dee08c2	0.11622764
64	0xbb3e1be0	-0.0029008314
65	0xbe10373d	-0.14083572
66	0xbdb2435e	-0.087042555
67	0x3bd18319	0.006393802
68	0x3de1b707	0.11021238
69	0x3e249c85	0.16075332
70	0x3cf2c958	0.029637024
71	0xbd13a01a	-0.036041357
72	0x3ca5cb4a	0.020238537
73	0x3cdf6f1e	0.027274664
74	0xbd4bf90d	-0.04979806
75	0xbd40fa26	-0.04711356
76	0xb9b62d2b	-0.00034747398
77	0xbd7fb302	-0.062426575
78	0x3da13723	0.078718446
79	0xbcd2892d	-0.025700176
80	0x3ded8f1b	0.11599561
81	0x3d1dfbe5	0.038570303
82	0x3e56e4a0	0.20985651
83	0x3e5303ce	0.2060692
84	0xbcf24741	-0.029574992
85	0xbe508e7c	-0.20366853
86	0x3d3c4e8a	0.04597334
87	0xbd349fdc	-0.044097766
88	0x3e82c817	0.2554328
89	0xbcef3921	-0.029202046
90	0xbd8b3bfd	-0.06798551
91	0x3b81a632	0.0039565796
92	0x3df86e50	0.121304154
93	0x3df1f43b	0.118141614
94	0x3dfce30c	0.12347993
95	0x3e3afba8	0.18260062
96	0xbd491f73	-0.049102258
97	0xbd2b3106	-0.0417948
98	0x3c9c6d26	0.019095015
99	0xbcb880fd	-0.022522444
100	0xbd5dca7b	-0.05414818
101	0x3c9020e5	0.01759381
102	0x3d3ab8d3	0.04558642
103	0xbda48690	-0.08033478
104	0xbc63e2a2	-0.013909014
105	0x3c803d51	0.015654238
106	0xbc0dc2d9	-0.008652412
107	0x3d9df2af	0.07712304
108	0x3cd55b99	0.026044654
109	0x3d527556	0.05138143
110	0xbd9e2b63	-0.07723119
111	0xbcfb4b8e	-0.030675676
112	0xbe0e14e0	-0.1387515
113	0xbd18e7e4	-0.037330523
114	0x3d2bb85b	0.041923862
115	0xbdcfd2db	-0.10147639
116	0x3d672967	0.05643597
117	0xbd64a97d	-0.0558257
118	0xbe8d011c	-0.2753991
119	0xbd150c12	-0.036388464
120	0x3cfc69f0	0.030812234
121	0xbbba2090	-0.0056801513
122	0xbccef467	-0.025263024
123	0x3d8dc6c8	0.0692268
124	0x3d4fa15d	0.050690997
125	0x3d06ca47	0.03290775
126	0x3d7e32c0	0.062060118
127	0x3c36534d	0.011128259
128	0xbd13d284	-0.036089435
129	0x3c3dded4	0.011588771
130	0xba9f282c	-0.001214271
131	0x3c8ad598	0.016947553
132	0xbc961d99	-0.01832466
133	0xbd8e4954	-0.0694758
134	0xbdda2b36	-0.10652773
135	0x3d9bc802	0.07606508
136	0x3ca42b05	0.020040045
137	0x3df841ba	0.12121911
138	0xbe63d385	-0.22248657
139	0x3d38ea8b	0.045145553
140	0x3d882fb9	0.066497274
141	0x3c9ccde7	0.01914115
142	0xbd9ec8ca	-0.07753141
143	0x3b8cc96c	0.0042964723
144	0x3d2ff451	0.042957608
145	0x3e0de1ad	0.1385562
146	0xbd7d1f96	-0.0617977
147	0x3d929c0f	0.07158672
148	0x3d4db679	0.050222848
149	0x3d1ce868	0.038307577
150	0x3d1227af	0.035682376
151	0xbcdab992	-0.026699815
152	0xbadc6c9b	-0.0016817035
153	0x3caf2463	0.021379655
154	0x3d57737b	0.052600365
155	0x3cdd1bec	0.026990853
156	0x3e04fdb4	0.12987405
157	0xbb014e30	-0.0019730441
158	0x3d286de7	0.041120436
159	0x3e1ab3f0	0.15107703
160	0x3e05f75a	0.13082638
161	0xbd4e47e1	-0.050361518
162	0x3e055364	0.13020092
163	0x3c29f882	0.01037419
164	0x3cab94b3	0.020944929
165	0xbdc9133f	-0.09818124
166	0x3d2c2251	0.042024914
167	0x3cadb695	0.021205226
168	0xbd8b5d5c	-0.06804916
169	0x3d26c7d0	0.0407179
170	0xbd1f3171	-0.03886551
171	0x3cf076f7	0.029353602
172	0xbdb00b0f	-0.08595859
173	0xbdd34294	-0.10315433
174	0x3e3d0a60	0.18460989
175	0xbe1be42c	-0.1522376
176	0x3dcc1afa	0.09966083
177	0x3c6ba6e0	0.014383048
178	0xbc85d1ab	-0.016335329
179	0x3e04c85c	0.12967056
180	0x3ca8709f	0.020561514
181	0xbd5ed85a	-0.054405548
182	0x3cae81e1	0.021302165
183	0x3da6caf9	0.08144183
184	0x3d821baa	0.06352933
185	0x3c474db5	0.012164523
186	0x3e16d0c9	0.14728083
187	0x3ce7697c	0.028248541
188	0x3d55a83e	0.0521624
189	0x3d5b5e32	0.05355663
190	0x3df37b7b	0.118887864
191	0x3e547786	0.2074872
192	0x3a576506	0.0008216653
193	0x3e18c70b	0.14919679
194	0x3bfb66cf	0.007672168
195	0x3d31c785	0.043403167
196	0x3cc2cb18	0.023778483
197	0x3d6eba1f	0.058282968
198	0x3d0daa35	0.03458615
199	0x3cd25b05	0.025678167

bn1.running_mean f4 [200]
0	0x3e533f18	0.20629537
1	0x3da25272	0.079258814
2	0x3dfe93d0	0.12430537
3	0x3e101564	0.1407066
4	0x3daacd4f	0.08339941
5	0x3e0f91fd	0.14020534
6	0x3de5de62	0.11224057
7	0x3e0eb64d	0.1393673
8	0x3c9210ef	0.01783034
9	0x3da14c8a	0.07875927
10	0x3e2f05f9	0.17092122
11	0x3eee9381	0.46596912
12	0x3e1cb8bf	0.1530485
13	0x3dec2055	0.11529604
14	0x3e15efe6	0.14642295
15	0x3da1883f	0.07887315
16	0x3e69a78c	0.2281782
17	0x3e220baf	0.1582477
18	0x3e0ec903	0.13943867
19	0x3e77f335	0.2421387
20	0x3e1f53d6	0.15559325
21	0x3e278578	0.16359508
22	0x3d8a472c	0.06751856
23	0x3e0fc181	0.1403866
24	0x3de073a8	0.1095956
25	0x3e47d6ed	0.19515581
26	0x3ec41190	0.3829465
27	0x3de0a251	0.109684594
28	0x3d9d8933	0.07692184
29	0x3e6a4774	0.2287882
30	0x3e10af5a	0.14129391
31	0x3e383d69	0.17992176
32	0x3dab7094	0.08371082
33	0x3e34e7e2	0.17666581
34	0x3e2ef818	0.17086828
35	0x3e3f545b	0.18684523
36	0x3e577f40	0.21044636
37	0x3df9fdde	0.122066244
38	0x3dc3ef65	0.09567145
39	0x3dd90431	0.105965026
40	0x3e29ea39	0.16593255
41	0x3e89c1cb	0.26905665
42	0x3d9c372f	0.07627713
43	0x3e1415c3	0.14461426
44	0x3e5d422a	0.21607271
45	0x3e83db07	0.25753042
46	0x3e052dcb	0.1300575
47	0x3e3f4a1f	0.18680619
48	0x3dcdcfe0	0.10049415
49	0x3d86c5f3	0.065807246
50	0x3dc63332	0.096777335
51	0x3d5205b8	0.051274985
52	0x3e331afe	0.17490765
53	0x3e16237d	0.14661975
54	0x3d688cd2	0.05677492
55	0x3dc78882	0.09742834
56	0x3d8c1b2d	0.06841121
57	0x3d3d133d	0.046160925
58	0x3f140b24	0.578295
59	0x3e339662	0.17537835
60	0x3e0e1177	0.1387385
61	0x3e8617bc	0.26189983
62	0x3d9cbf76	0.07653706
63	0x3df997a6	0.12187128
64	0x3dd9f9a4	0.10643318
65	0x3e561601	0.20906831
66	0x3e57addf	0.2106242
67	0x3d90559f	0.07047581
68	0x3e65ceab	0.22442119
69	0x3d061838	0.03273794
70	0x3d27a8a3	0.04093231
71	0x3e2be89a	0.16787949
72	0x3e316a88	0.17325795
73	0x3de1642a	0.11005433
74	0x3e915323	0.2838374
75	0x3e10a662	0.1412597
76	0x3e321bf0	0.1739347
77	0x3e0f7267	0.14008485
78	0x3e315c2e	0.1732032
79	0x3e5c73ce	0.21528551
80	0x3e03d94f	0.12875865
81	0x3e23e04e	0.16003534
82	0x3f44415e	0.7666224
83	0x3dc4e27b	0.0961351
84	0x3d5a4b1f	0.053294297
85	0x3f01494e	0.5050248
86	0x3dc1ac89	0.094567366
87	0x3e5905ff	0.21193694
88	0x3f11b7fa	0.5692135
89	0x3df41b7f	0.11919307
90	0x3e7e246e	0.24818584
91	0x3d43f8bd	0.047844637
92	0x3e91f268	0.28505254
93	0x3dde03c7	0.10840564
94	0x3e638576	0.2221888
95	0x3e95157b	0.2911795
96	0x3e11a093	0.1422141
97	0x3d6f8d2a	0.058484234
98	0x3df1ba55	0.11803118
99	0x3e25cc68	0.16191256
100	0x3f1f3ef3	0.6220543
101	0x3e88cb4e	0.2671761
102	0x3d731557	0.059346523
103	0x3dffb5d0	0.1248585
104	0x3dcfb374	0.1014165
105	0x3dacc6c5	0.0843635
106	0x3e66094a	0.22464481
107	0x3cf77789	0.030208366
108	0x3dff4890	0.12465012
109	0x3e2e1725	0.17001016
110	0x3e30c795	0.17263635
111	0x3e37eddb	0.17961828
112	0x3ea2a348	0.317652
113	0x3e188d08	0.14897549
114	0x3d7cabb4	0.061687186
115	0x3e77c8a0	0.24197626
116	0x3e03bb53	0.12864427
117	0x3d13c23e	0.036073916
118	0x3ddb519c	0.10708925
119	0x3ce2f9ae	0.027706947
120	0x3e2030af	0.15643571
121	0x3e1f0a28	0.15531218
122	0x3e779e4e	0.24181482
123	0x3de54052	0.11193909
124	0x3dc24cda	0.094873145
125	0x3df80edc	0.12112209
126	0x3f39f1eb	0.7263476
127	0x3e8edba2	0.27901942
128	0x3e2f30ff	0.17108534
129	0x3e607844	0.21920878
130	0x3da9dca7	0.08294039
131	0x3ea3840d	0.31936684
132	0x3e1d9c86	0.1539174
133	0x3ec7fb92	0.3905912
134	0x3e1e6aba	0.154704
135	0x3dd902eb	0.1059626
136	0x3de38daa	0.11111005
137	0x3e431f32	0.19054869
138	0x3e01c3a4	0.12672287
139	0x3d4ba1f6	0.049715005
140	0x3dece10d	0.115663625
141	0x3db68a2f	0.08913075
142	0x3dc6802e	0.09692417
143	0x3e302ca6	0.17204532
144	0x3df85f93	0.12127604
145	0x3dd143c6	0.10218005
146	0x3e83d9ce	0.2575211
147	0x3ea1ccc3	0.31601533
148	0x3e5a1c17	0.21299778
149	0x3e3c3187	0.18378268
150	0x3e8ae889	0.27130535
151	0x3e578195	0.21045525
152	0x3e13e992	0.14444569
153	0x3dab6e5e	0.0837066
154	0x3df758a7	0.12077456
155	0x3e5b1545	0.21394832
156	0x3e1c9c91	0.152941
157	0x3e7de78e	0.24795362
158	0x3ef73c0e	0.48288006
159	0x3de7b7fa	0.113143876
160	0x3e960ab7	0.2930505
161	0x3df81690	0.121136785
162	0x3e55aba0	0.20866251
163	0x3e3f65f1	0.18691231
164	0x3d3fa007	0.046783473
165	0x3ddbcb94	0.10732189
166	0x3e8d8415	0.27639833
167	0x3d89da74	0.0673112
168	0x3e8e092c	0.27741373
169	0x3e1a158e	0.15047285
170	0x3e6fcb80	0.23417473
171	0x3e23721a	0.15961495
172	0x3d40da04	0.047082916
173	0x3e6b3308	0.22968686
174	0x3e29c3e4	0.16578633
175	0x3eadf459	0.33975485
176	0x3dd67f4c	0.10473499
177	0x3e1ef512	0.15523174
178	0x3e96f760	0.29485607
179	0x3e5236db	0.20528738
180	0x3e14ca4d	0.14530297
181	0x3da619eb	0.08110412
182	0x3df1436d	0.117804386
183	0x3e3d12a1	0.18464138
184	0x3e9581d4	0.29200613
185	0x3e6c29d4	0.23062831
186	0x3f1b4117	0.60646194
187	0x3e473130	0.19452357
188	0x3df9e552	0.122019425
189	0x3e231d6e	0.15929195
190	0x3e932683	0.2874032
191	0x3e236702	0.15957263
192	0x3dae61af	0.085147254
193	0x3e48d801	0.19613649
194	0x3e26130d	0.16218205
195	0x3e1e829b	0.1547951
196	0x3e215d08	0.15758145
197	0x3e5aecc9	0.21379389
198	0x3f04e390	0.5190973
199	0x3e03b6ff	0.12862776

bn1.running_var f4 [200]
0	0x3e45d70f	0.1932032
1	0x3d2b12ac	0.041765854
2	0x3cedda73	0.029034829
3	0x3e82e9f8	0.2556913
4	0x3d8f78a5	0.07005433
5	0x3daf8403	0.08570101
6	0x3d620c4c	0.05518751
7	0x3d761a65	0.060083766
8	0x3bd0383a	0.006354359
9	0x3d08e1dd	0.033418525
10	0x3d9ee20a	0.07757957
11	0x3e8c3df1	0.27391008
12	0x3d95673d	0.07295082
13	0x3e4a6817	0.1976627
14	0x3d6c9443	0.05775858
15	0x3d704d68	0.05866757
16	0x3e29958e	0.16560957
17	0x3cfe921f	0.031075535
18	0x3dc3741e	0.09543632
19	0x3e31a1a2	0.17346814
20	0x3d567a22	0.05236257
21	0x3de2089d	0.11036799
22	0x3d0ad503	0.03389455
23	0x3d18e36f	0.037326273
24	0x3d49e62a	0.049291767
25	0x3db2979c	0.087203234
26	0x3eb0fc0e	0.34567302
27	0x3e02c8aa	0.1277186
28	0x3d808626	0.06275587
29	0x3e21b635	0.15792163
30	0x3d93be9c	0.0721409
31	0x3dd0fcac	0.10204443
32	0x3d60bb75	0.054866273
33	0x3d823ec1	0.063596256
34	0x3dd9f368	0.10642129
35	0x3dbe9dd3	0.09307446
36	0x3d410af8	0.0471296
37	0x3d82c258	0.063847244
38	0x3dac04b0	0.083993316
39	0x3d36ac95	0.04459818
40	0x3d9d4505	0.0767918
41	0x3e0d3b6a	0.13792196
42	0x3d19ea55	0.037576992
43	0x3d68c459	0.056827877
44	0x3dd5d20c	0.10440454
45	0x3e13d022	0.14434865
46	0x3d3b0b11	0.04566485
47	0x3e82197b	0.25410065
48	0x3d00cd9b	0.03144608
49	0x3c96e8b8	0.018421516
50	0x3d187c16	0.037227713
51	0x3d08c60e	0.033392005
52	0x3e332c5d	0.17497392
53	0x3d9ae02f	0.07562291
54	0x3d1e7c5c	0.038692817
55	0x3d6c9fea	0.057769693
56	0x3cf47994	0.02984313
57	0x3cf53b0d	0.029935384
58	0x3eace939	0.33771685
59	0x3e0ef6af	0.1396129
60	0x3dc3a179	0.09552283
61	0x3e378b53	0.17924242
62	0x3d0b0680	0.033941746
63	0x3e5e171e	0.21688506
64	0x3d20c5e2	0.039251216
65	0x3dced337	0.1009888
66	0x3dcc0687	0.099621825
67	0x3d9f84f5	0.077890314
68	0x3db828ba	0.08992143
69	0x3c8f8fae	0.017524567
70	0x3d11d3a5	0.03560223
71	0x3e8a0f1a	0.26964647
72	0x3e15767f	0.14595984
73	0x3d2b999b	0.041894536
74	0x3e0687af	0.13137697
75	0x3d9e8d0c	0.07741746
76	0x3d97d22c	0.07413134
77	0x3d455e87	0.04818585
78	0x3dd44475	0.1036462
79	0x3e3f4c87	0.18681537
80	0x3d089072	0.03334088
81	0x3daf377d	0.085555054
82	0x3f1381c8	0.57619905
83	0x3e0034d8	0.12520158
84	0x3cae3c73	0.021269059
85	0x3eda29e0	0.42610073
86	0x3d5c4418	0.053775877
87	0x3dcc538f	0.09976875
88	0x3ee346f8	0.44390082
89	0x3e35bbaf	0.17747377
90	0x3da61bb1	0.081107505
91	0x3c569ce2	0.013098927
92	0x3dfdb723	0.12388446
93	0x3d886991	0.0666076
94	0x3e0d28fb	0.13785164
95	0x3d60530c	0.0547667
96	0x3df95dbd	0.12176082
97	0x3cdb2e99	0.026755618
98	0x3dbc048e	0.09180556
99	0x3db45794	0.08805767
100	0x3ec2cc79	0.38046625
101	0x3e4e9f24	0.20177895
102	0x3ccd0ceb	0.025030574
103	0x3d1e7839	0.038688872
104	0x3d3b5bc4	0.04574181
105	0x3d1d4be0	0.03840244
106	0x3e81dede	0.25365347
107	0x3c26c999	0.010179901
108	0x3d5532e0	0.05205047
109	0x3d77c205	0.060487766
110	0x3da3b189	0.079928465
111	0x3dc908e9	0.098161526
112	0x3ec15080	0.3775673
113	0x3da669ba	0.081256345
114	0x3cc1a797	0.023639483
115	0x3e0ee095	0.13952859
116	0x3d98d5dd	0.07462666
117	0x3c53437c	0.0128945075
118	0x3d2a12d6	0.04152187
119	0x3c7110b7	0.014713458
120	0x3df3715f	0.11886858
121	0x3dabc29c	0.08386728
122	0x3e579ca5	0.21055849
123	0x3d13cd9e	0.036084764
124	0x3d6c0f7b	0.05763195
125	0x3d2849a8	0.04108587
126	0x3ea66b4f	0.32503745
127	0x3de59966	0.11210899
128	0x3e5f9b18	0.21836507
129	0x3dd7285c	0.10505745
130	0x3e04a02e	0.12951729
131	0x3daa9c85	0.08330635
132	0x3d5f3db1	0.054502193
133	0x3e3eab73	0.1862009
134	0x3dab4fbd	0.08364818
135	0x3d849abe	0.06474827
136	0x3d27e073	0.040985536
137	0x3da05e35	0.078304686
138	0x3d8772a7	0.06613665
139	0x3d12d5e2	0.035848506
140	0x3d970db1	0.07375658
141	0x3d1661b9	0.03671429
142	0x3d49adf1	0.04923815
143	0x3da95efb	0.08270069
144	0x3e024560	0.12721777
145	0x3d402480	0.04690981
146	0x3e3d20a8	0.18469489
147	0x3e0a4983	0.13504605
148	0x3dc46598	0.0958969
149	0x3d67e315	0.056613047
150	0x3e98e96f	0.29865596
151	0x3e1b2d09	0.15153898
152	0x3da48bba	0.08034463
153	0x3d7d7da4	0.0618874
154	0x3d75323e	0.059862368
155	0x3e8cf9ac	0.27534235
156	0x3de7a756	0.11311214
157	0x3e01deb8	0.12682617
158	0x3e5e0544	0.21681696
159	0x3d33772f	0.043814834
160	0x3e2a9689	0.16658987
161	0x3d9d60b9	0.07684464
162	0x3e53be16	0.20677981
163	0x3e23ca1b	0.15995066
164	0x3cc19745	0.023631701
165	0x3d2d24a7	0.042271283
166	0x3e27f3ad	0.16401549
167	0x3d460e71	0.048353616
168	0x3d818ef1	0.06326092
169	0x3de22738	0.11042637
170	0x3d87d0dd	0.066316344
171	0x3da50e1b	0.08059331
172	0x3cbeb5cc	0.023280047
173	0x3e173511	0.14766337
174	0x3dec84cb	0.11548766
175	0x3e996afd	0.29964438
176	0x3d785b9c	0.06063424
177	0x3d9bc5ac	0.07606062
178	0x3e7e438a	0.24830452
179	0x3dbec9d3	0.09315839
180	0x3e2e6aa4	0.17032868
181	0x3d17354f	0.036916073
182	0x3d5e1d79	0.054227326
183	0x3e196351	0.14979292
184	0x3ec2a325	0.38015094
185	0x3dcd04b8	0.10010666
186	0x3ecc9fb3	0.3996559
187	0x3db23de9	0.08703215
188	0x3d9ca743	0.0764909
189	0x3dd9c2e1	0.10632873
190	0x3df84c02	0.12123872
191	0x3dabfb99	0.08397598
192	0x3d44a2af	0.04800671
193	0x3da5f5b3	0.08103504
194	0x3dcc82ae	0.09985863
195	0x3e07f080	0.13275337
196	0x3df6b787	0.12046724
197	0x3dfe47ee	0.12416063
198	0x3e909c99	0.28244475
199	0x3d8bebe4	0.06832102

fc2.weight f4 [300, 204]
0	0xbd5624de	-0.052281253
1	0x3d164a56	0.036691986
2	0xbddf4f1d	-0.109037615
3	0xbd290a0b	-0.041269343
4	0xbdcf48b9	-0.101212926
5	0xbd269128	-0.040665776
6	0x3c9bf5d0	0.019038111
7	0xbc5f0f11	-0.013614432
8	0x3d2b79b0	0.041864097
9	0x3c87c152	0.016571674
10	0x3b92290b	0.004460459
11	0x3b608f0c	0.003426495
12	0xbd288e06	-0.04115107
13	0x3c9db64e	0.019251969
14	0x3b8a2f73	0.004217082
15	0xbd7c3901	-0.0615778
16	0x3d118779	0.035529587
17	0x3d93f047	0.07223564
18	0x3ca5d118	0.020241305
19	0x3dd9c0e2	0.106324926
20	0xbd5ab65b	-0.053396564
21	0xbd88b5f9	-0.066753335
22	0xbd416fd2	-0.04722578
23	0x3ce3f3fd	0.027826304
24	0xbd87492a	-0.06605752
25	0x3cb8e10e	0.022568252
26	0x3c5be21b	0.013420607
27	0xbcca9379	-0.024728524
28	0x3c9b4f6c	0.01895877
29	0x3bc33ee5	0.0059584253
30	0x3c1efb23	0.00970343
31	0xbc4da25c	-0.0125509165
32	0xbcfc14e2	-0.030771676
33	0x3cff0281	0.031129124
34	0xbd8ce79d	-0.06880114
35	0xbd73ea66	-0.05954971
36	0x3d494b9f	0.049144384
37	0x3d8c8bc6	0.06862597
38	0xbdb71b6d	-0.08940778
39	0x3c4cfa08	0.012510784
40	0xbd57e0dc	-0.052704677
41	0x3d894d07	0.06704145
42	0x3cac7cdb	0.02105563
43	0x3bd06bec	0.0063605215
44	0xbcbe13a5	-0.023202727
45	0x3bfd79cc	0.0077354666
46	0xbc820ceb	-0.0158753
47	0x3d927c2a	0.07152589
48	0x3d29bf3e	0.04144215
49	0xbda8bfd5	-0.08239714
50	0x3d72a7e4	0.059242144
51	0xbd459abe	-0.048243277
52	0xbcaa9efe	-0.020827767
53	0xbcd280cf	-0.025696186
54	0xbd118104	-0.03552343
55	0xbd23a3b2	-0.039951034
56	0x3cd2d154	0.025734581
57	0xbc9ff7e5	-0.019527385
58	0xbd4093d1	-0.04701597
59	0xbd9e6f40	-0.07736063
60	0xbd4324f4	-0.047642663
61	0x3dbd0263	0.09228971
62	0x3d52a149	0.051423345
63	0xbdf540a5	-0.119752206
64	0xbdc2704a	-0.09494074
65	0x3cd0609c	0.025436692
66	0xbdccc7cc	-0.09999046
67	0x3cc49651	0.023997458
68	0x3d59c77b	0.053168755
69	0x3d6d67e1	0.057960395
70	0xbb825ea1	-0.003978566
71	0xb8284e4d	-4.0127245e-05
72	0xbcedd30c	-0.029031299
73	0xbcbc5766	-0.022990894
74	0x3b15e7c8	0.0022873748
75	0x3d190336	0.037356578
76	0x3c8fdbae	0.017560806
77	0x3d467bb7	0.048457827
78	0xbd8b5c3d	-0.068047024
79	0x3c32c8a3	0.010912093
80	0xbd6007d8	-0.05469498
81	0xbd81e2a1	-0.06342054
82	0x3dbb0f75	0.091338076
83	0xba383ccc	-0.00070281024
84	0x3c483401	0.01221943
85	0xbe234a22	-0.15946248
86	0xbc8e538e	-0.017373826
87	0x3db68c67	0.08913498
88	0x3cc8a1bb	0.024491182
89	0xbd60d78b	-0.054893058
90	0xbd96257e	-0.0733137
91	0x3c8ae3d8	0.016954347
92	0x3c53445b	0.012894715
93	0xbb4fa53e	-0.0031684185
94	0x3d22ca33	0.039743613
95	0x3da37297	0.07980841
96	0x3bb4ff97	0.0055236327
97	0xbd4916be	-0.049093954
98	0xbd2d60c6	-0.04232862
99	0xbdce85fd	-0.1008415
100	0x3a78f710	0.00094972644
101	0xbd3d51da	-0.046220638
102	0xbb379f09	-0.0028018376
103	0x3db1cdb3	0.08681812
104	0xbd03cc9b	-0.03217755
105	0xbc442170	-0.011970863
106	0xbd793928	-0.060845524
107	0xbcfa0edc	-0.030524664
108	0x3d0e13b0	0.034686744
109	0x3d12cf39	0.035842154
110	0xbd18a75b	-0.037268978
111	0x3d1a13ac	0.037616417
112	0xbde28731	-0.11060942
113	0xbde342dc	-0.11096737
114	0x3ccdbb46	0.025113713
115	0xbdeea234	-0.116520315
116	0x3dd24da9	0.10268719
117	0x3d2dc16c	0.04242079
118	0xbd4acff7	-0.049514737
119	0xbc6ee32c	-0.014580529
120	0xbcbe7593	-0.023249423
121	0x3d9527fb	0.07283016
122	0xbc9fe184	-0.019516714
123	0x3d6f1770	0.05837196
124	0x3d21f4ae	0.039539985
125	0xbbada6e3	-0.0052994355
126	0x3dbe7609	0.09299857
127	0xbba014ff	-0.0048853154
128	0xbd565664	-0.052328482
129	0xbc93bc0c	-0.018034004
130	0xbb94bfa2	-0.004539446
131	0x3ccb1e8f	0.024794845
132	0xbc2dc1f2	-0.010605322
133	0x3d2e0d92	0.04249341
134	0x3c3fab6c	0.011698585
135	0x3d4e4be8	0.05036536
136	0x3d3ecf27	0.046584275
137	0xbd206b7f	-0.039165016
138	0xbd7cafc1	-0.06169105
139	0xbdaa9d94	-0.08330837
140	0x3c5460a2	0.012962492
141	0xbd5395d9	-0.051656578
142	0x3b8ce38e	0.0042995876
143	0x3b00552e	0.001958202
144	0x3c92c421	0.017915787
145	0xbd99b87f	-0.07505893
146	0xbb3cf127	-0.0028830261
147	0xbd851e3f	-0.064999096
148	0xbc4b451b	-0.012406613
149	0xbcd0c1bd	-0.025483007
150	0xbd29aa1b	-0.04142199
151	0xbd47cb18	-0.04877767
152	0xbcaad25f	-0.020852266
153	0xbd4eaa3c	-0.050455317
154	0x3d9ab025	0.07553128
155	0x3dc19186	0.094515845
156	0x3db1c8d5	0.08680884
157	0xbcc9fa54	-0.024655499
158	0xbd00cd1c	-0.031445608
159	0xbdb733b7	-0.08945411
160	0x3e10ddf8	0.14147174
161	0x3cda94eb	0.026682338
162	0x3b5bdd3a	0.003354861
163	0xbbf306eb	-0.007416596
164	0xbd863607	-0.06553274
165	0xbd76d20b	-0.060258906
166	0xbdee3feb	-0.11633285
167	0xbc21b0dd	-0.009868828
168	0x3ccf01d1	0.02526942
169	0x3c8f1402	0.017465595
170	0xbd849098	-0.064728916
171	0x3dd914f0	0.10599697
172	0x3c95b5cc	0.018275164
173	0xb9301208	-0.00016791385
174	0xbd00255a	-0.03128562
175	0x3ca0cdad	0.019629324
176	0xbbfd3697	-0.007727455
177	0xbbde631e	-0.006786718
178	0xbd0057f5	-0.031333882
179	0x3d416d9f	0.047223683
180	0xbd53d22c	-0.051714107
181	0xbde6e814	-0.11274734
182	0x3d8c6bb2	0.06856479
183	0x39981815	0.00029009642
184	0x3d86f4b7	0.065896444
185	0x3d07a38e	0.033114962
186	0xbcefd8b9	-0.029278146
187	0xbd43ccda	-0.047802784
188	0xbd41d6af	-0.04732388
189	0xbd1f88ae	-0.038948707
190	0x3d0575f1	0.03258318
191	0xbd3795d4	-0.04482062
192	0x3c567904	0.013090376
193	0x3dd64890	0.10463059
194	0xbcdcfddf	-0.026976524
195	0xbd93f4fa	-0.0722446
196	0x3d6e848d	0.05823188
197	0xbd2699d8	-0.04067406
198	0x3c92f884	0.017940767
199	0xbc6dbc26	-0.01451019
200	0x3d0ae093	0.033905577
201	0xbc3dbef6	-0.011581173
202	0x3c85974a	0.016307492
203	0x3cf97794	0.030452527
204	0x3d28fdb2	0.041257568
205	0xbc1da515	-0.009621878
206	0xbd47d2a2	-0.04878486
207	0xbdd13271	-0.10214699
208	0x3bdddf55	0.006771008
209	0xbda98da2	-0.082789674
210	0x3d895de7	0.067073636
211	0x3c937c23	0.018003529
212	0xbb51379e	-0.003192402
213	0x3db18289	0.08667476
214	0x3c00ce90	0.007861748
215	0x3d9484f9	0.07251925
216	0xbc166540	-0.009179413
217	0x3d125df9	0.03573415
218	0xbd572cb4	-0.052532867
219	0x3dbcbd0a	0.09215744
220	0xbcfcf171	-0.030876847
221	0xbcc01152	-0.023445759
222	0xbdd189eb	-0.10231384
223	0xbc6d3743	-0.014478507
224	0x3b078319	0.0020677506
225	0xbcef87b2	-0.02923951
226	0xbe199a4d	-0.15000267
227	0xbd8c810f	-0.068605535
228	0x3b7c437a	0.0038492368
229	0x3ce2220d	0.027604127
230	0xbcc6ba1b	-0.024258664
231	0xbd307a3d	-0.043085326
232	0x3c3c5b3e	0.011496363
233	0xbcd585d4	-0.02606479
234	0xbd013435	-0.03154393
235	0x3d161189	0.036637817
236	0xbc22fd44	-0.009948079
237	0x3d27c17f	0.040956017
238	0xbd678061	-0.056518916
239	0xbd514ac6	-0.0510967
240	0x3ddfeea5	0.1093419
241	0x3d1248f2	0.035714097
242	0x3df76f71	0.12081803
243	0x3d135f25	0.03597941
244	0xbc36204f	-0.011116101
245	0x3cc4aa9b	0.024007132
246	0xbdb99f8c	-0.09063634
247	0x3d021aec	0.031763956
248	0xbd048942	-0.03235746
249	0x3c6b20ad	0.014351052
250	0xbd8e7bd4	-0.06957212
251	0x3d528a4c	0.05140142
252	0x3c31a82e	0.01084332
253	0x3c01a955	0.007913907
254	0x3c3c6c6a	0.011500457
255	0x3c412eaf	0.011790915

fc2.bias f4 [300]
0	0x3e252cf8	0.16130435
1	0xbde11637	-0.10990565
2	0xbe0e2b95	-0.13883813
3	0xbd9cb396	-0.07651441
4	0x3c85fd29	0.016356068
5	0xbe0eae4f	-0.13933681
6	0x3c8f5086	0.017494451
7	0x3dcd5d19	0.100275226
8	0xbdf286c9	-0.118421145
9	0xbe385d32	-0.18004301
10	0xbe3f8a20	-0.18705034
11	0xbda5deb7	-0.0809912
12	0xbd46c0bd	-0.048523653
13	0xbdbecb44	-0.093161136
14	0xbdbb8b8a	-0.09157474
15	0xbd96a4f5	-0.07355682
16	0xbd91d4b1	-0.07120646
17	0xbda0df22	-0.07855059
18	0xbce5d037	-0.028053386
19	0xbe195b21	-0.14976169
20	0x3d965265	0.07339934
21	0xbe11b71c	-0.14230007
22	0xbe0f8045	-0.14013775
23	0xbdcd2538	-0.100168645
24	0xbc2b76cc	-0.010465335
25	0xbe2f288f	-0.17105316
26	0x3c010522	0.007874759
27	0x3dc1fc96	0.09472005
28	0xbd92c297	-0.07166021
29	0xbdd87e6c	-0.10570988
30	0xbcc95af1	-0.024579497
31	0xbd38924a	-0.045061387
32	0xbdac533d	-0.08414314
33	0x3df7425f	0.12073206
34	0x3dd930fa	0.10605045
35	0xbdf828d2	-0.12117161
36	0x3bec3656	0.007208626
37	0xbdc4f56f	-0.09617125
38	0xbd9de2c4	-0.07709268
39	0xbe192e04	-0.1495896
40	0xbe05f4e6	-0.13081703
41	0x3ca8e54a	0.020617146
42	0xbd768cd9	-0.060192917
43	0xbe19c5d4	-0.15016872
44	0x3e090352	0.13380173
45	0xbe39a7a2	-0.18130353
46	0xbe01ee0c	-0.12688464
47	0x3ca828f6	0.020527344
48	0xbdc2e7b0	-0.09516847
49	0xbd842664	-0.06452635
50	0x3d43838b	0.04773287
51	0xbe27bed9	-0.16381396
52	0xbba98bd0	-0.0051741377
53	0x3d02b951	0.031915013
54	0xbd1b5856	-0.03792604
55	0xbdf8637d	-0.12128351
56	0xbbc33c06	-0.005958083
57	0x3c152fea	0.009105662
58	0xbce79126	-0.028267454
59	0xbe14bc0d	-0.1452486
60	0xbc8c66d8	-0.017138883
61	0x3dc5ad74	0.09652224
62	0xbdf42c9c	-0.11922571
63	0xbe0ef1af	-0.13959382
64	0xbddb9f92	-0.10723795
65	0xbe2df913	-0.16989546
66	0x3e22525d	0.15851732
67	0xbe05b316	-0.13056597
68	0xbc45bbb9	-0.012068682
69	0xbe014250	-0.12622952
70	0xbd280c43	-0.04102732
71	0x3d022cab	0.03178088
72	0x3e00abf8	0.12565601
73	0x3d067a12	0.03283126
74	0xbdb28cf9	-0.08718295
75	0xbe1f9b4a	-0.15586582
76	0xbe4577fb	-0.1928405
77	0xb9e9a8e7	-0.00044567065
78	0xbe429c5d	-0.1900496
79	0xbe3e23cc	-0.18568343
80	0xbe3c3b62	-0.18382028
81	0xbe3d85a4	-0.18508011
82	0xbe0d635d	-0.13807435
83	0xbdf9c9c9	-0.121966906
84	0x3cdb8ec9	0.026801484
85	0xbe37c84a	-0.17947498
86	0xbd1652b8	-0.03669998
87	0xbe38bca3	-0.18040709
88	0xbe0d68bc	-0.13809484
89	0xbd136833	-0.035988044
90	0x3d6e1ed2	0.05813486
91	0x3d5effe8	0.05444327
92	0x3d9e4f00	0.07729912
93	0x3d240155	0.040040333
94	0xbe0d34e3	-0.13789706
95	0xbdc21510	-0.094766736
96	0xbdf1b6de	-0.11802457
97	0xbe05a315	-0.13050492
98	0x3d4cc415	0.049991686
99	0xbe17e6ba	-0.14834109
100	0x3c3cfaa1	0.011534364
101	0xbe130b61	-0.1435981
102	0x3e10e68a	0.14150444
103	0xbe1df9c4	-0.1542731
104	0xbe2fbb44	-0.1716128
105	0xbd8a15b8	-0.06742424
106	0xbe27a99b	-0.16373293
107	0xbe07c7b1	-0.1325977
108	0x3c94f351	0.018182429
109	0x3d9afaa5	0.07567338
110	0x3c5d718c	0.013515841
111	0xbe6b52c5	-0.22980793
112	0x3ca944f8	0.02066277
113	0xbdddbc4a	-0.10826929
114	0x3c298c49	0.010348388
115	0xbdbbd54b	-0.09171542
116	0xbe137386	-0.14399537
117	0x3db5f639	0.08884854
118	0xbe43f33b	-0.19135754
119	0xbd9fb885	-0.07798866
120	0xbe29af15	-0.16570695
121	0xbcf72d74	-0.03017304
122	0x3db3d828	0.08781463
123	0xbe16ca4b	-0.14725606
124	0xbe229aff	-0.15879439
125	0x3d08e2c9	0.033419404
126	0x3d0f49af	0.03498238
127	0xbe4eb339	-0.20185556
128	0xbda7be15	-0.08190552
129	0xbe34c1c2	-0.17652038
130	0xbe028da8	-0.1274935
131	0xbdabacfc	-0.083826035
132	0xbe3d62bf	-0.184947
133	0x3d0f404d	0.03497343
134	0x3cadbdb8	0.021208629
135	0x3b81affe	0.0039577475
136	0x3c9b55d8	0.018961832
137	0xbd39e366	-0.04538288
138	0xbdec0043	-0.115234874
139	0x3e39caa5	0.18143709
140	0xbd0de3c4	-0.034641042
141	0x3d27fbb6	0.041011535
142	0x3ce86661	0.02836913
143	0x3dc5fb9d	0.09667132
144	0xbdb269a1	-0.08711553
145	0x3d490a45	0.04908206
146	0x3c8f6d36	0.01750813
147	0x3d613e31	0.05499095
148	0xbe218178	-0.15772045
149	0x3bfc956b	0.0077082417
150	0x3decc496	0.11560933
151	0xbcebb5a5	-0.028773138
152	0xbe47d13d	-0.19513412
153	0x3df0cbb2	0.11757602
154	0xbdde82b1	-0.10864771
155	0xbdac7b8f	-0.084220044
156	0x3d9b20ec	0.07574639
157	0x3d832db4	0.064052016
158	0xbdc6b542	-0.09702541
159	0x3dcfbf86	0.10143952
160	0x3e2ce8a4	0.1688562
161	0xbded21bc	-0.115787
162	0x3dcda4c7	0.100411944
163	0xbe3566ce	-0.17714998
164	0x3e34af5f	0.17645024
165	0xbe5a14c7	-0.21296988
166	0xbd41e1fb	-0.047334652
167	0xbded4eb8	-0.1158728
168	0xbe205f4e	-0.15661356
169	0xbe2b6ac0	-0.1673994
170	0xbe48863f	-0.19582461
171	0xbe18c6af	-0.14919542
172	0x3e3340d0	0.17505193
173	0x3c90ac0f	0.017660169
174	0x3de11e0b	0.10992058
175	0xbd84c01a	-0.06481953
176	0xbdbd3582	-0.092387214
177	0xbe0568ca	-0.13028255
178	0xbde3b350	-0.111181855
179	0xbe2bf0d6	-0.1679109
180	0x3e325f2e	0.1741912
181	0x3cb0d963	0.021588033
182	0xbdb8d220	-0.09024453
183	0xbd87c52e	-0.06629406
184	0xbe294fa7	-0.16534291
185	0xbd9584b9	-0.073007055
186	0xbdb7842b	-0.08960756
187	0xbdc71fa6	-0.09722833
188	0xbe15e9e4	-0.14640003
189	0xbe0b6ac5	-0.13614948
190	0x3d493993	0.049127173
191	0xbe22e9d3	-0.1590951
192	0xbe309ea8	-0.17248023
193	0xbe1135b2	-0.1418064
194	0x3d0a2093	0.03372247
195	0xbe06471f	-0.13113068
196	0xbde3e9a7	-0.1112855
197	0x3d070e30	0.032972515
198	0xbdd3fcf9	-0.10350985
199	0xbdf351fc	-0.11880872
200	0xbe288516	-0.16457018
201	0xbdf82540	-0.1211648
202	0x38ceb252	9.85606e-05
203	0xbd8d349b	-0.06894799
204	0xbe14d48a	-0.14534202
205	0x3d2b1b82	0.04177428
206	0x3e09b5f3	0.13448314
207	0xbd8e3af8	-0.06944841
208	0x3d809ad9	0.06279535
209	0x3d2428fa	0.04007814
210	0x3e2f0bf6	0.17094406
211	0xbe3fa048	-0.18713486
212	0x3e133355	0.1437505
213	0x3c09a59c	0.008401301
214	0xbe143901	-0.1447487
215	0xbe1f1aeb	-0.15537612
216	0xbe06c06f	-0.13159345
217	0xbd9e9074	-0.07742396
218	0xbdbe1edf	-0.09283232
219	0xbdad8408	-0.084724486
220	0xbc37b46b	-0.011212449
221	0xbe2d12d4	-0.16901714
222	0xbd91ff50	-0.07128775
223	0xbdb55f7c	-0.08856103
224	0xbde36ae6	-0.11104374
225	0x3d862b08	0.06551176
226	0xbc741826	-0.014898336
227	0xbdc55f7f	-0.09637355
228	0xbb402dc6	-0.0029324158
229	0xbe201959	-0.1563467
230	0x3ddd2b9f	0.10799336
231	0x3d4cc71b	0.04999457
232	0x3d700372	0.058597036
233	0xbda4c16e	-0.08044706
234	0xbe0647a5	-0.13113268
235	0xbd34e50a	-0.04416374
236	0xbdcacc5e	-0.09902261
237	0x3d85893e	0.065203175
238	0xbdfacac5	-0.122457065
239	0xbe077fa4	-0.13232285
240	0xbd836299	-0.064152904
241	0xbe1736ac	-0.1476695
242	0x3e0475d1	0.12935568
243	0xbe43cdda	-0.19121495
244	0xbd718a87	-0.05897
245	0x3d8a6d44	0.06759122
246	0xbdbf2940	-0.0933404
247	0x3d05080a	0.03247837
248	0xbdf57a0a	-0.11986168
249	0x3e2f3369	0.17109455
250	0xbd74e946	-0.05979278
251	0x3c868044	0.016418584
252	0xbdced0d8	-0.100984275
253	0x3d3d64fc	0.046238884
254	0xbd02510f	-0.031815585
255	0x3dfdb8ef	0.12388789
