experiments/exp1/models/checkpoint_critic_16.pth (torch_old, 275436 bytes, 5 tensors)

fc1.weight f4 [200, 33]
0.07694176 -0.086717725 0.008343055 -0.2878889 0.27526626 -0.028083658 -0.028516483 -0.031381328
-0.07177838 0.1256679 -0.0707721 -0.02083081 -0.027595479 -0.008659008 -0.04167294 0.019239306
0.18830103 0.23365259 0.050075337 0.1623951 0.019543318 -0.038041368 0.030399917 -0.02958493
0.005175002 0.0009571323 -0.04149734 0.029753815 0.050078508 -0.05273302 -0.054382265 0.066337354
0.49406266 -0.0057995277 0.1618818 -0.002696705 0.27588993 -0.11523618 -0.15060772 -0.40026444
-0.023871664 0.18243325 -0.11535366 0.078259036 0.06252358 0.012884649 -0.027109342 -0.02013311
0.07959788 0.072421476 0.027850991 -0.15997984 -0.15425567 -0.093799345 0.05469488 -0.005186362
-0.030492904 -0.01989899 -0.006283291 0.0010939131 0.019608801 -0.08442931 -0.07062029 -0.025065845
0.041252792 -0.03005074 0.015177401 0.025377005 0.026038513 -0.08208571 -0.091723315 0.056834016
0.36887732 0.08332086 0.15250352 0.04757689 -0.02653556 -0.013712749 -0.0034524403 -0.18894832
0.056030784 -0.1090396 -0.19471705 0.086358964 0.15366961 -0.046254866 0.0042459695 0.0040623695
0.026001018 -0.09035838 0.03934808 -0.082674466 0.10707166 0.03454121 0.110117204 0.03777864
0.0014653263 0.04132373 -0.12399905 -0.14491248 0.00040475352 0.08739203 0.11226486 0.31734064
-0.10175135 -0.061782036 -0.01966399 0.051713645 -0.04655742 -0.033367213 -0.0066864653 0.025531549
0.08548618 -0.012439541 -0.021260727 0.14693025 0.019352498 0.05867602 -0.1329898 -0.013747352
-0.02668751 0.043274026 0.026987135 -0.017049525 0.0042459397 0.012151454 0.067665614 -0.050075024
-0.062710926 -0.027512882 -0.01388029 0.9727339 0.031275406 0.056996826 -0.07859199 0.12679543
0.25352156 -0.20475708 0.18618053 -0.009706501 -0.06697414 0.040161904 -0.0054732705 -0.072761096
0.091284454 -0.13451797 -0.046980783 0.15603703 0.15675604 0.23941924 -0.083404526 -0.25178358
0.031577323 0.11291664 0.008713578 -0.043761794 0.06702575 -0.0024744542 0.0499168 0.055759147
-0.053311672 0.031244874 -0.09851359 -0.06629122 -0.16734596 -0.078758255 -0.009128486 0.043646894
-0.12580758 -0.07492682 0.05108256 0.195619 -0.029979229 -0.17741223 0.0868419 -0.053278036
0.019070923 -0.012912338 -0.018390045 -0.05529274 -0.10398797 0.13489887 0.10451964 0.079338446
0.013938341 -0.008181775 -0.011886159 0.010701793 0.028071165 -0.049191725 -0.015241701 0.0973688
0.14863352 0.0482789 0.06143496 -0.16137446 -0.06812292 -0.73872566 -0.016583458 0.11721535
-0.041176945 -0.12555628 -0.096106745 -0.27991977 -0.12134816 -0.12175452 0.13012569 0.06884344
0.120804384 0.008327594 -0.03367758 -0.0127298245 0.1728211 -0.010932428 -0.08827895 -0.10523344
-0.22699289 -0.13579002 -0.0067048403 -0.018331315 0.031800322 -0.011370983 0.07363123 0.057523258
-0.060135003 0.005916222 0.11576995 -0.018699784 0.059510097 -0.014210105 -0.32046026 -0.019571772
0.036497965 -0.22069883 0.20330343 0.3233315 -0.18603183 0.14121284 -0.03517234 -0.012910314
0.07797977 -0.00603835 0.0075533492 -0.003478231 0.04005096 -0.016515585 0.20042522 -0.016062904
-0.28769788 -0.3563597 0.22485034 0.008322511 -0.006591012 -0.014600861 0.04534803 -0.009367296
00000000: a493 9d3d 1099 b1bd 4fb1 083c 2d66 93be
00000010: b3ef 8c3e b30f e6bc 669b e9bc b589 00bd
00000020: 8b00 93bd 16af 003e f6f0 90bd 60a5 aabc
00000030: ea0f e2bc 83de 0dbc 3fb1 2abd c09b 9d3c
00000040: fcd1 403e a042 6f3e cc1b 4d3d e74a 263e
00000050: 4f19 a03c 44d1 1bbd 3f09 f93c 185c f2bc
00000060: 1093 a93b 10e8 7a3a 1df9 29bd 46be f33c
00000070: 1f1f 4d3d 94fe 57bd f0bf 5ebd e1db 873d
00000080: c8f5 fc3e f709 bebb 58c4 253e 34bb 30bb
00000090: 7241 8d3e f200 ecbd e938 1abe 76ef ccbe
000000a0: 828e c3bc c8cf 3a3e 8a3e ecbd 4646 a03d
000000b0: 5d0c 803d 231a 533c 6914 debc 31ee a4bc
000000c0: 3704 a33d b651 943d c327 e43c c1d1 23be
000000d0: 33f5 1dbe df19 c0bd bd07 603d 5cf2 a9bb
000000e0: 41cc f9bc 3503 a3bc 11e4 cdbb a261 8f3a
000000f0: a3a2 a03c 46e9 acbd 5fa1 90bd e356 cdbc
00000100: b0f8 283d f82c f6bc a2aa 783c 70e3 cf3c
00000110: b84e d53c 8d1c a8bd 6fd9 bbbd c9ca 683d
00000120: 7ddd bc3e 21a4 aa3d e229 1c3e fcdf 423d
00000130: 1a61 d9bc 70ab 60bc 5642 62bb ab7b 41be
00000140: 8980 653d 2750 dfbd e863 47be f8dc b03d
00000150: 915b 1d3e be75 3dbd c621 8b3b a01d 853b
00000160: 1600 d53c d00d b9bd 742b 213d 3b51 a9bd
00000170: 6348 db3d 157b 0d3d 2185 e13d c6bd 1a3d
00000180: 3110 c03a 1243 293d 37f3 fdbd f063 14be
00000190: 1935 d439 98fa b23d 1eeb e53d 797a a23e
000001a0: 0363 d0bd 290f 7dbd 6016 a1bc b0d1 533d
000001b0: feb2 3ebd 0fac 08bd 231a dbbb 8a27 d13c
000001c0: 6113 af3d 37cf 4bbc fa2a aebc e274 163e
000001d0: 2189 9e3c 4456 703d 7a2e 08be 933c 61bc
000001e0: c49f dabc 1b40 313d 2014 dd3c 72ab 8bbc
000001f0: 8621 8b3b e416 473c 4594 8a3d 781b 4dbd
00000200: 966e 80bd b262 e1bc 286a 63bc 1705 793f
00000210: a41a 003d 8175 693d d6f4 a0bd a9d6 013e
00000220: 94cd 813e d7ab 51be 1ca6 3e3e 0408 1fbc
00000230: bd29 89bd cf80 243d 1f59 b3bb c503 95bd
00000240: 58f3 ba3d 14bf 09be ec6e 40bd 2cc8 1f3e
00000250: a884 203e 512a 753e fecf aabd c7e9 80be
00000260: 3957 013d d740 e73d 65c3 0e3c 913f 33bd
00000270: cc44 893d 742a 22bb 8f75 4c3d b463 643d
00000280: 575d 5abd 40f5 ff3c 7ec1 c9bd b1c3 87bd
00000290: bd5c 2bbe 024c a1bd a58f 15bc 16c7 323d
000002a0: b4d3 00be 3c73 99bd f23b 513d 5950 483e
000002b0: 0097 f5bc 8dab 35be 2bda b13d 123a 5abd
000002c0: a03a 9c3c 458e 53bc b8a6 96bc a47a 62bd
000002d0: a5f7 d4bd ee22 0a3e 650e d63d 327c a23d
000002e0: a45d 643c da0c 06bc 2abe 42bc 9356 2f3c
000002f0: 80f5 e53c 437d 49bd 54b8 79bc 4b69 c73d
00000300: 6333 183e 19c0 453d 3aa3 7b3d 593f 25be
00000310: 0884 8bbd 201d 3dbf 08da 87bc 9a0e f03d
00000320: 28a9 28bd d391 00be 9dd3 c4bd a551 8fbe
00000330: 6285 f8bd 6f5a f9bd ab3f 053e cafd 8c3d
00000340: 4a68 f73d 7670 083c 81f1 09bd c190 50bc
00000350: 04f8 303e ed1d 33bc 98cb b4bd a184 d7bd
00000360: d370 68be 8a0c 0bbe 47b4 dbbb 8e2b 96bc
00000370: 0e41 023d 5c4d 3abc f8cb 963d 829d 6b3d
00000380: 1f50 76bd dedc c13b cc18 ed3d 4a30 99bc
00000390: dcc0 733d 80d1 68bc 5e13 a4be fb54 a0bc
000003a0: e47e 153d e0fe 61be c62e 503e b58b a53e
000003b0: 217f 3ebe 199a 103e df10 10bd c885 53bc
000003c0: dcb3 9f3d 5add c5bb 1682 f73b 08f3 63bb
000003d0: 7a0c 243d b14b 87bc 453c 4d3e 5a96 83bc
000003e0: 234d 93be c774 b6be 2b3f 663e 245b 083c
000003f0: 6af9 d7bb 7338 6fbc dbbe 393d 4979 19bc

fc1.bias f4 [200]
-0.10057405 0.13950878 -0.1388264 0.13016602 -0.117570296 -0.26088458 -0.07581301 -0.07497731
-0.14505996 0.009172241 -0.02452269 0.11707472 0.0062124967 -0.19907077 -0.048161995 -0.18739657
-0.15961699 -0.004602572 0.08820569 -0.2313197 -0.03316506 0.060571633 -0.020218037 -0.23044424
-0.14234161 -0.120032616 -0.11604249 0.20580985 -0.04312961 -0.15079242 -0.019691711 0.014781308
-0.06015356 -0.058604367 0.03427709 -0.11306055 0.1105011 -0.21042588 -0.023370594 0.049518816
-0.12529804 -0.16794579 -0.11288849 0.015370846 0.071897306 -0.09961763 -0.15427765 0.11595839
-0.113951646 -0.23791914 0.13795973 -0.15128805 -0.07813926 0.17254363 -0.18462849 0.14782846
0.029342884 -0.022274228 -0.034305163 -0.1452584 0.16549584 0.075758986 -0.0733017 -0.026508009
-0.0047433632 -0.06686422 0.03555741 -0.15523453 -0.009606778 -0.18672106 -0.12936766 0.029245757
-0.10575845 0.1961114 0.05907867 -0.17762232 0.026425717 -0.15330325 0.19045632 -0.03937257
-0.07557444 -0.20271014 0.1122028 -0.1060121 0.039412 0.058066968 -0.03629354 -0.024667151
0.08909985 -0.03104414 -0.1596058 0.15897259 -0.020221744 -0.20141341 -0.17669342 -0.05394187
0.06971998 0.13513784 0.0366336 0.0077365823 0.02510089 0.013114961 0.11579537 -0.038145088
-0.02695359 -0.32777032 -0.15805286 -0.087463036 -0.033094324 -0.055421337 0.09729066 -0.03842987
-0.036845244 0.11104453 -0.15813182 -0.04859955 0.03101775 -0.25439876 -0.24623063 -0.058108594
0.11594074 0.048924834 0.0053835316 -0.14373049 0.067089915 -0.15878245 0.15931317 0.1414037
-0.16742088 -0.05893162 -0.2793364 -0.13527532 0.036672086 0.13791062 -0.0051973327 -0.26273057
-0.072220854 0.037585482 -0.23722555 -0.07052106 0.049965907 -0.050086353 -0.030528497 -0.030701082
-0.1658676 0.09845181 -0.10147601 0.046641387 0.0025436224 -0.042469863 0.07246805 0.036712807
-0.11415426 -0.14658065 -0.12507871 -0.030322809 -0.14067607 0.008687585 0.014762218 -0.20554458
-0.06336883 0.010909981 -0.239966 -0.13806722 -0.028834537 -0.0017563005 0.048318435 -0.19911619
0.13834311 -0.044450175 0.100459255 -0.06596599 -0.083791435 -0.19318035 -0.010223077 -0.07456987
-0.18912522 -0.13023558 -0.018794702 -0.05114909 0.115010925 -0.20613393 -0.10047512 -0.00025795764
-0.19322325 0.12363307 0.08975398 0.018154753 0.007339719 -0.10888984 -0.05501418 0.015522644
-0.12584879 -0.06673667 0.15183912 -0.20575877 -0.14644873 -0.10053607 0.14761269 -0.13935938
00000000: c4f9 cdbd 64db 0e3e 8228 0ebe 3e4a 053e
00000010: b2c8 f0bd aa92 85be da43 9bbd b48d 99bd
00000020: 998a 14be 2b47 163c cfe3 c8bc dfc4 ef3d
00000030: 3392 cb3b 35d9 4bbe 8345 45bd e3e4 3fbe
00000040: a372 23be 2cd1 96bb 2fa5 b43d 12df 6cbe
00000050: 16d8 07bd f619 783d 4ca0 a5bc 93f9 6bbe
00000060: 00c2 11be a9d3 f5bd afa7 edbd d1bf 523e
00000070: ada8 30bd 5469 1abe 8350 a1bc 4d2d 723c
00000080: 9463 76bd 220b 70bd 2266 0c3d 4a8c e7bd
00000090: 674e e23d e279 57be b073 bfbc 3ed4 4a3d
000000a0: 214e 00be fbf9 2bbe 1532 e7bd 00d6 7b3c
000000b0: e53e 933d 5404 ccbd f6fa 1dbe 987b ed3d
000000c0: 7b5f e9bd 13a1 73be 5145 0d3e 41eb 1abe
000000d0: 7a07 a0bd 47af 303e 400f 3dbe 5860 173e
000000e0: 7d60 f03c 7178 b6bc 9283 0cbd 9ebe 14be
000000f0: be77 293e 8727 9b3d 341f 96bd 5327 d9bc
00000100: 376e 9bbb 1cf0 88bd a6a4 113d cdf5 1ebe
00000110: bf65 1dbc ce33 3fbe f578 04be cc94 ef3c
00000120: e397 d8bd 6dd1 483e 7afc 713d a0e2 35be
00000130: bf7a d83c 87fb 1cbe fb06 433e 2245 21bd
00000140: c6c6 9abd 3f93 4fbe 95ca e53d df1c d9bd
00000150: 7a6e 213d a1d7 6d3d 89a8 14bd c412 cabc
00000160: fb79 b63d 4850 febc b46f 23be b6c9 223e
00000170: 12a8 a5bc 513f 4ebe 1fef 34be 26f2 5cbd
00000180: 59c9 8e3d 9361 0a3e 1d0d 163d 2883 fd3b
00000190: 62a0 cd3c 22e0 563c 1f26 ed3d 063e 1cbd
000001a0: c6cd dcbc 83d1 a7be 9cd8 21be d21f b3bd
000001b0: ea8d 07bd 7c01 63bd 5340 c73d a468 1dbd
000001c0: 0aeb 16bd 516b e33d 4fed 21be 5210 47bd
000001d0: f018 fe3c 8e40 82be e223 7cbe 4703 6ebd
000001e0: 5772 ed3d 6865 483d 5668 b03b 162e 13be
000001f0: 7066 893d de97 22be fe22 233e 22cc 103e
00000200: 6170 2bbe 4862 71bd 2e05 8fbe 9d85 0abe
00000210: 7835 163d 7138 0d3e 634e aabb 9f84 86be
00000220: 87e8 93bd 3cf3 193d 41eb 72be 586d 90bd
00000230: 0da9 4c3d 5927 4dbd e616 fabc d680 fbbc
00000240: 32d9 29be 1aa1 c93d a8d2 cfbd 0a0b 3f3d
00000250: e7b2 263b e1f4 2dbd 216a 943d 2b60 163d
00000260: b5c9 e9bd 3d19 16be a214 00be 8a67 f8bc
00000270: 630d 10be 5f56 0e3c 3bdd 713c 477a 52be
00000280: 84c7 81bd c7bf 323c a6b9 75be 7e61 0dbe
00000290: 6836 ecbc aa33 e6ba 8de9 453d 1de5 4bbe
000002a0: d1a9 0d3e 6311 36bd 95bd cd3d 2d19 87bd
000002b0: d89a abbd 12d1 45be b17e 27bc 17b8 98bd
000002c0: 0baa 41be 7a5c 05be 59f7 99bc b581 51bd
000002d0: d98a eb3d c614 53be e6c5 cdbd 7d3e 87b9
000002e0: 51dc 45be 5633 fd3d efd0 b73d 47b9 943c
000002f0: 0782 f03b a301 dfbd 8c56 61bd b052 7e3c
00000300: 81de 00be 3cad 88bd b77b 1b3e 6db2 52be
00000310: a8f6 15be dbe5 cdbd c827 173e 3ab4 0ebe

fc2.weight f4 [300, 204]
0.0020309791 -0.043786235 -0.054852314 -0.13966952 -0.24391007 -0.043996163 0.028388316 -0.05366992
-0.05731872 -0.08421203 0.16631691 -0.11449103 0.0053848196 -0.07922428 0.02878004 -0.12937719
0.029214758 -0.04861253 -0.073132984 0.03925688 0.04902575 -0.07758935 0.012296965 0.0557613
-0.023587272 -0.026846856 0.14536852 -0.0009633457 0.03122518 -0.008359534 -0.11679868 -0.13232327
-0.11934295 -0.31105226 -0.21154974 0.13328464 -0.08795009 -0.011021473 -0.08671266 0.08282636
-0.09056993 -0.27713716 0.02640726 -0.02445953 0.045094397 -0.022373678 0.04080416 -0.10998854
-0.13687329 0.03880909 -0.077175505 0.054056436 -0.060007244 -0.1072709 -0.053189047 -0.019932434
0.03380174 0.06564795 -0.1308237 0.038128287 -0.013049178 0.13042164 0.030083198 -0.15001115
-0.006411514 -0.25242078 0.07908379 -0.12262863 -0.12047402 -0.089037366 0.042558175 0.04010343
-0.020230351 -0.18156137 -0.06314862 -0.05098957 0.019441236 -0.047985088 -0.027134487 -0.019617138
0.042477075 0.071279876 0.020093933 -0.061376754 -0.14450872 0.038940344 -0.00769248 -0.023725327
0.042554516 0.07238374 -0.2074059 0.13127801 0.02875615 0.014782327 0.00496759 0.16483408
0.06525231 0.028890856 0.07241047 -0.12196547 -0.15179732 0.09206988 -0.06955219 0.0024377238
-0.05876659 -0.060702138 -0.028163267 0.08380693 0.033956923 0.01781961 0.008706914 -0.16710863
0.034322478 0.03449655 -0.06582594 -0.14560872 -0.06648905 -0.030634467 0.035899326 -0.044869717
-0.15867035 0.016008181 -0.20034115 0.09684479 -0.103891656 0.054499764 -0.012496841 0.18013826
-0.11216657 -0.112877 0.051083934 0.09033731 0.035906777 -0.5916201 0.07926562 -0.119964644
-0.4231654 0.073777676 0.027432874 -0.052287463 0.011117571 0.08621778 -0.044612564 0.17952177
-0.023267781 -0.12148801 0.034263935 -0.009634082 -0.09418269 -0.027046317 -0.012744013 0.01080265
0.14057882 -0.0518398 0.023192 -0.21826705 0.0045136646 -0.021361237 -0.034814093 0.0028769097
-0.024270771 0.034773443 -0.12259692 -0.12872942 0.0097219385 0.07439992 0.07467253 -0.16808598
-0.017488724 -0.07677561 -0.022579703 -0.034469776 -0.022739757 0.0143699255 0.054115538 -0.027784873
0.07872217 -0.03693836 -0.00546681 -0.04741366 -0.013714764 -0.18806107 -0.06775177 -0.087739564
-0.18267123 0.14413147 -0.07445071 0.03840959 -0.1673032 -0.02045343 0.057438005 0.0069341264
0.23358089 0.035657644 -0.032267306 -0.057304777 0.030438581 0.11637392 -0.15222116 0.001899042
-0.014970633 -0.002766049 -0.033812154 -0.02988016 -0.12410465 -0.20829237 0.031790964 -0.12729716
-0.15817039 0.0840622 0.053201288 -0.038161326 -0.12275907 0.015956154 0.0068703573 -0.14109533
-0.06135573 -0.09521702 -0.2797078 -0.1543379 0.026797345 -0.018940251 0.15378253 0.00057175575
0.060468197 0.09752989 -0.28664386 -0.028516049 -0.021555109 0.063377276 -0.008626997 -0.11913525
-0.2980251 -0.03490625 0.0042583114 -0.014913911 0.17138377 -0.0439844 -0.038433205 0.07421036
-0.013010866 -0.1795065 -0.079797864 -0.12605232 0.0052610794 -0.06796697 0.053353637 0.036820166
-0.026843866 -0.18230143 0.022320816 0.009275435 -0.1174697 0.10577225 -0.0054841875 -0.07500323
00000000: 2d1a 053b 3259 33bd d2ac 60bd 8705 0fbe
00000010: 90c3 79be 5235 34bd 9d8e e83c fdd4 5bbd
00000020: 09c7 6abd 5b77 acbd fb4e 2a3e 467a eabd
00000030: 2473 b03b 5740 a2bd 1ec4 eb3c 747b 04be
00000040: ca53 ef3c ef1d 47bd bfc6 95bd d2cb 203d
00000050: 3acf 483d 2ae7 9ebd 3679 493c f665 643d
00000060: 183a c1bc f0ed dbbc 7cdb 143e 0989 7cba
00000070: f3cb ff3c 6df6 08bc 2534 efbd c07f 07be
00000080: 146a f4bd 3e42 9fbe 7fa0 58be c57b 083e
00000090: 2d1f b4bd 6993 34bc 6896 b1bd dea0 a93d
000000a0: ba7c b9bd ece4 8dbe 0a54 d83c 5a5f c8bc
000000b0: e7b4 383d 0149 b7bc 4322 273d ac41 e1bd
000000c0: 8328 0cbe 48f6 1e3d 310e 9ebd 486a 5d3d
000000d0: 28ca 75bd d8b0 dbbd c2dc 59bd 5849 a3bc
000000e0: b173 0a3d 6f72 863d a6f6 05be 682c 1c3d
000000f0: 38cc 55bc 408d 053e 0a71 f63c 869c 19be
00000100: ad17 d2bb 4c3d 81be aff6 a13d b824 fbbd
00000110: 15bb f6bd 3959 b6bd 7b51 2e3d 7f43 243d
00000120: 1fba a5bc 39eb 39be 1054 81bd 70da 50bd
00000130: 3a43 9f3c 038c 44bd 2549 debc 1fb4 a0bc
00000140: 71fc 2d3d 2ffb 913d 089c a43c 3166 7bbd
00000150: 18fa 13be e97f 1f3d 3311 fcbb 9e5b c2bc
00000160: a54d 2e3d ed3d 943d 3662 54be be6d 063e
00000170: 0492 eb3c 9331 723c 2ac7 a23b 44ca 283e
00000180: 01a3 853d 84ac ec3c f14b 943d 08c9 f9bd
00000190: c270 1bbe 228f bc3d 6171 8ebd 38c2 1f3b
000001a0: 3cb5 70bd cea2 78bd a7b6 e6bc f8a2 ab3d
000001b0: 6a16 0b3d 6efa 913c 72a7 0e3c 861e 2bbe
000001c0: ba95 0c3d 414c 0d3d c0cf 86bd 741a 15be
000001d0: 692b 88bd 22f5 fabc 2c0b 133d 4fc9 37bd
000001e0: 7b7a 22be 9723 833c 3b26 4dbe 9056 c63d
000001f0: 26c5 d4bd 253b 5f3d 8dbf 4cbc 2a76 383e
00000200: 96b7 e5bd 0e2c e7bd 633d 513d c502 b93d
00000210: fc12 133d 6a74 17bf 0356 a23d 06b0 f5bd
00000220: 23a9 d8be c018 973d e8ba e03c 612b 56bd
00000230: 7926 363c f392 b03d aabb 36bd 8ed4 373e
00000240: 139c bebc b5ce f8bd 5758 0c3d 45d8 1dbc
00000250: dbe2 c0bd 3d90 ddbc 44cc 50bc 99fd 303c
00000260: e5f3 0f3e f855 54bd 26fd bd3c 6681 5fbe
00000270: 5de7 933b c3fd aebc 3999 0ebd 898a 3c3b
00000280: 7fd3 c6bc 996e 0e3d 1814 fbbd a5d1 03be
00000290: c448 1f3c fc5e 983d e9ed 983d bb1e 2cbe
000002a0: 8344 8fbc 883c 9dbd 12f9 b8bc 2e30 0dbd
000002b0: ba48 babc d66f 6b3c 41a8 5d3d 1a9d e3bc
000002c0: 1739 a13d ae4c 17bd ed22 b3bb d334 42bd
000002d0: e4b3 60bc 1593 40be 71c1 8abd cdb0 b3bd
000002e0: 2b0e 3bbe 3397 133e 9d79 98bd 6053 1d3d
000002f0: 8851 2bbe f48d a7bc 1d44 6b3d ab37 e33b
00000300: d42f 6f3e c00d 123d b92a 04bd 6ab8 6abd
00000310: 555a f93c 7355 ee3d dddf 1bbe 47e9 f83a
00000320: 6347 75bc 9a46 35bb 9d7e 0abd 3dc7 f4bc
00000330: 942a febd 984a 55be 3e37 023d 305a 02be
00000340: 6bf7 21be cd28 ac3d 98e9 593d 0d4f 1cbd
00000350: 1b69 fbbd 7bb6 823c bc20 e13b 4b7b 10be
00000360: 2550 7bbd 2401 c3bd dc35 8fbe c10a 1ebe
00000370: 1b86 db3c 9628 9bbc 2b79 1d3e e1e1 153a
00000380: 80ad 773d c0bd c73d fcc2 92be 7d9a e9bc
00000390: 5794 b0bc f2cb 813d 3f58 0dbc 2ffd f3bd
000003a0: bf96 98be dbf9 0ebd 4e89 8b3b 7a59 74bc
000003b0: 3a7f 2f3e fc28 34bd 236c 1dbd 9afb 973d
000003c0: 872b 55bc 8dd0 37be 106d a3bd dc13 01be
000003d0: 2265 ac3b 4432 8bbd 5889 5a3d bed0 163d
000003e0: abe7 dbbc 3aad 3abe 25da b63c fef7 173c
000003f0: f493 f0bd 1f9f d83d b3b4 b3bb 4b9b 99bd

fc2.bias f4 [300]
-0.03521142 0.005862138 -0.0801894 0.36125973 -0.09043693 0.31003392 -0.029631501 -0.03996049
0.017713599 0.042660415 0.060323 0.029550936 0.12274065 0.10909388 0.015384683 -0.06814687
-0.18214078 -0.16429456 0.21084484 0.06319953 0.14869267 -0.05095639 0.09574191 0.034548655
0.14485314 0.007172728 0.11199146 0.03362825 -0.14666374 0.046601713 -0.019138437 0.14221543
-0.15165536 -0.010218821 -0.13757052 0.019467842 -0.022288157 -0.028887374 0.0026023362 0.19249506
0.0074751186 0.036825247 0.098611794 -0.07174404 -0.06323402 -0.02555814 -0.07546776 -0.15359633
0.063051306 0.032795753 -0.24502924 0.22780299 0.010261166 0.05894657 0.17984802 -0.17407854
-0.012809223 -0.17739746 0.028613072 -0.08458392 -0.07350582 -0.027776187 0.24350238 0.056368552
0.14315204 0.1144618 -0.04385192 -0.06658401 0.09759786 -0.079522304 0.1616991 -0.09695202
-0.14018203 0.026572911 -0.12839395 0.100084685 0.29958403 0.12061368 0.045956615 0.2823771
-0.033503566 -0.018767606 0.020155335 0.23620911 0.019454604 0.17730261 0.0360755 0.31533244
0.03930896 0.043530107 -0.07227312 -0.085588366 -0.085103504 -0.029071275 0.11984948 -0.077404715
-0.014579575 -0.047559313 -0.001157468 0.09887884 -0.10625312 -0.03446746 0.10352216 -0.18231307
0.20714583 -0.016670633 0.265546 -0.12646417 -0.07570263 -0.08804063 0.23218139 -0.074819386
0.17330526 0.029420225 -0.14604153 0.118955925 0.13836463 0.120184414 0.037093118 0.08465607
0.083700895 -0.079079464 0.37310445 0.05978547 0.008909968 0.025224993 0.21577726 0.037271205
0.08585384 0.033613384 0.097666465 -0.14408123 0.037236195 0.0051443465 0.25228882 0.0497893
0.038906153 0.11920032 -0.019623574 0.14715181 0.078624405 -0.043276627 0.014138564 0.13749976
0.32401082 -0.26531324 -0.06619113 -0.08061253 0.021279724 0.106529914 -0.0034697182 -0.025265
0.05693071 0.081344984 0.036991015 -0.026788427 0.102410324 0.15944888 0.11333118 0.0073622395
0.09150444 0.042272147 -0.10722775 0.2501665 0.07746463 0.016167292 0.056276996 0.11137349
-0.028783051 -0.020603452 -0.09147944 0.06263594 -0.009717148 0.013758287 -0.076395474 -0.0110165365
0.07378117 0.11003427 0.040799025 -0.08375084 -0.060155768 -0.110029146 0.016286861 0.13261798
-0.090768375 0.17255302 0.025098685 0.04680753 0.09420867 0.046956364 0.10185892 0.17081165
0.10981354 0.17723377 0.04794803 0.040372483 -0.10465513 0.0736811 0.02865607 0.07039063
0.052707784 -0.096308425 -0.08507022 0.16332278 0.0076787127 0.04453938 0.11117089 0.084263004
0.13229248 0.047277 -0.10149563 0.03317274 0.09295939 -0.045167387 0.06422645 0.14479244
0.071735576 0.078047685 0.004589943 -0.036223885 0.19630148 -0.012064333 -0.01149235 0.092784666
0.038363386 0.08987316 0.12973805 0.11084816 0.028247848 0.2105269 0.06897513 0.056251183
-0.029134843 0.18679899 -0.02616428 -0.04154159 0.20329061 0.062064942 -0.07928013 -0.010045815
0.21618207 0.06901401 0.0041508814 -0.048148572 0.2864093 -0.10118508 -0.21669865 0.07496469
0.045981713 -0.100229375 0.18927002 0.047077805 0.023130855 0.09080644 -0.02145862 0.06448845
00000000: da39 10bd 2d17 c03b 573a a4bd 09f7 b83e
00000010: ff36 b9bd c4bc 9e3e c3bd f2bc 9cad 23bd
00000020: 1c1c 913c b0bc 2e3d 4015 773d ce14 f23c
00000030: 735f fb3d 9d6c df3d 0a10 7c3c 9690 8bbd
00000040: 1d83 3abe d53c 28be b6e7 573e c16e 813d
00000050: e442 183e a6b7 50bd 5614 c43d e482 0d3d
00000060: 6254 143e 3409 eb3b c75b e53d c7bd 093d
00000070: 052f 16be 70e1 3e3d 36c8 9cbc eca0 113e
00000080: 8b4b 1bbe d76c 27bc 49df 0cbe 067b 9f3c
00000090: a795 b6bc 37a5 ecbc f58b 2a3b 6d1d 453e
000000a0: d7f1 f43b 12d6 163d fbf4 c93d 8aee 92bd
000000b0: d680 81bd 4e5f d1bc d78e 9abd 5b48 1dbe
000000c0: 0b21 813d d754 063d f2e8 7abe 3045 693e
000000d0: 731e 283c f571 713d 142a 383e a541 32be
000000e0: c6dd 51bc aea7 35be f665 ea3c 563a adbd
000000f0: 388a 96bd e38a e3bc b058 793e b6e2 663d
00000100: 7396 123e f36a ea3d 129e 33bd 335d 88bd
00000110: 63e1 c73d 97dc a2bd 7394 253e c88e c6bd
00000120: e18b 0fbe 6faf d93c b479 03be 33f9 cc3d
00000130: 1463 993e 4e04 f73d 013d 3c3d bb93 903e
00000140: 093b 09bd 86be 99bc cd1c a53c cde0 713e
00000150: 435f 9f3c d18e 353e e7c3 133d 4173 a13e
00000160: 6f02 213d a04c 323d ee03 94bd f448 afbd
00000170: bf4a aebd e226 eebc a573 f53d 5d86 9ebd
00000180: 2bdf 6ebc 8ecd 42bd 2eb6 97ba fd80 ca3d
00000190: 3c9b d9bd c02d 0dbd 6d03 d43d 47b0 3abe
000001a0: 091e 543e da90 88bc a5f5 873e d37f 01be
000001b0: fb09 9bbd a54e b4bd f5c0 6d3e e83a 99bd
000001c0: ef76 313e af02 f13c e98b 15be 2a9f f33d
000001d0: 75af 0d3e 3f23 f63d f4ee 173d 2960 ad3d
000001e0: 606b ab3d 6af4 a1bd 8c07 bf3e 9ce1 743d
000001f0: 1dfb 113c a5a4 ce3c b7f4 5c3e b1a9 183d
00000200: 23d4 af3d 30ae 093d 5b05 c83d 088a 13be
00000210: fb84 183d e891 a83b 002c 813e ddef 4b3d
00000220: 0f5c 1f3d 4c1f f43d 9ec1 a0bc f7ae 163e
00000230: d505 a13d d542 31bd 6fa5 673c bdcc 0c3e
00000240: bfe4 a53e 23d7 87be 378f 87bd 2f18 a5bd
00000250: d152 ae3c 5b2c da3d 3664 63bb 8cf8 cebc
00000260: 2d30 693d 3398 a63d e483 173d 6773 dbbc
00000270: 81bc d13d 9146 233e 2d1a e83d f13e f13b
00000280: ae66 bb3d 8f25 2d3d 399a dbbd d315 803e
00000290: c7a5 9e3d 4571 843c b582 663d c917 e43d
000002a0: 6fca ebbc 92c8 a8bc 9359 bbbd 4647 803d
000002b0: ac34 1fbc 706a 613c 3b75 9cbd b47e 34bc
000002c0: 951a 973d a659 e13d e11c 273d 8f85 abbd
000002d0: e565 76bd f656 e1bd 066c 853c 02cd 073e
000002e0: c5e4 b9bd bdb1 303e c29b cd3c 41b9 3f3d
000002f0: 7af0 c03d 5155 403d 699b d03d 40e9 2e3e
00000300: ece5 e03d c57c 353e 2765 443d 9e5d 253d
00000310: 6e55 d6bd 1ee6 963d 22c0 ea3c f628 903d
00000320: 1ee4 573d 5a3d c5bd 4c39 aebd 163e 273e
00000330: b69d fb3b ed6e 363d 90ad e33d 1592 ac3d
00000340: ae77 073e 87a5 413d f1dc cfbd 24e0 073d
00000350: 7e61 be3d 7001 39bd 2889 833d 7844 143e
00000360: 1aea 923d 77d7 9f3d 3c67 963b 7f5f 14bd
00000370: 4103 493e 7ba9 45bc 694a 3cbc e305 be3d
00000380: ed22 1d3d 6b0f b83d 0dda 043e 5c04 e33d
00000390: 0868 e73c 5d94 573e d542 8d3d a467 663d
000003a0: 32ac eebc 3c48 3f3e 7956 d6bc 8427 2abd
000003b0: 6a2b 503e cf37 7e3d 9f5d a2bd 3497 24bc
000003c0: d55e 5d3e 3857 8d3d 1e04 883b 7037 45bd
000003d0: 3da4 923e 203a cfbd 40e6 5dbe 1687 993d
000003e0: 5257 3c3d 0f45 cdbd 00d0 413e a8d4 403d
000003f0: eb7c bd3c baf8 b93d fdc9 afbc 8512 843d

fc3.weight f4 [1, 300]
-0.3169976 -0.28474596 -0.21667548 0.114693135 -0.24510945 0.090965554 -0.22301756 -0.26875862
0.17508665 -0.2939137 0.21091555 0.30174997 0.1485473 0.29718444 0.21258435 -0.17204632
-0.1941939 -0.16301289 0.12218445 0.1095827 0.1118254 -0.17489764 0.23805301 0.34100088
0.11370085 -0.37022847 0.23062316 0.17427683 -0.17291985 0.17176278 -0.18256752 0.08312816
-0.17962857 -0.23304294 -0.15210877 0.16118124 -0.15569873 0.31032816 -0.29795069 0.10481324
-0.21250252 -0.3040777 0.19962868 -0.19659995 -0.15124622 -0.22063644 -0.16815221 -0.124327704
0.18001148 -0.3189177 -0.14598681 0.09854642 0.30312124 -0.25738874 0.07229352 -0.18714602
-0.41025722 -0.21591532 0.2728167 -0.335866 -0.20924409 -0.24998324 0.1097304 0.08982842
0.1353715 0.23315132 -0.38228646 -0.2538633 0.16570565 -0.21146843 0.091911286 -0.21936633
-0.20069414 -0.25846437 -0.117671765 0.21656503 0.09853079 0.32180712 0.19458683 0.10879085
-0.2454804 0.15068151 -0.2861224 0.08995817 -0.2519979 0.12594348 -0.2994801 0.07446716
0.22242674 0.15963188 -0.2055653 -0.18976508 -0.36942652 -0.33052456 0.17047171 0.5550947
-0.27022123 0.37602195 -0.286282 -0.39518374 -0.30974445 -0.1823348 0.297556 -0.22939599
0.10859818 -0.14345984 0.060332548 -0.16504025 -0.22808331 -0.24475405 0.08674509 -0.17159641
0.12584642 -0.2544071 -0.19034421 0.18985435 0.18792231 0.12548965 -0.16703591 0.17167528
0.23802483 -0.31709424 0.10241182 0.31765193 -0.3767933 -0.27140802 0.109263875 -0.2544259
0.14583518 -0.28740397 0.15200736 -0.13276261 -0.27336788 0.15978831 0.110473074 0.21534981
0.11971098 0.1876867 -0.19024746 0.123548016 0.21482389 -0.16524127 0.22710311 0.2209766
0.098904945 -0.14603384 -0.20450386 -0.19407097 0.2698 0.1135343 -0.08782136 -0.30975404
0.34625825 0.13178568 0.2118216 -0.1623552 0.17311046 0.12367522 0.29396906 -0.2266104
0.25391436 0.21053076 -0.22043079 0.068137325 0.094341606 0.25302857 -0.2702073 0.108426936
-0.206618 0.25177503 -0.28651443 0.23088972 0.35881412 -0.2687682 -0.19374509 -0.43311256
0.118487254 0.21837744 0.33933032 -0.3116778 -0.23834853 -0.2369811 -0.1704729 0.10953881
-0.2807192 0.10687544 0.2839318 0.1331047 0.12161092 0.17565165 0.22022909 0.10442923
0.18582202 0.0982677 0.33257604 0.23085842 -0.22585222 -0.25584698 -0.15623695 0.19628638
-0.21223028 -0.23118697 -0.15706253 0.12651435 0.21258542 0.14899619 0.113253325 0.30388168
0.106946446 0.18866411 -0.22515826 0.40541974 0.2226883 -0.18395369 0.18550864 0.08636465
-0.21668719 0.18149772 0.2386415 -0.28075808 0.07497931 0.35755274 -0.18350935 0.14891131
0.22783367 0.10489784 0.20156996 0.12319587 0.1038253 0.073326305 0.086755745 0.31512696
-0.16058467 0.10695871 -0.16499445 -0.16034783 0.116624095 0.2021954 -0.28713116 0.23495439
0.13882853 0.17149673 -0.30681825 -0.2785437 0.10913498 -0.18371493 -0.10545454 0.24757777
-0.4212162 -0.20163015 0.12011877 -0.5823393 0.24962747 0.17793342 0.39121708 0.2820062
00000000: 824d a2be 39ca 91be 2de0 5dbe 3ce4 ea3d
00000010: f9fd 7abe 264c ba3d b75e 64be bb9a 89be
00000020: ea49 333e db7b 96be 3ffa 573e f97e 9a3e
00000030: c91c 183e 8f28 983e b6af 593e e92c 30be
00000040: c4da 46be daec 26be d73b fa3d e56c e03d
00000050: b704 e53d 5e18 33be 2bc4 733e ab97 ae3e
00000060: fedb e83d 968e bdbe 7a28 6c3e a075 323e
00000070: e711 31be 95e2 2f3e fbf2 3abe 193f aa3d
00000080: 8df0 37be cfa2 6ebe 67c2 1bbe b20c 253e
00000090: 7d6f 1fbe 55e3 9e3e fe8c 98be 53a8 d63d
000000a0: 439a 59be 13b0 9bbe 766b 4c3e 7f51 49be
000000b0: 4ae0 1abe 85ee 61be 1830 2cbe 869f febd
000000c0: ee54 383e 2e49 a3be 917d 15be b5d2 c93d
000000d0: b532 9b3e 75c8 83be a00e 943d 35a3 3fbe
000000e0: 3c0d d2be e818 5dbe a1ae 8b3e a1f6 abbe
000000f0: 1544 56be 9bfb 7fbe 55ba e03d f6f7 b73d
00000100: d49e 0a3e 38bf 6e3e 0dbb c3be 5ffa 81be
00000110: beae 293e 2e8b 58be fc3b bc3d 91a1 60be
00000120: c482 4dbe 7155 84be e5fd f0bd 39c3 5d3e
00000130: 83ca c93d e7c3 a43e c541 473e bdcd de3d
00000140: 375f 7bbe 414c 1a3e a37e 92be fd3b b83d
00000150: de05 81be 54f7 003e 7555 99be 3d82 983d
00000160: d6c3 633e 8a76 233e b67f 52be c751 42be
00000170: 7925 bdbe 843a a9be 2390 2e3e b01a 0e3f
00000180: 705a 8abe f385 c03e 8e93 92be 8655 cabe
00000190: d396 9ebe f9b5 3abe 4359 983e c8e6 6abe
000001a0: b968 de3d 23e7 12be 431f 773d 5000 29be
000001b0: ac8e 69be cea0 7abe 69a7 b13d f8b6 2fbe
000001c0: e2dd 003e a641 82be 98e9 42be 2e69 423e
000001d0: b56e 403e 5c80 003e 760b 2bbe a5cb 2f3e
000001e0: c8bc 733e 2d5a a2be 4abd d13d 46a3 a23e
000001f0: 0deb c0be fef5 8abe bdc5 df3d 1d44 82be
00000200: d155 153e 9d26 93be d1a7 1b3e ecf2 07be
00000210: e0f6 8bbe 8c9f 233e b53f e23d a984 5c3e
00000220: 082b f53d f130 403e 3bd0 42be be06 fd3d
00000230: cbfa 5b3e 0235 29be b88d 683e b147 623e
00000240: ad8e ca3d e589 15be 7669 51be 8aba 46be
00000250: 3a23 8a3e ac84 e83d afdb b3bd 1598 9ebe
00000260: c348 b13e d3f2 063e c3e7 583e 7140 26be
00000270: de43 313e 6f49 fd3d 1d83 963e 8f0c 68be
00000280: 1001 823e 6095 573e 9cb8 61be 958b 8b3d
00000290: 2c36 c13d f68c 813e 9c58 8abe f10e de3d
000002a0: ab93 53be a8e8 803e 05b2 92be 5b6e 6c3e
000002b0: 7cb6 b73e fc9b 89be 1d65 46be eec0 ddbe
000002c0: 72a9 f23d 569e 5f3e b4bc ad3e 3c94 9fbe
000002d0: a311 74be 2cab 72be 7390 2ebe e255 e03d
000002e0: 6dba 8fbe 83e1 da3d 825f 913e 994c 083e
000002f0: 250f f93d 07de 333e bc83 613e fede d53d
00000300: 2148 3e3e 9340 c93d 6847 aa3e 2666 6c3e
00000310: ce45 67be 60fe 82be 94fc 1fbe 4cff 483e
00000320: e552 59be 47bc 6cbe 00d5 20be fa8c 013e
00000330: feaf 593e 7592 183e 5cf1 e73d 6196 9b3e
00000340: bd06 db3d 2a31 413e e38f 66be 2d93 cf3e
00000350: 6708 643e 5b5e 3cbe faf5 3d3e f3df b03d
00000360: 3fe3 5dbe 8ada 393e 705e 743e 86bf 8fbe
00000370: c18e 993d 2711 b73e e0e9 3bbe 357c 183e
00000380: 3b4d 693e aed4 d63d 5b68 4e3e 1e4e fc3d
00000390: 5ca2 d43d 1a2c 963d ffac b13d 5258 a13e
000003a0: 4f70 24be 2b0d db3d 4ef4 28be 3932 24be
000003b0: 9dd8 ee3d 500c 4f3e db02 93be e297 703e
000003c0: 1129 0e3e d79c 2f3e 4817 9dbe 489d 8ebe
000003d0: 2982 df3d c41f 3cbe 8df8 d7bd 0785 7d3e
000003e0: a6a9 d7be 2278 4ebe d400 f63d 3014 15bf
000003f0: 589e 7f3e 2e34 363e 9b4d c83e 1e63 903e
