experiments/exp1/models/checkpoint_critic_14.pth (torch_old, 275436 bytes, 5 tensors)

fc1.weight f4 [200, 33]
0	0xbbf6deea	-0.0075338976
1	0x3d87c5ab	0.06629499
2	0x3cd14b6b	0.025548657
3	0xbe298442	-0.16554359
4	0x3e4713ee	0.19441196
5	0xbdf061e5	-0.11737422
6	0xbaee8bb0	-0.0018199589
7	0x3d276c6f	0.040874895
8	0x3d66d4d4	0.056355312
9	0x3dc02f7d	0.09384058
10	0x3c6c0519	0.014405512
11	0x3ba117ac	0.004916152
12	0xbceaa13b	-0.028641334
13	0x3cc07174	0.023491599
14	0x3c0a96be	0.008458791
15	0x3cf72ede	0.030173715
16	0xbd0078fc	-0.03136538
17	0x3d9aa280	0.07550526
18	0xbe8868a4	-0.26642334
19	0x3dc4ef61	0.096159704
20	0xb990d28f	-0.000276227
21	0x3d204786	0.03913071
22	0x3bca0cf2	0.006166094
23	0xbcbcc5e2	-0.023043577
24	0x3d5a9210	0.053361952
25	0xbceab528	-0.028650835
26	0xbdbb7b6f	-0.091544025
27	0xbc65eba8	-0.014033236
28	0x3d88e858	0.06684941
29	0xbd57fe94	-0.05273302
30	0xbc2d94ac	-0.010594528
31	0x3d87dbe1	0.066337354
32	0xbed6f1f0	-0.4198146
33	0xbc602324	-0.013680253
34	0x3d9d7bd8	0.07689637
35	0xbd19c8e5	-0.037545104
36	0x3e0709b2	0.13187292
37	0xbe203512	-0.15645245
38	0xbecb4374	-0.396999
39	0xbd8f85ac	-0.07007918
40	0x3d570aeb	0.052500647
41	0x3c3e3b64	0.0116108395
42	0x3ced3437	0.028955562
43	0x3dc43ede	0.095823035
44	0x3cfcfd72	0.03088257
45	0xbdac027b	-0.083989106
46	0xbafe879c	-0.0019419077
47	0x3d94ee3f	0.07272004
48	0x3abe5579	0.0014521322
49	0x3ce0f81f	0.027462063
50	0x3e4c305c	0.19940323
51	0xbdd831ea	-0.10556395
52	0xbea0cec1	-0.3140774
53	0xbdbdf39b	-0.0927498
54	0x3d0ab204	0.033861175
55	0xbd346be7	-0.044048216
56	0x3d8ff120	0.07028413
57	0xbd69fb9d	-0.057124723
58	0xbd1dc817	-0.0385209
59	0x3c17b0ae	0.009258432
60	0xbc76f0c7	-0.015072054
61	0xbd044670	-0.032293737
62	0xbd90a15f	-0.07062029
63	0x3c1d8875	0.009615053
64	0x3d28f8b0	0.041252792
65	0x3dca4188	0.0987578
66	0xbcaa31de	-0.020775732
67	0xbad0980e	-0.0015914456
68	0xbd1a44a5	-0.03766312
69	0xbd94ae16	-0.07259767
70	0xbd3970fb	-0.045273762
71	0xbe4af03e	-0.19818208
72	0x3c463b52	0.012099104
73	0x3d6ae37a	0.057345845
74	0xbbe234c0	-0.006903261
75	0xbcdf293e	-0.027241345
76	0xbdafaa39	-0.08577389
77	0x3cb68b2a	0.022283155
78	0xbc0925d2	-0.0083708335
79	0xbdcaa106	-0.09893994
80	0x3da12322	0.07868029
81	0xbd5f594c	-0.05452852
82	0xbe0978f3	-0.13425045
83	0xbdd7eac9	-0.105428286
84	0xbda99139	-0.08279652
85	0x3eb72474	0.3577
86	0x3bbdd79e	0.005793526
87	0xbd3765ee	-0.044774942
88	0xbce90d91	-0.028448852
89	0xbcb8c7bc	-0.022556178
90	0x3cbdb066	0.023155402
91	0xbd44f23c	-0.048082575
92	0x3e153476	0.14570794
93	0x3d29a87a	0.041420437
94	0x3c99b3cb	0.01876249
95	0x3d1abdc6	0.03777864
96	0xbbb16dcb	-0.0054146997
97	0x3d294312	0.04132373
98	0x3e010d61	0.1260276
99	0xbe294864	-0.16531521
100	0x3ca7259c	0.020403676
101	0x3da16077	0.07879727
102	0x3dabf82c	0.083969444
103	0x3e2c5bb2	0.16831854
104	0x3e1c94d4	0.15291148
105	0xbe509b19	-0.20371665
106	0xbbd921cf	-0.0066263448
107	0xbd7a935e	-0.061175697
108	0xbbc404b7	-0.0059820074
109	0x3c367229	0.011135616
110	0xbbbfba5d	-0.0058510737
111	0x3d0209c1	0.031747583
112	0x3e0d294f	0.13785289
113	0xbd969036	-0.07351725
114	0xbbcf631e	-0.0063289544
115	0x3c8b61ae	0.01701435
116	0xbd64452a	-0.055730022
117	0xbda09bfd	-0.078422524
118	0x3d7ae37f	0.061252113
119	0xbc61f9d6	-0.013792476
120	0xbc4e196b	-0.012579302
121	0x3b02a593	0.0019935116
122	0xbccbe4dd	-0.024889404
123	0xbd0eb49f	-0.034840222
124	0xbc204a06	-0.009783274
125	0xbdf107e2	-0.11769082
126	0x3d554236	0.052065097
127	0xbd58365d	-0.05278622
128	0xbd806e96	-0.062710926
129	0xbc433070	-0.011913404
130	0xbc636a28	-0.01388029
131	0xbe983911	-0.29731038
132	0x3dd65f52	0.104674
133	0x3d39fd9e	0.045407884
134	0x3e02bd5e	0.1276755
135	0x3d4b803d	0.049682844
136	0x3d557d72	0.052121587
137	0xbd5e1e6c	-0.05422823
138	0x3e4a6e97	0.19768749
139	0x3cb640a8	0.022247627
140	0x3dceadb3	0.10091724
141	0xbe3e7aff	-0.18601607
142	0xbc83456e	-0.016024318
143	0xbd016680	-0.031591892
144	0x3e014a1c	0.12625927
145	0xbdc4d597	-0.096110515
146	0x3d34eeb6	0.044172965
147	0x3d925283	0.07144644
148	0x3e29ed95	0.16594537
149	0x3c1d932a	0.009617606
150	0x3dfa172f	0.12211453
151	0x3d92c545	0.071665324
152	0xbd0abdfd	-0.033872593
153	0xbca89a6a	-0.020581443
154	0x3cf8cfd0	0.03037253
155	0xbd62d21c	-0.055376157
156	0x3d556cbb	0.052105647
157	0xbd4760af	-0.04867619
158	0xbd5d048a	-0.053959407
159	0x3d8aae56	0.06771533
160	0xbdb57809	-0.088607855
161	0x3cfff540	0.031244874
162	0xbde23eb4	-0.11047116
163	0xbd87c3b1	-0.06629122
164	0xbea71cf8	-0.3263929
165	0x3dc02558	0.09382123
166	0xbd237d8f	-0.039914664
167	0x3e2bfe42	0.1679621
168	0xbe665d8b	-0.22496621
169	0xbcc58e29	-0.024115639
170	0xbbb8caba	-0.0056394013
171	0x3d5561d6	0.052095257
172	0x3b3cf83a	0.0028834478
173	0xbcdbf331	-0.026849361
174	0x3db11e12	0.086483136
175	0xbba62daa	-0.0050713615
176	0x3b98365b	0.0046451516
177	0xbd0c675d	-0.034278262
178	0x3d87148c	0.06595716
179	0xbd0c0563	-0.034184825
180	0xbdebcaa8	-0.11513263
181	0x3df4dc83	0.11956122
182	0x3b838a96	0.0040143235
183	0xbe7b675b	-0.24551146
184	0xbe0ec4c4	-0.13942248
185	0xbd5987ca	-0.053108014
186	0xbd8002a1	-0.062505014
187	0xbc53d5b0	-0.012929365
188	0x3e1e50a1	0.15460445
189	0xbbe9fc7f	-0.0071406956
190	0xbb39f08f	-0.0028372144
191	0x3cd7e421	0.026353898
192	0x3dcb6ea3	0.09933212
193	0x3d81247e	0.063057885
194	0x3d7ba33a	0.06143496
195	0xbde586e9	-0.11207373
196	0xbd8b8408	-0.06812292
197	0xbe085fc0	-0.13317776
198	0xbdda1771	-0.10649002
199	0x3d16617c	0.036714062
200	0xbe158782	-0.14602473
201	0xbd416c60	-0.047222495
202	0xbd36bb42	-0.044612177
203	0xbdba1c38	-0.090874135
204	0x3cf0f9aa	0.029415924
205	0xbd216007	-0.03939822
206	0xbd2d9715	-0.04238041
207	0x3d2ec414	0.042667463
208	0xbde5a9a6	-0.112139985
209	0xbcb7f537	-0.022455795
210	0xbdbb398a	-0.09141834
211	0x3dd9b817	0.106308155
212	0x3d333f60	0.04376161
213	0xbd2b0016	-0.04174813
214	0x3df2d7fa	0.118576005
215	0xbdf8284d	-0.12117062
216	0xbdffb782	-0.12486173
217	0xbd299b0e	-0.041407637
218	0xbdad5d90	-0.08465111
219	0xbda1853b	-0.0788674
220	0x3ddb314b	0.10702761
221	0xbda40422	-0.08008601
222	0x3ce4d6d6	0.027934473
223	0x3d0ad33c	0.033892855
224	0x3c416319	0.011803412
225	0x3d3171a7	0.043321278
226	0x3d752ee3	0.059859168
227	0xbc99304a	-0.018699784
228	0x3cb51561	0.02210492
229	0xbc68d180	-0.014210105
230	0xbd3f65bf	-0.046727892
231	0x3cc385ed	0.023867572
232	0x3c0df99b	0.008665468
233	0xbe007351	-0.1254399
234	0xbda79b9b	-0.08183976
235	0xbc1412a3	-0.009037646
236	0xbc8421b0	-0.016129345
237	0xbd52034c	-0.051272675
238	0xbb8918d3	-0.0041838675
239	0xbdf235ee	-0.118266925
240	0x3c14eda1	0.009089858
241	0x3ca7ece4	0.0204987
242	0x3c374743	0.011186424
243	0x3cd6b34e	0.026208546
244	0x3da50edc	0.08059475
245	0x3c408380	0.011750102
246	0x3e151b7f	0.1456127
247	0xbcec6e6f	-0.028861253
248	0xbd9a2ed3	-0.07528462
249	0xbd7a7adc	-0.061152324
250	0xbd3380f7	-0.043824162
251	0x3c438fa0	0.011936098
252	0x3c624d41	0.013812364
253	0x3ad5b571	0.0016304684
254	0x3ccdfbca	0.025144476
255	0x3b701f17	0.0036639625

fc1.bias f4 [200]
0	0xbd689a7d	-0.056787957
1	0x3e326096	0.17419657
2	0xbe153464	-0.14570767
3	0x3e15441b	0.14576761
4	0xbe04a2b8	-0.12952697
5	0xbe58aa5e	-0.2115874
6	0xbde7dea7	-0.113217644
7	0xbd5d80c9	-0.054077897
8	0xbdf095e6	-0.11747341
9	0xbb986c1d	-0.00465156
10	0xbddd634f	-0.10809957
11	0x3db22e07	0.08700185
12	0xbc3781a0	-0.011200339
13	0xbe0b8873	-0.1362627
14	0x3c23177d	0.0099543305
15	0xbe0eff1d	-0.13964505
16	0xbe271dfc	-0.16320032
17	0x3cb1af8d	0.021690154
18	0xbc447944	-0.011991803
19	0xbe31a406	-0.17347726
20	0x3ddf14f8	0.10892671
21	0x3e0914ba	0.13386813
22	0x3d90b14f	0.07065069
23	0xbe0b183a	-0.1358346
24	0xbe0a7297	-0.13520275
25	0xbe04028f	-0.12891601
26	0xbe05c7e2	-0.1306453
27	0x3e10b967	0.14133225
28	0xbcdc7ea3	-0.026915854
29	0xbe0460fd	-0.12927623
30	0x3cf85ec4	0.030318625
31	0x3da9f429	0.08298523
32	0x3ccd83d5	0.025087276
33	0xbd9ed19b	-0.07754823
34	0x3d95169f	0.07279705
35	0x3c1a1842	0.009405198
36	0x3d4420af	0.047882732
37	0xbdb9e3c5	-0.09076647
38	0x3c0b6542	0.008508028
39	0x3dca4952	0.09877266
40	0xbe00c15a	-0.12573758
41	0xbe16b238	-0.14716423
42	0xbb9503ca	-0.004547571
43	0x3d0e20ec	0.034699365
44	0x3e078c81	0.13237192
45	0xbdb7d00e	-0.0897523
46	0xbe4e7f94	-0.20165855
47	0x3dcaec16	0.09908311
48	0xbe10f711	-0.14156748
49	0xbe2cb090	-0.16864228
50	0x3e06e916	0.13174853
51	0xbe40ee12	-0.18840817
52	0x3d22f888	0.0397878
53	0x3e2bf737	0.16793524
54	0xbe2cf202	-0.16889194
55	0x3df2544a	0.11832483
56	0x3d397d32	0.04528541
57	0x3cbcea16	0.02306084
58	0x3d356fad	0.044295955
59	0xbe0f23f4	-0.13978559
60	0x3e55bf5a	0.20873776
61	0x3da80c53	0.08205476
62	0xbcd39a61	-0.02583045
63	0x3d662f3b	0.056197386
64	0xbd86fd74	-0.06591311
65	0x3c954dc6	0.018225562
66	0x3dc21e4f	0.09478437
67	0xbdc301bd	-0.09521816
68	0xbd1c83d4	-0.03821166
69	0xbd30a270	-0.043123662
70	0xbd7f1b01	-0.062281612
71	0x3d7ad1b2	0.061235137
72	0xbdaa422d	-0.08313403
73	0x3da5768f	0.08079254
74	0x3d8d3b92	0.06896128
75	0xbe391f13	-0.1807826
76	0x3d45004f	0.048095997
77	0xbe403a37	-0.18772207
78	0x3e1fe0f6	0.1561316
79	0x3dccb611	0.09995664
80	0x3d0177bd	0.031608332
81	0xbe5b0549	-0.21388735
82	0x3e45fba4	0.19334275
83	0xbdcccdda	-0.100002006
84	0xbd3dfecb	-0.046385568
85	0x3e1c8e16	0.15288576
86	0xbc854983	-0.016270405
87	0xbd83b9ef	-0.064319484
88	0x3e146041	0.14489843
89	0xbccd17e3	-0.025035804
90	0xbe067173	-0.13129215
91	0x3ddf16a5	0.10892991
92	0x3ddfb50f	0.10923206
93	0xbe19c860	-0.15017843
94	0xbe13d512	-0.14436749
95	0x3dba0d54	0.090845734
96	0x3d53fb7e	0.051753514
97	0x3df39bb2	0.11894931
98	0x3dc8d414	0.09806076
99	0x3d5ef02c	0.054428264
100	0x3d52d71b	0.05147467
101	0xbdb0d78a	-0.08634861
102	0x3d9e7672	0.077374354
103	0x3b5bef74	0.0033559473
104	0x3ce5b99d	0.028042609
105	0xbe2f7a26	-0.1713644
106	0xbda7f768	-0.08201486
107	0xbe07aef9	-0.1325034
108	0xbd8b944b	-0.06815394
109	0x3b98ab8d	0.0046591223
110	0x3dddeab9	0.108357854
111	0xbc8e24e7	-0.01735158
112	0xbd9937f8	-0.07481378
113	0x3dd807d3	0.10548367
114	0xbdf00dbb	-0.11721369
115	0xbdb726e5	-0.089429654
116	0x3d19e48d	0.03757148
117	0xbe518663	-0.2046142
118	0xbe664198	-0.2248596
119	0xbe25d444	-0.16194254
120	0x3e06de9b	0.13170855
121	0xbc93c130	-0.018036455
122	0x3dc04736	0.093885824
123	0xbd8975d2	-0.067119256
124	0x3e03c723	0.12868933
125	0xbdfb2ff3	-0.12265005
126	0x3d7c319c	0.06157075
127	0x3dcaddd6	0.09905593
128	0xbd9ea832	-0.077469245
129	0xbb1c3aca	-0.0023838752
130	0xbe243d4a	-0.16039005
131	0xbd87fe11	-0.06640256
132	0x3bd780a3	0.006576614
133	0x3e01249b	0.1261162
134	0xbd35e3a9	-0.044406567
135	0xbe44027b	-0.19141571
136	0xbdfdacae	-0.12386452
137	0xbbfa4c31	-0.0076384773
138	0xbe8fda3b	-0.28096184
139	0xbda76f8a	-0.08175571
140	0x3d0a9d2b	0.033841293
141	0xbe70c14a	-0.23511234
142	0xbd78787c	-0.060661778
143	0xbda1c1ea	-0.07898314
144	0xbe213930	-0.15744472
145	0x3e27be43	0.16381173
146	0xbe5d86d3	-0.21633463
147	0xbd2ea1b3	-0.042634677
148	0xbdb3a67e	-0.0877199
149	0x3d01fb3d	0.03173374
150	0x3e513d40	0.20433521
151	0x3cdd83c9	0.02704038
152	0x3cf6cbd0	0.030126482
153	0xbe5bc58d	-0.21462078
154	0xbdcf99dd	-0.10136769
155	0xbe045399	-0.12922515
156	0xbe315bf1	-0.17320229
157	0x3d85fc3d	0.06542251
158	0x3de05236	0.109531805
159	0xbe219353	-0.15778856
160	0x3e1429ed	0.14469118
161	0x3d1edf4b	0.038787168
162	0xbe2e1227	-0.16999112
163	0xbdedc7a1	-0.11610342
164	0xbc521ca6	-0.012824213
165	0x3c1f9c90	0.009741917
166	0x3ce33d25	0.027739117
167	0xbe38c2b1	-0.18043019
168	0x3dc0c3fe	0.094123825
169	0xbc401987	-0.011724836
170	0x3e30413b	0.17212383
171	0xbdef2095	-0.116761364
172	0xbd9d5ea6	-0.076840684
173	0xbe0c0ece	-0.13677523
174	0xbc9e49d0	-0.019322306
175	0x3d1e4ef0	0.0386495
176	0xbd8876d5	-0.066632904
177	0xbda35246	-0.07974677
178	0x3d45a24b	0.048250478
179	0x3df85b84	0.1212683
180	0x3dd14026	0.102173135
181	0xbe1e1f33	-0.15441589
182	0xbd853b3b	-0.06505438
183	0xbd54a5ef	-0.05191606
184	0xbe4ef573	-0.20210819
185	0x3c333b40	0.010939419
186	0x3ca25ac1	0.019818665
187	0x3c4e98e9	0.012609699
188	0x3c4423c4	0.011971418
189	0xbd7366fd	-0.05942439
190	0xbc8a485f	-0.016880212
191	0x3c932da7	0.017966105
192	0xbd84add2	-0.06478466
193	0xbd9cb7f7	-0.07652276
194	0x3dde18b4	0.108445555
195	0xbe3103f2	-0.17286661
196	0xbd8da2c1	-0.069158085
197	0xbd28b981	-0.041192535
198	0x3de257a7	0.110518746
199	0xbdb127e2	-0.08650185

fc2.weight f4 [300, 204]
0	0xbda92287	-0.08258539
1	0xbe05d320	-0.13068819
2	0xbd566e52	-0.052351303
3	0x3c89a019	0.016799973
4	0xbda65b27	-0.08122855
5	0xbd56bacd	-0.05242424
6	0xbce298d3	-0.027660763
7	0xbe861fcf	-0.26196143
8	0xbd995be0	-0.07488227
9	0xbd0133cc	-0.031543538
10	0x3d8ca525	0.06867436
11	0x3b6c967c	0.0036100438
12	0x3c4f495a	0.012651766
13	0xbc1f7b3e	-0.009733973
14	0x3d1cfbba	0.038326003
15	0xbd6b3b49	-0.057429586
16	0x3b9c8e6b	0.0047777197
17	0xbd034725	-0.03205027
18	0xbd390b62	-0.04517687
19	0xbd74f1d6	-0.059800945
20	0x3da4479c	0.08021471
21	0x3d1b6b46	0.0379441
22	0xbe1e6148	-0.15466797
23	0x3d787335	0.060656745
24	0xbd48ccdb	-0.04902349
25	0xbccd2fdf	-0.02504724
26	0x3c873cc9	0.016508477
27	0x3bee5963	0.0072738393
28	0xbe4c48b9	-0.19949616
29	0x3c43d077	0.011951557
30	0x3ccf3989	0.02529599
31	0xbdd04e31	-0.10171164
32	0x3b6926b0	0.0035576038
33	0xbd93a84f	-0.07209837
34	0xbdbddaec	-0.09270272
35	0x3b38b25a	0.0028182478
36	0xbda6fbbb	-0.081534825
37	0xbbee0499	-0.0072637317
38	0x3e112d72	0.14177492
39	0xbd8d4c4b	-0.06899317
40	0xbdc2dcea	-0.09514792
41	0xbd8892c3	-0.066686176
42	0xbd205933	-0.039147567
43	0xbd29ba4f	-0.041437443
44	0xbd120a03	-0.03565408
45	0x3c3b5c25	0.011435543
46	0xbe177e93	-0.14794378
47	0xbe3b8b66	-0.18314895
48	0x3d5e187d	0.054222573
49	0xbbfa26a7	-0.0076340022
50	0x3da699d4	0.08134809
51	0x3c8796f5	0.016551474
52	0xbb53ff24	-0.003234812
53	0x3bcb71d6	0.0062086387
54	0xbd43b92b	-0.04778401
55	0xbe3a8a61	-0.1821685
56	0x3d9086e0	0.07056975
57	0xbc5b1aba	-0.013373071
58	0xbcfca3f5	-0.0308399
59	0x3d63d627	0.055624153
60	0xbdadf1b4	-0.08493367
61	0xbd2baa62	-0.041910537
62	0xbd67ea2e	-0.056619816
63	0xbd91c8a4	-0.07118347
64	0xbcb7b7bc	-0.022426479
65	0xbc695890	-0.014242306
66	0xbd347655	-0.044058163
67	0xbd5b000c	-0.05346684
68	0xbddbfdbf	-0.107417576
69	0x3d364466	0.044498824
70	0x3c5ec007	0.013595588
71	0xbd9b7b91	-0.07591928
72	0xbd892e49	-0.06698281
73	0x3cb9d15b	0.022682836
74	0x3c82776f	0.015926091
75	0x3c487818	0.012235664
76	0x3d43f7da	0.04784379
77	0xbd91a825	-0.07112149
78	0xbbeed42b	-0.007288476
79	0x3d0309ca	0.031991757
80	0x3d2815bb	0.04103635
81	0x3a3eb6ae	0.0007275146
82	0xbcfaed78	-0.030630812
83	0xbe0f9935	-0.14023288
84	0xbcc91057	-0.024543924
85	0xbc68fa94	-0.014219899
86	0x3da8de51	0.082455285
87	0x3b21d87b	0.0024695683
88	0xbce0fa11	-0.027462991
89	0x3d598f2d	0.05311506
90	0xbce722bf	-0.02821481
91	0x3ca9a8dc	0.020710401
92	0x3bbd8094	0.00578315
93	0x3d9652d7	0.07340019
94	0xbb3be5ce	-0.002867091
95	0xbd6e23b5	-0.05813952
96	0x3d44c231	0.048036758
97	0x3c371807	0.011175162
98	0x3d38b834	0.045097545
99	0xbd74f995	-0.059808332
100	0xbc8d4584	-0.017245062
101	0xbd650abc	-0.05591844
102	0x3d3bee84	0.045881763
103	0xbd387b39	-0.04503939
104	0xbe14ece7	-0.14543496
105	0x3d78011f	0.060547944
106	0xbd1edd32	-0.038785167
107	0xbd732616	-0.059362493
108	0xbca907e0	-0.020633638
109	0xbc7785d1	-0.015107588
110	0x3d15527e	0.036455624
111	0xbe26c50b	-0.16286103
112	0xbca48748	-0.020084038
113	0x3ccd2401	0.025041582
114	0x3d3d8ea9	0.04627863
115	0xbe11b2c0	-0.14228344
116	0x3d96ea1b	0.07368871
117	0xbc8699e5	-0.016430805
118	0xbe9333e8	-0.2875054
119	0xbd081d51	-0.033231083
120	0xbe2a7cc9	-0.16649164
121	0x3b8f56a8	0.004374344
122	0xbcf74f7c	-0.030189268
123	0x3d66fa45	0.05639102
124	0xbd830bdd	-0.06398747
125	0x3d05c7ba	0.032661177
126	0x3dcc4c9a	0.09975548
127	0x3d25d6fc	0.04048823
128	0xbb1c939b	-0.002389169
129	0x3d9721fd	0.073795296
130	0x3b02a671	0.0019935633
131	0xbbdf02df	-0.006805762
132	0x3d3e74f4	0.046498254
133	0x3cb9ae49	0.022666113
134	0xbccc336f	-0.02492687
135	0xbcc10870	-0.023563594
136	0x3c3d9732	0.011571692
137	0x3cb7f8e3	0.022457546
138	0x3d20a071	0.03921551
139	0x3c33150e	0.010930313
140	0x3d7aa51a	0.06119261
141	0x3ce05dc4	0.027388461
142	0x3d3ebba4	0.046565667
143	0x3ca91cd5	0.020643631
144	0x3d4520d2	0.048127003
145	0xbda5f330	-0.08103025
146	0xbd1fc351	-0.039004628
147	0x3c842134	0.016129114
148	0xbd899097	-0.067170314
149	0xbcbbfbca	-0.02294721
150	0xbd676d42	-0.05650068
151	0x3d9290ca	0.071565226
152	0xbbc21248	-0.0059225895
153	0xbcb42c9f	-0.021993933
154	0xbe15c2b9	-0.14625062
155	0x3d0d3f15	0.034483988
156	0x3ce2cd28	0.027685717
157	0x3d174467	0.036930468
158	0x3d8a2853	0.067459725
159	0xbce493c1	-0.027902486
160	0xbd5c65f6	-0.053808175
161	0xbd69a3f2	-0.057041116
162	0xbe06fa98	-0.13181531
163	0x3d4edea1	0.050505284
164	0x3d5b0d03	0.053479206
165	0x3e097e59	0.13427104
166	0xbca47f9a	-0.020080376
167	0x3d9138fe	0.070909485
168	0xbc1bfa7e	-0.009520171
169	0xbe094ded	-0.13408633
170	0xbe2819c6	-0.16416082
171	0xbbc6b8b2	-0.006064498
172	0x3d3dd62c	0.04634683
173	0x3ca404bf	0.020021794
174	0xbdcde293	-0.10052981
175	0x3ad0ce9f	0.0015930719
176	0x3bf46195	0.0074579217
177	0x3d3a8b3e	0.045542948
178	0xbdc13edd	-0.09435818
179	0xbdc6e28b	-0.097111784
180	0xbd4a6e39	-0.049421523
181	0x3cc223ed	0.023698771
182	0xbce5bf6e	-0.028045382
183	0xbd560eca	-0.052260198
184	0xbc238fb5	-0.009982993
185	0x3dcfe217	0.10150545
186	0xbe0840d5	-0.13305981
187	0xbd88818b	-0.06665333
188	0xbc8b6465	-0.017015645
189	0x3be5098b	0.006989663
190	0x3df1d37f	0.11807918
191	0x3b5312ca	0.0032207244
192	0xbc8332b4	-0.016015388
193	0xbd4bfc70	-0.04980129
194	0x3bed95e7	0.007250536
195	0x3da5414c	0.08069095
196	0x3c618c4e	0.013766361
197	0x3d9ccea4	0.07656601
198	0xbd836c32	-0.06417121
199	0x3b0d1803	0.0021529205
200	0xbcd8ff92	-0.026489053
201	0x3cbac9be	0.022801276
202	0xbd4ceaab	-0.050028484
203	0xbc58a0ac	-0.013221901
204	0xbbd76c12	-0.0065741623
205	0xbcd9ac07	-0.026571287
206	0xbd64323c	-0.05571197
207	0xbceaf3b9	-0.02868067
208	0xbd22fee1	-0.039793853
209	0x3d22768f	0.039663848
210	0x3cf8e7ce	0.03038397
211	0xbc556757	-0.013025126
212	0xbdaf6190	-0.085635304
213	0x3ca38b3f	0.019963859
214	0xbd185476	-0.037189923
215	0x3caadb36	0.020856481
216	0xbcfc188d	-0.030773425
217	0xbdc11e55	-0.094296135
218	0xbc89299f	-0.01674348
219	0x3e028767	0.12746964
220	0xbcfa168d	-0.030528331
221	0xbdb6bf0b	-0.08923157
222	0x3c885da9	0.016646223
223	0xbca16763	-0.019702619
224	0x3d3a64c3	0.04550625
225	0xbc8b781b	-0.017025044
226	0xbda51d6a	-0.08062251
227	0xbde44a3d	-0.11146972
228	0x3dab7599	0.08372039
229	0xbca41399	-0.020028876
230	0xbcd4b192	-0.025963578
231	0xbd53623f	-0.051607367
232	0xbdf89f0b	-0.1213971
233	0x3b356778	0.002768008
234	0xbd87cc78	-0.06630796
235	0x3c5fff4a	0.0136717055
236	0x3d212607	0.039342906
237	0xbd815306	-0.063146636
238	0xbd269565	-0.040669817
239	0xbd28bd5f	-0.041196223
240	0x3bb70b29	0.005586047
241	0x3d52a1df	0.051423904
242	0xbe1c3328	-0.1525389
243	0xbc8236f8	-0.015895352
244	0x3d095121	0.033524636
245	0x3ce0a47e	0.027422186
246	0xbd49108d	-0.04908805
247	0xbc3f9dae	-0.011695309
248	0x3a66b961	0.00088014273
249	0xbd8341dd	-0.06409047
250	0x3d5d163f	0.053976294
251	0xbcc98990	-0.024601728
252	0xbe70d7b9	-0.23519792
253	0xbe7c3613	-0.24630003
254	0xbd310853	-0.04322083
255	0xbc770341	-0.015076459

fc2.bias f4 [300]
0	0xbd793276	-0.06083914
1	0x3cbe10cf	0.023201374
2	0xbdf817df	-0.12113928
3	0x3dafd390	0.08585274
4	0xbde575a0	-0.11204076
5	0x3e33a321	0.17542697
6	0xbd2adb24	-0.041712895
7	0xbd7ff578	-0.062489957
8	0x3d8593ab	0.06522306
9	0x3dc9da66	0.09856109
10	0xbda38261	-0.07983852
11	0x3da4acfa	0.08040805
12	0x3e0a872b	0.13528125
13	0x3dc5d10e	0.09659015
14	0xbdd6e310	-0.104925275
15	0xbd3c97d7	-0.046043243
16	0xbd6c39af	-0.0576722
17	0xbc685275	-0.014179816
18	0x3dd67368	0.10471231
19	0x3d1b2bcf	0.037883576
20	0xbd7c0c31	-0.061535064
21	0xbd1ef8fc	-0.03881167
22	0x3de16320	0.11005235
23	0xbddd7bce	-0.108146295
24	0x3dcff3ae	0.101539
25	0xbce2e55f	-0.027697263
26	0x3dc5b667	0.09653931
27	0x3deee5e4	0.11664942
28	0xbd919f03	-0.07110407
29	0xbd10a193	-0.03531034
30	0xbd76de3f	-0.060270544
31	0x3cfdee95	0.030997554
32	0xbd30ed86	-0.04319527
33	0x3d85908f	0.06521713
34	0xbdd2fff3	-0.10302725
35	0x3bd92d3f	0.006627708
36	0x3d02cf5c	0.031936035
37	0x3d92394d	0.071398355
38	0x3de02bb9	0.109458394
39	0x3dc0fb6e	0.094229564
40	0x3e356bc8	0.17716897
41	0x3d12cc0e	0.035839133
42	0x3d8bbda0	0.068232775
43	0x3d758398	0.05993995
44	0x3d4f7a98	0.050654024
45	0xbcac04d0	-0.020998389
46	0xbd132872	-0.035927244
47	0xbdfb0bad	-0.12258086
48	0xbc18e9d1	-0.00933309
49	0x3d861af5	0.065481104
50	0xbdf06f11	-0.11739934
51	0x3e19ad3a	0.15007487
52	0xbd8c3877	-0.06846707
53	0x3db5b43d	0.08872268
54	0x3d57e6b7	0.05271026
55	0xbd6ae4ec	-0.057347223
56	0xbdda43fe	-0.106575
57	0x3cb331c8	0.021874323
58	0x3ae1b65a	0.0017220483
59	0xbdd35e93	-0.10320773
60	0xbb2a856d	-0.002601947
61	0xbce602fd	-0.028077597
62	0x3b997a22	0.004683749
63	0x3d324901	0.043526653
64	0xbd38684e	-0.045021348
65	0x3ca25c60	0.019819438
66	0xbd47ddb2	-0.04879541
67	0xbb01a47c	-0.0019781878
68	0x3db2d493	0.087319516
69	0xbd9102ff	-0.070806496
70	0x3df0c8e2	0.11757065
71	0x3dcc0d25	0.099634446
72	0xbd59e153	-0.0531934
73	0x3d295786	0.041343234
74	0xbdcca1ec	-0.09991822
75	0x3dacf1fb	0.084445916
76	0x3e15bde8	0.14623225
77	0x3dcffd7d	0.10155771
78	0x3d744550	0.059636414
79	0x3e1d8d50	0.15385938
80	0xbdf28d31	-0.118433364
81	0xbdd82fed	-0.10556016
82	0x3d097697	0.03356036
83	0x3dc99185	0.09842209
84	0x3bc2477a	0.005928931
85	0x3d41455c	0.047185287
86	0xbbf4af02	-0.0074671516
87	0x3d36ae9d	0.044600118
88	0x3c7f4766	0.015580988
89	0xbdc03e72	-0.093869105
90	0x3d3003ab	0.042972248
91	0xbce7c5a2	-0.02829248
92	0xbd8a878f	-0.06764137
93	0xbe0509bc	-0.12991995
94	0x3d28d4c4	0.041218534
95	0xbdb10dba	-0.08645196
96	0x3cba563f	0.022746203
97	0x3de12bc8	0.10994679
98	0xbd3a333e	-0.045459025
99	0x3d8dcff7	0.06924432
100	0xbe0d0957	-0.13773094
101	0x3b3ce518	0.0028823074
102	0x3e319ae9	0.1734425
103	0xbda2cacd	-0.079488374
104	0x3db6e370	0.08930099
105	0x3ceef699	0.029170321
106	0x3e105b2a	0.14097276
107	0xbde36f66	-0.11105232
108	0xbd461615	-0.048360903
109	0xbd1da94f	-0.038491543
110	0x3ddd8186	0.1081572
111	0xbd36be6d	-0.044615198
112	0x3e19fda5	0.15038164
113	0xbd129e2a	-0.03579537
114	0xbd99137c	-0.074744195
115	0x3d63621f	0.055513497
116	0x3d9cf7d2	0.076644555
117	0x3db9034c	0.09033832
118	0x3c8c01d9	0.017090725
119	0x3e1ad2b7	0.15119444
120	0x3deef827	0.11668425
121	0xbd812f2a	-0.06307824
122	0x3d8f7ba5	0.07006005
123	0x3d83bcd5	0.06432501
124	0xbd2ffe96	-0.0429674
125	0x3d47033e	0.048587076
126	0x3e0cd714	0.13753921
127	0x3ccce982	0.025013689
128	0x3dc7d8fc	0.09758183
129	0xbb532579	-0.003221838
130	0xbd75071c	-0.059821233
131	0xbd5ef67f	-0.054434296
132	0x3d7ab9e6	0.061212443
133	0xbb6c699a	-0.0036073686
134	0x3c3b0d00	0.011416674
135	0xbc9645b7	-0.01834379
136	0x3d7966fc	0.06088923
137	0xbbf6712d	-0.007520816
138	0xbb08cd43	-0.0020874299
139	0x3df1631a	0.1178648
140	0x3e1feef2	0.15618494
141	0xbd38d274	-0.04512258
142	0x3d024415	0.03180321
143	0x3d3cc4c0	0.046086073
144	0x3e0d3458	0.13789499
145	0xbcb3d2c0	-0.02195108
146	0xbd06696b	-0.03281538
147	0xbdb47dc8	-0.08813053
148	0x3d81f1ef	0.06344973
149	0x3d92cd34	0.07168046
150	0x3c48d741	0.012258352
151	0xbd6a5ffa	-0.057220437
152	0x3d56136b	0.052264612
153	0x3c9ee9ab	0.019398531
154	0x3e071a4c	0.13193625
155	0xbdac3b93	-0.084098004
156	0x3d2496ef	0.040183004
157	0x3d87c21b	0.066288196
158	0x3c450f75	0.012027611
159	0x3d93e02d	0.072204925
160	0x3cdf56fc	0.027263157
161	0x3d558ccd	0.05213623
162	0xbd67562f	-0.056478675
163	0x3dcf330d	0.10117159
164	0xbaff4c3b	-0.0019477675
165	0x3c391365	0.011296128
166	0x3db022b8	0.08600372
167	0x3ca94197	0.020661158
168	0x3b459cf0	0.0030153356
169	0xbdd56aad	-0.104207374
170	0xbdb0b820	-0.08628869
171	0x3d7eb505	0.062184352
172	0x3d884e8c	0.066556066
173	0x3b3c325d	0.0028716542
174	0xbc88cf17	-0.01670031
175	0xbc8dd267	-0.017312242
176	0xbdb2dca3	-0.08733489
177	0x3dbedcc4	0.093194515
178	0x3d10884c	0.035286233
179	0xbb4d3391	-0.0031311254
180	0x3b97c9c1	0.0046322052
181	0xbd6f514b	-0.058427136
182	0x3d037efd	0.032103527
183	0x3da97a53	0.082752846
184	0xbdb18d54	-0.08669534
185	0x3cd74b2a	0.026280958
186	0x3ba1e904	0.0049411077
187	0x3d2df3d8	0.042468876
188	0x3c26564c	0.010152411
189	0xbdd213a7	-0.10257655
190	0x3e2f017e	0.17090413
191	0x3def3a8b	0.11681088
192	0x3da2d387	0.07950502
193	0x3e09ed04	0.1346932
194	0x3d7306be	0.0593326
195	0x3cd6d7be	0.02622592
196	0xbd4821e0	-0.04886043
197	0xb9a6401e	-0.00031709758
198	0x3d968ba4	0.07350853
199	0x3cf2b03f	0.029625056
200	0x3ab585bd	0.0013849061
201	0xbdf76219	-0.120792575
202	0xbd9fe95d	-0.078081824
203	0xbc9dcb69	-0.019262033
204	0x3db2b109	0.08725173
205	0x3d220597	0.039556112
206	0x3d647900	0.055779457
207	0xbcb4c789	-0.022067802
208	0xba8cac8c	-0.0010732575
209	0x3c7b56f0	0.015340552
210	0xbd9226d8	-0.07136315
211	0xbcec3017	-0.028831525
212	0x3df17e89	0.11791713
213	0xbc3471cb	-0.0110134585
214	0x3df1a759	0.11799497
215	0x3ddf3c87	0.109002165
216	0x3e5049cb	0.2034065
217	0x3db71bdb	0.0894086
218	0x3c78f52b	0.015195171
219	0xbda8efee	-0.08248888
220	0x3de12640	0.10993624
221	0xbc93fc66	-0.018064689
222	0x3d0ad195	0.03389128
223	0x3d89f37c	0.06735894
224	0xbd54906a	-0.051895536
225	0xbdf8ee21	-0.121547945
226	0x3d91dd02	0.07122232
227	0x3db309a2	0.08742072
228	0x3c4a22dc	0.012337413
229	0x3e16a055	0.147096
230	0x394d0e62	0.00019555682
231	0x3b7c7b42	0.0038525616
232	0x3e53bf0c	0.20678347
233	0x3df8ca7b	0.12147995
234	0x3cf7f69f	0.030268965
235	0xbde71f32	-0.11285247
236	0x3de41f41	0.11138774
237	0x3bc0f1e5	0.005888211
238	0x3cca1e5f	0.024672685
239	0xbd954498	-0.07288474
240	0x3db4d582	0.08829786
241	0xbc3afff5	-0.011413564
242	0x3cde6555	0.027147928
243	0xbc49f00b	-0.012325297
244	0xbbc03075	-0.0058651515
245	0xbd8d4612	-0.068981305
246	0xbddf2458	-0.10895604
247	0x3d9b3934	0.0757927
248	0x3da90a3e	0.08253907
249	0xbdaece8c	-0.085354894
250	0x3e2442c7	0.16041099
251	0x3d397b68	0.045283705
252	0x3c0dc273	0.008652317
253	0x3d8753eb	0.06607803
254	0xbc1c1956	-0.009527525
255	0x3b61d8d5	0.0034461517

fc3.weight f4 [1, 300]
0	0xbe5034e7	-0.2033268
1	0xbdd40500	-0.10352516
2	0xbe021985	-0.12705047
3	0x3d8058a0	0.06266904
4	0xbe21859a	-0.15773621
5	0x3db8a1c0	0.09015226
6	0xbe121a27	-0.14267789
7	0xbe50ca86	-0.20389757
8	0x3dd47244	0.10373357
9	0x3e65c018	0.22436559
10	0xbe25225f	-0.16126393
11	0x3e2c74a3	0.16841368
12	0x3e0673fe	0.13130185
13	0x3e55bf78	0.20873821
14	0xbe86cbbf	-0.2632732
15	0xbdd13828	-0.10215789
16	0xbe1eaeee	-0.15496418
17	0x3e48db41	0.19614889
18	0x3e16d838	0.14730918
19	0x3e73a5b9	0.23793687
20	0xbdc39ab3	-0.09550991
21	0xbdd9c345	-0.10632948
22	0x3da84f15	0.08218209
23	0xbe281fb8	-0.1641835
24	0x3ddefa94	0.10887638
25	0xbe2b402f	-0.16723703
26	0x3d9f09fd	0.07765577
27	0x3deb075a	0.114760116
28	0xbe4dc54a	-0.20094791
29	0xbe41e0f2	-0.18933466
30	0xbe084430	-0.13307261
31	0xbddf03f6	-0.10889427
32	0xbe7dd50e	-0.24788305
33	0x3e78869f	0.24270104
34	0xbe21b99b	-0.15793459
35	0x3e1b79af	0.15183137
36	0xbe201669	-0.15633549
37	0x3d93f99a	0.07225342
38	0x3dd8435c	0.10559723
39	0x3e3460c8	0.17615044
40	0x3dab3c20	0.08361077
41	0xbe2ec7eb	-0.1706845
42	0x3e6fcd10	0.23418069
43	0x3dbad5f6	0.09122841
44	0x3e040beb	0.12895171
45	0xbe208446	-0.15675458
46	0xbdb4e9c7	-0.08833652
47	0xbe0c92d7	-0.1372789
48	0xbeab00dc	-0.33399093
49	0xbe453ced	-0.19261523
50	0xbe35b6cf	-0.17745517
51	0x3da9902f	0.08279454
52	0xbe1fa168	-0.15588915
53	0x3e1550da	0.14581624
54	0x3d87c968	0.06630212
55	0xbe7b5705	-0.24544914
56	0xbdeb1ab4	-0.114797026
57	0x3dfe5615	0.124187626
58	0xbe44d51e	-0.19221923
59	0xbe56bd35	-0.20970614
60	0x3e7a38b9	0.244357
61	0xbe48079c	-0.19534153
62	0xbe44dec3	-0.19225602
63	0x3d6d1792	0.057883807
64	0xbe258adb	-0.1616625
65	0xbe458dc3	-0.19292359
66	0xbe7bfaef	-0.24607442
67	0xbe3d7daa	-0.18504968
68	0x3dfe17ff	0.12406921
69	0xbe886476	-0.26639146
70	0x3db3dae1	0.08781982
71	0x3d994d5b	0.074854575
72	0xbddb113e	-0.10696648
73	0xbe5455c9	-0.2073585
74	0xbdcafaf6	-0.09911148
75	0x3e237d85	0.1596585
76	0x3da26c0b	0.07930764
77	0x3e701c7a	0.23448363
78	0x3e177115	0.14789231
79	0x3db38f97	0.08767622
80	0xbe068fdc	-0.13140815
81	0xbe6e3a06	-0.23264322
82	0xbe8022bc	-0.250265
83	0x3db66498	0.089059055
84	0xbdfc8da0	-0.123317
85	0x3e51dea1	0.20495082
86	0xbe1eb4aa	-0.15498605
87	0x3dce7844	0.100815326
88	0x3e44755d	0.19185396
89	0xbe11e2fd	-0.14246745
90	0x3e46bcc5	0.19407947
91	0xbe43328e	-0.19062254
92	0xbe3944f4	-0.1809271
93	0xbdea9a5f	-0.11455225
94	0x3e200045	0.15625103
95	0xbd8ae72c	-0.06782374
96	0x3e6a7a1d	0.22898145
97	0x3d87ea83	0.066365264
98	0xbe15a9af	-0.1461551
99	0x3e41d6ab	0.18929546
100	0xbe1176a4	-0.14205414
101	0xbe5984f8	-0.2124213
102	0x3dc8b4c1	0.09800101
103	0xbe4be8e6	-0.19913062
104	0x3db2643c	0.087105244
105	0x3e3b7111	0.1830485
106	0x3d9fbb8a	0.07799442
107	0xbdf1aaa3	-0.118001245
108	0xbe38c1e8	-0.1804272
109	0x3e5f5348	0.21809113
110	0x3dc6884b	0.096939646
111	0xbe76e59d	-0.24111028
112	0x3da75715	0.081709065
113	0xbe741a93	-0.23838262
114	0xbe400799	-0.18752898
115	0xbe5f4e58	-0.2180723
116	0x3e00e8a9	0.12588753
117	0x3dcf350c	0.1011754
118	0xbe0033c0	-0.12519741
119	0x3d6e653c	0.058202013
120	0x3e0ff094	0.14056617
121	0xbe0d2b59	-0.13786067
122	0x3d945e48	0.07244545
123	0x3def3160	0.116793394
124	0xbe72ba61	-0.2370391
125	0xbe9ffec9	-0.31249073
126	0x3db6222a	0.08893235
127	0xbe255e60	-0.16149282
128	0x3db90308	0.09033781
129	0xbd9854bb	-0.07438036
130	0xbe0eedaa	-0.13957849
131	0xbe1b07b3	-0.15139656
132	0xbe321c15	-0.17393525
133	0x3de8dc81	0.11370183
134	0xbe6c2923	-0.23062567
135	0x3e404352	0.1877568
136	0x3eb68506	0.35648364
137	0xbe65fcc9	-0.22459711
138	0xbe5021ab	-0.20325343
139	0x3d833993	0.06407466
140	0x3dc185a5	0.09449319
141	0xbe75b56c	-0.23994988
142	0x3d8f19c9	0.0698734
143	0xbe68e980	-0.22745323
144	0x3db1ff00	0.086912155
145	0x3e47a3b0	0.19496036
146	0xbe50a9d4	-0.20377284
147	0xbe5c4085	-0.21508987
148	0x3df0dcef	0.1176089
149	0x3dbdca93	0.092671536
150	0xbe0d0f9d	-0.13775487
151	0xbe8c3d85	-0.27390686
152	0x3e192120	0.14954042
153	0x3e826f2e	0.25475448
154	0x3d8d8217	0.06909578
155	0xbe2c9c05	-0.16856392
156	0xbe75f44c	-0.24018973
157	0x3e5a5f7f	0.21325491
158	0xbe4668e9	-0.19375958
159	0x3e47032f	0.19434808
160	0x3e7c029c	0.2461037
161	0x3e18ad8f	0.14909957
162	0xbe818871	-0.2529941
163	0x3dc8fee9	0.09814245
164	0x3e144a66	0.14481506
165	0x3e45e717	0.19326435
166	0x3e35c54c	0.17751044
167	0x3e10e02a	0.14148012
168	0xbe1c9f0c	-0.15295047
169	0xbdd9c342	-0.106329456
170	0xbe0ef4b1	-0.1396053
171	0x3e059e6a	0.13048711
172	0x3db37089	0.08761699
173	0xbe5fa1e4	-0.218391
174	0xbdb5d42c	-0.08878359
175	0xbe2571a1	-0.16156627
176	0xbe32dd71	-0.17467286
177	0x3dfef7fb	0.12449642
178	0x3e88d5f7	0.26725742
179	0x3e3f8580	0.1870327
180	0x3e01ba81	0.12668802
181	0xbdc79e7f	-0.097470276
182	0xbea6d9d2	-0.3258806
183	0x3e103e06	0.1408616
184	0xbeb99d3e	-0.3625278
185	0x3e412fb2	0.1886585
186	0xbe249c59	-0.16075267
187	0x3e2d7f08	0.1694299
188	0x3de5c08e	0.112183675
189	0xbdd8ddb9	-0.10589165
190	0x3d89aa21	0.06721903
191	0x3daf745b	0.08567115
192	0x3d7277e8	0.059196383
193	0x3dc0a31f	0.09406113
194	0x3e0a5c37	0.1351174
195	0x3e3e7003	0.18597417
196	0x3e24fc65	0.16111906
197	0xbe53ab62	-0.20670846
198	0xbe9f834f	-0.31154868
199	0x3e3684bd	0.17824073
200	0xbe2afaa0	-0.16697168
201	0xbe3d9df1	-0.18517281
202	0xbe3f30a9	-0.18670906
203	0x3e8bd7a7	0.27312967
204	0x3dd95dc2	0.10613586
205	0x3e11b2a9	0.1422831
206	0x3df18eee	0.1179484
207	0xbdce8e6f	-0.10085761
208	0x3e6e585b	0.23275892
209	0x3e61985d	0.22030778
210	0xbe1ced6b	-0.15324943
211	0xbdb0fd98	-0.08642119
212	0x3dd0a16a	0.10187037
213	0xbe5a7f3f	-0.21337603
214	0x3dbf22eb	0.09332832
215	0x3e01238e	0.1261122
216	0x3dcf3664	0.10117796
217	0x3e2b59e1	0.16733505
218	0x3e3baa7a	0.1832675
219	0xbe28720f	-0.1644976
220	0x3d9ca666	0.076489255
221	0x3de48808	0.111587584
222	0x3e15847a	0.14601317
223	0x3e1a8768	0.15090716
224	0xbe4d2162	-0.20032266
225	0xbe3bb739	-0.18331613
226	0x3e35f0c3	0.17767625
227	0x3e1f5e94	0.15563422
228	0x3d6582bc	0.05603288
229	0x3da15c1e	0.07878898
230	0x3e165adb	0.14683096
231	0xbe6cf9c5	-0.23142155
232	0x3da8d023	0.08242824
233	0x3da148c4	0.07875207
234	0x3e8216b6	0.25407952
235	0xbe061d11	-0.13097025
236	0x3deef066	0.11666946
237	0xbe908488	-0.28226113
238	0x3dad4e3c	0.08462188
239	0xbe807c08	-0.25094628
240	0x3db49027	0.088165574
241	0x3e6a2048	0.22863877
242	0xbe690556	-0.22755942
243	0xbdf8fbe4	-0.12157419
244	0xbe05065c	-0.12990707
245	0xbe5521da	-0.20813695
246	0xbe176691	-0.1478522
247	0x3dba3a5f	0.09093165
248	0x3e934d5a	0.28769952
249	0xbe650063	-0.22363429
250	0x3da7deab	0.081967674
251	0x3e0b17c1	0.1358328
252	0x3e970c49	0.2950156
253	0x3dcd95c2	0.1003833
254	0x3e7b9ed8	0.24572313
255	0xbe55e9a4	-0.20889908
