experiments/exp1/models/checkpoint_actor_2.pth (torch_old, 274270 bytes, 6 tensors)

fc1.weight f4 [200, 33]
0	0x3e6b46be	0.22976205
1	0x3f9681ba	1.175834
2	0xbf046edd	-0.51731664
3	0xbf8a7a9f	-1.0818671
4	0xbdbafd42	-0.09130336
5	0xbc101ecf	-0.008796408
6	0xbeeee282	-0.46657187
7	0x3cf5a77b	0.029987087
8	0xbf59944d	-0.84991914
9	0xbcfd4ba4	-0.030919857
10	0x3eaeccda	0.34140664
11	0x3e5d5e87	0.2161809
12	0xbe2e13da	-0.1699976
13	0x3db3a344	0.08771375
14	0x3f05a5dd	0.5220621
15	0x3ed08c9f	0.40732285
16	0xbf7df6ae	-0.9920453
17	0x3e1a757c	0.15083879
18	0x3f737d6d	0.9511326
19	0xbe582d11	-0.21110941
20	0x3ec9dce0	0.39426327
21	0xbeb86bf1	-0.36019853
22	0xbe2b3020	-0.16717577
23	0xbe66384c	-0.22482413
24	0x3e987d50	0.29783106
25	0x3d3710fc	0.044693932
26	0x3dbff7f3	0.093734644
27	0x3f1405d5	0.578214
28	0xbe473a49	-0.19455828
29	0xbce2cd64	-0.027685829
30	0xbeeb4094	-0.45947707
31	0xbcaae858	-0.020862743
32	0x3eb97dd1	0.36228803
33	0xbf01b217	-0.5066237
34	0x3ef797cb	0.48357996
35	0x3e297398	0.16548002
36	0x3d7b083e	0.061287157
37	0xbfb0dcbd	-1.3817364
38	0xbe9c41be	-0.30518907
39	0x3f4bf593	0.7967159
40	0xbee3a59f	-0.44462296
41	0x3f76a287	0.9634175
42	0xbe85760c	-0.26066625
43	0xbe7b6ce2	-0.24553254
44	0xbe9af1bb	-0.3026255
45	0x3ea5814f	0.32325217
46	0x3dd278ea	0.10276969
47	0x3ec64c1f	0.3872995
48	0x3c3d7689	0.0115639055
49	0x3ef15cc8	0.471411
50	0xbee4865f	-0.44633767
51	0xbd5daed1	-0.054121796
52	0xbf4ee165	-0.80812675
53	0x3d9896db	0.074506484
54	0x3cad75a9	0.021174269
55	0x3eab6a81	0.33479694
56	0x3f1f0d3d	0.62129575
57	0xbe284e0b	-0.16436021
58	0x3ea8f91b	0.33002552
59	0x3eb5e362	0.35525042
60	0x3f966d46	1.1752098
61	0xbebd4452	-0.36966187
62	0xbcbfa4e0	-0.023394048
63	0xbf89650f	-1.0733966
64	0xbd56881a	-0.05237589
65	0x3d9fe029	0.07806427
66	0xbe9a47ef	-0.30133006
67	0x3f81e775	1.014876
68	0xbf2167c6	-0.6304897
69	0xbcf7081a	-0.03015523
70	0xbf137602	-0.5760194
71	0x3fb58e19	1.418399
72	0x3f335735	0.7005494
73	0xbe91b8d3	-0.28461322
74	0xbd9be7c6	-0.07612567
75	0x3e1fbeed	0.15600176
76	0xbe832518	-0.25614238
77	0x3ec4b786	0.38421267
78	0xbe74eb92	-0.23917988
79	0xbe9e977f	-0.30974957
80	0x3e84b1ac	0.25916803
81	0xbd69ebf0	-0.057109773
82	0x3f01a8f0	0.50648403
83	0x3f87c5b3	1.0607208
84	0x3e913a1b	0.28364643
85	0x3ef1610a	0.47144347
86	0xbca1e614	-0.01976303
87	0xbefcb215	-0.49354616
88	0xbce77659	-0.028254675
89	0xbef985ca	-0.48734885
90	0xbe94b568	-0.29044652
91	0xbe517626	-0.20455226
92	0x3eac9638	0.33708358
93	0x3f5f0113	0.87111014
94	0xbda889cc	-0.08229408
95	0x3c5d2340	0.013497174
96	0xbf698f63	-0.91234416
97	0x3d843f0b	0.06457337
98	0xbfa54abb	-1.2913431
99	0x3e024131	0.12720181
100	0xbdf32a10	-0.11873257
101	0xbd9b6d39	-0.07589192
102	0x3f2d4faa	0.6769968
103	0x3ea19d31	0.3156524
104	0xbfa3361a	-1.2750885
105	0x3f112e52	0.56711304
106	0xbedea835	-0.43487707
107	0x3ec865f0	0.39140272
108	0xbd7f23f3	-0.062290143
109	0xbdc88f8f	-0.09793007
110	0xbe568c5e	-0.20951983
111	0x3d7490b9	0.05970833
112	0xbea1dd7f	-0.316143
113	0xbde1e85c	-0.11030647
114	0xbe021c69	-0.1270615
115	0xbf0b40b7	-0.5439562
116	0x3f4d26f7	0.8013758
117	0xbed0e90e	-0.40802807
118	0xbe6691ee	-0.22516605
119	0x3d107f72	0.03527779
120	0xbed29181	-0.41126636
121	0xbd7ac469	-0.061222468
122	0x3da2a462	0.0794151
123	0xbdfe40f5	-0.12414733
124	0xbb917241	-0.004438669
125	0x3de1bb89	0.110220976
126	0x3f2d7d23	0.6776907
127	0x3ee3438f	0.4438748
128	0xbc1cc0fc	-0.009567495
129	0xbf38baed	-0.72160226
130	0xbd56f3e2	-0.05247868
131	0xc0058b29	-2.0866187
132	0xbee47f0e	-0.44628185
133	0x3cf0c7c1	0.029392125
134	0x3ec2e797	0.38067314
135	0xbd336482	-0.043797024
136	0xbf8d0150	-1.1016026
137	0xbebfb514	-0.3744284
138	0xbf0572f9	-0.5212856
139	0x3e3effe7	0.18652306
140	0x3e8b06cd	0.27153626
141	0xbcd4fa04	-0.025998123
142	0x3c845b00	0.016156673
143	0xbd6c439b	-0.05768166
144	0xbd98e7a7	-0.07466059
145	0xbe89747a	-0.26846677
146	0x3e965bf0	0.29367018
147	0xbd83aeb6	-0.06429808
148	0x3e7aeee3	0.2450519
149	0xbf3f8634	-0.7481415
150	0xbf1090a6	-0.56470716
151	0xbf4e5afc	-0.8060758
152	0xbdc077ff	-0.093978874
153	0x3d8494e9	0.06473715
154	0x3c8c38ad	0.017116869
155	0xbf010cdc	-0.50410247
156	0x3e9c5917	0.3053672
157	0x3c6dbd7e	0.0145105105
158	0x3e93e499	0.28885344
159	0x3f3b32c5	0.73124343
160	0x3d96e918	0.07368678
161	0xbd8d217b	-0.068911515
162	0xbf2cbaf5	-0.67472774
163	0x3d2c1df6	0.04202076
164	0xbffd1e04	-1.9774785
165	0xbecd3780	-0.40081406
166	0x3f20ac5b	0.62762994
167	0x3f06c900	0.5265045
168	0xbf05d9db	-0.52285546
169	0xbf187dcb	-0.59566945
170	0xbf0719ba	-0.5277363
171	0x3e3e5a05	0.18589027
172	0x3e2a08c7	0.16604911
173	0xbe3d7a2f	-0.1850364
174	0xbf0afabc	-0.5428884
175	0xbd4b78e2	-0.04967583
176	0x3adfc5df	0.001707252
177	0x3e85cfef	0.26135203
178	0x3f005b97	0.50139755
179	0x3dc55379	0.09635062
180	0x3d5b6c54	0.053570107
181	0xbf15e4d8	-0.5855231
182	0x3ecc9681	0.39958575
183	0xbe347bcf	-0.17625354
184	0xbe0ce961	-0.13760902
185	0x3ec59fbf	0.3859844
186	0xbc78b168	-0.015179016
187	0x3b8a97f8	0.004229542
188	0xbe0eeb74	-0.13957006
189	0x3e131b1f	0.14365815
190	0x3ed1e493	0.409947
191	0xbe2d50ad	-0.16925307
192	0x3f9513a5	1.164662
193	0xbc3ccd1e	-0.011523513
194	0xbd663dbd	-0.056211222
195	0xbf99f8dc	-1.2029071
196	0xbc91e9c8	-0.01781167
197	0xbd9d89cf	-0.076923005
198	0x3ce5057b	0.027956715
199	0x3f9ea334	1.2393556
200	0x3ec6c2c7	0.38820478
201	0xbfb4355f	-1.4078788
202	0xbf81bbdc	-1.0135455
203	0xbec7a210	-0.3899083
204	0x3f447ff8	0.76757765
205	0x3f061956	0.5238241
206	0x3dbdfe21	0.09276987
207	0x3bac5b8b	0.005259936
208	0xbe0d1de3	-0.13780932
209	0x3eb40153	0.3515726
210	0x3e7275b7	0.23677717
211	0x3ea1e4c1	0.31619838
212	0x3d363036	0.04447957
213	0xbce0a497	-0.027422233
214	0xbf9b8a7c	-1.2151637
215	0x3e566a97	0.20939098
216	0x3eaa0254	0.332049
217	0x3e9b2e42	0.3030873
218	0x3d491c98	0.049099535
219	0x3e1a6375	0.15077002
220	0x3ebd7218	0.3700111
221	0x3eb942e7	0.36183855
222	0xbd95145d	-0.072792746
223	0x3e48006d	0.19531412
224	0x3d8074cd	0.06272278
225	0x3f242b4a	0.64128554
226	0xbe8347ba	-0.2564066
227	0xbd7df187	-0.061997917
228	0xbf2d84de	-0.67780864
229	0x3ce4e5bc	0.027941577
230	0x3fbcd947	1.4753808
231	0x3e2a2b1e	0.1661801
232	0x3f021724	0.5081656
233	0x3e8c17dc	0.27361953
234	0x3e9882b3	0.29787216
235	0x3e960e59	0.2930782
236	0xbf3bc34f	-0.7334489
237	0x3ce585e0	0.028017938
238	0xbe5748c6	-0.21023855
239	0x3efe373a	0.4965151
240	0x3dfd261f	0.12360787
241	0x3f012579	0.50447804
242	0xbd633c98	-0.05547771
243	0xbe56f51c	-0.2099194
244	0x3ef41e7a	0.47679502
245	0x3d0f76ff	0.035025593
246	0xbe1c7bd3	-0.1528161
247	0x3e0a0919	0.13480033
248	0x3de0e660	0.109814405
249	0xbe9258d2	-0.2858339
250	0x3f64038d	0.8906792
251	0x3e7cd940	0.2469225
252	0xbe288cc7	-0.16459952
253	0xbeb05afa	-0.3444441
254	0x3e62358d	0.2209074
255	0xbe5f2029	-0.21789612

fc1.bias f4 [200]
0	0xbf0d819b	-0.5527589
1	0xbf7584ed	-0.95905954
2	0xbf803018	-1.0014677
3	0xbf081303	-0.5315401
4	0xbf536f4b	-0.82591695
5	0xbfaefad2	-1.3670294
6	0xbf3580d2	-0.7089969
7	0xbf853369	-1.0406314
8	0xbf86f071	-1.0542127
9	0xbf0463a1	-0.5171452
10	0xbf40e3d2	-0.75347626
11	0xbf1d815b	-0.61525506
12	0x3d8ceb1f	0.06880783
13	0xbf1b076a	-0.6055819
14	0xbf8526d6	-1.0402477
15	0xbed8bb35	-0.42330328
16	0xbf440c23	-0.7658102
17	0xbf038f97	-0.51390976
18	0xbf757186	-0.9587635
19	0xbf28e1ca	-0.65969527
20	0xbf4a818a	-0.7910391
21	0xbf7e0a53	-0.99234504
22	0xbf1d0371	-0.61333376
23	0xbf1d4b5d	-0.6144312
24	0xbf617cb2	-0.88080895
25	0xbf394d54	-0.7238362
26	0xbf1499de	-0.5804728
27	0xbf389050	-0.72095203
28	0xbf8b8053	-1.0898536
29	0xbf548042	-0.83008206
30	0xbf26fb08	-0.65226793
31	0xbd98ce67	-0.07461243
32	0xbec7f6ac	-0.39055383
33	0xbe84b1fc	-0.2591704
34	0xbf302955	-0.6881307
35	0xbf68193d	-0.9066351
36	0xbdd44417	-0.103645496
37	0xbf86f956	-1.0544841
38	0xbf467227	-0.7751793
39	0xbf18500c	-0.5949714
40	0xbf811896	-1.0085628
41	0xbf212c69	-0.6295839
42	0xbf4aecd5	-0.79267627
43	0xbed2b97f	-0.41157147
44	0xbe852321	-0.26003364
45	0xbf729b72	-0.9476844
46	0xbf637034	-0.88843083
47	0xbf25e6fd	-0.64805585
48	0xbf865e8a	-1.0497601
49	0xbe4ab6c8	-0.19796288
50	0xbf83afa2	-1.0287974
51	0xbf60ca6b	-0.87808865
52	0xbf4401a3	-0.76565
53	0xbf66705a	-0.90015185
54	0xbf936aec	-1.1517005
55	0xbec0c80d	-0.37652627
56	0xbf1ff012	-0.62475693
57	0xbde4eadf	-0.111776106
58	0xbed865a7	-0.42265055
59	0xbf0f3bcf	-0.55950636
60	0xbd2711b5	-0.04078837
61	0xbf48c709	-0.78428704
62	0xbf71a009	-0.9438482
63	0xbf011f11	-0.5043803
64	0xbe6725d7	-0.22573029
65	0x3d17b483	0.037037384
66	0xbe9b7554	-0.30362952
67	0xbf6e69e1	-0.9313031
68	0xbf85dc0c	-1.0457778
69	0xbfa9fa23	-1.3279461
70	0xbf8ce811	-1.1008321
71	0xbf6ca2f5	-0.9243615
72	0xbf145d0f	-0.57954496
73	0xbe4e8773	-0.20168857
74	0xbf7f1486	-0.9964069
75	0xbe8b9730	-0.27263784
76	0xbf65129f	-0.8948154
77	0xbfab2250	-1.3369846
78	0xbf3f702a	-0.74780524
79	0xbf4472c5	-0.76737624
80	0xbf6c4275	-0.92288905
81	0xbf9eb9ea	-1.2400486
82	0xbee9423e	-0.4555835
83	0xbf7ce31f	-0.9878406
84	0x3d48aa56	0.04899057
85	0xbf534b28	-0.82536554
86	0xbfab50fe	-1.3384092
87	0xbf587aef	-0.8456258
88	0xbf78c510	-0.97175694
89	0xbf75795a	-0.9588829
90	0xbf369695	-0.7132352
91	0xbf22958b	-0.63509434
92	0xbf45d515	-0.7727826
93	0x3c8177fb	0.015804281
94	0xbf86c7fb	-1.0529779
95	0xbe5968a8	-0.2123133
96	0xbf1eca88	-0.6202779
97	0xbd4a9bd7	-0.049465027
98	0xbf6c4530	-0.9229307
99	0xbf36625f	-0.7124385
100	0xbf006ea8	-0.5016885
101	0xbf3fc813	-0.74914664
102	0xbf8b1ccf	-1.0868167
103	0x3f0866a4	0.5328162
104	0xbeb958d8	-0.36200595
105	0x3d5b80da	0.05358968
106	0xbf7a25c9	-0.97713906
107	0x3eac0fda	0.33605844
108	0xbf343984	-0.7040026
109	0xbf1a0686	-0.60166204
110	0xbf434f82	-0.76293194
111	0xbfa00062	-1.2500117
112	0x3eaf6e98	0.34264064
113	0xbf802d7e	-1.0013883
114	0xbf4be59c	-0.7964723
115	0xbf631825	-0.88708717
116	0x3d84c9a0	0.064837694
117	0xbf55bc4e	-0.83490455
118	0xbf5835a3	-0.84456843
119	0xbf87779a	-1.0583375
120	0xbf5bf686	-0.8592304
121	0xbf5c7496	-0.86115396
122	0xbf4b8572	-0.79500496
123	0xbefb288c	-0.49054372
124	0xbee39054	-0.4444605
125	0xbf624c79	-0.8839794
126	0xbf3117a5	-0.69176704
127	0xbf39f7dd	-0.72643834
128	0xbf3e4bd7	-0.7433447
129	0xbf3d488a	-0.7393881
130	0xbe4fbf30	-0.20287776
131	0xbeff8d6e	-0.4991259
132	0xbf4e9c3d	-0.8070715
133	0xbf92410e	-1.1426103
134	0xbf2f7361	-0.6853543
135	0xbbde5a0b	-0.0067856363
136	0xbf55d3ab	-0.83526105
137	0xbe0382d8	-0.12842882
138	0xbf179233	-0.5920746
139	0xbf227b7c	-0.6346967
140	0xbf7b2779	-0.98107105
141	0xbf844f12	-1.033663
142	0xbf8738f9	-1.0564262
143	0xbfc8e767	-1.5695618
144	0xbf74b7b8	-0.9559283
145	0x3e72f1e5	0.23725088
146	0xbf4d08d9	-0.80091625
147	0xbf5d9bbd	-0.8656576
148	0xbf75f1b1	-0.96071917
149	0xbf512a8f	-0.81705564
150	0xbf4717c4	-0.7777064
151	0xbd887c48	-0.0666433
152	0xbf1edce9	-0.6205583
153	0xbfae1570	-1.3600292
154	0xbf3e2621	-0.7427693
155	0xbf56ff28	-0.8398309
156	0xbf7c1af6	-0.9847864
157	0xbf18040b	-0.5938117
158	0xbed6ec01	-0.41976932
159	0xbf586f80	-0.84545135
160	0xbf8b4cff	-1.0882872
161	0xbf6b7374	-0.9197304
162	0xbf03ab6e	-0.51433456
163	0xbf5c6384	-0.8608935
164	0xbef65be7	-0.4811699
165	0xbf44a5f0	-0.768157
166	0xbd91967a	-0.07108779
167	0xbf2c619b	-0.67336434
168	0xbf5ef5e0	-0.87093925
169	0xbf585596	-0.84505594
170	0x3e17bf91	0.1481917
171	0xbe9901f1	-0.29884294
172	0xbf4cf30a	-0.8005835
173	0xbf0000b0	-0.5000105
174	0xbf9de331	-1.2334958
175	0xbf173ffc	-0.5908201
176	0xbf41e9a3	-0.75747126
177	0xbf6f85f6	-0.93563783
178	0xbe980cde	-0.29697317
179	0xbf4c5860	-0.7982235
180	0xbdb4c517	-0.088266544
181	0xbebe2e84	-0.37144864
182	0xbed58efd	-0.41710654
183	0x3cfe5993	0.031048572
184	0xbf0624c9	-0.5239988
185	0xbf3bbc18	-0.73333883
186	0xbf1a05ac	-0.60164905
187	0xbf88ff70	-1.0702953
188	0xbe92a0cd	-0.28638306
189	0xbf8fc463	-1.1231807
190	0xbeca6d48	-0.395365
191	0xbea56c03	-0.3230897
192	0x3bd38026	0.0064544855
193	0xbdc31e4c	-0.09527263
194	0xbec658f5	-0.38739744
195	0xbfbb598d	-1.4636704
196	0xbf62473e	-0.88389957
197	0xbeb25f1c	-0.34838188
198	0xbd1aa308	-0.037753135
199	0xbf4ef20b	-0.8083808

fc2.weight f4 [300, 200]
0	0xbf272e02	-0.6530458
1	0x3ece6f91	0.40319493
2	0x3e8c468c	0.27397573
3	0xbf23dc37	-0.64007896
4	0x3db5d74b	0.088789545
5	0xbd899b8a	-0.0671912
6	0x3dd35c88	0.10320383
7	0x3f6ce2ae	0.92533386
8	0xbe784367	-0.24244462
9	0x3eefa053	0.46802005
10	0xbf5d81a8	-0.86525965
11	0x3ed66b9d	0.41878977
12	0x3ea0fbcb	0.31442103
13	0xbf3688a4	-0.7130225
14	0xbe8735ff	-0.26408383
15	0xbf34a548	-0.705647
16	0xbf74199e	-0.9535159
17	0x3cff27a2	0.031146828
18	0xbdc7207a	-0.09722991
19	0xbb695785	-0.0035605144
20	0xbf7749ed	-0.96597177
21	0xbe293ba0	-0.16526651
22	0x3ee7d6e7	0.45281145
23	0x3f4ecf7f	0.80785364
24	0x3f427e94	0.7597439
25	0xbd9008c1	-0.0703292
26	0x3f090fa1	0.5353947
27	0xbe1d848d	-0.15382595
28	0x3eaf423e	0.34230226
29	0xbf034de2	-0.51290715
30	0xbe817671	-0.25285676
31	0x3e096b1b	0.13419764
32	0x3ee1278d	0.43975487
33	0x3edf88c4	0.4365903
34	0xbeb693a8	-0.35659528
35	0xbe516440	-0.20448399
36	0x3e9aa61b	0.30204853
37	0x3dcc40c3	0.0997329
38	0x3ec18443	0.3779622
39	0xbda7b246	-0.081883
40	0xbf58a3a9	-0.84624726
41	0x3dabee8c	0.083951086
42	0xbea6babe	-0.32564348
43	0x3ea1524f	0.3150811
44	0xbdc19ab9	-0.09453339
45	0xbf22c54b	-0.63582295
46	0xbf1b9088	-0.6076741
47	0x3b94247d	0.0045209513
48	0x3ec88f74	0.39171946
49	0x3de51cb1	0.11187113
50	0x3ed5afa2	0.4173556
51	0xbe2e5206	-0.17023477
52	0x3e8a5680	0.2701912
53	0xbf505830	-0.81384563
54	0x3ef5d57a	0.48014432
55	0xbe5b589e	-0.21420524
56	0xbeb75925	-0.358102
57	0xbf007a1c	-0.50186324
58	0x3da4e21c	0.080509394
59	0xbeeba26c	-0.46022356
60	0xbd9e27e0	-0.07722449
61	0xbeb3045c	-0.34964263
62	0xbee44c92	-0.4458967
63	0xbf17f69d	-0.59360677
64	0xbea7b63b	-0.32756218
65	0xbe956600	-0.29179382
66	0xbf85985a	-1.0437119
67	0x3ec2507c	0.3795203
68	0xbd52c890	-0.051460803
69	0xbea66896	-0.32501668
70	0xbe41aa65	-0.18912657
71	0x3e472c62	0.19450524
72	0x3e1a4062	0.15063623
73	0xbf471c39	-0.7777744
74	0x3ec99a23	0.3937541
75	0xbeaca379	-0.3371847
76	0xbed30585	-0.4121515
77	0xbf15f66e	-0.58579147
78	0x3f293a93	0.66105
79	0x3ed174cd	0.40909424
80	0x3e9e6ef9	0.3094404
81	0xbe792794	-0.24331504
82	0xbf1913c9	-0.59795815
83	0xbd8899fc	-0.06669995
84	0x3ea75a8c	0.3268627
85	0x3d9baf73	0.07601824
86	0x3ed03efd	0.40673056
87	0x3e3cca65	0.18436582
88	0xbe8a8e55	-0.27061716
89	0x3e34f509	0.17671598
90	0xbf035ee1	-0.5131665
91	0x3ea72484	0.32645047
92	0x3e126896	0.14297709
93	0x3c5496c2	0.012975397
94	0x3f2949a4	0.6612799
95	0xbe5a6842	-0.21328834
96	0xbe79c747	-0.24392425
97	0x3e2f2905	0.17105491
98	0x3f304547	0.6885571
99	0xbef5db69	-0.4801896
100	0xbdde6736	-0.1085953
101	0xbf413d4f	-0.75484174
102	0xbe908313	-0.28225002
103	0xbedaf7c2	-0.4276715
104	0x3d31e966	0.043435477
105	0xbe62bbfb	-0.22142021
106	0xbf00dce8	-0.50337076
107	0xbe9a777b	-0.3016928
108	0xbdbeb919	-0.09312648
109	0xbf9f20f2	-1.2431929
110	0xbf0597a9	-0.5218454
111	0xbe6e010e	-0.2324259
112	0x3e7dba70	0.24778152
113	0xbf451027	-0.7697777
114	0xbe4710b8	-0.19439971
115	0x3f5f8bf0	0.873229
116	0xbf0b64cb	-0.5445067
117	0x3dc63ab0	0.096791625
118	0xbe5a7dbe	-0.2133703
119	0x3e090d17	0.133839
120	0x3e77bfad	0.24194212
121	0x3eb75d0e	0.35813183
122	0xbf2582da	-0.6465279
123	0xbb49c15e	-0.0030785422
124	0xbecde6ba	-0.40215093
125	0xbc8f50de	-0.017494615
126	0xbdde84b8	-0.10865158
127	0x3f5bd9b4	0.85879064
128	0xbd4d511a	-0.050126173
129	0x3f561f76	0.83641756
130	0xbd7fcbfd	-0.062450398
131	0xbedf6a55	-0.43635812
132	0x3da0a0d9	0.07843179
133	0x3ef37eb0	0.47557592
134	0xbc00ca10	-0.007860675
135	0xbd937e66	-0.07201843
136	0xbef179af	-0.4716315
137	0xbe9efa89	-0.31050518
138	0x3e93d973	0.28876838
139	0x3e0bdee4	0.13659245
140	0x3ee960df	0.4558172
141	0x3eeaa10e	0.45826
142	0x3c292b54	0.010325272
143	0xbeda86bb	-0.42680916
144	0x3d466b85	0.048442382
145	0xbebb0588	-0.36527658
146	0xbf83b9b2	-1.0291045
147	0x3f24f2f4	0.6443322
148	0xbf548e9d	-0.8303011
149	0x3f13c0e8	0.57716227
150	0xbea8eb18	-0.32991862
151	0x3d987557	0.07444256
152	0x3e7b3f9e	0.24535987
153	0xbeea8faa	-0.45812732
154	0x3dcdc4a6	0.10047273
155	0xbf5e42dc	-0.8682077
156	0x3e2540ab	0.1613795
157	0xbf01e0c6	-0.507336
158	0xbef0587d	-0.4694251
159	0x3f3ecf51	0.7453509
160	0xbdb5ee01	-0.08883286
161	0x3e02733e	0.12739274
162	0xbecd3e8b	-0.4008678
163	0xbf1956c0	-0.59897995
164	0x3e932ff8	0.28747535
165	0xbe7eed99	-0.24895324
166	0xbdf94708	-0.12171751
167	0xbf084e46	-0.53244436
168	0xbea94cb5	-0.33066335
169	0x3f8458bf	1.0339583
170	0x3da16010	0.078796506
171	0x3eec3d0d	0.46140328
172	0x3f098bf5	0.5372918
173	0xbf11922c	-0.56863666
174	0xbdd13150	-0.10214484
175	0xbeb506d3	-0.3535677
176	0xbfa33fd1	-1.275385
177	0xbf73ec4a	-0.95282423
178	0xbe8ef02b	-0.2791761
179	0xbe938a70	-0.28816557
180	0xbf17f533	-0.5935852
181	0x3eebd1ba	0.46058446
182	0xbf013fb1	-0.5048781
183	0xbe0b95c2	-0.13631347
184	0xbd873ff1	-0.06603993
185	0x3eaa4bff	0.33261105
186	0xbe589cd1	-0.2115357
187	0x3f020ae3	0.5079786
188	0xbf3d3415	-0.73907596
189	0x3da0ce1f	0.078518145
190	0x3ec7384a	0.38910133
191	0x3e5ef95a	0.21774808
192	0x3e88758e	0.26652187
193	0xbeacbb98	-0.33736873
194	0xbf0c10f5	-0.54713374
195	0xbe4f4307	-0.20240413
196	0x3ed61e6d	0.41820088
197	0xbeeecd68	-0.46641088
198	0x3ebb8e96	0.36632222
199	0xbd117dc1	-0.03552032
200	0xbec6661b	-0.38749775
201	0xbdac37b4	-0.08409062
202	0x3e172326	0.14759502
203	0xbf1615e0	-0.5862713
204	0xbe4782f4	-0.19483548
205	0xbe5a9492	-0.21345738
206	0xbf1bf7cd	-0.6092499
207	0xbe040b40	-0.12894917
208	0x3f693ba0	0.91106606
209	0x3e969865	0.29413143
210	0xbf1689a7	-0.5880379
211	0xbf54f05b	-0.83179253
212	0xbd2368a4	-0.039894715
213	0x3e0332ad	0.128123
214	0x3e32a80b	0.17446916
215	0xbea6f871	-0.3261142
216	0x3e43c440	0.19117832
217	0xbf5b1681	-0.85581213
218	0xbe3d0e22	-0.18462422
219	0xbe8d0db2	-0.2754951
220	0xbe3c6e8b	-0.18401544
221	0x3f8f79d3	1.1209053
222	0x3e6aa3db	0.22914068
223	0x3e9c363c	0.30510128
224	0xbe84d784	-0.25945675
225	0xbea5d325	-0.32387653
226	0xbd9b748b	-0.07590588
227	0xbdb64990	-0.0890075
228	0x3e56139b	0.20905916
229	0x3f271a4f	0.6527452
230	0x3e2966f8	0.16543186
231	0x3e245a71	0.16050126
232	0xbf04cb0b	-0.5187232
233	0xbc83decd	-0.01609745
234	0xbed7f0dd	-0.42175952
235	0xbf71a369	-0.9438997
236	0xbd84bf11	-0.064817555
237	0x3f05e772	0.5230628
238	0xbe9f7398	-0.3114288
239	0x3f237851	0.63855463
240	0xbea2fae6	-0.31832045
241	0x3e8d0d35	0.2754914
242	0xbf15a5bc	-0.58456016
243	0xbe112206	-0.14173135
244	0xbefe7332	-0.49697262
245	0x3e5c7396	0.21528468
246	0xbe547147	-0.20746337
247	0x3d9b1530	0.075724006
248	0xbf3b3123	-0.7312185
249	0xbda6bf10	-0.08141911
250	0xbe9bf28f	-0.30458495
251	0x3ed9a7ff	0.42510983
252	0x3efd4ac0	0.49471092
253	0xbf359010	-0.70922947
254	0xbebd6b81	-0.3699608
255	0xbf02bab5	-0.5106614

fc2.bias f4 [300]
0	0xbee1385d	-0.43988314
1	0xbefae486	-0.49002475
2	0xbe65650a	-0.22401825
3	0xbda33631	-0.079693206
4	0xbea8e98d	-0.32990685
5	0xbef14900	-0.47126007
6	0xbf2eedde	-0.68331707
7	0xbed07413	-0.40713558
8	0xbefde95a	-0.49592096
9	0xbeea8d87	-0.45811102
10	0xbe7085f0	-0.23488593
11	0xbde1bffd	-0.11022947
12	0x3d7b964c	0.06142263
13	0xbee08104	-0.4384843
14	0xbe5f3ccd	-0.21800537
15	0xbeb98677	-0.362354
16	0xbe223b75	-0.15842994
17	0xbee11eda	-0.4396885
18	0xbeef1233	-0.46693572
19	0x3d802657	0.06257313
20	0xbf0e71d9	-0.5564247
21	0xbefea011	-0.49731496
22	0xbe947c7b	-0.2900122
23	0xbefced60	-0.49399853
24	0xbe5a0866	-0.21292266
25	0xbf064986	-0.5245594
26	0x3e0baf7f	0.13641165
27	0xbe323b0a	-0.17405334
28	0xbe6fdaaa	-0.23423257
29	0xbeefbd15	-0.46823946
30	0xbef921ce	-0.48658603
31	0xbe21cc27	-0.15800534
32	0xbf1b92d4	-0.60770917
33	0xbf1f1d52	-0.62154114
34	0xbf0cdb6e	-0.55022323
35	0x3d5f584b	0.054527562
36	0xbe62db58	-0.22153986
37	0xbf23bc13	-0.63958853
38	0xbf1b7891	-0.60730845
39	0xbf4d4064	-0.8017638
40	0xbe6b3715	-0.22970231
41	0xbf2fd05c	-0.68677306
42	0xbe11f87a	-0.14254943
43	0xbeebb064	-0.46033013
44	0xbe40b16d	-0.18817683
45	0xbe6d10c2	-0.23150924
46	0xbe6ae4b7	-0.2293881
47	0xbebe84eb	-0.37210783
48	0xbe90fde6	-0.2831871
49	0xbf0d335d	-0.551565
50	0xbf2c4bc4	-0.6730311
51	0xbf0c66e8	-0.5484452
52	0xbd34b204	-0.04411508
53	0xbf19b64f	-0.60043806
54	0xbeae4c06	-0.34042376
55	0xbe9a1aa3	-0.30098447
56	0xbe19d5b9	-0.15022935
57	0xbef4644f	-0.4773278
58	0xbed0a980	-0.40754318
59	0xbeaa637f	-0.33279034
60	0xbf20e7f8	-0.62853956
61	0xbf0bd375	-0.5461953
62	0xbf5bb569	-0.85823685
63	0xbf06afc3	-0.5261194
64	0xbeec963b	-0.46208367
65	0xbe924ad9	-0.2857273
66	0xbe6bff90	-0.23046708
67	0xbe266f45	-0.16253383
68	0xbee5bb3e	-0.44869417
69	0x3e36ead3	0.17863016
70	0xbe87dc26	-0.26535147
71	0xbf005cfb	-0.50141877
72	0xbf3c6203	-0.73587054
73	0xbe6539e6	-0.22385368
74	0xbe1fb553	-0.15596513
75	0xbf3d0962	-0.7384244
76	0xbe5ed061	-0.21759178
77	0xbe9bc51c	-0.3042382
78	0xbe333253	-0.17499666
79	0xbf32f1b2	-0.6990005
80	0xbe9ac837	-0.30230877
81	0xbe4f4ec7	-0.20244895
82	0xbeb44e85	-0.35216156
83	0xbee08e23	-0.43858442
84	0xbf0ff54d	-0.56233674
85	0xbf3ab972	-0.7293922
86	0xbe812687	-0.25224707
87	0xbdd0c381	-0.101935394
88	0xbde60631	-0.1123165
89	0xbeda44ac	-0.42630517
90	0xbec102aa	-0.37697345
91	0xbf375df2	-0.71627724
92	0xbe0ccdb6	-0.13750347
93	0xbe905222	-0.28187662
94	0xbe8273bb	-0.2547892
95	0xbe27d1e4	-0.1638866
96	0xbf10cffc	-0.5656736
97	0xbe6ab500	-0.22920609
98	0x3d1b8e41	0.03797746
99	0xbe40b609	-0.18819441
100	0xbe8c5b18	-0.2741325
101	0xbea78f3e	-0.32726473
102	0xbe407728	-0.18795455
103	0xbf3141c7	-0.69240993
104	0xbf4ba60f	-0.7955026
105	0xbefc35fd	-0.4925994
106	0xbece97a6	-0.40350074
107	0xbecb9786	-0.3976404
108	0xbf00694d	-0.50160676
109	0xbee3c11d	-0.4448327
110	0xbf3bb7f8	-0.7332759
111	0xbcc14245	-0.02359117
112	0xbe3c825d	-0.18409105
113	0xbd423007	-0.047409084
114	0xbf2fcd80	-0.68672943
115	0xbf0524f6	-0.5200952
116	0xbe1bbcf2	-0.15208796
117	0xbf17bb38	-0.5927005
118	0xbd48f93c	-0.049065813
119	0xbe39e4ab	-0.18153636
120	0xbd458fdf	-0.04823291
121	0xbf10319c	-0.563257
122	0xbe5da891	-0.21646334
123	0xbf14fc4d	-0.5819748
124	0xbf5266cd	-0.8218811
125	0xbd99dfc5	-0.07513384
126	0xbf142bad	-0.57879144
127	0xbe9b34d2	-0.30313736
128	0x3e1129d8	0.14176118
129	0xbf0c2b90	-0.5475397
130	0xbf211a50	-0.62930775
131	0xbf0aaee6	-0.54173124
132	0xbea80a4a	-0.3282035
133	0xbe6ecc63	-0.23320155
134	0xbef34602	-0.4751435
135	0xbf487a6c	-0.783118
136	0xbe0d6a3e	-0.1381006
137	0xbdda5e36	-0.106625006
138	0xbeda0e0d	-0.42588845
139	0xbe83be32	-0.25731045
140	0xbef44586	-0.47709292
141	0xbdb32843	-0.08747914
142	0xbee15844	-0.44012654
143	0xbf2b5c71	-0.6693793
144	0xbf0bdcdb	-0.54633874
145	0x3dc9027f	0.09814929
146	0xbedc4956	-0.430247
147	0xbd355013	-0.044265818
148	0xbe6caea3	-0.23113494
149	0xbf0fcadb	-0.5616891
150	0xbe1b279f	-0.15151833
151	0xbe502a65	-0.20328672
152	0xbf286d25	-0.6579154
153	0xbe927d91	-0.28611425
154	0xbed353e0	-0.4127493
155	0xbe9f9c2c	-0.31173837
156	0xbc89fd20	-0.016844332
157	0xbf3ce11c	-0.7378099
158	0xbe61be02	-0.22045138
159	0xbef81f95	-0.48461595
160	0xbe7c62bc	-0.24647039
161	0x3e250172	0.16113833
162	0xbf0b2ba8	-0.5436349
163	0xbee8487d	-0.45367804
164	0xbe989e6b	-0.29808363
165	0xbd0a527f	-0.03377008
166	0xbe020c3b	-0.12699978
167	0xbda56552	-0.08075966
168	0xbf399caf	-0.72504705
169	0xbe664bf2	-0.22489908
170	0xbe963415	-0.2933661
171	0xbf5b63d9	-0.8569923
172	0xbe989be8	-0.29806447
173	0x3d97549f	0.07389187
174	0xbe1fe2eb	-0.15613906
175	0xbe952a9a	-0.29134065
176	0xbf11dee9	-0.5698076
177	0xbf330fab	-0.6994578
178	0xbdbe8d8e	-0.09304343
179	0xbf25ce3a	-0.647678
180	0xbeba0e32	-0.36338955
181	0xbeaa6a76	-0.33284348
182	0x3e51e20f	0.20496391
183	0xbdedd23b	-0.11612364
184	0xbebb69ac	-0.3660406
185	0xbe1312fc	-0.1436271
186	0xbf0a2696	-0.5396513
187	0xbe84116c	-0.25794542
188	0xbe1a1a3b	-0.15049069
189	0xbe167c69	-0.14695896
190	0xbef6c22e	-0.48195022
191	0xbebbe4bb	-0.36697945
192	0xbea6c209	-0.32569912
193	0xbe8917e0	-0.26776028
194	0xbf1fddfc	-0.62448096
195	0xbe18da2b	-0.14926974
196	0xbe8a4785	-0.2700769
197	0xbe8af701	-0.27141574
198	0xbf2ed1ce	-0.68288887
199	0xbf1e0003	-0.6171877
200	0xbeec4054	-0.46142828
201	0xbceb9457	-0.028757257
202	0xbeda1ae4	-0.4259864
203	0xbf1770c1	-0.59156424
204	0xbf0300f1	-0.5117331
205	0xbeef5e18	-0.46751475
206	0xbebf5fb0	-0.3737769
207	0xbe274261	-0.16333915
208	0xbe5c2834	-0.21499711
209	0xbd430c49	-0.047619138
210	0xbe9a2dc8	-0.30113053
211	0xbe1248fb	-0.14285652
212	0xbe1d4fa8	-0.15362418
213	0xbe024668	-0.1272217
214	0xbe972923	-0.29523572
215	0xbe9ddc53	-0.30832157
216	0xbf513cc3	-0.8173334
217	0xbf1910e0	-0.59791374
218	0xbe996999	-0.29963377
219	0xbe975447	-0.29556486
220	0xbef1b5d0	-0.47209024
221	0xbea2d10c	-0.31800115
222	0xbf569300	-0.83818054
223	0xbef4596c	-0.47724473
224	0xbdde8b85	-0.10866455
225	0xbd565d35	-0.052334983
226	0xbf7d413a	-0.9892765
227	0xbe7b658d	-0.24550457
228	0xbea861db	-0.32887158
229	0xbea780ec	-0.32715547
230	0xbeaa2dad	-0.33237973
231	0xbf153c80	-0.5829544
232	0xbea8471d	-0.32866755
233	0xbf311e63	-0.6918699
234	0xbeb5965e	-0.35466284
235	0xbe1c5705	-0.1526757
236	0xbee0a9d1	-0.4387956
237	0xbf2f2745	-0.68419296
238	0xbeead2c3	-0.45863923
239	0xbf5b6370	-0.85698605
240	0xbe8ce70f	-0.27520034
241	0xbee006ca	-0.4375518
242	0xbcd5f290	-0.02611664
243	0xbebc9f1f	-0.3684015
244	0xbe475a9e	-0.19468161
245	0xbea1e2c6	-0.31618327
246	0xbf405555	-0.75130206
247	0xbef1f922	-0.47260386
248	0xbf167caf	-0.58784
249	0xbe98d6f7	-0.29851505
250	0xbef2f2de	-0.47450918
251	0xbe612a38	-0.21988761
252	0xbec26b72	-0.379726
253	0xbcaac442	-0.020845536
254	0xbedaff62	-0.42772967
255	0xbebc2caa	-0.36752826

fc3.weight f4 [4, 300]
0	0x3cdec19d	0.027191931
1	0x3dbe82bf	0.093022816
2	0xbd8362a9	-0.06415302
3	0xbd9c0b54	-0.07619348
4	0xbdfc47b6	-0.12318365
5	0xbf0b9da9	-0.54537445
6	0x3e35c610	0.17751336
7	0x3ee1bdf4	0.44090235
8	0x3d36cff5	0.044631917
9	0x3ed54075	0.4165074
10	0x3e2af4d0	0.16694951
11	0xbf34af53	-0.70580024
12	0xbd9fb5bc	-0.07798335
13	0x3e05af35	0.13055117
14	0x3c7db8e9	0.015485981
15	0x3e8e9ce0	0.2785406
16	0x3eb75d01	0.35813144
17	0x3e1e4c11	0.15458705
18	0xbda113aa	-0.07865079
19	0xbb143a2f	-0.0022617688
20	0x3e5f0034	0.21777421
21	0x3e746ae7	0.23868905
22	0x3e8f6316	0.28005284
23	0xbf1c47d8	-0.61047125
24	0x3c1dc89e	0.00963035
25	0x3e5b939a	0.21443024
26	0x3ec368f3	0.38166007
27	0xbf373908	-0.715714
28	0x3ef92911	0.48664144
29	0xbe115db6	-0.14195904
30	0x3f141e9c	0.57859206
31	0x3f419f98	0.75634146
32	0xbd1ddab8	-0.038538665
33	0x395209a4	0.00020030752
34	0xbdc0784a	-0.09397943
35	0xbe24929d	-0.16071554
36	0x3d29a5df	0.041417953
37	0x3e92f641	0.28703502
38	0xbe33573c	-0.17513746
39	0x3e3c963e	0.18416688
40	0xbc9dc428	-0.019258574
41	0xbdbf81e6	-0.09350948
42	0x3e2e1d92	0.17003468
43	0x3f58b0fe	0.8464507
44	0xbf009ab3	-0.5023605
45	0x3de7014f	0.112795465
46	0x3ebd4746	0.3696844
47	0x3e84bc51	0.25924924
48	0xbe5caa96	-0.21549448
49	0x3dc7e438	0.09760326
50	0xbe2ffab3	-0.17185478
51	0xbe899833	-0.2687393
52	0x3d3e35ac	0.046437904
53	0x3e8b4c35	0.2720658
54	0xbeae43dc	-0.34036148
55	0xbf1fadda	-0.6237465
56	0x3e8fa224	0.2805339
57	0xbe5347f6	-0.2063292
58	0xbea8d937	-0.32978222
59	0x3c70b755	0.014692147
60	0xbe0d0501	-0.1377144
61	0x3cfff878	0.031246409
62	0xbe8dab3b	-0.276697
63	0xbf2211bc	-0.6330831
64	0xbcec4c94	-0.028845109
65	0x3e81b605	0.25334182
66	0xbc9847de	-0.018588956
67	0xbba027f9	-0.0048875776
68	0x3df7d060	0.12100291
69	0xbe8fbcdc	-0.28073776
70	0x3e338978	0.17532909
71	0xbece8d54	-0.403422
72	0x3ec98fe8	0.39367604
73	0xbe526e07	-0.20549785
74	0xbd2443a7	-0.04010358
75	0x3d599d8c	0.053128764
76	0xbdeb2f3d	-0.11483619
77	0x3d9cf6fc	0.07664296
78	0xbbfce429	-0.0077176285
79	0x3e80f766	0.2518875
80	0xbe053240	-0.1300745
81	0xbf21d74a	-0.6321913
82	0x3e8eddb0	0.2790351
83	0x3cb83181	0.022484543
84	0x3ee13734	0.4398743
85	0x3ebefc66	0.3730194
86	0xbe132a70	-0.14371657
87	0xbe9dec02	-0.30844122
88	0xbebf61c4	-0.37379277
89	0x3e65a0af	0.22424577
90	0xbec82fd7	-0.39099
91	0x3f62a141	0.88527304
92	0xbe4665ce	-0.19374773
93	0x3e52fbb1	0.20603825
94	0x3ec6475c	0.38726318
95	0xbd3ee867	-0.046608355
96	0x3e398114	0.18115646
97	0x3e255cbc	0.16148657
98	0x3d11bc4a	0.035579957
99	0xbd95b9f5	-0.07310859
100	0xbdf60143	-0.120119594
101	0xbf1ca4b7	-0.61188835
102	0xbeb431a3	-0.3519412
103	0xbc20beda	-0.009811128
104	0xbc280e7a	-0.010257358
105	0x3ec11344	0.3771001
106	0x3dc578b1	0.09642161
107	0xbf0d222a	-0.55130255
108	0x3d9ffcee	0.078119144
109	0x3f4687d5	0.77551013
110	0xbd9b6c36	-0.07588999
111	0x3f233cd6	0.63764703
112	0x3e385121	0.17999698
113	0x3e6c4af9	0.23075475
114	0xbe2bf361	-0.1679206
115	0x3f7167bf	0.9429893
116	0x3f1b900f	0.6076669
117	0x3e83aaf3	0.2571636
118	0x3ef1c918	0.47223735
119	0x3eb576d1	0.35442212
120	0x3e6e9844	0.23300272
121	0x3ecdedde	0.4022054
122	0xbe863fd6	-0.26220578
123	0xbe810a31	-0.25203088
124	0x3f31cd8b	0.6945426
125	0x3e693eda	0.22777882
126	0x3d7a0d34	0.061047748
127	0xbd8f388b	-0.069932066
128	0x3cf9be7c	0.030486338
129	0xbd0a4d66	-0.03376522
130	0x3f1ac7ce	0.6046113
131	0x3db870a3	0.09005859
132	0xbea0a512	-0.3137594
133	0x3f861e98	1.0478086
134	0x3dfa810f	0.12231647
135	0x3e60db1b	0.21958582
136	0x3ba290af	0.0049610953
137	0x3e3b9485	0.18318374
138	0x3e70ed14	0.23527938
139	0xbb367198	-0.0027838703
140	0xbe6b0d42	-0.22954276
141	0xbe7d40b0	-0.24731708
142	0xbd9c392c	-0.07628092
143	0xbf253606	-0.6453556
144	0xbdacd549	-0.084391184
145	0xbc1bdbdb	-0.009512867
146	0x3e2cced6	0.16875777
147	0xbe40f0f4	-0.18841916
148	0x3c398be0	0.011324853
149	0x3f04ab50	0.518239
150	0xbdd1455f	-0.102183096
151	0x3f03fdd7	0.51559204
152	0xbe7f4b57	-0.24931084
153	0xbe58292e	-0.21109459
154	0xbdd0ee31	-0.102016814
155	0xbe0d0f6c	-0.13775414
156	0x3c4a7aaa	0.012358347
157	0x3ed360cf	0.41284797
158	0xbdf515e2	-0.119670644
159	0x3e54d9ad	0.20786162
160	0x3d7da02f	0.06192034
161	0xbe50ed41	-0.20403005
162	0x3f025f70	0.50926876
163	0xbd98b8ae	-0.074571
164	0x3b40d154	0.0029421644
165	0xbe3e4b4b	-0.1858341
166	0xbe58e461	-0.2118087
167	0xbf11a8f3	-0.5689842
168	0x3e174f12	0.14776257
169	0xbee09955	-0.43866983
170	0x3f054c93	0.5206997
171	0x3e98303f	0.2972431
172	0x3dc8b1df	0.09799551
173	0x3d2dc713	0.04242618
174	0xbedcfbc0	-0.4316082
175	0x3e82fe85	0.25584808
176	0xbcb24c73	-0.02176497
177	0xbe9704a7	-0.29495737
178	0xbe40802c	-0.18798894
179	0xbdd2dcf1	-0.102960475
180	0xbde4baa8	-0.11168414
181	0xbf49569a	-0.7864777
182	0x3e1cd193	0.15314321
183	0xbefba630	-0.49150229
184	0xbf0745f8	-0.5284114
185	0x3e601937	0.21884619
186	0xbe90a345	-0.28249565
187	0xbe2d05a0	-0.16896677
188	0x3c627fcc	0.013824414
189	0x3f7253f4	0.9465935
190	0x3f319c1b	0.69378823
191	0xbe75a689	-0.2398931
192	0xbf7f2da0	-0.99678993
193	0xbe510eeb	-0.20415847
194	0xbe4a8365	-0.19776686
195	0xbd56b1d2	-0.052415676
196	0xbf4aea85	-0.792641
197	0xbda54b35	-0.08070985
198	0xbdbec598	-0.09315032
199	0xbd404af1	-0.04694647
200	0xbef3b11b	-0.47596058
201	0xbd960b1d	-0.073263384
202	0x3dbec623	0.09315135
203	0x3efe6bdb	0.49691662
204	0x3e6866ae	0.22695419
205	0x3d3c9e3f	0.046049353
206	0xbe225edf	-0.15856503
207	0x39851c99	0.00025389044
208	0x3e3af9be	0.18259332
209	0xbdaf38ad	-0.08555732
210	0xbecc5c68	-0.3991425
211	0xbd777a6e	-0.060419492
212	0xbdc8d01a	-0.09805317
213	0x3e24b760	0.16085577
214	0xbecb6f22	-0.39733225
215	0xbeb36e9e	-0.35045332
216	0xbdde2e7a	-0.108487085
217	0xbd068478	-0.032841176
218	0xbdd1ef41	-0.10250712
219	0x3ea87f83	0.32909784
220	0xbf3bce9c	-0.73362136
221	0xbd1dd3b8	-0.03853199
222	0x3ec71d0e	0.38889354
223	0xbe9bf97e	-0.30463785
224	0x3de0f010	0.10983288
225	0xbd7abd34	-0.061215594
226	0x3ce75fb2	0.028243873
227	0x3c01a711	0.007913367
228	0x3e2a0c15	0.16606171
229	0x3f0932ce	0.53593147
230	0x3cc40623	0.023928707
231	0x3eb931d0	0.36170816
232	0xbc81b2be	-0.015832301
233	0xbefb5c98	-0.4909408
234	0xbf2319f7	-0.63711494
235	0xbc1b1456	-0.009465298
236	0xbd2ab14f	-0.041673
237	0x3f578531	0.8418761
238	0x3eb943a6	0.36184424
239	0xbe6b9204	-0.2300492
240	0x3f35be25	0.7099326
241	0xbf1ba7fa	-0.60803187
242	0xbcb06f7b	-0.021537533
243	0xbd62164b	-0.05519704
244	0xbd45505b	-0.048172336
245	0xbdc04b4f	-0.09389364
246	0xbd686c36	-0.056743823
247	0x3e98d2ac	0.2984823
248	0x3e926b07	0.2859728
249	0xbec462a6	-0.38356513
250	0x3edd37b0	0.4320655
251	0xbf000bd0	-0.50018024
252	0xbed22fbb	-0.4105204
253	0xbee07886	-0.43841952
254	0x3ec69ee3	0.38793096
255	0xbd1b2a43	-0.0378821

fc3.bias f4 [4]
0	0x3e2df0dd	0.16986413
1	0x3dc9d200	0.098545074
2	0xbdcaa3f4	-0.09894553
3	0xbde6e208	-0.11273581
