experiments/exp1/models/checkpoint_actor_3.pth (torch_old, 274270 bytes, 6 tensors)

fc1.weight f4 [200, 33]
-0.26150867 0.05423339 -0.5772757 -0.93253773 -0.009453381 -0.15058711 0.22868915 -0.14142331
-0.61519563 0.07260634 0.21609749 -0.20285252 0.056633096 -0.28582263 0.10450998 0.26278558
0.4434574 0.6892371 -0.118445344 1.0013478 0.2405256 -0.4736245 -0.22017808 -0.31151342
-0.1411472 -0.66943204 0.4252307 0.85527515 0.14141756 -0.027685829 -0.7365421 -0.020862743
1.9322859 1.1418123 -0.066231 0.361802 -0.20352755 -0.2166718 -0.18588693 -0.4961332
0.4329377 0.4594741 0.5882929 0.9360682 0.5857326 -0.2225583 -0.5744881 -0.17692932
-0.57098913 -0.1546916 -0.30835587 0.2747915 0.11887668 0.27317432 -0.03333199 0.55360097
-0.07867677 0.23550996 -0.43051237 -0.1513187 0.23878162 0.24445415 -0.023394048 -0.13696644
-0.05237589 2.8440263 -0.9319993 0.7879841 -1.1404632 -0.32531065 -0.41936105 1.2270529
0.25310832 0.6300979 -0.19054991 -0.3232557 -0.19520329 0.49047506 -0.24128939 0.08583137
-0.39445782 -0.6668799 -0.14298044 -0.1790134 -0.06424394 -0.24067584 -0.024227692 0.054618027
0.57663226 -0.070980035 0.2111828 -0.22006938 0.099272296 0.8147066 0.48947498 0.013497174
-0.8559453 0.06457337 0.21590482 0.02790476 -0.27835992 -0.18090923 0.149306 0.5044467
0.17237954 -0.12246496 0.69541687 -0.26068392 -0.3070973 0.20192944 -0.32189694 -0.7429887
0.12157405 0.8185168 -0.40040305 -0.04559333 0.09190049 -0.31733108 -0.15886961 0.6939861
-0.22523497 0.2929825 -0.10271526 0.003921481 0.36267698 -0.093981504 0.3525047 0.62910384
-0.009567495 -0.3964176 -0.05247868 -1.3443178 0.43786907 0.83941966 -0.4077773 0.26096183
0.74507004 0.17220083 1.0718303 -0.3021313 0.34209043 -0.49350148 -0.3117216 0.20759243
-0.10126892 0.53462857 0.54510707 0.44183436 0.10968408 0.3390695 -0.55636024 0.27128538
0.21711266 -0.26253918 0.0039044344 -0.112513 0.3095046 -0.24452448 0.3774186 0.5054877
-0.32581946 -0.068911515 -0.448974 0.04202076 2.0444126 -0.5880301 -0.59744763 -0.6551882
-0.32872564 -0.205898 0.56526953 0.25998524 0.30278987 0.16310774 -0.07671619 -0.22338425
0.3252775 -0.4104581 0.32386965 0.633465 0.2017453 -0.20962186 -0.4396325 -0.20838678
0.102940105 -0.028161554 0.00082242576 -0.78000456 0.23079251 -0.50132227 0.3977915 -0.65850896
0.28801015 -0.15844265 -0.056211222 -0.32625967 -0.01781167 -2.1257033 1.030001 -0.20804645
-0.11886222 0.22170995 0.49550033 -0.49146155 -0.054318603 0.44618142 -0.8577376 0.58814293
0.2964154 -0.11505218 0.052640054 -0.6196081 0.825558 0.0014121593 0.5436124 -0.5797501
0.1482707 0.47660267 0.2844737 0.7576491 -0.24863797 -0.03675422 0.4714626 0.24614389
0.7521829 -0.18569173 -0.1125477 -0.061997917 0.14916204 0.027941577 0.35452005 0.35680377
0.37407598 0.11952417 -0.56778264 -0.23953077 0.59058994 0.23508686 0.46641174 0.03657848
0.09928686 0.05587971 0.41464105 0.24179423 0.49345216 0.22267997 -0.46887425 0.6881816
0.02094142 -0.3181972 -0.13903299 0.4743595 0.84242326 0.34201956 0.3190116 -0.14574493
00000000: 77e4 85be d523 5e3d 57c8 13bf cbba 6ebf
00000010: 5be2 1abc 8233 1abe 7d2d 6a3e 46d1 10be
00000020: 767d 1dbf a2b2 943d a948 5d3e 92b8 4fbe
00000030: 1bf8 673d 5857 92be 5409 d63d d58b 863e
00000040: d90c e33e d871 303f 7993 f2bd 2a2c 803f
00000050: 584c 763e e97e f2be 5d76 61be b07e 9fbe
00000060: e488 10be e65f 2bbf d7b7 d93e 50f3 5a3f
00000070: c4cf 103e 64cd e2bc 068e 3cbf 58e8 aabc
00000080: 2555 f73f e826 923f 1ea4 87bd 1d3e b93e
00000090: 8769 50be 36df 5dbe 2559 3ebe 2c05 febe
000000a0: 03aa dd3e 3040 eb3e 5d9a 163f 2aa2 6f3f
000000b0: 92f2 153f 53e6 63be a711 13bf f62c 35be
000000c0: 582c 12bf 7a67 1ebe d2e0 9dbe 79b1 8c3e
000000d0: 9e75 f33d 81dd 8b3e 2087 08bd cbb8 0d3f
000000e0: 4921 a1bd 8629 713e 1e6c dcbe 4af3 1abe
000000f0: 2b83 743e 3052 7a3e e0a4 bfbc ee40 0cbe
00000100: 1a88 56bd 8704 3640 8297 6ebf 53b9 493f
00000110: b3fa 91bf 1e8f a6be 7eb6 d6be 1210 9d3f
00000120: 6a97 813e 194e 213f 841f 43be c581 a5be
00000130: 5fe3 47be 8c1f fb3e 9114 77be 5bc8 af3d
00000140: 60f6 c9be a4b8 2abf 7769 12be 4a4f 37be
00000150: 5492 83bd ba73 76be 2779 c6bc 27b7 5f3d
00000160: 2c9e 133f fb5d 91bd 4e40 583e de59 61be
00000170: 464f cb3d 9d90 503f 779c fa3e 4023 5d3c
00000180: 3b1f 5bbf 0b3f 843d 2716 5d3e 8698 e43c
00000190: 3185 8ebe 4540 39be ace3 183e 6b23 013f
000001a0: 4384 303e e9ce fabd d706 323f 5d78 85be
000001b0: db3b 9dbe 97c6 4e3e adcf a4be 8234 3ebf
000001c0: d1fb f83d 518a 513f a101 cdbe 12c0 3abd
000001d0: 5336 bc3d 3879 a2be b7ae 22be 13a9 313f
000001e0: ffa3 66be cd01 963e 615c d2bd c47f 803b
000001f0: ccb0 b93e 6079 c0bd 7f7b b43e f30c 213f
00000200: fcc0 1cbc 3ff7 cabe e2f3 56bd 9b12 acbf
00000210: 6030 e03e 35e4 563f 30c8 d0be ca9c 853e
00000220: e9bc 3e3f 6a55 303e bc31 893f f4b0 9abe
00000230: 7a26 af3e 3aac fcbe f999 9fbe 1c93 543e
00000240: 1466 cfbd 6bdd 083f 238c 0b3f 1d38 e23e
00000250: 0ca2 e03d 849a ad3e a06d 0ebf ebe5 8a3e
00000260: c852 5e3e 896b 86be 8ae1 7f3b 376d e6bd
00000270: 6377 9e3e a064 7abe 033d c13e a467 013f
00000280: cfd1 a6be 7b21 8dbd ecdf e5be f61d 2c3d
00000290: a8d7 0240 2489 16bf 54f2 18bf 6aba 27bf
000002a0: ba4e a8be edd6 52be 81b5 103f c91c 853e
000002b0: 4607 9b3e b705 273e 611d 9dbd d7be 64be
000002c0: c68a a63e 9027 d2be 3ed2 a53e c32a 223f
000002d0: 5296 4e3e 1da7 56be 8317 e1be 5863 55be
000002e0: 43d2 d23d 0fb3 e6bc 0f98 573a 61ae 47bf
000002f0: df54 6c3e a856 00bf 54ab cb3e 0b94 28bf
00000300: 1176 933e ca3e 22be bd3d 66bd 820b a7be
00000310: c8e9 91bc 860b 08c0 13d7 833f 210a 55be
00000320: 096e f3bd ef07 633e 38b2 fd3e d9a0 fbbe
00000330: 2f7d 5ebd e471 e43e b194 5bbf 8990 163f
00000340: c2c3 973e 7aa0 ebbd 199d 573d a39e 1ebf
00000350: c557 533f 3418 b93a 2f2a 0b3f 816a 14bf
00000360: 46d4 173e 4405 f43e 89a6 913e 4bf5 413f
00000370: f49a 7ebe 988b 16bd 8c63 f13e 250d 7c3e
00000380: 0f8f 403f f925 3ebe 697f e6bd 87f1 7dbd
00000390: efbd 183e bce5 e43c a783 b53e fcae b63e
000003a0: e386 bf3e 17c9 f43d 345a 11bf 8e47 75be
000003b0: e730 173f 9cba 703e 85cd ee3e 51d3 153d
000003c0: e956 cb3d 1fe2 643d d54b d43e e898 773e
000003d0: c3a5 fc3e 3806 643e 4910 f0be ab2c 303f
000003e0: 578d ab3c beea a2be aa5e 0ebe 40df f23e
000003f0: 0da9 573f 301d af3e 7d55 a33e 293e 15be

fc1.bias f4 [200]
-0.82982516 -0.022624774 -0.94507354 -0.20634699 -0.60015833 -0.49038923 0.11796894 -1.0034091
-0.17058419 -0.64575595 -1.1147084 0.00844775 -0.035710152 -0.7791945 0.09981934 -0.24648307
-0.53816265 -0.20973954 0.37298888 -0.4154569 0.06605854 -0.53474677 -0.46269083 -0.76630145
0.38469976 -0.85750574 -0.33175933 -0.37341356 -0.603703 -0.6673822 -0.7481508 -0.77005595
-0.46689427 -0.56853926 -0.30935317 -0.68604344 -0.31833017 -0.008583292 0.058397133 -0.4666016
-0.6703995 -0.66357416 -1.0236347 0.17177592 -0.5968008 -0.68332505 -0.36672637 0.39542612
-0.9745886 -0.405512 0.15728253 -0.25344625 -0.09398508 0.08549914 -0.59645146 -0.32329357
-0.2372572 -0.88769263 -0.498132 -0.3021342 -0.7037467 0.23815885 -1.264187 -0.16596651
-0.10696852 -0.03248438 -0.26962945 -0.19090524 -0.36542237 -1.0536152 -0.83523947 0.054727253
-0.4465345 -0.15596884 -0.21785791 -0.59820944 -0.5801018 -0.26836526 -0.18349451 -0.33122486
-0.5214689 -0.5625175 -0.0976038 -0.41741425 -0.64506346 -0.6845838 -0.5988864 -0.40499917
-0.93341804 0.29938382 -0.4000996 0.22253932 -0.4691579 -1.0538617 -0.6193351 -0.54275846
-0.54738677 -0.52106494 -0.10276816 -0.18511777 -0.31392992 -0.4804886 0.61241496 -0.34121317
-0.59573984 -0.6012953 -1.0292339 -1.2323574 -1.0240912 -0.6124864 -0.28195447 -0.39361396
-0.6048277 0.18283562 -0.39674306 -0.23423727 -0.25032672 -0.7056706 -0.18403625 -1.1853079
-0.49351016 -0.5445814 -0.4380061 -0.57418823 -0.042135704 -0.84526527 -0.33027646 -0.53531194
-0.85359293 -0.15350476 -0.70630276 -0.18896851 -0.8118967 -0.5743393 -0.33669224 -0.70843035
-0.57343304 -0.67376125 -1.2498868 -0.4145009 -0.5471711 -0.7163465 -0.29115552 -0.7401399
-0.9015497 -0.6100562 -0.67868584 0.24166556 -1.0182325 -0.22769263 -0.5520587 -0.44447133
-0.78663814 -0.9518748 -0.07826585 -0.6296461 -1.0465535 -0.28872535 -0.360558 -0.016447835
0.13373621 -0.20602196 -0.94644576 -0.4084006 -0.40148482 -0.7230199 -0.70585775 -1.0235821
-0.9848157 -0.25553173 -0.7988228 -0.19413388 -0.58985686 -0.8095021 -0.4235492 -0.8146487
-0.6928889 -0.1659126 -0.26312396 -0.21363798 -0.7997707 -0.8442093 -0.6617445 -0.56102145
-0.3934179 0.06851625 -0.31241348 0.43301794 -0.2942634 -0.30074394 0.16912326 -0.091243185
-0.87478554 -0.44294453 -0.6045961 -1.046225 -1.2177074 -0.22772421 -0.12724122 -0.37684476
00000000: 6c6f 54bf 9757 b9bc 57f0 71bf a04c 53be
00000010: faa3 19bf 4c14 fbbe b399 f13d b66f 80bf
00000020: 9fad 2ebe 4350 25bf c4ae 8ebf 6e68 0a3c
00000030: cf44 12bd 4a79 47bf 156e cc3d 0f66 7cbe
00000040: 07c5 09bf f6c5 56be 66f8 be3e c4b6 d4be
00000050: b349 873d 2ae5 08bf d0e5 ecbe 552c 44bf
00000060: 5ef7 c43e 7f85 5bbf 5cdc a9be 1030 bfbe
00000070: 488c 1abf 8fd9 2abf d086 3fbf 6322 45bf
00000080: c40c efbe ca8b 11bf 8a63 9ebe 8ba0 2fbf
00000090: 2cfc a2be f0a0 0cbc d531 6f3d 68e6 eebe
000000a0: 4d9f 2bbf ffdf 29bf 7606 83bf 07e6 2f3e
000000b0: f0c7 18bf 64ee 2ebf 8fc3 bbbe 4b75 ca3e
000000c0: a37e 79bf 459f cfbe ac0e 213e b5c3 81be
000000d0: 407b c0bd 2c1a af3d 0bb1 18bf bc86 a5be
000000e0: 8df3 72be d33f 63bf 280b ffbe 55b1 9abe
000000f0: be28 34bf eadf 733e e1d0 a1bf 20f3 29be
00000100: 5012 dbbd 570e 05bd df0c 8abe aa7c 43be
00000110: a418 bbbe dddc 86bf 41d2 55bf af29 603d
00000120: 2ca0 e4be 4cb6 1fbe 2516 5fbe 4124 19bf
00000130: 8d81 14bf 2c67 89be fce5 3bbe 4e96 a9be
00000140: fc7e 05bf 2601 10bf 80e4 c7bd 52b7 d5be
00000150: e122 25bf e240 2fbf 9e50 19bf 0d5c cfbe
00000160: 7cf4 6ebf d648 993e dbd9 ccbe 59e1 633e
00000170: 7735 f0be f1e4 86bf bf8c 1ebf 38f2 0abf
00000180: 8a21 0cbf 8364 05bf 1d78 d2bd 838f 3dbe
00000190: 6cbb a0be 9a02 f6be 3ac7 1c3f 7eb3 aebe
000001a0: 6882 18bf 7dee 19bf f0bd 83bf e3bd 9dbf
000001b0: 6c15 83bf e9cb 1cbf 565c 90be c587 c9be
000001c0: fdd5 1abf 4339 3b3e e821 cbbe e5db 6fbe
000001d0: d32a 80be d4a6 34bf 0074 3cbe 2bb8 97bf
000001e0: 5dad fcbe b069 0bbf 5642 e0be 00fe 12bf
000001f0: 7d96 2cbd 4e63 58bf ff19 a9be 340a 09bf
00000200: 1185 5abf 5a30 1dbe 42d0 34bf f680 41be
00000210: 76d8 4fbf e607 13bf ed62 acbe b15b 35bf
00000220: 82cc 12bf 9e7b 2cbf 4afc 9fbf 7639 d4be
00000230: 6813 0cbf 7c62 37bf 5612 95be cf79 3dbf
00000240: f6cb 66bf a52c 1cbf 5bbe 2dbf 2d77 773e
00000250: 7155 82bf 4228 69be b853 0dbf bf91 e3be
00000260: 1e61 49bf 11ae 73bf d949 a0bd 7d30 21bf
00000270: 77f5 85bf cfd3 93be 0f9b b8be 9cbd 86bc
00000280: 25f2 083e 6cf7 52be 454a 72bf e219 d1be
00000290: 6b8f cdbe d517 39bf 18b3 34bf bd04 83bf
000002a0: e21c 7cbf 0ed5 82be a77f 4cbf 08cb 46be
000002b0: dc00 17bf 883b 4fbf 71db d8be d18c 50bf
000002c0: 2b61 31bf fee4 29be 2fb8 86be eac3 5abe
000002d0: c6bd 4cbf 1a1e 58bf 1668 29bf 1a9f 0fbf
000002e0: 126e c9be 3f52 8c3d a9f4 9fbe 87b4 dd3e
000002f0: b1a9 96be 1cfb 99be a62e 2d3e b5dd babd
00000300: f2f1 5fbf a0c9 e2be cfc6 1abf b3ea 85bf
00000310: d6dd 9bbf 8930 69be 864b 02be ccf1 c0be

fc2.weight f4 [300, 200]
-0.02739501 -0.4864855 0.17893146 -0.45382574 0.3652362 0.5461226 0.025642246 -0.11565265
-0.933453 0.026281549 0.8332098 -0.15258522 0.6969898 -0.54969907 -0.044776835 0.36805028
0.075822555 -0.47756252 -0.45040414 -0.4840851 0.6050833 -0.32031944 0.011777628 -0.13237438
0.22986616 -0.044774257 0.34777382 -0.05110341 0.05641166 0.0016734728 0.42281044 0.13077334
-0.30545673 0.0033699167 0.14007469 0.6150379 -0.09008241 -1.0180368 -0.354983 0.19668554
0.31343034 -0.2742024 -0.024892505 -1.0424514 0.62204105 -0.6214917 0.463058 -1.1175312
0.5858829 0.062358357 -0.23746444 -0.37773785 -0.32709676 -0.09888228 0.47401845 -0.13103661
-0.6936927 0.22822826 -0.72852796 0.09732824 0.4181443 0.12677945 0.12373515 -0.06082735
-0.29520008 0.19403233 -0.61208636 0.59935313 -0.24471702 0.04080698 0.1491446 0.7055998
-0.05110993 -1.025542 0.2311524 -0.1844624 0.5089088 -0.62950337 0.08998628 -0.78285176
-0.2312825 0.09221796 0.22034068 -0.3290668 -0.3683802 -0.5050273 0.16068281 0.38733163
0.48732486 -0.6769291 -0.447978 0.18060158 -0.23107772 -0.60764146 0.20205875 -0.17187496
-0.5263412 0.23056164 0.1002047 -0.6407591 -0.2090088 0.34039536 0.3062254 -0.07391701
-0.22066358 0.22895683 0.6554815 -0.02117752 0.33067864 -0.62902975 -0.8250602 -0.42011705
-0.6930395 0.49079078 -1.047321 -0.27843255 0.087363146 -0.81982553 0.43149996 -0.012826599
0.5490393 0.01862284 0.052524164 -0.3887463 -0.87700117 0.5427553 -0.023888355 -0.29107356
-0.55622435 -0.8314556 -0.34120232 0.073981404 0.15500924 0.41655067 -0.1532162 0.20638604
-0.08674475 0.09055761 0.2555209 -0.16993847 -1.0553273 -0.38548478 0.14745513 -0.48128965
0.032313533 0.23803525 -0.2872405 -0.23633116 0.7329845 0.16818984 0.1557472 0.01176865
-0.007004978 -0.068400554 0.2895445 0.06142958 0.45699173 0.328832 -0.4046088 0.33247164
-0.36783034 -0.08208012 -0.57624876 -0.15961401 -0.56534827 -0.50770336 -0.52818525 0.11430184
-0.8848249 -0.0027039535 -0.37430394 -0.17340654 0.30705038 0.7782667 0.7408545 0.14068592
-0.40556198 0.6803005 0.09920943 0.44275427 -0.46466208 -0.37085298 0.14964977 -0.39555675
0.4024922 0.0938987 0.4604705 0.1701142 -0.56095135 -0.42315292 -0.3433072 0.43058777
-0.371622 0.009436875 0.038235553 0.34010708 -0.50461936 0.5607824 0.020269498 0.23841158
-0.25278983 -0.7652612 -0.7972903 0.16492887 -0.0025092734 0.40866083 -0.60892427 -0.18969035
0.031763777 -0.8107088 -0.1381859 -0.32430995 0.3453249 -0.445738 0.2509327 -0.5539982
0.5489811 0.14991081 -0.25300172 -0.08632041 0.031473335 -0.40428138 -1.0117931 -0.4031277
0.8779403 0.041810177 0.04968249 0.39203918 -0.07796821 -0.22217521 -0.059924304 -0.16764945
-0.32050657 -0.50300205 -0.7984418 -0.5454284 -0.5379693 -1.2508965 0.18347944 0.40622476
-0.08213438 -0.5008288 -0.24662277 -0.49628904 -0.38682884 0.21640301 0.3507795 0.20644867
0.33382586 -0.058790367 -0.3923003 -0.57174104 -0.45608887 -0.40520754 0.5666881 0.14893216
00000000: 806b e0bc a114 f9be cf39 373e d95b e8be
00000010: 3d00 bb3e b1ce 0b3f b00f d23c 4cdb ecbd
00000020: c7f6 6ebf 674c d73c 3d4d 553f 4d3f 1cbe
00000030: ec6d 323f 14b9 0cbf ea67 37bd 1671 bc3e
00000040: db48 9b3d 1383 f4be 5f9b e6be 01da f7be
00000050: bde6 1a3f e900 a4be f4f6 403c 268d 07be
00000060: 0962 6b3e 3665 37bd 690f b23e cf51 51bd
00000070: ea0f 673d 6e58 db3a 9c7a d83e 72e9 053e
00000080: d364 9cbe d2d9 5c3b bd6f 0f3e 2073 1d3f
00000090: 207d b8bd 084f 82bf 55c0 b5be ef67 493e
000000a0: f179 a03e 4264 8cbe 5eeb cbbc 0c6f 85bf
000000b0: 153e 1f3f 141a 1fbf f015 ed3e 430b 8fbf
000000c0: 6cfc 153f 7a6b 7f3d e129 73be db66 c1be
000000d0: 3a79 a7be cb82 cabd 8cb2 f23e 762e 06be
000000e0: d895 31bf abb4 693e cf80 3abf 0754 c73d
000000f0: 0217 d63e 79d2 013e db68 fd3d 1926 79bd
00000100: 7724 97be 69b0 463e b1b1 1cbf 356f 193f
00000110: 1997 7abe 3825 273d 5db9 183e 30a2 343f
00000120: a558 51bd f644 83bf 37b3 6c3e b6e3 3cbe
00000130: d947 023f 2227 21bf ba4a b83d f968 48bf
00000140: 52d5 6cbe c5dc bc3d fda0 613e 727b a8be
00000150: 549c bcbe 7849 01bf 098a 243e 5550 c63e
00000160: a582 f93e 3a4b 2dbf 5f5d e5be 9fef 383e
00000170: a39f 6cbe 648e 1bbf 7de8 4e3e fdff 2fbe
00000180: 4cbe 06bf 5a18 6c3e 1f38 cd3d ca08 24bf
00000190: 6706 56be 4d48 ae3e 93c9 9c3e cd61 97bd
000001a0: a2f5 61be a973 6a3e a3cd 273f 7a7c adbc
000001b0: b64e a93e 1808 21bf 2537 53bf 9519 d7be
000001c0: 096b 31bf ee48 fb3e 9d0e 86bf b68e 8ebe
000001d0: 73eb b23d 16e0 51bf 90ed dc3e a826 52bc
000001e0: d78d 0c3f ed8e 983c 9423 573d c109 c7be
000001f0: 2683 60bf 03f2 0a3f 83b1 c3bc 9807 95be
00000200: b864 0ebf 46da 54bf 12b2 aebe 9083 973d
00000210: beba 1e3e 2146 d53e b5e4 1cbe dd56 533e
00000220: 3ba7 b1bd 4576 b93d a3d3 823e 5a04 2ebe
00000230: f714 87bf 435e c5be 7afe 163e 996b f6be
00000240: 325b 043d 83bf 733e 3011 93be cc00 72be
00000250: dfa4 3b3f f539 2c3e 327c 1f3e 4cd1 403c
00000260: 048a e5bb 9715 8cbd 2d3f 943e 959d 7b3d
00000270: d2fa e93e ab5c a83e e228 cfbe b939 aa3e
00000280: 4254 bcbe 9f19 a8bd 0a85 13bf db71 23be
00000290: aaba 10bf d9f8 01bf 2637 07bf 1517 ea3d
000002a0: e283 62bf d034 31bb c4a4 bfbe 7c91 31be
000002b0: b535 9d3e 7d3c 473f a4a8 3d3f f80f 103e
000002c0: d2a5 cfbe 2c28 2e3f 502e cb3d b0b0 e23e
000002d0: 30e8 edbe 71e0 bdbe ca3d 193e 6a86 cabe
000002e0: 7513 ce3e f64d c03d cac2 eb3e 6b32 2e3e
000002f0: 829a 0fbf 80a7 d8be f6c5 afbe 0076 dc3e
00000300: 3d45 bebe 1f9d 1a3c e29c 1c3d 8422 ae3e
00000310: bc2e 01bf 6f8f 0f3f 380c a63c 2a22 743e
00000320: ab6d 81be 28e8 43bf 381b 4cbf 1de3 283e
00000330: 9f72 24bb fe3b d13e 76e2 1bbf 303e 42be
00000340: bc1a 023d 9d8a 4fbf 9b80 0dbe f40b a6be
00000350: 6dce b03e c537 e4be 407a 803e d3d2 0dbf
00000360: 068a 0c3f 3882 193e 7189 81be c1c8 b0bd
00000370: 2fea 003d f8fd cebe 7082 81bf c166 cebe
00000380: b2c0 603f 2641 2b3d de7f 4b3d 5cb9 c83e
00000390: ccad 9fbd e681 63be 3073 75bd 4cac 2bbe
000003a0: 7019 a4be bec4 00bf af66 4cbf 32a1 0bbf
000003b0: 5bb8 09bf 601d a0bf 09e2 3b3e b1fc cf3e
000003c0: 1236 a8bd 5136 00bf ae8a 7cbe 9919 febe
000003d0: 6e0e c6be c098 5d3e 5f99 b33e 4867 533e
000003e0: 39eb aa3e 2bce 70bd 96db c8be 9f5d 12bf
000003f0: 7b84 e9be 5d77 cfbe 7912 113f ac81 183e

fc2.bias f4 [300]
0.122030064 0.012205627 -0.051767796 0.14988954 -0.09717675 -0.0116214985 -0.102117054 -0.32961765
-0.49149683 -0.3475703 -0.48211592 0.040870514 0.063614964 0.026166096 -0.012407454 0.30239052
-0.55455816 -0.9108478 -0.08244326 0.03480549 -0.29593804 0.4123896 -0.3353011 -0.2794843
-0.37941635 -0.18855114 0.06461362 -0.40114716 -0.3900751 -0.16341373 -0.13356256 -0.025397273
0.05758576 -0.048829887 -0.147888 0.17612407 -0.3272924 0.27178308 0.44418988 0.09706419
0.28873095 0.10773851 0.090273224 -0.009650198 -0.1705636 0.36602074 -0.11721704 0.42064342
0.0926616 0.47916734 -0.63610256 0.11130765 -0.2941994 -0.07355815 -0.86122704 -0.021443788
-0.13674912 0.07382262 -0.040513773 -0.019662565 -0.45207793 -0.43129605 -0.36568853 -0.2010745
-0.094344646 0.26753426 -0.49374327 -0.06775342 -0.033057272 -0.4132864 -0.2911273 -0.1647966
-0.13569246 -0.0072404793 -0.35853487 -0.27150488 -0.9020458 -0.48254418 -0.004724598 -0.74854064
0.08947691 -0.110430986 -0.16986863 0.023465354 -0.17638722 0.17119472 -0.31854916 -0.18753341
-0.4597658 -0.49901986 -0.18016273 -0.20845592 -0.068721324 -0.18121867 0.116815135 -0.034439128
0.19751146 0.29206973 0.42444232 -0.34218934 -0.20767479 -0.4824838 0.069365464 -0.56705564
0.20058063 -0.21637848 -0.3678035 -0.15282811 -0.14505816 -0.24510653 -0.2975133 -0.18862806
-0.299502 -0.3437153 -0.41164058 -0.12343454 -0.10648798 0.024653137 -0.2573441 -0.39542946
-0.24572425 -0.24485521 -0.4876302 0.12553774 0.21212013 -0.49872914 -0.29670906 0.13374688
-0.33882558 0.01837094 -0.3126949 -0.30778834 -0.08739955 -0.47857624 -0.57702535 0.15769452
-0.36503285 0.11268384 0.06549075 -0.023255724 0.030897643 0.08527073 -0.3309108 -0.57614475
-0.78264844 0.51313436 0.14813817 -0.37031803 -0.20778224 -0.027999468 -0.24239047 -0.24751483
-0.16104524 -0.14800684 0.083191775 -0.7917055 -0.7157863 -0.0526795 0.08492608 -0.18948251
0.18207455 -0.3681193 0.06651764 -0.24747245 0.07155158 -0.29572678 0.41333514 0.30730185
0.0092186 0.045275044 -0.2717352 -0.48616043 -0.65957385 -0.25530523 -0.2850497 -0.5658723
-0.34836376 0.015156747 -0.6308865 0.35283297 0.16276908 -0.08621604 -0.47725424 -0.15041195
-1.0399076 -0.30597472 0.013421679 -0.0042782826 0.12598202 -0.357984 0.05865357 -0.056863144
-0.16585852 0.08824676 -0.46707338 0.3863463 -0.34049028 -0.46321106 -0.68343186 -0.9380536
-0.46662533 -0.3613132 0.029360846 -0.26435548 -0.2830111 -0.6179594 0.027053773 -0.45063922
-0.24672568 -0.51370454 0.1422077 -0.06844633 0.2852778 -0.27907807 0.03457729 -0.21180026
0.1828824 -0.4358012 -0.31565103 -0.24578254 0.25310656 -0.10920511 -0.21502191 -0.23464432
-0.17405136 -0.53119963 -0.07666705 -0.38385767 0.12270811 -0.22295655 -0.25119027 -0.318012
-0.34415963 -0.23590109 0.18798989 0.24191159 -0.5270463 0.009291718 -0.101776436 -0.0779934
-0.72895867 0.31465605 -0.17366815 -0.4756058 0.024100807 -0.0682962 -0.30478457 -0.0966827
-0.33983812 0.47794047 -0.6260246 -0.37527162 -0.4056956 -0.46367484 -0.24373652 0.0349188
00000000: e6ea f93d 1cfa 473c 780a 54bd a57c 193e
00000010: 9b04 c7bd 1968 3ebc bf22 d1bd a5c3 a8be
00000020: 79a5 fbbe bcf4 b1be e6d7 f6be d767 273d
00000030: 9048 823d 485a d63c a248 4bbc eed2 9a3e
00000040: 86f7 0dbf 522d 69bf 03d8 a8bd 3490 0e3d
00000050: 3185 97be bb24 d33e 96ac abbe 9118 8fbe
00000060: dc42 c2be 8d13 41be 2554 843d 2963 cdbe
00000070: ecb7 c7be ee55 27be a0c4 08be f10d d0bc
00000080: 0cdf 6b3d d901 48bd f46f 17be de59 343e
00000090: df92 a7be 2727 8b3e db6c e33e 97c9 c63d
000000a0: 8bd4 933e 02a6 dc3d 2be1 b83d dd1b 1ebc
000000b0: 39a8 2ebe 1267 bb3e 7d0f f0bd 935e d73e
000000c0: 5dc5 bd3d 6c55 f53e 9ed7 22bf 44f5 e33d
000000d0: 4ea1 96be a8a5 96bd 6079 5cbf e2aa afbc
000000e0: f607 0cbe 5030 973d c5f1 25bd 6313 a1bc
000000f0: c276 e7be d6d2 dcbe 873b bbbe 79e6 4dbe
00000100: c437 c1bd 40fa 883e ebcb fcbe 4ec2 8abd
00000110: 1067 07bd 469a d3be a30e 95be 71c0 28be
00000120: f7f2 0abe 8b41 edbb e291 b7be b002 8bbe
00000130: 79ec 66bf 0810 f7be cdd0 9abb 5ca0 3fbf
00000140: ac3f b73d a429 e2bd 0bf2 2dbe 6a3a c03c
00000150: da9e 34be ab4d 2f3e e018 a3be c208 40be
00000160: 6c66 ebbe 887f ffbe 947c 38be 7875 55be
00000170: c4bd 8cbd 6391 39be c63c ef3d 0b10 0dbd
00000180: 7240 4a3e 2a8a 953e 8150 d93e 7133 afbe
00000190: b3a8 54be 1e08 f7be 7b0f 8e3d 8f2a 11bf
000001a0: 0265 4d3e 5292 5dbe be50 bcbe f97e 1cbe
000001b0: 208a 14be 35fd 7abe aa53 98be b727 41be
000001c0: 5358 99be 74fb afbe 8ec2 d2be 40cb fcbd
000001d0: 5f16 dabd 60f5 c93c 9bc2 83be bb75 cabe
000001e0: 239f 7bbe 53bb 7abe aaaa f9be f78c 003e
000001f0: 0536 593e 6d59 ffbe 40ea 97be f1f4 083e
00000200: 8c7a adbe a77e 963c 8c19 a0be 6f96 9dbe
00000210: 89fe b2bd f207 f5be efb7 13bf ac7a 213e
00000220: 96e5 babe c9c6 e63d 0420 863d ca82 bebc
00000230: 0e1d fd3c 6ca2 ae3d 246d a9be 397e 13bf
00000240: a65b 48bf c65c 033f 88b1 173e 539a bdbe
00000250: dec4 54be 245f e5bc 3535 78be 8774 7dbe
00000260: 0be9 24be 1b8f 17be 7360 aa3d 36ad 4abf
00000270: c53d 37bf 76c6 57bd baed ad3d b407 42be
00000280: c071 3a3e 227a bcbe 673a 883d 6b69 7dbe
00000290: a389 923d 8069 97be aaa0 d33e ab56 9d3e
000002a0: 9c09 173c 5372 393d e020 8bbe 05ea f8be
000002b0: d5d9 28bf 5eb7 82be 09f2 91be 02dd 10bf
000002c0: bc5c b2be 0154 783c c781 21bf 86a6 b43e
000002d0: f0ac 263e 0992 b0bd ab5a f4be 9705 1abe
000002e0: b11b 85bf b8a8 9cbe 9ae6 5b3c d630 8cbb
000002f0: 6e01 013e ae49 b7be ba3e 703d 54e9 68bd
00000300: d1d6 29be b8ba b43d 3e24 efbe 2fcf c53e
00000310: be54 aebe 002a edbe 64f5 2ebf 4824 70bf
00000320: 84e9 eebe 0bfe b8be 2886 f03c 9a59 87be
00000330: d5e6 90be 9632 1ebf e09f dd3c 2fba e6be
00000340: a8a5 7cbe 2482 03bf e59e 113e 972d 8cbd
00000350: ef0f 923e 52e3 8ebe eba0 0d3d 2be2 58be
00000360: 8645 3b3e 5621 dfbe 039d a1be 6bae 7bbe
00000370: 2f97 813e eea6 dfbd b42e 5cbe 9a46 70be
00000380: 853a 32be b3fc 07bf 9d03 9dbd fe88 c4be
00000390: 644e fb3d b94e 64be 039c 80be 78d2 a2be
000003a0: b135 b0be 0e90 71be 6c80 403e acb7 773e
000003b0: 82ec 06bf 4a3c 183c 2a70 d0bd 01bb 9fbd
000003c0: 099d 3abf 991a a13e 10d6 31be 9a82 f3be
000003d0: 0e6f c53c e1de 8bbd b90c 9cbe 9401 c6bd
000003e0: 43ff adbe 9db4 f43e 2643 20bf 9a23 c0be
000003f0: 55b7 cfbe ca66 edbe 1196 79be 0407 0f3d

fc3.weight f4 [4, 300]
-0.037077155 0.5810519 -0.024760066 0.05249261 -1.3990022 -0.3260685 -0.39905688 -0.047468673
-0.009259429 0.4012227 -0.16749571 0.37987554 0.8145091 -0.25085244 -0.0374252 -1.1273226
0.25870752 0.0024759937 -1.0775428 -0.2638415 -0.008734688 0.41299623 0.42630765 0.75312424
-0.35249916 -0.08400922 -1.1906422 -0.38983265 0.38038167 -0.19484478 -0.2186742 0.68732953
-0.2864322 0.62838787 0.7230402 0.3380529 0.22454265 -0.4546482 -0.14764288 0.4925334
-0.21951732 0.83498055 1.1258712 0.7289625 0.31604782 -0.33513808 -0.20496203 0.28096917
-0.9805768 -0.4525664 -0.12374383 -0.045526456 -0.10070022 0.2254181 -0.1750066 -0.8130421
-0.7314527 -0.71726024 0.24814683 -0.29851678 0.5247572 -0.4144203 -0.48521894 0.29456088
1.3110837 -0.2185236 0.2667075 1.3526934 0.8582538 0.89281625 1.0141369 -0.021734696
0.24266292 1.4075509 -0.005376334 0.4768823 -0.02766449 0.55101633 -0.14805877 0.17869514
0.82372093 -0.19683999 -1.1835055 -0.24442063 0.32861277 -0.5477901 0.45908624 -0.4310584
0.31139067 0.49881893 0.29098126 0.43113622 -0.3058822 -0.7527017 -0.58869106 0.8332315
-0.4936748 -0.36911732 0.17505592 0.7164922 -0.11464964 -1.1166624 -0.14411065 0.91785073
-1.0833668 0.38215655 0.8061882 -0.43158817 0.415748 0.37360293 0.30888134 -0.5678141
0.47097906 0.19075692 0.10198197 0.57654643 -0.28748626 -0.100446604 0.7909408 -0.006539359
0.5264622 -0.3812126 -0.022211386 -0.6434549 0.16106993 0.5228104 -0.14993499 -0.016777636
0.4817544 0.22033367 0.118646696 0.8393899 -0.16544104 -0.15710896 0.31725654 0.35588828
-0.07772074 -0.0495534 0.2554781 1.012373 -0.14084063 -0.87183845 0.38923198 0.36160222
-0.30432084 0.2316218 0.5612904 0.65417475 -0.3359455 -0.84399205 0.43118003 1.0503554
0.44261712 -0.09382921 0.045306563 0.04419297 -0.113176376 0.35771096 1.1362762 -0.2907994
-0.021039559 0.08097456 -0.3941299 0.047605537 0.3381526 0.30127275 0.08180354 -0.20236987
-0.3494043 0.33419332 -0.6162796 0.29579666 1.0133367 0.67294455 0.24967404 0.034269225
0.07534187 -0.6274405 -0.1423441 0.1632261 -0.37637454 0.21269736 -0.07456048 -0.21217105
-0.5955463 0.728728 -0.15383364 0.39535326 -0.37410766 0.12987901 0.8029584 0.97318894
-0.14385353 -0.31254527 0.2919972 0.014687488 -0.076219395 -0.3671946 -0.29046082 -0.01890322
-0.19543481 -0.24481 0.28118405 0.44921827 -0.17825201 0.3557053 0.5046058 1.0021546
-0.30029786 0.15040727 0.5741846 0.08920991 0.93981475 -0.04812286 -0.4796391 0.009310844
0.49684945 -0.14064802 0.4354229 -0.023283742 0.4299103 0.12091603 0.2596815 -0.14883542
0.6209016 -0.108960725 0.063117795 -0.5563578 -0.13175717 -0.39432442 -0.004317033 0.30068722
0.5097537 -0.26152554 -1.4175414 0.80703187 -0.65021443 0.39579245 -0.12155469 0.06945176
0.45987728 -0.6313729 0.55722433 0.28891572 0.99401903 0.898229 0.0044643134 0.014573419
0.040287804 0.04143064 -0.15589802 0.22247966 0.18263896 0.8240168 -0.5727464 -0.45348978
00000000: 37de 17bd d1bf 143f 9fd5 cabc 7e02 573d
00000010: 8112 b3bf 73f2 a6be 2f51 ccbe 836e 42bd
00000020: dcb4 17bc 106d cd3e ff83 2bbe 0c7f c23e
00000030: ab83 503f bb6f 80be 2b4b 19bd 1b4c 90bf
00000040: 5075 843e 4844 223b ecec 89bf 3c16 87be
00000050: f01b 0fbc 3e74 d33e ff44 da3e c0cc 403f
00000060: c57a b4be 070d acbd f766 98bf 2598 c7be
00000070: 63c1 c23e 6485 47be 21ec 5fbe d4f4 2f3f
00000080: 3ea7 92be 07de 203f 2a19 393f 4515 ad3e
00000090: 82ee 653e a6c7 e8be b22f 17be 562d fc3e
000000a0: 26c9 60be 49c1 553f 8c1c 903f 499d 3a3f
000000b0: 05d1 a13e 3897 abbe 91e1 51be 31db 8f3e
000000c0: 1507 7bbf c8b6 e7be 686d fdbd f379 3abd
000000d0: eb3b cebd 01d4 663e ee34 33be 8723 50bf
000000e0: 7c40 3bbf 5e9e 37bf 341a 7e3e 31d7 98be
000000f0: 7d56 063f e62e d4be 9e6e f8be afd0 963e
00000100: 97d1 a73f a7c4 5fbe e38d 883e 0f25 ad3f
00000110: 85b6 5b3f 9b8f 643f 3dcf 813f f60c b2bc
00000120: a17c 783e a12a b43f f52b b0bb eb29 f43e
00000130: a4a0 e2bc 680f 0d3f b89c 17be dcfb 363e
00000140: 60df 523f 6c90 49be 1c7d 97bf 6749 7abe
00000150: ef3f a83e f93b 0cbf 5a0d eb3e b0b3 dcbe
00000160: 996e 9f3e 3265 ff3e 7ffb 943e e3bd dc3e
00000170: 979c 9cbe 0fb1 40bf 75b4 16bf a94e 553f
00000180: f2c2 fcbe f2fc bcbe dc41 333e 086c 373f
00000190: 6ecd eabd cbee 8ebf be91 13be 44f8 6a3f
000001a0: c3ab 8abf 06aa c33e 5a62 4e3f 20f9 dcbe
000001b0: ecdc d43e e248 bf3e b225 9e3e 445c 11bf
000001c0: 2b24 f13e c855 433e ecdb d03d 8c98 133f
000001d0: 6631 93be f3b6 cdbd 197b 4a3f 1f48 d6bb
000001e0: 3ac6 063f 4c2e c3be a7f4 b5bc 76b9 24bf
000001f0: 84ef 243e e7d6 053f 8f88 19be 4171 89bc
00000200: 83a8 f63e 269f 613e 0afd f23d 42e2 563f
00000210: 6069 29be 2ce1 20be 736f a23e fd36 b63e
00000220: 0d2c 9fbd 82f8 4abd 07ce 823e 7095 813f
00000230: 8738 10be ce30 5fbf 6a49 c73e ed23 b93e
00000240: f1cf 9bbe 442e 6d3e bab0 0f3f ff77 273f
00000250: 0c01 acbe dd0f 58bf a1c3 dc3e 0c72 863f
00000260: b69e e23e 8729 c0bd 6093 393d b003 353d
00000270: 04c9 e7bd e425 b73e 8071 913f a9e3 94be
00000280: 275b acbc fdd5 a53d 65cb c9be 06fe 423d
00000290: 5622 ad3e 6c40 9a3e 9d88 a73d 0c3a 4fbe
000002a0: 1fe5 b2be 631b ab3e 80c4 1dbf a972 973e
000002b0: 04b5 813f 1846 2c3f 8daa 7f3e e35d 0c3d
000002c0: d74c 9a3d f19f 20bf a7c2 11be be24 273e
000002d0: 2ab4 c0be 56cd 593e 2ab3 98bd 5e43 59be
000002e0: b975 18bf eb8d 3a3f 9186 1dbe be6b ca3e
000002f0: 0a8b bfbe 01ff 043e af8e 4d3f e922 793f
00000300: 574e 13be ef05 a0be a880 953e caa3 703c
00000310: ea18 9cbd ee00 bcbe 48b7 94be edda 9abc
00000320: 1020 48be 79af 7abe 5bf7 8f3e f0ff e53e
00000330: b287 36be 011f b63e d92d 013f 9a46 803f
00000340: a4c0 99be 5d04 1a3e c3fd 123f afb3 b63d
00000350: b397 703f 7a1c 45bd 4293 f5be 838c 183c
00000360: 0d63 fe3e 0906 10be c0ef de3e 8cbd bebc
00000370: 341d dc3e d3a2 f73d f9f4 843e 5068 18be
00000380: 68f3 1e3f cd26 dfbd e743 813d 776d 0ebf
00000390: 5aeb 06be e4e4 c9be e675 8dbb adf3 993e
000003a0: 387f 023f ade6 85be ff71 b5bf a499 4e3f
000003b0: 7474 26bf 4fa5 ca3e aaf1 f8bd b93c 8e3d
000003c0: 0975 eb3e a8a1 21bf 41a6 0e3f c3ec 933e
000003d0: 0878 7e3f 56f2 653f 6049 923b 59c5 6e3c
000003e0: d304 253d 2db3 293d bba3 1fbe b5d1 633e
000003f0: b505 3b3e c4f2 523f 829f 12bf d02f e8be

fc3.bias f4 [4]
-0.03522157 0.29954872 -0.13589032 -0.45854774
00000000: 7e44 10bd 735e 993e d526 0bbe c5c6 eabe
