experiments/exp1/models/checkpoint_critic_2.pth (torch_old, 279240 bytes, 9 tensors)

fc1.weight f4 [200, 33]
00000000: 02a2 e03c 8172 263d b7fb ef3c a656 c9bd
00000010: 1e0f f0bc f28f 92be 404e 0abe 4496 283d
00000020: 97e6 d7bc c208 cbbb d035 4abc 0389 d03c
00000030: f556 2838 75c8 393b 5cd8 0dbc 6436 74bd
00000040: 1f60 b0bd aa66 48be fcc5 85bd 4925 49bd
00000050: 8104 0d39 e8d8 3b3b 4d5d e13c 947d 293d
00000060: dd82 583c 5a12 73bc d83a 4d3d b48a a93d
00000070: c28d c83d 80d1 68bc 2b50 49bd 8804 e03c
00000080: b54c 73be 162d f2bd d5bb 5d3d 0b49 c53d
00000090: 06d6 553c ccb2 dd3d 8a35 58bd 3da8 77be
000000a0: 6fdb a33c a657 153c da19 15bc ba72 65bc
000000b0: a78d 80ba 865e b13c 6ef1 e23d 96fb 50bc
000000c0: 4bec 84bd e832 aebd 1e4a f63c 4695 173b
000000d0: a691 193d 6168 a9bb 12f4 64bb 4003 3abc
000000e0: 23b6 783c 57f0 3ebb 5f9a dabc ae96 71bd
000000f0: fcac 6b3d e4e9 333d 5953 843d efe6 f4bd
00000100: eebc d0bc 605d 66be 2c47 e4bc aeff 4fbb
00000110: 3d30 623c 2514 e43c 3e78 87be 0913 aebd
00000120: 7566 05be 86aa f6bb f46d 5f3d 7b50 b5bc
00000130: 99a3 0fbc f149 33bc 3d3a 953b 64bb c33b
00000140: 6df2 4a3c b871 a53c df08 6e3e cc54 37be
00000150: 95c5 85bd f3b7 5cbe 8bd6 403b 47a1 22bc
00000160: ae17 d0bb d129 01bc 187d b2bb a5e3 1cbc
00000170: 0234 293c 0aa8 93bc 7c15 8ebc f6ab a0bc
00000180: 4e36 563d 24e4 80bd 824e c3be a371 b43b
00000190: fd32 b4bc b5b1 18bd f1a1 cfbd 5aeb 8d3d
000001a0: f911 01be ea20 d33d 21b9 55bc 8e62 88bd
000001b0: 8ffe 8ebc e8f0 81bb daaa c2bb 502f febb
000001c0: dbaf fabc 84b5 633c 95b5 f3bb c69d e93c
000001d0: 6570 aabc 1223 1bbd e725 05bd 2519 343a
000001e0: 8c42 a5bb 25e3 a43c d03c 05bc 03d5 d7ba
000001f0: a910 2f3b 80e0 6d3d 63c3 a33d 79b0 4a3d
00000200: 63c0 38bd a3ec 28bd d05b 703c 5e9f 17bf
00000210: f5c4 c23c 877e f63d 04e1 af3d 9e6d 403d
00000220: 07e1 09bd cdd0 c23d 763c 48bd 892f 38bc
00000230: fe59 01bd 93b0 9abd 749c 923c cbf9 9e3d
00000240: 9175 6b3d 0c98 7cbd 8999 fc3d 546d 6f3c
00000250: 0722 afbd 7cc9 5abd 4329 453d d895 4fbd
00000260: a11c 48bd c8a2 463d f430 60bd 6709 6bbd
00000270: feb5 923d e583 203d eaa5 813d 1b5a 4abd
00000280: 17ed 053d 80e6 903b d4b0 ffba a0ec 1ebc
00000290: cf5e b2bc bc5a c43d 9b6d 633d 301c 763d
000002a0: e006 c73d 85d0 20bd 8cbc 593d eee1 bf3d
000002b0: fc9a 683d 6c5a 9c3c c774 283b 6322 a43d
000002c0: 01a5 b93c d65b e63c f980 9dbb c95f 98bc
000002d0: ac85 9ebc ec5a 1a3e 8a78 39bc c4ec 4fbe
000002e0: e83d 193e c374 153d 6b1e b33c bf0a 89bd
000002f0: fa92 9c3c df33 e5bc b34c acbc 10ff 5abd
00000300: 478e 9ebd a432 25bd 8892 3a3d ceef 15bd
00000310: 3a36 ffbc 5b96 d03e d22f 47bd 5205 33bb
00000320: 35ae e93c 345e a4bd ca48 153d 5ee5 31be
00000330: 3f40 443d 60b6 3b3c 8887 77bd c3fe edbc
00000340: b1fe 3d3c bc65 29bc 1933 18bd d0b0 abbb
00000350: 1519 2a3b 5d52 0d3d d314 f23d 0f45 8f3c
00000360: c4ce b5be 3888 3e3a 484c 86bc 4389 d73c
00000370: 755d 7e3c f74f b23c f1a4 21bc 74fa d5bc
00000380: 72df 553d e41b b03d 72c8 b1bd d8a8 1d3c
00000390: 9a6b abbd 0895 17bc 80b2 b4be 3604 8bbd
000003a0: a60f efbc 626b 953c 01dd 133d 7819 8e3e
000003b0: 6116 483e 6626 18be 2f2d d73c 969c 793d
000003c0: 5132 203c 7b9d d83a 1874 8abc 818f d1bc
000003d0: ef84 b53c d6a5 1c3d aa21 41bc d58a 6a3d
000003e0: d298 87bd c2b6 6e3e e1b6 7f3d 812f c0bc
000003f0: 7c50 bdbc 8cfc a9bc 41bb 66bb 8fee 4b3c
0.027421001 0.040636543 0.029294832 -0.0983098 -0.029304083 -0.28625447 -0.13506413 0.04115893
-0.026355071 -0.0061961124 -0.012341931 0.025455957 4.0135306e-05 0.0028348241 -0.008657541 -0.059622183
-0.08612084 -0.19570413 -0.06531903 -0.049107824 0.00013448486 0.0028663222 0.02751031 0.041379526
0.013214794 -0.014835918 0.050104946 0.08278409 0.09792663 -0.014210105 -0.04914872 0.02734591
-0.2375973 -0.11825006 0.05413421 0.096330725 0.013051515 0.108251184 -0.052785434 -0.24185272
0.020002095 0.009115135 -0.009100402 -0.014004404 -0.0009807841 0.021651518 0.11081205 -0.012755295
-0.06490382 -0.08505803 0.030064639 0.0023129745 0.037492417 -0.0051699136 -0.0034935516 -0.011353314
0.0151801435 -0.0029134953 -0.026684938 -0.05898159 0.057538018 0.043924227 0.0646121 -0.119581096
-0.025480714 -0.22496557 -0.027865969 -0.003173809 0.013805446 0.027841637 -0.26458925 -0.084997244
-0.13027366 -0.007527652 0.05454822 -0.022133103 -0.008767032 -0.010942922 0.0045540617 0.0059732664
0.0123869 0.020195827 0.23245572 -0.17903441 -0.065318264 -0.21554546 0.0029424753 -0.009926147
-0.006350479 -0.007883505 -0.0054470412 -0.009575759 0.010327341 -0.018024463 -0.017344229 -0.019613247
0.052297883 -0.06293514 -0.38145834 0.0055067106 -0.02199697 -0.03727885 -0.1013831 0.069296554
-0.12604512 0.10309012 -0.013044626 -0.06659423 -0.017455367 -0.003965486 -0.0059407772 -0.007757105
-0.030601433 0.013898257 -0.0074374177 0.028517615 -0.020805547 -0.037875243 -0.03250685 0.0006870202
-0.0050433334 0.020127842 -0.008132175 -0.0016466681 0.002671281 0.058075428 0.079962514 0.049484704
-0.04510535 -0.0412413 0.014670327 -0.5922755 0.023775557 0.12035852 0.0858784 0.04697954
-0.03366187 0.09512482 -0.048885785 -0.011241802 -0.031579964 -0.0755321 0.017896868 0.07762488
0.057485167 -0.06166844 0.12333972 0.014613468 -0.08551412 -0.053414807 0.048135053 -0.05068001
-0.048855428 0.048495084 -0.054734185 -0.057382014 0.071636185 0.039188284 0.06330474 -0.049402338
0.03269681 0.004422009 -0.0019507655 -0.0096999705 -0.021773724 0.09587619 0.05552445 0.060085475
0.09718108 -0.03926136 0.053158328 0.093692645 0.05678843 0.019086085 0.002570437 0.08014371
0.022661688 0.028119963 -0.0048066345 -0.018600361 -0.01935085 0.15073746 -0.011320243 -0.20305163
0.14965022 0.036488306 0.02186509 -0.06691503 0.019113053 -0.027978836 -0.021032667 -0.053465903
-0.07741981 -0.040331498 0.0455499 -0.03660565 -0.031153787 0.40739712 -0.04862959 -0.0027316404
0.028525451 -0.0802578 0.03644637 -0.17372653 0.047912832 0.011457056 -0.060431987 -0.029052144
0.011596368 -0.010339197 -0.037158106 -0.0052395836 0.0025954891 0.034502376 0.11820378 0.017488984
-0.35509312 0.0007268223 -0.016393796 0.026310569 0.015525212 0.021766646 -0.009865985 -0.026120402
0.052215047 0.0859907 -0.0868081 0.009622775 -0.08370133 -0.00925184 -0.35292435 -0.067879125
-0.029182266 0.01823968 0.036099438 0.27753806 0.19539787 -0.14858398 0.026266662 0.060940348
0.009777621 0.0016526425 -0.016901061 -0.025581123 0.022158114 0.03824409 -0.011787811 0.057261307
-0.06620945 0.23311904 0.062430266 -0.023460152 -0.023109667 -0.020750307 -0.0035206827 0.0124470135

fc1.bias f4 [200]
00000000: 7339 0cbe 07ad a13d 214d 08be cf7b 463d
00000010: 02fa 81bd 2827 13be 6470 4ebe c679 dfbd
00000020: f867 9cbd aa8b f3bd 1bcd 03be efe3 113d
00000030: b1d6 19bb e17a 01be 8462 573d d6dc 47be
00000040: 914a 07be 6c31 6cbd f450 fe3c 1c94 2abe
00000050: 0734 7e3d bb89 213e 6314 c2bd 658b e9bd
00000060: 55bd 27be dfe1 23be 8f8a 02be ea34 c33d
00000070: a074 95bd bc2d 27be 8756 d2bc 5d40 c73d
00000080: 93f0 3b3d dda4 5abe 6f7d 5f3d 55a2 163d
00000090: 644b 4abd 4c13 1cbe 33be 303b 258b 2b3d
000000a0: 05bf 12bd 49e3 f7bd 0ff2 d5bd f955 f8b9
000000b0: 70a8 7b3c aca8 f6bd 4e10 09be 0cdb 503c
000000c0: 9e9c 15be 5abb 1dbe c95b 89bb 4666 0fbe
000000d0: ba02 5f3c 15ef 453d 36a1 2cbe 574b d43d
000000e0: 2c80 d9bd 474e cbbd 5faa 39bd 4d14 a3bd
000000f0: d90a 883d ed10 023e e886 7dbc 9151 6bbc
00000100: b58b 3cbd 45a8 c6b9 401f b43c 274c 1cbe
00000110: f2b0 21be db0b 1abe e766 47be 8783 be3d
00000120: d89f f7bc 41e6 a53d 8b92 533d 3e14 63be
00000130: 6ef0 0fbd a7c0 11be ef0a 8e3d 2100 0b3e
00000140: 6927 013c 6b5c 8abe ebb3 333d 1a57 39be
00000150: 5203 acbd 538d 2f3d 37fc ecbd 2ee6 9dbd
00000160: 98de 323e 8cfb b5bd 4d65 09be 1239 043e
00000170: bb28 a03c ca4e 43be abdd c0bd d990 a2bb
00000180: 1206 093d 6b9d d4bc 82f4 d93d fbd7 d43c
00000190: 5cfd 133e 1ad9 3bbe b91f 8fbb ed60 6cbd
000001a0: 562b f73c e250 ebbd 4869 a9bd 1fee a6bd
000001b0: ba39 01be d2cd 3c3d 005f b33c e9af 14be
000001c0: 5ba0 c0bc dcab d73d eabc e7bd 5c31 3cbe
000001d0: 7365 dbbc ab80 57be 914f 80be 2df7 8bbd
000001e0: d759 753d 71c9 423d bef2 2b3e 024a 00be
000001f0: 3fac 143e e218 d0bd 6da4 97bd fad3 963d
00000200: 242e 68be a5c0 0dbd 08c8 f6bd d592 04bd
00000210: 05bf 59bc f4fe 663d a4a8 a8bd fac7 0bbe
00000220: 111c 0bbe 0671 a53c e1bd 92be 585e 50bd
00000230: 4539 013e 91a8 b1bd 4c9a d5bd 7ba7 91bd
00000240: d2db 13be e4f1 033e ced1 6dbe f99f a4bd
00000250: 89a3 62bd 9800 5ebc 5759 a23d f3d3 88bd
00000260: b947 3a3d ba3e 08be fb68 c1bd a253 8fbc
00000270: ad27 92bd 0cd1 663d b49f e13a 07d3 44be
00000280: ba5c 703d 6a9f 00be 4267 56be 6a59 f8bd
00000290: f11d ee3b 27ff 77bd ff37 b8bc 078d 5dbe
000002a0: 984f 823d b026 ba3c f5b4 f23c f6fe 95bd
000002b0: 5f00 e8bc 7092 5abe 5d1f c6bd f783 9cbc
000002c0: fd96 adbd fe22 acbd 5289 743d 236b c93b
000002d0: 725c 263d 4646 18be 2d4e fcbd 2f54 9dbd
000002e0: cd1b 43be 3c1c 5f3d 7c70 8f3d e576 a9ba
000002f0: 582d ddbb c61c e1bd 378e 4fbe 216b a53d
00000300: eb9a 31be d6b1 c2bd f3c7 253d e09b 26be
00000310: 360e 2bbd d655 04be 98d5 973d 9f4a 13be
-0.1369379 0.078943305 -0.13310672 0.048457917 -0.06346513 -0.14370406 -0.20160061 -0.10911898
-0.07637018 -0.11891873 -0.1287121 0.035617765 -0.0023473913 -0.12644531 0.052584186 -0.19517836
-0.13212039 -0.05766432 0.03104446 -0.16658062 0.062061336 0.15775196 -0.09476545 -0.114035405
-0.16380818 -0.16004132 -0.12748168 0.09531577 -0.07297635 -0.1632604 -0.025676025 0.09729073
0.045883726 -0.21351953 0.054562982 0.036775906 -0.049388304 -0.15241736 0.0026968836 0.041880745
-0.0358267 -0.12103898 -0.1044656 -0.000473663 0.015359983 -0.1204389 -0.13385126 0.012747537
-0.14610526 -0.154035 -0.00419185 -0.14003858 0.01361149 0.04832371 -0.16858372 0.103659324
-0.1062015 -0.099270396 -0.045328494 -0.079628564 0.06642694 0.12701769 -0.015474059 -0.014362709
-0.046031673 -0.00037890874 0.021987557 -0.15263425 -0.15790156 -0.15043585 -0.19472848 0.093024306
-0.030227587 0.08100558 0.051653426 -0.2217569 -0.0351414 -0.14233647 0.06935679 0.13574268
0.007882931 -0.27023634 0.043872755 -0.18099633 -0.08399071 0.042859387 -0.11571544 -0.07709919
0.17467725 -0.088858694 -0.1341755 0.12912396 0.019550672 -0.19073024 -0.0941728 -0.004961115
0.033453055 -0.025953969 0.10642339 0.025981894 0.14452118 -0.18344536 -0.0043677953 -0.057709623
0.030172031 -0.114900365 -0.08272034 -0.08150887 -0.12619677 0.046094723 0.021895885 -0.1452023
-0.023513963 0.105308264 -0.113153294 -0.18378204 -0.026781773 -0.21045177 -0.25060704 -0.068342544
0.05990013 0.04755539 0.16791818 -0.12528232 0.14518832 -0.10160996 -0.074044086 0.0736465
-0.22673851 -0.03460755 -0.12049872 -0.032366592 -0.0132901715 0.056395486 -0.08235291 -0.13650504
-0.13584925 0.020195495 -0.2866049 -0.050871223 0.12619503 -0.086747296 -0.104298204 -0.071120225
-0.14439324 0.12885243 -0.23224565 -0.08038325 -0.05533174 -0.013549946 0.079271965 -0.06681051
0.045478556 -0.13305178 -0.094438516 -0.017495934 -0.07136474 0.056351706 0.0017213733 -0.19221126
0.05868218 -0.12560812 -0.20937827 -0.121264294 0.007266753 -0.060546067 -0.022487639 -0.21635829
0.063628376 0.022723526 0.029627303 -0.073240206 -0.02832049 -0.21344924 -0.09673951 -0.019105894
-0.08476064 -0.08405112 0.05970127 0.006146805 0.040615506 -0.14870557 -0.12319598 -0.07682072
-0.19053574 0.054470286 0.070038766 -0.001292911 -0.00674979 -0.10991816 -0.20269094 0.08077074
-0.17344253 -0.09506576 0.04047389 -0.16270399 -0.0417616 -0.12923369 0.07413787 -0.14383934

bn1.weight f4 [200]
00000000: ec58 403f fe4a 0c3f c2e8 423f 9d26 253f
00000010: 7cef dd3d 57e4 093f 2676 c03e 0bef 193f
00000020: 2211 c13e 15f4 553e 018b 943e 906f da3e
00000030: 40de 063f d4c1 2c3f 9d4e 713f d691 443e
00000040: dfa5 753f 3c79 053f 2210 3c3e 8c0d b83e
00000050: 604a 463f b4ee 7a3f 77bb 763e 927d dd3e
00000060: 8f41 1f3f 1acc 5d3f b4d6 e03e 6bce 7d3e
00000070: f9a0 0d3f acfe 453f 132a 5f3e ab9b 403f
00000080: f98a 4d3f fab9 f33e 69fe 6a3f 8625 1c3f
00000090: caaa 9a3e 5775 1c3f 1de0 713e cd92 633f
000000a0: 9057 0b3f 64cc 433f 2e59 813e 9c98 c63e
000000b0: 346a 333f 8479 3c3f 7ed7 8c3f 2ffa ee3e
000000c0: c07b 333f 393e e73e b5f9 383f dd16 823e
000000d0: ca4b 363f a76a be3e 2b79 173f b28b c93e
000000e0: 140e 7c3e 1386 9a3e 5c68 5e3e ad49 453f
000000f0: eb53 0c3f 5627 3a3f f8df 0b3f 539a a23e
00000100: 328c 8a3e e008 5b3f 203e 3f3e a9d7 063f
00000110: 44c3 a13e 3a67 2e3e 0bc4 a03e a260 b63e
00000120: 6473 6d3f 2138 4b3f 6ed7 c63e 2879 ed3e
00000130: 8e10 533f d9d3 1f3f 3dcd 1c3f 8ad6 383f
00000140: 0d85 613f f5b7 da3e cce5 003e e641 3b3e
00000150: 52dc 803e c7a5 9e3e f881 be3e cb4b 613f
00000160: cbfd ff3d 463f f83e d4d8 463f ced7 0b3f
00000170: d921 933e f6fc 303f 6597 5b3f cfa1 b43e
00000180: c1ba 073f 4bda 053f df5b c63e c309 a23e
00000190: c977 273f 57ce 953e 5380 b83e 43b0 3f3f
000001a0: 3a12 953e 843b 073f 32b3 be3e 7deb a93e
000001b0: 9452 1a3f 53a8 623f b382 673e dfa0 0e3f
000001c0: 40ee 213f 749f 3c3f 691c 3a3f e488 c33e
000001d0: ea6a bc3e 4252 393e 9176 493e dd18 4c3f
000001e0: ee84 313f 6f90 1b3f 51dd 333f 3e04 b93e
000001f0: 2ade 6e3f a8f4 0c3f f382 2c3f 49cf 2b3f
00000200: cfb5 143f 20f4 033f 6dc6 2d3e 2c8f 4d3f
00000210: 9f1d 413f 3799 7a3f ade3 143f 679a 393f
00000220: 2c9b 283f 9893 e73e d741 363e f269 5b3f
00000230: aa79 4c3f 031d ea3e a733 443f b76e f03e
00000240: 964b e13e 3c15 a73e e653 3b3e 3ee2 333f
00000250: 40db d13e ba2e 6c3f 0d5b 8c3e 6340 8c3e
00000260: 943d 373f fe56 cf3e 4832 6a3f d360 a03e
00000270: 7b67 373f e671 6a3f ed6d db3e 108e 6d3f
00000280: 353c ac3e 72e7 813e 4f35 3b3f 36c8 2e3f
00000290: 2a08 433f 873f 0d3e 0837 9c3e f0a1 553f
000002a0: e28a 473f e308 633f 099b f03e 4c7b 2d3f
000002b0: 00b2 733e ea2f 3b3f fe4c 133f c0ed 233f
000002c0: 197f bd3e c800 593e e80c 3c3f fb6b 133f
000002d0: 9d82 373f 1788 7d3e b28d 183f 2de8 2b3f
000002e0: dba1 313f c7db 2a3f ac85 3d3f 43ce 533f
000002f0: 237b 0a3f 0ae5 353f 6fe3 203f c21e 9b3e
00000300: 4aba fa3e 4674 283f 1330 373f 71c6 7b3e
00000310: 0f96 023f 2e38 d83e 8b71 af3e dfbd da3e
0.75135684 0.5480193 0.7613641 0.64512044 0.10836694 0.53864044 0.3759014 0.60130376
0.37708384 0.20893891 0.29012302 0.4266324 0.52682877 0.6748326 0.9426058 0.19196257
0.95956224 0.52138114 0.18365529 0.35947835 0.7745724 0.9802048 0.2409495 0.43259865
0.6220941 0.8663956 0.43913805 0.24785773 0.5532375 0.77341723 0.21793394 0.7523753
0.8029018 0.47602826 0.9179445 0.60994756 0.30208427 0.61116546 0.23620649 0.88895875
0.54430485 0.7648375 0.2526335 0.38788307 0.7008393 0.7362292 1.1003263 0.4667525
0.701107 0.4516466 0.7225602 0.25408068 0.71209395 0.37190744 0.5916926 0.39364392
0.24614745 0.30180416 0.21719497 0.77065545 0.5481555 0.7271627 0.54638624 0.31758365
0.27060086 0.8556042 0.18676043 0.5267282 0.31594288 0.17031565 0.3139957 0.356206
0.927542 0.7938252 0.38836235 0.46381497 0.82447135 0.6243263 0.6125067 0.7220236
0.88093644 0.42718473 0.1258766 0.18286857 0.2516809 0.30985853 0.37208533 0.88006276
0.12499579 0.48485774 0.77674603 0.54626167 0.2873676 0.6913599 0.85777885 0.352797
0.5301934 0.52286214 0.38741967 0.31648073 0.6541715 0.29258987 0.36035404 0.7487833
0.29115468 0.5282519 0.3724609 0.33187476 0.60282254 0.8853809 0.22608452 0.5571422
0.63254166 0.73680806 0.726996 0.38190377 0.3680032 0.18097785 0.19674136 0.7972544
0.6934346 0.60767263 0.7025958 0.3613605 0.93307745 0.55060816 0.6738731 0.6711317
0.5808992 0.5154438 0.16970225 0.8029659 0.75435823 0.9789004 0.58159906 0.72501224
0.65861773 0.45229793 0.17798553 0.85708535 0.79873145 0.4572526 0.76641315 0.4695947
0.4400298 0.32633388 0.18293723 0.70267093 0.40987587 0.922588 0.27413216 0.27392873
0.71578336 0.40496057 0.91482973 0.3132387 0.71642274 0.91580045 0.42857304 0.92794895
0.33639684 0.2537189 0.7312822 0.6827425 0.7618433 0.13793765 0.30510736 0.8345022
0.77946293 0.88685435 0.46993282 0.6776626 0.2379837 0.73119986 0.57539356 0.6403465
0.3701103 0.21191704 0.73457193 0.5758664 0.71683675 0.24758945 0.5959121 0.6715115
0.69387597 0.66741604 0.7403209 0.82736605 0.5409414 0.7105261 0.62847036 0.30296904
0.48970252 0.6580242 0.7155773 0.24587418 0.5101022 0.42230362 0.34266314 0.42722985

bn1.bias f4 [200]
00000000: 5f67 36bd 5d2e 9c3d a2c0 ecba 3243 ffbc
00000010: cfe0 83be 2b39 eb3d 5e31 f0bc c07f 1bbe
00000020: 1347 553d ee41 a23b a435 6bbe 6fe8 c4bd
00000030: 169c 8abc 74dc 99bc 31f4 eebc 9419 5abe
00000040: 881a ff3d 5e6a 4fbc 00f9 bebd 689f 9d3d
00000050: d60f 56bd 0286 cf3d e080 d43c 6ee6 4c3d
00000060: 5fc6 3b37 82d8 163b c901 58bd e0e0 383c
00000070: a17b 0d3d 6717 793e aae8 c23d 3833 073e
00000080: 0f70 173e 85da fa3d f7c1 f33d b74c c7bd
00000090: 2a82 163d 511e fd3c de9a cbbd 431d 403d
000000a0: d11d 8e3d 6566 abbb 9b03 57bd a388 d63d
000000b0: ebf2 72bc b743 33bc 9fa3 a93d eed9 6f3a
000000c0: 24ca 10be c39d 8e3d 7042 f8bc 77cc 1ebc
000000d0: fcef f63b d60b e5bd 2453 1b3e 1c31 a3bc
000000e0: 04a7 6f3d d5f1 b4bd 94dd 75bd d95f ae3d
000000f0: 4711 dcbd deec a7bd 4367 963d f785 c8bd
00000100: a1b7 a63d 76e4 bebd ae38 babd d712 4b3d
00000110: df2f 5f3e dc93 763d 30fa 66bd e43a b0bc
00000120: 949c 1f3d 56b5 4ebb e4b2 c9bd d3b2 11be
00000130: 5db5 fa3d 01c3 143c 9a1c 2dbc d224 863c
00000140: 6176 593d 42f3 ee3d 3327 523e 588d 1c3d
00000150: e998 a53c 0f6d 03be 764c 14be bf76 043d
00000160: 3ea1 4b3e 8f3a 083e 7ccc b1bc 3f11 063e
00000170: bd3a 1d3d 9fad e93d 9ca8 b43d 1fae e2bc
00000180: 9149 d0bc e43c 7e3d b101 2dbe 082b c4bd
00000190: 8367 34be 5240 503d f07b 063c 1dec debd
000001a0: 124e 063e 7ad6 8fbc fcb3 09be e8af 253d
000001b0: f0c9 eebc 14bf 3b3e c1be 793d 46b7 d2bc
000001c0: 6e3e adbd fd6f 043d cbe5 1cbd 6661 44bd
000001d0: a6fc 0e3e adb5 163d e00a e0bc 783b 06bb
000001e0: 8bb2 e9bc 0348 40bd e5be 5c3c 24de c93d
000001f0: 2c5c 97bc 002b 4ebc d052 42be 2fb9 043e
00000200: 7250 813d 33fb b6bd b80f 103e a959 0d3e
00000210: 58b3 f13d 5237 9e3d d798 253d 3a93 163e
00000220: c921 633d e0a9 d93c 9fe0 c1bb 3052 953b
00000230: c2e9 473e 2df7 5e3d 57ea b6bd eeb2 1e3e
00000240: 4dd8 023d 73e6 513c aeaf 92bb d5f0 023d
00000250: 088a a83d cb52 86bc c6c2 253e 9137 b63d
00000260: e966 36bd 8724 343d 4018 0c3d 07b1 643d
00000270: f636 863d 7ac2 3a3e 093c acbb 5ee3 8e3e
00000280: 629f 523d c285 c1bd ed2d 05be 0c4a a5bd
00000290: 635d b9bd e9c2 c73d 3e3b 8c3d 296b 883d
000002a0: c558 a0bd 186a e73c 95f4 02bd 5759 4a3b
000002b0: 1846 81be 49bf edbc 0fb4 723e cc19 33bd
000002c0: 3c35 613e 81d7 37bb 670d 5f3b 9bc8 713e
000002d0: 605e b03c d12b 9c3d edee 7bbd 539e 8bbc
000002e0: c292 59bd 17d0 563d 52fd 213e b39f a13c
000002f0: 1588 713c e690 d23d a336 bb3c a7bd 6f3d
00000300: d5f7 f83b c8dd c93c e1ac 9e3c ee88 c9bc
00000310: 0e89 9a3c 3701 f3bd 7539 b33d 5f9f 5e3b
-0.044532176 0.076260306 -0.001806278 -0.03115997 -0.25757453 0.11485513 -0.029320415 -0.15185452
0.052069735 0.004951707 -0.22969681 -0.09614646 -0.01692013 -0.018781878 -0.029169174 -0.2129882
0.12456232 -0.012659637 -0.09324837 0.0769642 -0.052261196 0.10132982 0.025940359 0.050024442
1.1192255e-05 0.0023017232 -0.052736077 0.011284083 0.03454173 0.24325334 0.095170334 0.13203132
0.1478884 0.122487105 0.1190223 -0.09731429 0.036745228 0.030898245 -0.09941648 0.046902906
0.06939281 -0.0052307122 -0.052493673 0.1047528 -0.014828424 -0.010941437 0.08283161 0.00091496005
-0.1413961 0.069636844 -0.030305117 -0.009692303 0.0075359326 -0.11183898 0.15168434 -0.019920878
0.058508888 -0.08835188 -0.060025766 0.08514375 -0.10745483 -0.08199476 0.07343914 -0.09791177
0.08140493 -0.09320919 -0.09092842 0.049578514 0.21795605 0.060199603 -0.05639094 -0.021512456
0.038967684 -0.003154119 -0.09848574 -0.14228372 0.122416236 0.009079696 -0.010565901 0.01637498
0.05309141 0.116674915 0.20522766 0.038220733 0.020214515 -0.12834571 -0.14482293 0.032339808
0.19885728 0.13303588 -0.021703951 0.13092516 0.038386095 0.11410069 0.08821222 -0.027670918
-0.025425704 0.06206979 -0.16895176 -0.0957852 -0.17617612 0.05084259 0.00820826 -0.10884879
0.13115719 -0.017558325 -0.13447565 0.04045096 -0.029149026 0.1833461 0.060972933 -0.025722157
-0.08459173 0.032333363 -0.038305085 -0.04794445 0.13963565 0.036794353 -0.027348936 -0.0020482223
-0.028527519 -0.046943676 0.013473247 0.09856823 -0.018476568 -0.012583494 -0.18976903 0.12961267
0.06314172 -0.08934631 0.14068496 0.13803734 0.11801785 0.07725395 0.040428963 0.147046
0.055452142 0.02657026 -0.0059166695 0.0045569167 0.19522765 0.054434944 -0.089314155 0.15497944
0.03194456 0.012811291 -0.004476509 0.031967957 0.08229452 -0.0163969 0.16187581 0.08897317
-0.044531737 0.043980148 0.034202814 0.05583289 0.06553452 0.1823825 -0.00525618 0.27907842
0.05142153 -0.094493404 -0.130058 -0.08070764 -0.09051015 0.09753973 0.06847237 0.06661064
-0.078294314 0.028248832 -0.031971533 0.0030876005 -0.2524879 -0.029021876 0.237015 -0.043725774
0.21992964 -0.0028052034 0.0034035088 0.23611681 0.021529377 0.07625545 -0.061507154 -0.017043268
-0.053118475 0.052444544 0.1581929 0.01972947 0.014741917 0.102815434 0.022853201 0.058530476
0.0075979033 0.024641886 0.019369544 -0.024601426 0.01886418 -0.11865466 0.087511934 0.0033969504

bn1.running_mean f4 [200]
00000000: 7264 b13d f49c a73d be1b b73d 911c 123e
00000010: bbcd f63d 15e5 0e3e f852 443d 0b2f 833e
00000020: f8fa 593e 7898 c73c dd1c b53e 4bd4 963e
00000030: 81a4 d83d ce0e 8a3d d605 d03d 606a 8c3d
00000040: 0366 673e d883 ef3d 59c6 013e 4ac8 363e
00000050: 5c29 823e 6d36 823e 7892 cc3c 31b9 973e
00000060: 3504 663e 9560 273d 5320 3f3d 37e1 fd3d
00000070: a940 0a3e 2098 d73d 49fb 5a3e 5d52 963e
00000080: 1c2f af3e 051d 403d ff2f 323e e4f2 8a3d
00000090: 366e 5e3d 38a4 8d3d 749f b23d 947f c83d
000000a0: 560d 613e 56ef 1d3e eec5 893d f277 cc3d
000000b0: 7b98 343e dabd a83d c409 f73d 41fb 893e
000000c0: 0892 703d 6073 f93d 30eb 2f3d f801 ab3e
000000d0: 88a1 013e 6687 6d3e 06eb 373d bd13 793e
000000e0: 8cdb 9b3d ec5e 303d e627 4d3e 88c7 f03d
000000f0: c287 fd3d 30d3 493e 9bf1 cf3e f163 093d
00000100: e0db 983d dc65 4f3e 96d3 4b3d 2687 b23d
00000110: 6849 8a3d 4987 1e3d c42a f03d 1994 5b3d
00000120: 4940 f63d e73a f33d 5a08 913e 2c94 083e
00000130: b2d7 0f3e 7f31 043e 1f3a 893e cf68 b43e
00000140: 9e5e 543e 8213 0f3e 582e f53d 2516 d83d
00000150: 8a44 3a3e a028 c33d a1c8 e93d ed36 4a3e
00000160: 6e86 1e3f dd01 cf3d 21e5 273e dccd 1a3e
00000170: c34f 093e 2160 463d d753 5f3e f255 fd3d
00000180: ae1e 8b3d e922 3a3d e718 7e3e e9e1 8e3e
00000190: 794b 253f 9690 ef3d 94d4 773d c2da 073e
000001a0: 7cdf 843d a68b 7e3d 5878 163e 2dea 863d
000001b0: 19c5 1e3e a9cd 933e 534c d23d 916d b03d
000001c0: 3ad7 653e 2e06 783e 50f1 153e e0e6 063e
000001d0: 7b53 513e c976 583e 2963 4c3d 1c83 cc3d
000001e0: b0cd 923e 5067 c03d 7414 783e 21b1 f33d
000001f0: c18e 213e 4147 893e b79f 803e a510 183e
00000200: fb15 063e 2ba1 b63d 1127 153e 2304 053e
00000210: 03aa ad3d ec75 2c3e 343e a33d 8efa 923d
00000220: ce86 463d 83c2 a23e 3ef8 c53d 4b61 b43d
00000230: d7fb ae3e ff4c c63d 2c64 d63d 12d5 f63d
00000240: 8fa9 493d b993 c23e 3aa3 9b3d ca5b 8c3d
00000250: bb7b ea3d ab56 bb3d 6b05 fa3e df9c 1f3e
00000260: 768e 243e ed27 523e d696 623c ac37 0b3e
00000270: 0dab 173e 14e0 8a3e 33bd fc3e e231 cc3d
00000280: ae2c 3e3e 27fa e73c 0f1d 153d 7193 1a3e
00000290: c802 413d c62e 4b3e 4ba2 f03d a0cf 8c3d
000002a0: d045 103e 9e51 cb3d 6ae8 c43d 504f a83e
000002b0: 579b a73d abd3 8f3e 4c11 993e 637f 6a3e
000002c0: 9d93 d93d e376 db3d 90cc 533e eaac 513d
000002d0: f270 e53d 8c59 a83d 6ca8 123e e40c b03e
000002e0: 5cf8 f63d be39 253e 802b 673e 1976 693e
000002f0: 07ba eb3d e9ce b83d 67a7 013e ad90 693e
00000300: 1c72 893d e8f5 863e 00d7 2f3e e137 573d
00000310: ce4c 533e 4ec7 a23c 76bf 843e bdd7 f03d
0.086617365 0.08184233 0.08940838 0.1426871 0.12050959 0.13954575 0.047930688 0.25621828
0.21287143 0.024364695 0.35373583 0.29458842 0.10578252 0.06741105 0.10157363 0.06856227
0.22597508 0.11695069 0.1267332 0.17849842 0.2542218 0.2543215 0.024972185 0.29633477
0.22462542 0.040863592 0.046661686 0.12396472 0.13501228 0.105270624 0.2138492 0.29359713
0.3421563 0.046902675 0.17401122 0.06784609 0.054304324 0.06916088 0.087218195 0.097899586
0.21977744 0.1542333 0.06727205 0.09983815 0.17636292 0.08239336 0.120624095 0.26949504
0.058733016 0.12180209 0.0429489 0.3339994 0.12659276 0.23196182 0.04490187 0.24323936
0.076102346 0.043059275 0.20034751 0.117568076 0.123794094 0.19709468 0.40614018 0.033542577
0.07463813 0.202537 0.04976233 0.08717184 0.067522824 0.038703237 0.11726907 0.053608034
0.1202398 0.11876469 0.28326684 0.13337773 0.14047125 0.12909506 0.26802155 0.35236213
0.20739219 0.13972285 0.1197173 0.10551099 0.18190208 0.09529233 0.1141522 0.19747515
0.61923873 0.10107777 0.16396 0.15117592 0.13409333 0.04843152 0.21809326 0.123699084
0.06792961 0.04544345 0.24814187 0.2790673 0.6456829 0.116974995 0.060505465 0.13267043
0.06487939 0.062144898 0.14694345 0.06587634 0.15504874 0.28867844 0.10268464 0.08614648
0.22445384 0.24221107 0.14642835 0.1317401 0.20442002 0.21139063 0.049899254 0.09985945
0.28672552 0.09394705 0.24226552 0.11899019 0.15777113 0.26812175 0.25121853 0.148501
0.13094322 0.08917459 0.14565684 0.1298986 0.08479693 0.16841859 0.07970849 0.07176696
0.048468404 0.31789026 0.09666489 0.0880762 0.34176514 0.096826546 0.10468325 0.12052359
0.04923397 0.38003328 0.07599492 0.06853445 0.11449381 0.0914739 0.4883226 0.15587185
0.1606997 0.20523043 0.013829907 0.13595456 0.14811344 0.27124083 0.49363098 0.09970452
0.18571731 0.028317524 0.036404666 0.15095307 0.047121793 0.19842061 0.11749705 0.06875539
0.14089131 0.099276766 0.09614642 0.3287301 0.081839256 0.28091177 0.2989601 0.22900157
0.10623858 0.10716035 0.20683503 0.051190294 0.11203183 0.08220205 0.1432206 0.34384835
0.120590895 0.16135308 0.22575188 0.22798957 0.11510091 0.0902384 0.12661515 0.22809096
0.06711218 0.26359487 0.1717186 0.052543525 0.20634767 0.019870427 0.25927323 0.11759899

bn1.running_var f4 [200]
00000000: 15e5 0a3d 6167 1d3d 7761 c53c 566c 6a3d
00000010: 51ac 043e 7a3d 433d bb72 b13c 8cde 0e3e
00000020: 1116 a83d 1605 753c 05e4 4d3e 1bfd 233e
00000030: b708 3b3d 680c a53c 7594 133d c51e df3c
00000040: 34bf 913d 62dc 273d c11e 6f3d 011b f13d
00000050: d192 aa3d 14ac b73d 0c74 223c 11e9 273e
00000060: 10bc fb3d e56b 463c bd17 ac3c 937d 7a3d
00000070: 72df d73d 86ef b13d 3f54 ac3d c7ab a63d
00000080: 16de 2c3e afab d93c 877a 763d 3325 d13c
00000090: 65c1 003d a084 f53c 63c1 3f3d 6329 2a3d
000000a0: c1c5 bb3d a348 9a3d 272e 1b3d a678 503d
000000b0: 2ecb e03d fe18 313d 8923 373d 9feb 403e
000000c0: 7f16 a53c 3e60 7c3d 8be1 633c dd62 f83d
000000d0: 675d 8b3d 7166 fd3d c651 bc3c 56cb ff3d
000000e0: 78d9 eb3c 8d5f ce3c 2b9b d93d 93d2 b53d
000000f0: fe01 7c3d 04bf c23d 838b 203e 2957 a03c
00000100: fe18 1f3d 6095 823d 7568 e43c 5607 6a3d
00000110: e656 f63c 7818 b33c 718e 963d b4fd 343d
00000120: 5ae0 233d d57e 423d 21c6 093e 0415 963d
00000130: 6542 6d3d 4fbf 8c3d 5f62 093e 1eba c03d
00000140: 4498 9e3d 2f43 883d 8feb 733d e5cf 883d
00000150: f960 113e ccc8 223d 85af 573d f057 823d
00000160: b297 ee3e 2cb6 503d 7525 853d 754c 703d
00000170: b82e 4c3d 3a91 a53c 4dba d43d 12ea 383d
00000180: 213b 323d 6726 863c 77ad 1c3e a6b9 bf3d
00000190: fef4 b33e 2798 853d e9db 8c3c 7662 193d
000001a0: 504a f03c f933 673d 1d90 963d 7104 143d
000001b0: 59ee a43d f798 0b3e 30fe 8f3d 3d66 493d
000001c0: 0e29 333e 156d d43d ab25 853d 2e69 233d
000001d0: 116e 043e c065 ab3d e100 e63c 1acd 523d
000001e0: 2917 853d ed64 923d 8026 c53d 6c51 573d
000001f0: e146 8b3d 66bc 363e d662 113e 26ea 8d3d
00000200: e49e 7b3d 1ee1 053d 412b c93d 4b94 7a3d
00000210: 46e2 553d 2bc4 a63d 208f fb3c b4aa 2b3d
00000220: b71d ca3c eb38 703e dd05 383d 604c 0b3d
00000230: 3f82 523e 4940 843d cd92 6a3d f11c 5c3d
00000240: 43eb 153d 964f ad3e 11e6 133d d530 263d
00000250: cde3 8e3d 5c86 1e3d 34a9 5c3e 1d11 893d
00000260: 95fb 913d 9131 c83d ac59 103c 90c6 923d
00000270: 715e e03d c96b 183e e762 633e 4937 093d
00000280: ab9b b23d 4053 923c 1045 5d3c 4669 893d
00000290: 83de 853c 7605 ea3d 9ff8 9c3d 2d33 b03c
000002a0: e80c 7a3d 7c57 2d3d f85a 053d 1050 093e
000002b0: dde5 fe3c f1fe 083e 8498 153e c6c1 123e
000002c0: 81d7 663d 0b71 603d 5e2a bc3d 1e15 543c
000002d0: ecf8 1c3d 09d6 eb3c 129a e63d 98c8 3c3e
000002e0: 3b91 af3d 5eec 573d cd5b a03d cb95 913d
000002f0: 1ae9 8f3d fb7d 463d db72 633d 8438 e33d
00000300: fed0 e33c 9464 243e 7695 aa3d bdb8 c03c
00000310: c924 ee3d 6601 043c 554a 083e 424e 2f3d
0.033909876 0.038428668 0.024094326 0.057232223 0.12956358 0.04766605 0.021661153 0.13952082
0.08207334 0.014954826 0.20106514 0.16014521 0.045662608 0.020147517 0.03603025 0.027236352
0.07116547 0.040981658 0.05837894 0.11772729 0.08328784 0.08968368 0.009915363 0.16397502
0.122917295 0.012110685 0.021007413 0.061154913 0.10540666 0.086882636 0.08414506 0.08138233
0.16881594 0.026571123 0.060175445 0.025530433 0.031434435 0.029970467 0.046815287 0.041543376
0.09168578 0.075333856 0.03788581 0.05089631 0.109762534 0.043236725 0.044711623 0.18839882
0.020152329 0.06161522 0.013908754 0.12128232 0.068049245 0.12373055 0.022988211 0.12489955
0.02879022 0.025192047 0.10625299 0.088780545 0.061525337 0.095090896 0.1567822 0.019572811
0.038842194 0.06376147 0.02788184 0.057135902 0.030070733 0.021862254 0.07351387 0.044187263
0.04000888 0.047484238 0.13454486 0.07328227 0.057924647 0.06872427 0.13416432 0.09410499
0.07743886 0.06653439 0.059550818 0.06680278 0.14197148 0.039742276 0.052657623 0.06364429
0.4660011 0.050954983 0.06501285 0.058666665 0.049849242 0.020210851 0.103870966 0.0451451
0.04351342 0.016375734 0.15300547 0.093615815 0.35147852 0.065231614 0.017194705 0.037447415
0.02933231 0.05644605 0.07351706 0.03613705 0.08053274 0.1363257 0.07030904 0.049169768
0.1749613 0.10372368 0.06501325 0.03989523 0.12932612 0.08369017 0.028076591 0.05146513
0.06498558 0.07148156 0.09626484 0.052567884 0.068006285 0.17845306 0.14197859 0.06929426
0.061430827 0.03268539 0.09822703 0.06117658 0.052217744 0.08142885 0.030707896 0.041910842
0.024672372 0.23459212 0.044927467 0.034008384 0.20557497 0.06457574 0.057268906 0.05373854
0.036601316 0.33849782 0.03610808 0.040573914 0.06977043 0.038702354 0.21548921 0.06692717
0.071280636 0.09775079 0.008810442 0.07166779 0.10955513 0.14884867 0.22205697 0.03349999
0.087210976 0.017861962 0.013505235 0.067095324 0.016341453 0.11426823 0.07664608 0.021508778
0.061047465 0.04231976 0.032557458 0.13409448 0.031115467 0.13378502 0.14608961 0.14331731
0.056357864 0.054795306 0.091877684 0.012944488 0.038323328 0.028788583 0.11259855 0.18435895
0.085726224 0.05271565 0.078300096 0.07108649 0.070268825 0.048459988 0.055529457 0.11094764
0.027809616 0.16053993 0.08329289 0.02352559 0.1162811 0.008056974 0.13309605 0.04279924

fc2.weight f4 [300, 204]
00000000: f7ac 513d 3b9e e7bb 2c57 dbbd 615b 41bc
00000010: 3948 163e a8e6 0fbe 0a22 9cbc 1ede adbc
00000020: 5c9d 96bd 78a8 843d 95c6 d33d b737 123d
00000030: e4ab 71bd f657 2abd 39ce cdbb 27b8 413d
00000040: 3d28 643d 86e4 863d 3e84 fb3c a530 b0bc
00000050: 0951 04bc 5bb7 64bc 7a7c 00bd 34c0 8dbd
00000060: 63d9 403d c368 6ebc 8efb 013d e3c0 28be
00000070: f782 b8bc 42ef d03c ec15 f5bb ef96 85bd
00000080: 9655 72bc 7f14 aabc 7328 1bbe 98fc cebd
00000090: d08f b33d f52e b2bc 8617 b33d 4a6c 87bd
000000a0: d8c6 46bd c333 933d 689f 89bd c95c 88bd
000000b0: b796 e1bc 4e12 1f3d de8b 083d 5737 ca3d
000000c0: 7cca c7bb f968 ea3b cee3 083d a21d a6bc
000000d0: 6ca9 38bd a211 f03c 19e5 6ebd a6ce dfbd
000000e0: f2fc 1d3c 33dd 043d 7405 da3c 05a9 a1bc
000000f0: 66b2 81bd b82c ca3c b5ee 6c3d ca82 e0ba
00000100: 1093 57bd 55ac 333c a12a 4c3d 0aac 8f3b
00000110: 0d29 05be 1449 b83c 2b43 06be e163 76ba
00000120: 7e26 1cbd a825 9c3c 787a ad3c 74c3 2a3c
00000130: 6d71 913b ef38 cb3d 76e6 893d 05cc 833d
00000140: d09c 673d 6d38 3bbd a748 67bd 413b 89bd
00000150: 653b b1bc 078d 47bd eaff 593d 1dca 1cbc
00000160: dce8 a2bd dc58 a83c 3645 afbc c3cb e4bb
00000170: 9eeb 29bd 0f8e 4cbe cfca bc3c 9d64 a7bc
00000180: 05cf e03c 8be3 6f3d 3cb7 9abd 70fb dfbc
00000190: 3d8b e43b 37ce fbbc bdb7 213d 888d 0d3d
000001a0: fbb9 cfbd 110f 74bc 091d 29bc d95e 83bd
000001b0: 5ecf a0bd 4e6e 3d3a 342a 31bd 557d 16bd
000001c0: 8a59 c4bb 8e15 c639 88e8 063d 78ad 4cbd
000001d0: b8be 223d e72f da3b 768a 053b 39e6 253d
000001e0: 2b62 9db7 6163 3bbd cb10 8cbc 4ca8 b3bc
000001f0: b49e a93d 6d69 833b 02f9 8d3d 52f4 05be
00000200: c698 98bd cfb1 773b 2ac2 2cbd 89e5 ce3d
00000210: a85b a3bd 3f1d 833d 9cfb b0bd 84c4 853d
00000220: 2766 79bc 2f7d be3c e1b6 013e 0502 b13c
00000230: 60fb bebc b782 633c ba57 2ebd fb98 f73c
00000240: 9517 23bd 74cb 8ebd bfeb e8b9 c969 13be
00000250: c2c7 a6bd 6c06 8cbd 13aa d4bd 0987 01be
00000260: 37fa 293d 4590 51bd 16d3 823d fb3d 493d
00000270: 6f1d 2d3a 269b 55bc 8d60 abbd 95fa 8abd
00000280: d81c 18bc 722f 483d 1430 4bbb df25 393c
00000290: 5b72 8a3d c05f 733d 23ea c0bd f768 2fbd
000002a0: 4160 683d fa11 853c b6c7 63bc a644 d1bc
000002b0: 2eff 71bc d4c8 fabc 9592 71bc a556 923d
000002c0: 1534 9abd 6d30 98bd 3333 d13c 804d 5d3c
000002d0: 0809 7839 b3b2 26be 8351 013d aa04 d13c
000002e0: 3d84 af3c 2567 86bd 0d7e 10bc d97f bfbd
000002f0: c014 623d c950 323c 7016 95bb eaab 1ebd
00000300: a325 b9bd f842 5c3d 5c8a b2bc 239f 30bd
00000310: 3c28 513d c771 a0bc 9e77 5abd ec2d f7bd
00000320: a779 d9bc fbfa 56bd aeac f13d 201a abbd
00000330: 5867 81bc ca58 863d 25ad e1bd eea2 53bb
00000340: 90ae 8a3d 02c7 4b39 2459 babc 4e8a fc3b
00000350: 47da 04bd f4f4 b23c d2b1 adbc 4944 273d
00000360: e707 b43c 0053 853d cdab ab3c ffcc f23d
00000370: 7d30 4d3a 2519 55bc 0790 7b3b 1429 65be
00000380: 939d 5c3d 5aa3 20bd a174 0c3c 158d bdbc
00000390: 7543 0fbd 89ea f73b 3351 fb3c aaba ffbd
000003a0: 67b9 e23a e51e 0dbc ee5a 60bd 6e34 603d
000003b0: 4346 43bd ac06 713b 6b97 463c 8617 f83c
000003c0: 4a5a aa3c 8d75 d7bc f710 583d d18f 893d
000003d0: 7ba2 05b8 7c53 60bd 3bf1 f03d f12b ac3d
000003e0: 1c3e f2bc 01b7 b2bd 1c35 0a3d 6ca9 353d
000003f0: 9bb0 b83d 9874 2ebe 9e23 a8bc ce5c 8f3c
0.051190343 -0.007068423 -0.10709986 -0.011801572 0.14675988 -0.14052832 -0.0190592 -0.021224078
-0.07354233 0.06477445 0.10340611 0.035697665 -0.05900182 -0.041587792 -0.006280687 0.047294762
0.055702437 0.06586556 0.030702706 -0.02150757 -0.008075961 -0.013959731 -0.03136871 -0.069214255
0.047082316 -0.014551344 0.031734042 -0.1647983 -0.022523386 0.025504712 -0.00747942 -0.06522929
-0.014790913 -0.020761726 -0.15152149 -0.10106772 0.087676644 -0.021750906 0.08744721 -0.066124514
-0.048529476 0.07187607 -0.067198575 -0.06658322 -0.027537687 0.038835816 0.033336513 0.098738365
-0.006097136 0.007153627 0.033420376 -0.020277802 -0.04508345 0.029305283 -0.058323953 -0.10928087
0.009642826 0.032437515 0.026613928 -0.019733915 -0.06332855 0.024679527 0.057844836 -0.0017128822
-0.052630484 0.01096638 0.04984534 0.0043845223 -0.13003941 0.022495784 -0.1311156 -0.00093990384
-0.038122647 0.019060925 0.021176562 0.010422576 0.0044385702 0.099229686 0.0673341 0.06435398
0.056546032 -0.04570811 -0.05646577 -0.06700755 -0.021634767 -0.04871848 0.053222574 -0.009569672
-0.07954571 0.020550184 -0.021395307 -0.006982298 -0.041484468 -0.19976066 0.023045925 -0.020433718
0.027442465 0.05856661 -0.075544804 -0.027341574 0.0069746063 -0.03073798 0.039481867 0.034558803
-0.10142895 -0.01489617 -0.010321864 -0.06414575 -0.07852052 0.00072262145 -0.04325314 -0.03674062
-0.005992119 0.00037781562 0.032936603 -0.04997012 0.039732665 0.0066585424 0.0020376719 0.04050276
-1.8761571e-05 -0.045749072 -0.017097851 -0.021930836 0.08282223 0.0040103705 0.0693226 -0.13081482
-0.07451014 0.0037795191 -0.042177357 0.10102374 -0.079764664 0.064020626 -0.08641741 0.06531623
-0.015222109 0.023253052 0.12667419 0.021607408 -0.023313224 0.013886145 -0.04256413 0.030224314
-0.03981741 -0.06972399 -0.00044426133 -0.14395823 -0.081435695 -0.068371624 -0.103840016 -0.12649168
0.04149839 -0.051162977 0.06387918 0.049131375 0.0006603812 -0.013037479 -0.08368025 -0.06786076
-0.009284221 0.048873372 -0.0031003999 0.011300533 0.06760093 0.059417486 -0.09419658 -0.04282471
0.05673242 0.016243923 -0.013902595 -0.02554543 -0.014770312 -0.03061334 -0.014744421 0.071454324
-0.07529465 -0.074311115 0.025537109 0.013507247 0.00023654487 -0.16279106 0.031571876 0.02551492
0.02142536 -0.06562642 -0.008819115 -0.09350557 0.05519557 0.0108835185 -0.004549794 -0.03873817
-0.09040382 0.053774804 -0.02179449 -0.043120515 0.05106376 -0.019585503 -0.053336732 -0.12069306
-0.026547266 -0.052485447 0.11800514 -0.08354592 -0.015796348 0.06559904 -0.11019353 -0.0032293159
0.067715764 0.00019433725 -0.022747584 0.007706917 -0.032434728 0.021845318 -0.021202955 0.040836606
0.021976424 0.065099716 0.020955944 0.11855506 0.0007827355 -0.013006483 0.0038385408 -0.22378951
0.053861212 -0.039218284 0.008572728 -0.023138562 -0.03497644 0.0075658006 0.030678367 -0.12486775
0.0017297686 -0.008613323 -0.054774217 0.0547375 -0.04767443 0.0036777658 0.012121062 0.030284654
0.020795006 -0.02630117 0.052750554 0.06716884 -3.1860993e-05 -0.054767117 0.11764761 0.08406819
-0.029570632 -0.087263115 0.033742055 0.044351026 0.0901806 -0.17036664 -0.020524796 0.017500307

fc2.bias f4 [300]
00000000: 0ddc cabd 9d17 58be 1ba7 49be 1cb1 463c
00000010: c4c9 0dbe 8e37 b03b 8e32 293d 3cb5 153e
00000020: d1a1 2abe 11bc f0bd c33b 54be 94e5 9ebd
00000030: aef7 e2bd 9c26 21be 1f79 0ebe f98c eabd
00000040: 51d5 44bd 3bb8 a13d 0e9e aebb 02d3 20be
00000050: b716 e03d 78f7 99bd 75e7 b53d 252d 6f3d
00000060: c246 3bbe 9202 40be 6cb2 e53d 0c62 0e3e
00000070: 2232 a13d 77fb 0abe e995 0a3d fab4 a6bd
00000080: 472e b4bd fb9a 003e d410 0abe b9ff 1dbe
00000090: 5b94 283e ceba 9e3d 1a3d 43be 665a 1a3d
000000a0: 3aed 9f3d 4f2b d9bd 57ca cabd fe6e 14be
000000b0: 684a 83bd 0c68 0cbd 46e1 56be 92ad 193d
000000c0: 354f 1e3c 86e6 33be 9ffb 1c3e 156e 17be
000000d0: 6fc8 083d bee0 573c 89d5 acbd 533a c0bd
000000e0: d504 fabd 2aac 033e 5bd9 2c3b 3b0b 16be
000000f0: 8758 923d c3be 943d 9d4e dcbd 02af 08be
00000100: d9c8 23be 7f31 0dbe dc0d f53c c3cd 37be
00000110: 00d2 c73d b084 f1bc 1576 c73d 42c3 aa3d
00000120: dba3 053e 895b 623b 109c 2fbe fd6f cabd
00000130: 47a4 58be 75e4 abbd 45e1 5dbe c53b eebd
00000140: 9649 39be b1e6 edbd fa16 47be 9727 093e
00000150: 7d62 e8bd 8193 20be b622 0fbc 7c62 0abe
00000160: 799f 9bbd 28f1 35be d4db 94bd 0cd8 29be
00000170: dee4 223e 631e 01be d222 0ebe fd1e 7dbd
00000180: da04 54be 69e0 14be a8d6 003e 103a d03c
00000190: 025b 1b3d bbed e5bc eca4 ae3d 0ab3 1dbe
000001a0: 1d49 20be 56fe 983d 2ac5 55be 53a5 1bbe
000001b0: cffe eebc 6675 acbd 2f87 c33d 9769 5b3a
000001c0: 5883 8d3d cd28 88bd 789e 8e3b 5967 763d
000001d0: c97d 7b3d fb83 05bd 9de0 95bd c121 0abd
000001e0: abfb e5bd 8dcd 4dbe 5a5e 923d c138 b0bd
000001f0: ab11 34be a893 3dbe ec4f 033e 6380 72be
00000200: b90c 11be dc55 fe3c 0091 abbd 3253 51bd
00000210: 22d2 39be cc37 113e 28c8 b9bd 69f3 ccbb
00000220: e008 88bc d840 65be aef1 903d e7ec 083e
00000230: e426 12bd a06d a4bd a31d e6bd d16e a83d
00000240: 59e6 03be be51 a33c 6509 c33c dfbc 0d3e
00000250: 06b7 da3d d825 fa3c 7076 5fbd 855d a63b
00000260: 40d7 22be 46f3 e1bd 8932 1fbe cf64 babd
00000270: 8ee9 083e cb23 22be 322e 1ebe 5068 d2bd
00000280: 41d2 12be 4b41 0dbe 2cf3 263e 2f58 26be
00000290: 33df d3bd a142 31be 9806 28bc 37e9 cabd
000002a0: 79a0 49be 0442 0dbe e903 02bd 146b 943c
000002b0: 2554 e83d 900a 1b3e 756e d93d 7aff 06be
000002c0: 3505 563c 0a03 123c ef0d 6c3d 2102 833c
000002d0: 6fe6 333e 8335 9e3d a427 5ebe 8d24 533d
000002e0: 1b05 30be 5f1d 143d 7e06 3ebd 7752 29be
000002f0: c46d 05bd 5f97 46be 26bf 83ba 8b49 e63c
00000300: c4cc 1bbe 7e92 fa3b 9ae8 163e f310 fcbd
00000310: 4eae 8fbd 55f1 1d3d c54f 3abe c83a 13be
00000320: 3290 48be 4ab1 bebd 657e c2bd 190e 16be
00000330: ca59 33be 8145 033e 9b0b 80bd c7cd a93d
00000340: 12d2 76bb d2f9 d23d 7fd0 db3d 7323 46be
00000350: b5ec 653d 25a7 e23c dab6 df3c eb3b c73c
00000360: 9754 f2bd 90b4 28bc d2ca f33d 7976 d9bd
00000370: 05c2 ab3c adfa 1abe 4b83 efbd 885f b8bd
00000380: dd5c 94bc a99d efbd 142c c2bd d07f 3b3e
00000390: 76f2 6abe 9e30 16be 9c25 b23c ce9c 78bc
000003a0: 95c0 163d f6f4 9bbd c65b 1bbe ded4 1bbe
000003b0: 0b91 d4bd f294 27be a71d 17be 3588 3bbe
000003c0: c6b4 e6bc 8053 1cbe 08d3 e23d 1d35 5dbe
000003d0: e4e8 34be 5832 abbb 91ba 6abc 543f 8f3d
000003e0: 8057 12be 6e38 173e 5790 acbd 7e84 813c
000003f0: be04 b7bd 0552 12be 4964 1ebc 3942 db3d
-0.099052526 -0.21102758 -0.19692652 0.012127187 -0.13846499 0.0053777164 0.04130798 0.14619917
-0.1666329 -0.11754621 -0.20725922 -0.07758632 -0.110823974 -0.15737385 -0.13913392 -0.1145267
-0.048054997 0.07896467 -0.0053289 -0.15705493 0.109418325 -0.07517904 0.088820376 0.058392663
-0.1828871 -0.1875098 0.11215672 0.1390459 0.0787089 -0.13572489 0.03383437 -0.08139987
-0.08797889 0.1255912 -0.13482982 -0.15429582 0.16462843 0.07750474 -0.19066277 0.037683867
0.07808919 -0.106039636 -0.099018745 -0.14495465 -0.06410676 -0.034278914 -0.20984372 0.037519045
0.009662439 -0.17568406 0.15330361 -0.14788087 0.033394273 0.013176141 -0.08439166 -0.093861245
-0.12207953 0.12858644 0.002637467 -0.14652722 0.071457915 0.072629474 -0.10757182 -0.1334801
-0.15994586 -0.13788413 0.029913835 -0.17949586 0.09756851 -0.029482216 0.09739319 0.08338024
0.13050787 0.0034539422 -0.17149377 -0.09884641 -0.21156417 -0.08393184 -0.21667965 -0.11632494
-0.18094477 -0.116162665 -0.19442359 0.13394009 -0.1134691 -0.15681268 -0.008736303 -0.13514131
-0.07598776 -0.17767775 -0.072684914 -0.16586322 0.15907618 -0.12609248 -0.1388047 -0.06179713
-0.20704976 -0.1453873 0.12581885 0.025418311 0.03792859 -0.02806746 0.0852755 -0.15400329
-0.1565289 0.07470386 -0.20875993 -0.15199785 -0.029174237 -0.084208295 0.095472686 0.0008369921
0.069098175 -0.06648407 0.004352387 0.060157154 0.061399255 -0.03259657 -0.07318232 -0.033723596
-0.112296425 -0.20097943 0.071469024 -0.08604575 -0.17584865 -0.18513358 0.12823457 -0.23681788
-0.1416501 0.0310468 -0.08377266 -0.05110473 -0.18146566 0.14181441 -0.0907138 -0.0062546027
-0.016605794 -0.22388017 0.07077347 0.13371621 -0.03568162 -0.08028722 -0.112361215 0.082242616
-0.1288084 0.019936439 0.02380819 0.1384158 0.1067944 0.030535623 -0.05455631 0.0050770664
-0.15902424 -0.11032729 -0.15546621 -0.09101259 0.13370344 -0.15833966 -0.1544731 -0.10273802
-0.14338018 -0.13794439 0.163037 -0.16244577 -0.10345306 -0.17310573 -0.010255478 -0.099077635
-0.19690122 -0.13794714 -0.03174201 0.018117465 0.11344174 0.15140748 0.10616771 -0.13183394
0.013062765 0.008911857 0.057630476 0.015992226 0.17568372 0.0772505 -0.21694809 0.05154853
-0.17189448 0.036160823 -0.04639291 -0.16535364 -0.032575384 -0.19393681 -0.0010051474 0.02811124
-0.1521483 0.0076468578 0.14737168 -0.1230792 -0.07015668 0.03856023 -0.18194492 -0.14377892
-0.19586256 -0.09311159 -0.09496764 -0.14653815 -0.1751472 0.12819482 -0.062522136 0.08291202
-0.0037661833 0.10301556 0.10733127 -0.1934946 0.056133945 0.027667591 0.02730887 0.024320563
-0.118325405 -0.010296956 0.11903919 -0.106183 0.02096654 -0.15134688 -0.11694964 -0.09002596
-0.018110687 -0.11699993 -0.094810635 0.18310475 -0.22944054 -0.14666983 0.02174645 -0.015174104
0.036804754 -0.07615082 -0.15171728 -0.15217921 -0.10379227 -0.16365412 -0.14757405 -0.18313678
-0.028162371 -0.15266228 0.11075407 -0.21602292 -0.17666966 -0.0052245073 -0.014326707 0.06994501
-0.14291191 0.1476762 -0.08425968 0.015810248 -0.089364514 -0.142891 -0.0096674645 0.1070599

fc3.weight f4 [1, 300]
00000000: 379a 76bd 2ec7 1bbe 9803 bbbd b9e2 8d3d
00000010: f5f4 77bd 0aed 973d 3a36 a63d 7746 3d3d
00000020: 40f6 1fbe 208b 86bd b9f3 e1bd 7d35 84bd
00000030: fdea 99bd e0ef 46bd 3b6a 87bd 2733 7fbd
00000040: 5b32 67bd 49d7 783d d2c2 473d f5a3 9abd
00000050: b8cf 7b3d e061 d03d fc5b 793d f272 6f3d
00000060: bd38 94bd fc82 97bd 1c01 833d b208 a43d
00000070: c21a 653d 1595 aabd 97f9 483d dc0c 60bd
00000080: 5911 7dbd bbd0 d73d 0ef1 24be 5ebd e2bd
00000090: 940e 683d 64b7 563d 3a53 74bd 70f3 813d
000000a0: 67ee 8a3d 9337 0d3e 176c 78bd 3acc c8bd
000000b0: 59ac e53d 65b8 8f3d ddb3 19be b2ae 473d
000000c0: d91d 923d 4f9f efbc 256f 7b3d 59a2 0bbe
000000d0: ba2c 633d a1ed 363d 3a36 a23d cebc dfbd
000000e0: dc20 7dbd 185f 373d dbf8 593d 78ae 92bd
000000f0: 3dc8 503d e74d 673d ad17 ecbc 4dca 79bd
00000100: f011 a6bd 1fd0 e9bd 29b8 8f3d 730d 95bd
00000110: c250 343d fadb e03d b078 2e3d 9e67 993d
00000120: 910c 5e3d 44e6 bf3d 7eb5 a0bd e75f babd
00000130: 827f aabd 9e40 a13d 2922 56bd c42a 2ebd
00000140: 9cbf aabd 83e3 6ebd 3d15 8abd 92d4 413d
00000150: 8832 513e 30f5 9cbd 27ff 4f3d c05a d4bd
00000160: e176 a63d 8df2 9bbd 0ae1 fb3d cd7e 20bd
00000170: fba3 553d 084c d4bd f325 4fbd fd19 603d
00000180: f064 bdbd 8e9c 69bd 05df 8f3d bb8e 633d
00000190: 1173 943d eab1 d13d 4e12 7d3d 9f68 8ebd
000001a0: 4a01 adbd e04f 5b3d 3be2 96bd 69ed 543e
000001b0: bf1c e73d bbdd 8bbd 1a61 873d c809 433d
000001c0: 3080 373d c7a3 4cbd f441 853d 7296 8b3d
000001d0: bbd4 5e3d a1bc c93d b298 a53d 9a9a 723d
000001e0: c68e 40bd 023e fabd fa3b ad3d dada 9bbd
000001f0: 98b8 95bd e0d8 7fbd 0b6a 5b3d 20d6 08be
00000200: f933 0ebe adf5 773d e883 61bd e9a0 80bd
00000210: 84bb d7bd 5812 553d 48cb 98bd 1213 833d
00000220: 2a43 0c3e 9eaf 48bd f422 413d 5398 953d
00000230: fe60 763d 452a 70bd 3926 043e a734 7b3d
00000240: 5a6d d3bc ac17 623d d801 b83d 661b 613d
00000250: 23e6 4d3d ec2d 883d 6872 45bd 1b02 3f3d
00000260: 210d 2f3e c8ab 80bd 8266 2fbd 66f6 0fbd
00000270: d133 1d3d a597 85bd 2c05 a4bd 4cd7 5abd
00000280: 4a14 65bd 82a0 68bd 890c 6e3d 2a14 39bd
00000290: cb5f 9abd fc69 8abd 9008 7d3d 3e76 b7bd
000002a0: 315c d7bd ebbc bebd f975 ae3d e99b 513d
000002b0: c44d a73d 0060 9e3d 855f 323d 7dfc 14bd
000002c0: 5f3a 393d 292d a83d 5074 6e3d 7b20 353d
000002d0: 9121 6e3d fd65 393d fe1c a9bd c19b 2a3d
000002e0: e9ad babd a3ec 543d 2d24 eebc e15b edbd
000002f0: 158e d63d 7327 4ebe bee0 a93d 39ae 603d
00000300: 9b64 9ebd ded1 dd3d de3b 823d cdbb 74bd
00000310: 0c47 dfbc 1471 483d c4e8 87bd cae9 a6bd
00000320: ef77 fcbd f833 87bd 9d7e 62bd 1ae8 89bd
00000330: 68d0 94bd 403a 843d 5671 5cbd 386c 4f3d
00000340: 0625 7e3d e020 593d 5962 683d 4571 b2bd
00000350: 1b32 803d 23f3 cb3d 36b4 a73d 6450 723d
00000360: f971 58bd 8cce 843d 98ba a03d 2fed 9fbd
00000370: a6d6 823d 23c8 b3bd 2dfc 61bd 1708 8ebd
00000380: 5dae f93d 2f3e 5ebd ade5 cabd c88b 623d
00000390: 724d 0dbe e6f9 e2bd bde8 6a3d 34be 8e3d
000003a0: bede 763d 1b94 aa3d 49b6 9dbd 508a 1dbd
000003b0: 0f9f d03d 0791 87bd 191d 85bd 11ad 49bd
000003c0: cf99 be3d f9e4 66bd c751 693d eb53 dcbd
000003d0: 1cde ecbd a340 b23d 6474 6c3d 4bbd 743d
000003e0: 1f3d 85bd 43e5 2b3d bcce f1bc 0341 973d
000003f0: 2d4e 8f3d 1983 9fbd 3dff 973d c1c9 8e3d
-0.060205664 -0.152127 -0.09131545 0.069280095 -0.060536344 0.074182585 0.08115812 0.04620978
-0.1562128 -0.06569505 -0.110328145 -0.064555146 -0.075155236 -0.048568606 -0.06612059 -0.062304642
-0.056444507 0.060752187 0.04876978 -0.075508036 0.061477393 0.10174918 0.06087874 0.05845923
-0.072373845 -0.0739803 0.06396696 0.08009471 0.05593372 -0.083292164 0.049066152 -0.054699764
-0.061784122 0.10537859 -0.1610758 -0.11071275 0.056654528 0.05242099 -0.059649684 0.0634526
0.06783753 0.13790731 -0.060649958 -0.09804578 0.11214513 0.07017592 -0.15010019 0.048750587
0.07134599 -0.029250769 0.061385293 -0.1363615 0.055462576 0.044660214 0.07920499 -0.109246835
-0.061798915 0.044768423 0.053215843 -0.071621835 0.050972212 0.056470778 -0.028819883 -0.060983945
-0.0810889 -0.11416649 0.07017548 -0.07277956 0.04402233 0.10979457 0.042595565 0.074904665
0.054211203 0.093700916 -0.07847117 -0.09100323 -0.083251014 0.07873653 -0.05227867 -0.042521253
-0.08337328 -0.05832244 -0.06742332 0.047321863 0.20429432 -0.07663953 0.05078044 -0.10368872
0.08128143 -0.07614622 0.12298782 -0.039183427 0.052158337 -0.10366064 -0.0505733 0.054712284
-0.09247768 -0.057034068 0.070249595 0.05555604 0.0724851 0.102390125 0.061785035 -0.06953549
-0.084475115 0.05354297 -0.07367369 0.2079369 0.1128478 -0.06829401 0.066103175 0.04761675
0.044799984 -0.049960878 0.0650672 0.068158045 0.054402094 0.09850431 0.08085765 0.05922947
-0.04701116 -0.12218858 0.08458705 -0.07610102 -0.07310599 -0.062462687 0.053567927 -0.13362932
-0.13887013 0.06053703 -0.055057436 -0.06280691 -0.10533813 0.052019447 -0.07460648 0.06400122
0.13697496 -0.048995607 0.047152475 0.07304444 0.060151093 -0.05863406 0.12905206 0.06132951
-0.025808979 0.055198357 0.08984727 0.05495777 0.050268304 0.06649384 -0.04820481 0.046632867
0.17094852 -0.06282765 -0.04282237 -0.035147093 0.038379494 -0.065230645 -0.08008799 -0.05342798
-0.055927552 -0.056793697 0.058117423 -0.045185246 -0.07537802 -0.06758496 0.061775744 -0.089581
-0.10515631 -0.09313377 0.08518595 0.051174078 0.081691295 0.07733154 0.043548126 -0.036373604
0.045221683 0.082117386 0.058216393 0.04422043 0.05813748 0.04526328 -0.08257483 0.041652445
-0.09115202 0.051983487 -0.029069984 -0.1158979 0.10476319 -0.20132236 0.08294819 0.05485365
-0.07734033 0.108310446 0.06359075 -0.059749413 -0.027255557 0.048935965 -0.066361934 -0.081500605
-0.12327563 -0.06601709 -0.05529653 -0.06733723 -0.07266313 0.06456423 -0.053819023 0.050640315
0.062047027 0.053009868 0.056734417 -0.08713011 0.06259557 0.09958484 0.081886694 0.059158698
-0.052843068 0.06484708 0.0784809 -0.07808911 0.06388597 -0.087784074 -0.055172134 -0.06935137
0.1219146 -0.05425852 -0.099070884 0.055309087 -0.13799074 -0.110828206 0.057350863 0.06969872
0.060271017 0.0832903 -0.07700784 -0.038461983 0.10186588 -0.06619459 -0.064996906 -0.049237315
0.093066804 -0.05637071 0.056962755 -0.107581936 -0.115658015 0.08703735 0.057728186 0.059750836
-0.065057985 0.041966688 -0.029517524 0.07385447 0.06997333 -0.07788677 0.0742173 0.06972075
