experiments/exp1/models/checkpoint_critic_6.pth (torch_old, 275436 bytes, 5 tensors)

fc1.weight f4 [200, 33]
00000000: 9bf8 163c 14cd 0bbc af94 23bc 6cd0 4e3d
00000010: 2b54 ad3d 32c0 423d f79c 903d 2371 dd3b
00000020: 15ed 1cbc 6860 8d3d 7208 2cbc 95dd f6bb
00000030: 6afa 933b 38da 09bc 70ec 94bb 7af4 2c3c
00000040: 3eec 8b3d d300 babc 4fc2 333d 2bbf bd3d
00000050: a06f 723b b830 52bb 8e4e 773a 4642 70bb
00000060: dca9 1b3a 1628 8f3b db96 193c e13b f93a
00000070: f0fa dc3c 94fe 57bd 2c53 d9bc e1db 873d
00000080: 9bf4 8fbf 8d8d 3dbd 7966 933c 21af cfbd
00000090: 0681 703d d245 d6bd 589b b2be 49c2 43bb
000000a0: c6df b63b 0f13 ae3d 5ecb d73d 717c e23c
000000b0: e74e d93c cfc1 12bd 8102 013d e92c 103d
000000c0: 8ae8 923d 67c9 6ebe 83c7 62be c3c9 8ebe
000000d0: 833d 34be 23e8 593b 64a6 f03c 899c ab38
000000e0: 60c1 803b ed69 833b 36a8 98bc bed0 6cbd
000000f0: a949 0f3d b330 37bb 5fa1 90bd 53a3 25bd
00000100: b0f8 283d 5f2b a93e 8a92 803d 3f75 71bd
00000110: 4cee 3cbd d1a2 f9bd 4522 513d 0fd9 86be
00000120: 411d 1a3e 2811 c23c aa04 a4bc a274 753c
00000130: ec0a ce3c de4e 063d 7532 3b3d e3a2 ffbd
00000140: 4aa6 1d3e 7fcc 63bd c962 b2be bb2f f13d
00000150: d83d 0b3e 8c60 8c3e a567 d8bc 5fe0 07bd
00000160: 1716 1dbb d84d 493c daf4 293d ed67 babd
00000170: 495c d23d 3887 c9bc 45dc 583d c6bd 1a3d
00000180: a73d 783d 1243 293d 89d4 b1bd eb13 4fbe
00000190: 5337 033e 9200 103e d896 f93c aa63 943e
000001a0: 6905 9dbe 0b22 8f3d 8aa7 c1bc a303 3cbd
000001b0: a486 df3d 67be 8d3a 729f de3b 278d fd3c
000001c0: b01d 8b3d 5b5f de3c 0b13 08be 1365 fd3d
000001d0: 7d4a 61be 8977 fcbc 1790 043e 2d4e a2bb
000001e0: 75d1 8dbd 8b24 6c3d 3ee3 0d3c a036 31bd
000001f0: b1d0 e63c 3db7 8abc b5e7 ab3d 6269 78bd
00000200: 966e 80bd 5757 33bd 286a 63bc 1b89 3fbd
00000210: 2db9 d73d 59a7 bf3d 536e 16be 8d5c 0ebe
00000220: 4bcb 293e 4065 6e3e 6c6b 0b3e cacf 803d
00000230: 8a22 9dbd d099 2cbe 37ce 07bc ce08 c5bd
00000240: 6ce3 f63d 21a3 87bd 940e 8ebd deb3 693d
00000250: bdb0 55be 6c38 7e3e 5aaf 1c3e f33c 153d
00000260: 891c a4bb 6296 6cbb bfb0 5b3c b7e7 21bd
00000270: b24b 7b3d 597e 953d 65e8 033d 207e 023e
00000280: c600 7ebd 40f5 ff3c 2e47 2ebe b1c3 87bd
00000290: 0bc2 a63c 12d1 983c 84a9 6ebd 73cc 663d
000002a0: 530d a13b d25a eebd 8496 82be 5cd7 d13d
000002b0: 43c5 0dbd ffe2 f33c a706 663d a177 483c
000002c0: 21b3 b73c e097 e9bb ec62 763a 6eb8 833d
000002d0: 4c89 dabd a9e4 873d 872b 793e 80b9 d2bd
000002e0: aeaa f8bd 4971 b3bc e469 f2bc 94a1 9e3d
000002f0: ad50 553d fb2a 6c3b e27c 99bb 6601 c53d
00000300: cd58 2f3d 3ba6 8a3d 3aa3 7b3d 2589 63bd
00000310: 0884 8bbd d10e d5be 45ff 01be b54d 3fbd
00000320: 3f71 fabc bbc8 033d 9261 0e3d d8bd 28bb
00000330: b438 ce3d 87ef c7bd 7830 81be 7c6a db3c
00000340: 38e9 97bc eabc 513d 3100 36bd e689 1d3e
00000350: aba3 563d 1a39 553c a5cc 92bd 6ce3 4ebe
00000360: 3676 45be 9cff f5bd cfdd 0cbc bada 283c
00000370: e0da eb3b 5601 eb3a 9248 453d 3d15 cfbc
00000380: f12e 43bd 182a a33d 964c 113d 4a30 99bc
00000390: 0661 69bc 80d1 68bc 10ce d53e a0df b63d
000003a0: ca1a 4d3d 34c3 1dbe 6623 213d 20ad 1d3d
000003b0: 3fbb b9be 8b7b ab3e b41d 643d c7a4 fbbd
000003c0: f470 22bd 8c41 fd3c 5881 9abb 26d7 173d
000003d0: 8041 353c 4ac4 16bb 1619 d13d 5c30 39be
000003e0: b8ba b2be de8c 3ebe 6534 153d 552b fe3c
000003f0: b957 2f3c 835d 03ba eafa 383d 9b0a ad3c
0.009214546 -0.008532781 -0.009984179 0.050491735 0.084633194 0.047546573 0.07061189 0.0067578717
-0.009578009 0.06903154 -0.01050006 -0.007533739 0.0045159357 -0.008413844 -0.004544787 0.010556335
0.06832169 -0.022705471 0.04388648 0.09264978 0.0036992803 -0.0032072496 0.0009434008 -0.0036660596
0.0005938092 0.0043687923 0.009374346 0.0019015038 0.026975125 -0.05273302 -0.026528917 0.066337354
-1.1246523 -0.04627757 0.017993199 -0.10140825 0.058716796 -0.10462536 -0.34884143 -0.0029870442
0.005580875 0.08499729 0.10536836 0.027647229 0.026526881 -0.03582936 0.03149653 0.03519908
0.071732596 -0.23319016 -0.2214642 -0.27888307 -0.1760159 0.0033249937 0.029376216 8.183072e-05
0.003929302 0.00401043 -0.018634897 -0.05781626 0.034982357 -0.002795261 -0.07062029 -0.04043896
0.041252792 0.33040902 0.0627795 -0.058949705 -0.046125695 -0.12189258 0.051058073 -0.26337478
0.15050222 0.023689821 -0.020021755 0.014981421 0.025151692 0.032790057 0.045702416 -0.1248224
0.15395465 -0.055614945 -0.34840992 0.11776682 0.1359781 0.2741741 -0.026416609 -0.03317296
-0.0023969465 0.012286626 0.041493274 -0.091018535 0.10271508 -0.02460061 0.05294444 0.03777864
0.06060567 0.04132373 -0.08683116 -0.20222442 0.12814073 0.14062718 0.030467436 0.28982288
-0.3066819 0.06988915 -0.02363946 -0.045901906 0.109143525 0.0010814191 0.0067939097 0.030951096
0.06792772 0.027145078 -0.13288514 0.12372794 -0.22001071 -0.030818718 0.12945591 -0.004953167
-0.069247164 0.057652038 0.008660136 -0.043264985 0.028175684 -0.016933078 0.08393804 -0.060647376
-0.062710926 -0.043784466 -0.01388029 -0.046761613 0.10533366 0.09358091 -0.14690523 -0.13902493
0.16581456 0.23280811 0.13615197 0.062896326 -0.076726034 -0.1685555 -0.008288912 -0.0962082
0.12055096 -0.06622911 -0.06936374 0.0570563 -0.20868202 0.2482621 0.15301266 0.03643508
-0.0050082845 -0.0036100377 0.013408839 -0.03952762 0.061351486 0.072994895 0.03220405 0.12743425
-0.062012456 0.031244874 -0.1701934 -0.06629122 0.020356199 0.01865438 -0.05826713 0.05634732
0.0049149184 -0.11638416 -0.2550546 0.10246155 -0.03461195 0.029771326 0.056158688 0.012235553
0.022424283 -0.0071287006 0.0009398896 0.064316615 -0.106707186 0.0663541 0.2433301 -0.102892876
-0.121419296 -0.021904605 -0.029591508 0.07745662 0.05207889 0.003603636 -0.0046840766 0.09619407
0.042809296 0.06769987 0.06143496 -0.055550713 -0.06812292 -0.41612867 -0.12695034 -0.046704967
-0.030571578 0.032173853 0.03476102 -0.0025747921 0.10069409 -0.09762483 -0.2523229 0.026784174
-0.018543825 0.051205553 -0.044433776 0.15384635 0.05240218 0.013014102 -0.07167939 -0.20203942
-0.19283375 -0.12011644 -0.008597805 0.010306055 0.007197723 0.0017929475 0.04816491 -0.025278682
-0.04765219 0.07967013 0.03547343 -0.018699784 -0.014244324 -0.014210105 0.41758776 0.08929372
0.050074376 -0.15406495 0.0393404 0.038495183 -0.3627567 0.33492693 0.05569239 -0.12287288
-0.0396585 0.030915044 -0.004715126 0.037070416 0.01106298 -0.002300518 0.10209863 -0.18084854
-0.3490808 -0.18608424 0.03642692 0.031026522 0.010702067 -0.0005011188 0.045161165 0.021123221

fc1.bias f4 [200]
00000000: 9cf0 94bd 553e fe3d 7d33 a3bd 5d41 e93d
00000010: 36cb 41be 47c9 1ebe cd27 19be f1db 7abd
00000020: 239b 8dbc 3b35 bebc 33ef abbd 7f6e 123e
00000030: f76b a23d 8608 11be 244d 5dbc 7a3b 95be
00000040: f07d 34be 6e77 00bd fb78 7f3d 4a22 20be
00000050: fe18 ec3c 3c34 183e cd5b 403d 22f9 3cbe
00000060: 2866 eebd 3ce8 1abe 2821 92bd 11a8 133d
00000070: f553 91bd c99b 2fbe 97ea a03c 545c 71ba
00000080: 4f69 f4bb 5d2a e5bd 97fa aabc c8e5 c43c
00000090: d3b8 74bc 0f34 36be 04d2 9dbd f0cd 043d
000000a0: 22ff 0bbe ee95 0abe cffc 9dbc 3275 38bd
000000b0: a3cf fe3d 1de1 16bd a462 8dbe 8aff f03d
000000c0: 5979 0dbe 1158 25be 7522 f83d 6989 0cbe
000000d0: 0933 14bc ebd5 c53d 69aa 48be 3f53 0e3e
000000e0: e986 913c 1bf4 3abd df06 d1bc 5eb1 07be
000000f0: 2912 b43d 5872 603e 9346 543d 183b a43d
00000100: 6630 64be af7e 5dba 74cf a13d 1329 fbbc
00000110: 6a6b dbbd 3456 62bd 7cdd 42bd 9d1a 813c
00000120: 2ed9 82bd 99a6 343d 84d1 b43c 2ad7 23be
00000130: 4366 a73c df4a 7ebe b97d aa3d af61 28bd
00000140: 0c2e 06bd 9659 56be 2107 833d 048d fbbd
00000150: 502f 743c 1b4a 4abc ad22 bdbd 4bbf 6abc
00000160: 91de 233e adfe 06be e79c 27be fccb 0a3c
00000170: b65d c43d 4831 2fbe 1c62 67be 2c18 b93c
00000180: 754d 203e a31b 9c3d 30a8 483d 8d57 a1bc
00000190: b379 9b3d fdb0 f4bd 9039 aa3d 1560 603d
000001a0: 5f9e 843d 989f 8fbe 2029 95bd 01a0 72be
000001b0: 1993 2abe 0217 c5bc c00c 183e 53d7 75bd
000001c0: 8305 19bd b7a9 7e3d 1967 99bd 885b f6bd
000001d0: 71b9 183d d1c3 40be 83ec 91be 1779 07be
000001e0: 51c7 663e ccfb 35bd bcac 523d 7763 1abe
000001f0: c072 163e 4de4 2cbe dceb b83c 6530 fbbc
00000200: bf2a 38be 4f8c 86bd b69b 01be 7eed 0bbc
00000210: ad09 67bc ca3c 2d3e 09c0 32bd 05ff 7abe
00000220: e81d 22be e0d2 eabc ad13 8ebe bc9e 1abe
00000230: d951 2bbc 9536 b1bd f6f3 0abe d875 4c3d
00000240: 4c9d efbd b517 283d 6e52 f7bd 79d1 d33c
00000250: 9108 44bd 28a7 2a3d 4c3c 143e c3c7 783b
00000260: ad36 c2bb abac 0dbe 12c4 1cbe 370c f7bd
00000270: cb72 13be 5d83 f63d d8f5 ca3d 145a 0cbe
00000280: c0e5 093d e2ec 90bd 547c 6bbe 0288 ecbd
00000290: f332 22be fd42 d73d 11b7 4f3d e031 24be
000002a0: b2aa 093e 3dd8 93bc bf9d 3d3d 0346 26be
000002b0: a8d9 43bd 194a 20be 7eed bcbd 5494 6cbc
000002c0: e627 30be 2dc2 93bd e2af a63a 6698 063d
000002d0: fb64 f43d 8ae4 c4bd 9afb 9ebd c34d 15bd
000002e0: e50d 34be 8232 f63c df5f a53c e4b9 f53c
000002f0: 0682 f0b8 52ec e0bd b648 16be 8572 183d
00000300: f412 debd eb59 24bd 9dde b33d 620e a2be
00000310: f541 15be 3b9c cdbc 020b 223c dc73 44bd
-0.07272455 0.12414233 -0.07968805 0.1138942 -0.18925175 -0.15506469 -0.14956589 -0.06124491
-0.017285889 -0.023218742 -0.08395233 0.14299963 0.07930749 -0.14163408 -0.013507161 -0.2914694
-0.17626166 -0.031363897 0.062371235 -0.1563808 0.028820511 0.14863676 0.046962548 -0.18454412
-0.116405785 -0.15127653 -0.0713523 0.036048952 -0.07096092 -0.17149271 0.019643111 -0.00092071784
-0.007458843 -0.11189721 -0.020871444 0.02403535 -0.014936644 -0.17793296 -0.07706073 0.03242296
-0.13671544 -0.13533756 -0.019285588 -0.04503364 0.12441947 -0.03683578 -0.2761432 0.1176749
-0.13815822 -0.16146876 0.12115947 -0.13724293 -0.009045371 0.09659942 -0.19596256 0.13898943
0.017764525 -0.045642953 -0.025515972 -0.13251254 0.08792526 0.21918619 0.051825117 0.08019084
-0.22284088 -0.0008449358 0.07900897 -0.030659234 -0.10713847 -0.05525799 -0.047574505 0.01575976
-0.0638908 0.044104192 0.022072561 -0.16000047 0.020434504 -0.24833249 0.08324761 -0.041108783
-0.032758757 -0.20932612 0.06397844 -0.12282756 0.014903858 -0.01234677 -0.092351295 -0.014327834
0.16002871 -0.13183089 -0.16368447 0.008471485 0.095881864 -0.17108643 -0.2259602 0.022594534
0.15654548 0.07622459 0.04898852 -0.019695068 0.07591572 -0.1194782 0.083117604 0.05477913
0.064755194 -0.28051448 -0.072832346 -0.23693849 -0.16657676 -0.024058823 0.14848614 -0.060019802
-0.037358772 0.06217357 -0.074903674 -0.12029177 0.037286226 -0.18824698 -0.28500757 -0.13229786
0.2253697 -0.044429585 0.051434264 -0.15077005 0.14692211 -0.16883965 0.022573404 -0.030662725
-0.17985056 -0.065697305 -0.12657055 -0.008540509 -0.014101428 0.1691772 -0.04364017 -0.24511345
-0.15831721 -0.028665006 -0.27749386 -0.15099615 -0.010456526 -0.08652989 -0.13569626 0.049917072
-0.11699924 0.041038234 -0.12076269 0.02585672 -0.047859732 0.04166332 0.14476126 0.0037960864
-0.005926928 -0.13835399 -0.1530917 -0.12062877 -0.14399259 0.12036774 0.09910172 -0.13706237
0.033666372 -0.07076432 -0.22996646 -0.11549379 -0.15839748 0.10510824 0.050711695 -0.16034651
0.13444021 -0.018047446 0.046293017 -0.16237645 -0.047814995 -0.15653266 -0.092249855 -0.014439661
-0.1720272 -0.072147705 0.0012717212 0.032860182 0.11933323 -0.09613903 -0.07762833 -0.036451112
-0.17583425 0.03005338 0.020187316 0.029995866 -0.000114683105 -0.109825745 -0.14676175 0.03721859
-0.10843459 -0.040124815 0.087826945 -0.31651598 -0.14575942 -0.02509891 0.00989032 -0.047962055

fc2.weight f4 [300, 204]
00000000: ab7c 4d3c e2bf 6cbd 3b5e 643c c1df 143e
00000010: f3e2 08be 4569 b43c 4f36 123d a3b1 e2bc
00000020: 856b 73bd 5dba d9bd aee2 9a3c f248 173d
00000030: 6d67 3b3d 0cbf 0d3d 448a 8c3d 7b65 bbbd
00000040: f4a2 d63c 8387 0dbd fd43 c73c 2e6a c33d
00000050: b6ca cd3c 957a 0fbd 37ab 333d 114c a33d
00000060: d80a c5bd a785 9abd 74ed 13be 8e18 973d
00000070: d48f 0e3c fb85 cb3d b447 1abd c9f9 dc3a
00000080: 0857 943d f686 23be 678c 50bd a669 ffbc
00000090: 0ee6 b5bd 840d a93d 07cf 31be a9da 933d
000000a0: 21de 67bd 52b1 1dbc 6ab5 b23d 7723 463c
000000b0: 4c00 063d c5fd 45be 22d0 ad3d 9f34 2fbc
000000c0: 4048 52be ab25 863d 1d8f 873d 4027 953c
000000d0: ac1f 16bd 51db fbbb 5c7f 783d 082d b03c
000000e0: 60db 67bc 81d7 eebc 55ea 47bd 41e0 0fbd
000000f0: 0315 2ebe c03d 243d a27b 093d d5c6 e6bc
00000100: 9f27 69bc ef23 893c 5ff6 bd3c 9855 e7bc
00000110: 0ec0 83bd addb 92bc 15c2 bdbc 11e0 77bd
00000120: c5e4 2fbd d573 c1bd ef7c 1ebc 3b0f f3bd
00000130: 9140 b73b 53d7 aebd eed8 d4bc c67e 72bd
00000140: a2e4 063d 7ddb 53bd aba8 98bd 3d35 95bd
00000150: ea15 adbd a0d0 963d 3019 b6bd 6fe2 06be
00000160: 50a7 dfbc 68d8 a93d 22bd a3bd 6503 9b3d
00000170: 3db2 95bd 2cca 04be 56ad c63d d095 65bd
00000180: c9cf ac3c 87ef ec3d 34f5 b3bd 4b67 1ebe
00000190: 3074 ff3c 0663 94bd fbf8 c0bc 98b6 da3a
000001a0: 00d3 adbd f690 93bd 0efd 11be 5e87 b7bb
000001b0: ce9c 0e3d b418 6f3d bbd8 a0bd 06b6 9abd
000001c0: b100 a53c 4d2d b1bc 9189 553d cd80 013e
000001d0: dd4d c6bd dea0 b7bd d1cd a13c fd7b d6bc
000001e0: 674d 0fbe b13b b5bc dea3 fcbd 758e 0abe
000001f0: 24cc 39bd d97f f7bd 1c1b bd3d 3daf a13d
00000200: 79cc e63b 291b f03d 1b5a 253d 29da 03be
00000210: 6ced 893d 64fc 40bd 3db2 913d 4c87 68be
00000220: 2a69 2dbc c3bc 843d eca9 8abd e32f f1bd
00000230: 3fdc d73c b39f bfbd 6545 e93d d22d 9e3c
00000240: 8a73 893d dd41 49bd a417 0c3e e799 143e
00000250: 307b 0b3d a658 ccbd df3c f9bd feea d3bd
00000260: fe49 a43d 88df c83b 2013 adbd f7af 3fbd
00000270: 4121 473d 9d88 fb3d 1ca0 a13d f87b 56bd
00000280: 29fe 6b3d 5c23 e5bd d104 193c a6bc 5dbd
00000290: 3a44 8ebc 4c6b cd3d a8da 113d c0e6 a1bd
000002a0: d95f 72bd 2ad1 5fbd 26e0 0dbe 6adb 16bd
000002b0: 1b2c 6dbc e2b3 343d ca8f 7fbd f524 233d
000002c0: ae30 a73c ecd5 f33d 7054 513d 259f ac3d
000002d0: f5b5 adbc dd7b 5f3e 42b1 e3bd 40b4 203d
000002e0: 7b3c d83c ee55 f2bb 71fc 3dbd 7e66 fbbd
000002f0: 70e3 84bd 51eb 9ebc ac99 7bbd 390e e6bd
00000300: 3856 e13d 8006 f0bd 84d8 893b d3ab f1bd
00000310: 209b 97bd 4e43 7e3d 9234 833d 5cc1 dd3c
00000320: 6a99 d03b bd4f a7bb bbf0 9ebc 81aa 023b
00000330: 44b5 4cbd 85df 04bd 1cce 4cbd df89 6bbe
00000340: a176 d9bd 15d8 903d 07df 483d 010e f1bd
00000350: 3548 d43c a318 363d b4eb 8dbc 4579 753c
00000360: fbeb 353d 903a 953b 47a4 8cbd 8113 5f3d
00000370: 3064 06bd 1384 99bc 1234 56bc bbcd 37bd
00000380: fc6f 3e3d 8333 47bc 1ce8 0dbd 50aa 9a3d
00000390: 5c63 6f3d 04db 813d 4461 1ebc 62f7 833d
000003a0: bed4 a93c 0b23 78bc 0867 c9bd 0c2d 0cbe
000003b0: e825 c23c 7da1 5f3d 0da2 653c 66b7 95bd
000003c0: 15fe 96bd 74eb 103d 1c94 e3bd f710 fe3c
000003d0: 4bf6 323d 5a9b 0c3c 75ab 65bd 51ab ef3b
000003e0: 4986 d43b 4eea 03bd f94e 353d 9651 343b
000003f0: eaa5 13be 495e 1bbe f463 0ebc bb96 d0bd
0.01254193 -0.05780018 0.013938482 0.1453848 -0.13367824 0.022022853 0.035696324 -0.027672594
-0.05942871 -0.10631249 0.018906917 0.0369348 0.04575293 0.034606025 0.068623096 -0.09150215
0.026200749 -0.034553062 0.024324412 0.095417365 0.025121074 -0.035029013 0.043864455 0.07973493
-0.09621209 -0.075450234 -0.1444605 0.0737773 0.0087012835 0.09937664 -0.037666038 0.001685911
0.072431624 -0.15969452 -0.050915148 -0.031178307 -0.0888177 0.08254531 -0.17364131 0.072194405
-0.056608323 -0.009624796 0.08726008 0.012093416 0.032715127 -0.19335087 0.08486964 -0.010693698
-0.20535374 0.06550153 0.066190936 0.018207192 -0.0366513 -0.0076860567 0.060668334 0.021505848
-0.014151424 -0.029155495 -0.04880746 -0.035125975 -0.17000203 0.040097952 0.03356517 -0.028170982
-0.014230638 0.016740767 0.023188768 -0.028239056 -0.06433116 -0.017927015 -0.023163835 -0.06051642
-0.04294278 -0.09445921 -0.009673341 -0.11868139 0.0055924137 -0.085371636 -0.025982346 -0.05920293
0.032932885 -0.051722992 -0.07454046 -0.07285545 -0.084514454 0.07364011 -0.08891523 -0.13172315
-0.02730146 0.08293229 -0.079950586 0.07569007 -0.07309387 -0.12967747 0.0970103 -0.056051075
0.021095173 0.11569124 -0.08787003 -0.1546909 0.031183332 -0.0724545 -0.023556223 0.0016686497
-0.08487511 -0.072053835 -0.14256689 -0.005600854 0.03481751 0.058373168 -0.07853838 -0.075542495
0.020141931 -0.021628046 0.052133147 0.1264679 -0.0968282 -0.0896623 0.019751461 -0.02618217
-0.1399437 -0.02212319 -0.12335943 -0.13530906 -0.0453607 -0.12084932 0.09233686 0.07894752
0.007043418 0.117239304 0.040369134 -0.1287619 0.06734738 -0.0471157 0.071140744 -0.22707862
-0.010584155 0.06481316 -0.06770691 -0.11776712 0.026350139 -0.09356632 0.11390189 0.019308958
0.067114905 -0.049135078 0.13680893 0.14511834 0.034053028 -0.09977846 -0.12169813 -0.103475556
0.080219254 0.0061301626 -0.084509134 -0.046798673 0.048615698 0.12281916 0.078918666 -0.05236432
0.057615433 -0.11188385 0.009339527 -0.054134987 -0.017366517 0.10030231 0.035608917 -0.0790534
-0.05917344 -0.054642834 -0.13855037 -0.036830343 -0.014475848 0.044116862 -0.062392987 0.039830167
0.020408954 0.11906037 0.051105917 0.08428792 -0.021204928 0.21824594 -0.111177936 0.0392344
0.026396027 -0.0073954975 -0.046383325 -0.12275408 -0.06488693 -0.019399317 -0.06142585 -0.112331815
0.11002773 -0.1171999 0.004206719 -0.11800351 -0.074026346 0.062075906 0.06406511 0.02706974
0.0063659446 -0.005105941 -0.019401899 0.0019938054 -0.049977556 -0.032439727 -0.05000125 -0.23001812
-0.1061833 0.070724644 0.04904082 -0.11770249 0.025913337 0.04445709 -0.017324306 0.014982526
0.0444145 0.0045541003 -0.06867271 0.05446196 -0.03281039 -0.018739736 -0.013073938 -0.044873934
0.046493515 -0.012158277 -0.034645185 0.07552016 0.058444366 0.06340602 -0.009666745 0.06443669
0.020731326 -0.015145074 -0.09834105 -0.13689059 0.023699716 0.054597367 0.014015687 -0.07310371
-0.07372681 0.035380796 -0.11112234 0.031013949 0.043691915 0.008581961 -0.056071717 0.0073141237
0.0064857346 -0.032205872 0.044264767 0.002751445 -0.1441876 -0.15172686 -0.008690823 -0.101849996

fc2.bias f4 [300]
00000000: 5982 0dbe 6d9a 60bd 5661 b3bd c52c 5d3e
00000010: 265d b0bd df6a 8d3e 5ca7 5dbb be61 9f3b
00000020: 74c1 60bd 0eca f9bc 4cb7 c6bd 25c6 cfba
00000030: 982e b2bd 74f0 01bd f95e 5a3d 5da8 9fbd
00000040: 356e bf3d 7e45 dbbd b27b 4e3e 0095 8a3d
00000050: 09ba a8bd 0fef 573d a6ea 5e3e d993 75bd
00000060: 6da8 2fbc aeaf 85bd fae4 a03d 0a5e 0a3c
00000070: 217d 923c e4bc 4cbd fdc0 a4bc fb82 513c
00000080: 42f1 96bc 9d2f c2bc 2926 06be 0581 463e
00000090: 474f 10bd 0d62 3cbd 79ab e03d 32a9 133e
000000a0: 83f7 75bb 4ccb 173d 5ada 763d abdc c5bd
000000b0: 61a7 923d 0d56 8a3d b7e4 cfbc b409 50be
000000c0: 7990 9d3c 5ab5 213c 0b7e 18be 4077 193e
000000d0: 0722 893d 5b1f 413e 78ff f53d d54c 8c3d
000000e0: bc8b f1bd 76f6 b0bd 3cc8 4d3d b7d0 d7bd
000000f0: 17cc a5bd deff 703d 92d8 ac3c e1fb 283e
00000100: f49c 6a3c f429 113d 7972 5bbd 1743 6bbd
00000110: 8cfd dfbc 06a9 5bbd c3c9 493e 70f6 1e3e
00000120: fed6 5f3d bda3 6d3e cf70 9abd 036d 373d
00000130: 1fd7 da3d 6c33 3cbc 6b0e bf3d d195 503e
00000140: 952f 9bbd d2dd 95bd 8c7d 2c3d bc7e 833e
00000150: 38d1 0fbd cfa2 a8bc ba5f 87bc eb3d 02bd
00000160: 7fc5 8b3d c043 8fbd 8873 41bd 19ab 29bd
00000170: f7a8 4ebd 8964 153d 4c31 833d 8e29 e3bd
00000180: d4b7 59bd 473e 463e d656 6fbd c58a b63c
00000190: 4e5d 0abe 7d8e d7bb 9914 233e 083d 393d
000001a0: 4e92 4d3e e41b ab3c 19c6 573d 1e14 9a3c
000001b0: aaa6 aebc 0a22 5abd 77ac 1b3e c0ad 313d
000001c0: 0b7c b93d 3ff0 a13d 224a f1bd 7943 5e3c
000001d0: 7442 cf3d 2f2f 453c 6604 363e e9c2 d33d
000001e0: 6762 c73d 55ce 72bd 7659 673d 174c 573d
000001f0: e18b 45bd 5532 393d d036 ba3d 6ad1 833e
00000200: f3f1 c13d 8c0c 503e 5cea 41bd 4475 dabc
00000210: 2f20 7d3d de59 833d 84c1 ef3d 2040 8c3c
00000220: b27d ad3d c210 a53d eea5 77bc f9f7 c63d
00000230: b430 fd3d 7288 873d 383f e2bd bd70 ca3d
00000240: 5348 2a3e ca7e 653d 9fc6 95bd b9df 613c
00000250: 61d4 c53d fa0e be3d 9090 0c3b 1748 c9bd
00000260: eb98 99bc e306 e83d 41ed 023e 171f 653d
00000270: 5a2c dd3d 8db8 013e 218e a63d a00d 013e
00000280: 21c3 863d ef9e ba3d 94b5 833d 8397 283e
00000290: a0ee 843c 0490 803c bb43 123e 3143 8dbd
000002a0: 58d1 39bd a22c d9bc 6bb4 ebbd 7ee2 d93d
000002b0: cf5e 8d3d b9a0 d53d 8cd7 68bc d587 82bc
000002c0: 35f2 4a3d 15a9 243e d3e9 cd3d 82a4 bdbd
000002d0: 2993 b8bd a00a 12be dcc5 e73c ab05 4f3e
000002e0: fde1 42be 6981 f03d 7f85 7dba b414 fe3d
000002f0: d201 123e 4974 83bd ee8c 1b3d 4feb 823e
00000300: 5567 183e e919 303e 7735 bf38 cbaf b13b
00000310: 2aa7 6a3c d5bd 533d 78f4 1e3e fe2d d6bc
00000320: 0b62 553c a704 82be 5b89 0fbd 15a4 273d
00000330: 866f bbbd 16ba 773d 1623 91bd 1811 193e
00000340: ddd0 c83d 48c3 603d 36f0 013d d023 86bd
00000350: 8e79 5d3e fa91 d4bd 1ed8 1abd 9cc5 073e
00000360: 41af b53c bc76 0d3e 5925 613c d290 033e
00000370: 6aa9 413e 5c9f 193d 3b07 d83c 496d 1c3e
00000380: 943b 3c3e 454c e3bd c37d b53d 21fb 6b3e
00000390: 190e 403d 6e70 323e 2057 203e 4e34 21bd
000003a0: 0e42 8e3a b0fc 933e a9bf 32bc 2ec8 4fbd
000003b0: 277c 203e 16fe 70bd b6fd 78ba 00b8 79bd
000003c0: 77df f03d 3683 b53d 9fb0 1dbd 39d8 afbc
000003d0: 8f12 03bc 0b0d 09be 3ef4 19be f3ec 3a3e
000003e0: 5617 073e 3fbc 5f3d 3196 a93e 6f6c 2c3a
000003f0: 3fac 303d 1621 6cbd 39da 64bd 8ae9 88bc
-0.13819255 -0.054834772 -0.087588 0.2159911 -0.08611517 0.276206 -0.0033821678 0.0048639467
-0.05487199 -0.030491855 -0.0970293 -0.0015851898 -0.08700293 -0.031723455 0.05331323 -0.077957846
0.09347192 -0.10706614 0.20164374 0.06766701 -0.082386084 0.05271822 0.21769199 -0.05995545
-0.010721308 -0.06527649 0.07856174 0.008445272 0.017881932 -0.049984828 -0.020111555 0.012787576
-0.018425588 -0.023704344 -0.13100494 0.19385155 -0.035231855 -0.045991946 0.10970206 0.14420012
-0.0037531562 0.037059113 0.06026683 -0.0966123 0.07160831 0.06754694 -0.025377614 -0.20316201
0.019233929 0.009869898 -0.14891832 0.14986897 0.06695943 0.18859617 0.120116174 0.06850592
-0.1179423 -0.08640759 0.050239787 -0.10537856 -0.08095568 0.058837764 0.021099363 0.16502334
0.014319647 0.0354404 -0.053575967 -0.05743703 -0.02734258 -0.05362799 0.19705872 0.15523696
0.054648392 0.23206992 -0.07541048 0.044781696 0.10685562 -0.011486869 0.09328922 0.2036965
-0.07577435 -0.073176995 0.04211192 0.25682628 -0.035111636 -0.020585446 -0.016525138 -0.03179733
0.06824779 -0.06995344 -0.04722932 -0.041422937 -0.050454106 0.03647283 0.06405887 -0.1109191
-0.053153828 0.19359694 -0.058432423 0.022282967 -0.13512155 -0.006578265 0.15925826 0.04522422
0.20075342 0.020887323 0.052679155 0.01880842 -0.021319706 -0.05325512 0.15202509 0.04337859
0.090568624 0.079071514 -0.11781718 0.013565891 0.10120097 0.012035175 0.17775115 0.103399105
0.09735566 -0.059278805 0.0564818 0.0525628 -0.048229102 0.045214016 0.09092486 0.25745708
0.09469976 0.20317286 -0.047342643 -0.026667245 0.06179827 0.06413625 0.11706832 0.017120421
0.0847124 0.08059837 -0.015115244 0.09715266 0.12362805 0.06617822 -0.11047214 0.09884784
0.16629152 0.05602912 -0.073132746 0.01378625 0.09659649 0.092802 0.002144847 -0.09828203
-0.018749675 0.113294385 0.12785818 0.055937853 0.10799475 0.12668057 0.08132578 0.12602854
0.06580187 0.091123454 0.06431118 0.16464047 0.016227067 0.015693672 0.1428365 -0.06897581
-0.04536566 -0.02651054 -0.11509021 0.10638903 0.06902849 0.10431046 -0.014211547 -0.01593391
0.049547393 0.16080125 0.10054364 -0.09259893 -0.090124436 -0.14261866 0.028292589 0.20217006
-0.1903152 0.11743433 -0.00096710766 0.124062926 0.14258507 -0.06418664 0.037976198 0.2557015
0.14883168 0.17197384 9.117548e-05 0.0054225675 0.014322082 0.05169471 0.15522945 -0.026144978
0.013023864 -0.25394174 -0.0350431 0.040927965 -0.09152131 0.0604802 -0.0708677 0.14947927
0.098054625 0.054873735 0.031723224 -0.065497994 0.216284 -0.10379405 -0.03780376 0.13258976
0.022178294 0.13814825 0.0137418145 0.12848213 0.18912283 0.037505493 0.026370635 0.15276064
0.18382102 -0.11098532 0.08861878 0.23045017 0.046888445 0.17425701 0.15658236 -0.039356522
0.0010853426 0.28903723 -0.010909953 -0.050728016 0.1567236 -0.058836065 -0.0009498255 -0.06096649
0.117613725 0.08862917 -0.038498517 -0.021465408 -0.00800003 -0.13383882 -0.15034577 0.18254451
0.13192496 0.054622885 0.331224 0.0006577437 0.043133017 -0.05764874 -0.055872176 -0.016712923

fc3.weight f4 [1, 300]
00000000: d5c0 8dbe 19f1 b7bd 9741 5abe d245 8f3d
00000010: 3a41 f3be 7a66 b03d e2c4 48be bdee 933e
00000020: b853 99be 1f42 5bbe e585 88be 496c 88be
00000030: ac9f c6bd d5c5 a2bd 8825 eb3d f415 cdbd
00000040: 1883 ae3d c388 02be 2cc5 063e e37c 213e
00000050: 46ef 27be f1e4 173e 56cf 063e b3fc 39be
00000060: cd60 46be 623a 4fbe d68d d93d cb2b bbbe
00000070: eb7a 123e 4946 4ebe 9a27 84be ffc8 9dbe
00000080: 80f6 abbe 8d92 90be 32f3 35be 99b5 863d
00000090: a9a3 fbbd b571 36be 0cb3 463e c847 613e
000000a0: df0d 2cbe 8d85 15be 75b1 b53e 8ad7 90be
000000b0: 83de ee3d 90e9 283e acd8 8bbe abe2 06be
000000c0: 278c b93e 554c 03be 82ad 84be 0653 c03e
000000d0: 1fa2 cb3e cf20 153e 4ca4 eb3d d35e 373e
000000e0: 4ed1 4cbe 3f34 a8be 93a4 4f3e ddbe 72be
000000f0: da8f 5cbe 6b66 8f3e b9e9 a63e 023f b53d
00000100: cd0f 91be f702 53be f839 e3be 9fcb 45be
00000110: 37e1 fabd 324f 8abe 4bf1 a13d b39c 773d
00000120: 39f3 573e 4381 d03d 3368 32be cb4e 88be
00000130: 6add a03d 4864 55be 622f 383e 9a7a 893d
00000140: d9ec 4ebe 632d 91be 6e80 73be aaa8 b83d
00000150: 5773 95be dd71 92be fb39 5cbe 0a14 5cbe
00000160: 8c14 583e 7dc1 42be 68ca f3bd 8b6f b3be
00000170: 0f70 b4be 9146 6f3e aeeb 553e f23a 30be
00000180: 3326 6dbe 26f7 7a3d 80e2 86be 6255 51be
00000190: e92c 13be 9a9b 0abe ab1f e13d 023c 2f3e
000001a0: 1ad9 8b3d 920e 8c3e 508d bcbe 1d2b 2c3e
000001b0: 38d0 b4be 6b8f 86be df95 143e 4497 083e
000001c0: f5f7 7d3e cded 6d3e 286a 2abe 709f 98be
000001d0: e936 733e ecdc 22be 78bc 193e e848 d23d
000001e0: a021 b73e 4cac 7abe 215f 2b3e 16e5 273e
000001f0: 1588 98be 0116 c3be a9d4 313e 0157 d23d
00000200: e9e0 033e 5fd1 b63d b99f 01be f7d3 73be
00000210: 1bcc 7abe 44cc 443e 595d 3f3e 2b2c 603e
00000220: 7e69 a83e d056 143e 8b7f a0be 3700 1b3e
00000230: 0372 2c3e 0577 1a3e 9e72 36be 59f4 863e
00000240: 18e0 103e daeb ba3d e81d 66be aac7 723e
00000250: 8bf6 d33d 903b 5f3e 8a46 52be 6277 eebd
00000260: 5930 4abe 305d 7e3e aa62 8d3d 8c00 6e3e
00000270: 308a 4a3e 402e 403e 1fa7 143e 5b5f 463e
00000280: 542d 293e fbb4 2f3e 5a12 243e 13ee 7e3d
00000290: f914 803e 2ae5 713e db69 1f3e 2462 d5be
000002a0: 9dd8 87be 9ab3 9e3e f4d8 3ebe a62e 373e
000002b0: 40fd 0a3e f53d 793e 5191 babe 1741 88be
000002c0: 8997 b23d e295 6d3e bc00 f03d 92aa a7be
000002d0: 7e54 49be 0a50 96bd 7cac 64be 6487 e43d
000002e0: 6eff 54be 9b83 df3d 952d 47be 0a69 133e
000002f0: 4155 9e3d b2fd babe dfbd aabe 3128 923d
00000300: a8ca a03d 2443 0c3e b785 3bbe 413f acbe
00000310: f37b 403e 5b05 9dbe 33a4 453e 88f7 7bbe
00000320: b154 33be ee73 dabd e906 05bf 7ab6 0b3e
00000330: 55b7 1ebe 00a7 783e 3d07 2dbe 2039 153e
00000340: 9684 203e 2d30 0f3e 3d7c 213e 8e78 7cbe
00000350: 8ec1 fd3d 100d 2bbe 4066 7cbe de3b 103e
00000360: a353 41be a303 263e ca3d 543e fb72 0c3e
00000370: 7695 e23d 18c5 ec3d 87d4 6a3e 7484 e53d
00000380: 2aa9 4c3d 6f27 69be 92a0 853e 39f2 953d
00000390: 61e5 af3d 8b81 133e 4656 483d a3f5 46be
000003a0: 754e 0dbe a545 8a3d 57f5 68be e072 4dbe
000003b0: 1d20 f23d f782 40be 7439 c43d 28a5 75be
000003c0: 2132 c43d 95a4 473e 12f9 32be e24a b7be
000003d0: 4374 36be 27c1 0cbe 3562 2bbe 5e86 243e
000003e0: b70a 823e f785 ad3d 5457 9b3d 614f c1be
000003f0: 4b29 003e 58e7 5abe 75ed debe 928f 6abe
-0.27686182 -0.089815326 -0.21314083 0.06995739 -0.475107 0.08613296 -0.19606355 0.2889308
-0.29946685 -0.21411942 -0.26664653 -0.26645115 -0.09698424 -0.0794789 0.11481768 -0.10013953
0.08521098 -0.12747483 0.13161153 0.15770297 -0.1639987 0.14833428 0.1316503 -0.18162803
-0.19372864 -0.20237115 0.10622756 -0.3655685 0.14304702 -0.20143999 -0.25811464 -0.3081741
-0.33586502 -0.2823681 -0.17768553 0.06577606 -0.12287075 -0.17816813 0.19404238 0.22000039
-0.16802166 -0.14601727 0.3548695 -0.28289443 0.116635345 0.16495347 -0.27313745 -0.13172404
0.3623974 -0.12822087 -0.25913626 0.37563342 0.39772126 0.14563297 0.115059465 0.17907266
-0.20001718 -0.3285236 0.20277624 -0.23705621 -0.2153925 0.28007826 0.3260019 0.088499084
-0.28332368 -0.206066 -0.44380164 -0.19315957 -0.122499876 -0.27013546 0.07907351 0.060452174
0.21088876 0.10180905 -0.17422561 -0.26622614 0.078547314 -0.20839036 0.17986825 0.067128375
-0.20207538 -0.2835494 -0.23779461 0.09016545 -0.2918956 -0.28602496 -0.21506493 -0.2149202
0.21101588 -0.19019122 -0.1190384 -0.35046038 -0.35241744 0.23366763 0.20890686 -0.17209986
-0.23159103 0.061270855 -0.2634468 -0.20442727 -0.143726 -0.1353592 0.10992368 0.17112735
0.06828518 0.27354866 -0.36826563 0.16813321 -0.35315108 -0.26281294 0.14510296 0.13338953
0.2480162 0.23235245 -0.16642058 -0.2980914 0.23751415 -0.15904588 0.15013301 0.10267812
0.3576784 -0.24479789 0.16735508 0.16395983 -0.29791322 -0.38102725 0.1736628 0.10270501
0.12878765 0.08926653 -0.12658586 -0.23811327 -0.24491923 0.19218546 0.18687953 0.21891849
0.32892984 0.14486241 -0.31347308 0.151368 0.16840367 0.15084465 -0.1781716 0.26358297
0.14147985 0.09127016 -0.22472346 0.23708978 0.10349759 0.21800065 -0.20534721 -0.11643864
-0.19745006 0.24840236 0.06903584 0.23242396 0.19779277 0.18767643 0.14516877 0.19372313
0.16521198 0.17158882 0.16022626 0.062238764 0.25016 0.23622575 0.15567724 -0.41676438
-0.2653245 0.309964 -0.18637449 0.17888889 0.1357317 0.24340041 -0.36438993 -0.2661216
0.08720309 0.23201707 0.1171889 -0.32747322 -0.19661137 -0.07339485 -0.22331423 0.11158636
-0.20800564 0.109137736 -0.19450982 0.14395538 0.07731105 -0.3652168 -0.33347985 0.07136572
0.078511536 0.13697487 -0.18312727 -0.3364201 0.18797283 -0.30668148 0.19300918 -0.24606144
-0.17512776 -0.10666643 -0.5196367 0.13643828 -0.15499623 0.24282455 -0.16897292 0.14572573
0.15675578 0.13983221 0.1577005 -0.24655363 0.12390433 -0.16704202 -0.2464838 0.14085338
-0.18879561 0.16212325 0.20726696 0.13715737 0.11063664 0.1156103 0.22932635 0.11206904
0.049966015 -0.22768949 0.26099068 0.07321591 0.085886724 0.14404885 0.0489104 -0.1942964
-0.1379946 0.06751565 -0.2274984 -0.20063353 0.11822531 -0.18799959 0.09581271 -0.23988783
0.09579874 0.19496377 -0.17477825 -0.3579932 -0.17817788 -0.13745557 -0.16736682 0.16066882
0.253988 0.084728174 0.07585016 -0.37755874 0.12515752 -0.21377313 -0.4354054 -0.2290633
